models/0.1,0.1_sigma_2Agents_region_multiple_Agentsc6d95368.pth (torch, 342234 bytes, 68 tensors)

Network_stack.0.0.gru.weight_ih_l0 f4 [96, 2]
000000 2f fd 99 bd 9a e2 f7 bd 38 83 f8 bd 67 de 01 3b
       -0.07518994 -0.12103768 -0.12134403 0.00198164
000010 e7 e2 fd 3d 53 45 17 3e ff 1f 16 be 92 6a 1d 3e
       0.12396794 0.14772539 -0.14660643 0.15372685
000020 dc 52 47 3e cd 13 94 3d 98 0c 06 bc 84 11 5f bd
       0.19465202 0.07230339 -0.0081817135 -0.054460064
000030 e9 fa ed bd 12 37 f1 bc c4 4b a3 be b9 63 7f 3e
       -0.11620123 -0.029445205 -0.31893742 0.24940385
000040 dd 9d b3 bd f8 a4 9f 3d 92 22 bf bc dd c4 e9 bd
       -0.087703444 0.07795137 -0.023331914 -0.11414502
000050 00 b4 da 3d 2d 4b 37 3d e5 a6 8b bd 1a 2b c3 3e
       0.106788635 0.044749428 -0.06818942 0.3811882
000060 b0 99 3b 3d 95 f4 de 3d ed 98 94 3d 10 94 08 3e
       0.045800865 0.10886494 0.07255731 0.13337731
000070 54 63 a7 bd 60 1b 9d 3d 1b b7 22 bd 25 53 6c bd
       -0.08173242 0.07671237 -0.039725404 -0.05769648
000080 53 72 07 bb 9d cd 15 be 30 bd 4c be 51 83 c7 bd
       -0.0020667508 -0.14629216 -0.19994044 -0.097418435
000090 6e 7c f3 3d a6 6c 19 bc d2 d6 bd 3d 08 1d 4f bc
       0.118889675 -0.009364283 0.09269489 -0.012641199
0000a0 8a 28 73 bd a3 ff ad bd 7e 99 a3 3d 57 0d 22 be
       -0.059364833 -0.084960245 0.07988261 -0.15825401
0000b0 cf 2f 0c be a7 9d c7 bd 8d 49 40 be a3 88 23 be
       -0.13690113 -0.09746867 -0.18778057 -0.15970092
0000c0 cb 34 6c 3e 44 0b db 3c 2a 97 a6 3c 45 85 8d bd
       0.23067014 0.02673877 0.020335753 -0.06910185
0000d0 43 a3 fe bd a1 ca ff 3d c5 28 de bd 33 92 42 3e
       -0.124334835 0.1248982 -0.1084762 0.19001083
0000e0 0b 48 c3 be 37 e1 b7 3d bb 93 3c 3e ac 64 d1 3d
       -0.38140902 0.08978503 0.1841573 0.1022428
0000f0 69 64 7d 3d 12 87 42 be f7 3a 0b be 66 a1 10 bc
       0.061863337 -0.18996838 -0.13596712 -0.008827543
000100 54 0d 38 bd 07 07 5a 3e f9 46 4e 3d cf 8c 1b bf
       -0.044934586 0.21291743 0.050360654 -0.6076173
000110 61 82 0b 3f d5 81 4c bf 82 2f 0e bd 2c 0d dc bd
       0.5449582 -0.7988561 -0.034713276 -0.107447
000120 d6 22 72 bf e2 ed c3 be 22 56 98 3e 9a 7e 59 be
       -0.94584405 -0.38267428 0.29753214 -0.21239701
000130 83 19 a7 bd 6e 6a 1e be 8f ea 47 bf e3 76 b1 bd
       -0.08159163 -0.15470287 -0.78092283 -0.08665254
000140 17 d9 18 3e bc 2a 18 3e bb 96 8b be 07 5c 95 be
       0.14926563 0.14860052 -0.27263436 -0.29171774
000150 7f 4b a8 be 65 49 54 be 71 76 96 bf 48 d5 09 bf
       -0.328701 -0.20731123 -1.1754895 -0.53841066
000160 9f 52 34 3e 26 74 7d 3d a1 c8 9f 3e 5c 3c 0c 3f
       0.17609642 0.061878346 0.31207755 0.547796
000170 60 4e 80 be 29 8f 16 bf e4 45 22 bf 9c 77 81 be
       -0.25059795 -0.58812195 -0.63387895 -0.25286567
000180 f6 e2 c9 3d 81 c6 69 bd 05 d7 0d 3e a0 56 02 3e
       0.098577425 -0.057074074 0.13851555 0.12728357
000190 9f d5 3f be 6d c1 01 3e 6e 2e 90 be 35 17 7e 3d
       -0.18733834 0.12671442 -0.28160423 0.06203385
0001a0 b8 94 b3 3e 58 06 76 bb 7c d2 3d 3d 5e b6 13 3e
       0.350744 -0.0037540402 0.04634331 0.14425036
0001b0 44 8b ae be 98 bb af bf 7a 96 ac 3d 43 64 f1 3d
       -0.34090626 -1.3729124 0.084271386 0.117867015
0001c0 f9 50 18 be 99 d7 37 bd 8e 20 05 3f 17 0e 89 3d
       -0.14874639 -0.044883344 0.520028 0.066921405
0001d0 60 60 19 bf df f1 ff bd 01 5f 7f 3d f0 13 29 3e
       -0.5991268 -0.12497305 0.062346462 0.16511512
0001e0 5a ca 84 bf 40 73 b7 be f6 e7 fd 3d 10 a6 90 3c
       -1.0374253 -0.35830116 0.12397759 0.01765731
0001f0 b5 be 8d be 2f f0 8f 3b cc a9 dc 3b 25 a9 8a be
       -0.2768456 0.004392646 0.0067341086 -0.27082172
000200 28 81 19 3e 30 ad 03 be 0e 43 b3 3d 06 42 3f 3d
       0.14990675 -0.12859035 0.08753024 0.046693824
000210 58 5c 61 3e b4 f1 19 3e 58 a2 e1 bd ee 84 aa 3d
       0.22007883 0.15033609 -0.11017293 0.083261356
000220 c9 d0 41 be 3e 4e e2 3d 7f 1f f7 bc 46 a5 94 bd
       -0.18927301 0.1105008 -0.030166386 -0.07258086
000230 a0 6f 4f 3e 81 d9 62 bd 67 53 61 3e 59 21 45 be
       0.20257425 -0.05538321 0.22004472 -0.19251002
000240 85 a7 0b 3e 5b df 26 3e 0f 57 26 3e 7a 02 1b 3d
       0.13638122 0.16296141 0.16244148 0.03784416
000250 26 71 74 3e bd eb a6 bd 11 e8 d0 3e d5 ee 0d bd
       0.23871288 -0.08150432 0.40802053 -0.034651596
000260 22 17 c0 3d fc 7d 60 bc e7 8e 3b be ae e3 16 3e
       0.09379412 -0.013701912 -0.18316232 0.1473529
000270 53 30 65 3d 73 0d af bd 9a b9 16 3e e0 c1 24 be
       0.05595429 -0.08547487 0.14719239 -0.16089582
000280 9a 4d 73 3d 20 52 b8 3d 02 73 c9 bd 0e 21 7d 3d
       0.05940018 0.09000039 -0.09836389 0.0617991
000290 51 2d 8b 3d 97 63 0b be 87 39 54 bd 71 67 20 bd
       0.06795753 -0.1361221 -0.051812675 -0.03916115
0002a0 5f f5 bb 3c 7f 7f d3 bd e1 ac f4 bd 09 4b 11 be
       0.02294415 -0.10327052 -0.119470365 -0.1418878
0002b0 1c 21 4c be c2 59 9a bd fe 69 23 be 24 8c 54 3c
       -0.19934505 -0.07536651 -0.15958402 0.012972865
0002c0 4a 5b 4b be 9d 89 b7 bd d9 4f 00 3e 2d 98 bd bb
       -0.19859043 -0.089617945 0.1253046 -0.005785963
0002d0 5a 18 9d 3e c2 5d a3 3d 37 75 b9 bc e1 6a 9a 3d
       0.3068264 0.07976867 -0.0226389 0.07539917
0002e0 1b a4 10 3f 01 70 8a bd 06 d9 6f 3e f8 07 dc 3d
       0.56500405 -0.06759644 0.23422632 0.107437074
0002f0 d4 fe 4c be 2c c2 fc bd ef 80 f9 bd b8 44 d1 3d
       -0.20019084 -0.12341723 -0.12182795 0.10218185

Network_stack.0.0.gru.weight_hh_l0 f4 [96, 32]
000000 66 74 90 bb c7 1e b1 3d 85 f3 00 be 74 6c 04 be
       -0.004408407 0.086484484 -0.12592895 -0.12931997
000010 0b 7e 02 be e2 28 6c bd 53 3c de bd da ca 82 3d
       -0.12743394 -0.057656176 -0.1085135 0.06386347
000020 91 f2 11 3e 99 81 15 3e a1 38 c6 bc 2f 80 32 3e
       0.14252688 0.14600219 -0.024196925 0.1743171
000030 19 88 eb bc a5 a9 26 3e 59 f3 82 3d af 7d 85 bd
       -0.02875142 0.16275652 0.06394071 -0.06518113
000040 50 8f 7d bd f4 1f e5 bc 9c ef 19 3d 30 57 87 bc
       -0.06190425 -0.027969338 0.037582025 -0.016521066
000050 19 61 1e 3e a9 3e 01 be ef f9 90 bd 9c 68 1e be
       0.15466727 -0.12621559 -0.07078921 -0.15469593
000060 84 60 dd bd 5a 91 0a 3d c1 4e 27 3e 51 b7 2b 3c
       -0.108094245 0.033830024 0.16338636 0.010480718
000070 f5 78 27 be 52 8f 22 3e 3e f0 e6 bd 59 1b f5 3d
       -0.16354735 0.15874985 -0.11276291 0.11968107
000080 8a 08 9b bd 6f 98 49 be 35 df ee bd 02 64 bb bd
       -0.07569988 -0.19687055 -0.11663667 -0.09149934
000090 a6 e3 70 3d a9 ce 02 3e 5e d0 3c 3d 61 84 b1 bd
       0.058810852 0.12774147 0.046097152 -0.086678274
0000a0 a2 f5 97 bd 04 55 67 3c 55 de 0c be 29 eb 25 3e
       -0.074198976 0.01411939 -0.13756688 0.16202988
0000b0 45 0f 26 be 4e 5f 95 3b 9a dc cf 3d 18 b0 db 3b
       -0.16216762 0.0045584803 0.10149498 0.0067043416
0000c0 56 ba 9f bd 72 ad 16 be bb d5 dd 3d 3b 9d ed bd
       -0.07799213 -0.14714602 0.108317815 -0.11602255
0000d0 bf 0b 5c 3e 6d 40 2d 3e b6 37 bd 3c 81 78 30 3e
       0.21488856 0.16919108 0.023097854 0.17233469
0000e0 b7 78 8d 3c aa 1e 68 3b 5c 2a 4f bd 7b 7e 21 3d
       0.017269475 0.0035418668 -0.050577506 0.03942726
0000f0 1d 76 f0 bd 14 11 60 bd 2c af 49 bc 9c 9b 62 3e
       -0.11741278 -0.054703787 -0.012309831 0.22129673
000100 15 9b d1 bd 9f f3 2c 3e c1 f7 a9 be 88 38 79 be
       -0.10234658 0.16889809 -0.33196834 -0.24337971
000110 28 78 58 be 68 63 38 3e b1 03 fa 3a 0c d2 35 3d
       -0.21139586 0.1800667 0.0019074586 0.04438977
000120 3b 06 9f 3c 4b b4 33 3e c7 46 9a bd 67 1d e7 3d
       0.01941215 0.17549245 -0.07533031 0.11284905
000130 72 06 32 3e bb db 01 3e 3a 05 50 3e de 2a bf 3e
       0.17385271 0.12681477 0.20314494 0.37337393
000140 b1 46 bf 3c 98 d3 81 bc a0 e4 91 bd e4 18 0b 3e
       0.023349138 -0.015847966 -0.07123685 0.13583714
000150 30 33 c6 bc bc 9e 8d be b7 ca 40 bd 3c ca 65 bd
       -0.02419433 -0.27660167 -0.047068324 -0.05610107
000160 47 b7 7d 3d ca 82 f3 bd d8 08 72 b9 44 09 71 be
       0.061942365 -0.118901804 -0.00023082213 -0.23538691
000170 7e b4 80 3d 96 5e 3b 3e 56 d7 ae bc 9b 5b 63 bd
       0.06284426 0.182978 -0.021342915 -0.055507284
000180 0e 6c 1b 3d 22 fc b4 3d fd 1b 72 bc 00 7b 08 be
       0.037944846 0.08837153 -0.014777181 -0.13328171
000190 87 6d 20 be 7a 0c dd 3d f9 59 1b 3d b6 bb c3 3d
       -0.15666781 0.10793395 0.0379276 0.095572874
0001a0 bd 9d 18 3d 13 ca df bd 4d 37 3c 3d 51 96 b9 3d
       0.037259806 -0.109272145 0.045951176 0.09061874
0001b0 59 ee 07 bd d7 8d 08 3e c0 b0 a1 3d f3 57 17 3e
       -0.03318629 0.13335358 0.078950405 0.14779644
0001c0 38 fa 40 3e 0e e2 1f be 18 0a 4f 3d cd 34 48 bd
       0.18845451 -0.15613577 0.050546736 -0.04887848
0001d0 8a b5 f2 3d c5 52 0e 3e 06 ca 53 3d 8c 86 ad 3d
       0.11851032 0.13898762 0.051706336 0.084729284
0001e0 c1 57 3b bc 65 fe 1d be 2b 2e 88 3d aa f8 0a be
       -0.011434496 -0.15429075 0.06649431 -0.1357142
0001f0 2b 03 0a 3e ba 77 f7 3d 33 0d 35 3d 19 a8 83 bd
       0.13477771 0.12083383 0.04420204 -0.064285465
000200 1b a7 72 bd 96 9d ec 3d 7f c1 16 be ee 40 9b bd
       -0.059241395 0.11553495 -0.1472225 -0.07580744
000210 22 f2 b3 bd 3b a6 b4 3d 3b 5d 09 3d f3 81 07 3e
       -0.087864175 0.088207684 0.033536177 0.13233165
000220 ca 2b 20 bd e5 25 43 bd 54 60 8c 3e 83 ab 74 3e
       -0.03910426 -0.04764356 0.27417243 0.23893552
000230 97 79 69 bd 6b 1e 8c be f9 6c 01 3d c4 54 c9 3d
       -0.057000723 -0.27366957 0.031598065 0.09830621
000240 44 1d 1b bd c9 dc dc 38 ee 90 21 3e 78 42 25 3e
       -0.037869707 0.00010531542 0.15777943 0.16138637
000250 a1 a0 53 3e 25 b5 00 3e f3 45 11 3d b4 90 8c bd
       0.20666744 0.12569101 0.0354671 -0.068635374
000260 63 35 86 3d ac 50 31 3d 1d 2f c5 3d fa c8 6d 3d
       0.065531515 0.043289825 0.09628127 0.058052994
000270 20 6c 89 3e 8c e1 fe bd 46 ab 72 3c 7a ab f3 3d
       0.26840305 -0.124453634 0.014811343 0.11897941
000280 88 c1 20 bc 73 a1 8d 3d 52 94 61 3e 48 80 64 3e
       -0.009811766 0.069155596 0.22029236 0.2231456
000290 c5 0c ea 3d da 39 fa bd 43 d2 c0 ba b6 57 10 3e
       0.11428217 -0.122180656 -0.00147111 0.14095959
0002a0 5e 16 f3 3c de 61 a4 bd 3e dd f4 bd ca 6a b1 3d
       0.029673751 -0.08026479 -0.11956261 0.086629465
0002b0 42 2a 33 be 69 d0 97 bd 42 7d ae 3c 15 6b 56 be
       -0.17496589 -0.07412798 0.021299962 -0.20939286
0002c0 b5 1e 39 bc 7f a2 f3 bd 05 a9 85 3d 7a d5 2f be
       -0.011298825 -0.11896228 0.065263785 -0.17171279
0002d0 ca bb 37 3e cc 6e f0 3d fc 4f 3a be 78 4a ce 3c
       0.1794273 0.11739883 -0.18194574 0.025181994
0002e0 ce 07 55 3e 1a fe cd 3c 8a 28 d5 bb b0 ba 82 3e
       0.20803759 0.02514558 -0.006505077 0.25533056
0002f0 5c d6 5f bd 4d 2e 0b be e7 b2 99 bc 58 19 19 3d
       -0.05464779 -0.13591881 -0.018762065 0.037377685
000300 07 10 e1 3d 61 99 86 3d 01 fc 7f be 62 14 05 be
       0.10989385 0.065722235 -0.24998476 -0.12996057
000310 ed 51 2c 3d b0 e3 66 3e b4 20 20 be 9f c7 91 3e
       0.042070318 0.22547793 -0.15637475 0.2847261
000320 f2 17 59 bd b3 8b 09 be 60 31 83 3e ee c5 08 3e
       -0.05300135 -0.13432197 0.25623608 0.13356754
000330 40 bd 66 3d d2 95 51 be 43 d0 fe 3d b4 78 10 3d
       0.056332827 -0.20467308 0.124420665 0.03527136
000340 6f 22 68 3d 92 ee 07 be e4 60 75 3b 4d c7 12 3e
       0.056673463 -0.13274601 0.0037441785 0.1433384
000350 9f 3c 57 3e d8 e6 12 be 72 21 8f bd 8a 3c 93 bd
       0.21019219 -0.14345872 -0.06988801 -0.07189281
000360 b6 fb e3 bd 72 54 3f 3e 8c 5a f2 3c fc 7d fb 3c
       -0.111319944 0.18684557 0.029584192 0.030699722
000370 75 af 29 3e 06 12 bb 3c 3f ca ce 3d 12 da 59 be
       0.16570838 0.022835743 0.10097169 -0.21274593
000380 1f f4 75 be 45 1d 97 bd a6 6b 8c 3e 1c 2b 16 3e
       -0.24018906 -0.073786296 0.2742588 0.14664882
000390 9b 07 1f 3e 09 7c 3e be 78 f6 32 be 2f 37 f8 be
       0.15530245 -0.18602003 -0.17476833 -0.48479602
0003a0 45 a0 15 bd 0a 3f 3e 3e 7b c2 b7 be 95 85 2a bf
       -0.036529798 0.18578735 -0.35890564 -0.6661008
0003b0 a6 0f 3d 3e a4 d4 a3 3e 5d 0d 28 be ac e8 61 bd
       0.18463 0.3199817 -0.16411348 -0.055153534
0003c0 da 38 20 bc f6 3f e8 bb 18 a2 45 bd 19 2e 69 3c
       -0.0097791795 -0.007087703 -0.048250288 0.014232182
0003d0 5f 22 d1 be 25 27 2b be 3e 7c b3 bd 31 6c 09 bc
       -0.40846536 -0.16714151 -0.08763932 -0.008387611
0003e0 16 02 9f bd bf c4 2b 3c 85 0a bf be dd d2 b9 3b
       -0.0776407 0.01048392 -0.37312713 0.005670889
0003f0 00 bb 22 bf 22 75 56 bd 0f 44 c4 3d 2d 55 51 bd
       -0.6356659 -0.0523578 0.09583294 -0.05110662

Network_stack.0.0.gru.bias_ih_l0 f4 [96]
000000 2c 5c 53 bd 57 42 29 be 0b 60 00 bb 60 34 0a 3e
       -0.051601574 -0.16529213 -0.0019588496 0.13496542
000010 8f 59 e4 3d d7 fd e2 bc e0 89 01 3e 98 1f 2b 3d
       0.111498944 -0.02770893 0.12650251 0.041778177
000020 28 b9 d5 3a e4 0d 22 be 10 f0 0f be 10 22 bc bc
       0.0016305791 -0.15825611 -0.1405642 -0.022965461
000030 8d 82 a0 3d f4 a9 4d 3c 78 b2 6f 3d 6c 2e a9 3d
       0.078374006 0.012552727 0.05851981 0.082608074
000040 48 6a ba bd 5d a1 06 bb 2c 70 60 3d 6c 35 0d be
       -0.09102303 -0.0020542957 0.054794475 -0.1378991
000050 1b 8b 9e 3d bb 6b 4f 3d b3 3f 17 3e ce 4f 1c be
       0.07741376 0.05063985 0.14770393 -0.15264818
000060 35 8d 67 3c 60 2e c0 3d e3 5a 83 3c 28 b5 b2 bb
       0.0141327875 0.09383845 0.01603455 -0.0054537244
000070 de 70 9e 3d c1 76 10 3d 23 81 83 be 32 43 81 bc
       0.077363715 0.035269503 -0.2568446 -0.015779112
000080 ef db 38 3e 90 1f 7d be 0a 29 1d be 9b 53 68 3b
       0.18052648 -0.24719071 -0.15347686 0.0035450223
000090 44 f7 9a be 30 7b 5b 3e 49 7a 7c bd a0 dd a6 be
       -0.30266774 0.21433711 -0.061640058 -0.3259096
0000a0 08 c5 1f 3e f5 63 a5 be 71 6f 3f bf 4f ec 95 bf
       0.15602505 -0.32302824 -0.7477942 -1.1712741
0000b0 3e c3 ae bc ba 0f ad bd ad 7e 9f be df 67 be be
       -0.021333333 -0.08450265 -0.31151333 -0.37188622
0000c0 33 32 08 be ea e2 01 be 3f 35 c8 bd 84 ab b8 bd
       -0.133004 -0.12684217 -0.09775781 -0.09017089
0000d0 01 27 04 3e 55 63 7a 3d 07 a6 7b bf 28 b6 19 bd
       0.12905504 0.061129887 -0.9830021 -0.037527233
0000e0 fb 75 8e be e3 81 e3 3e fd 6c 34 bf ef 02 f8 bd
       -0.27824387 0.44435033 -0.704788 -0.121099345
0000f0 d0 4e 56 bf 71 ba 16 be 4c 42 64 be 68 34 7e be
       -0.8371401 -0.14719559 -0.22290915 -0.24824679
000100 64 fa 9b bd a0 7f 09 be 3b 37 2b be fb f7 7a 3c
       -0.076161176 -0.13427591 -0.16720288 0.015317912
000110 86 a4 b0 bd 1f e4 37 3a 60 3b 8e bd ca 5e df 3d
       -0.0862513 0.00070148887 -0.06944919 0.109067515
000120 b6 ad 0e 3e ea 29 e7 bd 03 0e c6 bd be 6f b5 bd
       0.13933453 -0.11287291 -0.09670641 -0.08859204
000130 08 86 3b 3c 94 67 25 3e b5 48 1f 3e d4 3b 32 3e
       0.01144553 0.16152793 0.1555508 0.17405635
000140 2d c9 9e 3d f6 de 6c 3d 28 69 3a bd 08 a4 88 3d
       0.07753215 0.05782982 -0.04551044 0.066719115
000150 10 5e db 3d fe 5d a0 bd 40 28 b1 3d 2b 2a c3 3d
       0.107113004 -0.078304276 0.08650255 0.09529527
000160 ec b9 16 3e ab db 00 be f9 34 2b 3d 6f a0 cc bd
       0.14719361 -0.12583797 0.041798566 -0.09991538
000170 c5 73 eb bb fd 0a 00 bc 52 0c 5b bd ee 12 09 be
       -0.0071854317 -0.00781512 -0.053478546 -0.13386127

Network_stack.0.0.gru.bias_hh_l0 f4 [96]
000000 d1 47 b8 3d 44 56 83 bd 76 46 79 3e a6 c7 dd 3c
       0.08998073 -0.06412938 0.24343285 0.027072739
000010 15 1c 34 be 29 97 de 3c 68 99 af 3c 02 ae 85 bd
       -0.17588837 0.027171688 0.021435454 -0.0652733
000020 06 47 db 3c 08 19 c4 3d 1f 6a c8 3d 2d b1 f7 bd
       0.026767265 0.09575087 0.09785866 -0.120943405
000030 6a 65 0e bd b6 6f 4a 3e ea 93 9b 3a ae 37 25 3e
       -0.034764685 0.19769177 0.0011869643 0.16134521
000040 2e c9 64 3b 29 cc f4 3c 57 48 12 be 8f c0 02 3e
       0.0034909952 0.029882507 -0.14285408 0.12768768
000050 95 68 a2 bc d3 5c 54 3c 4f d9 1d be 8f 07 50 3d
       -0.01982526 0.012961584 -0.15414928 0.05078846
000060 c4 a5 9f bd 40 e6 89 bc 4a 40 a7 bd 42 22 64 bd
       -0.07795289 -0.016833425 -0.08166559 -0.055696733
000070 18 27 10 3d 6e 0a 52 3d f3 a8 8a bd e5 9d 4b 3d
       0.035193533 0.051279478 -0.06770506 0.049711127
000080 f6 c1 fd 3d 7b 98 92 be d1 41 42 bd ef 8d 27 3d
       0.12390511 -0.28631958 -0.04742605 0.040906843
000090 85 1a 0c bf 9b 6f f0 3e 05 7f a7 bd 1f 1c aa be
       -0.54727966 0.46960148 -0.08178524 -0.3322458
0000a0 99 79 a9 3d 18 78 06 bf de 7f 2b bf 18 6a 93 bf
       0.08275146 -0.52527 -0.66991985 -1.1516752
0000b0 3b 5f c4 3d 7e b5 14 bc c1 08 21 be ce 48 c4 be
       0.09588476 -0.009076474 -0.15725996 -0.38336796
0000c0 22 67 3a bd c2 a5 a7 bd 8e 8d 0f 3e b8 18 6d bc
       -0.04550851 -0.08185913 0.14018843 -0.014471225
0000d0 e1 97 f8 3d 17 8a 02 3e d3 8f 8f bf 38 0f 03 3e
       0.121383436 0.1274799 -1.1215767 0.12798774
0000e0 42 78 0b bf 19 e7 02 3f 18 48 14 bf b6 ca f1 bd
       -0.54480374 0.5113388 -0.57922506 -0.11806242
0000f0 01 df 3e bf 04 ba 88 bc be 6f c3 bd 7c 4a 71 be
       -0.74559027 -0.016690262 -0.095427975 -0.2356357
000100 30 e0 23 be cf f1 ee bd d0 c2 2e be 90 16 13 be
       -0.1600349 -0.11667215 -0.17066503 -0.14364076
000110 a0 44 2f 3c 00 d9 32 3e ce 01 5e 3d 0b 90 0f be
       0.010697514 0.17465591 0.05420094 -0.14019792
000120 46 e3 b6 bd bc b9 81 bd 02 fa f7 3d ca 43 3b bd
       -0.08930068 -0.06334254 0.12108232 -0.045718946
000130 7b 44 13 3d 0b 71 d7 bd ab a3 8e 3d df 9f ad 3d
       0.03595398 -0.10519608 0.06964811 0.084777586
000140 67 33 68 3d 50 11 10 3b 7c 8a 19 3d fe 01 aa 3d
       0.056689646 0.0021982975 0.037485585 0.08301161
000150 37 d6 09 be 68 f7 99 3d 09 a6 cb 3d 16 1a ae bd
       -0.13460623 0.07517892 0.09943778 -0.08501069
000160 fb 26 49 be 5d 5d 13 be 7c 9a 26 be 07 58 d8 3d
       -0.19643776 -0.14391084 -0.16269869 0.10563665
000170 33 5c 1d be f5 c6 05 3e aa b9 a5 3c 49 97 a2 bd
       -0.15367202 0.13064177 0.020230133 -0.079390116

Network_stack.0.0.gru.weight_ih_l1 f4 [96, 32]
000000 f6 66 28 3e 7f 1f 5e 3e e3 e8 e1 3d c4 80 30 be
       0.16445526 0.21691702 0.11030748 -0.1723662
000010 c6 22 2e be 70 e5 11 be 81 22 71 bd af 00 34 be
       -0.17005453 -0.1424768 -0.058870796 -0.17578386
000020 55 a1 ad bd 88 92 10 3e f7 41 c2 bc 09 eb 01 be
       -0.08478037 0.14118397 -0.023713095 -0.12687315
000030 46 c9 0f be 8f 48 24 3d d4 ae 2d bd 1e 27 33 3d
       -0.14041623 0.04010826 -0.042403057 0.043738477
000040 76 9a 93 3d 08 6a bd 3c 11 e4 31 bd d3 f4 f1 3d
       0.072071955 0.023121849 -0.04343039 0.11814275
000050 d1 13 14 be 0f cd ed bd 12 42 51 be 88 cf 1a be
       -0.14460684 -0.116113774 -0.2043536 -0.1511823
000060 6f 04 f1 bd 8e e3 42 bd 31 bb b3 bd a1 87 fa bd
       -0.11768424 -0.047580294 -0.08775938 -0.122329004
000070 10 cd 05 3b 98 f2 bf bd 85 cc 50 bd 6b ee 9e 3d
       0.0020416416 -0.09372443 -0.050976295 0.07760318
000080 03 65 83 bc b3 4e d3 3a 63 15 19 bd e4 1f 10 be
       -0.016039377 0.0016121477 -0.03737391 -0.14074665
000090 75 49 37 3e 73 7d 5a bc da 3b 38 3d 00 1f e5 bd
       0.17899115 -0.0133355735 0.044978954 -0.111875534
0000a0 38 dc 51 bd 30 ab 7a 3d 67 a9 70 bd c1 19 11 3e
       -0.051235408 0.061198413 -0.058755305 0.1416998
0000b0 a4 3a 68 3d aa 5a d3 3d 85 b9 55 be 65 7f 19 be
       0.05669655 0.10320027 -0.20871551 -0.14990003
0000c0 c5 69 9b 3d eb 51 0f 3e 35 dc 26 be 32 7f ea bd
       0.07588533 0.13996093 -0.1629494 -0.11450042
0000d0 8f 2a 53 be 17 d9 4a 3d ea 41 3f be 6d 9c 21 3e
       -0.20621704 0.04952344 -0.18677488 0.15782328
0000e0 3f 8d 9a 3d aa a0 fb 3d 7a f3 d8 3d 4e a2 ef 3d
       0.07546472 0.122865036 0.105933145 0.11700879
0000f0 ac 42 c6 bd e1 2a 9c bd b4 f4 74 bc 16 a7 4f bd
       -0.096806854 -0.07625366 -0.01495092 -0.050696455
000100 6b 5f be bd 63 84 38 be bd c5 1e be e1 2b 8a bd
       -0.09295543 -0.18019252 -0.15505119 -0.067466505
000110 f4 df b3 3d 46 20 a2 bd b7 2b 99 3d cd 63 b4 bd
       0.0878295 -0.07916312 0.07479041 -0.08808098
000120 80 4a 31 be 0f 69 1c be e0 84 dd 3d 0d 23 53 3d
       -0.17313576 -0.15274452 0.108163595 0.0515471
000130 d1 47 4a be f3 24 79 bc bd 52 15 be 58 79 46 be
       -0.19753958 -0.015206563 -0.14582343 -0.19382226
000140 0a 00 c4 3c c5 9d 03 3d 84 c5 b5 3d 94 a6 31 be
       0.0239258 0.032132883 0.08875564 -0.17348701
000150 b9 f0 e5 bd 86 fb 67 bc 8e e1 fb 3c 56 e1 c9 bd
       -0.11227555 -0.014159089 0.030747201 -0.098574325
000160 bc 6d b8 bd a0 7a 23 be e2 71 1e bd ad b4 87 ba
       -0.09005305 -0.15964746 -0.038682826 -0.0010353528
000170 95 c5 51 3c 2f 92 0e be 4f 38 5b 3e d9 55 30 3e
       0.012803455 -0.13922952 0.21408199 0.17220248
000180 a7 fd c1 3d d0 56 b0 bd 96 95 49 3e 33 27 22 bd
       0.094722085 -0.08610308 0.19685969 -0.039588165
000190 91 b2 f9 3c e1 11 5c bb a5 d1 f8 3d 33 53 20 3c
       0.030480655 -0.0033579993 0.121493615 0.009785461
0001a0 6d f3 f3 3d 51 c2 f4 3d c6 8a a4 bd 8d 2c 36 3e
       0.11911664 0.119511254 -0.080342814 0.17790432
0001b0 c9 1f 46 3d aa 63 76 bd 60 bd 73 3d 58 dd 96 3d
       0.048370156 -0.06015364 0.059506774 0.07366437
0001c0 f6 50 b9 3b e0 39 f9 3d af 2e c5 bd 35 b6 5d be
       0.0056554032 0.12169242 -0.09628045 -0.21651538
0001d0 e1 17 d3 bd 5f 48 f4 bd a9 5b b4 bd a0 b5 1b be
       -0.10307289 -0.11927866 -0.08806545 -0.15206003
0001e0 47 12 8c 3d 68 46 f1 3d 34 17 2c be 36 7c 39 bd
       0.068394236 0.11781007 -0.16805726 -0.045284472
0001f0 19 d4 37 be 86 f5 17 3b 24 14 e0 3b aa 54 b9 bc
       -0.17952003 0.0023187115 0.0068383384 -0.022623379
000200 d7 0f 8c 3d 97 f2 3e 3e ff 5f 87 bd 2f fc 04 be
       0.06838959 0.18647228 -0.06610107 -0.12986825
000210 63 bf 0c 3e 17 57 0f bd 08 ee 38 be de 9c ef 3d
       0.13744883 -0.034995165 -0.18059552 0.11699842
000220 f6 a0 d8 bd 27 18 e9 bc 57 cc 59 3e 3e cb 29 3e
       -0.10577576 -0.0284539 0.21269356 0.16581437
000230 6d b5 1d bd 71 31 e6 3c b7 62 25 3d bc dc 4d bc
       -0.0385031 0.028099747 0.040377345 -0.012564834
000240 79 25 03 3e d3 59 7d bc 00 47 aa bd 78 10 a2 bd
       0.12807263 -0.01546331 -0.083143234 -0.079132974
000250 0f 1d 8f 3d 1c 37 0e 3e 12 74 fa 3d 4f 70 1a 3e
       0.06987964 0.1388821 0.1222917 0.15081905
000260 1d b4 3b 3d d3 a7 1f bd 05 58 db 3d 22 90 0c 3d
       0.045826066 -0.03897841 0.10710148 0.034317143
000270 2d dc 79 ba cb 2a c0 bd 7a 4d ca 3b 64 f8 d3 3d
       -0.0009531405 -0.09383162 0.0061737867 0.10350111
000280 59 ea 0e 3d 45 65 e2 3d 47 29 75 3e 28 51 24 bd
       0.03489146 0.11054472 0.23941527 -0.04011646
000290 51 b8 0f 3e de 86 88 be 5d ea 41 bd 2e 0a 0f be
       0.14035155 -0.26665395 -0.047342647 -0.13968727
0002a0 2c f3 21 bd 23 be e9 3d b9 da 90 bd d5 69 b4 3d
       -0.039538547 0.11413219 -0.07072968 0.08809248
0002b0 6e e0 7f 3d 66 92 56 bd 05 78 16 be fb 23 10 be
       0.062469892 -0.05238571 -0.14694221 -0.14076225
0002c0 0c e2 ff bc f0 5a 52 bd b5 fa ec bd c1 11 ab bd
       -0.031235717 -0.051356256 -0.11571256 -0.08352996
0002d0 dc e3 d6 bd c0 b7 cd bd 1a f5 fa bd 1c 8c 73 3d
       -0.104926795 -0.10044813 -0.12253781 0.05945979
0002e0 f9 da ec bd 06 ba 39 3d fc c3 5e bd 45 68 fe 3b
       -0.11565203 0.04534342 -0.054386124 0.0077638947
0002f0 7b c6 b8 3b e8 88 19 be af 7e 0d 3e 20 65 8c bd
       0.005638895 -0.14993632 0.13817857 -0.068552256
000300 e2 e4 8e 3d 2d 87 36 3e c9 31 03 be 85 d7 43 bd
       0.0697725 0.17825003 -0.1281196 -0.047812957
000310 e2 b2 9c 3d 15 29 b2 3d 86 07 07 3e eb 1f 41 3e
       0.07651307 0.08699242 0.13186464 0.18859832
000320 45 f1 0e 3e 7f c6 06 3e 40 03 ce 3d 36 77 96 3e
       0.13959225 0.13161658 0.10059214 0.29387826
000330 54 34 fe bd 18 f5 40 bd 3c 22 5b 3d 16 3e e6 3d
       -0.124123245 -0.04710874 0.053499445 0.11242311
000340 03 06 af bd f4 27 4f be 0c 0d 9c bd 32 8f 2d be
       -0.085460685 -0.20230085 -0.07619676 -0.16949156
000350 7a 50 b8 bd 9c ba 88 3c 74 e5 b3 bd 39 72 18 be
       -0.08999725 0.016690545 -0.08783999 -0.14887322
000360 ca 8f ec bb 95 1f 0a bd b0 05 56 3e 2c ea 58 bc
       -0.0072192894 -0.033721525 0.20900607 -0.013239425
000370 5a ad a9 bc db 32 8c bd 9a cb ea 3d 67 b6 a6 3d
       -0.020712543 -0.068456374 0.11464615 0.08140259
000380 5d c4 18 3d 76 70 e9 3c 35 cb 21 bd cd 76 cc bd
       0.03729664 0.028496008 -0.039500434 -0.09983597
000390 ca c0 d9 3d 91 81 1c 3e 7e fa 48 be 3b b3 a4 3d
       0.10632475 0.152838 -0.19626805 0.08041998
0003a0 83 89 20 3e 8e 02 36 3e 26 85 9c bc e6 2d 2b be
       0.15677457 0.17774412 -0.019106459 -0.16716728
0003b0 88 09 e2 3d 35 5d 64 3d 09 08 f9 3d 66 79 97 3d
       0.11036974 0.05575295 0.12159736 0.07396202
0003c0 f0 fa 3b 3e 7a 96 b5 bd eb ee b4 bd b7 9d 3e 3e
       0.18357444 -0.08866592 -0.088346325 0.18614851
0003d0 2d 05 12 3d e9 58 0d be 25 8c 0c bd b0 4e c2 3d
       0.035649467 -0.13803448 -0.03431334 0.09487665
0003e0 ef f0 cb 3d 37 18 3c 3e 6a 9d ac bd 53 bf 55 be
       0.09958064 0.18368612 -0.08428462 -0.20873766
0003f0 9b 88 25 be 19 b2 5e 3e a8 94 46 be b8 a2 f4 bd
       -0.16165392 0.21747626 -0.19392645 -0.11945099

Network_stack.0.0.gru.weight_hh_l1 f4 [96, 32]
000000 dd 9f d4 bd 2f 9d 90 3d a8 ce 0d 3e e8 58 95 3d
       -0.10382054 0.070612304 0.13848364 0.07292348
000010 06 89 5c bd 25 c4 5c bd dc 00 2c 3d 53 b3 17 bd
       -0.053841613 -0.053897996 0.041993007 -0.03703625
000020 93 17 01 3e ce da 75 bd 2d fc 10 3a 27 e1 94 bd
       0.12606649 -0.06002312 0.0005530741 -0.07269507
000030 f3 05 e7 bd 47 16 82 bd 96 c0 8c bc 23 1c 29 be
       -0.112804316 -0.06351905 -0.017181676 -0.1651464
000040 31 84 40 3e d3 4c 47 3e bf 2d 0d 3e 97 f5 a9 bd
       0.18800427 0.194629 0.13786982 -0.08298796
000050 c4 8f 79 bc 9c b8 c3 bd 40 36 af bd f7 84 10 3e
       -0.01523203 -0.09556696 -0.08555269 0.14113222
000060 ba f4 10 bd 43 c3 84 bc 10 c4 f4 3d b3 b0 ba bd
       -0.03538964 -0.01620639 0.119514585 -0.09115734
000070 90 fa 59 3d 1e 16 17 be 3b a7 33 3d 1c 70 46 3e
       0.05321747 -0.14754531 0.043860655 0.19378704
000080 25 eb b7 3d 08 6c f2 3c d1 0b 2d 3d 05 9b e3 3d
       0.08980397 0.029592529 0.042247597 0.11113552
000090 ad 83 e2 3d 3f e7 02 be 3e 0a 15 bd 67 c1 b6 3d
       0.110602714 -0.12783526 -0.03638672 0.08923607
0000a0 e6 8e 2c 3e da 4b a1 3d ba ce f1 3c 6b a5 fe 3d
       0.16851386 0.07875796 0.02951752 0.12433895
0000b0 4f cb 01 3e 6e c9 d8 bc 99 37 bc bd f0 80 1b 3e
       0.12675212 -0.026463237 -0.09190292 0.15185905
0000c0 68 70 d9 3d df 1b 98 3c f0 93 d8 3b ac 9f 20 3b
       0.10617143 0.018567977 0.0066094324 0.0024509234
0000d0 e1 bc bf 3a d8 eb 8b bd 6c 03 4e 3d 22 62 17 be
       0.0014628434 -0.06832093 0.050296232 -0.14783528
0000e0 37 52 4c 3d c8 d4 ae 3d 89 5b 4d be af 45 d8 3d
       0.049883094 0.085366786 -0.20054449 0.10560166
0000f0 25 05 23 bc 6a 64 13 3d 13 62 ad bd 09 1e 70 3d
       -0.009949957 0.035984434 -0.08465972 0.058622394
000100 0a fb 93 bd 77 93 a8 3c 22 a3 50 3e 19 64 10 3e
       -0.07225616 0.02057813 0.2037473 0.14100684
000110 d9 c0 3a be 4c 0c 8e 3d 5a d0 21 bd fb 1f 0c be
       -0.18237628 0.06935939 -0.03950534 -0.13684075
000120 b2 2f 23 be 72 86 99 3d 2f 41 30 3d af 01 31 3d
       -0.15936163 0.074963465 0.043030914 0.043214496
000130 0e f8 01 3e 69 e4 1c be f2 7e bf bc 1b 2b 17 bd
       0.12692282 -0.15321507 -0.023375962 -0.036906343
000140 4c db 70 bd 8f c5 1f 3e a2 16 25 be 03 71 37 bd
       -0.058802888 0.15602706 -0.16121915 -0.04478551
000150 34 89 fc 3d d2 b4 40 be ba 4e 6c bc a7 25 43 be
       0.12330857 -0.18818977 -0.014423067 -0.19057332
000160 a4 92 0a be c1 5e b0 3d 27 18 1a 3e cb 4c f4 bd
       -0.13532501 0.08611823 0.15048276 -0.119287096
000170 8a da 0f bd 79 f1 fc bc 32 80 86 3d 80 35 32 be
       -0.035120524 -0.030876862 0.0656742 -0.17403221
000180 51 92 ea bc 68 6e 0d be e7 9f 1f bd 09 a0 d6 bd
       -0.028634222 -0.13811648 -0.038970854 -0.10479743
000190 eb 69 ed 3d c9 cd 12 3e 6b 93 61 bd df af b4 3d
       0.11592468 0.14336313 -0.05507223 0.08822607
0001a0 7b 8d a0 3d 24 32 cb bc 11 09 ad 3d 83 0f c7 3d
       0.07839485 -0.024804182 0.08448995 0.097197555
0001b0 4d d5 19 3d 34 2c 89 bb 28 98 54 3e 94 72 43 3d
       0.037556935 -0.0041861776 0.20761168 0.047716692
0001c0 bc bb 23 be ff 00 ca 3c af a3 af bc 54 07 20 be
       -0.15989584 0.024658678 -0.021440355 -0.15627795
0001d0 28 ee 17 3e fe 4f 8b bd 95 37 30 be 3c c3 18 3e
       0.14836943 -0.06802367 -0.17208703 0.14918226
0001e0 56 3f ab bc 3d 8d b8 3d ae 60 3f be bc 56 2d 3e
       -0.020904224 0.09011314 -0.18689224 0.16927618
0001f0 a2 42 90 3c e5 7b c7 3d d0 68 35 3e 56 6e a7 3d
       0.017609898 0.09740428 0.17715764 0.08175342
000200 23 94 51 3c d1 41 48 3d ed e5 91 bd 31 c4 02 bd
       0.012791666 0.048890892 -0.07123933 -0.031925384
000210 d8 86 43 be 89 5e 10 3f 7c 7f 87 3e 62 8b 29 be
       -0.19094408 0.5639425 0.2646445 -0.16557077
000220 e1 e1 16 be 7d e8 85 3e 19 18 fc bd 09 a5 3c 3d
       -0.14734603 0.26153937 -0.12309284 0.046055827
000230 6a 0b 82 3d 39 d2 d1 bd 0c a4 ca 3d 28 07 05 be
       0.06349833 -0.10245175 0.09894571 -0.12991011
000240 95 16 f5 bc 40 a1 3e 3e f0 a3 44 be a6 b5 ec 3d
       -0.029917995 0.186162 -0.19203162 0.11558084
000250 35 0c 9d bd 2e b7 71 3d d9 23 c6 3d c0 46 48 3a
       -0.07668344 0.059012584 0.09674806 0.0007639937
000260 46 74 2d be 1c b1 0b bd df a5 2c 3e 60 34 9d bd
       -0.16938886 -0.03410445 0.1686015 -0.07676005
000270 f1 5e bf bd 35 57 88 3c 56 7b 9a bd 34 13 16 3e
       -0.093442805 0.016643146 -0.07543056 0.14655763
000280 80 70 5c bd 2c 45 20 bd f4 78 2b 3d 14 da 8a bd
       -0.053818226 -0.039128467 0.041863397 -0.06779876
000290 4b f7 65 3d 41 32 a2 be 5b 80 74 be 0e e0 52 be
       0.05614404 -0.31678966 -0.23877089 -0.20593283
0002a0 e2 d7 2b bd 7b e0 9d be a2 c5 ca bd 2f 4d dc bd
       -0.04195393 -0.30835328 -0.09900977 -0.10756909
0002b0 55 c8 9c 3d 78 56 d9 3d f8 0e 2f 3e 70 49 c4 bc
       0.07655398 0.10612196 0.17095554 -0.023960799
0002c0 ae c4 4e be c2 32 23 3d f0 00 df 3d ab f5 bc 3c
       -0.20192215 0.03984333 0.10888851 0.023066362
0002d0 93 13 c6 3d 0c e1 3d 3e d9 b9 af bc c5 a2 ee 3d
       0.09671702 0.1854288 -0.021450924 0.116521396
0002e0 dc 05 90 bc 22 1f 52 3e d7 92 4e be 7e 32 90 be
       -0.017580919 0.20519689 -0.20173202 -0.28163522
0002f0 6b 13 13 bd 3f 88 eb bd ef 02 b6 3d ad 82 86 be
       -0.03590719 -0.11500596 0.08887278 -0.26271573
000300 6e a7 af 3d 5e 39 3e 3e ab 64 ca 3d 81 fc 05 bd
       0.085768566 0.18576571 0.09882482 -0.03271151
000310 93 f9 36 3e 04 8e 4a 3e cc 17 4b 3c e8 93 c7 bb
       0.17868643 0.19780737 0.01239581 -0.00609063
000320 1c e3 0e bc a2 a9 ad bd ab d5 0e 3e d7 8d d3 3d
       -0.008721139 -0.084796205 0.13948695 0.10329788
000330 08 46 4d be e2 c1 2c bd d1 70 3e bc 38 13 06 3e
       -0.20046246 -0.04217709 -0.011623577 0.13093269
000340 27 56 44 3d 3a ec 38 3e 0b 18 e6 ba 2e 78 c6 bd
       0.047933724 0.18058863 -0.0017554773 -0.09690891
000350 25 6f b2 3d 6e 6b f4 bd 2d 15 61 3d 66 0b 9f bc
       0.087126054 -0.11934553 0.054951835 -0.019414615
000360 f5 45 1e 3e 93 b9 b5 bb ea 92 33 be 01 24 63 bd
       0.15456374 -0.005545804 -0.17536512 -0.055454258
000370 3c a9 68 bd b7 ad cd 3d 0e be 10 be 84 ee 77 bd
       -0.05680202 0.10042899 -0.14135 -0.0605302
000380 f5 6a 2b be 18 37 82 3e 75 97 94 3d 8b 1f b2 3c
       -0.1674002 0.25432658 0.07255451 0.021743556
000390 1d 9e f2 3d 22 31 e9 3d f8 1f a5 3e 1c 97 39 bd
       0.11846564 0.113863245 0.32250953 -0.045310125
0003a0 a9 c4 20 3e a6 d3 39 3d bb ed b2 3d 3a e9 b0 bd
       0.1570002 0.04536786 0.0873675 -0.086382344
0003b0 c8 20 14 3b 62 fe 9b 3d 6b 8d 4c be 4e f4 53 3d
       0.0022602547 0.07616879 -0.19975822 0.05174666
0003c0 da ae a9 bd e6 43 78 3e f7 2e 23 be e3 b4 46 3e
       -0.082853034 0.24244651 -0.15935884 0.1940494
0003d0 3a 54 ac 3c e5 2d 13 be 0b 30 85 bc 75 09 c2 bd
       0.021036256 -0.14372976 -0.01625826 -0.0947446
0003e0 85 38 ef bc c5 ff 14 be db b9 9b 3d 49 30 24 3e
       -0.029201755 -0.14550693 0.076038085 0.16034044
0003f0 27 98 74 bc f8 cf 5c 3e 1e d5 58 be 1a ed 9a bd
       -0.014928854 0.21563709 -0.21175048 -0.07564755

Network_stack.0.0.gru.bias_ih_l1 f4 [96]
000000 e5 3d 26 be 8e 28 9e bd 76 ec 4a 3d 13 24 de 3d
       -0.16234548 -0.07722579 0.049541913 0.10846724
000010 79 2e 0e be 6c 14 14 be a3 03 90 3c 08 0f e0 3d
       -0.13884915 -0.14460915 0.01757986 0.10940367
000020 2e 7d 0b 3e e2 dd 69 be d1 a8 34 3d 17 1a 56 bb
       0.13621971 -0.22838548 0.04410631 -0.003266936
000030 8b 55 b0 bd 53 dd 88 3d 51 d4 10 3c 9f 59 21 3e
       -0.08610066 0.06682839 0.008839683 0.15756844
000040 47 33 01 3e 92 5a 56 bd 8c 72 01 3d 53 e7 03 3e
       0.12617217 -0.05233247 0.03160338 0.12881212
000050 9e 17 ad 3c cb 5e f0 bb b7 e7 5d 3c 83 dc 10 bd
       0.021129426 -0.007335519 0.013544015 -0.035366546
000060 44 f2 41 bd 00 04 09 be 52 24 f7 bc 29 4a da bd
       -0.047350183 -0.13380432 -0.030168686 -0.10658676
000070 1e ce 9d 3b 54 70 9e 3d 2b 5b 39 be 79 c7 1e be
       0.004815831 0.07736269 -0.18101184 -0.1550578
000080 8c 52 6b bd 04 16 87 3d c2 12 89 3e 51 dd 83 3e
       -0.05745177 0.06595996 0.26772124 0.2575479
000090 ba d9 a5 3d 8e 3a c7 be ab a2 c3 be 26 b6 18 be
       0.08098169 -0.3891186 -0.38210043 -0.14913234
0000a0 71 a5 67 be 12 96 4e bf b6 83 25 bd c6 82 3c bf
       -0.22621705 -0.8069774 -0.040408812 -0.73637044
0000b0 90 2a 5c bf e5 7f c5 bb cd 9a 00 bc 36 98 1f 3e
       -0.86002445 -0.006027209 -0.007849407 0.15585408
0000c0 71 8f ae 3d ba da 85 3e 54 d5 44 3e 9a 6b 73 3c
       0.08523453 0.26143438 0.19222003 0.014857197
0000d0 00 48 ff 3d 83 44 69 be 11 18 24 3e 94 e7 0e 3e
       0.12464905 -0.22780041 0.16024806 0.13955528
0000e0 a5 e3 6d bc ba 74 51 3d 5a 8d 00 be be 71 57 3e
       -0.014519607 0.05113671 -0.12553921 0.21039483
0000f0 fd 05 2a be fa fe e1 3d 45 5c d6 bd 24 2a 1e 3e
       -0.16603847 0.11034961 -0.10466818 0.15445763
000100 35 10 22 be f2 8f 7d bd 83 5d f7 3d 58 99 db bd
       -0.15826495 -0.061904855 0.12078383 -0.107226074
000110 ca 1b be 3c 1e ce 02 be e4 55 8b bd cc 45 01 3e
       0.02320661 -0.1277394 -0.06803492 0.12624282
000120 b9 07 ef bc b9 40 f7 3c a2 80 87 3d 19 ff 29 3e
       -0.029178487 0.03018223 0.06616332 0.16601218
000130 58 1d 0a 3e d3 1b e0 bd c6 e8 0e be 3c 3b e8 bd
       0.13487756 -0.10942807 -0.13955984 -0.11339423
000140 5b ba 50 3e 5b 45 11 bc 41 e8 01 be 1c d4 15 3e
       0.20383589 -0.008866633 -0.12686254 0.14631695
000150 02 47 aa bd c5 d2 1d 3e e6 e9 a9 3b ce e8 85 3c
       -0.08314325 0.15412433 0.0051853536 0.016346361
000160 83 4a ba 3d 40 34 bb 3d 4e 7d 3b 3d 13 18 4b bb
       0.09096243 0.09140825 0.045773797 -0.003098969
000170 a5 4f a3 3d 7d f3 a0 bd 5d 19 02 bd 56 54 3c 3b
       0.07974175 -0.07858942 -0.03176247 0.0028736792

Network_stack.0.0.gru.bias_hh_l1 f4 [96]
000000 e7 05 e8 3d 9a b9 04 3d 26 29 5b bd eb 2c 02 be
       0.11329251 0.032403566 -0.05350604 -0.12712447
000010 e1 e4 a8 3d 80 62 32 be b2 94 fd bd ad 4f 2b 3e
       0.0824678 -0.17420387 -0.12381877 0.16729613
000020 a2 e5 0c 3e 30 87 99 bc 20 14 b5 bd 76 fc 2a bd
       0.13759473 -0.01874122 -0.08841729 -0.04174467
000030 57 24 04 bd 21 3b 3c 3e 15 3e 29 3e 85 f6 e9 bd
       -0.03226122 0.18381931 0.16527589 -0.11423973
000040 31 b9 b3 bd d2 5b ec bd 66 0c 2c bd e2 9a b8 bd
       -0.08775557 -0.11540951 -0.04200401 -0.090139166
000050 ca 91 cc bd de 92 c8 3d 4a 61 1f 3e a7 8e 25 bd
       -0.099887446 0.09793638 0.15564457 -0.040419247
000060 d8 c7 3f be 99 76 13 3e f8 84 5b bb 59 00 87 3d
       -0.18728578 0.1440071 -0.0033496004 0.06591863
000070 29 4f d1 bd 7f a2 08 3e 10 9b 81 bc d1 46 e2 3d
       -0.10220177 0.13343237 -0.01582101 0.110486634
000080 40 fe 0b be 46 90 01 bd 8f dc fd 3d b4 94 a0 3d
       -0.13671207 -0.03163173 0.12395584 0.07840863
000090 e1 d7 24 3e 5b 85 f1 be bd 1d ac be 5b 15 b0 bd
       0.16097976 -0.47172055 -0.33616439 -0.08597823
0000a0 f0 0a 44 be ff d8 2d bf 9c 30 56 3d 78 62 4f bf
       -0.19144797 -0.67909235 0.05229245 -0.81009626
0000b0 4c 5d 32 bf 6c 6a 15 3e a7 44 f8 bc a4 63 f7 bd
       -0.6967361 0.14591378 -0.030306173 -0.12079552
0000c0 b9 23 0b be df c1 42 3e ff 5d 13 3e 70 33 18 3e
       -0.13587846 0.19019268 0.14391325 0.14863372
0000d0 61 7f 18 3e 39 b2 b3 bd 7e 6b 1a 3e e7 14 c9 bc
       0.14892341 -0.08774228 0.15080068 -0.0245461
0000e0 22 09 35 3e 2b ed fb 3d 12 44 cf bd 94 ed 86 3d
       0.17679265 0.123010956 -0.10120405 0.06588283
0000f0 2b 13 3d be 8d 3f 29 be 1f bf 22 bd 07 90 09 3e
       -0.18464343 -0.16528149 -0.03973305 0.13433848
000100 eb 93 a2 3d cf d9 dd 3c 1a 34 c8 3d 81 c4 00 be
       0.07938369 0.027081398 0.097755626 -0.1257496
000110 e8 2f 8a bb fc a2 20 bc 87 b5 1f 3c 65 97 8c 3d
       -0.0042171367 -0.0098044835 0.009747869 0.06864814
000120 7f cc 0f be 21 30 a6 3d 68 88 bf 3c 5a 85 01 be
       -0.14042853 0.081146486 0.023380473 -0.12648526
000130 12 e5 39 bd aa fa ee 3d 5a 69 46 bd 18 86 be bd
       -0.045384474 0.11668904 -0.048440315 -0.0930292
000140 1c 3c be bd cc 7c a2 bb 66 c1 7f bb 66 e8 01 3e
       -0.09288809 -0.0049587246 -0.0039025187 0.12686309
000150 36 38 ed bd 43 a7 18 3d fc 4c 04 3d e7 5a 19 be
       -0.11582987 0.03726889 0.03229998 -0.14976083
000160 cc d0 f7 3d fb 56 ce 3d b6 3d 1b be 6a fa 99 b9
       0.12100372 0.10075184 -0.1516026 -0.00029369007
000170 0d 97 b0 3d 0a 27 31 be 33 22 b5 3d eb ad 52 bb
       0.08622561 -0.17300048 0.088444136 -0.003214712

Network_stack.0.1.gru.weight_ih_l0 f4 [96, 2]
000000 d4 91 cd bd 94 d2 3f bd 1c ac 00 3e 50 7e 4c 3e
       -0.1003758 -0.046831682 0.12565655 0.1997006
000010 ff 7b 33 bd 17 bd b9 bd cd da 34 be c1 58 0c bd
       -0.043819424 -0.09069269 -0.17661591 -0.03426433
000020 5f 63 e5 bd f5 c3 81 bd 04 d9 24 3e ce fa b6 bd
       -0.11200594 -0.06336204 0.1609841 -0.08934556
000030 6f 2a 05 3d d5 f0 b4 bd 74 9b d3 3d be 3b 32 bd
       0.03251117 -0.088349976 0.10332385 -0.043514006
000040 23 2c 01 3e 9b 14 a1 3d 2d ab 18 3d 7e 09 dd 3d
       0.12614493 0.07865258 0.03727262 0.10792826
000050 e4 76 45 3e d6 f6 80 3d d5 48 d9 3d 8e ec a3 3d
       0.19283634 0.0629708 0.10609595 0.080041036
000060 87 21 02 3e cb f0 87 bd 75 36 82 bd c0 fb 35 3e
       0.12708102 -0.066377245 -0.06358043 0.17771816
000070 5f 3e bc 3a e6 aa 21 bd 0f ea 50 bd ce 5f 0a be
       0.001436185 -0.039469622 -0.051004466 -0.13513109
000080 c6 75 a9 bd eb 7d 50 3e 4d 97 85 be d1 62 75 be
       -0.082744166 0.20360534 -0.26091996 -0.23963477
000090 05 16 13 3e 95 ed 11 3e 06 5b 07 be ff b5 9e bd
       0.14363869 0.14250787 -0.13218316 -0.07749557
0000a0 07 c7 04 3e d9 e6 22 be e6 47 5c bd a6 24 51 be
       0.12966548 -0.15908374 -0.053779505 -0.20424137
0000b0 e4 04 c2 bc cc 0c d0 bd 73 13 bb 3d a1 04 1d 3e
       -0.023683973 -0.10158691 0.09134569 0.15333797
0000c0 54 b1 e2 bd c3 ed 02 3e 2b b3 02 bd b8 ed 02 3e
       -0.11068979 0.12786011 -0.03190915 0.12785995
0000d0 b7 fc 54 be 33 65 95 bd 0b 0e b1 bd 38 95 b2 bd
       -0.20799528 -0.07294693 -0.086452566 -0.087198675
0000e0 59 ca 6c bc d2 3b af bd c1 b2 40 3e 34 e1 13 3e
       -0.01445254 -0.08556332 0.18818189 0.14441377
0000f0 2b 5d 94 bd 5f f9 24 3e 78 b3 a9 bd c4 70 d6 3d
       -0.07244333 0.16110753 -0.08286184 0.10470727
000100 83 c5 9e 3e d3 ab 84 bd 20 dd 87 be cb 4b b9 3b
       0.31010064 -0.06478085 -0.26535892 0.005654787
000110 11 db 00 be cd 5d db bd e9 56 76 3e a9 ee 15 3e
       -0.12583567 -0.107112505 0.24056591 0.14641823
000120 b5 a7 1b bc b2 df 5e bc d7 3f 68 bd 7b 5d c7 bc
       -0.009500434 -0.013603138 -0.056701507 -0.024336567
000130 22 5b e5 3d 9c 6a bf bd 0c 42 d5 3d 8e 60 1e 3d
       0.11199023 -0.09346506 0.10412988 0.0386663
000140 a2 38 92 3e 26 df d3 3d 07 6d b8 3e 8a f3 e2 3d
       0.28558832 0.103452966 0.3602068 0.11081608
000150 0f b6 c2 bd 1a 45 b9 bd 76 53 90 3e a9 62 d4 3e
       -0.09507381 -0.09046383 0.28188676 0.41481522
000160 bb 6b d2 3a b4 e1 c4 3c db 59 34 3e f5 ba 78 3d
       0.0016053835 0.024033405 0.17612402 0.06072517
000170 56 45 36 3e 41 ab f5 bd af a3 36 3d b6 a1 5c bc
       0.17799887 -0.11995555 0.044589695 -0.013466289
000180 52 14 1e be da 8f 83 3d aa 1f cc 3e de 6f 03 3e
       -0.15437439 0.06423922 0.39867908 0.12835643
000190 a8 d0 47 be 94 a3 2c bf d4 c1 0d 3e bf 80 8b 3d
       -0.1951319 -0.674371 0.13843471 0.06811666
0001a0 16 0b 71 3e 71 74 91 3e 4b 32 4c 3e 90 b6 aa bc
       0.23539385 0.2840915 0.1994106 -0.020839006
0001b0 c6 b2 22 3e c8 30 77 bd b8 45 93 3e ec 34 a9 3e
       0.15888509 -0.060349256 0.2876413 0.3304819
0001c0 3d 84 b8 3e 95 62 9b b9 f2 3a 91 be 84 43 88 be
       0.3603839 -0.00029637353 -0.28365284 -0.2661401
0001d0 72 0d b2 3e cc 7d 3c 3e 89 a9 48 3e c7 a0 74 3d
       0.34775883 0.18407363 0.19595923 0.05972364
0001e0 f6 75 5a bd 3c e1 9d 3d 92 bf e1 3b 8d be 87 3e
       -0.053335153 0.07708976 0.006889292 0.26512566
0001f0 e7 28 93 bc 81 45 12 3e 24 45 0d bd 80 57 3f 3e
       -0.01796384 0.14284326 -0.034489766 0.18685722
000200 9b 9f e5 3d f3 64 26 be fc 3f 65 bd 42 e8 f1 3d
       0.11212083 -0.16249447 -0.055969223 0.11811878
000210 02 0f 1c 3e d1 77 9b 3b da a7 cc 3d f9 b2 c9 3c
       0.152401 0.004744508 0.09992953 0.024621474
000220 fd 8c 08 3e d3 dd ef bd 44 e1 7b bd e0 4b a2 bd
       0.13335033 -0.117122315 -0.061494127 -0.07924628
000230 38 ef 9b bd e3 f0 ac bd 39 52 ed 3d 49 92 b1 3d
       -0.07613987 -0.08444383 0.11587948 0.0867048
000240 1f c0 5e bc f6 35 ec bd a1 43 14 bd 4e 6a ab 3d
       -0.01359561 -0.1153373 -0.03619731 0.083698854
000250 39 ab 3f 3c f7 6c 89 3e eb d7 f1 bd 65 df d5 bd
       0.0116985375 0.26840946 -0.11808761 -0.10443
000260 9e de 9d bd ff 7e 54 3d ea 28 53 bd 4d bb df bd
       -0.077084765 0.051878925 -0.05155269 -0.10924397
000270 b3 df 02 be 3e c0 39 3e 7a 06 16 be 57 63 06 3e
       -0.12780647 0.18139741 -0.14650908 0.13123833
000280 a7 96 d6 3d 55 4d b5 3d f2 d5 67 3d 0e b0 b8 3b
       0.104779534 0.088526405 0.05660052 0.0056362217
000290 21 e8 18 3c ed 8c 8e bc c3 ea d3 3d 46 7a 16 bd
       0.009332688 -0.017401183 0.103475116 -0.036737703
0002a0 f6 4b 82 3d 3b 26 13 be 80 7c f3 bd 13 85 21 3e
       0.06362145 -0.14370053 -0.11888981 0.1577342
0002b0 0e db 90 3c ae a7 9f bd 60 b5 c4 bd 83 a4 34 3e
       0.017682578 -0.07795654 -0.09604907 0.17640881
0002c0 9f d7 e4 3d 0b 7f bd 3b 30 63 6e bc be 39 a8 3d
       0.11173939 0.005782967 -0.014550015 0.082141384
0002d0 8b db 19 bd 70 8d 13 bd f8 c6 ce 3d e9 82 17 3d
       -0.037562888 -0.036023557 0.10096544 0.03699008
0002e0 cd bb e9 3d 27 d4 ba 3d 5c 48 7c 3d b8 32 e2 3d
       0.11412773 0.09122496 0.061592445 0.1104483
0002f0 ce 89 07 3e a7 74 a5 3c e1 b3 9e 3c 6d a6 b7 bd
       0.13236162 0.020197226 0.019372882 -0.0896729

Network_stack.0.1.gru.weight_hh_l0 f4 [96, 32]
000000 93 d0 42 bd d3 6c f8 3d f9 4a a1 3d fe 2e 36 be
       -0.047562193 0.121301316 0.07875628 -0.17791364
000010 60 0d 17 3e e5 91 81 bd 1b 07 c1 3d 7e 85 3d 3e
       0.14751196 -0.06326655 0.094251834 0.18507954
000020 a6 c2 fe 3c 78 ba 63 3d 11 f2 15 3d 0a 85 67 bd
       0.031098675 0.055597752 0.036607806 -0.05652336
000030 8d 39 70 bd ea 66 48 3d 1d e2 89 bc a1 f4 01 be
       -0.058648635 0.04892627 -0.016831452 -0.12690975
000040 0a 27 0c 3e 5a c1 0f 3d 89 a0 86 bc 5e 41 13 3e
       0.13686767 0.035096504 -0.016433971 0.14380404
000050 ae bf 9c 3d 96 e1 38 be 2b f5 b9 3d d6 d4 93 3d
       0.076537475 -0.18054804 0.09079965 0.072183296
000060 51 fd bb bc fe 72 1c 3d 9d 28 26 bd 48 85 67 3d
       -0.02294794 0.038195603 -0.040566076 0.05652359
000070 80 e6 c8 3d 00 c7 ec bc 93 55 8a bb 46 b4 de bd
       0.098095894 -0.028903484 -0.004221627 -0.10874228
000080 33 b7 0a bc c9 87 68 3d 24 65 12 bd bd 61 d1 3d
       -0.00846653 0.05677012 -0.035740986 0.1022372
000090 e3 ac 39 3e e8 80 2b bd 4f 59 4d bd 50 84 09 be
       0.18132357 -0.04187098 -0.050134 -0.1342938
0000a0 3a 63 cd 3d d9 30 8c 3c 86 f8 9b bd 48 a1 fa 3d
       0.100286916 0.017113136 -0.076157615 0.12237793
0000b0 09 11 83 bc 81 89 8c 3d 2f e6 e7 bd 41 34 2e be
       -0.015999334 0.06862164 -0.11323201 -0.17012121
0000c0 70 b7 22 3e 7d ad 95 bd 9d 1d cf 3d d2 30 cb bd
       0.15890288 -0.07308481 0.1011307 -0.09921421
0000d0 76 54 16 3d d2 7c c2 bd 17 31 5b bd 4d 59 20 be
       0.036701642 -0.09496464 -0.053513613 -0.15659066
0000e0 9d 68 e0 be e0 8f 8a bd b6 f6 c5 bd fb a3 32 be
       -0.43829814 -0.06765723 -0.09666197 -0.17445366
0000f0 f7 13 57 3e 7e f5 10 bd 62 09 c5 bd 34 71 fc 3d
       0.2100371 -0.03539037 -0.0962093 0.12326279
000100 79 bb 24 be 38 2d a5 bd 96 7b b2 3d 4b c0 06 3d
       -0.1608714 -0.080652654 0.087149784 0.03289823
000110 9b 28 48 3d 0f 29 48 3e a1 89 25 bd 23 86 18 be
       0.04886685 0.19546913 -0.040414456 -0.14894919
000120 04 ac 38 3d d4 56 9c 3d 2f 03 e0 bd b6 79 5a bc
       0.045085922 0.07633749 -0.10938107 -0.013334682
000130 24 db 13 3d 57 c8 f5 bc f7 75 ca bd a4 dc 8c 3d
       0.03609766 -0.030002756 -0.09885781 0.06878021
000140 c6 4d dd 3c c0 b4 c6 bd 7a 4a 3d 3e 18 7a 02 3e
       0.027014624 -0.09702444 0.18485442 0.12741888
000150 e0 90 0e be 80 e7 d2 bd 7e 88 10 be 67 95 13 3d
       -0.13922453 -0.10298061 -0.14114568 0.036031153
000160 f7 77 a0 bc 0d ce d3 bd 35 5c 8b 3d a2 b6 db 3d
       -0.019588454 -0.103420354 0.068046965 0.10728194
000170 99 22 1c 3e 80 d4 1e 3d 85 40 f8 3d 84 8a 69 bd
       0.15247573 0.038776875 0.12121681 -0.057016864
000180 b8 fc 93 bb c7 5e 4c 3e a1 f9 c5 bd 63 e6 dc 3d
       -0.0045162104 0.1995803 -0.096667536 0.1078613
000190 9d 22 2b 3e d0 d5 04 3e a0 ba 0b 3e cf d7 8d 3d
       0.16712423 0.12972188 0.1364541 0.06925928
0001a0 a2 50 07 be 7f a7 10 be 3b b1 b1 bd e0 2d fc 3b
       -0.13214353 -0.14126395 -0.08676382 0.0076958984
0001b0 99 28 6a 3c 17 a0 0c 3d 16 3d 6a bd bd d9 c8 bc
       0.014291906 0.03433236 -0.057187162 -0.024517888
0001c0 de 79 9b 3d 71 6c d1 bd 58 99 00 3e 56 dd bb bd
       0.07591604 -0.10225762 0.12558496 -0.09173076
0001d0 37 59 22 be a6 65 dd 3d 18 7b 18 bc 3c 8a 2d 3d
       -0.15854345 0.108104035 -0.009306692 0.04236816
0001e0 0b e5 54 be f4 cf 15 be 28 7d 27 bd da 54 e9 bd
       -0.20790498 -0.14630109 -0.040890843 -0.11393137
0001f0 28 fe 02 be 58 0f 0d be cc 2e 34 be 31 ef e5 bd
       -0.12792265 -0.13775384 -0.17595977 -0.11227263
000200 45 51 73 be f9 32 4d bc 2e 1b 09 3d 2e c7 05 3e
       -0.2376147 -0.01252436 0.033473186 0.13064262
000210 45 65 ea 3d ce 59 2c 3d 30 a5 2b 3e 62 64 a2 3d
       0.11445097 0.042077832 0.16762233 0.07929303
000220 7b 12 e7 bd 59 7a 34 be cb 00 6a 3d 35 9e d8 3d
       -0.11282822 -0.17624797 0.057129662 0.105770506
000230 31 e8 79 3d 15 71 30 3e a2 7b e7 3c 24 b7 81 bd
       0.06101245 0.17230637 0.028257195 -0.063337594
000240 44 16 66 3d 44 bc 08 3e 4f 3c 08 3d a2 05 de 3b
       0.056173578 0.13353068 0.03326064 0.006775574
000250 72 54 8e bd 5a 91 99 bc ff 6a 6b be 13 b3 e9 bd
       -0.069497004 -0.018746067 -0.22990035 -0.11411109
000260 69 07 16 be d5 ee 47 be 2b cc 53 be a5 e8 a5 bd
       -0.14651264 -0.19524701 -0.20683353 -0.08101014
000270 99 e4 53 be c9 2d 5d 3e 53 d0 ad bd 4a db fe bc
       -0.20692672 0.21599497 -0.08487 -0.031110425
000280 9f c7 90 bd ca bb 08 be 1a bd 73 3d c7 ae 48 be
       -0.07069325 -0.13352886 0.059506513 -0.19597922
000290 ff 90 cb bd f6 f1 cf b9 fb 4b b5 3d 42 fb 3d 3d
       -0.09939765 -0.00039662392 0.08852383 0.046382196
0002a0 5a a3 bd bd cd ee ce bd bf 0b 5d 3d e9 1e 67 bb
       -0.092596725 -0.101041414 0.05396628 -0.0035266227
0002b0 fa bd a9 bd c1 bb 8f 3d 7e b2 1b 3e b4 35 df bd
       -0.08288188 0.07018233 0.15204808 -0.10898915
0002c0 ce 9c 08 3e c5 c7 1d 3c 8d 6a 6b bc 24 ff 7c bd
       0.13341066 0.009630148 -0.014368665 -0.06176676
0002d0 8a 66 33 3e ae 9d 11 3e ec 94 12 be 77 83 cb bd
       0.17519584 0.14220306 -0.14314622 -0.09937184
0002e0 7c 33 4f 3d a8 34 f3 3d 12 d6 dd 3d 3e c8 05 3e
       0.05058621 0.11875278 0.10831846 0.13064668
0002f0 b3 fc 0f be 1f 6d c2 bd 26 35 74 bd 7f 15 a1 3d
       -0.14061241 -0.094934694 -0.059621 0.07865428
000300 87 f0 d2 3d 19 af 48 3e 5a 65 a2 3c 5c fd 16 be
       0.10299783 0.19598044 0.019823719 -0.14745086
000310 92 20 17 bd e4 63 13 be 70 be 26 be 44 77 18 3e
       -0.036896296 -0.14393574 -0.16283584 0.14889246
000320 b0 9b 11 be 71 88 9f bc b3 31 d4 3d ec b7 22 3d
       -0.14219546 -0.01947424 0.10361042 0.039726183
000330 76 ef 1e be 3a 00 14 be 89 9e 21 be e3 c7 8e bd
       -0.15521035 -0.14453211 -0.15783133 -0.06971719
000340 0b 75 a7 3d 09 48 37 3e 46 fd a7 3d 96 41 5e 3d
       0.08176621 0.17898573 0.08202605 0.054261766
000350 90 3a 71 bc a3 2d 05 3e f1 f1 eb 3d b0 0e f9 3d
       -0.014723435 0.1300569 0.11520756 0.121610045
000360 c7 6f da 3b 30 47 96 3c 14 25 23 3c f5 b3 03 3e
       0.006666157 0.018344492 0.009957571 0.12861617
000370 65 c2 6d 3c 39 c9 9d bb fd 98 ed bc 48 2d d7 3c
       0.014511679 -0.0048152474 -0.029003615 0.026266709
000380 d4 8e 9f bd a7 ae 18 3e d5 f8 55 be bb 03 c9 bd
       -0.07790914 0.14910375 -0.20895703 -0.09815165
000390 b1 3b 3a 3e a0 6a 2d 3e 95 1b 60 3e 07 62 74 bc
       0.18186833 0.16935205 0.21885522 -0.01491595
0003a0 43 cb 45 3b fd e3 d8 bc ba da f8 bd 4c 72 4c 3c
       0.0030180968 -0.0264759 -0.12151094 0.012478422
0003b0 45 5d 95 bd cb 7e ca bd 89 d2 08 3e 9b 62 17 3c
       -0.072931804 -0.09887465 0.13361563 0.009239818
0003c0 0f 33 05 be 95 23 e2 3d 06 f8 18 3e 45 88 a7 bb
       -0.13007759 0.11041943 0.14938363 -0.00511268
0003d0 2f 29 ad bc fb 22 a9 bd 44 d6 07 be f7 80 1b 3e
       -0.021137802 -0.08258625 -0.1326533 0.15185915
0003e0 e0 de 19 3d a6 9f 2d be 41 f0 e2 bd e5 c0 7d bd
       0.037566066 -0.16955432 -0.11080981 -0.061951537
0003f0 94 74 f2 bb de da 82 3d 65 aa bf bd e0 d6 8a bb
       -0.007399151 0.06389402 -0.09358672 -0.004237041
