models/0.1,0.1_spherical_region_multiple_Agentsb79f8ff8.pth (torch, 86962 bytes, 18 tensors)

Network_stack.0.0.gru.weight_ih_l0 f4 [96, 2]
00000000: f1d6 0e3e ec0d 1f3d ea85 21be 218e 5f3d
00000010: a7d9 733d 2750 e03d 418b 2d3e e142 923d
00000020: ce14 53be ad02 43be 1785 0f3e f467 133e
00000030: 2aae febd 5074 2f3e 234e 923d aeb8 2c3d
00000040: 442c 00bc a2d5 c6bd fe17 12be 99c9 05be
00000050: 7542 c33e 8cd5 903d da2f 10be 12f9 f53d
00000060: b744 86be 4868 78bd 72a5 483d 0802 87be
00000070: 69b7 e63d 0891 70bd d465 103e 7ce3 aabd
00000080: 3464 cd3d a1b9 133e fd75 61bd 3b2a 37be
00000090: baf5 03bf 3fdb 963e 6a4a 483e adf8 1e3e
000000a0: 0a99 2ebe bc34 043e a662 3c3e 056f 9c3b
000000b0: c431 efbd 3ad8 54bd 2828 39be 6f36 1a3d
000000c0: 8d7a 113e ea27 54be 0559 7a3d 56a5 4e3e
000000d0: 8665 b53d 37c8 5bbd 7810 ca3c d739 063e
000000e0: ad24 9c3d c903 bebd ed8f b8bd bf3f a83d
000000f0: 6760 413e 147f 43bd a750 823e 0f13 153e
00000100: ac6d 04bd ec7b 083f a862 16bc dfc8 a0be
00000110: aef5 ffbe 3d87 babd 522a 1abf 4791 003e
00000120: 2ef5 9abe 70c3 40bf fa7c db3d 4803 933d
00000130: dca7 74bc c5f0 ac3e 50a8 11bf 4e6e b7bd
00000140: fb6f e13b 1535 c53d 46b4 9a3e 6fcc 81be
00000150: 5417 42bf a53b 73bc 6bbf e7be 8c75 303e
00000160: fe3b 20bd b031 e33b d6a6 f0be a3a0 79bb
00000170: 6405 2ebf 9e5c 6ebd ec5c 1fbd 9e9f bcbe
00000180: a716 8cbe 8ec0 72be d94e 36bd cf42 f9bd
00000190: 8b07 36bf 04a9 8dbf 417f 06be 9002 bcbd
000001a0: 6fa3 6cbe 61e5 40bf 50fa b1be e6d7 bcbd
000001b0: 7e07 1a3e f18b 9c3e adf9 adbe bc44 9b3c
000001c0: 69a2 1abe b47e 853e 88ed 1cbe 29f1 0b3e
000001d0: c939 773c 4f95 57be f23e b5bd d5a1 3c3e
000001e0: cc6c 303e 54bd a4bd a15f 4fbf b8d0 e8be
000001f0: b237 9fbe 003b 6fbd 043a f0bf 8800 8abe
00000200: cb13 09bd 8e62 54bd 7514 023e 969a 4bbd
00000210: b48a 4bbe c072 203c 3441 f03d 23bf f0bd
00000220: 5c8d 71be 037d f0bd 359f adbd 3e7b e63c
00000230: e1e5 bf3d ecdd 6bbd c8ad 613e 1aa7 d4bd
00000240: 5940 69bc c401 a23d 7cf2 bdbc 1b65 01be
00000250: d6b2 a2be 4d6a 83be 7095 283e b02f 433e
00000260: bb24 2f3e d6c6 6e3e 6a36 09be baca 243e
00000270: 6071 a6be 6bbf eebc 826e b1bd d88d f63d
00000280: a64f bebd 7796 cc3d 2eea 433e 5184 133e
00000290: 82e3 cb3e 9a82 5a3d 6a8b ec3c 7c66 413e
000002a0: d306 83be 3d2e b3bd ea40 4fbe ab0a d73c
000002b0: 6eaf babd 907b cf3c c07e f1bd 5dfb d63d
000002c0: db41 093e c7eb 8cbd cbbc 723e c3df 0e3e
000002d0: a7af ac3d 8963 493d 10fb 21be 535e 80bd
000002e0: 3fa5 003e 0f55 543e 8c27 39be 9ea4 823e
000002f0: 07b3 a0be 9d0c 1abe 83e7 28be 12ba 8c3e
0.13949181 0.038831636 -0.1577374 0.054578904 0.05953374 0.10952788 0.16947652 0.071416624
-0.20613405 -0.1904399 0.14015613 0.14395124 -0.12435563 0.17134213 0.0714381 0.04216831
-0.007823054 -0.09708716 -0.14266965 -0.13065185 0.3813664 0.07071981 -0.14080754 0.12010397
-0.262243 -0.060646325 0.048985906 -0.26368737 0.112654515 -0.058732063 0.14101344 -0.083441705
0.10028878 0.1442628 -0.055044163 -0.17887203 -0.51546824 0.29464146 0.19559637 0.1552455
-0.17050567 0.12910742 0.18397006 0.0047739767 -0.11679414 -0.051964022 -0.18081725 0.03764957
0.14206906 -0.20718351 0.061120052 0.20180258 0.08857255 -0.053657737 0.024666056 0.13108002
0.07624183 -0.09278066 -0.09011827 0.082152836 0.18884431 -0.047728613 0.25452158 0.14558052
-0.032331154 0.5331409 -0.009178795 -0.31403252 -0.49992126 -0.09107826 -0.60220826 0.12555419
-0.30265182 -0.75298214 0.10717197 0.0717836 -0.014932599 0.33777443 -0.5689745 -0.08956586
0.006879804 0.09629265 0.30215663 -0.25351283 -0.75816846 -0.014845763 -0.45263228 0.1723234
-0.039119713 0.0069334134 -0.47002286 -0.0038090132 -0.67976975 -0.058193795 -0.038906977 -0.36840528
-0.27361032 -0.23706266 -0.04450879 -0.12170946 -0.7110526 -1.1067204 -0.13134481 -0.09180176
-0.2310922 -0.75350004 -0.34761286 -0.09220867 0.1504192 0.30575517 -0.3397955 0.018953674
-0.15101017 0.2607323 -0.15324986 0.13666214 0.015089461 -0.2105305 -0.088498965 0.18421109
0.17229003 -0.08043924 -0.81005293 -0.4547174 -0.3109718 -0.058405876 -1.8767705 -0.2695353
-0.03346614 -0.0518518 0.12703116 -0.04970797 -0.1987713 0.0097929835 0.117311865 -0.117552064
-0.2358908 -0.11742594 -0.08477632 0.028134938 0.09370018 -0.057584688 0.22038949 -0.103834346
-0.014236533 0.07910493 -0.023186915 -0.12636225 -0.31777066 -0.2566704 0.16463256 0.1906116
0.17103855 0.23318037 -0.13399664 0.16092959 -0.32508373 -0.02914401 -0.08663656 0.12038773
-0.092925355 0.099896364 0.19132301 0.14405943 0.39822012 0.053347208 0.028875072 0.18886751
-0.25591144 -0.087490536 -0.20239606 0.026250204 -0.09115492 0.025327474 -0.11791754 0.104971625
0.13404028 -0.068809085 0.23704831 0.13952546 0.084319405 0.04916719 -0.15818429 -0.06267991
0.12563036 0.20735572 -0.18081492 0.25516218 -0.31386587 -0.15043874 -0.16494565 0.2748571

Network_stack.0.0.gru.weight_hh_l0 f4 [96, 32]
00000000: 2b40 50bd d569 f9bb 9c69 c7bd e170 bf3d
00000010: aa76 30bd 6f6d 2b3d f7ca 90bc 02b8 133e
00000020: e63b fe3d 30ed 6b3d f2ec 0a3d ff4c 0a3e
00000030: 0b96 073e 307f 51be 3dbe 2fbe 6d5d 62be
00000040: f953 21be 2ff8 26be a899 803d e968 75bd
00000050: ed44 cc3d 14c4 af3b 3484 efbd ba24 84be
00000060: c8a5 b23c ffef a33d 6a20 20be 9561 0dbe
00000070: c26f fbbe c28b bdbe 49ed c3bd 2f70 dabe
00000080: 2c2a 1d3e acf9 fe3d 93a8 50bc 57be 753d
00000090: 2929 533d 390b 24be 7dcb 593a 954e 18be
000000a0: 19b8 c63d da77 12be f6bc dcbd 19a6 503d
000000b0: 4f86 833b 8789 9bbb 1faa 483e 8c9b b0bd
000000c0: a6b0 75bd 2070 8cbd 8e09 873c d166 08be
000000d0: 3daf 073e 78f6 9ebd e855 f4bd 4949 9bbd
000000e0: 9e10 c03d aec4 a8ba 9f18 f9bd 8ef9 263e
000000f0: 028d aa3d 601a 5dbd 76ac eebd 70cb 8bbd
00000100: e97c 7abc f106 093e 3581 973d ba7c c23d
00000110: c644 143c 0a9f 163e 6be1 8abc 43e4 a13d
00000120: e674 4d3d ed16 9bbd 1b96 8d3d c0a8 2c3e
00000130: 78f5 cbbc d73e 243d d472 85bd 5d7b aa3d
00000140: e4e0 0e3e 6d1d 83bd 502a d3bd 0bc2 fc3d
00000150: e540 f0bd bfd6 c9bd 5704 933c fc0f 01bc
00000160: e4d3 30bc d003 3c3e 9083 1fbe 3e17 d03d
00000170: 8d98 4d3e 8b3b b93c 35f2 733d 801f 5dbe
00000180: 3114 54be b071 afbc 5faf bb3d ca40 12be
00000190: efb7 b7bd 0243 13be 530c 2b3e eb34 8c3d
000001a0: c844 a9bd 5009 f93d 3538 343e 8ef0 58bd
000001b0: dc20 763e 54e2 31bd 97b4 2ebd 527a ebbd
000001c0: 1a19 e1bc 8489 ca3d 78e6 f43d 7dec 813d
000001d0: 9516 c43d 29d6 63bd 6ff1 dabd c14a ad3d
000001e0: b28e 16be e811 2f3c d83c f5bc bf4e 2d3e
000001f0: a137 00bd bec1 083e 30f9 79bd 5a9f 413d
00000200: 69ce fbbd 7821 74be 338b d93d 7f76 de3c
00000210: d613 493e 1b08 813e fab3 843d 8c6a a9ba
00000220: 54e6 1cbe 258f 95bd 17b1 4bbd c97c 58be
00000230: 0385 bcbd dacd 953e b414 053e 0537 be3d
00000240: e70b 123d 47e8 28be 0c06 febe 8523 cc3c
00000250: 2219 b43d b3ed 863d 1fc6 383e b899 913e
00000260: 627c 8b3d d920 fd3c b5db 30be f4f8 573d
00000270: 50d0 b4bd 514e bd3e d7b6 c83d 481e f83d
00000280: dd0f e2bd 1f1b 153e 9a26 f9bd b143 b6bd
00000290: 505e 00be 2271 5d3b 3937 0abe f10a e33d
000002a0: 6227 343d 184e 0abe cd32 e8bd 5f9f 9abd
000002b0: 8ab8 1bbe 8bf0 573e fbff 16be b500 d2bd
000002c0: ee57 6b3e 96cd 53bc 7d2c d83d 1a8c 053d
000002d0: 9219 873d 2383 113d cd29 683d 1af1 0ebe
000002e0: dd32 bd3c 6e6e e73d db33 263d 6f31 a2bd
000002f0: 15bf ac3b 8796 1d3e 5bb2 18be 0e8e 26be
00000300: 59a0 56be 0a3a 7bbd c280 37be be72 313e
00000310: 1d46 943e 51ff 1f3c e7f4 9c3d 7c29 c9bd
00000320: d346 bc3c 1c12 0dbb 3a0e 8c3d 8bbe 8b3c
00000330: 1b79 1dbe 27c3 963d 9311 d93d 0dd4 c63d
00000340: b402 a03e 34eb b83d 52df ccbe 8072 b83d
00000350: 509e 923e ed8b eb3d 08e6 3ebe e010 f2bd
00000360: 0ed2 383d 3079 783d a1ae 82be 8c10 a5be
00000370: 4cab 46be aad7 183e e648 a63c ea02 78bd
00000380: f7f2 0bbe 7347 39bd 0389 b5bd f26b 0fbe
00000390: ce7f 0ebd 040a e13d 1897 a2bc 7719 b2be
000003a0: 55f3 9bbd 76d5 38be a6fe 113e 943b 46bd
000003b0: 914f 6cbe cf34 e03d 4f33 423e 6837 af3d
000003c0: 216b 543c 816c 223e 4ca8 1fbe af20 703e
000003d0: 4399 4c3e 82f6 a73d c026 693c 2cbd cdba
000003e0: fe85 b13d e44f d93d 9803 3abe 534b 473d
000003f0: 70c4 efbd add7 9d3d 906d 543e c7e6 d1bd
-0.050842445 -0.007611493 -0.0973694 0.09347702 -0.043081917 0.04185241 -0.017674906 0.14425662
0.124137685 0.057599247 0.033917375 0.13505934 0.1324083 -0.20458674 -0.17162414 -0.22105952
-0.1575469 -0.16305612 0.062793076 -0.059914503 0.09974084 0.0053639505 -0.116951376 -0.2580927
0.021807566 0.0800476 -0.15637365 -0.13806756 -0.49108702 -0.3702069 -0.09566743 -0.42663714
0.15348119 0.12449965 -0.012735504 0.059995975 0.051552925 -0.16019906 0.0008308215 -0.14873727
0.097030826 -0.14303532 -0.10778229 0.050939653 0.0040138136 -0.004746619 0.19596146 -0.08623418
-0.05998292 -0.06857324 0.016484048 -0.13320471 0.13250442 -0.07761854 -0.11930448 -0.075823374
0.093781695 -0.0012875998 -0.12162899 0.16306135 0.08327676 -0.05398023 -0.11653988 -0.06825912
-0.01528857 0.13381554 0.07397691 0.09496446 0.0090496 0.14709106 -0.01695319 0.079048656
0.05016031 -0.07572732 0.06913396 0.16861248 -0.024897322 0.04009899 -0.06516042 0.08324311
0.13952976 -0.06402097 -0.10310805 0.12341698 -0.11731128 -0.09855413 0.017946405 -0.007877346
-0.010792706 0.1836083 -0.15577531 0.10160683 0.20077725 0.0226114 0.05955716 -0.21594048
-0.20710827 -0.021416515 0.09164309 -0.14282528 -0.089706294 -0.1438103 0.1670392 0.06846031
-0.08265072 0.12159979 0.17599566 -0.052963786 0.24035972 -0.043428734 -0.042652693 -0.1149794
-0.02747779 0.0988951 0.11958021 0.06343935 0.0957462 -0.05562416 -0.10690581 0.08461524
-0.14702871 0.0106854215 -0.02993624 0.1692457 -0.03130305 0.13355157 -0.06102866 0.04727111
-0.12295229 -0.23840892 0.10622253 0.027156113 0.19636473 0.25201496 0.0647964 -0.001292543
-0.15322238 -0.07302693 -0.049729433 -0.21141352 -0.092050575 0.29258615 0.12996179 0.09287838
0.035655882 -0.16494857 -0.49613988 0.02491928 0.08793856 0.06588306 0.18044327 0.2843759
0.068108335 0.030899452 -0.17271312 0.052727655 -0.08828795 0.36973813 0.09800499 0.12115151
-0.11038182 0.14561127 -0.12165566 -0.0889963 -0.12535977 0.0033789356 -0.13497628 0.11086071
0.04398287 -0.13506353 -0.113378145 -0.07549929 -0.15207115 0.21087854 -0.14746086 -0.10254041
0.22982761 -0.0129274335 0.105553605 0.032604314 0.06596674 0.035525452 0.05668049 -0.1395916
0.023095543 0.1130036 0.040576797 -0.07919585 0.005271802 0.15389453 -0.14911787 -0.16265127
-0.20959605 -0.061334647 -0.17920211 0.17328927 0.28959742 0.009765462 0.07663899 -0.09822366
0.02298299 -0.0021525687 0.06838651 0.017058631 -0.1537823 0.07361441 0.10599055 0.09708414
0.31252062 0.090292364 -0.4001413 0.09006214 0.28636408 0.11501298 -0.18642437 -0.11819625
0.0451222 0.06066245 -0.25523856 -0.32239187 -0.19401282 0.1492602 0.020298433 -0.060549654
-0.13666902 -0.045234155 -0.088640235 -0.14006022 -0.034789853 0.109882385 -0.019847438 -0.34785053
-0.07614771 -0.18050179 0.14257297 -0.048396662 -0.23077227 0.109475724 0.18964885 0.0855549
0.012964995 0.15861703 -0.15591544 0.23449968 0.1998034 0.082013145 0.01423043 -0.0015696636
0.08668135 0.10610941 -0.18165433 0.04865582 -0.11707389 0.077071525 0.2074492 -0.102490954

Network_stack.0.0.gru.bias_ih_l0 f4 [96]
00000000: 2c7c 563d 3cfe 08bd 729f 353e a147 a13d
00000010: 172d 0dbe d118 b23c 2bc8 e0bc 8f89 963c
00000020: db92 22bd 49d6 8c3d 868f 3b3e 6243 323e
00000030: 5a0f e8bd 570c 24be 5d2f 7d3e 6fa0 b1bd
00000040: b3a8 abbd 356b 653d b6d3 7c3d d541 5d3e
00000050: 8580 27bd 2840 f53c 1a62 2bbe e347 71bd
00000060: 78a6 273e 5e80 45bd 202c 0e3e aadb d63c
00000070: 5eb5 413e 602e 0b3e 2716 9f3d 812b a93d
00000080: e861 4f3e 7e76 43be 39d1 ddbe 9448 46be
00000090: ef3e a4bf e3ae 1f3e 45f6 a53d 87dc b8bd
000000a0: 518c 7c3e 2a1b 45be 86c7 16bf 6e5a a0bd
000000b0: 8233 9bbe 6c3a c2be b0c3 f4bd da11 53be
000000c0: af99 05bc 66cb 51bd adce 6abf b5eb 06be
000000d0: 1b2f 8dbf 7d50 febd a70e 923e 71c2 73be
000000e0: e9cc 4bbb 06b0 02be 9392 0bbe 3dca 55bc
000000f0: 8a49 9fbe 52ef 8abe ad27 94be b5be 76bf
00000100: 82e4 583d 1185 4dbd 5421 293d 5b5e c1bc
00000110: d8e0 0c3e 3e7a 79bc 6b57 c6bd aa2a 293e
00000120: 0764 983d 9d95 24be 0232 11be 4c83 b83c
00000130: 70ee 07bd 23b2 84bd 8518 a3bd be7b ed3d
00000140: ce56 4dbe 62d4 223e f704 57be 7d91 0e3c
00000150: 46c8 2b3e db19 ca3d a826 953c ecbf 06be
00000160: 6aff e13d 9a97 103e 67b5 9cbd beb2 24be
00000170: 75da bebd 35ca c3bd 4297 023d dedf f2bc
0.052364513 -0.03344558 0.17736605 0.0787499 -0.13786732 0.021740349 -0.027439198 0.01837614
-0.039690834 0.06876809 0.18316469 0.17408517 -0.11331053 -0.16020332 0.24725099 -0.086731784
-0.08381786 0.056010444 0.06172534 0.21607144 -0.04089405 0.029937819 -0.16736642 -0.058906447
0.16372097 -0.048218124 0.1388402 0.02622779 0.18916842 0.1359191 0.07767897 0.08260251
0.20252192 -0.1908817 -0.43323687 -0.19363624 -1.2831706 0.15594058 0.08103613 -0.09026437
0.24662901 -0.19248644 -0.588982 -0.07829748 -0.30312735 -0.37935197 -0.11951387 -0.20612279
-0.008154317 -0.051219366 -0.9172161 -0.13175853 -1.103 -0.12417696 0.28526804 -0.23804642
-0.0031097478 -0.1276246 -0.13630132 -0.013048706 -0.31110793 -0.27135712 -0.2893652 -0.96384746
0.052952297 -0.05017573 0.04129155 -0.023604563 0.13757646 -0.015226899 -0.096846424 0.16520181
0.07440954 -0.16072698 -0.14179233 0.022523545 -0.033186376 -0.064792894 -0.07963661 0.115958676
-0.20052645 0.1590133 -0.20997988 0.008701679 0.16775617 0.09868213 0.01820691 -0.1315915
0.110350445 0.14120331 -0.07651787 -0.1608381 -0.09319011 -0.09560052 0.031882532 -0.029647764

Network_stack.0.0.gru.bias_hh_l0 f4 [96]
00000000: 8d9e c33d 8afc 183e a4d8 743e 4144 083e
00000010: def3 00be 19e7 16bd b3c0 1e3e 9c9b 2e3e
00000020: cf64 d7bd 894f 3d3d 92a6 ebbc 5432 0c3c
00000030: 86a3 91bd ae7a 94bd 95ba a63d 199f b53d
00000040: c7bc ea3d 05b4 ce3a 02d7 b03d 5882 dc3d
00000050: c5ed 8f3d fe16 0e3e 0e80 f7bd 24da 8e3b
00000060: ef4b c2bd ae99 01bc c536 a13c 1006 853d
00000070: eb5a 1fbd 19d7 c03c 3acc 003e 1712 b9bd
00000080: 341b 553e 7c1e a9be 1b1f 0bbf 98d4 36be
00000090: c5b8 9bbf 9756 f63d dbe1 a03d 2905 26be
000000a0: 6575 fe3d f097 24be 30a8 18bf e89d cb3d
000000b0: eca0 26be e8be 90be 01c0 6cbe 6473 94be
000000c0: fce5 303d 4950 fcbd 68d7 91bf 1b37 cdbc
000000d0: b5f7 7dbf ec88 9ebe ecce e73d df83 6ebd
000000e0: 31b9 573e d528 a2bd 34c0 db3d 2292 6f3d
000000f0: f458 a8bd dda9 21be e212 95be 0ecc 83bf
00000100: 608b 2dbd a975 10be 7ee7 4a3e e130 8b3d
00000110: 28b8 ac3d 84a0 3fbc 56b8 cf3d 0cb0 3e3c
00000120: e94c 04be a099 033d 101e ebbd 2ce3 76bb
00000130: e95c 15be c573 ea3c 177f 3f3e c262 53bd
00000140: 0c9e 0f3d 19fa 3bbe 06e9 38be 8864 2b3e
00000150: da6d 503e a4a4 12be ee3a 32bd 6d6b 553c
00000160: f59f 2ebd 0808 0c3e ff1b d7bd b59d d43d
00000170: ac99 52be 421c 343e db18 f1bd c783 bdbd
0.095517255 0.14940086 0.23910767 0.13307287 -0.12593028 -0.036841486 0.15503196 0.17051548
-0.105172746 0.04621843 -0.02876595 0.008556921 -0.07111268 -0.07249962 0.081410564 0.08868236
0.11461788 0.0015770203 0.086347595 0.107670486 0.07027773 0.13875958 -0.12084971 0.0043595005
-0.094871394 -0.007910175 0.019679436 0.06495297 -0.038905066 0.023540067 0.12577906 -0.090366535
0.20811158 -0.3303107 -0.5434434 -0.17854536 -1.2165762 0.120282345 0.078555785 -0.16212906
0.12424735 -0.16073585 -0.59631634 0.099422276 -0.16272324 -0.2827065 -0.23120119 -0.28994286
0.04318808 -0.12320001 -1.1393862 -0.02505069 -0.99206096 -0.30963838 0.11318764 -0.05823123
0.21066739 -0.07917944 0.10730019 0.058488972 -0.082200915 -0.15787454 -0.2911597 -1.0296648
-0.042369246 -0.14107384 0.1981487 0.06796432 0.084335625 -0.011695985 0.10142581 0.0116386525
-0.12919964 0.03212893 -0.11480343 -0.0037672026 -0.14586224 0.028619656 0.18700825 -0.051607855
0.035062835 -0.18357123 -0.18057641 0.16737568 0.20354405 -0.14320618 -0.04351323 0.013026101
-0.042633016 0.13674939 -0.10503387 0.10381643 -0.20566434 0.17588905 -0.11772319 -0.0925365

Network_stack.0.0.gru.weight_ih_l1 f4 [96, 32]
00000000: 8b77 b43d cbea 263c 2104 2f3e 246d 05bd
00000010: 9421 4e3e 4d02 9b3c c440 b5bd 4c91 8d3e
00000020: 1572 31be 6a1b 88be 6d57 90be 5e48 5f3e
00000030: 905b 63be f11b 4cbe d744 aebc 2767 6b3e
00000040: 4f5e 53be 17d2 673c 7d68 bcbe a84a 6fbc
00000050: a8bb 953e c69c 193e 5fa9 503c 2f19 883d
00000060: 48c9 dc3c 7983 443d 9376 073e 13e8 943d
00000070: 3449 7b3c ba40 663e b9ca 6ebe c7f4 73bd
00000080: a3e8 053e 6609 fd3c 71d6 d6bc ed6b efbc
00000090: 6bd9 403e e181 773d 06e5 d13d 3ea6 34bd
000000a0: d7bf 01be 2da2 25be d57d af3d 0902 c73d
000000b0: 2b20 3cbe 20dd b23d 4d20 6b3c 7495 3dbe
000000c0: 20cd 883e 1ca9 ef3d 1528 00be 1409 24be
000000d0: b068 a93d 1214 9d3e f130 4abd 522a 89bd
000000e0: 5790 28bd 2589 e4bd d55e f2bd 03a3 1fbd
000000f0: 85e7 79be 65e5 283e 55c3 343e 6ff1 cb3c
00000100: ba1c 55be 9f70 68be d799 833e cc85 db3d
00000110: 675c df3e eabe 05be a1df 80bb cf87 ec3d
00000120: fbc7 883e b9b4 2fbe f239 44bc 4a4c 713e
00000130: e663 b6be 3a60 993d 95a0 d73d c717 1e3f
00000140: cb29 0d3e 783b dc3d dc64 8fbe aaa3 ab3d
00000150: 3a33 ce3e 0713 b53d 3279 093e 5b6c 32be
00000160: 9063 5b3e ec26 473e 17e5 dabc 4a51 ae3b
00000170: 15a0 a8be 87a2 083f 0ead d3bc ff71 373e
00000180: d7f6 793c 6f83 74be f8b4 8b3e de85 2dbe
00000190: 125d 993e 5015 e03d af1e 243e d927 9bbd
000001a0: e8f9 8ebe 838d 33be d21d b9bd 56a0 e73a
000001b0: 21d6 56bb aad9 64be 1b9e 3c3e 2968 823e
000001c0: 666d b4bd 72d6 c63b 327c 44be 970a 8c3d
000001d0: 59e3 e43e b702 a63e c5d7 863e c73a 0a3e
000001e0: 6b07 d73d 3225 2c3e e1d1 6cbe a663 1fbe
000001f0: e1e0 803d a95d 303d e7b4 1bbe cede ab3d
00000200: fe4a aabc f07f 4dbb e9cb d1bd c1a4 20be
00000210: de67 0dbe d1cb ab3d ca3b 233d 8517 a93d
00000220: cd2b 5d3d 3d3a afbd f747 61be 7d25 973e
00000230: 06ed b73e 840a 99bd 0017 c3bc 0693 c2bd
00000240: e3a6 4a3e 57b1 c4bd 6f3e a13e 7e77 8f3d
00000250: d4db f7be aa80 06be 57ff 093c c0cc 99bc
00000260: 941c 193e f254 1f3e 3d9b 3f3e d50f e2bd
00000270: 4dc4 e33e 4503 5cbd 8fa4 a9be e69f fa3e
00000280: 6fae 94bd d633 6fbe 9056 61bd e10e e0bd
00000290: b485 febd 99c3 6bbc 1521 bd3c 2ec2 c93c
000002a0: ccdf 893c 92ef 023d 779e 253d 2bdf 33bc
000002b0: 0b1b d33d 1667 b93e 41ad febb da31 983e
000002c0: 56a8 413e 21f0 84bd 8e6b 28be 7959 073e
000002d0: 5d76 9bba 4a12 1a3d 59ac adbd 247a 553e
000002e0: c73c 843e 9528 a0bd dc80 02be 6c3e 39be
000002f0: 7b7a 56bd 5901 af3e b0fd ffbd fece c03e
00000300: 81d1 36bd 5534 573d f36d d13d 66b6 943d
00000310: 9551 de3c 98e9 2a3e 20dd 473e e1a7 ea3d
00000320: f14b 3ebe 7634 313e 2331 283d 46eb 9a3d
00000330: 1601 3dbe 8ad4 703c 1b17 073e c125 18be
00000340: 248b 2dbe 8d00 ec3d f6b7 8f3d fec7 9abd
00000350: f459 a9bd 1c53 25be 209d 443e b273 51be
00000360: 2da4 1cbb 790e f0bd 6ce5 8d3d 3489 6a3d
00000370: 5c25 743d 1725 b63d 9425 edbd e880 dbbc
00000380: 108f 083e 9d6b 293e 25b1 3dbd 4959 ce3c
00000390: a2e4 c43c a86b 183d fa3a b63d 7434 3f3d
000003a0: 02a9 8dba d55f ddbd b3e8 873d 7a82 433e
000003b0: 0c4d e4bd c9db 07be f6c0 4abe 5f3c 28be
000003c0: fda3 863d b953 013e d3f3 a83e 6eb7 b1bd
000003d0: db6a 08be df6f 88bd 0db3 2bbe cf26 89be
000003e0: 1a3d 11bd 2a90 b53d 6350 f9bc de8b c03d
000003f0: fcb4 8ebd e6ae b1bd b21f 20be afe1 c3be
0.088118635 0.010187815 0.17091419 -0.032574788 0.20129997 0.018921996 -0.08850244 0.27649915
-0.17328675 -0.26583415 -0.281917 0.2180495 -0.22202897 -0.19932534 -0.02127306 0.22988568
-0.20641445 0.01414921 -0.36798468 -0.014605202 0.29244733 0.1500121 0.012735694 0.066454284
0.026951447 0.047976945 0.13228826 0.07270827 0.015337277 0.22485629 -0.2331952 -0.05955961
0.13077025 0.03088827 -0.0262253 -0.029226268 0.18832938 0.060426597 0.10248761 -0.044103853
-0.12670837 -0.16175146 0.085689224 0.09717185 -0.18371646 0.087335825 0.014350963 -0.18514043
0.26718998 0.11702177 -0.1251529 -0.16019088 0.08271921 0.30679375 -0.04936308 -0.06697525
-0.04115328 -0.11158971 -0.11834494 -0.03897382 -0.24404724 0.16493757 0.17652638 0.024895398
-0.2081174 -0.22699212 0.25703308 0.10718879 0.43625185 -0.13061109 -0.0039329086 0.11549341
0.26715073 -0.17158784 -0.011976706 0.23564258 -0.3562309 0.07489057 0.105286755 0.6175503
0.13785474 0.1075353 -0.28006637 0.08380826 0.40273458 0.0884152 0.13425139 -0.17424147
0.21424699 0.19448441 -0.026720567 0.005319749 -0.32934633 0.53373 -0.025839355 0.1791458
0.015256605 -0.23878263 0.27286506 -0.16945598 0.2995382 0.10941565 0.1602733 -0.0757596
-0.27925038 -0.17534451 -0.09038891 0.0017671685 -0.003278144 -0.22348657 0.18419687 0.25470093
-0.088099286 0.0060680443 -0.19188002 0.06837957 0.44704702 0.32423946 0.26336494 0.13498984
0.10499462 0.16811064 -0.23126937 -0.15565357 0.06292892 0.04305807 -0.15205728 0.08392106
-0.020787712 -0.0031356774 -0.10243971 -0.15687849 -0.13809153 0.08388484 0.03985194 0.08256439
0.05399685 -0.0855603 -0.22000109 0.2952079 0.35923022 -0.07472709 -0.023814678 -0.09500699
0.19790225 -0.096041374 0.31492946 0.07005213 -0.48409903 -0.13135019 0.008422694 -0.01877439
0.14952308 0.15559748 0.18711562 -0.11038176 0.44485703 -0.053714056 -0.3313336 0.48950118
-0.07259833 -0.23359618 -0.055014193 -0.10940338 -0.124278456 -0.014389896 0.023087064 0.024628725
0.016830347 0.031966753 0.040434327 -0.0109785 0.103078924 0.3621146 -0.0077721183 0.29725534
0.18911871 -0.064911135 -0.16447279 0.13217725 -0.0011860837 0.037615098 -0.08480138 0.20847374
0.2582762 -0.078202404 -0.12744468 -0.18090218 -0.0523629 0.34180716 -0.12499559 0.37657923
-0.044633392 0.052540142 0.10226049 0.07261352 0.02713851 0.16690671 0.19517946 0.114578016
-0.18583657 0.17305169 0.041062485 0.07564406 -0.18457446 0.014699111 0.13192408 -0.14858152
-0.16947609 0.115235426 0.0701751 -0.07557677 -0.0826911 -0.16144985 0.19200563 -0.2045429
-0.0023901567 -0.117215104 0.069285244 0.057259753 0.05960594 0.08893793 -0.11579433 -0.026794866
0.13335824 0.16544957 -0.046311516 0.025189059 0.024034802 0.037212044 0.08897968 0.046680883
-0.0010807815 -0.10809294 0.06636181 0.19092742 -0.11147508 -0.13267435 -0.19800171 -0.1642928
0.06574247 0.12629594 0.32998523 -0.086775646 -0.13322012 -0.06661963 -0.16767521 -0.2678742
-0.03545866 0.08865388 -0.03043384 0.094016775 -0.06968114 -0.08675937 -0.15637091 -0.3825812

Network_stack.0.0.gru.weight_hh_l1 f4 [96, 32]
00000000: c0ce a5bb a69d 173e cae7 4c3d 2174 5bbe
00000010: d3b4 cb3c aaa1 933c 394b 213d 1593 523e
00000020: 8282 213d 60e9 0cbe 1e2a bbbb 7f37 113e
00000030: 8788 c23d fe0e adbd 48df aa3d 15fb d43d
00000040: 2d8b 543e be45 29be 129a 783d 7976 28bc
00000050: 2a6d c73b 538d a83d 10c5 1c3e a963 733d
00000060: 77eb 8e3d bbe3 2e3e 5e0e 5fbd 70a3 36bd
00000070: f6e3 e6bd b1d7 babd cf34 f6bc c4ff 293e
00000080: 6040 05bc 5042 46bb e0e2 c03b 4d84 1ebd
00000090: b9a0 753d 5572 43be afd3 05be 1d5f 76bd
000000a0: d958 09bc e3f7 cbbd d7d6 b23d 33c3 33bd
000000b0: 6254 403d d035 aebd 1869 4bbe dce5 5f3e
000000c0: 5185 a9bd 989b 39be d30e 8fbd 1fe7 093e
000000d0: 4d06 65bd 4bbb 23be 3f55 f83d 6346 d43d
000000e0: de42 8b3e 602e 77bd b760 10bd 09a1 71bd
000000f0: a778 313e fb0e 09bc a767 3bbc c260 9ebd
00000100: 464f cb3e 25b6 3a3e a6ac 2e3e 94e9 5f3d
00000110: f9ef f93d 2b89 8b3d 97f2 9abe 00a1 083e
00000120: 2ef2 073e e9c4 e0bd 47c8 2dbe 1471 e1be
00000130: 8abf 6cbe b5eb 5b3e 8c7d 8fbe 1baf 9cbe
00000140: 047c 823d ffc3 6d3d b3c3 88bc 6555 1dbf
00000150: 551e 0a3e e025 68be 0826 603c 714f 243e
00000160: db79 943e 9d08 713e 3806 93bc a6c6 02be
00000170: a176 ca3e b90d fdbd 1568 a3be 858c b1bc
00000180: 2cd8 9f3e ba5b 3b3e c302 883e fdbd ab3c
00000190: 322d 26bd 625c 383d 8496 a13c a03b 82bd
000001a0: 6432 5c3d 2bc3 64bd 029a 3d3d 2f0b b6be
000001b0: 0972 cb3c 53eb 793e 2aaf abbc ca51 94ba
000001c0: d83d 093e c9fa d5bb 9760 003e a6e2 48be
000001d0: 3de4 af3d 3717 66be f5e9 903e 371e f73d
000001e0: e3ac a33e 9677 4f3e c8c3 7dbe 12ae 143e
000001f0: d128 d43d 9ed3 4e3e 45cd c4be 795a 63be
00000200: 9f2a 3fbe 6e85 75bc 21d6 e83d 4e7f 7ebd
00000210: 0c41 9cbe cec0 bebe a580 8fbc 25fb 303e
00000220: c454 87bd 9ceb 84be 046e 79be 6d94 c73c
00000230: 5cc8 fe3c 4cac cfbd b21c 5f3e f694 34be
00000240: f385 463e 9962 b2bd b10d 6dbd cf04 133f
00000250: 1229 b83b 0233 90be bca0 20bd c14f 63be
00000260: 6eff 69bd 26f4 ff3d cb8d d8bc faca 0c3e
00000270: 5032 8cbe 3458 8d3d c4ff d9bd 9a18 2bbe
00000280: 177d 2e3e 0f63 a33e 48be e73e 7bb3 3f3e
00000290: ca3f 0a3e 2e54 64be 96ed 363e ed5d 82bd
000002a0: 0641 5c3e a6e2 91bc 7762 133d bf70 2dbe
000002b0: 678a dcbe 6573 013e 9f89 b6be 3dc9 53bd
000002c0: 8487 0c3e 3c00 d9bd fca9 e9bb ea1b 32bd
000002d0: 9189 763e 77af 4d3d 6921 d4bd ff75 0bbd
000002e0: 46bb 2c3e 83e1 043e 1c56 abbe d701 353e
000002f0: 2960 32bc 8d5d 4c3e 4f97 d4be 7173 b8be
00000300: d1bc 323e cc00 9e3c 3cc4 b33c 2f69 4cbd
00000310: aa26 283e 803c ce3d 9c87 c23d 2c9a 043e
00000320: 680f 43bd 0fa0 a2bd 9c27 363c 26db 5bbd
00000330: 3033 2a3d 74ad cf3d 6d65 33bc 271c a1bd
00000340: b3e2 1cbe fe4d 113e 1851 093e 3ff4 56be
00000350: 54e6 423b 3b52 18be 996e 643e f3d7 a23d
00000360: 4644 463e 97b7 0a3e 18d7 0d3e 70b1 51be
00000370: abd3 c4bd a2b3 bc3c 9720 bf3c 8beb 283e
00000380: b46e 8d3c 10f8 93bd 53f9 aabd d591 783e
00000390: 0b3a c63d 69c7 b9bd 5f4d ccbd f615 d83d
000003a0: 780b 153e bcfb 26be d838 1e3d 144e 413d
000003b0: 556a 3d3e 17ee ebbd 1f59 bbbd 08bf 173e
000003c0: 1404 343d c8a3 f9bc b83a e4bd c9c3 013e
000003d0: 09a9 ddbc b0f7 21be 28c3 edbd 657c 253e
000003e0: b09a 423d 5b45 09be ac57 073e 9b62 27be
000003f0: e75e 823d 987c e1bd e1d5 9ebd bf40 2fbe
-0.005060047 0.14806232 0.05002574 -0.21431018 0.024866497 0.018021423 0.03937838 0.2056392
0.039431103 -0.137609 -0.005711808 0.14181326 0.09498697 -0.08450125 0.08343369 0.103994526
0.20756216 -0.16530511 0.060693808 -0.010282152 0.0060860114 0.082300805 0.15309548 0.059421215
0.06978505 0.1707906 -0.05445706 -0.04458946 -0.11273949 -0.09123171 -0.030054478 0.16601473
-0.008133024 -0.0030251928 0.0058864206 -0.03870039 0.05996773 -0.19086583 -0.13069032 -0.0601493
-0.008382999 -0.0995939 0.08732384 -0.04388733 0.046955474 -0.08506358 -0.19864309 0.21865028
-0.08277381 -0.1812576 -0.06985249 0.13467072 -0.055914212 -0.15989415 0.121256344 0.10364988
0.27199453 -0.06034696 -0.035248484 -0.058991466 0.17331181 -0.008365388 -0.011438287 -0.07733299
0.39708918 0.18233545 0.17058048 0.054666117 0.12203974 0.06813272 -0.30263206 0.13342667
0.13275978 -0.10975058 -0.16970931 -0.44031584 -0.23119941 0.21476634 -0.28025472 -0.30602345
0.0637131 0.058048245 -0.01669488 -0.61458427 0.13488133 -0.22670698 0.013680942 0.1604593
0.28999218 0.23538442 -0.017947301 -0.12771091 0.39543632 -0.12356133 -0.31915346 -0.02167345
0.31219614 0.1829671 0.26564607 0.020964617 -0.040570445 0.045009978 0.019725092 -0.06359029
0.053758994 -0.05585019 0.04628945 -0.35555407 0.02483465 0.24406175 -0.020957548 -0.0011315879
0.13402498 -0.00653014 0.12536846 -0.1961771 0.08588455 -0.22469793 0.28303495 0.1206631
0.3196784 0.20260462 -0.24781716 0.14519528 0.103593476 0.20197913 -0.38437858 -0.22202481
-0.18668602 -0.014985425 0.11368967 -0.062133126 -0.30518377 -0.37256473 -0.017517397 0.17283304
-0.06607965 -0.25961006 -0.24358374 0.024362767 0.031101398 -0.10140285 0.2178829 -0.17634949
0.19387035 -0.08710212 -0.057874385 0.5742921 0.0056201303 -0.28163916 -0.03921579 -0.22198392
-0.057128362 0.124977395 -0.0264348 0.13749304 -0.27382135 0.06901589 -0.106444865 -0.16708604
0.17039905 0.31911513 0.4526236 0.1872081 0.13500896 -0.22297737 0.1786407 -0.06365571
0.2150918 -0.01780827 0.035982575 -0.1693754 -0.43074343 0.12641676 -0.35651872 -0.051705588
0.1372357 -0.10595748 -0.0071308594 -0.043483652 0.24075915 0.050216164 -0.10357935 -0.034048077
0.16868314 0.12976651 -0.33464134 0.17676483 -0.010887184 0.19957562 -0.4152169 -0.36025575
0.1745484 0.01928749 0.021944158 -0.049905 0.16420999 0.10070133 0.09498522 0.12949437
-0.047622114 -0.07940685 0.011117842 -0.053675793 0.041552722 0.101405054 -0.010949475 -0.07866698
-0.15320854 0.14189908 0.13409841 -0.2099161 0.0029739337 -0.14875118 0.22307815 0.07951345
0.19361982 0.13546596 0.13851583 -0.20477843 -0.09610685 0.023034874 0.02333097 0.16496103
0.017264701 -0.072250485 -0.08348336 0.2427438 0.096790396 -0.090712376 -0.09975695 0.10551064
0.14555156 -0.16306967 0.03862843 0.0471936 0.18497594 -0.115200214 -0.09147858 0.14818966
0.0439492 -0.030473605 -0.11144012 0.12672342 -0.027058141 -0.15817142 -0.11609489 0.16160734
0.047510803 -0.13405363 0.13217038 -0.16346209 0.063657574 -0.110100925 -0.07755638 -0.17114542

Network_stack.0.0.gru.bias_ih_l1 f4 [96]
00000000: 45f3 3d3e b6a7 993c 0c01 983e 97b8 8b3e
00000010: e7e6 143e ffff 883b 34fc 1ebe acc6 abbd
00000020: 40d0 a93c e307 1d3e 4235 c53d a88f 3f3d
00000030: 69de f13c 415f 8bb9 5998 a5bd f175 4d3e
00000040: 7a16 173e 7626 b6bd 0982 113e ce71 60bd
00000050: d8dd 5d3e 962b 9a3d f9ec bdbc 848a dcbd
00000060: 2291 fa3c c153 d7bc 3221 97bd 10a9 4fbe
00000070: 82dd 063e 1853 333e c84e 053c f460 1f3e
00000080: 3d25 cdbe 23d4 8e3e 138f 85bf cb89 9fbe
00000090: d74f 263e 449e 9a3e 4bb5 52bd 6d2f e4bd
000000a0: 5ea1 9d3d de6e 433e 4898 16bc cde7 0ebe
000000b0: 1a78 083e 6ae3 c0be 2e51 89be f42b 40bf
000000c0: a92f 10be 63bf 87bc 6722 083e 271d 943c
000000d0: 17d4 253c 30dd 0abd 9284 8cbd ae7a a4be
000000e0: 3525 adbe 0c90 7dbd 2791 f53d a31a 3ebb
000000f0: e713 44be f15a 863e 781c 69bf 55ee 263d
00000100: 656e 0e3d e573 bd3d cbb0 4c3d 7e35 41bc
00000110: d9d3 7f3c 8849 02be f74d a5bd 56bd c23d
00000120: 61bc 043e ef4f adbd aeb6 50be 874d 47be
00000130: 957b f0bd 176b 023e d4a7 2a3d 5a71 58bd
00000140: 3574 cb3d 5f77 fcbd 89d5 103e 7599 34be
00000150: 2cd5 0d3e a180 19be 8daa 66bd b12b 2f3e
00000160: 5488 153e aad4 373e aade 02be 3e0b 1e3d
00000170: 00a2 063d 62eb 47be 6658 993e 5bdc efbd
0.18549831 0.018756729 0.296883 0.27289268 0.14541207 0.0041809077 -0.15525895 -0.08387503
0.020729184 0.1533504 0.09629299 0.04676786 0.029524999 -0.00026583116 -0.08085699 0.20064522
0.14754668 -0.088940546 0.1420976 -0.054796033 0.21666658 0.075278446 -0.023184286 -0.10768607
0.030586783 -0.026285054 -0.073793784 -0.20279336 0.13170436 0.17512167 0.008136459 0.15564328
-0.40067473 0.27896222 -1.0434288 -0.31159815 0.16241394 0.30198872 -0.051442426 -0.11141858
0.07696794 0.19085261 -0.00919158 -0.13955612 0.13327065 -0.37673503 -0.26819748 -0.7506707
-0.14080681 -0.016570752 0.13294373 0.018080307 0.010121367 -0.033902347 -0.06861223 -0.32124847
-0.3381745 -0.061904952 0.11990576 -0.0029007576 -0.19148217 0.26241258 -0.91059065 0.040754635
0.03477325 0.09250621 0.04997329 -0.011792539 0.015614473 -0.12723362 -0.08071511 0.09508769
0.12962486 -0.08462512 -0.20382187 -0.19463168 -0.117423214 0.12736164 0.04166396 -0.052842475
0.09934274 -0.12327456 0.14143957 -0.17636664 0.1385085 -0.14990474 -0.056314994 0.1710651
0.14602786 0.17952219 -0.12780252 0.03858494 0.03286934 -0.19523385 0.29950255 -0.11711951

Network_stack.0.0.gru.bias_hh_l1 f4 [96]
00000000: c92a 28ba 34e4 5dbd cde8 203e b2cf 483e
00000010: 784d 84bd a75c 5e3e 8eb8 da3c 34bc a9bd
00000020: 2d7a 793c 8b55 f03d ca32 87bd 41a0 093d
00000030: c4f1 533c 452d 9abc 9869 33bd b7ef b93e
00000040: 7889 c5bd 456d ff3c 2b6d 993d d11f 2abe
00000050: a49e e53d 528c 7b3d c52b 883e 1612 08bd
00000060: a491 97bd 81d7 c43c 0ce1 14be ba33 08be
00000070: c59e 8e3d 7eaa 4a3e c041 80be c051 0ebd
00000080: bc46 61be 43b1 893e 370d 96bf f757 bcbe
00000090: dfbf fd3d f0c3 903e 6dee f6bd 1881 55be
000000a0: b7de 5abd 049e 563e ce56 6b3e 19b1 54be
000000b0: 3a1f eb3d f26d e1be 0027 48be 15dc 51bf
000000c0: 093f 4b3c de9b 0f3e ca18 ea3d 62e5 823d
000000d0: 2d4e 6dbd a4fe 11bd 5804 b4bd 7657 cebe
000000e0: d9ed 2fbe 9b3c 0fbd 3e65 913e 444c 31bc
000000f0: b9eb 0fbe a5fd de3d 5e0a 80bf 2b65 543e
00000100: a32c 353e 141b b2bd 6d37 553e e26f 063d
00000110: b399 1dbe bf34 66bc 1dfd 5abd d560 303e
00000120: ee7f f6bd 3f70 83bd 5329 013d c541 2cbe
00000130: df84 a1bd 4eb5 3fbc da62 0ebe db6a 883e
00000140: fb03 10be 3c18 b3bd 567c 1f3e 0268 8d3d
00000150: ce82 f93c cef6 8bbd 788d 3dbd 7e9c 31bd
00000160: 206e 79bd 1b50 1cbd 15cc f4bd 97fc 99bc
00000170: db1d 403e dfc4 5cbd 1a99 52bc dc81 f53d
-0.0006415067 -0.05417271 0.15713806 0.1961048 -0.064600885 0.21715032 0.02669933 -0.0828785
0.015226883 0.11735066 -0.06601484 0.033600096 0.012936059 -0.018820414 -0.043801874 0.363157
-0.09645361 0.031180033 0.07491525 -0.166137 0.11211899 0.061413117 0.26595894 -0.033220373
-0.074008256 0.024028542 -0.14538974 -0.13300982 0.06963877 0.197916 -0.25050163 -0.03474593
-0.2199964 0.26893052 -1.1722783 -0.36785862 0.12390112 0.28274488 -0.12057195 -0.20850027
-0.053435054 0.20958716 0.22982332 -0.20770682 0.11480565 -0.44029194 -0.19546127 -0.81976444
0.0124051655 0.14024302 0.114305094 0.063914075 -0.057935882 -0.035643235 -0.08789891 -0.40301102
-0.17180575 -0.034969907 0.28397554 -0.010821406 -0.14054765 0.108882226 -1.0003164 0.20741718
0.17692809 -0.08696571 0.20821925 0.032821544 -0.15390663 -0.014050662 -0.053464044 0.17224438
-0.120361194 -0.064178936 0.03153355 -0.16821964 -0.07886671 -0.011700941 -0.13904896 0.26644024
-0.14064018 -0.08744857 0.15574774 0.069046035 0.03045788 -0.06834184 -0.046277493 -0.043362133
-0.06089604 -0.038162332 -0.11952988 -0.018797202 0.18761389 -0.05389869 -0.012853885 0.11987659

Network_stack.1.0.gru.weight_ih_l0 f4 [96, 2]
00000000: 82c9 3bbe 3374 63be c8f9 a33c 5bfa b1bc
00000010: f067 033e 531e 4a3e b033 53bd 2eda 5f3b
00000020: 58e0 26be e689 80be 9dc3 773d a472 603e
00000030: 3436 55be 345f c33c 34c2 853d 85ce 0a3e
00000040: 6940 d23c be55 b83c 6cd6 ff3b face be3a
00000050: c6ab aabd eb4a 953d e7b4 713e 2d90 aa3d
00000060: b44d d03d dcba b1bd 8928 2bbe 1cdf 1dbe
00000070: 8fa7 3a3e 80aa 7a3e b6b5 04be b807 8bbe
00000080: a95e 083e ad57 eb3d 85ae e9bc b6b0 9fbd
00000090: 1ca1 66be baf7 4b3e a1e8 fb3b c640 413c
000000a0: 3b1a 773d d5b7 0a3d d775 3d3e 9b52 123e
000000b0: 1fe2 213b 0d94 b33d 7882 833b 30c4 0a3d
000000c0: 543f 483c 4eae e03d c241 1b3e c57f d73e
000000d0: 3364 003c c26b 8f3e b829 3ebc 74af 663e
000000e0: 660e 6abd 8ec5 d13c cf42 5abc b621 05be
000000f0: 2c0f 8bbc 0130 723e d7db bcbd 0b0d 44bd
00000100: 9846 e3be b2fe 1f3c b141 73bd bbd0 453e
00000110: 9c1c e7be 1b22 02bf d56a 84be 91bc cbbe
00000120: a3a3 f2be 09b4 eebe 0e3a c1be b147 9cbe
00000130: dacc e3be 42bf f1be 6c87 433e 93ee 853e
00000140: 6eb9 13bd f391 173e 041b 053f 03c2 db3e
00000150: 9e4e d53c 1835 0f3b 8247 c7be f664 20bf
00000160: dc67 8fbd 1346 0e3e 050a 06bc d512 cfbe
00000170: d4f3 7dbd 5bae f7bd 6164 9c3e d340 1cbe
00000180: 6b58 cb3e b0fb 803e 0398 5bbe a945 343e
00000190: 6250 ba3d ef02 aabe 065d 9bbe 2814 95be
000001a0: c4ad 01bd 4c3c 90bd f21b 9ebe 129e 09bf
000001b0: 674d 79be 9afe aa3c e5d4 7f3e 4318 adba
000001c0: 2167 7a3c 6335 9dbc c894 41be e1ee 84bf
000001d0: e23a 34bf 0a47 fbbe 14cc 19bd ffab f9be
000001e0: 2bc7 473e f7c0 4f3e 9584 01bf 118f 62be
000001f0: f2eb 97be a236 2bbf dd76 1bbf 1f6f 1abf
00000200: 3c8d ad3d 1145 503e 9aa2 e03c 4143 6fbc
00000210: 827d 9dbd 8278 aa3e 6e7b 893d bdd4 6f3e
00000220: 009c 373e 7c1b 62be be75 893d ab5f 1dbe
00000230: 57d1 133e 55bb 783e 8d8f 3bbe 914d 143d
00000240: c366 443e 898b 463e 1a75 9fbd 4035 1d3e
00000250: 351f 3b3c a617 2cbe a354 773c ca3c a5be
00000260: 9551 f13c 18fd 0ebd f0f7 253b 83e0 68be
00000270: 23e2 d53d ffaa cdbd 1d44 063e 91a4 1cbe
00000280: 1770 893b 80c2 acbd 9df9 6c3e a3c8 9dbd
00000290: 7a3f 18be 4a05 96be e4b3 0f3e 1b7d 813e
000002a0: 3f6a dd3c 2f0b b0bd cc12 1d3e afa5 cd3e
000002b0: d115 023e 536a 23be 91b0 bdbd 8aea 7cbc
000002c0: a9ee 5dbd 45ee fd3d 0577 17be e45d f2bd
000002d0: 8372 37bd ac93 9f3e e050 e13d 4d54 77be
000002e0: fd85 d83d b211 af3d 85bd c83d 50b8 883e
000002f0: a958 4b3e a04c 47be dd87 19be 8f83 a33e
-0.18338588 -0.22212295 0.020016566 -0.021725824 0.12832618 0.1973813 -0.051562965 0.0034157145
-0.16296518 -0.25105208 0.060489286 0.21918732 -0.20821458 0.023849107 0.06531182 0.13555343
0.025665479 0.022501823 0.0078075435 0.0014557533 -0.083335444 0.0728968 0.23604165 0.083282806
0.10171071 -0.08678219 -0.16714682 -0.1541714 0.18227981 0.24479103 -0.12959942 -0.27154326
0.1331736 0.11491332 -0.0285256 -0.07797377 -0.22522396 0.19918719 0.0076876436 0.011795228
0.06032775 0.033866722 0.18501984 0.14289324 0.002470143 0.08768473 0.004013356 0.033878505
0.01222213 0.10970746 0.15161803 0.42089668 0.007836389 0.280119 -0.011606626 0.22527868
-0.057142638 0.025606897 -0.0133215925 -0.13001141 -0.016975008 0.23651125 -0.092216186 -0.047864
-0.44389796 0.009765314 -0.05938882 0.19317906 -0.45139015 -0.5083329 -0.25862756 -0.39792302
-0.4739047 -0.4662173 -0.37739605 -0.30523446 -0.44492227 -0.4721623 0.19094628 0.2615858
-0.03606551 0.14801769 0.5199435 0.42921457 0.026038464 0.0021851715 -0.38921744 -0.62654054
-0.070022315 0.13893919 -0.0081811 -0.40444055 -0.06200011 -0.120938025 0.30545333 -0.15259103
0.39715895 0.25192022 -0.21444707 0.17604698 0.09097363 -0.33205363 -0.3034441 -0.2911694
-0.031659856 -0.07042751 -0.30880696 -0.5375682 -0.24345933 0.020873357 0.24983557 -0.0013206083
0.015283377 -0.019190496 -0.18904412 -1.03854 -0.7040235 -0.49077636 -0.03754814 -0.48764035
0.1950957 0.20288454 -0.5059293 -0.22124888 -0.296722 -0.6688024 -0.60728246 -0.6032581
0.08474204 0.20338847 0.027421284 -0.014603437 -0.07689954 0.33295065 0.067129955 0.23420997
0.17930603 -0.22080797 0.06711911 -0.15368526 0.14435326 0.24290211 -0.18316479 0.036206786
0.19179825 0.19389166 -0.07786007 0.15352345 0.011421015 -0.16805896 0.015095863 -0.3227294
0.029457847 -0.034909338 0.0025324784 -0.22741894 0.10443523 -0.100423805 0.1311192 -0.15297152
0.0041942704 -0.084355354 0.23142095 -0.07704284 -0.14867964 -0.2930091 0.14033467 0.2529076
0.027028201 -0.08595883 0.15339202 0.4016547 0.12703635 -0.15958528 -0.09262193 -0.015436778
-0.054182682 0.12398962 -0.14791496 -0.118343145 -0.04478694 0.31167352 0.11001754 -0.24153252
0.10572431 0.08548297 0.09801773 0.2670312 0.1985804 -0.19462824 -0.14993234 0.3193631

Network_stack.1.0.gru.weight_hh_l0 f4 [96, 32]
00000000: 1a63 59be 263e 003e 15c9 b1bd 4f2f 2bbe
00000010: f8f4 3cbd b1e3 213e 136d dcbd f2bb 11be
00000020: 84ef 443b 6fe2 1dbe 82a9 733d 6a40 513e
00000030: 94af 8d3d 8788 41bc aaf6 27be 4983 70be
00000040: c210 913e 7d5e d9bd 203f 203e ef4c 5cbe
00000050: 0a6f 563e 4065 573d 5264 a33e 6f30 213e
00000060: 6684 ecbd 9b19 c03c 2387 c83c 2027 8abd
00000070: 157e 8dbe 507e e3bc 6eab 4c3d 94df 00bd
00000080: 1318 adbb 39ad 453e 2fd8 223e ecc3 5a3e
00000090: 4691 b23d b4a5 a8be 7771 d73c 665b 553e
000000a0: ffef cb3d e01a 693e 0919 c9bd fdb5 ba3c
000000b0: c94f 6dbe 7c80 5ebe 370b 58bd ed82 f13d
000000c0: 13fa 9cbd 4adc 28bd 2bbe 3dbe 2308 4d3c
000000d0: 660f 823e 0d30 083e f7e7 d8bc 8d4e 11bd
000000e0: dd7c 64be f0b5 35be ec42 e9bc 74e3 7dbe
000000f0: 2884 0a3e 0c0e 2e3e 3c20 02be 7557 89bd
00000100: 3db4 a63e 07a7 81be cefa 043e 1797 bfbd
00000110: 080e 2a3d 36d2 043e f98a 25bd 3382 d73c
00000120: f737 c43e 51c5 f5bd 2259 12bd 3b78 09be
00000130: fe24 923c 8c21 3ebe 5b68 e8bd ebf8 29be
00000140: cd14 023e e870 2c3e d360 13be 4a73 533d
00000150: aae7 d9bd c3ac 323e 5a86 163d 1060 7a3b
00000160: d89e 423e f98e 29bd 7659 b3bd 90bf 213e
00000170: 9fb0 ee3c ab52 893e 6026 453d 35ac fdbd
00000180: 9a35 823e 99ab 333e 3fa6 02be da5b 633c
00000190: 554f 923d f417 bf3d 326b 74bb d546 13ba
000001a0: acc4 153d 1c21 fc3d 190f 183e f3b3 e53d
000001b0: 574f d8bd 1e3e 46bd 8be0 adbd a1f2 023e
000001c0: 67a9 a13d 95d4 773a fc59 043e 663c 483e
000001d0: c804 d5bd 164c c7bd 5bf2 b1bc 3179 0dbe
000001e0: 8887 b63d 94bf 2fbe 9a4f 7c3e 0361 dc3d
000001f0: 51a2 cabd 16ab 8b3d 5575 5f3d 282d 413e
00000200: 3d33 0a3e 8e28 ef3d 43e0 83bc 85fa b1bc
00000210: fdf5 48be aaeb 363e 5974 a63d 6850 85bd
00000220: 254e 6dbd da2e 4ebe 61aa 21bc f770 ccbd
00000230: da79 ea3d 66ac 263e 19d8 683d 1d76 4ebd
00000240: f5e5 09be 09f2 e23d 6847 f1bc d998 ac3d
00000250: 3b7f b33d 8b63 cfbd e2c3 77be 34af 3e3e
00000260: ff38 5ebd 0f37 f63d 58d9 703d b28b f83d
00000270: 38f6 42bb 9d8d 03be 51fc 5b3e 3ee7 66bd
00000280: e26d 2b3e 9aca 1fbe 6969 8d3e 16d1 c53c
00000290: 1eea 1bbe ea13 b73d 2653 8bbd 49fd e13d
000002a0: 1007 273e 7204 d33d 7b0b 37bd 9671 90be
000002b0: f814 cf3b 2912 17be 19d3 3ebe 9ae4 1cbc
000002c0: bbd7 07be 317f 453e e997 87be 97a0 c43d
000002d0: 7510 3ebe 7fec 003e e9af 063d b26f 71be
000002e0: 852f 25be a63c 05be bfee 7a3e adcc 80be
000002f0: 39b3 943d d776 023e 21f4 5e3d c18d 2abc
00000300: 4ff8 ea3d 5cf9 d53d 9e37 3f3d fe9d a5bd
00000310: fb93 57be efc3 7f3e 8daf c23c de09 563e
00000320: a2f9 b13d 7430 ae3c 5c05 1e3e f36f a7bd
00000330: 7139 e83d a621 8ebd d363 0ebd 2d17 3fbe
00000340: de5d f9bd 5c75 3ebd 8454 373e de92 0ebe
00000350: 3274 5e3a 7cbb 31be 46d8 f73c 8c05 9f3c
00000360: 14c3 86bd 71e8 413e b624 37bd adeb 903d
00000370: fbfc 363e 83e0 6f3c 55dd 74bd 61e3 4fbd
00000380: 6a12 d5bd 6b1d 993d 02e2 643e b60d 9f3d
00000390: 9417 06bd 4c29 57be 4960 0bbe 2505 42bd
000003a0: f3af 293c 02f3 293e a6ac 17be b409 2bbe
000003b0: 3c81 ffbc 47ef 43be bae3 f33d 18d5 283e
000003c0: 27a6 f0bd efec 88be 213f b4bd 4a1c 40be
000003d0: 43c0 da3d 3b22 28bd 432d b13c e44b 0ebe
000003e0: 23c2 1fbe f6e7 223d daf7 073e 4e55 893d
000003f0: 704c a4bd ea11 463c 0cce 60bd 9cfa 80bc
-0.2122921 0.12523708 -0.086809315 -0.16717266 -0.046132058 0.15809514 -0.10762992 -0.14231852
0.003004999 -0.15418409 0.059487827 0.20434728 0.069182545 -0.011812336 -0.16402689 -0.23487581
0.28333098 -0.10613725 0.1564908 -0.21513723 0.20940796 0.052586794 0.31912476 0.15741132
-0.115486905 0.02344971 0.0244785 -0.06745744 -0.27635255 -0.027770191 0.049968176 -0.03146322
-0.005282411 0.1930436 0.1590278 0.21363801 0.08719115 -0.3293892 0.026299221 0.20835647
0.09957885 0.22764158 -0.09819228 0.022791857 -0.23174967 -0.217287 -0.05274507 0.1179255
-0.07664885 -0.04122571 -0.18529575 0.012514147 0.25402373 0.1329958 -0.026477797 -0.035475302
-0.22313257 -0.17745185 -0.028474294 -0.24793798 0.13526976 0.16997546 -0.12707609 -0.06706134
0.32559386 -0.25322744 0.129863 -0.0935499 0.041517287 0.12970814 -0.040415738 0.026307201
0.38323948 -0.12000526 -0.035729535 -0.1342477 0.017839905 -0.18567485 -0.11348029 -0.16598861
0.12703247 0.16839945 -0.14392404 0.05162362 -0.106398895 0.17448716 0.03674922 0.003820423
0.19005907 -0.041396115 -0.08757298 0.15795732 0.029136954 0.26820883 0.0481323 -0.123863615
0.2543152 0.17545928 -0.1275873 0.01387688 0.07144038 0.093307406 -0.0037295339 -0.000561816
0.036564514 0.123110026 0.1484951 0.11215963 -0.10562008 -0.048399083 -0.08490094 0.12787868
0.07893639 0.00094539794 0.12924951 0.1955429 -0.104013026 -0.09731309 -0.02172201 -0.13815762
0.08912569 -0.17162925 0.2463974 0.10760691 -0.09894241 0.068197414 0.054555256 0.18864882
0.13496108 0.11677657 -0.016098147 -0.021725902 -0.19625087 0.17863336 0.0812766 -0.06509477
-0.057935853 -0.2013506 -0.009867282 -0.09982484 0.114490226 0.16276702 0.05684671 -0.05040561
-0.13466628 0.11081321 -0.029452994 0.08427591 0.08764502 -0.10126408 -0.24195817 0.18621522
-0.054253574 0.1202222 0.058801025 0.1213602 -0.0029748809 -0.1284699 0.2148297 -0.056372873
0.16741136 -0.1560463 0.27619484 0.024147552 -0.15226027 0.08939345 -0.06802969 0.110346384
0.16311288 0.10303582 -0.044688683 -0.2821166 0.0063196383 -0.14753021 -0.18635215 -0.009575987
-0.13265888 0.19286801 -0.26483086 0.096009426 -0.18560965 0.12590216 0.032882605 -0.23577765
-0.16131409 -0.13011417 0.24505137 -0.25156155 0.072607465 0.12740646 0.05443204 -0.010409773
0.11473142 0.10447952 0.0466839 -0.08086775 -0.21052544 0.24977086 0.02376535 0.20902202
0.08690192 0.021263339 0.15431732 -0.081756495 0.11339081 -0.06940012 -0.03476317 -0.18661185
-0.12176107 -0.04649864 0.17903334 -0.13923213 0.00084859424 -0.17356676 0.030254494 0.019411825
-0.06580177 0.18936326 -0.044712745 0.070762016 0.17869942 0.01464093 -0.05978139 -0.050753955
-0.10403903 0.07476314 0.2235184 0.07766287 -0.03273733 -0.21011847 -0.13610949 -0.047368187
0.010356891 0.16596606 -0.14811954 -0.1670292 -0.031189553 -0.19134246 0.1190867 0.16487539
-0.11750441 -0.26743266 -0.088011034 -0.18760791 0.10681202 -0.04104827 0.021628028 -0.13896137
-0.15601401 0.039771996 0.13278142 0.06705724 -0.08022392 0.012089232 -0.054884 -0.0157445

Network_stack.1.0.gru.bias_ih_l0 f4 [96]
00000000: 3626 ccbd 007f d63d e4d2 c13d e79b d93c
00000010: 6368 0b3d 4168 343e b185 ab3d 1bcd 5bbd
00000020: 8bf5 d1bd 2d5b 0c3e 50d7 08bd a2b2 a43d
00000030: 4d53 213d a0f0 53bd 952d 7b3b 7abe 9e3c
00000040: eaa8 223e e4cb 973d cc44 c93d 59b9 433d
00000050: 5212 7abd f65f 623e 0e6b 993c d36e ae3d
00000060: 658d 8bbc ed7e b13e 679a 23bd 1032 4a3e
00000070: ee70 29bd 849e 4cbe 8ff3 34be bf72 80bc
00000080: 52cd bebe 1344 89be 566f 27be a78a bbbe
00000090: c7dd e8be cd9e 60be 1acd 9dbe 5759 a93e
000000a0: 2ec8 4f3d c639 313e b9f0 273d ec2e 5abe
000000b0: fb0c 9b3c 5ebb 2dbd 58c3 5fbe 4750 a8bd
000000c0: f06f 6f3e dd21 2abd 3fae 193d aac2 bdbe
000000d0: 227d acbd 1514 dfbe a645 a33d 3c26 07be
000000e0: 7473 27be ff3d 1cbe 3720 f5be a46b 1fbe
000000f0: 0915 093e ab7a d2bd 4801 bebc 0323 34bf
00000100: 05ae f4bd bfd1 7d3e 778e e53c 5ea7 803d
00000110: 5475 01bc c266 25be 1a39 b1bb 94dd db3d
00000120: 3b46 13be 7f17 333e 3bff 94bd 87dc bebd
00000130: a8da 64be 5d99 73bc 395b 2b3c 578e 3d3e
00000140: e6be c63d 922b 313d 3b76 79bd 2b1a 42ba
00000150: 9530 2e3e f2b9 9dbd 8ce5 083e 1d78 15be
00000160: f8db 76be 0881 7ebe 2876 8cbd 3fb6 59be
00000170: e0a3 263d 91e2 9dbd eb25 26be 392b aa3d
-0.09968226 0.10473442 0.09464052 0.026563598 0.034035098 0.17617895 0.08375109 -0.0536624
-0.10251912 0.13706656 -0.033408463 0.08041884 0.039386082 -0.05174315 0.003832673 0.019377936
0.15884748 0.07411936 0.09827575 0.047784183 -0.061052628 0.22106919 0.018727805 0.08517232
-0.017035196 0.3466715 -0.03994217 0.1974566 -0.041367464 -0.19982344 -0.17671035 -0.015679715
-0.37266022 -0.2680975 -0.16351065 -0.3662922 -0.45481703 -0.21935578 -0.30820543 0.33075973
0.050728016 0.17307195 0.041001055 -0.21306962 0.018927088 -0.042415015 -0.21851861 -0.08218437
0.23382545 -0.0415362 0.03751969 -0.3706258 -0.08422305 -0.4357001 0.07972269 -0.13198179
-0.16352636 -0.15258025 -0.4787614 -0.15568405 0.1338693 -0.10277303 -0.02319397 -0.70365924
-0.11947254 0.24787043 0.028022034 0.06281923 -0.007901508 -0.1615248 -0.0054084184 0.10735622
-0.1438226 0.17489432 -0.07275244 -0.09319406 -0.22349036 -0.014868108 0.010458761 0.1851133
0.0970438 0.043254443 -0.06090377 -0.0007404412 0.1701072 -0.07701482 0.13368815 -0.14596601
-0.24107349 -0.24853909 -0.06858474 -0.21260928 0.040683627 -0.0770923 -0.16225402 0.08309025

Network_stack.1.0.gru.bias_hh_l0 f4 [96]
00000000: 9244 22be 4db6 4f3e a0b8 e6bc 18f4 1cbe
00000010: 6804 06be 8c45 b8bd f628 a1bc a36a 903d
00000020: ab09 ee3c b163 05be 5c68 043d 34bd fd3d
00000030: 017b 32be 92f0 35bd bbb7 f73d 4bb3 dcbd
00000040: 2ae5 07bc 737b c6bc 0c4c 1bbe f0d0 3fba
00000050: 05f0 01be 4f18 183e 0e7a 52bc d38c 803e
00000060: 537d ff3d 7f20 903e 0dd0 36bd 2983 f83d
00000070: d887 b4bd 7603 66bd 1069 c8bd 77fd 4dbd
00000080: b5b8 63be f326 b3be ab5b 02bf 36bd 3bbe
00000090: 7f2c 0bbf 6870 953d c7b4 09be e7bc 113e
000000a0: babf 3cbd 2dee e73d 8cbf c83d fe71 fdbe
000000b0: 6926 68be b959 b4be b3b6 dbbd d7e4 413d
000000c0: d05d a33e cfa4 af3c 4ea2 45be 0ccc 7abd
000000d0: cf36 37be 0eee a4be 86bc 9a3d 1564 40be
000000e0: fb62 65be b51f 16be f0b1 ebbe efdb 8b3d
000000f0: d338 5d3e 7f5f 89be 4508 e2bd 4438 cfbe
00000100: fb6a 4abe 1a38 793e 375d f0bb 27f4 31be
00000110: 9291 5e3e 81bb 263d c5bd 1b3e 1a16 4f3d
00000120: 5772 d5bd 2798 323e 216e d8bb f337 df3d
00000130: 720d f53c 63e1 133c ce99 343e 27e3 053d
00000140: a1d6 9c3c 1a01 e53d e19e 3ebe 4458 ee3b
00000150: b410 fd3c 6f12 9abd ede0 ddbd 4517 e7bd
00000160: 0883 11be d0e7 44be 334a f43d a2d6 69be
00000170: 278d 3abe 71e7 b23d 92a6 05bd 137e 0bbe
-0.1584647 0.20284386 -0.028164208 -0.1532749 -0.13087618 -0.0899764 -0.019672852 0.07051589
0.029057344 -0.1302631 0.032326087 0.12389603 -0.17429735 -0.04441888 0.12095591 -0.10776385
-0.008294383 -0.024228787 -0.15165728 -0.0007317206 -0.12689216 0.14853023 -0.012846483 0.2510744
0.124750756 0.28149793 -0.044632006 0.12134392 -0.08814973 -0.056155644 -0.09785664 -0.05029055
-0.22238429 -0.34990653 -0.50921124 -0.18333897 -0.5436477 0.072968304 -0.13447867 0.14232217
-0.046081282 0.11324725 0.0980216 -0.49501032 -0.22670902 -0.35224703 -0.107282065 0.04733738
0.3190751 0.021440892 -0.19300196 -0.06122975 -0.17892002 -0.3221287 0.07555489 -0.18788178
-0.2240104 -0.14660533 -0.46034193 0.068290584 0.21603708 -0.2683067 -0.110367335 -0.40472615
-0.19767372 0.24337807 -0.007335331 -0.17378293 0.21735218 0.04070616 0.1520911 0.050558187
-0.10422199 0.17440854 -0.0066049253 0.10899343 0.029913638 0.009025904 0.17636797 0.032687332
0.019145312 0.11181851 -0.18615295 0.0072737057 0.030891754 -0.07523047 -0.10833917 -0.11283735
-0.1421014 -0.19229054 0.11928215 -0.22835782 -0.18217908 0.0873555 -0.032629557 -0.13622312
