models/model_uniform_region_0-0.3.0.6-0.9_multiple_Agents1c312e8b.pth (torch, 87266 bytes, 18 tensors)

Network_stack.0.0.gru.weight_ih_l0 f4 [96, 2]
0	0xbddd106d	-0.107941486
1	0x3c6f1980	0.014593482
2	0x3e13a7b3	0.14419441
3	0xbda6c95a	-0.081438735
4	0x3d4a0c74	0.049328282
5	0x3df26cf6	0.11837189
6	0xbe2559dd	-0.16147561
7	0xbd78e562	-0.06076563
8	0x3dea468b	0.11439236
9	0xbc9238a5	-0.017849276
10	0xbd6277b7	-0.05528995
11	0x3e034a71	0.12821366
12	0xbdb34611	-0.087535985
13	0x3e01fc92	0.12694004
14	0xbd08ca41	-0.03339601
15	0xbc5ea513	-0.013589161
16	0x3c7294ec	0.014806014
17	0xbdcca475	-0.09992305
18	0xbe06ee81	-0.1317692
19	0x3e1b6ac8	0.15177453
20	0xbd4a9b0a	-0.049464263
21	0x3ccd7fd2	0.025085364
22	0x3d9f5e78	0.0778169
23	0x3dceb3fe	0.100929245
24	0xbdc0490f	-0.09388935
25	0xbe00b2c5	-0.12568195
26	0xbc7b0626	-0.01532129
27	0xbd81d08d	-0.06338606
28	0x3e3d49b9	0.18485154
29	0x3da0ae11	0.078457005
30	0x3e0626e8	0.13100779
31	0x3c2ce68d	0.010553014
32	0x3d8ee92b	0.06978067
33	0xbe04d3b9	-0.12971391
34	0xbcf61408	-0.030038849
35	0x3b433a4f	0.0029789393
36	0x3e1657b1	0.14681889
37	0xbe297ec0	-0.16552258
38	0xbe32e5d1	-0.1747048
39	0xbe066674	-0.1312502
40	0xbcab8558	-0.020937607
41	0xbdf49410	-0.11942303
42	0xbd69124d	-0.05690222
43	0xbe00e6cd	-0.12588044
44	0xbda9d19f	-0.08291935
45	0xbb132361	-0.0022451507
46	0xbd2b90d7	-0.041886177
47	0xbb2645d3	-0.0025371208
48	0x3dee9ae5	0.116506375
49	0x3e07ba2b	0.13254611
50	0xbddcd749	-0.1078325
51	0x3c9a6e72	0.018851493
52	0xbe3dfb66	-0.18552932
53	0xbdd09c42	-0.10186054
54	0x3d351301	0.044207577
55	0xbda67744	-0.08128217
56	0xbd8cd4c5	-0.0687652
57	0x3dd14db4	0.10219899
58	0xbddf89b4	-0.10914937
59	0x3df5359a	0.11973114
60	0xbcf17b5d	-0.02947777
61	0xbdb6f91b	-0.08934232
62	0x3e206e01	0.15666963
63	0x3e0e689d	0.13907094
64	0xbc1329d8	-0.008982144
65	0x3e09af13	0.13445692
66	0xbd129acc	-0.035792157
67	0xbe45efca	-0.19329754
68	0xbd706324	-0.058688298
69	0xbd0016f5	-0.031271894
70	0xbe2598ee	-0.1617162
71	0xbe02e11e	-0.12781188
72	0x3e2cded8	0.16881883
73	0x3dc21812	0.09477247
74	0x3e054401	0.13014223
75	0xbe2ed3f1	-0.17073037
76	0x3c207ba7	0.009795106
77	0x3e4330c7	0.19061576
78	0x3da1637c	0.07880303
79	0xbde25c26	-0.11052732
80	0xbdcc3ff2	-0.09973134
81	0x3dc3f6c9	0.09568555
82	0x3c79ea1f	0.015253573
83	0x3c880c16	0.016607326
84	0x3d05ad23	0.03263582
85	0xbe629a7b	-0.22129242
86	0xbd0f530b	-0.034991305
87	0xbd70f4d5	-0.05882724
88	0x3e2498bd	0.1607389
89	0xbd8985b2	-0.067149535
90	0xbdc240b1	-0.09484995
91	0xbcdf5cd4	-0.027265944
92	0x3d48d0e3	0.049027335
93	0xbe81ef88	-0.2537806
94	0xbe27c0b3	-0.16382103
95	0xbbe293c0	-0.006914586
96	0x3e33c714	0.17556411
97	0x3de8f11e	0.113741145
98	0xbdca4f4d	-0.09878407
99	0xbe0f80d4	-0.14013988
100	0x3cb6e2f8	0.022325024
101	0xbdf15d8e	-0.11785422
102	0xbde6ae07	-0.11263662
103	0xbe694836	-0.22781453
104	0x3c773c66	0.015090084
105	0x3dc926c0	0.09821844
106	0xbe86d783	-0.26336297
107	0x3d747f1c	0.059691533
108	0xbe0af5e7	-0.13570367
109	0x3e2371b2	0.1596134
110	0x3d334bc6	0.043773435
111	0xbe06f8c5	-0.13180836
112	0xbdd90e80	-0.10598469
113	0xbdc62c2d	-0.096763946
114	0x3e0ba976	0.13638863
115	0xbe3c34e3	-0.1837955
116	0x3c81a99a	0.015827943
117	0x3e3f0a84	0.18656355
118	0x3d96901c	0.073517054
119	0x3bafd093	0.00536544
120	0x3df8f35c	0.12155792
121	0xbd32da44	-0.043665186
122	0xbe183c19	-0.14866675
123	0x3de3c438	0.1112141
124	0x3df2aae2	0.118489996
125	0x3cfaa5a8	0.03059657
126	0xbdcd28ae	-0.10017525
127	0x3dbebeb5	0.09313718
128	0x3cd32a2d	0.025776947
129	0xbc526c46	-0.012843197
130	0xbe4fbe9d	-0.20287557
131	0x3dd3ba0b	0.10338219
132	0xbd907732	-0.07053985
133	0x3cdc6fe0	0.026908815
134	0xbe0a5434	-0.13508683
135	0x3c9c1c1b	0.01905637
136	0xbdfc2479	-0.12311644
137	0x3dce04c2	0.10059501
138	0xbd19b1e8	-0.03752318
139	0x3d9562d4	0.072942406
140	0x3d182068	0.03714028
141	0x3d805e13	0.06267943
142	0x3e008d1e	0.12553832
143	0xbe2b461d	-0.16725965
144	0x3dbcaa25	0.0921214
145	0xbd981189	-0.074252196
146	0xbda258ac	-0.07927069
147	0xbdb7401e	-0.08947776
148	0x3e31d9bd	0.17368217
149	0x3d89211e	0.0669577
150	0x3e2ef176	0.17084298
151	0xbe1fd8a5	-0.15609987
152	0xbdf7ef7a	-0.121062234
153	0x3d2e4d27	0.042554047
154	0x3dc5fed1	0.09667743
155	0x3e12cf12	0.14336804
156	0xbe572981	-0.21011926
157	0xbcb842e3	-0.022492832
158	0xbc8bf390	-0.017083913
159	0x3d419d6b	0.047269266
160	0xbe22a7e4	-0.15884358
161	0xbd8c8d62	-0.06862904
162	0xbd2747b7	-0.040839877
163	0xbd22941b	-0.039692026
164	0xbcfc2c9c	-0.03078299
165	0xbcc92d87	-0.024557842
166	0xbe1ca768	-0.15298235
167	0x3d9120bc	0.07086322
168	0xbe1f4c4c	-0.15556449
169	0x3df5b55f	0.119974844
170	0x3e441f55	0.19152577
171	0xbd873460	-0.066017866
172	0xbb3c9c5b	-0.0028779719
173	0xbdbc20f9	-0.091859765
174	0xbd8f65c6	-0.070018336
175	0xbdb5ddeb	-0.08880218
176	0xbdfff5fe	-0.12498091
177	0x3cac849c	0.021059327
178	0x3e1a7f97	0.15087734
179	0x3d3b7ba9	0.04577223
180	0xbd93ee4b	-0.07223185
181	0xbe11b0b3	-0.14227562
182	0xbcaa3d5e	-0.020781215
183	0xbcfdf0a2	-0.030998532
184	0xbc47d38c	-0.012196433
185	0x3d6c5313	0.057696413
186	0xbd07f9b9	-0.03319714
187	0x3e122169	0.14270557
188	0x3d72c26a	0.05926744
189	0xbdcfee06	-0.10152821
190	0x3e0933cc	0.13398665
191	0x3c9d06a8	0.019168213

Network_stack.0.0.gru.weight_hh_l0 f4 [96, 32]
0	0x3d881a5f	0.06645655
1	0x3e1088b8	0.14114654
2	0x3d728901	0.05921269
3	0xbe42ce96	-0.19024119
4	0x3c9f14da	0.019419122
5	0xbdadff10	-0.08495915
6	0x3e2b16b8	0.16707885
7	0x3d9f76ca	0.07786329
8	0x3c2d6573	0.010583269
9	0x3ccd45cf	0.025057701
10	0x3e3d7401	0.18501283
11	0xbdb71e53	-0.08941331
12	0xbc3b0a2b	-0.011415998
13	0xbdb432ea	-0.087987736
14	0xbde5dea4	-0.11224106
15	0x3e01a255	0.12659581
16	0xbd36d22f	-0.04463404
17	0x3e342952	0.17593887
18	0x3e02dc06	0.12779245
19	0x3db37476	0.087624475
20	0x3d0e06c3	0.034674417
21	0x3e27f22d	0.16400976
22	0xbe22e2f2	-0.15906885
23	0xbce891ff	-0.028389929
24	0x3d993ec7	0.07482677
25	0x3df9c6ae	0.12196098
26	0xbe3e9300	-0.18610764
27	0x3cafd628	0.021464422
28	0xbc1951f5	-0.009357919
29	0x3dd271ef	0.10275637
30	0xbc4833d1	-0.012219385
31	0x3e43cb1a	0.19120446
32	0x3d4d06c8	0.050055295
33	0xbe31b9b8	-0.17356002
34	0x3d3f5a70	0.046717107
35	0x3e1f5853	0.15561037
36	0x3d25c703	0.040472995
37	0xbda25dd5	-0.07928053
38	0xbd6a15e2	-0.057149775
39	0x3ddd40cb	0.10803374
40	0xbdcade36	-0.099056646
41	0xbe434bed	-0.19071932
42	0x3e28c1b0	0.16480136
43	0xbde6e601	-0.112743385
44	0xbe020866	-0.12698516
45	0xbc88e88a	-0.016712446
46	0x3c50223f	0.012703477
47	0x3e07c650	0.13259244
48	0xbd8b5ff6	-0.068054125
49	0xbc867f90	-0.016418248
50	0xbdd94c9d	-0.10610316
51	0xbdb3b162	-0.087740675
52	0xbe2e873b	-0.17043774
53	0x3d949c5e	0.07256387
54	0xbc822a67	-0.01588936
55	0xbb2eec5d	-0.0026691176
56	0xbd292997	-0.04129943
57	0xbd494e7a	-0.049147107
58	0x3e30e96a	0.1727654
59	0xbd4ef747	-0.05052879
60	0x3dc6a575	0.09699527
61	0xbe12ef93	-0.14349203
62	0x3da08ffc	0.07839963
63	0x3e01756e	0.12642452
64	0x3d0000dd	0.031250823
65	0xbd911584	-0.07084182
66	0x3e32da30	0.17466044
67	0x3d50ac6a	0.050945677
68	0xbdc6fef6	-0.09716599
69	0x3da7688d	0.08174238
70	0x3e28f8e0	0.16501188
71	0xbd807582	-0.06272413
72	0x3deedaed	0.116628505
73	0xbe02f2b3	-0.12787895
74	0xbddf0e06	-0.10891347
75	0x3dee37aa	0.11631711
76	0x3d852e21	0.06502939
77	0xbe02cfe6	-0.1277462
78	0xbe275acd	-0.16343231
79	0x3c1f3e11	0.009719388
80	0x3b90900b	0.0044117025
81	0xba6e2d06	-0.00090856885
82	0x3dbe07f6	0.09278862
83	0xbd9f0b5c	-0.077658385
84	0xbd46a8b6	-0.04850074
85	0xbe2d0b75	-0.16898902
86	0x3df19ab0	0.117970824
87	0x3c58e613	0.013238448
88	0xbb34c436	-0.002758277
89	0xbdd29b2a	-0.102835014
90	0x3aeadb4a	0.0017918136
91	0x3d953342	0.07285167
92	0x3dff9bd2	0.12480892
93	0x3c12ef26	0.00896815
94	0xbd2ae8fb	-0.041726094
95	0xbcc1ec13	-0.02367214
96	0x3d49f11a	0.049302198
97	0xbe3ee886	-0.18643388
98	0xbd2a3acd	-0.041559983
99	0x3e29350b	0.1652414
100	0x3c9eb75f	0.019374548
101	0xbe259bbd	-0.1617269
102	0xbe013113	-0.12616377
103	0x3d85e410	0.0653764
104	0xbd3b5a42	-0.045740373
105	0xbe26618c	-0.16248149
106	0xbde52ad8	-0.111898124
107	0xbe187dd6	-0.14891753
108	0x3e162596	0.14662775
109	0xbcc9615f	-0.024582563
110	0x3c49df1b	0.012321259
111	0x3c331da7	0.010932363
112	0x3d80e124	0.06292942
113	0x3c864a2e	0.016392794
114	0xbe16ace9	-0.14714397
115	0x3d32c86b	0.043648165
116	0xbe1f3722	-0.15548375
117	0x3ccd2a84	0.025044687
118	0xbdd15bf8	-0.1022262
119	0xbe3bc761	-0.18337776
120	0xbbbcdb83	-0.0057634725
121	0x3d9c0051	0.07617248
122	0xbe11d21b	-0.14240305
123	0xbd7bf720	-0.061514974
124	0x3c9c295e	0.019062694
125	0xbbd21cf7	-0.0064121443
126	0x3df13948	0.11778504
127	0xbdc04656	-0.093884155
128	0x3df8e2dc	0.12152645
129	0xbd99966f	-0.07499396
130	0xbcbd12ec	-0.023080312
131	0xbd27f095	-0.04100092
132	0xbe077ad9	-0.13230456
133	0x3d7c1593	0.061544012
134	0xbddab4f1	-0.10679043
135	0xbe0abeb2	-0.13549307
136	0x3dc919b7	0.09819358
137	0xbcda3096	-0.026634496
138	0x3de37703	0.11106684
139	0x3de38220	0.11108804
140	0xbe22e524	-0.15907723
141	0x3d8c8704	0.0686169
142	0xbdf2963f	-0.118450634
143	0xbe1b5204	-0.15168005
144	0xbd06c55b	-0.032903057
145	0xbd82ef59	-0.06393308
146	0xbe245630	-0.16048503
147	0x3d6130ba	0.05497811
148	0x3dce1466	0.100624844
149	0x3e558001	0.20849611
150	0x3d981730	0.07426298
151	0xbdf12f1c	-0.117765635
152	0x3c77c6c8	0.015123077
153	0xbc4b088a	-0.012392173
154	0xbe350ed8	-0.17681444
155	0xbdcbb617	-0.0994684
156	0xbd6e7423	-0.058216225
157	0xbe12ea94	-0.14347297
158	0xbdc07362	-0.093970075
159	0x3e267dcc	0.16258925
160	0x3e19bfa9	0.15014519
161	0xbda7a926	-0.081865594
162	0xbd30642e	-0.04306429
163	0xbd9d78eb	-0.07689079
164	0xbddb9bee	-0.107231006
165	0xbccd1d8c	-0.025038503
166	0xbe3950ab	-0.18097179
167	0xbc94c059	-0.018158125
168	0x3e17d7cb	0.14828412
169	0x3e2361bb	0.1595525
170	0xbe17e206	-0.14832315
171	0x3dce843e	0.10083817
172	0x3e139037	0.14410482
173	0xbd54fb1e	-0.051997297
174	0xbd3dc896	-0.04633387
175	0x3dafed01	0.08590127
176	0xbc804a5a	-0.015660454
177	0x3e2d6349	0.16932406
178	0xbd27bbd1	-0.0409506
179	0xbda9ff34	-0.08300629
180	0xbd34a190	-0.04409939
181	0xbdccc1e1	-0.09997917
182	0x3e1bd865	0.15219267
183	0x3c997235	0.018731216
184	0x3d9629b0	0.0733217
185	0xbd2afe54	-0.041746452
186	0x3d7aad73	0.06120057
187	0xbcc94d50	-0.024572998
188	0x3dbd6d46	0.09249358
189	0xbe236d16	-0.15959582
190	0x3da60c72	0.081078425
191	0x3a9e98ba	0.001209996
192	0x3cf4ff69	0.029906945
193	0x3ddc20f8	0.10748476
194	0xbd4b1d53	-0.049588513
195	0x3dbbeea9	0.0917638
196	0xbe12b6c2	-0.14327529
197	0x3dffb5af	0.12485825
198	0x3d841ef3	0.064512156
199	0xbdb810e1	-0.089875944
200	0xbd18cb13	-0.03730304
201	0x3e0ff9e1	0.14060165
202	0xbe06bca6	-0.13157901
203	0xbde088b2	-0.109635726
204	0xbd661a6e	-0.05617755
205	0xbd2b0c10	-0.04175955
206	0x3dba5951	0.09099067
207	0x3d825b00	0.06365013
208	0xbd62b6a1	-0.05534995
209	0x3e24f5e8	0.16109431
210	0x3daa2843	0.083084606
211	0x3d18652b	0.037205856
212	0x3c9b4979	0.018955933
213	0xba039082	-0.0005018787
214	0xbe294d3d	-0.1653337
215	0xbdcdf357	-0.10056179
216	0x3d6d048a	0.057865657
217	0x3dafa229	0.085758515
218	0xbde5c007	-0.11218267
219	0xbdb5d6a4	-0.0887883
220	0x3d1616c1	0.036642794
221	0x3bea4b54	0.007150093
222	0x3dc89c41	0.09795428
223	0x3e17fba5	0.14842089
224	0xbb786979	-0.0037904663
225	0xbdc87fce	-0.09790002
226	0xbe0d12e3	-0.13776736
227	0xbdf7c2d5	-0.12097708
228	0x3cfb19c0	0.030651927
229	0xbd21c105	-0.03949072
230	0x3db7108e	0.089387044
231	0xbcc20ea7	-0.023688627
232	0x3d7f7e04	0.062376037
233	0x3dda9730	0.10673368
234	0x3e24d30d	0.16096134
235	0xbbb900aa	-0.005645831
236	0x3e076af9	0.132244
237	0xbd89baf8	-0.067251146
238	0xb9f6c05e	-0.000470641
239	0x3dac2c40	0.084068775
240	0xbcafa63d	-0.021441573
241	0x3e071e05	0.13195045
242	0x3e0f1ced	0.13975878
243	0xbde8ac79	-0.113610215
244	0x3dc0b58a	0.09409626
245	0x3e4e362f	0.20137857
246	0x3dbdd7f0	0.092697024
247	0x3d892359	0.06696195
248	0xbe49c0f0	-0.19702506
249	0x3dd818b5	0.105515875
250	0x3d9909b2	0.07472552
251	0x3d0229b2	0.031778045
252	0x3db20328	0.08692008
253	0x3ca9711b	0.020683816
254	0x3e00b81a	0.12570229
255	0xbd891aa8	-0.066945374

Network_stack.0.0.gru.bias_ih_l0 f4 [96]
0	0xbb82f444	-0.003996404
1	0x3b865605	0.00409961
2	0x3e115da0	0.14195871
3	0x3d72abad	0.059245754
4	0x3e2ee86b	0.17080848
5	0x3bfcf54b	0.007719671
6	0xbd84a9e0	-0.064777136
7	0x3dd1109f	0.10208248
8	0x3e1d9849	0.15390123
9	0xbd345d8c	-0.044034526
10	0xbdc80f6b	-0.09768566
11	0x38d267a9	0.000100328885
12	0xbc4e0e07	-0.012576587
13	0x3ca1f2a4	0.01976902
14	0x3b8ad080	0.004236281
15	0xbe23755f	-0.15962742
16	0x3da13fc7	0.07873493
17	0xbcb0fb60	-0.02160424
18	0xbe0db564	-0.13838726
19	0xbe2326e9	-0.15932812
20	0x3e1b099f	0.15140389
21	0x3ce34254	0.027741589
22	0x3d5e6a27	0.054300454
23	0xbdde053c	-0.10840842
24	0x3e1f550a	0.15559784
25	0xbd0438ce	-0.032280736
26	0xbdc7c4fd	-0.097543694
27	0x3e2fe7a4	0.17178208
28	0x3d4f0a97	0.05054721
29	0xbddef614	-0.108867794
30	0xbe11b6a0	-0.14229822
31	0xbe21346b	-0.15742652
32	0xbcf009fc	-0.029301636
33	0xbe69e295	-0.2284034
34	0xbe10b43a	-0.14131251
35	0xbe5007a1	-0.2031541
36	0xbe046070	-0.12927413
37	0xbe0a2426	-0.13490352
38	0xbdab46e4	-0.08363131
39	0xbd4903e7	-0.049075987
40	0x3d538293	0.051638197
41	0x3e0a52a2	0.13508084
42	0xbe1a5a0a	-0.1507341
43	0xbe5e40e0	-0.21704435
44	0xbd1a4358	-0.03766188
45	0x3e15885b	0.14602797
46	0x3da63fb7	0.081176214
47	0xbda0eb34	-0.078573614
48	0x3e1af6f4	0.15133268
49	0x3c8fd859	0.017559217
50	0xbd1a87f7	-0.037727322
51	0x3db94d79	0.0904798
52	0x3e31baf2	0.1735647
53	0xbdfa5882	-0.12223913
54	0x3e2181b0	0.15772128
55	0xbd02c762	-0.031928428
56	0x3e162eaa	0.14666238
57	0xbdfb3154	-0.12265268
58	0x3d7130b1	0.058884326
59	0x3d8d56d8	0.0690133
60	0x3de22c33	0.110435866
61	0x3d9f58c5	0.07780603
62	0xbdfd7a67	-0.12376862
63	0xbe40ebcf	-0.18839954
64	0x3de05994	0.10954586
65	0x3d149f78	0.036284894
66	0xbd7224b7	-0.059117045
67	0x3d75ba00	0.059991837
68	0x3e0746f8	0.13210666
69	0xbe29cbd4	-0.1658166
70	0x3c7558d8	0.014974795
71	0x3d209ff0	0.03921503
72	0xbe15b585	-0.14620025
73	0x3d2b5dc9	0.041837487
74	0xbdf55c7d	-0.11980531
75	0xbdf7be0e	-0.12096797
76	0xbe1a5387	-0.15070926
77	0xbd18fe3b	-0.037351828
78	0xbd315458	-0.043293327
79	0x3e12f6ef	0.1435201
80	0xbd4224ca	-0.047398366
81	0x3df4e0b9	0.11956925
82	0x3dd5ba31	0.10435904
83	0x3c38cadb	0.011278833
84	0x3da4e638	0.08051723
85	0x3ba48f45	0.005021962
86	0xbe20cfea	-0.15704313
87	0x3e2663d2	0.16249016
88	0xbe2940bc	-0.165286
89	0xbd43faec	-0.04784672
90	0xbcc11363	-0.023568815
91	0xbe038831	-0.12844922
92	0x3e0ade37	0.1356133
93	0xbe0a0a3d	-0.13480468
94	0xbdf11edd	-0.11773465
95	0xbce76a61	-0.028248968

Network_stack.0.0.gru.bias_hh_l0 f4 [96]
0	0x3e05e43c	0.13075346
1	0x3d76b5fd	0.06023215
2	0x3e3ae81e	0.18252608
3	0x3e08ae8e	0.13347837
4	0xbe1f700c	-0.15570086
5	0xbe15beab	-0.14623515
6	0x3cdf3775	0.027248124
7	0x3defa6e7	0.11701756
8	0xbd0ca490	-0.034336627
9	0x3e23b888	0.15988362
10	0xbd3ab500	-0.04558277
11	0xbdc50f1e	-0.09622024
12	0x3db8b545	0.090189494
13	0x3e29a49b	0.16566698
14	0x3da58785	0.08082489
15	0xbd507baf	-0.050899204
16	0x3e1a719d	0.15082403
17	0xbddebf04	-0.10876277
18	0xbdcbaca4	-0.09945038
19	0x3df7ca15	0.12099091
20	0x3e1a41eb	0.15064208
21	0x3da9ed16	0.08297174
22	0xbda234c8	-0.079202235
23	0x3ba065b2	0.0048949355
24	0xbe0409f7	-0.12894426
25	0xbd67df33	-0.056609344
26	0xbd8488ea	-0.06471427
27	0xbddf9706	-0.10917477
28	0xbd6a790b	-0.05724434
29	0x3e011dc6	0.12609014
30	0x3d91c8cc	0.07118377
31	0xbd864a96	-0.06557195
32	0x3e097447	0.13423263
33	0x3d1f9a44	0.03896548
34	0xbd4aa0e6	-0.04946985
35	0x3d0e558a	0.034749545
36	0x3d143a1f	0.03618824
37	0xbd85284d	-0.065018274
38	0x3dbe3ade	0.09288572
39	0xbad1fc6c	-0.0016020662
40	0x3de9306f	0.11386191
41	0xbe0aa724	-0.13540322
42	0xbe392bce	-0.18083116
43	0xbd75174c	-0.05983667
44	0xbdb91921	-0.09037996
45	0xbe3dee75	-0.18547995
46	0xbe188bf3	-0.14897136
47	0xbe102501	-0.14076616
48	0xbdebcdd3	-0.11513867
49	0x3cd5987f	0.026073692
50	0xbda99613	-0.082805775
51	0x3de66c71	0.11251152
52	0xbd6b3dc1	-0.05743194
53	0xbcf159ed	-0.029461825
54	0xbd134a0c	-0.03595929
55	0xbd17653c	-0.03696178
56	0x3df165a9	0.11786968
57	0x3d5ec69f	0.05438864
58	0x3c9f5444	0.01944936
59	0x3d4bac72	0.049725004
60	0x3d757aeb	0.059931677
61	0x3e314191	0.17310168
62	0x3d772e11	0.060346667
63	0xbdb5f8b1	-0.08885325
64	0xbd715837	-0.05892202
65	0xbdf71c9c	-0.12066004
66	0x3e2f08aa	0.17093149
67	0xbd920222	-0.07129313
68	0xbd264a89	-0.040598426
69	0xbdc333f3	-0.09531393
70	0x3e1c9964	0.15292889
71	0x3d029001	0.031875614
72	0xbe2b7043	-0.16742043
73	0x3dd6ce2c	0.10488543
74	0xbd9a95ce	-0.07548104
75	0x3da89757	0.08231991
76	0xbd9b8281	-0.07593251
77	0xbe3aca09	-0.18241133
78	0xbde03a54	-0.10948625
79	0xbdfdf042	-0.12399341
80	0xbe1912b2	-0.14948538
81	0x3dd9aa1a	0.106281474
82	0x3dc292ab	0.09500631
83	0x3d65bc71	0.056087915
84	0xbdcf50cb	-0.10122832
85	0xbda8b203	-0.08237078
86	0x3dc0d5c9	0.09415776
87	0x3daa094d	0.08302555
88	0xbe3401dc	-0.17578834
89	0xbdb7c1d1	-0.089725144
90	0xbdd3f4eb	-0.10349449
91	0xbe19eb7f	-0.15031241
92	0x3bec951b	0.007219923
93	0x3dbffd78	0.09374517
94	0xbd99bf25	-0.07507161
95	0x3dd4ee4f	0.10397016

Network_stack.0.0.gru.weight_ih_l1 f4 [96, 32]
0	0x3e189ae9	0.14902844
1	0xbe10cc66	-0.14140472
2	0xbce90528	-0.028444842
3	0x3db93e92	0.090451375
4	0x3e36e12d	0.17859335
5	0xbd955f59	-0.07293577
6	0xbda426a6	-0.08015184
7	0x3d99eaa9	0.07515461
8	0xbe17c2c7	-0.14820395
9	0x3b444633	0.0029949069
10	0x3de9da71	0.114186175
11	0xbe23b54d	-0.1598713
12	0xbe273026	-0.16326961
13	0xbdd776be	-0.10520695
14	0xbdbf98d3	-0.09355321
15	0xbd2d0541	-0.04224134
16	0x3e01c442	0.12672523
17	0x3cf156e5	0.02946038
18	0xbe1ac31e	-0.15113494
19	0xbdcb05db	-0.09913226
20	0x3dd0f004	0.10202029
21	0xbd302e57	-0.043012943
22	0xbe2f639e	-0.17127845
23	0xbe280b6b	-0.16410606
24	0x3d2d5761	0.04231966
25	0xbcbf05c7	-0.023318185
26	0xbe179256	-0.14801916
27	0x3e0ddb6d	0.13853236
28	0xbe002cbc	-0.12517065
29	0x3d35bb74	0.044368222
30	0xbddeda8a	-0.10881527
31	0x3e206bd1	0.15666129
32	0xbe33b8bd	-0.17550941
33	0xbe105155	-0.14093526
34	0x3e208a1f	0.15677689
35	0x3d08e8cc	0.033425137
36	0x3e1d7f23	0.1538053
37	0x3d2fa7db	0.04288469
38	0x3e10794c	0.14108771
39	0xbc5ee07a	-0.013603324
40	0xbe0ed101	-0.13946916
41	0x3c3f3d69	0.011672356
42	0x3d28cf8b	0.041213553
43	0x3d39b348	0.04533699
44	0xbde4f4d1	-0.111795075
45	0x3e0ecc5d	0.13945146
46	0x3e0bd142	0.13654044
47	0xbd7302ea	-0.05932895
48	0xbe040e36	-0.12896046
49	0xbd09fc22	-0.03368772
50	0xbd5a5c2f	-0.05331057
51	0x3ddd89f4	0.10817328
52	0x3e1351ef	0.14386724
53	0x3e10bcce	0.14134523
54	0x3e033cf6	0.12816224
55	0xbd35f9f2	-0.04442782
56	0x3e2463ee	0.16053745
57	0x3d119c6b	0.035549562
58	0x3d1013f7	0.03517529
59	0x3e102f35	0.14080508
60	0x3e06caf3	0.13163356
61	0x3cc1a690	0.023638994
62	0xbe110877	-0.14163385
63	0xbe20f916	-0.15720019
64	0xbdb1413e	-0.08655022
65	0xbdd897f4	-0.10575858
66	0x3d08fb4b	0.033442777
67	0x3d92fb64	0.07176855
68	0x3e1cf99b	0.15329592
69	0xbe49b77a	-0.19698897
70	0xbde77614	-0.113018185
71	0xbe6b7b28	-0.22996199
72	0xbe18e79b	-0.149321
73	0x3d8353c8	0.064124644
74	0xbe3d9c84	-0.18516737
75	0x3e03a603	0.12856297
76	0xbe036a2b	-0.12833469
77	0x3e0b9537	0.1363114
78	0xbe283986	-0.16428193
79	0x3dba5b13	0.09099402
80	0x3e1ae45a	0.15126172
81	0xbdf30f60	-0.11868167
82	0x3d8278b1	0.06370676
83	0xbcabf468	-0.020990565
84	0x3e599fb9	0.21252336
85	0xbea9e038	-0.33178878
86	0xba4b8ea0	-0.0007765088
87	0x3da1f4ab	0.07907995
88	0xbde55a23	-0.11198833
89	0xbcad37b5	-0.021144727
90	0xbe38691b	-0.18008845
91	0xbe44a71f	-0.19204377
92	0xbc07f2fb	-0.008297677
93	0xbe1f752e	-0.15572044
94	0xbd8b56e4	-0.068036824
95	0xbe30d56f	-0.17268918
96	0x3d1a3409	0.03764728
97	0xbdd9cf71	-0.106352694
98	0xbdd4bc45	-0.10387472
99	0xbe1f2e63	-0.15545039
100	0x3cd81251	0.026375921
101	0x3d7e6871	0.06211132
102	0x3e3037ea	0.1720883
103	0xbc28aba9	-0.010294833
104	0x3d3d57a5	0.046226162
105	0xbd268994	-0.04065855
106	0x3e1cddd2	0.15318993
107	0x3e07b193	0.13251333
108	0x3ceb4cdc	0.028723173
109	0xbd55943c	-0.05214332
110	0xbde61fd5	-0.1123654
111	0x3df9741f	0.121803515
112	0x3c9e65ec	0.01933571
113	0xbd5cf124	-0.053940907
114	0x3dc514e8	0.09623128
115	0xbde3a70c	-0.11115846
116	0x3d0ea052	0.034820862
117	0x3dc072e5	0.093969144
118	0x3e1ca100	0.15295792
119	0xbe0459db	-0.12924902
120	0xbd69f2be	-0.057116263
121	0xbe0cd548	-0.13753235
122	0xbe10a797	-0.1412643
123	0xbd478562	-0.04871119
124	0x3ddb50d0	0.10708773
125	0xbd789811	-0.060691897
126	0xbd388042	-0.04504419
127	0xbd878a1e	-0.06618141
128	0xbc52fd70	-0.012877807
129	0x3d52e9ae	0.051492386
130	0xbd1984ef	-0.03748029
131	0x3e1748e3	0.14773898
132	0xbd97e264	-0.074162275
133	0x3dfa16ff	0.122114174
134	0xbd0c028a	-0.03418211
135	0x3d36e38c	0.0446506
136	0xbd857be4	-0.06517771
137	0x3dd6560b	0.1046563
138	0xbc357197	-0.011074445
139	0xbe35446b	-0.1770188
140	0x3d40e352	0.04709179
141	0x3d90ed50	0.07076514
142	0x3e12d222	0.14337972
143	0x3c28fb5c	0.010313835
144	0x3d73ccb9	0.05952141
145	0x3e01f6d8	0.1269182
146	0x3e3a7f61	0.18212654
147	0x3e2f4295	0.17115243
148	0x3e1998bf	0.14999674
149	0xbdf256e1	-0.11832977
150	0xbd447956	-0.047967277
151	0x3e37a746	0.17934904
152	0x3cd589df	0.026066719
153	0x3de4707c	0.11154267
154	0xbe30690a	-0.17227569
155	0x3dafbc42	0.08580829
156	0x3d210995	0.03931578
157	0x3ce8684e	0.028370049
158	0xbe116e54	-0.14202243
159	0xbe14bd4b	-0.14525335
160	0xbd95f908	-0.073228896
161	0xbdcbc0a0	-0.0994885
162	0x3de83fe3	0.113403104
163	0xbd9fe0f9	-0.07806582
164	0x3e0bcb78	0.13651836
165	0xbd402c5d	-0.046917308
166	0x3a30c85a	0.0006743722
167	0x3e00d00c	0.12579364
168	0xbba20f24	-0.0049456526
169	0xbb9590ee	-0.004564396
170	0xbcbf7e74	-0.023375727
171	0x3de3aec0	0.11117315
172	0xbdf501e1	-0.11963249
173	0x3de2c888	0.110734046
174	0xbd13b0d2	-0.0360573
175	0x3d46ad70	0.048505247
176	0x3dfad740	0.12248087
177	0x3c34ea2e	0.011042161
178	0x3daef3a2	0.08542563
179	0x3de891f4	0.11355963
180	0x3c8b8177	0.017029507
181	0xbdc8be4c	-0.09801921
182	0xbe1e9134	-0.15485078
183	0x3cdf3391	0.027246268
184	0xbddfa27a	-0.10919662
185	0x3e14e8d3	0.1454194
186	0xbd4c6fc3	-0.04991127
187	0xbd095dd8	-0.033536762
188	0xbdd1784e	-0.102280244
189	0x3b649000	0.003487587
190	0x3dd0399a	0.101672366
191	0x3e3020cd	0.17200013
192	0x3de4b290	0.111668706
193	0x3e12ebf5	0.14347823
194	0x3d583237	0.052782264
195	0x3ca581f6	0.020203572
196	0x3e1b7982	0.1518307
197	0x3c273a22	0.010206731
198	0xbe2d47b3	-0.16921882
199	0xbdfed1cf	-0.124423616
200	0x3d8d700b	0.06906136
201	0xbde11d97	-0.10991972
202	0x3e1ab941	0.15109731
203	0x3da32ec2	0.07967903
204	0x3e238394	0.15968162
205	0x3e2384f1	0.15968682
206	0x3ca02b1c	0.019551806
207	0x3dc74654	0.09730211
208	0x3dc1a947	0.09456115
209	0x3d5af1af	0.053453144
210	0xbda4a311	-0.08038915
211	0x3ba938b3	0.00516423
212	0xbca18919	-0.019718694
213	0xbbd25d10	-0.0064197853
214	0xbe07a48a	-0.1324636
215	0xbcd8f11f	-0.026482163
216	0x3e1b952e	0.15193626
217	0xbe0d8ad0	-0.13822484
218	0xbdd869f7	-0.10567086
219	0x3d8d7a08	0.06908041
220	0xbd9f4a1c	-0.07777807
221	0xbc819898	-0.015819833
222	0x3dbf882e	0.09352146
223	0x3e12e058	0.14343393
224	0x3be60e55	0.0070207515
225	0x3ea1084f	0.3145165
226	0x3ed6c41c	0.41946495
227	0x3e093b98	0.1340164
228	0x3e68f6eb	0.22750442
229	0xbcbe471b	-0.023227265
230	0x3de583c0	0.1120677
231	0xbdf3ded6	-0.11907737
232	0xbb9a04a9	-0.0047002626
233	0x3e487711	0.1957667
234	0xbe5e06cb	-0.21682279
235	0xbe51d6b9	-0.20492066
236	0x3be24ba0	0.006905988
237	0x3dc2d5a2	0.095134035
238	0xbdd600e6	-0.1044939
239	0x3e4c12a3	0.19928984
240	0xbe55dd69	-0.20885243
241	0xbcbb5445	-0.022867331
242	0xbdbae665	-0.091259755
243	0xbd9a6475	-0.07538692
244	0x3d77592e	0.060387783
245	0xbcf56b0a	-0.029958267
246	0xbd5c1a1c	-0.053735837
247	0x3d923a55	0.07140032
248	0xbe43876e	-0.19094631
249	0x3cbf2e30	0.023337454
250	0x3d51c8c9	0.051216874
251	0xbe53cd8a	-0.20683876
252	0x3d45a632	0.0482542
253	0xbdf77ea7	-0.12084704
254	0xbcca3164	-0.024681754
255	0x3caebadb	0.021329334

Network_stack.0.0.gru.weight_hh_l1 f4 [96, 32]
0	0xbe0b5cc0	-0.136096
1	0xbd6286bc	-0.055304274
2	0xbcea68fe	-0.028614517
3	0xbe297767	-0.16549455
4	0x3e0c0464	0.1367355
5	0xbde46b89	-0.11153323
6	0xbd86074f	-0.06544363
7	0x3d5eb15f	0.054368373
8	0xbdeaaa06	-0.11458211
9	0xbe0494fe	-0.12947461
10	0x3df22838	0.11824077
11	0xbdd44b3e	-0.10365914
12	0x3e0ce6eb	0.13759963
13	0xbdd03fa8	-0.101683915
14	0x3e1323bb	0.14369099
15	0x3d6971c7	0.056993272
16	0x3de3e9c9	0.11128575
17	0x3d300145	0.04296996
18	0xbdd2b879	-0.102890916
19	0xbd2d8cda	-0.042370655
20	0xbe2651d7	-0.16242157
21	0xbe1b8382	-0.15186885
22	0xbe2e3432	-0.17012098
23	0x3e051988	0.1299802
24	0xbdc0f5cc	-0.09421882
25	0x3d5d34e7	0.05400553
26	0x3bf98564	0.0076147784
27	0xbd70c378	-0.058780164
28	0xbdd6777d	-0.10472009
29	0x3e112655	0.14174779
30	0x3d933b20	0.071890116
31	0xbddc1c83	-0.10747626
32	0x3e27aba3	0.16374068
33	0xbd5eda7e	-0.05440759
34	0x3e1f4226	0.15552577
35	0xbe1154c4	-0.14192492
36	0x3e220a5c	0.15824264
37	0xbe2ab3fe	-0.16670224
38	0x3da235a9	0.07920391
39	0xbe0a2d6e	-0.13493893
40	0xbe0fad52	-0.1403096
41	0xbcc126bd	-0.023578042
42	0x3decb044	0.115570575
43	0xbd5b7b2c	-0.053584263
44	0x3dad8334	0.08472291
45	0xbe10fca3	-0.14158873
46	0x3d4eb9a6	0.050470017
47	0xbe333b6a	-0.17503133
48	0xbdc3c1f7	-0.0955848
49	0xbc4d09d5	-0.012514551
50	0x3cbee357	0.023301763
51	0xbdfd1dd7	-0.12359207
52	0xbdd8ed94	-0.105921894
53	0x3e2c2578	0.16811168
54	0x3ddc4d96	0.10756986
55	0xbdae704d	-0.085175134
56	0x3d268a46	0.04065921
57	0x3dc3eac3	0.095662616
58	0x3e28115f	0.16412877
59	0x3e0602ef	0.13087057
60	0x3e103a9d	0.14084859
61	0xbe00a367	-0.12562333
62	0x3e2313b4	0.15925485
63	0xbd85a0d4	-0.06524816
64	0xbd8cd688	-0.06876856
65	0x3d124463	0.03570975
66	0x3dee6c27	0.11641722
67	0x3e5656ad	0.20931502
68	0x3e02a2ce	0.12757418
69	0x3d07c4e6	0.03314676
70	0x3aeee79f	0.0018226987
71	0xbdf5b287	-0.11996942
72	0x3d2ed89a	0.042687036
73	0xbe504f9e	-0.20342872
74	0xbdd91859	-0.10600347
75	0x3d2556f5	0.04036613
76	0xbe3e3fb2	-0.18578985
77	0x3e5868a3	0.21133666
78	0xbd9b9ea3	-0.07598617
79	0x3db3d2b4	0.08780423
80	0x3d58a91f	0.05289566
81	0xbc9329b4	-0.017964222
82	0xbe398346	-0.18116483
83	0xbdd4e8a2	-0.10395934
84	0xbe1bd8b7	-0.15219389
85	0x3da608e7	0.08107167
86	0x3d6a36fb	0.05718134
87	0xbdf89cae	-0.12139259
88	0x3daa2a03	0.08308794
89	0x3d7da2b9	0.061922763
90	0xbd2b4441	-0.04181314
91	0x3e09e775	0.134672
92	0x3dbab228	0.09116012
93	0x3d4f9ff3	0.05068965
94	0xbd3acb58	-0.04560408
95	0xbd980d1a	-0.07424374
96	0x3e09cc2d	0.13456793
97	0xbdaf1b06	-0.08550076
98	0xbda81516	-0.08207147
99	0xbd096905	-0.03354742
100	0xbd2f1172	-0.042741247
101	0xbe1207f4	-0.14260846
102	0xbd872df0	-0.06600559
103	0xbe06b99c	-0.13156742
104	0xbd4d2d59	-0.050092075
105	0xbdf4b081	-0.11947728
106	0x3e1494d7	0.14509903
107	0x3de37f8f	0.11108314
108	0x3cd7ac70	0.026327342
109	0xbd2a49d8	-0.04157433
110	0xbddf0291	-0.108891614
111	0x3dbec803	0.09315493
112	0xbd207dd7	-0.03918251
113	0x3e0a511b	0.13507502
114	0x3dce956a	0.10087092
115	0x3d26e94b	0.04074983
116	0x3b58a824	0.0033059204
117	0xbe28d3ff	-0.1648712
118	0x3d367638	0.044546336
119	0x3d1a32a8	0.037645966
120	0x3d059e5e	0.032621734
121	0xbd97d187	-0.07413011
122	0xbdc9adee	-0.098476276
123	0xbdeddc6c	-0.11614308
124	0xbde556b6	-0.111981794
125	0x3dc77541	0.09739161
126	0xbde04e23	-0.109524034
127	0xbe291c30	-0.16514659
128	0x3da90553	0.08252969
129	0x3e330a04	0.1748429
130	0xbca8dcc7	-0.020613087
131	0x3df15320	0.11783433
132	0x3d17fe42	0.037107714
133	0xbc74fda4	-0.014953051
134	0xbce4a2c9	-0.027909653
135	0xbdca32a5	-0.09872941
136	0x3e0249bd	0.12723441
137	0x3e2e85a9	0.17043175
138	0x3d8e00ad	0.06933723
139	0xbc65b69b	-0.014020587
140	0xbe0de934	-0.13858491
141	0xbda689b6	-0.08131735
142	0x3df6ffdf	0.12060522
143	0xbcd57999	-0.026058959
144	0xbdf4e94c	-0.1195856
145	0xbda8fdfc	-0.08251569
146	0xbe0609b9	-0.13089646
147	0x3b9918fb	0.0046721674
148	0x3d4050c0	0.04695201
149	0x3d700eb3	0.05860777
150	0xbdafb29d	-0.0857899
151	0xbe1569b5	-0.14591105
152	0x3e24b3fd	0.16084285
153	0x3d0d3ca8	0.034481674
154	0xbda7bf11	-0.0819074
155	0x3dbc4c79	0.091942735
156	0xbe21145f	-0.15730427
157	0xbdecd7c2	-0.1156459
158	0x3e301aaf	0.17197679
159	0xbdaff4bc	-0.08591601
160	0xbd960c61	-0.0732658
161	0xbca4dab5	-0.020123819
162	0x3d8773ba	0.0661387
163	0xbdb28a98	-0.08717841
164	0xbde0bf4c	-0.10973987
165	0x3c9fba37	0.019497974
166	0xbe353634	-0.17696458
167	0xbd928b96	-0.0715553
168	0xbd089056	-0.033340774
169	0xbdfa1108	-0.1221028
170	0x3e1d5efd	0.15368266
171	0x3c1ba61e	0.009500055
172	0xbe1d40b1	-0.15356709
173	0xbd052305	-0.0325041
174	0xbcc3ad7b	-0.023886433
175	0xbe2f9aea	-0.17148939
176	0x3d18a637	0.03726789
177	0xbcaefb31	-0.021360012
178	0x3e199201	0.14997102
179	0x3cca72bd	0.024712915
180	0x3d28c0a5	0.041199345
181	0x3e0283d2	0.12745598
182	0xbe31d246	-0.17365369
183	0xbd571b2e	-0.052516155
184	0xbd1e0f7f	-0.038588997
185	0xbe1f7b77	-0.15574442
186	0x3d0fad87	0.035077598
187	0xbcf878be	-0.030331012
188	0x3dfcc8e2	0.12343003
189	0x3df18672	0.117932215
190	0x3d089e25	0.033353943
191	0xbdaf5663	-0.08561399
192	0x3e1dfcfd	0.15428539
193	0x3e22c588	0.15895665
194	0xbd91b579	-0.07114691
195	0xbcdd7d01	-0.027037146
196	0xbdb6b7b3	-0.089217566
197	0x3dcf5c93	0.10125079
198	0xbe18d104	-0.14923483
199	0x3e27c292	0.16382816
200	0xbd008d67	-0.03138485
201	0xbdbd5f13	-0.092466496
202	0xbd3e2537	-0.04642221
203	0x3ca2fd07	0.019896043
204	0x3c31ebe9	0.010859468
205	0xbdc2c282	-0.09509756
206	0xbd55326b	-0.052050035
207	0xbcd4cb95	-0.025975982
208	0x3d7040b7	0.058655467
209	0xbd2b0898	-0.041756243
210	0xbe2017f0	-0.15634131
211	0xbc25d67e	-0.01012194
212	0xbd72e19d	-0.059297193
213	0xbdb49eaa	-0.08819325
214	0xbe346122	-0.17615178
215	0xbe1e5b85	-0.154646
216	0xbd8aa9e9	-0.06770689
217	0xbd2c9c73	-0.04214139
218	0x3d757355	0.059924442
219	0x3e2b982e	0.1675727
220	0xbe2b0460	-0.16700888
221	0x3dd2b20d	0.10287867
222	0x3dc8e269	0.09808809
223	0xbd1d5b50	-0.03841716
224	0xbd0790c3	-0.03309704
225	0x3e289493	0.16462927
226	0xbd9a410c	-0.07531938
227	0xbda75ce4	-0.08172014
228	0x3dc97749	0.09837205
229	0xbe452b4e	-0.192548
230	0xbe53f2af	-0.20698045
231	0x3d548bb8	0.05189106
232	0x3d8e4e1a	0.069484904
233	0xbe8f825b	-0.2802914
234	0x3daa3cd3	0.083123825
235	0x3d5cc447	0.053898122
236	0x3d40d3b1	0.047076885
237	0x3d82187e	0.06352328
238	0x3e381b8c	0.17979258
239	0x3daa3fa3	0.08312919
240	0x3de33906	0.11094861
241	0xbcad4809	-0.021152513
242	0xbe587a64	-0.21140438
243	0x3e6012da	0.21882191
244	0xbe19295e	-0.14957187
245	0x3da39529	0.079874344
246	0xbd8dbc49	-0.06920678
247	0x3ca24386	0.019807588
248	0xbeb01094	-0.34387648
249	0x3e0576be	0.13033578
250	0x3dc12682	0.09431173
251	0x3dd16973	0.10225191
252	0xbc0a3342	-0.008435072
253	0xbcc11b14	-0.023572482
254	0x3d086b64	0.03330554
255	0x3c906bba	0.017629493

Network_stack.0.0.gru.bias_ih_l1 f4 [96]
0	0x3d9233e2	0.07138802
1	0x3ced2ff4	0.02895353
2	0x3df52e31	0.11971701
3	0x3c294566	0.010331487
4	0xbdc08f10	-0.09402287
5	0x3cc9f041	0.024650695
6	0xbda731c2	-0.081637874
7	0x3d2c56e9	0.04207507
8	0xbd08a4ad	-0.033360172
9	0xbb6c1268	-0.0036021713
10	0xbdcf6b6c	-0.10127911
11	0x3af78f20	0.0018887259
12	0xbdc3f110	-0.095674634
13	0xbddce8b0	-0.10786569
14	0xbd17e417	-0.037082758
15	0x3e22f1b3	0.15912513
16	0xbd089204	-0.033342376
17	0xbe00c11d	-0.12573667
18	0x3ddc0344	0.1074281
19	0xbd9a70c5	-0.0754104
20	0x3e0950c0	0.1340971
21	0x3d94a5ea	0.07258208
22	0xbe358075	-0.17724784
23	0xbe21d597	-0.15804134
24	0xbdfc4fa9	-0.123198815
25	0xbcdd2d67	-0.026999189
26	0xbd4b8bbf	-0.04969382
27	0xbd54941a	-0.051899053
28	0x3bf60691	0.007508107
29	0xbe1c6dd8	-0.15276277
30	0x3df349d8	0.11879319
31	0xbd5f0d4c	-0.05445604
32	0x3da00062	0.07812573
33	0x3e0a4885	0.13504227
34	0xbdfd90d0	-0.123811364
35	0x3d264aa2	0.04059852
36	0xbe37eff2	-0.17962626
37	0x3d9273e7	0.07151013
38	0x3e261be3	0.16221575
39	0xbe1f8e64	-0.15581661
40	0xbd6d7cc1	-0.057980303
41	0xbd4b1dc6	-0.04958894
42	0x3e0a5f64	0.13512951
43	0x3e0121c1	0.12610532
44	0x3d1757ec	0.036949083
45	0x3e01c049	0.12671007
46	0xbd98501d	-0.074371554
47	0xbe1acbdc	-0.15116829
48	0xbe1743a7	-0.14771901
49	0xbe2d1a24	-0.16904503
50	0x3d8cf179	0.06881995
51	0xbd9706a6	-0.07374315
52	0xbdbc33dd	-0.0918958
53	0xbe1046b8	-0.14089477
54	0x3dd23e70	0.10265815
55	0x3d4b625c	0.04965435
56	0x3e3126cb	0.17299955
57	0x3de27e14	0.11059204
58	0xbd83c0f8	-0.0643329
59	0xbd9c43c3	-0.07630112
60	0x3de1a7ea	0.11018355
61	0x3e1e38f8	0.1545142
62	0x3e19d2ab	0.1502177
63	0x3d930e0b	0.07180413
64	0x3de3f6f8	0.1113109
65	0x3e2e6b1c	0.17033046
66	0x3dab9af0	0.08379161
67	0x3e081c2b	0.13291995
68	0x3bc76d16	0.006086002
69	0x3d9482bf	0.072515
70	0xbe24289d	-0.16031118
71	0x3d86009e	0.065430865
72	0xbe237f91	-0.15966631
73	0x3d27ddf4	0.040983155
74	0xbe18f3c2	-0.14936736
75	0x3d1d65a6	0.038427018
76	0xbd7be230	-0.061495006
77	0x3c598bd0	0.013277963
78	0x3d64d49d	0.055866826
79	0x3d61d0f4	0.055130914
80	0xbdaf02b9	-0.08545441
81	0x3d0766fa	0.03305719
82	0xbe3e29d9	-0.18570651
83	0xbded6cd4	-0.11593023
84	0xbe22d946	-0.15903196
85	0xbd45f886	-0.048332714
86	0x3c7a82b1	0.015289948
87	0x3da0b943	0.07847836
88	0x3d8535c4	0.065043956
89	0x3d8e1fe5	0.06939677
90	0x3cc94327	0.024568154
91	0xbe1f3600	-0.15547943
92	0xbdbb3fa9	-0.091430016
93	0xbdb3b812	-0.08775343
94	0xbe212962	-0.15738443
95	0xbd691cd0	-0.056912243

Network_stack.0.0.gru.bias_hh_l1 f4 [96]
0	0xbd554f4d	-0.05207758
1	0xbe17f84d	-0.14840813
2	0x3dd48a71	0.10377968
3	0xbd33ed0e	-0.043927245
4	0x3c303279	0.010754221
5	0xbded941c	-0.11600515
6	0x3e34d464	0.17659146
7	0x3df1ac78	0.11800474
8	0xbdaa8133	-0.08325424
9	0x3e3cba21	0.18430378
10	0xbc888ba9	-0.016668158
11	0x3d0ac830	0.03388232
12	0xbe101e37	-0.14074026
13	0x3c1a0701	0.009401084
14	0xbd95d4c1	-0.0731597
15	0xbddfb166	-0.10922508
16	0x3d47eaab	0.04880778
17	0x3e200a51	0.15628935
18	0x3e010ad6	0.1260179
19	0xbc2a41e0	-0.010391682
20	0xbac70db7	-0.0015186582
21	0xbcead242	-0.028664712
22	0x3d561161	0.052262668
23	0xbcf64fe7	-0.030067397
24	0x3bf37280	0.007429421
25	0x3d3cf812	0.046135016
26	0xbe15dfba	-0.14636126
27	0x3c59b2d8	0.013287269
28	0x3d02b218	0.031908125
29	0xbd4e6ef7	-0.050398793
30	0x3e08a488	0.13344014
31	0x3e2b6c32	0.16740492
32	0xbe427a14	-0.18991882
33	0x3dacd336	0.08438723
34	0x3dadf91f	0.08494782
35	0x3c6a0563	0.014283511
36	0xbb0dc25a	-0.0021630735
37	0x3d166a6b	0.03672258
38	0xbb7753a5	-0.0037739065
39	0x3d219dfe	0.039457314
40	0x3ddd1e3e	0.10796784
41	0xbd7381ac	-0.059449837
42	0xbdb29a84	-0.08720878
43	0x3dec0840	0.11525011
44	0x3b55be2a	0.0032614567
45	0x3daed259	0.085362144
46	0xbdfe6d0a	-0.12423141
47	0xbdef7e58	-0.1169402
48	0xbe0def54	-0.13860828
49	0xbe344780	-0.176054
50	0xbe0c72d2	-0.13715675
51	0xbd6d308d	-0.05790763
52	0xbd223ed6	-0.039610706
53	0xbc703ccd	-0.014662934
54	0xbca96ef9	-0.020682799
55	0xbda77bed	-0.08177934
56	0xbe167a99	-0.14695205
57	0x3d712ffd	0.058883656
58	0x3ce0fdb8	0.027464733
59	0x3dbad71f	0.09123062
60	0x3e0c3f96	0.13696131
61	0xbdc91d82	-0.09820081
62	0xbdd5a02b	-0.1043094
63	0xbdfba3f5	-0.12287132
64	0x3dda9eb8	0.106748044
65	0x3c1eccae	0.009692354
66	0xbd3a7cdb	-0.045529228
67	0xbd83db3c	-0.064383
68	0x3dd7d332	0.10538329
69	0xbe193318	-0.14960897
70	0xbdabd9f8	-0.083911836
71	0x3dc7e426	0.09760313
72	0xbda11fbb	-0.0786738
73	0xbd0e771b	-0.034781557
74	0xbdf9c43a	-0.1219563
75	0xbe0ad49e	-0.1355767
76	0x3de062cf	0.10956346
77	0x3e0874cc	0.13325804
78	0x3d9cca4c	0.076557726
79	0xbdda99cf	-0.10673868
80	0x3da7c417	0.08191698
81	0x3df9ebce	0.12203179
82	0x3e258796	0.16165003
83	0x3aa5cf38	0.0012650257
84	0xb8a7117a	-7.966436e-05
85	0xbe01bfbe	-0.126708
86	0xbe2cc855	-0.16873296
87	0xbd5925db	-0.053014617
88	0xbccb812c	-0.024841867
89	0xbe0f6cdc	-0.1400637
90	0xbdd5bdc5	-0.10436586
91	0xbd99c981	-0.07509137
92	0xbd25e1e7	-0.04049864
93	0xbe00058b	-0.12502114
94	0x3d809930	0.06279218
95	0xbe10a097	-0.1412376

Network_stack.1.0.gru.weight_ih_l0 f4 [96, 2]
0	0xbd85150e	-0.064981565
1	0xb9b420b6	-0.00034356647
2	0xbe1f9dd2	-0.15587547
3	0xbe17cd2b	-0.14824359
4	0x3e042144	0.12903315
5	0x3d7e74ea	0.062123217
6	0xbd606788	-0.054786235
7	0xbe21f9bf	-0.15817927
8	0xbe25d5c2	-0.16194823
9	0xbcd97493	-0.026544845
10	0xbdc50e8c	-0.09621915
11	0x3ddd5a47	0.10808235
12	0x3e0e4d25	0.13896616
13	0x3e26e366	0.16297683
14	0xbb459e7b	-0.0030154276
15	0xbc3a9076	-0.011386981
16	0x3d3bc392	0.045840807
17	0xbc914428	-0.017732695
18	0x3d717b10	0.058955252
19	0xbe1140f4	-0.14184934
20	0x3de1066d	0.10987554
21	0x3dccd98e	0.10002433
22	0x3d1076eb	0.03526966
23	0x3e011a95	0.12607796
24	0x3dfa1c56	0.12212436
25	0xbdaff5c1	-0.08591796
26	0xbe31e587	-0.17372714
27	0x3d387f55	0.04504331
28	0x3d865a25	0.065601625
29	0x3d829bc7	0.063773684
30	0xbc64bb96	-0.01396074
31	0xbe0aa3c7	-0.13539039
32	0xbe0de0f8	-0.1385535
33	0xbe15d735	-0.14632876
34	0x3deab873	0.11460962
35	0x3c5b2656	0.013375839
36	0xbe37222e	-0.17884132
37	0xbe28b531	-0.16475369
38	0xbd157374	-0.036487058
39	0x3e15000d	0.145508
40	0xbe289a54	-0.16465122
41	0x3db81c99	0.089898296
42	0xbdd7ae69	-0.10531313
43	0xbe34296f	-0.1759393
44	0x3d0e2790	0.0347057
45	0x3e5a6783	0.21328549
46	0x3dc0bae2	0.09410645
47	0x3dbb6e4d	0.091518976
48	0xbdeaf000	-0.114715576
49	0x3d483c48	0.048885614
50	0xbe3004c4	-0.17189318
51	0xbd8f053d	-0.06983421
52	0x3c48412f	0.012222572
53	0x3e1a538d	0.15070935
54	0x3e190a7a	0.14945403
55	0xbde0bad5	-0.109731354
56	0xbdaeab54	-0.08528772
57	0x3d925256	0.071446106
58	0xbd107097	-0.035263624
59	0xbdd9ebec	-0.10640702
60	0x3d20ebf4	0.039287522
61	0x3e2967c3	0.16543488
62	0xbda10b69	-0.078635044
63	0xbe040e88	-0.12896168
64	0x3ccd5f6c	0.025069915
65	0x3e3f6886	0.18692216
66	0x3d2d4b1d	0.04230796
67	0x3e113643	0.14180855
68	0x3dbadc09	0.091239996
69	0xbcf7923d	-0.030221099
70	0xbe3169b7	-0.17325483
71	0xbe2166b6	-0.15761837
72	0x3d7afd09	0.06127647
73	0x3d9d6e98	0.0768711
74	0xbdd3dfb7	-0.103454046
75	0x3dea31b9	0.11435265
76	0xbcf251a4	-0.029579945
77	0x3d217190	0.039414942
78	0x3d1fb0fe	0.038987152
79	0x3e154273	0.1457613
80	0x3dc0f24f	0.09421217
81	0xbd947e87	-0.07250696
82	0xbd82b118	-0.06381434
83	0xbd9ba726	-0.076002404
84	0x3aeefe81	0.0018233807
85	0x3d7d0bd8	0.061778873
86	0xbdc5490f	-0.096330754
87	0x3d9fdcca	0.07805784
88	0x3d8d1ae2	0.06889893
89	0x3d7c6a7b	0.061624985
90	0xbe27e2f2	-0.16395167
91	0xbd2dfbe7	-0.04247656
92	0xbd9678d1	-0.07347263
93	0x3d2196a2	0.039450295
94	0xbd1705a1	-0.036870603
95	0x3e161eb8	0.14660156
96	0xbdc1ba6e	-0.09459387
97	0x3d1b8755	0.03797086
98	0x3d3cb561	0.046071414
99	0xbd27aefa	-0.040938355
100	0x3af5e12e	0.0018759125
101	0xbe23b340	-0.15986347
102	0xb9c96bc8	-0.0003841801
103	0xbe16ff84	-0.14745909
104	0xbd3636be	-0.0444858
105	0xbe1ddc51	-0.15416075
106	0xbd6565dd	-0.056005348
107	0xbd8b6975	-0.06807224
108	0xbe5b6595	-0.21425469
109	0xbe6a713f	-0.22894762
110	0xbda674cf	-0.08127748
111	0x3e418731	0.18899228
112	0xbd21fd3f	-0.039548155
113	0xbe1132e3	-0.14179568
114	0xbdab5e78	-0.08367628
115	0x3e04ac3e	0.1295633
116	0x3e028639	0.12746514
117	0xbda045ac	-0.07825789
118	0xbe2470f0	-0.16058707
119	0x3d877553	0.06614175
120	0x3e30b687	0.17257129
121	0xbe2141a3	-0.15747695
122	0xbcc67edb	-0.024230411
123	0x3c7b431e	0.015335826
124	0x3dea3cac	0.114373535
125	0x3e11d985	0.14243133
126	0xbd28e01d	-0.041229356
127	0xbe3c7c18	-0.18406713
128	0x3e1a2c64	0.15055996
129	0x3df4bbcd	0.11949883
130	0xb9181d22	-0.00014506702
131	0x3dd13b22	0.10216357
132	0x3c899db0	0.016798824
133	0xbdcd2057	-0.10015934
134	0xbe1c6ba7	-0.15275441
135	0xbe241ba0	-0.16026163
136	0xbe20368b	-0.15645806
137	0xbe0a5e69	-0.13512577
138	0x3d040c44	0.03223826
139	0x3d8fece0	0.07027602
140	0xbdb76ff1	-0.08956898
141	0xbd1002ef	-0.035159048
142	0xbd3fa343	-0.046786558
143	0x3e23786e	0.15963909
144	0x3c8251d6	0.015908163
145	0x3e15044d	0.14552422
146	0x3e23e069	0.16003574
147	0x3e31e141	0.17371084
148	0xbe05edf5	-0.13079055
149	0xbcfe915a	-0.031075168
150	0x3c0b4ae7	0.008501745
151	0x3e2e3f82	0.17016414
152	0xbe36d3aa	-0.17854181
153	0x3dae8b6f	0.085226886
154	0x3c4f68cb	0.012659262
155	0xbc8fa335	-0.017533878
156	0xbe121932	-0.14267424
157	0x3ded4098	0.11584586
158	0x3d272452	0.040806122
159	0x3e2101bb	0.15723316
160	0x3d9d31cf	0.07675516
161	0xbd212ac6	-0.039347433
162	0xbceb08e9	-0.028690772
163	0x3e19b4c8	0.15010369
164	0xbdaff2c7	-0.08591228
165	0xbe02dbb0	-0.12779117
166	0xbd9db3b5	-0.07700292
167	0x3e25d56f	0.161947
168	0xbe107ca6	-0.1411005
169	0xbda1ea24	-0.07905987
170	0x3d9fb2e5	0.07797793
171	0x3daaea3e	0.083454594
172	0xbdc50f85	-0.09622101
173	0x3de2bd7f	0.110713
174	0xbdfd2076	-0.12359707
175	0x3e13e5a0	0.14443064
176	0xbdb38867	-0.08766251
177	0xbdf7b36d	-0.120947696
178	0x3e130081	0.14355661
179	0xbd8022e3	-0.06256654
180	0x3cece3f2	0.028917287
181	0x3da9e40b	0.08295449
182	0x3dd7f6c4	0.10545114
183	0x3e2ba89f	0.16763543
184	0xbd4251cb	-0.047441285
185	0xbe17860b	-0.14797227
186	0xbccf0706	-0.025271904
187	0xbd6bd124	-0.0575725
188	0x3e2ebeec	0.17065018
189	0xbe155c30	-0.14585948
190	0x3e2ee6b7	0.17080198
191	0x3d840f51	0.06448234

Network_stack.1.0.gru.weight_hh_l0 f4 [96, 32]
0	0xbe1718a0	-0.14755487
1	0x3de80054	0.113281876
2	0x3d4d56d5	0.050131638
3	0xbd229e07	-0.039701488
4	0xbcada3af	-0.021196214
5	0x3d30b493	0.04314096
6	0xbe08f8e0	-0.13376188
7	0x3d97ed63	0.07418325
8	0x3d1d8188	0.03845361
9	0x3df12857	0.11775272
10	0x3d96d3e2	0.07364632
11	0x3dd9cd83	0.106349014
12	0xbcc2317e	-0.02370524
13	0xbd8fbebd	-0.07018802
14	0xbe0bc46a	-0.13649145
15	0x3c9fc1cc	0.01950159
16	0xbe2d1842	-0.16903785
17	0x3d5d5c07	0.054042842
18	0x3de0c0dc	0.10974285
19	0xbd9df73d	-0.077131726
20	0x3dcb0e79	0.0991487
21	0xbe0ce619	-0.1375965
22	0x3e0a1fe5	0.1348873
23	0x3dfe68de	0.124223456
24	0xbe2bfab2	-0.16794851
25	0x3e0aba20	0.13547564
26	0xbc15cff6	-0.00914382
27	0x3d9e647c	0.077340096
28	0xbe053cb0	-0.13011432
29	0x3c844c61	0.016149702
30	0x3e054b56	0.1301702
31	0x3d5a4780	0.053290844
32	0x3c6dfdd2	0.0145258475
33	0xbcae5b9f	-0.021283923
34	0x3e2006d0	0.15627599
35	0x3db539e5	0.08848933
36	0x3da843fa	0.082160905
37	0xbe26e2af	-0.1629741
38	0x3c90c62c	0.01767262
39	0xbd9ca157	-0.07647961
40	0x3cd73cc1	0.026274087
41	0xbe290568	-0.16505969
42	0xbdbc7660	-0.09202266
43	0xbe17f1e5	-0.14838369
44	0x3dad3fe9	0.084594555
45	0x3e24f804	0.16110235
46	0x3e1dd090	0.15411592
47	0xbdea6ed7	-0.11446922
48	0x3dee3b85	0.11632446
49	0x3bd0dbd5	0.0063738623
50	0xbdf5d2ac	-0.12003073
51	0xbd919ebb	-0.071103536
52	0x3d7db0f8	0.06193635
53	0xbdf9ecb7	-0.12203353
54	0x3cb6bb8d	0.022306228
55	0xbd9d8f9d	-0.07693408
56	0x3d82734c	0.063696474
57	0xbdaf103d	-0.08548019
58	0xbd3d3bc9	-0.046199594
59	0x3dafee20	0.085903406
60	0xbd6629d3	-0.05619223
61	0x3dd6e16e	0.10492216
62	0x3d181e20	0.037138104
63	0xbc76844d	-0.015046191
64	0x3e024cdc	0.12724632
65	0xbdbb3608	-0.09141165
66	0xbd6e9c07	-0.058254268
67	0xbe1fb0db	-0.15594809
68	0x3d210bcc	0.03931789
69	0xbddad9e6	-0.10686092
70	0xbd03f8d7	-0.032219734
71	0x3d63f176	0.055650197
72	0xbd50a829	-0.05094162
73	0x3db1de72	0.08685006
74	0x3c48b86a	0.012250999
75	0x3e2819b8	0.16416061
76	0xbd1f4ccd	-0.038891602
77	0x3d291fbb	0.041290026
78	0x3dca4a44	0.09877446
79	0xbc574534	-0.013139058
80	0xbe08c64b	-0.13356893
81	0xbe23795c	-0.15964264
82	0x3d4248b4	0.047432616
83	0xbcfa3fb5	-0.030547956
84	0xbde8220a	-0.113346174
85	0xbe1e6eb6	-0.1547192
86	0xbda57417	-0.08078783
87	0xbdb48e53	-0.08816209
88	0x3d40f4e8	0.04710856
89	0xbdfe620b	-0.12421044
90	0xbc8548d8	-0.016270086
91	0xbd8aa1a7	-0.06769114
92	0x3ba0829b	0.004898382
93	0x3d9ce932	0.07661666
94	0x3d8f149c	0.06986353
95	0x3d04e1f9	0.032442067
96	0x3df0301a	0.11727925
97	0xbe220945	-0.15823849
98	0xbdf93938	-0.12169117
99	0xbaa676a0	-0.0012700148
100	0x3ba7b459	0.0051179347
101	0xbc31da07	-0.010855204
102	0xbcb37275	-0.021905163
103	0x3dbc879f	0.09205555
104	0x3b68a3b5	0.0035497968
105	0x3df0e338	0.117620885
106	0x3dac43e3	0.08411386
107	0x3d561576	0.05226656
108	0xbe0c3b30	-0.13694453
109	0x3d9a44b3	0.075326346
110	0x3dc9c9b5	0.09852926
111	0xbe31bb78	-0.1735667
112	0x3cbd43e7	0.023103667
113	0xbdf28eeb	-0.11843666
114	0x3cf3a1fa	0.029740322
115	0x3cf2e4f4	0.029650189
116	0x3db077e5	0.08616618
117	0xbe2517b2	-0.1612232
118	0xbdbb15f2	-0.09135045
119	0xbe0f33b8	-0.13984573
120	0xbdcdd829	-0.10050995
121	0x3d2c774a	0.04210595
122	0xbe330f3b	-0.17486279
123	0xbd9e4085	-0.0772715
124	0xbdb88c73	-0.090111636
125	0xbe097be1	-0.13426162
126	0x3d6a9b2f	0.0572769
127	0x3d307e16	0.043088995
128	0x3de3ac77	0.111168794
129	0xbe2f0f8e	-0.17095777
130	0x3dbaab00	0.09114647
131	0xbda3a4de	-0.0799043
132	0x3db8172b	0.08988794
133	0xbdc7954e	-0.097452745
134	0x3b8a2dbc	0.0042168777
135	0x3e2dec0c	0.16984576
136	0x3df8c1f3	0.12146368
137	0x3de93ea4	0.11388901
138	0xbdba2622	-0.090893045
139	0xbe08dbb6	-0.13365063
140	0xbe12cc9d	-0.14335866
141	0xbda0ec85	-0.078576125
142	0xbe05fc2f	-0.13084482
143	0x3e01a6a0	0.12661219
144	0x3e008067	0.12548982
145	0x3d4bc7a5	0.049750943
146	0x3e055820	0.13021898
147	0x3d74c426	0.059757374
148	0xbd36a745	-0.044593114
149	0xbdea8f37	-0.11453097
150	0x3d35f6f1	0.044424955
151	0xbe08896d	-0.13333674
152	0x3dc4bca7	0.09606295
153	0xbe214a1b	-0.15750925
154	0x3daf9142	0.085726276
155	0xbe395130	-0.18097377
156	0xbcfbdf0e	-0.03074601
157	0xbdb09e5c	-0.08623955
158	0x3dcadeb7	0.09905761
159	0xbdea9156	-0.11453502
160	0x3de94ae2	0.11391236
161	0x3dec9815	0.11552445
162	0x3bcfd0b0	0.006342016
163	0xbe247ab3	-0.16062431
164	0xbd0121e6	-0.03152647
165	0x3dd26141	0.10272456
166	0x3ccd3be3	0.02505297
167	0x3dbb3d49	0.091425486
168	0x3e253ca3	0.16136412
169	0xbde3b3af	-0.11118256
170	0xbd1267d2	-0.035743542
171	0xbd2478cf	-0.040154275
172	0x3e292af1	0.16520287
173	0xbe23f7f6	-0.16012558
174	0x3d14d520	0.036336064
175	0x3d683749	0.05669335
176	0xbd50631a	-0.05087576
177	0x3ce6ea79	0.028187977
178	0xbd91bc4f	-0.07115995
179	0x3cad7985	0.02117611
180	0xbda94a26	-0.08266096
181	0x3b4659ab	0.0030265849
182	0x3e1cee74	0.15325338
183	0x3e31dd0b	0.17369477
184	0xbdaead32	-0.08529128
185	0xbe2de8a6	-0.1698328
186	0x3d80db8d	0.06291876
187	0x3da82cc3	0.082116626
188	0xbe23eea5	-0.16009004
189	0xbbe1db42	-0.0068925926
190	0xbd818e57	-0.06325977
191	0x3e143e0b	0.14476793
192	0x3e3a1031	0.18170239
193	0xbde380c6	-0.11108546
194	0xbcd2bebb	-0.025725713
195	0xbd8607f2	-0.06544484
196	0xbba92f45	-0.0051631057
197	0xbca0dff1	-0.019638034
198	0x3e06e300	0.13172531
199	0x3d31b4b2	0.043385215
200	0x3dcb8875	0.099381365
201	0xbb14afb3	-0.0022687733
202	0x3e0c3b3e	0.13694474
203	0xbb9caf33	-0.0047816276
204	0x3e14bf56	0.14526114
205	0xbd0cc055	-0.03436311
206	0x3c9ce1d5	0.019150654
207	0x3d28d067	0.041214373
208	0xbe30972d	-0.17245169
209	0xbdfd2c80	-0.12362003
210	0x3cd7eb44	0.0263573
211	0x3d988b12	0.074484006
212	0x3ca5b631	0.020228477
213	0x3e05bb2f	0.13059686
214	0x3c08f523	0.008359226
215	0x3e2fe307	0.17176448
216	0xbd49cc5a	-0.04926715
217	0xbc0ab276	-0.0084654
218	0x3d391f14	0.045195654
219	0x3ccb2f6a	0.024802882
220	0xbd5f86a6	-0.05457177
221	0x3bc9036e	0.006134442
222	0xbc5d2da3	-0.01349965
223	0xba412dc6	-0.00073691865
224	0xbe104d20	-0.14091921
225	0xbd768890	-0.06018883
226	0xbdca4299	-0.09875984
227	0x3dfb1a3b	0.122608624
228	0xbe086804	-0.13320929
229	0xbdd6c1c2	-0.10486175
230	0xbdfe2743	-0.12409832
231	0xbd8000cd	-0.06250153
232	0x3db79ae4	0.0896509
233	0x3e0e11ed	0.13874026
234	0xbdb74b38	-0.08949894
235	0x3d2116c1	0.03932834
236	0xbc96e846	-0.018421303
237	0x3dc8bc23	0.09801509
238	0xbc725723	-0.014791283
239	0x3e20307e	0.15643498
240	0xbb99c5ed	-0.004692784
241	0xbd3a3766	-0.04546299
242	0x3de92cb7	0.11385482
243	0xbd2d75d0	-0.042348683
244	0x3e42ee3f	0.19036196
245	0x3da6469e	0.08118938
246	0xbdb89be3	-0.09014108
247	0x3dcb0e61	0.09914852
248	0x3e03b3da	0.12861577
249	0x3d163cc7	0.036679056
250	0x3e2ab274	0.16669637
251	0x3e240850	0.16018796
252	0x3d888bf5	0.0666732
253	0x3d9a2a4d	0.075275995
254	0xbd242503	-0.04007436
255	0xbca440b3	-0.020050382

Network_stack.1.0.gru.bias_ih_l0 f4 [96]
0	0x3dfc60b2	0.12323131
1	0xbe2b713e	-0.16742417
2	0x3de4fc65	0.11180953
3	0xbd3b918b	-0.045793097
4	0x3b045ad6	0.0020195744
5	0x3df4d78b	0.11955174
6	0x3e0492a6	0.12946567
7	0xbe0d783c	-0.13815397
8	0xbb11ee14	-0.002226715
9	0x3de68d76	0.1125745
10	0x3d1da711	0.038489405
11	0xbd310f26	-0.043227337
12	0xbd6f9831	-0.05849475
13	0x3dc5524a	0.09634836
14	0x3d7b8ed7	0.06141552
15	0x3e0557a2	0.1302171
16	0xbcde785e	-0.027157005
17	0xbdd86ae9	-0.105672665
18	0xbd0a7e7a	-0.033812024
19	0x3d76ea43	0.060282003
20	0xbba0e641	-0.004910261
21	0xbc019589	-0.007909187
22	0x3dd1fad4	0.1025292
23	0xbca6fc00	-0.020383835
24	0xbdbe6987	-0.092974715
25	0x3d9a7878	0.07542509
26	0x3dc1fd29	0.094721146
27	0x3dc2679b	0.094924174
28	0xbddd6e9e	-0.10812114
29	0x3dca3169	0.098727055
30	0xbc8438b5	-0.016140321
31	0x3cd458a3	0.025921172
32	0x3e001389	0.12507452
33	0xbdce0c09	-0.10060889
34	0xbdf767b0	-0.12080324
35	0x3c691829	0.014226952
36	0xbdf213b4	-0.11820164
37	0xbc9e81c8	-0.019348994
38	0x3d2f0baf	0.04273575
39	0xbdeef358	-0.11667508
40	0xbe235ea2	-0.15954068
41	0x3bdca69e	0.0067337295
42	0xbda17038	-0.07882732
43	0xbcfb8da1	-0.030707182
44	0xbe2bee2b	-0.16790073
45	0x3da057c0	0.07829237
46	0xbd99629f	-0.074895136
47	0x3dbe7f9e	0.09301685
48	0xbcb7a996	-0.022419732
49	0x3daffb07	0.085928015
50	0x3d0777cf	0.033073243
51	0xbe3eb455	-0.18623479
52	0x3d8a8967	0.06764489
53	0x3df36d74	0.11886111
54	0x3e022451	0.12709166
55	0xbe16ebd0	-0.14738393
56	0xbce23485	-0.027612934
57	0x3bb978d3	0.0056601553
58	0x3dfdf439	0.124000974
59	0xbe24ca60	-0.16092825
60	0x3dd14b32	0.102194205
61	0xbd5dd871	-0.054161493
62	0x3de91452	0.11380829
63	0x3c3bd23c	0.011463698
64	0xbc811e99	-0.01576166
65	0x3d879a52	0.06621231
66	0x3d031e15	0.03201111
67	0x3d8c7994	0.06859127
68	0x3dcc70a9	0.09982426
69	0xbc88bc7c	-0.016691439
70	0x3d09b392	0.033618517
71	0xbd2d08db	-0.042244773
72	0x3dd2b210	0.10287869
73	0xbc23985d	-0.009985057
74	0xbe320b67	-0.17387162
75	0x3d03c664	0.032171622
76	0x3d6f05b5	0.058355052
77	0xbd83bc52	-0.064324036
78	0xbda0430e	-0.0782529
79	0x3deb9d58	0.1150462
80	0xbe1ecd0d	-0.15507908
81	0x3cd20a4f	0.025639681
82	0x3d174894	0.03693445
83	0x3de94a76	0.113911554
84	0x3e235149	0.15948977
85	0xbd23e4a7	-0.04001298
86	0xbd25b237	-0.040453162
87	0xbd3c3e53	-0.045957875
88	0xbd90a112	-0.07061972
89	0x3c30e07d	0.01079571
90	0x3e2023fc	0.15638727
91	0x3e2bbd9d	0.1677155
92	0xbdff6ebc	-0.12472293
93	0x3cd7d709	0.026347654
94	0x3db516fc	0.088422745
95	0xbd3faad8	-0.04679379
