models/model_uniform_region_0-0.3.0.6-0.9_multiple_Agentsef0f7311.pth (torch, 342818 bytes, 68 tensors)

Network_stack.0.0.gru.weight_ih_l0 f4 [96, 2]
-0.093166135 -0.11288432 0.15541534 0.027303476 -0.013110234 0.1586023 -0.13557893 0.04821404
0.0070877215 -0.11318148 -0.055297885 0.06067225 0.20952167 -0.17487532 0.1161456 0.105022475
0.07245992 0.2064238 -0.14693509 0.07794029 -0.049612414 0.004943775 0.026024753 0.0659739
0.05287827 0.08181885 -0.11503642 0.15033986 0.07077876 -0.0149759995 -0.20070836 -0.16975409
0.15013161 0.061353166 0.15607584 0.090748504 0.13867122 -0.13975495 -0.12561828 0.026546508
0.14905845 0.15141752 0.065385416 0.014360844 0.20123065 0.13734557 -0.0715787 0.088415496
0.034054946 0.09554318 -0.09182744 0.025291074 0.14526482 0.11929534 0.0023062376 0.006748372
0.09306465 0.080681935 0.13915746 0.06570132 -0.029937604 0.13971044 0.049819663 -0.060451176
0.009704596 0.06567284 -0.104655065 0.14226177 -0.83354825 -0.31931552 -0.046468332 -0.31416664
-0.24187274 -0.082816295 -0.03223302 -0.23663366 -0.7044575 -0.47326782 0.1688214 -0.18177038
-0.36463103 -0.32195336 -0.10487941 -0.17687201 -0.027045619 0.26982147 -0.2669153 0.044529177
0.44246632 0.49401575 -0.17915238 0.0021811575 -0.48474684 0.006203384 0.018836 0.20133272
0.16983855 0.15646705 -0.74838305 -0.41628686 -0.3289302 -0.0703416 -0.16041552 0.1412597
-0.05322005 -0.020329906 -0.29746965 -0.39187905 -0.76905143 -0.49339673 -0.20564386 -0.08986329
0.030137816 0.09982554 -0.14253192 -0.06284064 -0.7091414 -0.2998468 -0.92888004 -0.17002557
-0.2551184 -0.16882181 0.08339334 -0.2398065 -0.39212665 -0.3024405 -0.16106045 -0.15342288
-0.06701714 0.005665262 0.036299 -0.15616623 0.21477981 -0.0040347725 0.108344376 0.1282798
-0.15198572 -0.042817008 0.011979844 0.113412745 -0.29392725 0.18507937 -0.11610786 -0.16475442
0.15367463 -0.006218768 -0.16239068 -0.021011781 0.20025362 0.1639303 0.019457866 0.06613248
0.123138964 0.15597859 0.045782328 0.03806424 -0.1354474 -0.13572456 0.10107591 0.026451295
0.038102668 -0.1633045 -0.25405878 0.18414398 0.12699533 -0.11107978 0.16168514 -0.09536762
-0.0013575951 -0.07424278 -0.14356034 0.008042755 -0.14102285 -0.010894308 0.1659838 -0.08455493
0.15394823 -0.06191695 -0.20280564 0.13364288 0.19052401 -0.10792261 0.15591606 0.07031326
0.17201613 0.11032604 0.07922619 0.13384177 -0.06066828 0.08745542 -0.0890799 -0.1552278
00000000: e3cd bebd e52f e7bd 3325 1f3e 8aab df3c
00000010: 4fcc 56bc a468 223e 34d5 0abe 167c 453d
00000020: 1e40 e83b b1cb e7bd 0980 62bd 7783 783d
00000030: d98c 563e 8412 33be bfdd ed3d 0616 d73d
00000040: de65 943d c360 533e 2776 16be 299f 9f3d
00000050: 6336 4bbd 64ff a13b dd31 d53c 531d 873d
00000060: e396 583d a490 a73d 3798 ebbd b1f2 193e
00000070: 74f4 903d e55d 75bc 7e86 4dbe 04d4 2dbe
00000080: 1abc 193e 754d 7b3d 58d2 1f3e 5ada b93d
00000090: d4ff 0d3e ec1b 0fbe 14a2 00be 1078 d93c
000000a0: c7a2 183e 320d 1b3e cae8 853d bf49 6b3c
000000b0: 680f 4e3e 51a4 0c3e da97 92bd 2f13 b53d
000000c0: 337d 0b3d 25ac c33d 0610 bcbd 3a2f cf3c
000000d0: 4dc0 143e 1d51 f43d 3f24 173b 7321 dd3b
000000e0: ae98 be3d 923c a53d 4b7f 0e3e 6a8e 863d
000000f0: b53f f5bc 4110 0f3e b40f 4c3d a79b 77bd
00000100: 0700 1f3c 7b7f 863d 6555 d6bd 12ad 113e
00000110: 6b63 55bf 537d a3be 9455 3ebd 73da a0be
00000120: 7dad 77be 979b a9bd c506 04bd 1850 72be
00000130: 5457 34bf 2950 f2be 84df 2c3e 0422 3abe
00000140: ebb0 babe 12d7 a4be 04cb d6bd f01d 35be
00000150: c68e ddbc 0a26 8a3e 1fa9 88be 3a64 363d
00000160: f28a e23e a2ef fc3e b973 37be c0f1 0e3b
00000170: bd30 f8be c245 cb3b f44d 9a3c 2a2a 4e3e
00000180: 28ea 2d3e e638 203e 0896 3fbf 8d23 d5be
00000190: 8a69 a8be 420f 90bd f743 24be 62a6 103e
000001a0: 44fd 59bd e78a a6bc f14d 98be 5fa4 c8be
000001b0: 8ee0 44bf 7f9e fcbe 4e94 52be 3f0a b8bd
000001c0: 95e3 f63c 5571 cc3d e3f3 11be 98b2 80bd
000001d0: 4a8a 35bf 8585 99be 15cb 6dbf 2f1b 2ebe
000001e0: e19e 82be a0df 2cbe 21ca aa3d d68f 75be
000001f0: d3c4 c8be 7bd9 9abe 08ed 24be e31a 1dbe
00000200: 4840 89bd aaa3 b93b 43ae 143d 0aea 1fbe
00000210: 3def 5b3e 2036 84bb a8e3 dd3d c85b 033e
00000220: 25a2 1bbe e360 2fbd 1c47 443c f144 e83d
00000230: a27d 96be 7285 3d3e f5c9 edbd 62b5 28be
00000240: e25c 1d3e cfc6 cbbb be49 26be e620 acbc
00000250: 490f 4d3e 58dd 273e 1a66 9f3c 7770 873d
00000260: 4830 fc3d dab8 1f3e 4086 3b3d 40e9 1b3d
00000270: b9b2 0abe 61fb 0abe e300 cf3d 63b0 d83c
00000280: 8b11 1c3d 4b39 27be fe13 82be 3d90 3c3e
00000290: 100b 023e cc7d e3bd ca90 253e 1950 c3bd
000002a0: 55f1 b1ba 990c 98bd 7b01 13be c2c5 033c
000002b0: 4b68 10be 0a7e 32bc a8f7 293e 232b adbd
000002c0: 9ba4 1d3e a19c 7dbd 48ac 4fbe aed9 083e
000002d0: ba18 433e 8806 ddbd 76a8 1f3e 6600 903d
000002e0: ff24 303e 9ef2 e13d 5741 a23d d10d 093e
000002f0: 4d7f 78bd d41b b33d 866f b6bd 09f4 1ebe

Network_stack.0.0.gru.weight_hh_l0 f4 [96, 32]
0.05337899 -0.0349421 -0.15551594 0.174457 0.0011808565 0.0025637092 -0.13968985 -0.11515817
-0.023789259 -0.08984885 -0.005682191 0.023617955 0.14581393 -0.033556685 0.093908675 -0.18635316
0.16017637 0.09459576 -0.06353004 -0.12688078 0.11136913 0.14829712 0.112470366 -0.029408878
-0.16509233 -0.0023313218 0.116675 0.10525712 -0.075915396 0.14303192 0.08523389 0.064326614
-0.0585345 -0.18854105 0.10450782 -0.060172386 -0.068856075 -0.015116195 -0.04526642 -0.05370729
0.02292829 0.06757403 -0.06262767 0.1870642 0.025919812 0.0038488451 0.10804403 -0.029039904
-0.16850768 -0.13310638 -0.05116825 0.09573571 0.0013387185 0.10421489 -0.05450161 -0.11425921
-0.10154115 -0.116259634 0.027643146 0.025802752 0.11614592 0.017159674 -0.07480392 -0.13436407
0.031680197 -0.10293684 -0.20114525 0.016825657 -0.018195096 -0.10094297 0.21555385 0.12800625
0.029527774 0.15425001 -0.078367345 -0.09071038 -0.15636803 0.1383807 -0.1572318 -0.0026283949
0.010419879 -0.07869077 0.12251671 -0.096077524 0.09209673 0.10752877 0.027176619 0.09121473
0.005498538 -0.040469497 -0.1837346 -0.042587295 -0.035129987 -0.1422142 0.117651045 0.0005287877
0.030169439 0.027586948 0.097978264 -0.08562907 0.03862394 0.024207707 -0.017992152 -0.10196087
-0.14751147 0.03889021 -0.17089519 0.12884726 0.16506279 -0.06457993 0.13913469 -0.043978535
-0.043007936 -0.04922583 0.06849035 0.14463773 0.029000234 -0.10429582 0.071524486 -0.09790084
-0.021315888 0.041320268 0.08742611 0.07262313 0.09826153 -0.016816914 -0.059770178 0.13840498
-0.12202728 0.15194678 0.039903667 -0.11710017 -0.14312752 0.112198405 0.1421569 -0.13874103
0.1472514 -0.019683156 -0.10057466 -0.019549098 0.101663545 0.046323963 0.13267626 -0.09030887
0.15441556 0.13296889 -0.047143918 0.056313094 -0.03319561 0.10127863 0.0930547 -0.06121034
-0.10568303 0.01336126 -0.07977732 -0.13451707 -0.038183287 -0.15981108 -0.17212754 0.021083195
-0.0314291 0.052379444 0.08407407 -0.02025615 0.1505883 0.14733891 -0.10454476 -0.13963343
0.07467773 -0.103536636 0.17523976 -0.08196622 -0.007514336 0.029862251 -0.13277106 0.11497322
0.1097147 0.18563716 0.0828928 -0.043495208 0.007499261 -0.10723823 0.17100933 -0.028357118
-0.07904056 0.18017016 0.028982615 0.04046146 0.121893056 -0.11635096 -0.08524396 0.044820048
0.04219796 0.08770019 0.13878487 0.056197416 0.06971413 -0.07091676 -0.09719292 -0.12771836
0.11924538 -0.15406953 0.21014309 0.007661641 0.1839096 -0.019126989 -0.09759558 -0.11858576
-0.018228397 -0.0707614 0.16565467 0.06272978 0.073757 -0.05562072 0.06876677 0.19259097
-0.15208855 -0.21233328 0.06714033 0.18379237 0.02696275 -0.03235382 -0.05478363 -0.08609621
-0.050339255 -0.051390283 -0.016779495 -0.02749422 0.014448286 -0.05644916 -0.102022424 0.023104314
-0.045430284 0.17544287 0.14141071 -0.036532074 -0.0014585266 -0.10900214 0.003754937 0.07444231
0.028799 -0.060611155 0.049871385 -0.12284856 0.15348524 0.0834064 0.1779372 0.011823341
0.09434065 0.13056552 -0.03148719 0.007259044 0.17218144 -0.1505079 -0.039090082 0.009290232
00000000: eea3 5a3d 731f 0fbd 923f 1fbe dba4 323e
00000010: f8c6 9a3a e703 283b db0a 0fbe 0cd8 ebbd
00000020: b1e1 c2bc ad02 b8bd ac31 babb 717a c13c
00000030: 3f50 153e bc72 09bd 3153 c03d 5dd3 3ebe
00000040: 4605 243e 6cbb c13d 0a1c 82bd 09ed 01be
00000050: 8015 e43d 33db 173e dd56 e63d e3ea f0bc
00000060: f70d 29be 17c9 18bb 4df3 ee3d 0c91 d73d
00000070: 8879 9bbd f676 123e 1b8f ae3d acbd 833d
00000080: dfc1 6fbd e810 41be 3208 d63d 5277 76bd
00000090: 6a04 8dbd eba9 77bc 4869 39bd 2dfc 5bbd
000000a0: 1cd4 bb3c 4164 8a3d f042 80bd c28d 3f3e
000000b0: c955 d43c e83c 7c3b 3046 dd3d 18e5 edbc
000000c0: 478d 2cbe 0a4d 08be cd95 51bd 1511 c43d
000000d0: f077 af3a 9e6e d53d 153d 5fbd bc00 eabd
000000e0: cef4 cfbd 8819 eebd e173 e23c 4b60 d33c
000000f0: e9dd ed3d 7292 8c3c cc32 99bd bc96 09be
00000100: 18c3 013d 8dd0 d2bd 05f9 4dbe f6d5 893c
00000110: e20d 95bc 30bb cebd 26ba 5c3e 1214 033e
00000120: 3be4 f13c b7f3 1d3e 0f7f a0bd 5dc6 b9bd
00000130: f11e 20be acb3 0d3e 5f01 21be 2641 2cbb
00000140: 24b8 2a3c a028 a1bd 0aea fa3d 4bc4 c4bd
00000150: 369d bc3d 0b38 dc3d 80a1 de3c cace ba3d
00000160: 142d b43b 58c3 25bd ec24 3cbe 0470 2ebd
00000170: 76e4 0fbd 99a0 11be 08f3 f03d 589e 0a3a
00000180: e625 f73c 06fe e13c d4a8 c83d 4b5e afbd
00000190: 2334 1e3d 3e4f c63c 4764 93bc dcd0 d0bd
000001a0: 3f0d 17be 574b 1f3d 26ff 2ebe 89f0 033e
000001b0: 3806 293e 7b42 84bd 5379 0e3e d622 34bd
000001c0: 1729 30bd 06a1 49bd ab44 8c3d ea1b 143e
000001d0: e691 ed3c 0c99 d5bd 6e7b 923d 3c80 c8bd
000001e0: a89e aebc 713f 293d 760c b33d 70bb 943d
000001f0: 573d c93d a0c3 89bc 93d1 74bd 09ba 0d3e
00000200: 70e9 f9bd f097 1b3e 0772 233d 37d2 efbd
00000210: 0590 12be 47c8 e53d 9491 113e 2112 0ebe
00000220: 12c9 163e 923e a1bc 16fa cdbd 6e25 a0bc
00000230: fa34 d03d 32be 3d3d 49dc 073e dbf3 b8bd
00000240: 1d1f 1e3e ff28 083e fb19 41bd 8fa8 663d
00000250: 1ff8 07bd 2c6b cf3d 7693 be3d b2b7 7abd
00000260: 5870 d8bd 30e9 5a3c 4b62 a3bd d8be 09be
00000270: 1466 1cbd 84a5 23be 3442 30be aab6 ac3c
00000280: cdbb 00bd d48b 563d 072f ac3d 3af0 a5bc
00000290: d233 1a3e 03e0 163e 901b d6bd 11fc 0ebe
000002a0: a3f0 983d 040b d4bd 0d72 333e e8dd a7bd
000002b0: d23a f6bb aea1 f43c 23f5 07be 1477 eb3d
000002c0: 1ab2 e03d ab17 3e3e b3c3 a93d 0828 32bd
000002d0: 5cbc f53b b89f dbbd 121d 2f3e 304d e8bc
000002e0: 04e0 a1bd 877e 383e f36c ed3c eaba 253d
000002f0: 11a3 f93d 6a49 eebd 6394 aebd 3a95 373d
00000300: c5d7 2c3d 289c b33d 9f1d 0e3e 432f 663d
00000310: 48c6 8e3d ce3c 91bd 150d c7bd 9ac8 02be
00000320: ec36 f43d 67c4 1dbe c02f 573e 810e fb3b
00000330: cc52 3c3e 34b0 9cbc 31e0 c7bd 17dd f2bd
00000340: b853 95bc 5aeb 90bd 61a1 293e 7978 803d
00000350: e90d 973d 8dd2 63bd 98d5 8c3d 9136 453e
00000360: 1abd 1bbe e56d 59be df80 893d 1134 3c3e
00000370: fce0 dc3c 7085 04bd cd64 60bd 3653 b0bd
00000380: 8930 4ebd 9e7e 52bd 2775 89bc 8f3b e1bc
00000390: 81b8 6c3c 3c37 67bd 22f1 d0bd 4245 bd3c
000003a0: 1b15 3abd 4ca7 333e f8cd 103e a8a2 15bd
000003b0: 082c bfba 843c dfbd 6415 763b 3675 983d
000003c0: e1eb eb3c 6743 78bd f045 4c3d 0798 fbbd
000003d0: 3c2b 1d3e fad0 aa3d 2b35 363e b0b6 413c
000003e0: ac35 c13d f8b2 053e b6f8 00bd 46dd ed3b
000003f0: 5550 303e be1e 1abe ec1c 20bd 0f36 183c

Network_stack.0.0.gru.bias_ih_l0 f4 [96]
-0.09895748 -0.06910254 0.1809006 0.03873427 0.06551895 0.022072246 0.035393015 0.08607383
-0.049419437 0.010392501 0.028830735 0.11896681 -0.101221845 -0.17956078 -0.06773844 -0.06992134
0.027323494 -0.07203073 -0.10934021 0.06704949 0.12682322 -0.008178243 -0.12331338 0.016537009
-0.1532643 0.03467238 0.0026591194 -0.08770498 0.10740943 -0.10341877 -0.16862759 -0.056095354
-0.1694637 0.08137621 -0.19465826 -0.25757056 -0.04109113 -0.08312712 -0.46384665 0.05932837
-0.27494454 -0.20845439 0.22780018 -0.16664587 0.104174525 -0.048794463 -0.1990966 0.073139526
0.12790562 -0.22913636 -0.24291207 -0.06795099 -0.05374604 -0.31431663 -0.28683966 -0.06400291
0.037573393 -0.087516665 -0.2718479 -0.09796069 -0.26490006 -0.13949546 -0.3281474 0.12565997
0.11775362 -0.06800047 0.14632672 -0.06882247 -0.049107976 -0.13374859 0.13699609 0.019487679
0.05792231 0.0982954 0.14837629 0.14640373 0.018208908 0.15527365 -0.16036317 0.060119633
-0.13025555 -0.031436816 0.08696937 -0.083563104 -0.12831862 0.13665459 0.055758853 -0.010229589
-0.16496286 0.14638823 -0.015593705 0.05296869 0.051286213 -0.12188941 -0.16911459 -0.094614975
00000000: 38aa cabd a285 8dbd 023e 393e d3a7 1e3d
00000010: cd2e 863d dbd0 b43c 44f8 103d 7a47 b03d
00000020: 096c 4abd 4f45 2a3c 6f2e ec3c dfa4 f33d
00000030: 664d cfbd c8de 37be 74ba 8abd eb32 8fbd
00000040: 85d5 df3c d984 93bd c3ed dfbd 3e51 893d
00000050: f2dd 013e 0afe 05bc ba8b fcbd 9f78 873c
00000060: 51f1 1cbe a004 0e3d 9f44 2e3b ab9e b3bd
00000070: 7af9 db3d 38cd d3bd b6ac 2cbe 3ec4 65bd
00000080: e487 2dbe 92a8 a63d 7f54 47be 4ae0 83be
00000090: 2c4f 28bd 8d3e aabd 4f7d edbe 4e02 733d
000000a0: 88c5 8cbe 1175 55be 7344 693e 37a5 2abe
000000b0: 7459 d53d b4dc 47bd fbdf 4bbe 2dca 953d
000000c0: b1f9 023e b9a2 6abe f1bd 78be e329 8bbd
000000d0: cf24 5cbd 1cee a0be a6dc 92be f513 83bd
000000e0: 8fe6 193d f03b b3bd a62f 8bbe 9d9f c8bd
000000f0: fba0 87be e6d7 0ebe f002 a8be 02ad 003e
00000100: cf28 f13d d543 8bbd acd6 153e ccf2 8cbd
00000110: 7225 49bd 64f5 08be b448 0c3e a0a4 9f3c
00000120: f23f 6d3d 194f c93d f4ef 173e dcea 153e
00000130: d92a 953c 0e00 1f3e 3e36 24be 0140 763d
00000140: b661 05be e4c3 00bd ff1c b23d 2223 abbd
00000150: f565 03be 2eef 0b3e 6563 643d 029a 27bc
00000160: 06ec 28be cce6 153e bd7c 7fbc b2f5 583d
00000170: 7e11 523d 28a1 f9bd 602c 2dbe 7fc5 c1bd

Network_stack.0.0.gru.bias_hh_l0 f4 [96]
-0.0990994 0.07622292 0.017038254 0.065611705 0.14624059 0.16879794 -0.14525072 0.18845491
-0.076358974 0.024839582 -0.16475387 0.19704905 -0.17895825 0.06697779 0.06717345 0.104360454
-0.1431681 0.12261636 -0.10306995 0.12075685 -0.09713161 -0.0761236 0.1187235 0.14413616
0.16281563 -0.11676942 0.0872389 -0.06355491 0.007906214 0.1021409 0.061203483 -0.07201821
0.0008417078 -0.096932776 -0.008336519 0.030709714 -0.033417217 -0.15837808 -0.2858679 -0.18292852
0.016974473 -0.2159255 0.29397687 -0.11089388 0.063912034 -0.016017312 -0.036588296 -0.11296718
-0.116897084 -0.23395719 -0.14867492 -0.17072476 0.07557383 -0.1485357 -0.41472098 -0.062103722
0.047652993 -0.01810488 -0.27925196 -0.20387278 0.0065887505 -0.0031506536 -0.1012175 0.05692793
0.13533834 0.13304128 -0.1702517 -0.07394236 -0.062924996 -0.1716158 -0.10844123 -0.15909538
-0.016146624 -0.14211771 0.1435448 -0.10957005 0.13364309 -0.15310495 -0.118127525 0.14308752
-0.055837978 0.09447061 0.05721528 0.07032818 0.08347719 -0.09428745 -0.06732983 -0.10758359
-0.12236715 -0.11797479 0.111820996 -0.00017274462 0.13807563 -0.118685804 0.15350604 -0.04740297
00000000: a0f4 cabd c31a 9c3d cf93 8b3c 6e5f 863d
00000010: 18c0 153e 5ed9 2c3e 9bbc 14be 53fa 403e
00000020: 1862 9cbd 617c cb3c 3db5 28be 3ac7 493e
00000030: d540 37be a72b 893d 3c92 893d efba d53d
00000040: a99a 12be 491e fb3d 5716 d3bd 5e4f f73d
00000050: f0ec c6bd b1e6 9bbd 4e25 f33d 6e98 133e
00000060: 24b9 263e ce24 efbd 4faa b23d 1429 82bd
00000070: 1189 013c 402f d13d 81b0 7a3d 497e 93bd
00000080: 0ea6 5c3a b184 c6bd e595 08bc f092 fb3c
00000090: 7ee0 08bd dd2d 22be 475d 92be 9d51 3bbe
000000a0: 0d0e 8b3c 931b 5dbe 2384 963e 551c e3bd
000000b0: 50e4 823d bd36 83bc 9cdd 15bd 565b e7bd
000000c0: bd67 efbd 7992 6fbe 3d3e 18be 79d2 2ebe
000000d0: 74c6 9a3d be19 18be 4f56 d4be 7960 7ebd
000000e0: c92f 433d af50 94bc 1dfa 8ebe 07c4 50be
000000f0: 72e6 d73b 327b 4ebb 1f4b cfbd 432d 693d
00000100: 2296 0a3e f93b 083e 7656 2ebe 186f 97bd
00000110: d2de 80bd 0dbc 2fbe 7016 debd e6e9 22be
00000120: ed45 84bc 4e87 11be 68fd 123e 4366 e0bd
00000130: bcd9 083e 8bc7 1cbe d8ec f1bd 8985 123e
00000140: 5db6 64bd cf79 c13d 925a 6a3d 3908 903d
00000150: 17f6 aa3d c719 c1bd 39e4 89bd c954 dcbd
00000160: a19b fabd c49c f1bd 6802 e53d c822 35b9
00000170: b363 0d3e 8b11 f3bd b030 1d3e 9e29 42bd

Network_stack.0.0.gru.weight_ih_l1 f4 [96, 32]
0.0059062843 0.056422092 0.19266102 0.10792674 0.109069966 -0.026031028 0.07539809 -0.036436033
-0.066403285 0.14092112 -0.11167938 -0.02124998 0.16430457 0.10349967 0.040507697 -0.081083454
-0.1419354 0.16371232 0.014510485 -0.013765933 0.12407439 0.020617208 -0.16638738 0.15376545
-0.068783596 0.1574186 -0.0094283465 -0.100512475 -0.004291913 0.060564592 0.13014153 -0.08600409
0.028464587 -0.050986443 -0.18957634 -0.017946437 0.089554094 0.038019378 0.011393066 -0.16712163
-0.11522902 0.025699928 0.0044422867 0.13419545 0.08310409 0.0067788684 -0.12197413 0.14788102
0.01718329 0.1778461 -0.18762037 -0.11186326 -0.1649978 0.23175654 0.1340185 0.006800884
-0.12648325 -0.12591253 -0.22715916 0.120440654 0.068921566 -0.12500992 0.102514744 0.03771839
-0.11158491 -0.17522171 0.013414052 0.02577399 -0.047090985 0.11899419 0.19470362 -0.12790942
0.16733232 -0.10423122 0.12917952 0.10332278 0.056507386 0.16348457 -0.08281767 0.090308376
0.090720475 0.10866259 -0.11139412 -0.14945917 -0.03408541 0.013919421 0.13496451 -0.1694659
-0.18433383 0.121812046 0.08111656 -0.029774424 -0.10648487 0.10171153 0.11613561 0.10792877
-0.23996276 0.15633081 -0.2518269 0.08041834 0.19799599 0.054326277 0.087528884 -0.009276929
-0.35416147 0.19671655 -0.10519932 -0.14018726 -0.16624023 -0.22195952 0.08363064 -0.23348403
0.14514084 0.26498583 -0.0069751553 0.256334 0.23130111 0.1323297 0.22089303 0.013446445
0.11446977 -0.11205332 -0.03525148 -0.29739043 -0.0029131395 0.23122449 0.18341663 0.20460802
-0.11570309 0.16612203 -0.116460264 -0.035813905 0.11417027 0.026793335 -0.02206697 0.03213368
0.114335544 -0.103226066 0.049779363 0.08571429 -0.010157048 -0.109787 -0.07500006 -0.16287299
-0.17979136 -0.09873838 -0.16699366 0.0620976 -0.18269685 0.14139368 0.14511502 0.09127435
0.087169506 -0.017222011 0.08161473 0.16144057 0.093602486 -0.16491078 0.20687889 0.1260046
0.036512088 0.031875867 0.082202755 -0.056127336 -0.014130931 0.09218853 -0.2303971 0.019935312
-0.16303542 0.1737984 0.16055565 -0.1255881 -0.09685178 -0.12738289 0.04139563 -0.05016565
0.008951077 0.04420805 -0.053616583 0.0032877545 -0.075228326 -0.0010060838 -0.088575356 -0.12824716
-0.0332564 0.050209157 0.099589676 0.123813055 -0.13398732 -0.08785299 -0.0431016 0.040251974
-0.14575315 -0.020968895 0.14606805 -0.011088223 0.1215627 0.15120496 -0.20647283 -0.07759564
0.15508851 -0.010694842 -0.04643851 -0.16660891 0.10849777 -0.13399279 -0.10002161 0.032310806
-0.07589789 0.03444926 0.11324797 -0.057954144 0.18164705 -0.12509473 -0.18530592 -0.07464701
0.012463008 0.13020985 0.0584855 -0.10846503 -0.13150391 0.06357764 0.05453822 0.045240443
-0.123391904 -0.023542184 -0.07002597 -0.001434043 -0.16517146 0.056235533 0.17614618 -0.0019713386
0.025196115 0.12950917 0.17343198 0.11595216 -0.03318082 -0.09509902 -0.16171497 0.040010136
-0.09998497 -0.077047475 -0.06849941 -0.10622609 0.06353627 0.15820362 0.13348484 -0.14364484
0.06430649 0.14555027 0.09068392 0.044554 0.063107304 0.06445698 0.01305256 -0.16481748
00000000: 8189 c13b da1a 673d ee48 453e b208 dd3d
00000010: 1360 df3d 063f d5bc 506a 9a3d f33d 15bd
00000020: 72fe 87bd a04d 103e 29b8 e4bd 7014 aebc
00000030: 753f 283e a3f7 d33d 66eb 253d 150f a6bd
00000040: 8357 11be 34a4 273e 63bd 6d3c 828a 61bc
00000050: b71a fe3d 6be5 a83c 7461 2abe b174 1d3e
00000060: 6ade 8cbd 5732 213e 5a79 1abc 7cd9 cdbd
00000070: 2da3 8cbb 9412 783d d243 053e ea22 b0bd
00000080: 912e e93c 29d7 50bd 4d20 42be 6804 93bc
00000090: 2368 b73d 35ba 1b3d fba9 3a3c ef21 2bbe
000000a0: 31fd ebbd a888 d23c 9a90 913b 886a 093e
000000b0: 7a32 aa3d 4521 de3b 93cd f9bd 1f6e 173e
000000c0: f9c3 8c3c 4a1d 363e 8e1f 40be 9118 e5bd
000000d0: 2ff5 28be 9651 6d3e 253c 093e f3d9 de3b
000000e0: d384 01be 37ef 00be 699c 68be 97a9 f63d
000000f0: c026 8d3d 9a02 00be 40f3 d13d 997e 1a3d
00000100: a186 e4bd 526d 33be 9dc6 5b3c fa23 d33c
00000110: 7ae2 40bd 3ab3 f33d 6360 473e b0fa 02be
00000120: 2a59 2b3e 2e77 d5bd a347 043e e59a d33d
00000130: 4a74 673d 8068 273e 509c a9bd 99f3 b83d
00000140: a8cb b93d 7e8a de3d 9a22 e4bd d30b 19be
00000150: 259d 0bbd 480e 643c 2334 0a3e 7888 2dbe
00000160: 02c2 3cbe 9878 f93d 7020 a63d 7ee9 f3bc
00000170: bd14 dabd 224e d03d 82d8 ed3d c209 dd3d
00000180: ccb8 75be 2f15 203e 75ef 80be 5fb2 a43d
00000190: 76bf 4a3e 3b85 5e3d 5842 b33d 43fe 17bc
000001a0: a754 b5be 1070 493e be72 d7bd 408d 0fbe
000001b0: e13a 2abe 5b49 63be 8a46 ab3d 7016 6fbe
000001c0: cd9f 143e 39ac 873e d88f e4bb 363e 833e
000001d0: 33da 6c3e 7081 073e c831 623e 7a4e 5c3c
000001e0: 206f ea3d 367c e5bd db63 10bd 8f43 98be
000001f0: 5fea 3ebb 1dc6 6c3e 92d1 3b3e c484 513e
00000200: bef5 ecbd e51b 2a3e b882 eebd 9ab1 12bd
00000210: 1ad2 e93d b27d db3c cac5 b4bc 9b9e 033d
00000220: c128 ea3d 3068 d3bd 72e5 4b3d f98a af3d
00000230: bf69 26bc 02d8 e0bd a299 99bd 2dc8 26be
00000240: 3a1b 38be 5937 cabd 6300 2bbe 0e5a 7e3d
00000250: e214 3bbe 81c9 103e 0899 143e 0cee ba3d
00000260: ed85 b23d 2d15 8dbc a025 a73d ad50 253e
00000270: a9b2 bf3d 5fde 28be 0fd8 533e 5a07 013e
00000280: b38d 153d 4590 023d eb59 a83d c7e5 65bd
00000290: 6c85 67bc 57cd bc3d 38ed 6bbe 614f a33c
000002a0: c2f2 26be 35f8 313e b368 243e 2b9a 00be
000002b0: 3a5a c6bd a970 02be 778e 293d 7f7a 4dbd
000002c0: 8aa7 123c 8013 353d 109d 5bbd 5e77 573b
000002d0: 4f11 9abd 92de 83ba ff66 b5bd 3953 03be
000002e0: dd37 08bd 1ea8 4d3d acf5 cb3d b391 fd3d
000002f0: f933 09be 45ec b3bd 4e8b 30bd 41df 243d
00000300: 5040 15be f6c6 abbc dd92 153e 61ab 35bc
00000310: ddf5 f83d 79d5 1a3e 9d6d 53be 77ea 9ebd
00000320: 86cf 1e3e 6b39 2fbc 4f36 3ebd 879b 2abe
00000330: 1434 de3d 6835 09be 21d8 ccbd 5658 043d
00000340: 5a70 9bbd ab1a 0d3d 8dee e73d 5361 6dbd
00000350: af01 3a3e d518 00be d6c0 3dbe 88e0 98bd
00000360: a531 4c3c bb55 053e 7e8e 6f3d ea22 debd
00000370: f6a8 06be fe34 823d 7863 5f3d 0b4e 393d
00000380: e5b4 fcbd 8adb c0bc c769 8fbd 80f6 bbba
00000390: b522 29be 3b57 663d aa5f 343e 9331 01bb
000003a0: 1568 ce3c 0d9e 043e 2798 313e 5378 ed3d
000003b0: 9de8 07bd 46c3 c2bd 9c98 25be abe1 233d
000003c0: ecc4 ccbd 11cb 9dbd 6b49 8cbd 108d d9bd
000003d0: 4e1f 823d 2100 223e 40b0 083e a217 13be
000003e0: 1fb3 833d 210b 153e 7eb8 b93d 417e 363d
000003f0: 673e 813d 0502 843d 68da 553c eac5 28be

Network_stack.0.0.gru.weight_hh_l1 f4 [96, 32]
0.056332555 0.03990472 0.06405722 -0.08194996 -0.0987518 -0.17932752 0.15162422 -0.107673295
-0.0005471731 -0.15634629 -0.14269054 -0.040350657 -0.051933266 -0.10899722 0.086852655 -0.06705833
0.06441534 -0.11691707 -0.17050748 -0.16187891 0.027075712 -0.10057705 -0.16114026 0.14719048
-0.044781417 -0.050813 0.032135278 -0.011403663 0.032675605 0.13289855 0.113517016 -0.012495327
-0.06948821 -0.18582852 -0.13117965 0.08719785 -0.08920992 0.17048253 -0.0020820573 0.17413625
-0.16655843 -0.18752278 -0.032843076 0.1444887 0.16802584 0.056703568 0.024185915 0.00034104986
-0.06919655 0.096638024 -0.0031201926 0.09152618 0.038122524 0.073978536 -0.02723152 -0.08120542
0.11876575 0.18960841 0.13195953 0.007860975 0.025536938 -0.15299816 -0.04257917 0.12822887
-0.115061946 -0.16631944 0.101478934 0.004065901 -0.13705198 0.016891256 -0.04040332 -0.12544437
-0.13765143 -0.16392025 0.023233948 0.020228328 0.094448395 0.04617616 0.017543552 0.123614624
-0.020644845 -0.1801471 -0.063722864 0.06725119 -0.104953974 0.11759448 -0.11721685 0.030627077
-0.08236431 0.05191845 0.093245074 0.091777444 -0.12641764 0.090315424 -0.06938201 -0.018300923
-0.039908916 -0.28050828 -0.11602072 -0.118283264 0.09418163 0.20737769 -0.2018176 0.08721397
-0.2528795 -0.32936218 -0.31476966 0.029184511 0.10077596 0.2566914 -0.38475722 0.30419713
-0.015824646 -0.18702574 -0.015293982 -0.12229025 -0.20554143 -0.07859496 0.117761455 -0.2765456
0.116957545 0.0003850792 -0.38322547 0.33910373 0.22999875 -0.22313105 0.2931792 -0.14475651
0.13300744 0.03383601 0.12873687 -0.18382138 0.060109414 0.046546515 -0.0728107 -0.120969206
0.01853541 -0.1703626 -0.056360804 0.09772109 -0.06083941 -0.07476696 0.1443674 -0.060557533
0.046404928 0.047664173 -0.0074954787 -0.06860885 -0.04122086 -0.025965348 0.1116271 -0.13800116
0.020660285 0.07659613 -0.035793565 -0.011200397 0.14022331 -0.14412497 0.060290594 -0.011251864
-0.05781908 0.12845354 0.15860218 0.1985447 -0.1505854 0.19409347 -0.0026559103 -0.06987717
-0.04137935 0.015735816 -0.16649075 -0.09789792 -0.04914379 0.034984466 -0.117513806 -0.11865867
-0.097258665 0.09537322 -0.073946185 0.0058313357 0.11557778 -0.133054 -0.02036643 -0.008069569
0.054858822 0.0024786294 0.18940705 -0.20236667 0.18518914 0.21130387 0.039408557 -0.09341184
0.08538227 0.17292672 0.12452204 0.06912981 0.03463467 0.010666732 0.1394895 0.12844302
0.07921245 -0.14658368 -0.032790646 0.0662652 -0.038470507 0.025593447 0.11544516 0.17231059
0.0025190937 0.0900143 -0.03869479 -0.07866693 -0.10270109 0.1452171 -0.1268388 0.022810442
-0.092781015 0.012769197 -0.022049973 0.09148508 -0.15447257 0.021303928 0.1700848 -0.019273954
-0.1134315 -0.13118438 0.016140833 -0.18699338 -0.11111329 -0.17767687 -0.0017302638 0.12209214
-0.14647585 -0.107349806 0.109139085 0.16504318 -0.13970278 0.04225039 -0.012499413 0.04519172
0.16357392 -0.17659704 -0.0640404 0.038259737 -0.1423173 0.12458498 -0.14173421 0.030227514
-0.03665092 0.14657314 -0.17999229 -0.080990106 -0.019950988 0.1300881 0.071373396 0.15231927
00000000: f7bc 663d 2273 233d 6f30 833d 61d5 a7bd
00000010: 623e cabd a2a1 37be 6143 1b3e d183 dcbd
00000020: 2a70 0fba 3e19 20be 781d 12be bb46 25bd
00000030: fab7 54bd ef39 dfbd cedf b13d e155 89bd
00000040: 31ec 833d 3772 efbd 8399 2ebe 96c3 25be
00000050: e2cd dd3c 57fb cdbd f401 25be 1ab9 163e
00000060: b86c 37bd 4b21 50bd 48a0 033d 6ed6 3abc
00000070: dbd6 053d 8f16 083e 9c7b e83d 33b9 4cbc
00000080: d64f 8ebd d549 3ebe f553 06be c994 b23d
00000090: b1b3 b6bd f992 2e3e 2073 08bb c650 323e
000000a0: 4b8e 2abe f905 40be 7686 06bd d9f4 133e
000000b0: f70e 2c3e 0042 683d 8a21 c63c f0ce b239
000000c0: ecb6 8dbd 28ea c53d 257c 4cbb 1472 bb3d
000000d0: 5d26 1c3d 0f82 973d a314 dfbc 074f a6bd
000000e0: 753b f33d b528 423e 6620 073e 52cb 003c
000000f0: d732 d13c 8dab 1cbe 7f67 2ebd 6e4e 033e
00000100: 99a5 ebbd a54f 2abe 30d4 cf3d 403b 853b
00000110: 5b57 0cbe 885f 8a3c f47d 25bd 7d74 00be
00000120: 7ff4 0cbe b6da 27be 1f55 be3c e1b5 a53c
00000130: 296e c13d 3723 3d3d 7fb7 8f3c aa29 fd3d
00000140: 611f a9bc 7b78 38be 2281 82bd feba 893d
00000150: 1cf2 d6bd 60d5 f03d 630f f0bd a3e5 fa3c
00000160: 9fae a8bd 71a8 543d 46f7 be3d d0f5 bb3d
00000170: a073 01be 4bf7 b83d 2818 8ebd d1eb 95bc
00000180: 8877 23bd c89e 8fbe 459c edbd 7f3e f2bd
00000190: 4ce2 c03d d15a 543e 46a9 4ebe 3d9d b23d
000001a0: 6c79 81be 29a2 a8be 7d29 a1be 5b14 ef3c
000001b0: a063 ce3d 0e6d 833e e6fe c4be babf 9b3e
000001c0: b0a2 81bc ad83 3fbe 9c93 7abc 5073 fabd
000001d0: 7479 52be 65f6 a0bd eb2c f13d 6397 8dbe
000001e0: 7087 ef3d 75e4 c939 2136 c4be 019f ad3e
000001f0: cb84 6b3e 777c 64be 961b 963e 0d3b 14be
00000200: 1a33 083e a197 0a3d 99d3 033e ac3b 3cbe
00000210: 4a35 763d 8fa7 3e3d c71d 95bd b4be f7bd
00000220: 92d7 973c 8973 2ebe 96da 66bd ff21 c83d
00000230: bf32 79bd 6c1f 99bd 0cd5 133e 2d0b 78bd
00000240: 1813 3e3d 823b 433d a29c f5bb cc82 8cbd
00000250: 34d7 28bd 48b5 d4bc c09c e43d 2d50 0dbe
00000260: c23f a93c 6fde 9c3d 469c 12bd df81 37bc
00000270: b396 0f3e 7f95 13be 45f3 763d bd59 38bc
00000280: b3d3 6cbd 5389 033e 9c68 223e 4d4f 4b3e
00000290: 0f33 1abe 70c0 463e c80e 2ebb c31b 8fbd
000002a0: 657d 29bd 66e8 803c 8d7c 2abe b47e c8bd
000002b0: 004b 49bd df4b 0f3d 14ab f0bd 5103 f3bd
000002c0: 8d2f c7bd 0953 c33d 1971 97bd ca14 bf3b
000002d0: 0bb4 ec3d 4f3f 08be 80d7 a6bc 3a36 04bc
000002e0: a5b3 603d 8070 223b ecf3 413e 3539 4fbe
000002f0: 39a2 3d3e 0b60 583e de6a 213d b54e bfbd
00000300: e6dc ae3d b413 313e 6905 ff3d ee93 8d3d
00000310: 15dd 0d3d 84c3 2e3c 56d6 0e3e 9186 033e
00000320: 233a a23d 081a 16be 7c4f 06bd 0db6 873d
00000330: 4093 1dbd 59a9 d13c 836e ec3d 3072 303e
00000340: 6117 253b 6b59 b83d 6e7e 1ebd 211c a1bd
00000350: f354 d2bd cbb3 143e 08e2 01be f7dc ba3c
00000360: f903 bebd e535 513c 25a2 b4bc 885c bb3d
00000370: 0f2e 1ebe 9385 ae3c b62a 2e3e 69e4 9dbc
00000380: c64e e8bd 3355 06be c839 843c 317b 3fbe
00000390: 5d8f e3bd edf0 35be 05ca e2ba 720b fa3d
000003a0: c4fd 15be 37da dbbd 5084 df3d 1401 293e
000003b0: 3f0e 0fbe bf0e 2d3d 57ca 4cbc f41a 393d
000003c0: ec7f 273e dbd5 34be 9d27 83bd 3eb6 1c3d
000003d0: a0bb 11be 6926 ff3d c622 11be b19f f73c
000003e0: 461f 16bd 4517 163e e64f 38be 24de a5bd
000003f0: 4170 a3bc d135 053e 372c 923d 95f9 1b3e

Network_stack.0.0.gru.bias_ih_l1 f4 [96]
0.16554683 0.12618123 -0.049941413 -0.312378 0.036054656 -0.10587962 -0.1389539 0.11928536
0.15163639 -0.1093192 -0.043975927 -0.022235353 0.07383892 0.12625545 0.075446 0.07521592
-0.10229424 -0.1428777 0.09252481 -0.14717467 -0.10957384 0.17200816 0.02608623 0.08585417
-0.11975253 0.08677671 0.12518552 -0.034155928 0.0041431533 -0.09966377 -0.10572554 -0.09133228
-0.1589236 -0.06050068 0.087298855 -0.23976316 -0.001166312 -0.14356329 -0.13076156 -0.11278436
-0.23255104 0.12490342 -0.09965007 0.1764533 0.072558984 0.1936434 -0.07092618 0.045994528
-0.03687941 -0.11856924 -0.103076436 -0.31446987 -0.13879041 -0.2686658 0.15683076 0.12332453
-0.26746184 -0.052957047 -0.14715156 -0.10468838 -0.05755768 -0.03376857 -0.17354238 -0.35669816
0.02651949 0.13309865 0.060534313 -0.09028076 -0.101318136 -0.054177158 -0.09182737 0.14741325
0.18268701 0.08378466 0.15706678 -0.15023187 -0.029596629 -0.0020304173 -0.07128228 -0.029320017
0.10656089 -0.08865908 -0.14121361 -0.09033993 -0.06398412 0.1565848 -0.11248798 0.118000284
-0.05439782 -0.10077868 0.04948956 -0.11218916 -0.012874988 -0.08139055 -0.016945109 -0.008186623
00000000: 1c85 293e a735 013e 5e8f 4cbd 02f0 9fbe
00000010: 0cae 133d 6ad7 d8bd ee49 0ebe e24b f43d
00000020: 9246 1b3e bfe2 dfbd 1a20 34bd ea26 b6bc
00000030: dc38 973d 1c49 013e 6f83 9a3d ce0a 9a3d
00000040: a47f d1bd 884e 12be a67d bd3d f5b4 16be
00000050: 4068 e0bd e822 303e cab2 d53c 50d4 af3d
00000060: d040 f5bd fdb7 b13d a230 003e 16e7 0bbd
00000070: 4ac3 873b 851c ccbd a286 d8bd 6b0c bbbd
00000080: debc 22be 90cf 77bd bec9 b23d 7984 75be
00000090: f0de 98ba 4102 13be 5ce6 05be 7dfb e6bd
000000a0: dc21 6ebe 5dcd ff3d 5615 ccbd 2db0 343e
000000b0: ce99 943d 754a 463e bf41 91bd c264 3c3d
000000c0: dd0e 17bd 6ed4 f2bd bd19 d3bd 3202 a1be
000000d0: 131f 0ebe 908e 89be 3e98 203e 9291 fc3d
000000e0: c2f0 88be 7de9 58bd e6ae 16be dd66 d6bd
000000f0: 9ac1 6bbd e950 0abd 18b5 31be 24a1 b6be
00000100: 673f d93c 034b 083e d4f2 773d 1ee5 b8bd
00000110: e27f cfbd dee8 5dbd fd0f bcbd 80f3 163e
00000120: 4e12 3b3e 4b97 ab3d 1dd6 203e 62d6 19be
00000130: a174 f2bc c010 05bb 72fc 91bd 8830 f0bc
00000140: 993c da3d e492 b5bd 4d9a 10be 2404 b9bd
00000150: 1b0a 83bd c457 203e 1960 e6bd 22aa f13d
00000160: 40d0 5ebd 0d65 cebd 91b5 4a3d 6ec3 e5bd
00000170: 9df1 52bc 17b0 a6bd 78d0 8abc 3021 06bc

Network_stack.0.0.gru.bias_hh_l1 f4 [96]
-0.03942995 0.16548006 -0.10615317 -0.32106015 -0.15742007 0.043940697 -0.08372817 -0.1238705
-0.09634268 -0.055841357 0.13924325 0.12401355 -0.107326224 -0.0616891 -0.028675482 0.16771653
-0.04398718 0.09916007 -0.121466145 -0.24350655 0.04340205 -0.038994268 0.15571165 -0.059613388
-0.051564984 -0.055157308 0.13541445 -0.03058568 0.15128319 0.04117389 -0.11871152 -0.064480476
-0.07990314 0.1874381 -0.14737417 0.034226067 0.12962009 0.042111658 0.08840305 0.012588446
-0.063249975 -0.07140896 -0.15516986 0.102052264 0.17371541 0.14000522 0.07127294 0.067663446
-0.057425343 -0.041219074 -0.086610384 -0.39582625 0.03795587 -0.15660302 -0.008642712 0.065468416
-0.21260653 0.18925045 -0.2282461 -0.06321824 0.08674098 -0.071507156 0.030724606 -0.44584462
0.030080367 -0.13224176 -0.1451686 -0.043072734 0.08467082 -0.04545072 0.038422298 -0.1650057
0.11087656 0.1296712 0.11549586 0.0008954307 -0.11640298 -0.06367214 -0.08634987 -0.05977504
-0.06258996 0.035432428 -0.03825137 -0.099303745 -0.14381102 0.0003698732 0.014843442 -0.07056679
-0.0715113 0.053319186 -0.056765016 0.07507987 -0.01886543 0.11868812 -0.056088824 -0.06994928
00000000: 4d81 21bd 9b73 293e d566 d9bd ff61 a4be
00000010: ba32 21be 29fb 333d ad79 abbd d1af fdbd
00000020: 504f c5bd e8b9 64bd c895 0e3e d1fa fd3d
00000030: dacd dbbd b6ad 7cbd d8e8 eabc e2bd 2b3e
00000040: e72b 34bd 6f14 cb3d 3ec3 f8bd c859 79be
00000050: 59c6 313d 74b8 1fbd e072 1f3e 2b2d 74bd
00000060: ce35 53bd a1ec 61bd 16aa 0a3e d28e fabc
00000070: fbe9 1a3e f4a5 283d 071f f3bd 570e 84bd
00000080: 42a4 a3bd c6ef 3f3e 41e9 16be a230 0c3d
00000090: 21bb 043e 467d 2c3d a90c b53d c53f 4e3c
000000a0: 3489 81bd dc3e 92bd d9e4 1ebe c700 d13d
000000b0: 74e2 313e 875d 0f3e 8cf7 913d 2293 8a3d
000000c0: d636 6bbd 55d5 28bd c960 b1bd bda9 cabe
000000d0: 9d77 1b3d 8b5c 20be 299a 0dbc 4e14 863d
000000e0: 87b5 59be dfca 413e 58b9 69be 9178 81bd
000000f0: 41a5 b13d 5872 92bd 2bb2 fb3c bf45 e4be
00000100: 1a6b f63c 626a 07be 14a7 14be 096d 30bd
00000110: e567 ad3d 892a 3abd b360 1d3d 41f7 28be
00000120: 4013 e33d 87c8 043e 1889 ec3d 56bb 6a3a
00000130: b064 eebd 8a66 82bd 33d8 b0bd acd6 74bd
00000140: 2a2f 80bd 9821 113d 78ad 1cbd c35f cbbd
00000150: 3243 13be 8aeb c139 e831 733c 5285 90bd
00000160: 8474 92bd 3865 5a3d 6f82 68bd 7ac3 993d
00000170: ad8b 9abc c212 f33d 65bd 65bd 9141 8fbd

Network_stack.0.1.gru.weight_ih_l0 f4 [96, 2]
0.036833886 0.046418104 -0.14307101 -0.11891028 -0.15112029 0.06885808 0.16222382 0.0073354593
-0.11485964 -0.10826609 -0.041529823 0.00677097 -0.10278442 0.015500628 0.08019117 -0.021228725
0.15345538 -0.12289105 -0.05451166 0.051262416 -0.15410507 -0.085547976 0.060959388 -0.16289803
0.0007770423 -0.057897035 -0.17915675 0.007435817 -0.22196367 -0.04732609 0.17667347 -0.082842864
-0.12300984 0.098794036 -0.015948245 -0.12857509 -0.09621434 0.06607678 0.13719112 -0.07048195
0.12018466 0.14465033 -0.19617663 0.07766559 0.06054513 0.1333232 0.17816114 0.045671146
0.13915671 -0.002114781 0.16252734 -0.08571442 -0.18332052 -0.08124219 0.1714658 0.26206776
0.060857635 -0.17286362 0.07977015 0.1345214 0.11722134 0.019752968 0.0059789526 -0.13120972
-0.042541802 -0.034194473 0.24382575 0.38999498 -0.012272643 0.10819662 -0.32433924 0.124689154
-0.06887203 0.08921654 -0.19049218 6.872459e-05 -0.06469765 0.086119846 0.015799325 0.2004963
0.1054481 0.116398886 0.03373552 0.13851732 0.14588086 0.044435002 -0.15370518 0.10634798
0.13893433 0.2048476 0.22614864 0.052786067 -0.11625632 0.16878569 -0.041029442 -0.036790676
-0.13269685 -0.11636257 0.15348746 -0.044679333 0.051395137 -0.4435895 0.116009325 0.16195084
0.31688282 0.25810644 0.41666874 0.23121089 0.10121511 0.019630989 0.2093055 0.24123786
-0.18812768 -0.08746243 0.14183378 -0.05594698 0.13021702 0.018512271 0.089101255 -0.005848809
0.1994085 -0.017653117 -0.0055396752 0.11639931 0.040812638 -0.17203009 0.54948753 -0.056765713
0.08495124 -0.015763924 0.021038689 0.059328083 0.05364904 0.072557986 -0.1491509 0.08089451
-0.0021413676 0.06233229 -0.16192901 0.103056855 -0.058320537 -0.0606669 -0.085352175 0.03735531
-0.01868028 0.1029763 -0.10080066 -0.110419385 -0.15070434 -0.12569693 -0.04915135 -0.035091344
-0.137556 0.0038976122 -0.029092163 0.12959488 0.16263698 0.0041454793 0.024044918 -0.08051387
0.067569256 -0.027452854 -0.07758706 -0.055363584 -0.1483688 -0.008474942 -0.099717274 -0.111399084
-0.029571358 0.14664727 -0.017350486 0.15242276 0.11986974 -0.05994322 0.13089384 -0.032147277
-0.06680205 -0.15427223 0.12959926 -0.068384856 0.069617175 -0.1558949 -0.113920614 -0.1124518
-0.12954965 -0.068308905 0.05302484 0.039680533 -0.02080512 0.014060064 0.11661274 -0.18150948
00000000: 21df 163d e920 3e3d 3581 12be 3c87 f3bd
00000010: 47bf 1abe 7705 8d3d 001e 263e 4b5e f03b
00000020: 883b ebbd 9dba ddbd 2d1b 2abd 03df dd3b
00000030: a380 d2bd 59f6 7d3c 453b a43d dde7 adbc
00000040: 6823 1d3e 4eae fbbd 9e47 5fbd 8af8 513d
00000050: b8cd 1dbe c733 afbd 8db0 793d bece 26be
00000060: 6db2 4b3a 7125 6dbd de74 37be 27a8 f33b
00000070: 724a 63be 01d9 41bd e4e9 343e 85a9 a9bd
00000080: 95ec fbbd 8754 ca3d e5a5 82bc 30a9 03be
00000090: 060c c5bd 4353 873d d47b 0c3e d758 90bd
000000a0: 6023 f63d 371f 143e 87e2 48be 230f 9f3d
000000b0: 2cfe 773d e085 083e e06f 363e ab11 3b3d
000000c0: 197f 0e3e 2398 0abb 916d 263e 0b8b afbd
000000d0: 60b8 3bbe 4e62 a6bd bb94 2f3e bf2d 863e
000000e0: db45 793d 2903 31be 885e a33d fabf 093e
000000f0: be11 f03d fad0 a13c 17eb c33b d75b 06be
00000100: 5040 2ebd 810f 0cbd 75ad 793e 6cad c73e
00000110: 3213 49bc 3196 dd3d cb0f a6be 075d ff3d
00000120: c70c 8dbd 29b7 b63d 6210 43be 3c20 9038
00000130: 3480 84bd 9a5f b03d 966d 813c e74e 4d3e
00000140: 2cf5 d73d 8a62 ee3d 422e 0a3d 7cd7 0d3e
00000150: cb61 153e 7a01 363d e464 1dbe f8cc d93d
00000160: cd44 0e3e 92c3 513e 8293 673e 3436 583d
00000170: cb17 eebd 28d6 2c3e 7d0e 28bd d2b1 16bd
00000180: afe1 07be 804f eebd d12b 1d3e ad01 37bd
00000190: b583 523d 2a1e e3be 4c96 ed3d 71d6 253e
000001a0: 773e a23e 8726 843e 9b55 d53e 8cc2 6c3e
000001b0: de49 cf3d 2bd1 a03c 2e54 563e 0f07 773e
000001c0: 8ba4 40be 811f b3bd e03c 113e a928 65bd
000001d0: 9c57 053e 0ca7 973c b87a b63d 5ea7 bfbb
000001e0: be31 4c3e 459d 90bc 2a86 b5bb c362 ee3d
000001f0: 272b 273d a828 30be 37ab 0c3f 2a83 68bd
00000200: eafa ad3d 5823 81bc 5459 ac3c 0102 733d
00000210: 19bf 5b3d 4899 943d 03bb 18be 05ac a53d
00000220: 3056 0cbb 2550 7f3d b8d0 25be 790f d33d
00000230: 84e1 6ebd db7d 78bd 1fcd aebd e201 193d
00000240: 6307 99bc 3de5 d23d 9470 cebd 8f23 e2bd
00000250: 3d52 1abe b2b6 00be ed52 49bd f1bb 0fbd
00000260: 7bdb 0cbe 156f 7f3b b052 eebc 85b4 043e
00000270: 4f8a 263e cdd6 873b d9f9 c43c 75e4 a4bd
00000280: c061 8a3d cfe4 e0bc f7e5 9ebd edc4 62bd
00000290: feed 17be 7cda 0abc 9238 ccbd 3425 e4bd
000002a0: a23f f2bc b42a 163e 9b22 8ebc b614 1c3e
000002b0: 447e f53d 0687 75bd 0909 063e ddac 03bd
000002c0: 83cf 88bd 8af9 1dbe abb5 043e 5c0d 8cbd
000002d0: 7393 8e3d eaa2 1fbe 364f e9bd 214d e6bd
000002e0: aaa8 04be 8ae5 8bbd 9330 593d 0e88 223d
000002f0: 806f aabc 2f5c 663c a9d2 ee3d 9fdd 39be

Network_stack.0.1.gru.weight_hh_l0 f4 [96, 32]
-0.026726019 0.06594793 -0.15947917 0.06890493 -0.094283484 -0.014074869 0.05977945 0.06738554
0.15382823 0.048628062 0.09938631 -0.1342639 0.031941134 -0.1221516 0.01997292 0.04374756
-0.08754218 0.16133845 0.15776563 -0.057093374 -0.15730904 0.069254085 -0.031091448 0.0797892
-0.09608274 0.090559974 -0.11401923 0.0986029 0.0807034 0.00061552424 -0.124328256 0.055876583
-0.11193639 -0.028297545 0.14967152 -0.11951668 0.07888029 0.012113597 -0.035387527 -0.06425765
0.08885453 -0.019838229 -0.12811224 -0.08885692 -0.1181676 0.05424436 0.14122882 0.024089212
0.09189103 0.14950503 -0.047373243 0.03439312 0.07976284 0.103953555 -0.07416774 0.08101068
-0.061196838 0.16576548 0.0012321557 -0.1250291 0.091927476 0.17150488 0.05704816 -0.015267139
-0.046510268 0.063195415 0.0908402 -0.1316705 0.03311983 0.031716343 0.1649412 0.041611753
-0.15685841 0.1734697 0.074517034 -0.08853583 0.045825828 -0.16326065 0.14084823 0.102372035
0.16662998 -0.052960604 -0.050534707 0.07221347 -0.0922779 -0.07887069 0.003337625 -0.08305934
-0.12822488 0.070216686 -0.18947789 -0.044738315 0.12609243 0.16607617 1.4149569e-05 0.044003587
-0.14834054 -0.26292002 0.117169715 -0.29208818 0.07443931 0.25912687 -0.0870588 -0.07254702
0.12850672 0.004284134 0.23876345 -0.16004828 -0.14256802 0.07846069 -0.107765354 -0.08681384
-0.014804619 0.1117613 0.26640263 0.22864261 -0.33397368 -0.18652171 0.099246755 -0.18586808
0.16440839 0.097981244 -0.20721748 -0.19353542 0.31928688 -0.0013390696 -0.23089585 0.078211576
-0.022793394 0.062304012 -0.12526935 0.13675131 -0.14718895 -0.026316727 -0.0650513 -0.0073246257
-0.17586447 0.15343937 0.13965899 -0.09330069 0.12266453 -0.1515795 -0.026301833 0.06462212
-0.027788816 0.09856375 -0.16888742 0.10505002 -0.13500024 -0.026687995 -0.18086793 0.076623134
0.090228595 -0.029361276 0.017329222 -0.068868116 0.11133567 -0.1668958 0.12964232 0.029426293
0.08698955 -0.18021753 -0.10111654 -0.13209511 0.015447906 0.06626401 0.08719832 0.014710787
0.14606866 0.1325779 0.039474305 0.13833207 0.031257693 -0.003142742 0.014142756 -0.05626734
0.056973662 -0.026137946 0.09097747 -0.10684815 -0.1100205 0.08904818 0.18320024 -0.117275104
0.07967465 0.027084457 0.040512558 -0.12702543 -0.13278732 0.003484945 0.09011128 0.0017283515
0.07334791 -0.27322653 0.09091768 0.1255243 -0.073189005 0.13448322 -0.16472118 -0.16369025
0.121268466 0.003038796 -0.0051671173 -0.036173552 -0.15421477 0.032253504 0.19147334 0.03640741
-0.12109653 -0.07913323 0.019554036 0.02935839 -0.11079589 0.028796067 -0.068327725 0.031450655
-0.020266574 0.06306966 -0.09148049 0.078814894 0.015401517 -0.11523788 -0.0011034267 -0.08544343
-0.037695754 0.08344053 0.17996453 -0.17041916 -0.06582806 0.16458352 -0.062116135 0.07519499
0.0048994576 -0.16881633 0.00046011532 -0.11905542 0.16883786 0.14727652 -0.067842685 -0.091871254
-0.15410927 -0.107091874 -0.065554105 -0.1403748 0.014761555 -0.0046234517 0.11726923 0.018462513
-0.041673783 -0.020004878 -0.07653434 -0.12074094 0.1427527 0.018576287 -0.18454456 -0.13780996
00000000: 86f0 dabc b50f 873d 824e 23be 071e 8d3d
00000010: b317 c1bd 489a 66bc 4cdb 743d 6e01 8a3d
00000020: 2685 1d3e 382e 473d 0d8b cb3d 7a7c 09be
00000030: b5d4 023d 9e2a fabd 409e a33c a430 333d
00000040: 5149 b3bd e835 253e 508d 213e beda 69bd
00000050: 9f15 21be 16d5 8d3d 7eb3 febc 8568 a33d
00000060: 07c7 c4bd 8277 b93d ea82 e9bd 51f0 c93d
00000070: d347 a53d 225b 213a d09f febd d8de 643d
00000080: e83e e5bd 41d0 e7bc 7e43 193e 29c5 f4bd
00000090: fd8b a13d 1c78 463c 83f2 10bd 8499 83bd
000000a0: 5df9 b53d c883 a2bc db2f 03be 9efa b5bd
000000b0: db01 f2bd 562f 5e3d 4a9e 103e bd56 c53c
000000c0: 5d31 bc3d d917 193e 720a 42bd cddf 0c3d
000000d0: b35a a33d 9ae5 d43d 42e5 97bd ede8 a53d
000000e0: 89a9 7abd 6dbe 293e 4980 a13a a107 00be
000000f0: 7944 bc3d fa9e 2f3e 55ab 693d 0623 7abc
00000100: 8d81 3ebd 996c 813d 6d0a ba3d a2d4 06be
00000110: a9a8 073d ffe8 013d 59e6 283e 1671 2a3d
00000120: 7e9f 20be 0ba2 313e 639c 983d 4652 b5bd
00000130: ddb3 3b3d cd2d 27be 853a 103e 6ea8 d13d
00000140: 0da1 2a3e 38ed 58bd 7bfd 4ebd a8e4 933d
00000150: 32fc bcbd f586 a1bd 0ebc 5a3b 041b aabd
00000160: 624d 03be c4cd 8f3d 7e06 42be 863f 37bd
00000170: 601e 013e df0f 2a3e f063 6d37 1b3d 343d
00000180: 95e6 17be 749d 86be adf6 ef3d 958c 95be
00000190: a373 983d 47ac 843e e24b b2bd 8893 94bd
000001a0: 4497 033e ec61 8c3b 687e 743e b2e3 23be
000001b0: 5afd 11be 00b0 a03d 15b4 dcbd 74cb b1bd
000001c0: 138f 72bc 1ce3 e43d ed65 883e 4a21 6a3e
000001d0: 99fe aabe 8cff 3ebe e241 cb3d 3454 3ebe
000001e0: ac5a 283e 64aa c83d d230 54be 262e 46be
000001f0: 9279 a33e b883 afba f66f 6cbe 642d a03d
00000200: 36b9 babc 7e32 7f3d 9c46 00be 8908 0c3e
00000210: b3b8 16be 2d96 d7bc 9e39 85bd 6a03 f0bb
00000220: d115 34be 361f 1d3e c402 0f3e 6f14 bfbd
00000230: 8b37 fb3d a837 1bbe f176 d7bc 9a58 843d
00000240: 5fa5 e3bc cbdb c93d d3f0 2cbe 7724 d73d
00000250: 813d 0abe c8a0 dabc 7135 39be 97ec 9c3d
00000260: c5c9 b83d 0f87 f0bc 03f6 8d3c ba0a 8dbd
00000270: f503 e43d bce6 2abe f5c0 043e 690f f13c
00000280: 9427 b23d f28a 38be 3016 cfbd f143 07be
00000290: 3719 7d3c 6db5 873d 0895 b23d 8305 713c
000002a0: 0693 153e 80c2 073e cfaf 213d eca6 0d3e
000002b0: 1108 003d 76f6 4dbb 05b7 673c 9578 66bd
000002c0: 375d 693d 3f1f d6bc 6552 ba3d 34d3 dabd
000002d0: 6e52 e1bd e45e b63d d898 3b3e ee2d f0bd
000002e0: 772c a33d 39e0 dd3c 7ff0 253d f412 02be
000002f0: 66f9 07be ad63 643b 438c b83d da89 e23a
00000300: 6e37 963d 59e4 8bbe 0c33 ba3d 7189 003e
00000310: 1ee4 95bd f8b5 093e abac 28be 6b9e 27be
00000320: 9a5b f83d 8926 473b ec50 a9bb b82a 14bd
00000330: 7aea 1dbe 401c 043d 9611 443e f01f 153d
00000340: 7501 f8bd 9a10 a2bd c92f a03c 0281 f03c
00000350: f5e8 e2bd bbe5 eb3c 68ef 8bbd 67d2 003d
00000360: 1606 a6bc aa2a 813d 205a bbbd b469 a13d
00000370: a556 7c3c d601 ecbd dba0 90ba f7fc aebd
00000380: dd66 1abd dee2 aa3d 9f48 383e 5c82 2ebe
00000390: ddd0 86bd 9588 283e 7d6d 7ebd d5ff 993d
000003a0: a18b a03b 30de 2cbe a23b f139 54d3 f3bd
000003b0: d5e3 2c3e a8cf 163e 1bf1 8abd ff26 bcbd
000003c0: d2ce 1dbe fc52 dbbd 3b41 86bd 69be 0fbe
000003d0: 73da 713c 5380 97bb da2a f03d b23e 973c
000003e0: 21b2 2abd 45e1 a3bc 09be 9cbd 0747 f7bd
000003f0: c42d 123e 4c2d 983c 40f9 3cbe 0e1e 0dbe

Network_stack.0.1.gru.bias_ih_l0 f4 [96]
-0.071509816 -0.05031944 0.01953004 0.071318924 -0.034303956 0.032209273 0.04799245 -0.14449771
0.12406006 -0.033266228 0.09253202 -0.09847882 0.065902 0.16092457 0.09393642 0.121473275
-0.1451518 -0.00068772136 0.14929034 0.053594682 -0.060065094 0.20907876 0.009469245 -0.007814704
0.01680211 -0.023346368 -0.10380488 -0.030320957 0.11824107 -0.08865733 0.08979109 0.010880763
-0.04308944 0.25559902 0.13220774 -0.31158125 -0.26141542 -0.15185107 0.24666913 0.22611001
0.07979781 0.20649016 -0.11398717 -0.03653362 0.18440424 -0.009718123 -0.0915515 -0.21510424
-0.045190535 -0.17762779 0.10660446 -0.05833618 0.46476784 0.5287111 0.04358212 0.062037084
0.04885282 0.0274257 0.38904652 -0.22731283 0.0051669204 -0.06641022 -0.104390144 0.23680012
-0.13742426 -0.01575893 0.09783652 -0.22768798 0.1668319 0.15767156 -0.057069015 -0.0018701061
0.15325119 -0.16025609 0.031178087 -0.15860012 0.02045394 0.12823136 0.12681891 -0.13168894
0.11593924 0.13663602 0.14996801 -0.013877516 -0.13922063 -0.14726287 0.17781454 -0.049787875
0.14931856 -0.019222792 0.00731152 -0.18855046 0.06974927 0.0834943 -0.037327774 -0.04178656
00000000: bd73 92bd c21b 4ebd 76fd 9f3c a80f 923d
00000010: 4e82 0cbd dfed 033d bb93 443d 35f7 13be
00000020: 3313 fe3d 2b42 08bd 6d81 bd3d 43af c9bd
00000030: a1f7 863d 69c9 243e bd61 c03d fbc6 f83d
00000040: aca2 14be 3348 34ba 91df 183e 1986 5b3d
00000050: d106 76bd be18 563e e424 1b3c 3f09 00bc
00000060: 94a4 893c e240 bfbc a797 d4bd a863 f8bc
00000070: 6028 f23d f991 b5bd 64e4 b73d 3a45 323c
00000080: 8d7e 30bd e0dd 823e 7761 073e 9487 9fbe
00000090: 3ed8 85be d97e 1bbe d596 7c3e 6289 673e
000000a0: 096d a33d 2872 533e 1b72 e9bd 47a4 15bd
000000b0: 77d4 3c3e c338 1fbc 5a7f bbbd 4944 5cbe
000000c0: b619 39bd 0fe4 35be 7053 da3d ebf1 6ebd
000000d0: 0df6 ed3e 9c59 073f 2a83 323d 991a 7e3d
000000e0: e519 483d ddab e03c 1b31 c73e b2c4 68be
000000f0: 454f a93b 1502 88bd 80ca d5bd bb7b 723e
00000100: f2b8 0cbe df18 81bc 835e c83d 0a27 69be
00000110: fbd5 2a3e a774 213e 33c1 69bd 591e f5ba
00000120: e1ed 1c3e 2c1a 24be 3069 ff3c 1268 22be
00000130: 058f a73c 154f 033e d1dc 013e 77d9 06be
00000140: 8d71 ed3d 50ea 0b3e 3791 193e 855e 63bc
00000150: da8f 0ebe 14cc 16be 0415 363e 5fee 4bbd
00000160: f7e6 183e 1e79 9dbc 7a95 ef3b 5f13 41be
00000170: b5d8 8e3d 0fff aa3d 02e5 18bd 6228 2bbd

Network_stack.0.1.gru.bias_hh_l0 f4 [96]
0.026550695 0.115607865 -0.0022472218 0.22795911 -0.008245389 0.06832444 0.051355664 0.16633202
-0.1323677 -0.002632514 0.10149985 -0.07379259 -0.057254456 0.19390227 0.028656488 -0.13652562
-0.094493315 -0.03292831 0.10377811 0.1358062 0.0275567 0.07146265 -0.11199582 0.03248614
0.06612969 0.115924716 0.12311942 0.15762308 0.14596446 -0.0327884 -0.0818177 0.14313716
0.046043348 0.15464556 0.19044636 -0.3487287 -0.11736132 -0.05847713 0.026604936 0.1788244
0.084274955 -0.024557667 -0.017695028 -0.3471071 0.1897199 0.22293709 -0.088958 -0.18152104
-0.025169475 -0.025440576 -0.14937806 0.2251162 0.2531306 0.4890505 0.16240741 0.042098183
-0.23470715 0.08481843 0.3528196 -0.18128681 0.23966886 -0.054836042 -0.24619922 0.22981401
-0.16270623 -0.0038358162 0.1618121 -0.13152121 0.0011635516 0.05841455 0.083507106 -0.13743216
-0.07206173 -0.14609788 0.032527145 -0.0350108 -0.08383744 0.032892603 -0.17039977 0.017072696
-0.10964803 0.11075608 -0.05457453 0.08274936 0.009098952 -0.08658855 -0.12760541 0.13188289
0.16027904 0.04689971 -0.05872846 -0.09057968 0.09171484 -0.025879497 -0.16666445 -0.03868028
00000000: d880 d93c d1c3 ec3d 2046 13bb 1d6e 693e
00000010: ab17 07bc afed 8b3d 515a 523d f152 2a3e
00000020: 668b 07be 4286 2cbb 27df cf3d 9220 97bd
00000030: a683 6abd 518e 463e 03c1 ea3c 5fcd 0bbe
00000040: b685 c1bd d6df 06bd 9e89 d43d c810 0b3e
00000050: 97be e13c 035b 923d 115e e5bd 3010 053d
00000060: 016f 873d f069 ed3d 0926 fc3d f267 213e
00000070: b577 153e 214d 06bd 0a90 a7bd 8c92 123e
00000080: f397 3c3d 685b 1e3e 5f04 433e 918c b2be
00000090: 225b f0bd b785 6fbd 98f2 d93c be1d 373e
000000a0: 5998 ac3d 292d c9bc 2af5 90bc 06b8 b1be
000000b0: ef45 423e 9f49 643e 9d2f b6bd a7e0 39be
000000c0: 3730 cebc c168 d0bc 90f6 18be dc84 663e
000000d0: 569a 813e d464 fa3e 214e 263e 256f 2c3d
000000e0: 1257 70be 49b5 ad3d c5a4 b43e 40a3 39be
000000f0: c16b 753e c29b 60bd a61b 7cbe 5d54 6b3e
00000100: 769c 26be 5162 7bbb 12b2 253e 7fad 06be
00000110: 5082 983a 1844 6f3d c605 ab3d 04bb 0cbe
00000120: 1a95 93bd af9a 15be 2f3b 053d 7c67 0fbd
00000130: f7b2 abbd 65ba 063d 477d 2ebe 0adc 8b3c
00000140: 258f e0bd 15d4 e23d 8b89 5fbd 7f78 a93d
00000150: c513 153c 5655 b1bd feaa 02be 4f0c 073e
00000160: 3020 243e e919 403d 418d 70bd d781 b9bd
00000170: fdd4 bb3d 3d01 d4bc 16aa 2abe 376f 1ebd
