models/model_uniform_region_0-0.3.0.6-0.9_multiple_Agents9d59c62b.pth (torch, 87266 bytes, 18 tensors)

Network_stack.0.0.gru.weight_ih_l0 f4 [96, 2]
0	0xbdec6832	-0.11543311
1	0xbdeb8276	-0.11499493
2	0xbca5b58a	-0.020228166
3	0x3b211dc7	0.00245844
4	0xbdae0bec	-0.08498368
5	0x3df249cb	0.11830481
6	0x3d127f1f	0.035765763
7	0xbcc4ea25	-0.02403743
8	0xbc6a9939	-0.014318758
9	0xbd87161d	-0.06596015
10	0x3e3d5adc	0.18491691
11	0xbe02e12b	-0.12781207
12	0x3d371594	0.044698313
13	0x3cf16554	0.029467262
14	0x3c6da29c	0.014504101
15	0xbd4465dd	-0.047948707
16	0x3d880081	0.06640721
17	0xb9ea0118	-0.00044632773
18	0xbdef5054	-0.11685243
19	0xbe1fda87	-0.15610705
20	0xbcd47a1e	-0.025937136
21	0x3e1bc361	0.1521125
22	0x3e26b2cf	0.16279148
23	0xbd8f3e14	-0.06994262
24	0xbe11c4c8	-0.14235222
25	0xbe01ceb2	-0.12676504
26	0x3da73496	0.08164327
27	0xbe1435ff	-0.14473723
28	0xbd4a8149	-0.049439702
29	0xbe0e0888	-0.13870442
30	0xb960fe57	-0.00021457054
31	0xbe012dfc	-0.12615198
32	0xbd81d141	-0.0633874
33	0x3e20439a	0.15650788
34	0xbdf72264	-0.12067106
35	0x3be1f941	0.0068961685
36	0x3d8e9d2f	0.06963574
37	0x3dbc0beb	0.09181961
38	0x3cf37a91	0.02972153
39	0xbdccd38c	-0.10001287
40	0xbd178eb7	-0.037001338
41	0xbdcebe10	-0.10094845
42	0xbdfe17d6	-0.1240689
43	0x3db26f81	0.08712674
44	0x3e0b2044	0.13586527
45	0x3e01436d	0.12623377
46	0xbe01cf43	-0.1267672
47	0x3cd0acb2	0.025472973
48	0xbe244598	-0.16042173
49	0x3dbbc190	0.091677785
50	0xbd65de6d	-0.056120325
51	0xbcc248e1	-0.023716392
52	0xbde52db0	-0.11190355
53	0xbe08dd05	-0.13365562
54	0xbd8b1874	-0.067917734
55	0x3e25bd69	0.16185535
56	0xbcccfbdd	-0.025022442
57	0xbdd20180	-0.10254192
58	0xbde9f52a	-0.114237145
59	0xbce20a50	-0.027592808
60	0xbe2b276a	-0.16714254
61	0xbe23e5ce	-0.16005632
62	0x3dc52d39	0.09627766
63	0x3d847333	0.06467285
64	0xbe1bd5e3	-0.1521831
65	0xbcf07638	-0.029353246
66	0xbd032664	-0.032019034
67	0xbbca06f2	-0.0061653787
68	0xbd8fe69f	-0.07026409
69	0x3d212e9b	0.039351087
70	0xbc8a40f3	-0.016876673
71	0xbc85ad14	-0.016317882
72	0x3cad9b0c	0.021192096
73	0xbd8b1dc2	-0.06792785
74	0x3e2ff07c	0.17181581
75	0x3d82c6f1	0.06385601
76	0xbe276e5f	-0.16350697
77	0x3df21ef5	0.11822311
78	0xbd3db486	-0.04631474
79	0x3e33d7b6	0.17562756
80	0x3d58a553	0.05289204
81	0xbdbb453d	-0.091440655
82	0xbe0cd24f	-0.13752101
83	0xbd38e99e	-0.04514467
84	0xbdcfd2f4	-0.10147658
85	0xbdd65611	-0.104656346
86	0xbde804a9	-0.11329014
87	0xbd77e7e5	-0.060523886
88	0x3d3362fc	0.04379557
89	0x3d017505	0.03160574
90	0xbe042367	-0.1290413
91	0x3c9a3f2b	0.018828949
92	0xbe10ff53	-0.14159898
93	0x3ca203f5	0.019777277
94	0x3bc55a53	0.0060227304
95	0x3d4b9fe1	0.04971302
96	0xbd8e2b30	-0.06941831
97	0xbd3af356	-0.04564222
98	0x3d942777	0.0723409
99	0x3cd64f85	0.026160965
100	0x3dd98ea7	0.10622912
101	0xbe116195	-0.14197381
102	0x3ccce873	0.025013184
103	0x3d9d8802	0.07691957
104	0xbd8dd24f	-0.06924879
105	0x3db93a5d	0.09044335
106	0x3d5ad0a6	0.05342164
107	0x3d970828	0.073746026
108	0x3c1316bc	0.008977588
109	0xbd8bfaa1	-0.06834913
110	0xbe7be1f7	-0.24597917
111	0xbe253e4a	-0.16137043
112	0xbd9ad269	-0.07559664
113	0xbdbca4b1	-0.092111
114	0xbd371cc3	-0.044705164
115	0x3c3e3ffc	0.011611935
116	0xbdb71f8e	-0.089415655
117	0x3ddd8e8a	0.10818203
118	0x3dfeb043	0.12435963
119	0xbdf8cb33	-0.12148132
120	0xbd74f1e7	-0.05980101
121	0x3d925973	0.07145967
122	0xbe21aca8	-0.1578852
123	0x3d2b8576	0.041875325
124	0xbedce18c	-0.4314083
125	0xbe886169	-0.26636818
126	0xbdce350e	-0.10068713
127	0xbdd275f7	-0.10276406
128	0x3e20eb76	0.15714821
129	0xbd1970a5	-0.03746094
130	0xbe24ca07	-0.16092692
131	0x3cc18593	0.023623263
132	0x3e0d988b	0.13827722
133	0xbe0c5831	-0.13705517
134	0xbc9541eb	-0.018219909
135	0x3dce3a4c	0.10069713
136	0xbe2a50a2	-0.16632321
137	0xbd5c7a01	-0.05382729
138	0xbe0d0778	-0.1377238
139	0x3be22dec	0.006902447
140	0x3e296b37	0.16544805
141	0xbcffb728	-0.031215265
142	0x3d67dfe7	0.056610014
143	0x3e0dc21b	0.13843577
144	0xbdd95c60	-0.10613322
145	0xbc30d226	-0.010792291
146	0x3d9ecbe2	0.07753731
147	0xbd4452a0	-0.04793036
148	0x3d64cd51	0.055859867
149	0xbd085429	-0.033283386
150	0xbdd7ca1b	-0.105365954
151	0xbd854687	-0.06507593
152	0x3dc00068	0.093750775
153	0x3d497015	0.049179155
154	0xbc50c511	-0.012742297
155	0x3e297353	0.16547899
156	0xbd64daa5	-0.05587258
157	0xbcc7b7ee	-0.024379697
158	0xbde82cf5	-0.113367
159	0x3d370a0f	0.044687327
160	0xbdf02e55	-0.11727587
161	0x3e34d4e0	0.1765933
162	0x3d0a924f	0.033830937
163	0x3d7573bd	0.05992483
164	0xbde65d04	-0.1124821
165	0xbd0d7dca	-0.03454379
166	0x3e13b454	0.14424258
167	0xbdb201f1	-0.086917765
168	0x3d99ebbd	0.07515667
169	0xbdbae662	-0.09125973
170	0x3d1e1b84	0.03860046
171	0xbde43f90	-0.11144936
172	0x3e357abd	0.17722602
173	0xbd4d33d8	-0.05009827
174	0xbb4e4769	-0.003147567
175	0xbbe3ef50	-0.0069560185
176	0xbd963ff7	-0.07336419
177	0xbbf80d4e	-0.0075699454
178	0x3e0fb5a6	0.14034137
179	0x3dbce2f1	0.09222973
180	0xbe2378ce	-0.15964052
181	0x3d8a86c3	0.06763985
182	0xbdbf0b21	-0.093282945
183	0xbd990d37	-0.07473224
184	0xbe1075e8	-0.14107478
185	0x3dd71ebe	0.105039105
186	0xbd2c6e04	-0.042097107
187	0xbe0f9429	-0.14021362
188	0xbdffe414	-0.12494674
189	0x3b68a895	0.0035500873
190	0x3e210b38	0.15726936
191	0x3d5b0409	0.053470645

Network_stack.0.0.gru.weight_hh_l0 f4 [96, 32]
0	0x3e25704e	0.16156122
1	0x3d7096b8	0.058737487
2	0x3e0d9e16	0.13829836
3	0x3e3de5e6	0.1854473
4	0xbe31f81c	-0.17379802
5	0xbe2d1e42	-0.16906074
6	0x3e0b7332	0.13618162
7	0x3ce4f21d	0.02794748
8	0xbd58cc31	-0.052929107
9	0x3d21d892	0.03951318
10	0x3e224273	0.15845661
11	0xbe3c369f	-0.18380211
12	0xbdf7faa5	-0.121083535
13	0xbcb1843c	-0.0216695
14	0x3dd82e78	0.10555738
15	0x3dcec904	0.100969344
16	0x3dee3b64	0.116324216
17	0xbda72bc0	-0.081626415
18	0x3bb2916d	0.005449465
19	0xbdd33120	-0.10312104
20	0x3e2e46bd	0.17019172
21	0x3e2a313b	0.16620342
22	0xbe218f62	-0.15777352
23	0xbd123224	-0.03569235
24	0xbc9a7a41	-0.018857123
25	0x3df13aeb	0.11778816
26	0x3db8974b	0.09013232
27	0xbda60cbd	-0.081078984
28	0xbd1a1d22	-0.03762544
29	0xbe1ebb69	-0.15501179
30	0xbd29ff00	-0.041502953
31	0x3e144aca	0.14481655
32	0x3dfcea91	0.123494275
33	0x3c075877	0.008260838
34	0x3dc71187	0.0972014
35	0x3dcb3ab4	0.09923306
36	0xbdf98d8a	-0.121851996
37	0x3daf8317	0.08569925
38	0x3d129da7	0.03579488
39	0xbdbf09a0	-0.09328008
40	0xbc8cddc7	-0.017195595
41	0x3df64e48	0.1202665
42	0xbe313ad7	-0.17307602
43	0x3b5c6e4d	0.003363508
44	0x3e0bae66	0.13640746
45	0xbe0aff45	-0.1357394
46	0x3df112c5	0.11771158
47	0xbe287d30	-0.16454005
48	0x3da92262	0.08258511
49	0xbddb4839	-0.10707135
50	0xbd2e0f6b	-0.042495172
51	0x3e369a45	0.17832287
52	0xbdec7721	-0.115461595
53	0xbdb83768	-0.08994943
54	0xbd23c700	-0.039984703
55	0xbdb5aaab	-0.08870443
56	0xbdea1866	-0.11430435
57	0x3dc58539	0.09644551
58	0x3dd59a51	0.10429824
59	0xbd091fa6	-0.033477448
60	0x3e26bcb6	0.16282925
61	0xbd919033	-0.07107582
62	0xbe0530cc	-0.13006896
63	0x3e2bbda7	0.16771565
64	0xbdfcd7e6	-0.12345867
65	0x3d470f20	0.04859841
66	0xbe1567d0	-0.14590383
67	0xbe0f8d70	-0.14018798
68	0xbe222a6e	-0.15836498
69	0x3dccbb2c	0.09996638
70	0x3de80497	0.113290004
71	0xbcffc96d	-0.031223977
72	0xbd85fd53	-0.065424584
73	0x3dd3d4f2	0.103433505
74	0xbe2a76c2	-0.16646865
75	0xbe1fbf30	-0.15600276
76	0x3e3a6585	0.18202789
77	0x3e03fc8e	0.1288931
78	0xbca03459	-0.019556211
79	0x3d214ca0	0.039379716
80	0x3dcc328c	0.099705786
81	0xbddae619	-0.10688419
82	0xbd936742	-0.07197429
83	0x3e096779	0.13418378
84	0x3dc93f6b	0.09826549
85	0x3d4b77cc	0.049674794
86	0xbe23c551	-0.15993239
87	0x3d1ab265	0.037767787
88	0xbd8e539b	-0.0694954
89	0x3d895b3e	0.06706856
90	0xbd6d375e	-0.05791413
91	0xbe177703	-0.14791493
92	0x3e1b8dbf	0.1519079
93	0x3d8d1971	0.06889618
94	0xbc575e09	-0.013144978
95	0x3c43a5a4	0.011941347
96	0xbe1fb56d	-0.15596552
97	0x3e092ea6	0.13396701
98	0xbdf6bb09	-0.12047393
99	0x3e06f4fd	0.13179393
100	0x3e183252	0.14862946
101	0x3c42b3be	0.011883674
102	0xbe042a82	-0.1290684
103	0x3de375ae	0.1110643
104	0xbe24d2ae	-0.16095993
105	0x3e10d7c3	0.14144807
106	0x3dd38b5f	0.10329317
107	0xbdf5dcce	-0.12005006
108	0x3e041802	0.12899783
109	0x3cf1726a	0.029473502
110	0xbe010617	-0.1259998
111	0xbd92def5	-0.07171432
112	0xbd8cd7a2	-0.06877066
113	0x3b330c0e	0.0027320418
114	0x3e0dd50f	0.13850807
115	0xbd18e55f	-0.03732812
116	0x3c2e16a0	0.010625511
117	0xbe2ea704	-0.17055899
118	0xbe10c6d2	-0.14138344
119	0x3c4839f6	0.01222085
120	0xbdf4d679	-0.1195497
121	0xbd88bb1e	-0.06676315
122	0xbdf969e9	-0.12178404
123	0x3e1bb903	0.15207295
124	0x3e066cfa	0.13127509
125	0x3dc1089a	0.09425469
126	0xbe2dad97	-0.1696075
127	0x3dc36db0	0.095424056
128	0xbdae91d6	-0.0852391
129	0x3e235081	0.15948679
130	0x3d47dc93	0.04879434
131	0xbc942ecf	-0.018088726
132	0x3e06f38d	0.13178845
133	0xbd27892c	-0.0409023
134	0xba09bf00	-0.00052545965
135	0x3e37fb8f	0.17967056
136	0xbda106b3	-0.07862606
137	0xbdcc50cd	-0.09976349
138	0x3d46f085	0.04856922
139	0x3de33578	0.11094183
140	0xbb7930f5	-0.0038023565
141	0xbda6375c	-0.08116028
142	0xbc31d0c2	-0.010852994
143	0xbc0d272d	-0.008615297
144	0x3e252af6	0.1612967
145	0xbcc0f217	-0.023552937
146	0xbdde33b7	-0.108497076
147	0x3dc3f4a1	0.09568144
148	0x3d928ebe	0.07156132
149	0x3ce4a083	0.02790857
150	0x3e0cd32e	0.13752434
151	0x3d928744	0.07154706
152	0xbd86cca2	-0.06581999
153	0x3b31cf46	0.0027131601
154	0x3bb6a34a	0.005573665
155	0x3cab2801	0.020893099
156	0x3db8f1a1	0.09030462
157	0xbdaa0dbc	-0.08303401
158	0xbd1753bb	-0.036945086
159	0x3bed0ed5	0.007234434
160	0xbe04b7ed	-0.12960787
161	0xbd95a0d3	-0.073060654
162	0xbe1360b8	-0.14392364
163	0xbe24dc06	-0.16099557
164	0xbe0610c9	-0.1309234
165	0x3d0b825a	0.03405986
166	0xbd723a93	-0.059137892
167	0xbdec236d	-0.115301944
168	0xbd292b2a	-0.04130093
169	0xbd978b1b	-0.07399579
170	0x3d8d85c7	0.06910282
171	0xbe28b8c0	-0.16476727
172	0x3dc0dbac	0.09416899
173	0xbca82c6f	-0.020529
174	0x3de0d969	0.10978968
175	0x3d9b985a	0.07597418
176	0xbe100e3f	-0.14067934
177	0x3b4eab49	0.00315352
178	0x3e1c9351	0.15290572
179	0x3b407ab9	0.0029370023
180	0xbde16374	-0.11005297
181	0x3c98316e	0.018578257
182	0x3e29e293	0.16590337
183	0x3cb29962	0.021801654
184	0x3deb1611	0.11478818
185	0xbe012060	-0.12610006
186	0x3c4971ca	0.012295196
187	0x3d5f6740	0.054541826
188	0x3d2cc8cf	0.042183693
189	0x3e10a8bf	0.14126872
190	0xbdb280e9	-0.08715994
191	0x3db87173	0.09006014
192	0x3e0bf880	0.13669014
193	0xbd414c93	-0.047192167
194	0x3e024694	0.12722236
195	0xbe012cc8	-0.12614739
196	0xbc918966	-0.017765712
197	0x3d7605b7	0.060064044
198	0xbd1137f5	-0.035453755
199	0xbdef5a7a	-0.11687179
200	0xbd8e6f17	-0.069547825
201	0x3e016075	0.12634452
202	0x3e0e493e	0.13895127
203	0xbe35e0a7	-0.1776148
204	0x3e38ff53	0.18066148
205	0x3e2b4452	0.16725281
206	0xbd6d2dcb	-0.057905
207	0xbe06e257	-0.1317228
208	0xbe0c80c8	-0.13721001
209	0xbe053fda	-0.13012639
210	0x3b8cd842	0.004298241
211	0x39dd2665	0.0004218101
212	0x3dea9c80	0.11455631
213	0xbdb2d93e	-0.08732842
214	0xbd428246	-0.04748752
215	0x3d7358c5	0.05941083
216	0xbdf95dbc	-0.121760815
217	0x3c4dd2ba	0.012562448
218	0x3dfc8e55	0.12331835
219	0x3e1113e3	0.14167742
220	0x3e0b028d	0.13575192
221	0xbd7b6051	-0.06137115
222	0x3d8c602a	0.06854279
223	0x3e182a34	0.14859849
224	0x3e0956da	0.13412037
225	0x3d87744c	0.06613979
226	0xbcc8d189	-0.024513977
227	0xbd7d6009	-0.061859164
228	0x3dbf9bf9	0.09355921
229	0xbdcd6f79	-0.10031027
230	0x3d01cdb0	0.0316903
231	0xbdf75965	-0.120775975
232	0x3e085b5c	0.13316101
233	0x3c6dc6be	0.014512716
234	0x3e089326	0.13337383
235	0xbdb7e0bb	-0.08978411
236	0xbdf3bf0f	-0.11901676
237	0x3ddc057f	0.10743236
238	0x3d9be728	0.07612449
239	0x3cb6a270	0.022294253
240	0xbe053d89	-0.13011755
241	0x3e0e8d10	0.13920999
242	0xbd8c77d8	-0.06858796
243	0xbe131884	-0.1436482
244	0x3d29fdde	0.041501872
245	0x3d6688b0	0.0562827
246	0x3df2c26e	0.11853491
247	0x3dcc8d92	0.0998794
248	0x3c0cf32c	0.008602899
249	0xbe00f267	-0.12592469
250	0x3d90860a	0.07056816
251	0x3cd9726a	0.026543815
252	0xbe18dc2d	-0.1492774
253	0x3e0b4b42	0.13602927
254	0xbd22e267	-0.039766695
255	0x3d20e6f5	0.039282758

Network_stack.0.0.gru.bias_ih_l0 f4 [96]
0	0xbdc23faf	-0.09484803
1	0x3cc4bfcc	0.024017237
2	0x3d0c018c	0.034181163
3	0xbe236e37	-0.15960012
4	0x3e3ce105	0.18445213
5	0x3e1abaca	0.15110317
6	0xbdcac606	-0.09901051
7	0xbc230102	-0.009948971
8	0x3d6880bd	0.0567634
9	0xbdf47046	-0.11935477
10	0x3d5f1910	0.05446726
11	0xbdc326cc	-0.09528884
12	0x3da208dc	0.07911846
13	0xbd0389d3	-0.03211386
14	0xbdd62221	-0.10455728
15	0x3dc11005	0.094268836
16	0xbd9b3d03	-0.075799964
17	0x3d61e28e	0.0551477
18	0x3e356fd0	0.17718434
19	0x3b5c6c86	0.003363402
20	0xbe154424	-0.14576775
21	0x3dc822c2	0.097722545
22	0xbdfc2e76	-0.12313549
23	0x3c4708c7	0.012148089
24	0x3e1cba23	0.1530538
25	0x3dfa1d7e	0.122126564
26	0x3debe59b	0.11518403
27	0x3d92290a	0.07136734
28	0x3dd7af74	0.10531512
29	0xbdf43383	-0.119238876
30	0xbd5838f5	-0.052788693
31	0xbd952b53	-0.07283654
32	0x3d914117	0.07092493
33	0x3daec54d	0.08533726
34	0xbe0caad4	-0.13737041
35	0x3cc109bd	0.023564214
36	0x3d963bc4	0.07335618
37	0xbd62dad8	-0.055384487
38	0x3d3fcb42	0.0468247
39	0x3d4241c2	0.047425993
40	0x3ac3c7ad	0.0014936827
41	0x3ce594de	0.028025087
42	0x3db8e331	0.09027708
43	0x3e3f6de6	0.18694267
44	0xbda6c159	-0.08142347
45	0xbde07ae0	-0.109609365
46	0xbe212087	-0.15735064
47	0xbd12d1f4	-0.03584476
48	0xbc9dbdf8	-0.019255623
49	0xbc17b378	-0.009259097
50	0x3ce73624	0.028224058
51	0xbddec9b3	-0.10878315
52	0xbe192c7b	-0.14958374
53	0x3cd8db6f	0.026471822
54	0xbdf70baa	-0.120627716
55	0xbdbe63af	-0.09296357
56	0xbdfc02e0	-0.12305236
57	0x3e22c090	0.1589377
58	0x3e01a1ba	0.1265935
59	0xbd510203	-0.05102731
60	0xbde31252	-0.11087479
61	0x3e0c64cb	0.13710324
62	0xbe952618	-0.29130626
63	0xbc5f197c	-0.013616916
64	0xbdb3a783	-0.08772185
65	0xbdd9bd98	-0.10631865
66	0x3e28ec47	0.16496383
67	0xbc1991dd	-0.009373155
68	0x3dc8dc26	0.09807615
69	0x3bc04f6f	0.005868844
70	0xbe1d3f93	-0.15356283
71	0x3db1b9f2	0.086780444
72	0x3c236f5c	0.009975281
73	0xbe367fcb	-0.17822187
74	0x3d91ed80	0.07125378
75	0x3d9418c6	0.07231288
76	0xbe0c027c	-0.13672823
77	0x3d593d86	0.05303719
78	0xbdf136bd	-0.117780186
79	0xbdd65ef7	-0.10467332
80	0x3dc0d025	0.094147004
81	0xbdd0e73c	-0.102003545
82	0xbce72931	-0.028217884
83	0x3de6a42a	0.112617806
84	0xbcc6b4d7	-0.024256153
85	0xbdb9c745	-0.09071211
86	0xbe23e061	-0.16003563
87	0x3ca2e751	0.01988569
88	0x3dd54f59	0.10415525
89	0xbe11b746	-0.1423007
90	0x3d33f1c7	0.04393175
91	0xbd8a18ac	-0.06742987
92	0xbd85aeb0	-0.065274596
93	0xbd848b59	-0.06471891
94	0xbd561779	-0.05226848
95	0x3c9597ec	0.018260919

Network_stack.0.0.gru.bias_hh_l0 f4 [96]
0	0xbd1f7bb0	-0.038936317
1	0x3e07b0bf	0.13251017
2	0x3c79ecbd	0.015254197
3	0xbd96787b	-0.073471986
4	0xbd6ab40b	-0.05730061
5	0xbd928f3f	-0.07156228
6	0x3e015ca1	0.12632991
7	0x3e09ce6e	0.13457653
8	0x3d7b11d8	0.061296314
9	0xbd1ee502	-0.038792618
10	0x3e0eb195	0.1393493
11	0x3d3cb042	0.04606653
12	0xbe29723f	-0.16547488
13	0xbd9583cc	-0.07300529
14	0x3d2bd7f4	0.041953996
15	0xbdbcd20a	-0.09219749
16	0xbe1ab85d	-0.15109392
17	0x3dedba96	0.11607854
18	0xbdbda54c	-0.092600435
19	0xbb150c36	-0.0022742874
20	0x3e0e3bfd	0.13890071
21	0xbe1f2393	-0.15540914
22	0xbda5f7ae	-0.08103882
23	0xbcdc2406	-0.026872646
24	0xbe2b9dbf	-0.16759394
25	0x3df635fe	0.12022017
26	0xbe37b9d9	-0.17941989
27	0x3e2651d3	0.16242151
28	0x3e2bc3e4	0.16773945
29	0xbdb49cbb	-0.088189565
30	0xbd53fec1	-0.051756624
31	0x3da1fcca	0.07909544
32	0x3dc43877	0.09581082
33	0xbe045c9d	-0.12925954
34	0x3c6abd5d	0.014327374
35	0xbe1f8e45	-0.15581615
36	0xbd4d60e2	-0.050141223
37	0xbdee14ed	-0.11625085
38	0xbab1db9c	-0.0013569477
39	0x3d7e71d6	0.06212028
40	0xbdfacf34	-0.12246552
41	0xbe332893	-0.17495947
42	0xbd52e15a	-0.051484443
43	0xbd5d1f8f	-0.053985175
44	0x3dd8cad8	0.105855644
45	0xbd78dc7d	-0.06075715
46	0xbe2fa15e	-0.171514
47	0x3dc148fb	0.09437748
48	0xbcdb25f4	-0.026751496
49	0xbd233006	-0.03984072
50	0xbcad062a	-0.021121103
51	0x3d97e3ff	0.07416534
52	0x3d3f9510	0.046773016
53	0x3e270cb3	0.16313438
54	0x3cea500d	0.028602624
55	0x3d921ced	0.071344234
56	0xbddd70d4	-0.10812536
57	0xbdeb3650	-0.11484969
58	0x3e04e536	0.12978062
59	0xbd27c2f7	-0.040957417
60	0x3e14023a	0.14453974
61	0xbdfaab0c	-0.12239656
62	0xbdc591be	-0.09646939
63	0xbdd8303e	-0.105560765
64	0x3da06817	0.078323536
65	0xbdd840e2	-0.105592504
66	0xbd75a37f	-0.059970375
67	0x3de34306	0.11096768
68	0xbdc227f0	-0.09480274
69	0x3da0af4f	0.078459375
70	0x3d5bd29a	0.053667642
71	0x3c69bc39	0.014266067
72	0x3d30b495	0.043140966
73	0x3c33e634	0.010980178
74	0xbe1890f9	-0.14899053
75	0xbd4b4c7c	-0.049633488
76	0x3e2f7d17	0.17137562
77	0xbe02e004	-0.12780768
78	0xbe2c5bc2	-0.16831878
79	0x3e2ac88b	0.16678064
80	0xbd14fd21	-0.036374215
81	0xbd91a619	-0.07111759
82	0xbe2476de	-0.16060969
83	0x3df57bed	0.119865276
84	0x3e15588f	0.14584564
85	0x3d8e27a8	0.069411576
86	0xbe250cb2	-0.16118124
87	0xbde9c497	-0.1141445
88	0x3e3363ba	0.17518511
89	0xbdfbc050	-0.1229254
90	0xbe22b2bf	-0.15888499
91	0x3dc5715a	0.09640761
92	0x3c1a9976	0.009436002
93	0xbe1f940e	-0.15583822
94	0x3c78c58f	0.01518382
95	0x3cf1ac2f	0.029501049

Network_stack.0.0.gru.weight_ih_l1 f4 [96, 32]
0	0x3ddde295	0.10834233
1	0x3e3af605	0.18257912
2	0x3850b334	4.975796e-05
3	0xbd621c5d	-0.05520283
4	0xbd1b0b18	-0.037852377
5	0xbe1b1b01	-0.1514702
6	0xbe00aff0	-0.12567115
7	0x3dcede13	0.10100951
8	0x3e2b3abe	0.16721627
9	0x3dfc724c	0.12326488
10	0x3dfca00a	0.123352125
11	0xbc9776d0	-0.018489271
12	0x3d968cf8	0.073511064
13	0x3e0bda4f	0.13657497
14	0xbe23dc2d	-0.16001959
15	0x3cd46051	0.025924833
16	0x3d5afc6f	0.053463396
17	0x3e2b6c63	0.16740565
18	0x3e19e132	0.15027311
19	0xbd11356a	-0.03545133
20	0xbdc35f1e	-0.095396265
21	0xbdd6b950	-0.10484564
22	0x3e12a6c7	0.14321433
23	0xbcf9829c	-0.030457787
24	0xbe149bcc	-0.14512557
25	0x3d7d2cbe	0.061810248
26	0x3c9c51c5	0.01908196
27	0x3d9b40eb	0.075807415
28	0x3cb0792c	0.021542154
29	0xbcb20966	-0.021732997
30	0x3db919be	0.09038113
31	0xbd9e031e	-0.07715438
32	0xbdef098a	-0.11671741
33	0x3db33171	0.087496646
34	0x3e0e6823	0.13906913
35	0x3cdcc729	0.026950436
36	0x3d58004c	0.052734658
37	0xbdf8636e	-0.1212834
38	0x3da3ac04	0.07991794
39	0x3da703a7	0.081549935
40	0xbda33f70	-0.07971084
41	0x3d677301	0.05650616
42	0x3e3a8632	0.18215254
43	0x3c07d185	0.008289699
44	0xbd918233	-0.07104912
45	0xbcf62e0f	-0.03005126
46	0xbdafc336	-0.085821554
47	0x3d47c861	0.04877508
48	0xbe16b9ef	-0.14719366
49	0xbc99dabe	-0.018781062
50	0xbd2b867b	-0.041876297
51	0x3e195dda	0.14977208
52	0x3dd21b18	0.10259074
53	0xbd6aac67	-0.057293322
54	0x3e1b9e63	0.15197138
55	0x3e1eacfe	0.15495679
56	0x3d7c1a67	0.061548617
57	0x3c2d8b10	0.010592237
58	0x3d8d9703	0.06913569
59	0xbe1374dc	-0.14400047
60	0xbe3110bb	-0.17291538
61	0xbceec0aa	-0.029144604
62	0x3deff02c	0.11715731
63	0xbe16afaf	-0.14715455
64	0x3df3861c	0.11890814
65	0x3e1b89da	0.15189305
66	0xbe2758a3	-0.16342406
67	0xbda238c7	-0.07920986
68	0x3d834581	0.06409741
69	0x3d3154e3	0.043293845
70	0x3d95fb31	0.073233016
71	0xbda66269	-0.08124239
72	0x3de0e057	0.109802894
73	0xbde31c40	-0.11089373
74	0x3dd88495	0.10572163
75	0x3dc2e6b5	0.0951666
76	0xbdd52427	-0.10407286
77	0xbe1b45ff	-0.1516342
78	0xbd9c0a64	-0.07619169
79	0x3df87f60	0.1213367
80	0xbda0e8c1	-0.07856894
81	0xbcd296b0	-0.025706619
82	0x3df9fedc	0.12206814
83	0xba0619b7	-0.0005115526
84	0xbdefa6ab	-0.11701711
85	0x3d521540	0.051289797
86	0xbdd3e57c	-0.10346505
87	0x3cbdc8b3	0.02316699
88	0x3d16d49a	0.036823846
89	0xbd87c8fc	-0.066301316
90	0xbc98c9af	-0.018650858
91	0x3e2d4769	0.16921772
92	0xbe087fa4	-0.13329941
93	0x3e3099f4	0.17246228
94	0x3cda150c	0.026621364
95	0x3d83ee07	0.064418845
96	0xbdf60aac	-0.12013754
97	0x3e1c0ab0	0.15238452
98	0xbcc8c72b	-0.024509033
99	0xbdde9b6a	-0.10869487
100	0x3d9421fe	0.07233046
101	0x3e2cd60e	0.1687853
102	0x3e156565	0.1458946
103	0x3ddf85d5	0.10914198
104	0x3d8fb301	0.07016564
105	0xbe258ff3	-0.16168194
106	0x3c9dc662	0.019259635
107	0xbbce59e0	-0.006297335
108	0xbac8d4f5	-0.0015322255
109	0xbdb3bc11	-0.08776105
110	0x3e2a03ca	0.16603008
111	0x3ca5b8a6	0.020229649
112	0xbe252b2d	-0.16129752
113	0xbd057ec9	-0.032591615
114	0x3dcbd58e	0.09952842
115	0xbd5e51ec	-0.054277346
116	0x3d1061b2	0.03524942
117	0x3d0e7c54	0.034786537
118	0x3d0df3ef	0.03465646
119	0xbe17c165	-0.14819868
120	0xbe1c2b0f	-0.152508
121	0x3ddb21ce	0.10699807
122	0x3dd18b59	0.102316566
123	0x3dc8bc3d	0.098015286
124	0x3d6ff938	0.058587283
125	0x3dbc776d	0.09202466
126	0x3e2141a4	0.15747696
127	0xbe26c065	-0.1628433
128	0xbca91470	-0.020639628
129	0xbd4d100f	-0.050064143
130	0x3d99668c	0.074902624
131	0x3e1cc82e	0.15310737
132	0x3e3e9c18	0.18614233
133	0xbcfe96cd	-0.031077767
134	0xbda12aa1	-0.07869459
135	0xbe25b82a	-0.16183534
136	0xbe209e63	-0.1568542
137	0xbda2ef5c	-0.079558104
138	0x3de5fce1	0.112298734
139	0xbd822d72	-0.06356324
140	0xbdf9b156	-0.12192027
141	0x3c855b3c	0.016278856
142	0x3e1604ef	0.1465032
143	0x3d878f50	0.066191316
144	0xbe1816a9	-0.14852394
145	0x3dd3413d	0.103151776
146	0x3e04bbf4	0.12962323
147	0x3d984919	0.07435817
148	0xbdfe2f0c	-0.12411317
149	0x3da12a05	0.07869343
150	0xbcb2f15f	-0.02184361
151	0xbb5f74f5	-0.0034096811
152	0x3e2812ec	0.16413468
153	0x3e1dbe87	0.15404712
154	0xbd90521c	-0.07046911
155	0x3d305249	0.043047223
156	0xbda2c413	-0.079475544
157	0x3e21ff09	0.15819944
158	0xbd738676	-0.059454404
159	0x3e27ee79	0.16399564
160	0xbe26270e	-0.16225836
161	0x3ce6f0f6	0.028191071
162	0xbdc4934c	-0.09598407
163	0x3e2a399c	0.16623539
164	0xbdc0a2bb	-0.094060384
165	0x3cb333f2	0.021875355
166	0xbe3b1a58	-0.18271768
167	0x3ca873d3	0.020563042
168	0xbd81f3ed	-0.06345353
169	0xbe047f7d	-0.12939258
170	0x3e3a2c37	0.18180929
171	0xbc271386	-0.010197526
172	0xbd52fa42	-0.051508196
173	0xbde9a531	-0.11408461
174	0xbdf99c66	-0.12188034
175	0x3e09876b	0.13430564
176	0x3e2104ec	0.15724534
177	0xbde23c14	-0.11046615
178	0xbd926722	-0.07148577
179	0x3e2a18e5	0.16611059
180	0x3dffc83c	0.124893636
181	0x3c92cc55	0.017919699
182	0x3d1e9a8d	0.03872161
183	0x3c2e9c09	0.010657319
184	0x3dda4ad5	0.10658804
185	0x3e16fbdc	0.14744514
186	0xbc7798a0	-0.015112072
187	0x3c058b25	0.00815085
188	0x3bebd56a	0.007197072
189	0xbe007d42	-0.12547782
190	0x3d806bd6	0.06270568
191	0x3dced0e4	0.100984365
192	0xbac48bee	-0.0014995316
193	0x3e269697	0.16268383
194	0x3e1921f0	0.14954352
195	0xbd2d8eb9	-0.04237244
196	0xbddd3f28	-0.10803062
197	0xbdea87ad	-0.11451659
198	0x3d8fb93a	0.07017751
199	0xbca8f661	-0.020625295
200	0xbe2ca5ae	-0.16860077
201	0x3d073b38	0.03301546
202	0x3dac967e	0.084271416
203	0x3d11ed2b	0.03562657
204	0xbe345e76	-0.17614159
205	0x3e359a2c	0.17734593
206	0x3dbbe684	0.09174827
207	0xbd469653	-0.048483204
208	0xbd7a9caa	-0.061184563
209	0xbe22da0d	-0.15903492
210	0x3e3bdd05	0.18346031
211	0xbe1acfe2	-0.15118363
212	0x3d8469a2	0.0646546
213	0x3e05f0ff	0.13080214
214	0xbdd8e71a	-0.10590954
215	0xbe238f1d	-0.15972562
216	0x3dd839f1	0.105579264
217	0x3df5a9f2	0.11995305
218	0xbdc38594	-0.095469624
219	0xbe12d12c	-0.14337605
220	0x3b7efae7	0.0038906874
221	0xbd2ea062	-0.04263342
222	0x3d9ee7c9	0.07759053
223	0xbe0077ce	-0.12545702
224	0xbcd232ca	-0.025658984
225	0xbe21dd35	-0.1580704
226	0xbe0771c4	-0.13226992
227	0xbd1094c3	-0.03529812
228	0xbe418926	-0.18899974
229	0xbdfc8bd4	-0.123313576
230	0x3d579361	0.052630786
231	0x3dccb69c	0.099957675
232	0xbddfe2d4	-0.10931936
233	0x3da395a8	0.07987529
234	0x3d26a5d2	0.040685482
235	0xbc4a9faa	-0.012367168
236	0x3dab4f32	0.08364715
237	0x3d17ca9c	0.037058458
238	0xbdcd05d3	-0.100108765
239	0x3c0872ae	0.008328123
240	0xbe256cdb	-0.16154806
241	0xbe1dc222	-0.15406087
242	0xbcbd7ed2	-0.023131762
243	0xbe2b7d14	-0.16746932
244	0xbd890d82	-0.066920295
245	0x3d8cc575	0.068735994
246	0xbb9da9a1	-0.004811481
247	0x3dfd0584	0.12354568
248	0xbd503c69	-0.05083886
249	0x3dc34099	0.095338054
250	0x3e13c56e	0.14430782
251	0xbd82c708	-0.063856184
252	0xbde98f1d	-0.1140425
253	0xbd9a25eb	-0.075267635
254	0xbdcca885	-0.0999308
255	0xbda98ce0	-0.08278823

Network_stack.0.0.gru.weight_hh_l1 f4 [96, 32]
0	0xbdf50e16	-0.11965577
1	0xbe174e28	-0.14775908
2	0xbd62f454	-0.05540879
3	0xbe03e3c0	-0.12879848
4	0x3d1e50fd	0.038651455
5	0x3b9adaeb	0.004725804
6	0xbdeed01b	-0.11660787
7	0x3e09b3e1	0.13447525
8	0xbe1788c2	-0.14798263
9	0xbc7da562	-0.015481325
10	0xbe12ff42	-0.14355186
11	0x3e0179fc	0.1264419
12	0xbd41a887	-0.04727986
13	0x3df3296e	0.118731365
14	0x3db4ad71	0.08822144
15	0x3cf0eda8	0.029410198
16	0xbe0f0f9a	-0.13970795
17	0xbd58761e	-0.05284702
18	0x3e0ca82d	0.13736029
19	0xbe1558e8	-0.14584696
20	0xbe142cc0	-0.14470196
21	0x3dd75036	0.10513346
22	0x3d5f6559	0.054540012
23	0xbc3b0e8a	-0.011417041
24	0x3db801ad	0.08984695
25	0xbdf762e6	-0.1207941
26	0x3d0bde7b	0.03414772
27	0xbd294ab4	-0.041331008
28	0x3e1a951e	0.15095946
29	0x3d9045c0	0.07044554
30	0x3de86854	0.11348024
31	0xbe16d4e9	-0.14729656
32	0x3ddb0f21	0.10696245
33	0xbe1ca042	-0.15295509
34	0x3dbd615c	0.092470855
35	0xbc2052a8	-0.009785332
36	0x3e2eb53c	0.17061323
37	0x3d578d5b	0.05262504
38	0x3d9f2a46	0.07771735
39	0x3def9481	0.11698247
40	0x3e23e72e	0.16006157
41	0xbdaaef40	-0.083464146
42	0xbe013d1f	-0.12620972
43	0x3e1b433f	0.15162371
44	0x3e0e0bb1	0.13871647
45	0xbde4c79a	-0.111708835
46	0xbdf7e7e0	-0.121047735
47	0x3d9756fb	0.07389637
48	0x3d632ea1	0.05546439
49	0x3dc7dd26	0.097589776
50	0xbdc581e1	-0.09643913
51	0xbb0b1a0e	-0.0021225247
52	0x3dd6dbf0	0.104911685
53	0xbe055518	-0.13020742
54	0x3db1d95c	0.08684036
55	0xba2dc9ff	-0.0006629526
56	0x3d975b4e	0.07390462
57	0x3d0d8bfe	0.034557335
58	0x3dcf542b	0.10123476
59	0x3e02976b	0.12753074
60	0xbe1a6802	-0.15078738
61	0xbe03a0d3	-0.12854318
62	0x3dca9dcd	0.09893379
63	0x3cf3ef95	0.029777328
64	0xbe2d7411	-0.16938807
65	0x3c1a9ad7	0.009436331
66	0x3da5538d	0.08072577
67	0xba8b5178	-0.0010629138
68	0xbdc03483	-0.09385016
69	0xbe22be55	-0.15892918
70	0xbdaedfee	-0.08538805
71	0x3e29cef1	0.16582848
72	0xbcacb5c9	-0.021082776
73	0x3d1777cc	0.03697948
74	0x3e2e8ed1	0.17046668
75	0x3ce93baa	0.028470833
76	0xbd250df1	-0.0402965
77	0xbd96bf4e	-0.07360707
78	0x3ddc800a	0.10766609
79	0x3dc361ca	0.09540136
80	0x3daba87d	0.08381746
81	0x3d7ac3fe	0.06122207
82	0x3e0438f9	0.12912358
83	0xbe36660a	-0.17812362
84	0x3e0fc149	0.14038576
85	0x3df7bedf	0.12096953
86	0x3d95db1a	0.07317181
87	0x3d66308b	0.056198638
88	0xbd96de4d	-0.07366619
89	0xbdd66430	-0.10468328
90	0x3d90048e	0.07032119
91	0x3d814f63	0.0631397
92	0xbdc16833	-0.094437025
93	0x3ca26d68	0.01982756
94	0xbdce04c9	-0.100595064
95	0x3d8ca17d	0.06866739
96	0xbdba464e	-0.09095441
97	0xbe0b3b3a	-0.13596812
98	0x3d00caa9	0.03144327
99	0xbe0b2d6b	-0.13591544
100	0xbce30609	-0.027712839
101	0xbe2285cb	-0.1587135
102	0x3ca464cd	0.020067597
103	0xbe057111	-0.13031413
104	0xbe0ccab7	-0.13749205
105	0xbd919f88	-0.07110506
106	0x3e207b63	0.15672068
107	0xbcdb4af0	-0.026769131
108	0x3cba00df	0.022705493
109	0xbc18169a	-0.009282732
110	0x3b79ec82	0.0038135354
111	0x3e27ec9c	0.16398853
112	0x3d1df6a6	0.0385653
113	0xbd79c483	-0.060978424
114	0x3d7beca4	0.061504975
115	0xbd9b59be	-0.07585476
116	0x3e19922d	0.14997168
117	0x3dd7dacc	0.10539779
118	0x3dd31593	0.10306849
119	0xbc1bf633	-0.009519148
120	0xbe31b998	-0.17355955
121	0xbde2c054	-0.1107184
122	0xbe3484ca	-0.1762878
123	0x3e387043	0.18011574
124	0xbd977f90	-0.073973775
125	0x3e03fbf7	0.12889086
126	0xbd8cfc6e	-0.06884085
127	0x3d1a1f0d	0.03762727
128	0x3dc59ea4	0.09649399
129	0xbe1d8cbb	-0.15385716
130	0x3d86d60b	0.06583794
131	0xbe3b05bf	-0.1826391
132	0x3d2decef	0.042462286
133	0x3de3e485	0.11127571
134	0x3e2df310	0.16987252
135	0x3e0a8450	0.13527036
136	0xbe36a280	-0.17835426
137	0xbd1f34a0	-0.038868546
138	0x3ac542cd	0.0015049815
139	0x3d4b36b4	0.049612716
140	0xbdc7792f	-0.09739911
141	0x3e091db6	0.1339024
142	0x3d104843	0.035225164
143	0x3dd7cbd4	0.10536924
144	0x3e03ab21	0.12858249
145	0x3dee0075	0.11621181
146	0x3dc9f313	0.09860816
147	0xbd63ad57	-0.05558523
148	0x3bd46ea4	0.006482916
149	0x3e2664fd	0.16249461
150	0xbe276123	-0.16345648
151	0x3dd1dabf	0.10246801
152	0xbe1eea59	-0.15519084
153	0xbe0fd4d2	-0.14046028
154	0xbd853754	-0.065046936
155	0x3d43de36	0.04781934
156	0xbdd7ff7c	-0.10546777
157	0xbda8e974	-0.08247653
158	0x3dadf33a	0.084936574
159	0xbdcfbe8a	-0.10143764
160	0x3bea1dbb	0.0071446574
161	0x3db388cd	0.08766327
162	0x3df54d82	0.11977674
163	0x3dacfdc2	0.08446838
164	0xbd8edc85	-0.069756545
165	0xbe0d831d	-0.13819547
166	0x3d86f68e	0.06589995
167	0x3d29f00a	0.041488685
168	0x3d745555	0.05965169
169	0xbda80a07	-0.082050376
170	0x3cfd8290	0.030946046
171	0xbe1cd578	-0.15315807
172	0x3d2ce2d7	0.04220852
173	0x3dd6be17	0.104854755
174	0x3e3a6a72	0.18204668
175	0x3c8501b4	0.016236164
176	0x3b82866e	0.0039833104
177	0xbdda5904	-0.1066151
178	0xbe07f45b	-0.13276808
179	0xbdb4403c	-0.08801314
180	0x3df3cb05	0.11903957
181	0xbe0887fe	-0.13333127
182	0x3d933850	0.07188475
183	0xbe2a706e	-0.16644451
184	0xbdf05f06	-0.11736874
185	0x3cf68c78	0.030096278
186	0x3da8e6ed	0.082471706
187	0xbdb4fa5c	-0.08836815
188	0xbe21a643	-0.1578608
189	0x3e1bdb02	0.15220264
190	0x3da29a21	0.07939554
191	0xbdf8ac5c	-0.1214225
192	0x3e0b79ef	0.13620733
193	0xbd8c4032	-0.06848182
194	0x3e19d469	0.15022434
195	0xbd10621f	-0.035249826
196	0xbe0b2b44	-0.13590723
197	0xbcbdd51d	-0.02317291
198	0xbe28c5bb	-0.16481678
199	0xbdc21a22	-0.09477641
200	0x3da0c6ac	0.07850394
201	0xbcb3232e	-0.02186736
202	0x3d5c7369	0.053821
203	0xbd927a58	-0.071522415
204	0xbd91f8b0	-0.071275115
205	0xbc804816	-0.015659373
206	0xbdda791e	-0.106676325
207	0x3e18a86f	0.14908002
208	0x3dc68b64	0.096945554
209	0x3d1ae8fa	0.03781984
210	0xbdd20b7c	-0.10256097
211	0xbe0b55eb	-0.13606994
212	0xbba38900	-0.004990697
213	0x3bdf4872	0.006814056
214	0x3df6d7fa	0.12052913
215	0x3bf3b670	0.0074375197
216	0xbda819b9	-0.08208031
217	0xbe32414a	-0.17407718
218	0xbe12decb	-0.14342801
219	0xbae6137f	-0.0017553418
220	0x3e378424	0.17921501
221	0xbda488f8	-0.08033937
222	0xbd561d26	-0.052273892
223	0x3e16410b	0.1467325
224	0xbe320041	-0.1738291
225	0xbdef5ac4	-0.11687234
226	0x3cac98da	0.021068979
227	0xbca4e007	-0.020126356
228	0xbe1f8ed2	-0.15581825
229	0xbdc9a289	-0.09845454
230	0xbe243eb8	-0.1603955
231	0xbc272ccd	-0.010203552
232	0xbdb12e08	-0.08651358
233	0x3de76d51	0.11300147
234	0x3e11729a	0.14203873
235	0x3cedca60	0.029027164
236	0x3df0de48	0.11761147
237	0xbdd7bb69	-0.105337925
238	0x3daa6c85	0.0832148
239	0x3dd091ff	0.101840965
240	0xbb82b6a8	-0.0039890595
241	0xbd9a4803	-0.075332664
242	0x3e00c952	0.12576798
243	0x3d56d753	0.052451443
244	0x3d8933e1	0.06699348
245	0x3e29d0ca	0.16583553
246	0x3cd8dd68	0.026472762
247	0x3e155db5	0.14586528
248	0x3c9a1296	0.01880769
249	0xbd01cdf1	-0.03169054
250	0xbe170da0	-0.14751291
251	0x3da8ea69	0.08247835
252	0x3db0f5ab	0.086406074
253	0x3db43763	0.08799627
254	0x3dfde0cc	0.12396392
255	0xbd877f11	-0.06616033

Network_stack.0.0.gru.bias_ih_l1 f4 [96]
0	0x3e1fe82e	0.15615913
1	0x3d9561cb	0.07294043
2	0x3c44c7ea	0.012010554
3	0x3b4490eb	0.0029993604
4	0x3b9fe98b	0.0048801354
5	0x3db4d5db	0.08829852
6	0xbcf77757	-0.030208273
7	0xbd932ce3	-0.07186296
8	0x3c93c3c5	0.018037686
9	0xbe041248	-0.12897599
10	0xbd7ee86f	-0.062233385
11	0x3e0a787c	0.13522524
12	0xbdf75efe	-0.12078665
13	0xbe27f624	-0.16402489
14	0xbe2f3892	-0.17111424
15	0x3d8b4b88	0.06801516
16	0xbd0d8005	-0.034545917
17	0xbdbad31c	-0.09122297
18	0x3c0a1758	0.008428417
19	0x3e1a63de	0.15077159
20	0x3e1388ab	0.14407603
21	0xbd200124	-0.039063588
22	0x3d656f2e	0.056014232
23	0xbe18f7c9	-0.14938273
24	0x3d52dcbc	0.05148004
25	0x3d2c7af6	0.042109452
26	0xbd8e3078	-0.069428384
27	0x3d879e1a	0.06621952
28	0x3e0051a1	0.12531139
29	0xbd22049f	-0.03955519
30	0xbd5c8ad0	-0.05384332
31	0xbddfec90	-0.109337926
32	0xbd29659b	-0.041356664
33	0xbd6df059	-0.05809054
34	0x3da66748	0.08125168
35	0xbe0a7c47	-0.1352397
36	0x3da40a2f	0.08009755
37	0x3d5613fc	0.052265152
38	0xbe214944	-0.15750605
39	0xbe115405	-0.14192207
40	0xbaf7b1e8	-0.0018897625
41	0xbe02c82b	-0.1277167
42	0xbe062e76	-0.13103661
43	0x3d11fee4	0.035643473
44	0xbe1bc2e4	-0.15211064
45	0xbc7e92ef	-0.015537961
46	0x3d8af394	0.0678474
47	0xbceac6ba	-0.028659213
48	0xbc7c32d9	-0.015392982
49	0x3c867bd9	0.016416477
50	0x3e0168c2	0.12637618
51	0x3d2272f9	0.039660428
52	0x3c73d76b	0.014882903
53	0x3de7f430	0.11325872
54	0xbd0cda92	-0.034388132
55	0xbe695922	-0.22787908
56	0x3db5f72f	0.08885037
57	0x3e3cdd55	0.18443806
58	0xbd86820f	-0.065677755
59	0x3e08e102	0.13367084
60	0x3cd339d0	0.025784403
61	0x3e159a6d	0.1460969
62	0x3bdfdfed	0.006832114
63	0xbe244105	-0.16040428
64	0x3dd2fc34	0.1030201
65	0xbe08e8b2	-0.13370016
66	0x3dc04a2b	0.093891464
67	0x3d94efcb	0.072722994
68	0x3d116fdf	0.03550708
69	0x3e2853ba	0.16438189
70	0xbe1aa73b	-0.15102856
71	0xbdb16fe5	-0.0866392
72	0xbd786dad	-0.06065147
73	0xbdf57a8b	-0.11986264
74	0x3e29a0d1	0.16565253
75	0xbd7f5e07	-0.06234553
76	0xbbf9ab06	-0.0076192645
77	0xbdf2a252	-0.118473664
78	0x3c89d2d9	0.016824173
79	0x3d5e5d89	0.05428842
80	0xbc29b474	-0.010357965
81	0x3dd9e018	0.106384456
82	0x3df38a0c	0.11891565
83	0xbd9024ab	-0.07038244
84	0x3db26aa4	0.08711746
85	0xbd701974	-0.058618024
86	0xbe055c45	-0.1302348
87	0x3dd68111	0.10473836
88	0x3d003aef	0.031306203
89	0x3e106eba	0.14104739
90	0x3e33f480	0.17573738
91	0xbe11432e	-0.14185783
92	0x3b126651	0.0022338817
93	0xbd3be447	-0.045872
94	0x3e22f330	0.15913081
95	0xbb7ba230	-0.0038396232

Network_stack.0.0.gru.bias_hh_l1 f4 [96]
0	0x3e06790e	0.13132116
1	0x3dead3a0	0.114661455
2	0xbda03c00	-0.07823944
3	0xbde27279	-0.1105699
4	0x3e105524	0.14094979
5	0x3d574807	0.052558925
6	0xbe3a2e4a	-0.1818172
7	0x3e157361	0.14594795
8	0xbd28d988	-0.04122308
9	0x3e28d17f	0.16486166
10	0xbdbd75b0	-0.09250963
11	0x3e030f3d	0.12798782
12	0xbc090c4f	-0.008364751
13	0x3e0a64d4	0.13515025
14	0x3dbe2f4e	0.092863664
15	0x3dc9926c	0.09842381
16	0xbdf00c63	-0.117211126
17	0x3e1fcf62	0.15606454
18	0x3dcdea13	0.10054412
19	0xbdba5e42	-0.091000095
20	0xbdca91ad	-0.09891067
21	0x3db918cb	0.09037932
22	0x3bae40c9	0.0053177816
23	0xbdcb1538	-0.099161565
24	0xbe0f20a7	-0.139773
25	0xbe002c77	-0.12516962
26	0x3d3e9aa3	0.04653419
27	0x3e0e47ad	0.1389453
28	0x3e192f18	0.14959371
29	0xbe1ce8cc	-0.1532318
30	0x3e036787	0.12832461
31	0x3e413ea0	0.18871546
32	0x3da8e4b1	0.082467444
33	0x3d200c98	0.03907451
34	0xbdc6c1c9	-0.0970493
35	0xbd58d458	-0.05293688
36	0xbd9f2616	-0.07770936
37	0xbe3f3e55	-0.18676122
38	0x3cf8d15f	0.030373273
39	0xbde52eb4	-0.111905485
40	0x3de0fe6a	0.10986026
41	0xbdce256b	-0.10065731
42	0x3d88b5e2	0.066753164
43	0x3da0ddae	0.07854782
44	0x3d363b9b	0.044490438
45	0x3dabf7b7	0.08396857
46	0x3d0998c7	0.033592965
47	0x3d438701	0.04773617
48	0x3e25124f	0.16120265
49	0xbd3db3b5	-0.04631396
50	0xbe4b1641	-0.19832708
51	0x3da407d7	0.08009308
52	0xbe3816c2	-0.17977431
53	0x3d861eec	0.06548867
54	0x3d89c6ac	0.06727347
55	0xbe4a997d	-0.19785114
56	0x3e3b113e	0.18268296
57	0xbddcdcea	-0.107843235
58	0xbc28c433	-0.010300684
59	0x3d186d73	0.037213754
60	0xbe2a5b95	-0.16636498
61	0x3d07b9b7	0.033136096
62	0xbe07c13b	-0.13257305
63	0xbeb56148	-0.35425782
64	0x3e221b7e	0.158308
65	0xbdd49091	-0.10379136
66	0xbdbca768	-0.09211618
67	0xbccf4d81	-0.025305511
68	0x3d1483eb	0.03625862
69	0x3b6aa379	0.0035803004
70	0xbdd51a7e	-0.104054436
71	0xbda4831a	-0.08032818
72	0x3d8b23d5	0.06793944
73	0xbe1c4ad3	-0.15262918
74	0xbda786da	-0.08180018
75	0xbd222514	-0.03958614
76	0xbd4a5fbd	-0.04940771
77	0xbda57455	-0.08078829
78	0xbde81faf	-0.11334168
79	0xbde63e4f	-0.11242353
80	0xbdb909f7	-0.09035104
81	0x3d6c6b1f	0.057719346
82	0xbdbce8e7	-0.0922411
83	0x3d289899	0.041161153
84	0x3d84b4e9	0.064798184
85	0xbdd81a9c	-0.1055195
86	0xbc3e6e00	-0.011622906
87	0x3dc64bc5	0.09682421
88	0xbdbe01c7	-0.09277683
89	0x3e18dd06	0.14928064
90	0x3d86098e	0.06544791
91	0xba9b1872	-0.0011832847
92	0xbbbb8ef0	-0.0057238266
93	0xbd911673	-0.0708436
94	0x3e07f0a5	0.13275392
95	0x3d8ca760	0.06867862

Network_stack.1.0.gru.weight_ih_l0 f4 [96, 2]
0	0xbd83cec7	-0.06435924
1	0xbe04fcdb	-0.12987082
2	0xbe1f2a96	-0.15543589
3	0x3d50812b	0.050904434
4	0xbe1eb2a4	-0.15497833
5	0x3e0d6455	0.13807805
6	0xbb439a53	-0.0029846623
7	0x3dd20e56	0.102566406
8	0xbe0b5bc7	-0.13609229
9	0x3e2bafbb	0.16766255
10	0xbcf80a85	-0.030278454
11	0x3dc24ab3	0.09486904
12	0x3c364656	0.011125168
13	0xbe05141a	-0.1299595
14	0x3c9bb002	0.019004826
15	0xbe15853a	-0.14601603
16	0xbe17b4ff	-0.14815138
17	0x3d6fe5cd	0.058568764
18	0x3e097a26	0.13425502
19	0xbe1c7b4a	-0.15281406
20	0xbdf19690	-0.11796296
21	0x3c5f6391	0.013634578
22	0x3e0f2fc7	0.1398307
23	0x3d940985	0.07228378
24	0x3dc12b74	0.09432116
25	0x3da7d68c	0.081952184
26	0xbda43f9f	-0.08019947
27	0x3bdb9d24	0.006702082
28	0x3df3661b	0.118847094
29	0xbdca873f	-0.098890774
30	0xbca24977	-0.019810421
31	0xbdcf3438	-0.10117382
32	0x3e24346d	0.16035624
33	0x3e4e6363	0.201551
34	0xbdee9511	-0.11649526
35	0x3d0644b6	0.03278037
36	0x3cb025eb	0.021502456
37	0xbd12f6b3	-0.035879802
38	0xbe15dded	-0.14635439
39	0xbe1bd46e	-0.15217754
40	0xbe000b2f	-0.12504266
41	0x3dc00949	0.09376771
42	0x39be2d73	0.00036273486
43	0x3cf78f75	0.030219773
44	0xbe0111b2	-0.12604406
45	0xbdea0f44	-0.11428693
46	0x3e206d13	0.15666609
47	0x3e14bc47	0.14524947
48	0xbddf6eb6	-0.10909788
49	0x3e14c2b0	0.14527392
50	0xbd28dca1	-0.041226033
51	0x3d4c8cdf	0.049939033
52	0xbd17acdc	-0.037030086
53	0x3d3c3eb9	0.045958254
54	0x3d070b9b	0.032970052
55	0x3de64db5	0.1124529
56	0xbdab7105	-0.08371166
57	0x3e1edcd8	0.15513933
58	0xbdf57f4d	-0.11987171
59	0x3ce9531c	0.028482012
60	0xbc3fc2c8	-0.011704154
61	0xbda8cd57	-0.082422905
62	0xbe0d0224	-0.13770348
63	0x3e10a50b	0.14125459
64	0x3c6f6190	0.014610663
65	0x3c9155ef	0.017741172
66	0x3cbd7a80	0.023129702
67	0xbd08b13f	-0.03337216
68	0xbe2e86b0	-0.17043567
69	0x3d9b31b8	0.075778425
70	0x3e003368	0.1251961
71	0x3e3775cb	0.17916028
72	0x3dc53d79	0.096308656
73	0xbd2bb599	-0.041921232
74	0x3ded3897	0.11583059
75	0x3d0f9789	0.035056625
76	0xbd997f23	-0.074949525
77	0xbcaff6df	-0.021480022
78	0x3e1b2116	0.1514934
79	0xbe1ba1b1	-0.15198399
80	0x3d9f9622	0.077923074
81	0xbc87ae0c	-0.016562484
82	0xbdbd6d26	-0.09249334
83	0x3d9928b3	0.07478466
84	0xbaadec48	-0.001326927
85	0x3ddf86b0	0.109143615
86	0x3e062649	0.13100542
87	0x3e31149b	0.17293017
88	0x3da18d7f	0.07888316
89	0x3ded684b	0.11592158
90	0x3dccab89	0.09993655
91	0x3e2e48be	0.17019936
92	0x3d95d064	0.07315138
93	0xbe16812e	-0.14697716
94	0xbd4bb79d	-0.049735654
95	0x3dbb0d1f	0.09133362
96	0xbc0f2a3a	-0.008738095
97	0x3cafa78c	0.021442197
98	0xbd9a6488	-0.07538706
99	0x3dd25054	0.102692276
100	0xbe6283c1	-0.22120573
101	0xbdd3e12b	-0.10345682
102	0xbe43c3a2	-0.19117597
103	0xbe1eb5bc	-0.15499014
104	0x3ccd8066	0.02508564
105	0x3ddaf9e2	0.106921926
106	0xbdf92a1c	-0.12166235
107	0xbdc76864	-0.09736708
108	0x3c9e4dd2	0.019324217
109	0x3e060fc4	0.13091952
110	0xbe1375cc	-0.14400405
111	0xbd823e0c	-0.06359491
112	0x3d596a63	0.053079974
113	0xbe0076e2	-0.1254535
114	0xbd920ea9	-0.071317025
115	0xbd914c4f	-0.07094633
116	0xbd4b5e0d	-0.04965024
117	0xbd6ef11d	-0.058335412
118	0x3da862e3	0.08221986
119	0x3d61f49a	0.05516491
120	0x3e0d0513	0.13771467
121	0x3d8f8b09	0.07008941
122	0x3b558042	0.0032577668
123	0xbdae114e	-0.08499394
124	0x3d8cd8ea	0.068773106
125	0xbe0c4220	-0.136971
126	0x3d911f3a	0.07086034
127	0xbd2d6f54	-0.0423425
128	0xbdbc6004	-0.09198001
129	0xbcaad675	-0.020854214
130	0x3e18e279	0.14930142
131	0xbc4d70a6	-0.0125390645
132	0xbe30e871	-0.1727617
133	0x3caa7dce	0.020811941
134	0xbd409f0b	-0.047026675
135	0x3dcd003c	0.1000981
136	0xbd3c03f0	-0.045902193
137	0x3e147c14	0.14500457
138	0x3dabf416	0.08396165
139	0xbe1a3396	-0.15058741
140	0x3df32ce1	0.11873794
141	0x3c76f961	0.015074105
142	0x3e1f26d5	0.15542157
143	0x3d0b7201	0.03404427
144	0x3da5672a	0.080763176
145	0x3cf9fc2d	0.030515755
146	0x3d993ea0	0.07482648
147	0x3e34f965	0.17673261
148	0x3db258d8	0.08708352
149	0x3e20a33a	0.15687266
150	0xbe2dbde6	-0.16966972
151	0xbd893add	-0.067006804
152	0xbd053db2	-0.03252954
153	0xbddf8766	-0.10914497
154	0x3dcdf08e	0.10055648
155	0xbd13b870	-0.036064565
156	0x3de17c39	0.11010022
157	0x3dbf2433	0.09333076
158	0x3dbfba28	0.09361678
159	0xbcb958a2	-0.022625271
160	0x3d8295ec	0.063762516
161	0xbe19aeff	-0.15008162
162	0xbd9e6462	-0.0773399
163	0x3e35d0d6	0.17755446
164	0xbd960246	-0.073246524
165	0xbd608fd7	-0.054824676
166	0x3d86cd64	0.06582144
167	0xbb8b147a	-0.0042443844
168	0x3d834e1e	0.06411384
169	0x3d426561	0.047459964
170	0xbd27c914	-0.040963247
171	0x3e1025aa	0.14076868
172	0x3c6baf12	0.014385002
173	0xbce6cf99	-0.028175162
174	0xbd587f83	-0.05285598
175	0xbe198cae	-0.14995071
176	0xbdec43dc	-0.11536381
177	0xbd3f622a	-0.046724476
178	0xbe2df61a	-0.16988412
179	0xbb46b13e	-0.0030318047
180	0x3e328451	0.17433287
181	0xbdb82dae	-0.08993088
182	0xbc96012e	-0.01831111
183	0xbd89493f	-0.06703424
184	0xbd29b3d1	-0.041431252
185	0xbd8a3128	-0.06747657
186	0x3df6ac2d	0.12044559
187	0xbdfeae33	-0.124355696
188	0x3b8cc1a5	0.004295545
189	0x3dacaa68	0.0843094
190	0xbd81c495	-0.06336323
191	0xbe1d9fce	-0.15392992

Network_stack.1.0.gru.weight_hh_l0 f4 [96, 32]
0	0x3e0ce585	0.1375943
1	0x3de978cd	0.11399994
2	0x3dfe02df	0.12402891
3	0x3e077d5f	0.13231419
4	0x3e29a836	0.16568074
5	0x3e2925d7	0.16518341
6	0xbd046ec8	-0.03233221
7	0xbd9a8c97	-0.07546347
8	0xbe13e443	-0.14442544
9	0x3e30164c	0.17196006
10	0xbcb6e1fd	-0.022324556
11	0xba7b87af	-0.00095951086
12	0x3e10660e	0.14101431
13	0xbdfd0e33	-0.12356224
14	0x3d75b23a	0.059984423
15	0xbdd8a411	-0.10578168
16	0x3da7685a	0.081742
17	0xbdf24024	-0.1182864
18	0xbc56444e	-0.013077809
19	0x3e095971	0.13413025
20	0x3e2f1a69	0.17099918
21	0x3dbc5e6e	0.091976985
22	0xbdcf039e	-0.10108112
23	0xbcf9295c	-0.03041523
24	0xbdfa0a93	-0.12209048
25	0xbdba64cc	-0.09101257
26	0x3df88920	0.121355295
27	0xbd8a9f88	-0.067687094
28	0xbce35900	-0.0277524
29	0x3e07b523	0.13252692
30	0xbdec34a2	-0.115334764
31	0x3dc73183	0.097262405
32	0x3ba913ac	0.005159816
33	0x3c31d7db	0.010854687
34	0xbdcb9c42	-0.09941913
35	0x3be11cd6	0.0068698926
36	0x3e10b970	0.14133239
37	0xbc1ea5ce	-0.009683086
38	0x3d8acaaa	0.06776936
39	0xbdb6c334	-0.08923951
40	0xbc00acd2	-0.007853704
41	0xbe08c961	-0.1335807
42	0x3dc459ab	0.09587415
43	0xbd27f199	-0.04100189
44	0xbde70b81	-0.11281491
45	0x3e08bb6a	0.13352743
46	0x3e1e06ab	0.15432231
47	0xbe2b56fe	-0.16732404
48	0xbe00387b	-0.12521546
49	0xbd97d5b4	-0.074138075
50	0xbd73066f	-0.059332307
51	0x3dedd7c1	0.116134174
52	0xbe056da9	-0.13030113
53	0x3e237f8b	0.15966623
54	0x3d7bdab2	0.06148786
55	0xbdf4260e	-0.11921321
56	0x3dc01258	0.09378499
57	0xbe1ea1dc	-0.15491432
58	0x3c424c24	0.011858974
59	0x3d2d2916	0.04227551
60	0x3be896b1	0.007098042
61	0xbdd0f7d3	-0.10203519
62	0xbdf252dd	-0.11832211
63	0x3dac01d2	0.08398785
64	0xbdbe64bc	-0.09296557
65	0x3e24e3a4	0.16102463
66	0x3dbc97e1	0.09208656
67	0xbe1a036d	-0.1504037
68	0x3e0f3098	0.13983381
69	0x3c163a33	0.009169149
70	0x3d4269c9	0.047464166
71	0xbdd8e5c1	-0.10590697
72	0x3e058a00	0.13040924
73	0xbdaabe81	-0.08337117
74	0xbcb0b915	-0.021572629
75	0xbd5ed19f	-0.05439913
76	0xbe007de7	-0.12548028
77	0x3e209cd8	0.15684831
78	0x3cb316b1	0.021861406
79	0xbde845a7	-0.1134141
80	0xbb5dc44b	-0.0033838924
81	0xbdc6b2fa	-0.09702106
82	0xbe3e29fe	-0.18570706
83	0x3e17b55e	0.1481528
84	0xbe2151f0	-0.15753913
85	0xbd705095	-0.0586706
86	0x3da59c86	0.08086495
87	0xbd5a526c	-0.05330126
88	0x3e1f5cf6	0.15562806
89	0x3d963f91	0.07336343
90	0x3b9f5bcf	0.0048632394
91	0x3ddc24c2	0.107491985
92	0x3cafe258	0.021470234
93	0xbd8b991c	-0.06816313
94	0x3d455e73	0.048185777
95	0x3d2ef088	0.042709857
96	0xbd29914a	-0.041398324
97	0x3e0bbe3c	0.13646787
98	0xbe36560c	-0.17806262
99	0x3d51279f	0.051063176
100	0x3b4b04c6	0.0030978187
101	0xbde958fa	-0.11393924
102	0x3e16b0c8	0.14715874
103	0xbce2f215	-0.027703324
104	0xbc18b26c	-0.009319883
105	0x3d4f51b6	0.050615035
106	0x3dee2026	0.116272256
107	0x3da11a50	0.07866347
108	0x3be97305	0.007124307
109	0x3df63e2f	0.12023579
110	0x3d270d2b	0.040784042
111	0x3d622a59	0.055216167
112	0xbd9b9994	-0.07597652
113	0x3d8cde18	0.068782985
114	0x3dc838be	0.09776448
115	0xbd329c86	-0.043606304
116	0x3caca627	0.021075321
117	0xbe31c012	-0.17358425
118	0xbd80b520	-0.06284547
119	0x3e1ba7af	0.15200685
120	0xbe0e4e1d	-0.13896985
121	0x3d57890a	0.052620925
122	0xbe277ee5	-0.16357
123	0x3d896607	0.06708913
124	0xbdbc867f	-0.092053406
125	0xbdf538f0	-0.119737506
126	0xbe1ffe38	-0.1562432
127	0xbd95dc94	-0.073174626
128	0x3d9e7379	0.077368684
129	0xb9e5b81b	-0.00043815453
130	0xbdf541ab	-0.11975416
131	0x3dfacf66	0.12246589
132	0xbdf6c93c	-0.12050101
133	0x3d076f40	0.03306508
134	0xbd7f696b	-0.062356394
135	0x3e22140b	0.15827958
136	0x3e301a8b	0.17197625
137	0xba7cc71c	-0.0009642707
138	0xbd25f909	-0.0405207
139	0x3cbe6a41	0.023244025
140	0xbdcc6f06	-0.099821135
141	0xbe24c9e0	-0.16092634
142	0x3e005abc	0.12534612
143	0xbe2835e8	-0.16426814
144	0x3c839498	0.016062066
145	0xbdb19c97	-0.08672445
146	0xbe04f82c	-0.12985295
147	0x3e290927	0.16507398
148	0x3d51e43a	0.051243044
149	0x3e137acd	0.14402314
150	0xbd1742d9	-0.036928985
151	0xbcaf14aa	-0.021372158
152	0xbd3e6170	-0.046479642
153	0x3df7a8ef	0.120927684
154	0x3cf06cbe	0.029348727
155	0xbcdcf50c	-0.026972316
156	0x3e16bb74	0.14719945
157	0x3b3f9be1	0.0029237198
158	0x3d2328f3	0.039833974
159	0x3e26861a	0.16262093
160	0x3c8613cc	0.016366862
161	0xbd2c6449	-0.042087827
162	0x3e005bd4	0.1253503
163	0xbd4c303d	-0.04985069
164	0x3db3cfc6	0.08779864
165	0x3d4f7a2b	0.050653618
166	0xbca96faf	-0.020683138
167	0xbe04c897	-0.12967144
168	0xbdb6071c	-0.08888075
169	0x3d528e1a	0.05140505
170	0xbdba6c88	-0.09102732
171	0x3dbacbab	0.09120878
172	0xbddaabba	-0.106772855
173	0xbda44e35	-0.08022729
174	0x3d3b2688	0.045691043
175	0x3df5e366	0.120062634
176	0xbcf39d2e	-0.029738035
177	0xbc686e41	-0.014186443
178	0x3d055f34	0.032561496
179	0x3dbcf378	0.092261255
180	0x3da18e32	0.0788845
181	0x3e15eee5	0.14641912
182	0x3ad74341	0.0016423241
183	0x3d61308b	0.054977935
184	0x3dd663a4	0.10468224
185	0x3ddf639c	0.10907671
186	0xbdfaa9d5	-0.12239424
187	0x3e270224	0.1630941
188	0xbe2b8e31	-0.1675346
189	0xbd4846a8	-0.048895508
190	0x3de4ddd0	0.1117512
191	0xbda6cb57	-0.08144253
192	0x3da96bee	0.08272539
193	0xbcd5bc31	-0.026090713
194	0x3e314d74	0.17314702
195	0xbd85774f	-0.06516897
196	0xbe18549d	-0.14876027
197	0xbe1b8f94	-0.1519149
198	0xbc758794	-0.014985938
199	0xbdc86b0f	-0.09786045
200	0xbdd11a53	-0.10210099
201	0x3d71efd4	0.05906661
202	0x3e3b55e5	0.18294485
203	0x3e0e734b	0.13911168
204	0x3e3e4c6e	0.18583843
205	0x3bf83b9b	0.007575465
206	0x3e2129b2	0.15738562
207	0xbdd83ca8	-0.10558444
208	0x3d8559fc	0.06511304
209	0x3c991d36	0.018690687
210	0x3e4746b9	0.19460572
211	0xbe177cfe	-0.14793774
212	0x3d3aa281	0.045565132
213	0xbdb9b1cd	-0.09067116
214	0x3da2ae3e	0.0794339
215	0xbc595e4d	-0.013267112
216	0xbd89b17b	-0.06723305
217	0x3e2623ee	0.16224644
218	0xbddbaa68	-0.10725862
219	0x3d9d7b82	0.07689573
220	0x3db5ad38	0.088709295
221	0xbd815c89	-0.06316478
222	0xbdb958dd	-0.090501525
223	0x3c33734f	0.010952785
224	0xbcb83611	-0.022486718
225	0x3da3c9e8	0.07997495
226	0x3e17dbb6	0.14829907
227	0xbd203c79	-0.03912017
228	0xbe2cd70d	-0.1687891
229	0xbd72b03d	-0.059250105
230	0xbddafc39	-0.10692639
231	0xbc5b7ef3	-0.013396966
232	0xbded64f0	-0.11591518
233	0xbe164e33	-0.14678268
234	0xbdd240ee	-0.102662906
235	0x3d5803f2	0.052738138
236	0x3d5e1cd8	0.054226726
237	0xbe20d594	-0.15706474
238	0xbe238c5e	-0.15971515
239	0x3dccde70	0.10003364
240	0xbe1430d6	-0.14471754
241	0x3daab052	0.08334412
242	0x3e164f62	0.1467872
243	0xbd70f6e0	-0.05882919
244	0xbde6e618	-0.11274356
245	0x3d15cbb9	0.03657124
246	0xbded5fab	-0.11590513
247	0x3d2af84c	0.0417407
248	0xbd839af3	-0.064260386
249	0xbdd8948b	-0.10575207
250	0x3d0b353d	0.03398632
251	0x3e32f23e	0.1747522
252	0x3d31d972	0.043420263
253	0xbe18db3f	-0.14927386
254	0xbe2f2a6f	-0.17106031
255	0xbe280b92	-0.16410664

Network_stack.1.0.gru.bias_ih_l0 f4 [96]
0	0x3cbd8daa	0.02313884
1	0x3d1b6bcd	0.037944604
2	0xbda5fc0f	-0.08104717
3	0x3e300784	0.17190367
4	0xbd153a0e	-0.03643232
5	0xbe038613	-0.12844114
6	0xbdb7ad26	-0.08968572
7	0x3e222567	0.1583458
8	0x3d2f0b54	0.042735413
9	0xbdf10dc5	-0.117702045
10	0x3db3e891	0.08784593
11	0x3dabb398	0.08383864
12	0x3dd1d3ef	0.10245501
13	0x3da4714e	0.08029424
14	0x3db4ca06	0.088275954
15	0xbe1b8538	-0.15187538
16	0xbdf3b49a	-0.118996814
17	0x3dab9330	0.08377683
18	0xbddfc19b	-0.10925599
19	0x3dad6488	0.084664404
20	0xbd881c2f	-0.066460006
21	0x3d1f4fbb	0.038894396
22	0x3e10f8c3	0.14157395
23	0x39c86d5d	0.00038228455
24	0x3e301f66	0.17199478
25	0x3e26df83	0.162962
26	0xbe3f9aa9	-0.18711342
27	0x3e27b9a8	0.16379416
28	0xbe0697a2	-0.13143781
29	0x3e32ad4e	0.17448923
30	0x3e077529	0.13228287
31	0x3e0ed268	0.13947451
32	0xbe0bab95	-0.13639672
33	0xbd431fdc	-0.047637805
34	0xbde11844	-0.109909564
35	0x3da6e7df	0.08149695
36	0x3d92d8c5	0.07170252
37	0x3ddcd882	0.10783483
38	0x3c462ca6	0.012095606
39	0xbdb045f7	-0.08607095
40	0xbe3d00ef	-0.18457387
41	0x3d254dec	0.040357515
42	0x3db32289	0.087468214
43	0xbe403645	-0.18770702
44	0x3cd9fc53	0.026609575
45	0xbcad11d6	-0.021126669
46	0x3e44bb7b	0.19212143
47	0x3aa1a06a	0.0012331132
48	0x3df79f39	0.12090916
49	0x3dcb3d98	0.099238575
50	0xbe842afe	-0.2581405
51	0xbd01ad56	-0.031659447
52	0x3e30868b	0.17238824
53	0xbc337778	-0.010953777
54	0xbdfecefc	-0.12441823
55	0x3d15ad95	0.036542494
56	0xbe985060	-0.2974882
57	0xbd045cdc	-0.03231512
58	0xbd9669dd	-0.073444106
59	0x3dd04f34	0.10171357
60	0xbcfbb114	-0.030724086
61	0xbd8ec772	-0.06971635
62	0xbceaa0f5	-0.028641203
63	0xbc4f262d	-0.012643379
64	0xbc06f9a4	-0.00823823
65	0x3d9a0c2d	0.075218536
66	0xbd063ff7	-0.032775845
67	0xbd3b3a2a	-0.045709766
68	0x3d8b2918	0.067949474
69	0x3cc30b40	0.023809075
70	0xbdc452a4	-0.09586075
71	0x3e1980c2	0.14990523
72	0xbe0e0b5d	-0.13871522
73	0x3d999090	0.07498276
74	0x3e04e05c	0.12976211
75	0x3d1441a9	0.03619543
76	0x3e12eef5	0.14348967
77	0xbd9f7593	-0.077860974
78	0x3dc0997a	0.09404273
79	0x3de3560e	0.11100398
80	0xbc7a4dfd	-0.015277383
81	0xbd33b84e	-0.04387694
82	0x3e107e78	0.14110744
83	0xbd940b94	-0.07228771
84	0x3d98b744	0.0745683
85	0x3d4c54ab	0.049885433
86	0xbd3a99e0	-0.045556903
87	0x3d9e6156	0.07733409
88	0x3e1e276a	0.15444723
89	0x3e043710	0.1291163
90	0xbe193b34	-0.1496399
91	0xbddfaf8b	-0.10922154
92	0x3e2af960	0.16696692
93	0x3c9e6124	0.01933343
94	0x3e2c6347	0.16834746
95	0xbd8b378b	-0.06797703
