models/model_uniform_region_0-0.3.0.6-0.9_multiple_Agents88cd5645.pth (torch, 87266 bytes, 18 tensors)

Network_stack.0.0.gru.weight_ih_l0 f4 [96, 2]
0.13736789 -0.024276627 0.08959019 0.042763464 -0.048544317 0.059469897 0.04714334 0.13568857
0.08325687 -0.16414613 0.06044013 0.11029583 -0.13706 0.0075923456 -0.023016956 -0.077528276
0.1105489 0.15498981 -0.057431754 0.13254276 -0.028142111 0.066949196 0.14626674 -0.06905786
-0.07500903 0.12401316 -0.10125683 0.1181064 -0.1345856 -0.11060422 0.08878454 0.120635636
0.012534197 0.07465651 0.10626066 -0.093678035 -0.13071059 -0.07228272 0.07471594 0.06690948
0.17915092 -0.06444791 -0.0865447 0.16829887 0.08149617 -0.17788781 0.082118176 -0.09900036
-0.10535982 -0.0317349 -0.09066358 0.04967988 0.043635845 -0.096201085 0.048726458 0.14055048
0.091500565 -0.07742627 -0.14112255 -0.1424179 0.06784297 0.031755023 -0.07841788 -0.064318225
0.06907638 0.103296146 -0.15125822 0.0569325 -0.14195219 -0.038260818 -0.117841564 -0.061358824
-0.14723594 0.05557788 0.021576416 -0.009631799 0.17067121 -0.08081691 -0.17567532 -0.012430872
0.119339325 -0.20102417 -0.026758412 0.013866359 -0.3141105 -0.084841035 -0.11484295 -0.07107065
-0.15457653 -0.14898981 -0.104133226 -0.16295229 0.13476944 -0.18161635 -0.014049356 -0.2693915
-0.2036849 0.05403804 -0.35227638 0.06283819 -0.029772572 -0.16582562 -0.038297266 -0.15611038
-0.15656282 0.14042516 0.19121279 0.13346092 -0.22228836 -0.045573473 -0.10469249 0.04874891
-0.10902017 -0.18576261 -0.24904954 -0.1851929 0.07826773 -0.09648133 0.025449973 0.051652618
-0.15797281 -0.15185669 0.09996338 -0.08409067 -0.1053747 -0.08195581 0.036572702 -0.17231242
0.0064663454 0.10764473 0.17714724 -0.09945274 -0.14174291 0.10528861 -0.10615431 0.0600332
0.11017127 0.015912352 -0.08807864 -0.15205407 0.13302217 0.034364447 -0.111179255 0.1449654
0.17393729 -0.03141399 0.094312586 -0.061270803 -0.13362241 -0.020803489 0.08577143 -0.1404881
-0.16516626 0.05682911 0.011235087 0.12230966 0.10813921 -0.060863897 0.06735199 0.07983489
-0.041510895 0.02173247 0.028552888 -0.08428851 -0.1381006 -0.028934944 -0.0135647 0.03547917
0.12886934 -0.14493051 -0.018633448 -0.109159596 -0.09059304 0.036632843 -0.053041924 0.15513697
-0.010424466 -0.13763483 0.1269773 0.0035419462 0.056439206 0.14760748 0.05602779 0.04948471
0.04054619 -0.10697147 0.023357792 -0.12760009 0.005656968 0.044164248 0.03710766 -0.10063163
00000000: 2baa 0c3e c7df c6bc 107b b73d be28 2f3d
00000010: 68d6 46bd b596 733d 6019 413d f2f1 0a3e
00000020: 9482 aa3d ec15 28be 1290 773d c8e2 e13d
00000030: 7559 0cbe 36c9 f83b 0e8e bcbc 25c7 9ebd
00000040: 7667 e23d a6b5 1e3e 8f3d 6bbd 4ab9 073e
00000050: 498a e6bc a91c 893d f3c6 153e 356e 8dbd
00000060: 569e 99bd 9dfa fd3d be5f cfbd c5e1 f13d
00000070: cfd0 09be 7784 e2bd abd4 b53d d10f f73d
00000080: 3c5c 4d3c 83e5 983d 309f d93d 45da bfbd
00000090: ffd8 05be f608 94bd ac04 993d d607 893d
000000a0: 5773 373e 44fd 83bd 593e b1bd 8a56 2c3e
000000b0: 77e7 a63d 3928 36be 932d a83d b3c0 cabd
000000c0: e4c6 d7bd 74fc 01bd d4ad b9bd 217d 4b3d
000000d0: 80bb 323d 1305 c5bd 6595 473d 77ec 0f3e
000000e0: a664 bb3d aa91 9ebd 6e82 10be ffd5 11be
000000f0: 41f1 8a3d 8e11 023d 8e99 a0bd 46b9 83bd
00000100: eb77 8d3d ee8c d33d 6fe3 1abe 0e32 693d
00000110: ea5b 11be 60b7 1cbd eb56 f1bd 6453 7bbd
00000120: 05c5 16be a2a5 633d 06c1 b03c b1ce 1dbc
00000130: 6fc4 2e3e 5683 a5bd 3be4 33be dbaa 4bbc
00000140: 2d68 f43d 48d9 4dbe 7534 dbbc ba2f 633c
00000150: 17d3 a0be 23c1 adbd c832 ebbd 7d8d 91bd
00000160: 4f49 1ebe c990 18be cd43 d5bd f7dc 26be
00000170: 0001 0a3e a3f9 39be 452f 66bc afed 89be
00000180: c692 50be fe56 5d3d 925d b4be 4fb1 803d
00000190: 9ce5 f3bc 31ce 29be 98dd 1cbd 66db 1fbe
000001a0: 0152 20be 9dcb 0f3e 49cd 433e fba9 083e
000001b0: 8f9f 63be 40ab 3abd 0469 d6bd f0ac 473d
000001c0: f845 dfbd 8e38 3ebe d806 7fbe 35a3 3dbe
000001d0: d54a a03d 0198 c5bd 767c d03c b291 533d
000001e0: a0c3 21be 5280 1bbe 9ab9 cc3d bb37 acbd
000001f0: b1ce d7bd 73d8 a7bd 42cd 153d ab72 30be
00000200: a3e3 d33b d774 dc3d 1666 353e e1ad cbbd
00000210: 0e25 11be 8ea1 d73d 6e67 d9bd 5fe5 753d
00000220: 7aa1 e13d 9f5a 823c 9362 b4bd 10b4 1bbe
00000230: f736 083e bcc1 0c3d f3b1 e3bd cf71 143e
00000240: 9e1c 323e f5ab 00bd f526 c13d 18f7 7abd
00000250: 50d4 08be 146c aabc eea8 af3d 1ddc 0fbe
00000260: 5821 29be a4c5 683d 5f13 383c 7d7d fa3d
00000270: 1778 dd3d 6c4c 79bd d7ef 893d 7a80 a33d
00000280: 5407 2abd 4b08 b23c bfe7 e93c 749f acbd
00000290: 3e6a 0dbe fa08 edbc 7a3e 5ebc 9b52 113d
000002a0: 53f6 033e aa68 14be 2ca5 98bc 118f dfbd
000002b0: d888 b9bd 520c 163d 7d42 59bd 3adc 1e3e
000002c0: 61cb 2abc 25f0 0cbe 5606 023e ff1f 683b
000002d0: cc2c 673d 6a26 173e 657d 653d 7bb0 4a3d
000002e0: c313 263d dc13 dbbd d758 bf3c 99a9 02be
000002f0: 165e b93b 92e5 343d 34fe 173d f517 cebd

Network_stack.0.0.gru.weight_hh_l0 f4 [96, 32]
0.1761692 -0.09556448 -0.09346707 -0.009186392 -0.12834103 0.009617264 0.096426755 -0.15883096
-0.056116268 0.16592626 -0.048269153 0.11586637 -0.07700927 0.13581091 0.0784166 0.060477845
-0.015132224 -0.1025006 -0.08036923 0.1392501 -0.12712897 0.17383899 0.095800415 0.04102432
-0.08043072 -0.14765286 0.081172675 -0.075491026 -0.0006155655 0.15304351 0.12631047 0.003219255
0.120721884 0.030260907 0.048847325 0.061908945 -0.17189005 -0.027988773 0.15011275 0.16265264
-0.17589892 -0.1215218 -0.167638 -0.15925631 0.02098727 -0.1469381 -0.06542782 -0.0756596
-0.12617306 -0.14864798 0.059873153 0.053201694 -0.18185475 -0.08886069 0.10280093 -0.06332698
0.061411 0.06437111 -0.10035722 -0.05938474 -0.010411031 -0.1548148 0.078831986 0.10730836
-0.15539531 -0.11544962 0.05166984 -0.12790143 0.15564328 -0.011330161 -0.035548482 -0.025124295
0.03991071 0.019975275 -0.053422444 0.09191125 0.1739693 0.08257855 0.006687272 0.11495929
0.06744213 -0.11401331 0.0817751 0.033700924 -0.13272227 -0.12115526 -0.11324114 0.1376818
0.06395376 -0.1513978 -0.025164321 0.02040083 -0.1634395 -0.1294157 -0.12153545 -0.0017414353
-0.032899246 0.16325289 0.093222305 0.013578668 -0.14988281 -0.1519344 -0.09568382 2.4276123e-05
9.357542e-06 0.15304856 -0.12288653 0.024509983 0.022206156 -0.11584742 -0.026645033 -0.17983869
-0.13895863 0.14117293 0.15432824 -0.07480939 0.13912052 0.060791984 0.029103845 0.105502255
-0.09976342 0.13020325 -0.15195774 0.004695955 0.14927158 -0.01389116 0.04424018 -0.078380615
0.08843093 -0.031365085 0.011448344 -0.16179691 -0.05114959 0.121410266 0.04818719 -0.11235292
-0.012960289 -0.1638028 -0.048580546 0.019397462 0.056723505 0.04453573 0.06769179 -0.18677852
-0.058510482 -0.023102399 0.1161863 -0.14326319 0.15918416 0.0875804 -0.08930772 -0.011628111
0.010300173 0.1356745 -0.15094538 -0.12648633 -0.066130325 -0.13696596 0.031740714 0.14984456
0.003981195 -0.14838763 -0.035786416 -0.014580737 -0.0991861 -0.05693396 -0.09470343 -0.11860034
0.05468138 -0.1399041 -0.12600309 -0.019128079 0.09744952 -0.07413624 0.025332285 -0.076253414
0.09563499 0.06795563 0.079923525 0.12061257 -0.04708111 -0.0008701889 0.13120924 -0.0324492
0.10535627 -0.071172595 -0.051357824 0.07746276 -0.12185348 0.09581902 0.02002467 -0.04383959
0.110340945 -0.058228474 0.117268324 0.017709749 0.17687108 0.03101881 -0.08178836 -0.105361566
-0.14697976 0.16230284 -0.062386654 0.14912595 0.06567433 0.13773327 -0.12970492 0.1472565
0.04526607 0.16766754 -0.13003325 -0.054704234 0.03261517 -0.09776406 0.0634123 0.119017705
-0.04058159 0.07477338 -0.17170544 -0.11514685 0.018611562 0.17966872 0.12375468 0.0024359222
0.03690289 0.07661433 0.15318362 -0.11750065 0.03548921 0.07578576 0.00043860945 -0.095884286
0.1715412 0.088350296 0.09472982 -0.110034205 -0.17934757 0.16678756 0.03278866 0.1336452
0.058911905 -0.10643057 0.017172398 -0.023367476 -0.13286565 -0.1704202 -0.17162599 -0.02786543
0.053907346 -0.049656946 -0.084483236 -0.014051944 0.013720488 0.0052849376 0.066399045 -0.060106892
00000000: b365 343e 4fb7 c3bd aa6b bfbd 8582 16bc
00000010: d56b 03be bb91 1d3c 647b c53d 95a4 22be
00000020: 2cda 65bd 93e8 293e e0b5 45bd 594b ed3d
00000030: 09b7 9dbd 0412 0b3e e298 a03d 9eb7 773d
00000040: 26ed 77bc d6eb d1bd 9f98 a4bd 9497 0e3e
00000050: 192e 02be d902 323e 0233 c43d 1e09 283d
00000060: dcb8 a4bd 5032 17be dc3d a63d 0a9b 9abd
00000070: e75d 21ba 70b7 1c3e 8857 013e 23fa 523b
00000080: 093d f73d b9e5 f73c 2214 483d 3c94 7d3d
00000090: f203 30be b648 e5bc 28b7 193e 6a8e 263e
000000a0: d91e 34be 6ce0 f8bd 4ca9 2bbe 1614 23be
000000b0: 7fed ab3c f176 16be 05ff 85bd 6cf3 9abd
000000c0: 8333 01be 2d37 18be 8d3d 753d 05ea 593d
000000d0: 2238 3abe 98fc b5bd 4b89 d23d 93b1 81bd
000000e0: 1a8a 7b3d 00d5 833d 1688 cdbd 6a3d 73bd
000000f0: 0793 2abc c587 1ebe aa72 a13d 7cc4 db3d
00000100: f31f 1fbe da70 ecbd c1a3 533d 98f8 02be
00000110: f460 1f3e 24a2 39bc 499b 11bd 77d1 cdbc
00000120: 6a79 233d 30a3 a33c 7ed1 5abd f73b bc3d
00000130: 0225 323e f11e a93d e720 db3b c76f eb3d
00000140: 191f 8a3d cf7f e9bd b479 a73d fb09 0a3d
00000150: 59e8 07be 4020 f8bd f9ea e7bd 75fc 0c3e
00000160: 30fa 823d 0608 1bbe 6825 cebc a41f a73c
00000170: af5c 27be 8d85 04be 94e7 f8bd df40 e4ba
00000180: 5cc1 06bd c42b 273e 56eb be3d 1079 5e3c
00000190: e17a 19be b194 1bbe e1f5 c3bd 94a4 cb37
000001a0: 56fe 1c37 c3b8 1c3e efab fbbd 29c9 c83c
000001b0: afe9 b53c 6a41 edbd af46 dabc a227 38be
000001c0: 2c4b 0ebe a38f 103e 3908 1e3e aa35 99bd
000001d0: 9c75 0e3e 0401 793d 306b ee3c 9111 d83d
000001e0: c450 ccbd 0054 053e cf9a 1bbe 87e0 993b
000001f0: a6da 183e bf97 63bc 3135 353d 0486 a0bd
00000200: 471b b53d ad78 00bd d691 3b3c 17ae 25be
00000210: 3c82 51bd f2a5 f83d ee5f 453d 4a19 e6bd
00000220: 6457 54bc ecbb 27be 65fc 46bd 6de7 9e3c
00000230: e856 683d 196b 363d fea1 8a3d de42 3fbe
00000240: b0a8 6fbd 3e41 bdbc 15f3 ed3d 96b3 12be
00000250: 2c01 233e 5a5d b33d f7e6 b6bd d583 3ebc
00000260: 0fc2 283c 42ee 0a3e 6d91 1abe a285 01be
00000270: 566f 87bd ce40 0cbe 8d02 023d da70 193e
00000280: af74 823b edf2 17be c794 12bd 0be4 6ebc
00000290: 1522 cbbd 9633 69bd dff3 c1bd bce4 f2bd
000002a0: 95f9 5f3d 0543 0fbe f406 01be 7db2 9cbc
000002b0: 9d93 c73d bed4 97bd a785 cf3c c02a 9cbd
000002c0: 47dc c33d 522c 8b3d f2ae a33d b903 f73d
000002d0: 1fd8 40bd 631d 64ba b75b 063e 74e9 04bd
000002e0: 07c5 d73d f0c2 91bd 955c 52bd cca4 9e3d
000002f0: 518e f9bd c33c c43d c70a a43c 2491 33bd
00000300: 6ffa e13d fb80 6ebd 602a f03d 0914 913c
00000310: b11d 353e 291b fe3c a880 a7bd cec7 d7bd
00000320: dd81 16be b732 263e 2689 7fbd 79b4 183e
00000330: 4380 863d f309 0d3e 5ed1 04be 68ca 163e
00000340: ea68 393d 0ab1 2b3e 7027 05be 8c11 60bd
00000350: 7c97 053d 8638 c8bd 4fde 813d 8ebf f33d
00000360: e238 26bd c922 993d 8dd3 2fbe 1dd2 ebbd
00000370: 4677 983c 14fb 373e 1873 fd3d fea3 1f3b
00000380: 7c27 173d f9e7 9c3d 2bdc 1c3e 2ea4 f0bd
00000390: 225d 113d 9135 9b3d 2af5 e539 fb5e c4bd
000003a0: 7fa8 2f3e 00f1 b43d b501 c23d 9d59 e1bd
000003b0: e4a6 37be 5cca 2a3e 674d 063d 4ada 083e
000003c0: 9c4d 713d 45f8 d9bd 21ad 8c3c 266d bfbc
000003d0: ef0d 08be a282 2ebe b9be 2fbe 0b46 e4bc
000003e0: f3cd 5c3d 1565 4bbd 8c05 adbd 203a 66bc
000003f0: e6cb 603c 452d ad3b 39fc 873d a532 76bd

Network_stack.0.0.gru.bias_ih_l0 f4 [96]
0.012480041 -0.12873709 -0.053143773 -0.016832111 0.023079738 -0.040722463 -0.12537524 0.082008906
0.1584768 -0.041931204 0.070770666 0.015363658 -0.15354727 0.16353644 -0.15548693 -0.15219274
-0.10149416 -0.03949367 -0.11057244 -0.027850097 -0.06733119 0.09223956 -0.12871924 -0.03079757
0.15434957 -0.049681537 0.042479243 0.14207998 -0.07459975 -0.06316597 -0.03942738 -0.045024466
-0.015003047 -0.114650525 -0.21002103 -0.07019217 -0.09772606 0.168792 -0.00044959085 0.09401009
-0.0657835 0.12309632 -0.33607578 -0.023496788 -0.13439412 0.092470154 0.020320214 -0.1925262
-0.21654996 -0.19675414 -0.09072477 0.111643314 -0.055087645 0.065404356 0.005867091 -0.048235968
-0.06490287 -0.053660925 -0.048082568 0.02797091 0.020513404 0.090541855 0.10576773 -0.037902076
-0.16820855 0.017896505 -0.07534719 -0.085594244 0.16106556 -0.08872099 -0.07339383 0.00796783
-0.07076218 0.15397282 -0.101817906 0.061622825 0.029636217 0.021434348 -0.0256544 0.11862278
-0.14763564 -0.022272324 0.0646377 0.08539241 0.13047493 -0.0031530787 -0.08890712 -0.10560659
-0.11854269 0.014221957 -0.04009739 -0.001926771 -0.016959986 0.12530297 0.18074334 0.10707668
00000000: 1679 4c3c a8d3 03be 49ad 59bd 7fe3 89bc
00000010: b811 bd3c 99cc 26bd 5e62 00be 49f4 a73d
00000020: be47 223e 0ec0 2bbd 36f0 903d dab7 7b3c
00000030: 7f3b 1dbe 1976 273e f737 1fbe 6ad8 1bbe
00000040: 2cdc cfbd 1dc4 21bd ce73 e2bd e325 e4bc
00000050: efe4 89bd 18e8 bc3d face 03be 2f4b fcbc
00000060: d00d 1e3e de7e 4bbd b7fe 2d3d 6a7d 113e
00000070: c1c7 98bd 295d 81bd 9b7e 21bd 936b 38bd
00000080: 57cf 75bc e5cd eabd c10f 57be eac0 8fbd
00000090: 9a24 c8bd cfd7 2c3e 10b7 ebb9 5d88 c03d
000000a0: 80b9 86bd ec19 fc3d 2012 acbe 567c c0bc
000000b0: 9d9e 09be fe60 bd3d 9476 a63c 9725 45be
000000c0: 46bf 5dbe eb79 49be e9cd b9bd 40a5 e43d
000000d0: 95a3 61bd b8f2 853d ba40 c03b 1493 45bd
000000e0: cceb 84bd 8fcb 5bbd 3af2 44bd 4023 e53c
000000f0: ba0b a83c 026e b93d c09c d83d 353f 1bbd
00000100: dd3e 2cbe b19b 923c a14f 9abd 094c afbd
00000110: 5fee 243e 5ab3 b5bd 814f 96bd 808b 023c
00000120: c3eb 90bd 0dab 1d3e e885 d0bd 3768 7c3d
00000130: a7c7 f23c 1697 af3c 2d29 d2bc 80f0 f23d
00000140: cc2d 17be 7374 b6bc c560 843d 37e2 ae3d
00000150: 389b 053e e2a3 4ebb f014 b6bd 4548 d8bd
00000160: 83c6 f2bd 3603 693c 293d 24bd b58b fcba
00000170: abef 8abc 6c4f 003e c814 393e 054b db3d

Network_stack.0.0.gru.bias_hh_l0 f4 [96]
-0.03233129 -0.1683957 -0.17294069 -0.025045672 0.083975926 -0.15128437 0.12349011 -0.06475395
0.05663636 0.137194 0.017779091 0.16773428 0.05377895 0.027376974 0.14012913 0.018134147
0.13006996 -0.08489525 -0.08584352 0.03270565 -0.0831171 -0.14842294 -0.14243558 -0.13236415
-0.12920058 -0.17063698 -0.1717899 -0.13972436 -0.044400375 0.06584679 0.115330815 0.13934402
0.089004286 0.057427116 0.007303333 -0.07868771 0.10714947 -0.06859169 0.13413285 -0.18225135
-0.1380628 0.105329484 -0.33062735 0.076733045 0.07974949 -0.16530286 -0.16145688 -0.18198021
-0.1098319 -0.20780654 0.10069723 -0.11854467 -0.14527605 -0.069038056 -0.15830588 0.11109186
0.003325292 -0.19244015 -0.0816303 -0.124670886 0.05375293 -0.043348793 -0.1439755 0.07897377
-0.11205588 -0.035812017 0.106282875 0.14972961 0.13466127 -0.02264625 -0.06825199 -0.054929905
0.101863146 0.10766579 -0.107680045 -0.14309359 0.024964081 -0.16390765 -0.016002115 0.0130185215
-0.13356057 -0.18320589 -0.013878579 0.048715066 -0.17656489 -0.067868754 -0.09539002 -0.077522635
0.16534513 0.096070364 -0.050536048 -0.09951965 0.10542299 -0.0009823288 0.08658963 -0.104610585
00000000: d16d 04bd ec6f 2cbe 5d17 31be 952c cdbc
00000010: 92fb ab3d 4aea 1abe 62e8 fc3d b89d 84bd
00000020: 87fb 673d 957c 0c3e 75a5 913c 89c2 2b3e
00000030: 5147 5c3d ad45 e03c 037e 0f3e 108e 943c
00000040: 0f31 053e 90dd adbd bace afbd 5cf6 053d
00000050: 4c39 aabd 2ffc 17be a2da 11be 788a 07be
00000060: 284d 04be 76bb 2ebe b1e9 2fbe e713 0fbe
00000070: 2bdd 35bd afda 863d 9032 ec3d 33b0 0e3e
00000080: e147 b63d b238 6b3d cc50 ef3b 0627 a1bd
00000090: 2e71 db3d cd79 8cbd 1f5a 093e 19a0 3abe
000000a0: 5660 0dbe fcb6 d73d fd47 a9be 3726 9d3d
000000b0: b353 a33d 2745 29be f454 25be 0559 3abe
000000c0: 8cef e0bd 3dcb 54be 593a ce3d 8cc7 f2bd
000000d0: 3fc3 14be d363 8dbd f01a 22be 2184 e33d
000000e0: 24ed 593b 080f 45be c92d a7bd 7353 ffbd
000000f0: 082c 5c3d 818e 31bd 506e 13be 00bd a13d
00000100: 8e7d e5bd 9faf 12bd d6aa d93d b852 193e
00000110: a5e4 093e a184 b9bc b3c7 8bbd 2efe 60bd
00000120: a09d d03d e27f dc3d 5b87 dcbd 2087 12be
00000130: 7981 cc3c 68d7 27be de16 83bc a34b 553c
00000140: 1ac4 08be 539a 3bbe fb62 63bc 7389 473d
00000150: 6dcd 34be c6fe 8abd d85b c3bd 30c4 9ebd
00000160: 3c50 293e 8ac0 c43d e3fe 4ebd f5d0 cbbd
00000170: 02e8 d73d 7cc1 80ba e755 b13d 133e d6bd

Network_stack.0.0.gru.weight_ih_l1 f4 [96, 32]
0.14073215 -0.018667325 0.09402822 0.17646645 0.10596671 -0.14408062 0.08341835 0.04366141
0.0034806319 0.101512894 -0.14135152 -0.050728973 0.17423226 0.011378319 -0.045081053 -0.17363144
0.04807341 0.16207363 0.03973582 0.1248225 -0.17305638 -0.015017692 -0.16329205 0.1424032
0.012399546 -0.08551684 0.10669263 -0.16312227 0.09633261 0.034778953 0.0328548 -0.13092087
0.061556708 0.15079637 0.09541997 0.06191934 0.14679816 -0.0630445 0.08836803 -0.048143405
-0.12614006 -0.0041168905 -0.088551044 -0.095532954 -0.07248312 -0.0772163 0.056938708 -0.04824219
-0.15601115 -0.049474224 0.101059444 -0.15844129 0.11967095 0.06708548 0.0884504 0.1453746
0.1418035 0.0777577 0.071922965 -0.03056055 0.0037981397 0.0886283 0.035211526 -0.0016134819
-0.037877552 0.07257779 -0.16450907 0.08742012 -0.10667923 -0.14556593 -0.12495663 -0.024184797
0.013628112 -0.08534372 0.058233373 0.18865818 0.1539875 0.035691164 0.107195035 -0.1538037
-0.07931939 0.1131523 -0.11531237 -0.041832045 -0.11194951 -0.023879755 0.009785692 0.16081285
0.023667144 -0.102026545 -0.0440825 -0.09803689 -0.039782602 -0.14864391 0.05585925 0.06960953
-0.14018784 -0.13253938 -0.052749585 -0.08711235 0.035751395 0.090705685 0.19326921 -0.14340946
0.07801336 0.07804886 0.104139075 0.007954708 0.14630412 0.17804638 0.09455294 -0.039989118
0.057234075 -0.0183944 -0.11501255 0.020971714 -0.05220983 0.058281127 0.14498833 -0.078468286
-0.011370273 -0.14531124 0.11375329 0.039960753 -0.11867824 0.021614563 0.03624575 0.007770821
0.03358006 0.12800023 0.08718559 -0.00776652 0.055964313 0.119509645 0.0031955328 -0.06279291
0.127219 -0.07545442 -0.046729974 -0.06820746 0.023152873 -0.14381112 -0.117248006 0.038987283
-0.089938305 0.16521361 -0.020475606 0.0756405 -0.09349586 -0.07637404 0.13503678 0.1474933
-0.016914723 0.002028175 0.10018786 0.14024578 0.17400725 0.18375017 0.039623883 -0.14510335
0.034601506 0.060712602 -0.03332419 0.18803023 -0.17590733 -0.12025141 -0.0834995 0.072687775
0.018429905 -0.024349364 0.0779725 -0.10144508 0.013387634 0.10280327 -0.18019825 -0.17106867
0.08729504 -0.13224897 0.055547986 -0.18377626 -0.17373708 0.014987188 -0.014395832 -0.05755768
0.104756124 -0.08484468 -0.14524134 0.05529768 -0.065424286 0.11612743 -0.059467964 -0.119037785
-0.009084266 -0.17897159 0.17005096 0.104161 0.14676216 0.10037039 -0.08733017 0.00089271396
0.08938316 -0.08810977 0.075664215 0.017083606 0.034963544 0.051728684 0.1904556 0.07433153
0.10028424 0.05633581 0.07267459 -0.15263055 -0.11217213 -0.032435726 0.04263106 -0.14379285
-0.013685788 0.103956915 -0.01775746 -0.13809964 0.07349885 -0.040018845 -0.17612298 -0.06903033
-0.11464717 -0.13319163 0.0946382 -0.037216123 -0.0056744856 -0.15618213 -0.03423978 0.008030959
0.0045528184 -0.13089553 0.011441425 -0.091330916 0.16183832 -0.16946095 -0.012114849 -0.0453868
-0.031288248 -0.020542612 0.012180797 0.13598794 0.042104416 0.14761789 -0.10701922 0.1319695
-0.05009854 0.11342198 -0.042189788 -0.04397723 -0.08738922 0.024259195 -0.042971626 0.101361185
00000000: 171c 103e 38ec 98bc de91 c03d 9fb3 343e
00000010: 1305 d93d df89 13be 3dd7 aa3d 4fd6 323d
00000020: 501b 643b fee5 cf3d 74be 10be 2fc9 4fbd
00000030: f169 323e 216c 3a3c e9a6 38bd 71cc 31be
00000040: a0e8 443d a1f6 253e 07c2 223d f0a2 ff3d
00000050: b135 31be c40c 76bc 0836 27be 25d2 113e
00000060: 7727 4b3c 7423 afbd aa81 da3d 8609 27be
00000070: 084a c53d 6074 0e3d c192 063d 1f10 06be
00000080: e322 7c3d 5d6a 1a3e 8c6b c33d 229f 7d3d
00000090: 4252 163e 7a1d 81bd 4cfa b43d 0532 45bd
000000a0: dc2a 01be fbe6 86bb 405a b5bd c8a6 c3bd
000000b0: 0872 94bd 9423 9ebd 9038 693d 9a99 45bd
000000c0: 63c1 1fbe 7ca5 4abd 41f8 ce3d 6f3e 22be
000000d0: 0b16 f53d 1d64 893d 7c25 b53d 14dd 143e
000000e0: f034 113e 6e3f 9f3d 594c 933d 1e5a fabc
000000f0: 36ea 783b c182 b53d f639 103d 787b d3ba
00000100: 7e25 1bbd aaa3 943d 1175 28be 5209 b33d
00000110: a47a dabd 3c0f 15be 43e9 ffbd 321f c6bc
00000120: 7248 5f3c b0c8 aebd 1e86 6e3d 9c2f 413e
00000130: e6ae 1d3e e630 123d 1289 db3d b87e 1dbe
00000140: 3472 a2bd 65bc e73d e428 ecbd 1458 2bbd
00000150: c945 e5bd 7a9f c3bc 2b54 203c 20ac 243e
00000160: 99e1 c13c 4bf3 d0bd da8f 34bd 91c7 c8bd
00000170: 15f3 22bd 1c36 18be abcc 643d 718f 8e3d
00000180: 678d 0fbe 67b8 07be f30f 58bd f667 b2bd
00000190: 0e70 123d e7c3 b93d 5de8 453e eed9 12be
000001a0: 78c5 9f3d 15d8 9f3d de46 d53d 7754 023c
000001b0: bfd0 153e ca51 363e f9a4 c13d a1cb 23bd
000001c0: 476e 6a3d daaf 96bc b38b ebbd dfcc ab3c
000001d0: fad9 55bd 31b8 6e3d d277 143e fbb3 a0bd
000001e0: 624a 3abc 78cc 14be 7cf7 e83d e3ad 233d
000001f0: 940d f3bd 0611 b13c 6c76 143d 5fa2 fe3b
00000200: 3f8b 093d 7e12 033e 5c8e b23d 4b7e febb
00000210: d63a 653d 79c1 f43d 256c 513b 9299 80bd
00000220: b345 023e d987 9abd ee67 3fbd 5ab0 8bbd
00000230: 18ab bd3c 3943 13be b91f f0bd 21b1 1f3d
00000240: 9331 b8bd c22d 293e 75bc a7bc 68e9 9a3d
00000250: c27a bfbd fe69 9cbd 1547 0a3e 7c08 173e
00000260: bf90 8abc 21eb 043b 4b2f cd3d 979c 0f3e
00000270: f52e 323e 0129 3c3e a74c 223d f995 14be
00000280: 4fba 0d3d c7ad 783d f27e 08bd ff8a 403e
00000290: 0d21 34be 5f46 f6bd c901 abbd 54dd 943d
000002a0: 50fa 963c 5178 c7bc 0cb0 9f3d 70c2 cfbd
000002b0: cf57 5b3c 858a d23d e485 38be a02c 2fbe
000002c0: bec7 b23d 466c 07be 4986 633d d82f 3cbe
000002d0: 22e8 31be d38c 753c 7fdc 6bbc 9ac1 6bbd
000002e0: 618a d63d 0cc3 adbd 25ba 14be d27f 623d
000002f0: 2bfd 85bd 38d4 ed3d ae94 73bd 15ca f3bd
00000300: 2cd6 14bc 5444 37be d721 2e3e 5d52 d53d
00000310: d248 163e fe8e cd3d 29da b2bd 0505 6a3a
00000320: 850e b73d e572 b4bd d7f5 9a3d ebf2 8b3c
00000330: ef35 0f3d 75e1 533d cb06 433e 213b 983d
00000340: d361 cd3d 61c0 663d 6ad6 943d 2f4b 1cbe
00000350: 80ba e5bd 53db 04bd e89d 2e3d 6f3e 13be
00000360: 5b3a 60bc 5de7 d43d 1878 91bc fe69 0dbe
00000370: 9186 963d cdea 23bd 9559 34be c65f 8dbd
00000380: 23cc eabd 6363 08be acd1 c13d ef6f 18bd
00000390: 09f1 b9bb 35ee 1fbe 033f 0cbd 4994 033c
000003a0: cf2f 953b 7a09 06be d174 3b3c b40b bbbd
000003b0: f2b8 253e 2c87 2dbe 5c7d 46bc 82e7 39bd
000003c0: 1b28 00bd fb48 a8bc f791 473c 6c40 0b3e
000003d0: ae75 2c3d 2529 173e e52c dbbd 0323 073e
000003e0: 2034 4dbd c849 e83d 33cf 2cbd 7821 34bd
000003f0: 1ff9 b2bd 38bb c63c 0403 30bd 7496 cf3d

Network_stack.0.0.gru.weight_hh_l1 f4 [96, 32]
0.018060872 -0.111863114 0.045725435 0.17478217 0.06763032 -0.10452405 -0.01746334 0.08634547
0.06640826 -0.1305943 -0.023021908 0.10815645 0.170268 0.006162389 0.13530728 -0.08908339
-0.0140433125 0.025973 -0.0031010495 0.10362987 -0.08110873 -0.057329644 -0.033142984 0.08321298
0.069495276 -0.064057276 0.101511575 -0.11106786 0.06894855 -0.16881332 0.08676956 -0.056407675
-0.09845808 -0.05239032 0.15609196 0.010320563 -0.14977342 -0.05381873 -0.055784483 -0.04901784
-0.05730398 0.11902896 0.15491603 -0.13977231 -0.12265321 -0.02624957 0.026666725 -0.13520133
0.13882893 0.016438082 0.0013146074 0.029138658 -0.07412954 0.07298547 -0.036607232 0.15742005
-0.066780366 0.06335008 0.16406398 -0.016405623 0.05178052 0.16083698 -0.13075888 0.004557944
0.14404564 -0.06581761 0.060598023 0.13084461 0.020410942 0.045530047 0.038493037 0.14930132
-0.05356136 -0.06249496 -0.1289855 0.059542604 -0.093890935 -0.11635849 0.033811234 -0.15450892
0.095994174 -0.11095893 0.13393612 0.026460921 0.06698881 0.124828205 -0.028200483 0.07308481
0.084158 -0.19082116 0.0034518547 0.046767373 0.17450076 0.0072977175 0.11424008 0.052984364
0.13054352 0.16723393 0.07754441 -0.049240004 0.06786877 -0.09908432 -0.09145541 0.12672155
0.07053997 -0.089136474 0.027181914 -0.06346181 0.14628339 0.15435755 0.10921112 0.15704341
0.14087932 -0.12822549 -0.048818123 0.024585286 0.16101158 -0.030693114 0.10258875 0.00039182126
0.106356554 0.025211701 0.1059602 0.17867254 0.02163324 -0.052784424 0.09492809 -0.11823876
-0.021618176 0.16571796 -0.16708286 0.06108579 -0.1464838 0.1637311 0.18114688 0.09020297
-0.09864102 -0.015909025 -0.1261557 0.12185473 -0.03296272 0.12279201 -0.10928952 0.080043346
-0.11257617 0.18056811 0.06994429 -0.16835837 0.050986465 -0.03148702 -0.022501018 0.14136489
0.037616275 0.15662499 -0.011410768 -0.060203865 0.07749099 0.052191257 -0.082958005 -0.10502603
-0.16763856 -0.15609136 -0.018421538 -0.086618654 -0.10822193 0.058944866 0.029410632 -0.070986606
0.15170272 0.11926543 -0.04475761 -0.13264214 -0.10851125 -0.09984265 -0.14204155 -0.0743215
0.16640942 -0.11335905 0.056319743 -0.086190484 -0.084706746 -0.017234687 -0.13723579 -0.044136908
-0.014623598 -0.07510394 0.03480448 -0.01295488 0.11800648 -0.02728227 0.019375032 0.096064195
-0.1393048 0.032652915 0.091498956 -0.030903144 0.10497211 -0.13874362 0.07789977 -0.03581069
0.11144732 -0.113704674 -0.00076067826 0.02821344 0.027451092 -0.04539001 -0.095021024 0.0781301
-0.096049786 0.048383083 -0.12021616 -0.13997832 0.018199129 -0.13470046 0.08433864 0.07100965
-0.14025298 0.06411211 0.018785505 -0.061884433 0.02705139 -0.049271885 0.09813698 -0.09906442
-0.14172344 0.058707822 -0.116083495 0.07187608 -0.15355861 0.11499422 0.05857116 0.17351972
0.15585968 0.14961867 -0.17019942 -0.09303995 -0.17484501 -0.021307837 -0.023939542 0.044191025
0.004547237 0.13199244 -0.17227697 0.019993037 -0.05176653 -0.09064876 -0.12470713 -0.108753
0.023001073 -0.13972992 0.15358444 -0.06513481 0.15445866 -0.06756897 -0.028087985 0.1395676
00000000: 65f4 933c 7d18 e5bd 984a 3b3d 19fa 323e
00000010: c481 8a3d b510 d6bd 470f 8fbc e5d5 b03d
00000020: 0e01 883d 83ba 05be 7198 bcbc 2181 dd3d
00000030: bc5a 2e3e deed c93b fe8d 0a3e 5a71 b6bd
00000040: ec15 66bc 54c5 d43c fa3a 4bbb e63b d43d
00000050: 551c a6bd 7dd2 6abd f0c0 07bd 916b aa3d
00000060: 8a53 8e3d 7630 83bd 4de5 cf3d 8c77 e3bd
00000070: e634 8d3d 66dd 2cbe 3db4 b13d bc0b 67bd
00000080: 64a4 c9bd 3b97 56bd 92d6 1f3e 9417 293c
00000090: 345e 19be 0771 5cbd 457e 64bd eec6 48bd
000000a0: 94b7 6abd 75c5 f33d 4fa2 1e3e 7920 0fbe
000000b0: 9b31 fbbd 5709 d7bc 2d74 da3c 3872 0abe
000000c0: 2c29 0e3e 28a9 863c e84e ac3a 32b4 ee3c
000000d0: 3ad1 97bd 6879 953d 77f1 15bd b932 213e
000000e0: 25c4 88bd b0bd 813d 6300 283e 1665 86bc
000000f0: cf17 543d 73b2 243e a8e5 05be ce5a 953b
00000100: b380 133e 62cb 86bd a235 783d 21fc 053e
00000110: d934 a73c b77d 3a3d e0aa 1d3d 72e2 183e
00000120: 2863 5bbd b7fa 7fbd c614 04be f2e2 733d
00000130: e449 c0bd 5c4d eebd a67d 0a3d 9637 1ebe
00000140: 9898 c43d 6f3e e3bd 8d26 093e 93c4 d83c
00000150: 6e31 893d eea5 ff3d b304 e7bc 7dad 953d
00000160: 085b ac3d 9f66 43be 8338 623b 258f 3f3d
00000170: 54b0 323e b121 ef3b b4f6 e93d 2206 593d
00000180: 33ad 053e 5f3f 2b3e 9bcf 9e3d e3af 49bd
00000190: c8fe 8a3d b8ec cabd f94c bbbd 4bc3 013e
000001a0: 4377 903d 2f8d b6bd 9bac de3c 44f8 81bd
000001b0: 50cb 153e e80f 1e3e 14aa df3d fdcf 203e
000001c0: ab42 103e 8b4d 03be 83f5 47bd 1567 c93c
000001d0: 38e0 243e 2070 fbbc 0d1a d23d 5c6d cd39
000001e0: 77d1 d93d c588 ce3c a901 d93d eff5 363e
000001f0: 3138 b13c 7b34 58bd a969 c23d 2a27 f2bd
00000200: 9a18 b1bc f8b1 293e c517 2bbe 1835 7a3d
00000210: d9ff 15be 20a9 273e 917e 393e 56bc b83d
00000220: 4e04 cabd a553 82bc f62e 01be f98e f93d
00000230: eb03 07bd 617a fb3d 2fd3 dfbd c4ed a33d
00000240: 568e e6bd d9e6 383e f43e 8f3d 2366 2cbe
00000250: 2fd7 503d 89f8 00bd 0e54 b8bc f5c1 103e
00000260: 8613 1a3d 4d62 203e 3bf4 3abc 5498 76bd
00000270: 99b3 9e3d 80c6 553d e3e5 a9bd e317 d7bd
00000280: 71a9 2bbe 6ad6 1fbe c4e8 96bc 1f65 b1bd
00000290: 76a3 ddbd 2c70 713d 91ee f03c 6d61 91bd
000002a0: f557 1b3e 6f41 f43d c153 37bd 57d3 07be
000002b0: 253b debd 4e7a ccbd 5773 11be df35 98bd
000002c0: 3b67 2a3e ca28 e8bd 88af 663d a384 b0bd
000002d0: bb7a adbd c22f 8dbc 8a87 0cbe e7c8 34bd
000002e0: d197 6fbc 18d0 99bd 248f 0e3d b440 54bc
000002f0: 62ad f13d 117f dfbc 63b8 9e3c 4ebd c43d
00000300: eba5 0ebe 10bf 053d ce63 bb3d 9728 fdbc
00000310: 9efb d63d cf12 0ebe ea89 9f3d 3bae 12bd
00000320: 7e3e e43d ffdd e8bd 4168 47ba df1f e73c
00000330: 1de1 e03c e0ea 39bd 629a c2bd ad02 a03d
00000340: c0b5 c4bd 572d 463d e433 f6bd 7a56 0fbe
00000350: 5716 953c ebee 09be bdb9 ac3d 826d 913d
00000360: 7a9e 0fbe 364d 833d 0fe4 993c 887a 7dbd
00000370: e09a dd3c 51d1 49bd 0afc c83d 49e2 cabd
00000380: f31f 11be 9d77 703d 2fbd edbd c433 933d
00000390: 783e 1dbe 1782 eb3d 50e8 6f3d 27af 313e
000003a0: ae99 1f3e a335 193e c248 2ebe bb8b bebd
000003b0: 920a 33be c68d aebc dc1c c4bc a601 353d
000003c0: fd00 953b 0729 073e 6069 30be 70c8 a33c
000003d0: 2409 54bd 0fa6 b9bd 7466 ffbd e5b9 debd
000003e0: bf6c bc3c 5c15 0fbe 3d45 1d3e 6665 85bd
000003f0: 692a 1e3e 9a61 8abd c618 e6bc cfea 0e3e

Network_stack.0.0.gru.bias_ih_l1 f4 [96]
-0.18089235 0.12886143 -0.0023786908 0.1697596 -0.16026926 -0.05561513 -0.053259943 -0.0020327072
-0.08665094 -0.16202766 -0.03317932 -0.14286117 -0.029257897 0.09037078 -0.063366875 -0.15573815
0.006073288 -0.10107902 0.1425584 -0.1550919 0.04692179 0.15135962 -0.037388984 -0.102449946
0.079947464 0.17747253 -0.05828561 0.07503005 -0.0053906003 -0.16171958 0.049181633 0.08915257
-0.0064810365 -0.3886625 0.08468893 0.10197442 -0.039418653 -0.2244834 0.0005976044 -0.12765905
-0.33742803 -0.0028455893 -0.09605016 -0.030719228 -0.17600746 0.010405704 0.114729464 -0.113326065
-0.055134337 0.064054325 -0.027724385 -0.17803769 -0.17359513 -0.095299594 0.12034806 0.17806071
0.13957575 0.034490574 0.1406014 -0.17034549 0.090357415 0.08011203 -0.05750144 0.10024098
-0.026022453 0.18737638 0.010623793 -0.081768036 0.16169617 0.123847745 0.17808841 0.13903001
0.13019332 -0.09133799 -0.14592068 -0.067455016 -0.17892759 0.12576397 0.13850716 0.07958331
-0.14630067 0.092089124 0.005849977 0.042843167 0.03410917 -0.04933808 -0.15921743 0.13301918
-0.17120658 -0.089968495 0.07161459 0.15245454 0.02441639 0.13269645 0.036522593 -0.09163443
00000000: d83b 39be 40f4 033e cfe3 1bbb 76d5 2d3e
00000010: a01d 24be b1cc 63bd 1927 5abd 2b37 05bb
00000020: 0c76 b1bd 94ea 25be 0ae7 07bd 334a 12be
00000030: 42ae efbc 5114 b93d 7ec6 81bd d279 1fbe
00000040: 6f02 c73b 8402 cfbd d4fa 113e 69d0 1ebe
00000050: 1031 403d 04fe 1a3e 3125 19bd 47d1 d1bd
00000060: 7fbb a33d 5cbb 353e e4bc 6ebd 5ba9 993d
00000070: a2a3 b0bb d199 25be ae72 493d 9f95 b63d
00000080: e05e d4bb c5fe c6be 6471 ad3d f7d7 d03d
00000090: 7475 21bd fade 65be 8da8 1c3a 0eb9 02be
000000a0: 5ec3 acbe 117d 3abb f2b5 c4bd e4a6 fbbc
000000b0: 4d3b 34be b07c 2a3c 48f7 ea3d 7f17 e8bd
000000c0: 8bd4 61bd ea2e 833d 401e e3bc 834f 36be
000000d0: ecc2 31be 6f2c c3bd 0b79 f63d 8c55 363e
000000e0: f2ec 0e3e fd45 0d3d d0f9 0f3e 0c6f 2ebe
000000f0: 4f0d b93d c711 a43d a186 6bbd 254b cd3d
00000100: 0a2d d5bc 98df 3f3e 6b0f 2e3c 0076 a7bd
00000110: ae93 253e e3a3 fd3d cf5c 363e e25d 0e3e
00000120: 6651 053e 690f bbbd 3b6c 15be db25 8abd
00000130: cb38 37be 45c8 003e d2d4 0d3e 93fc a23d
00000140: d8cf 15be 3999 bc3d 2ab1 bf3b 517c 2f3d
00000150: 0fb6 0b3d ba16 4abd e509 23be 2e36 083e
00000160: c750 2fbe 6741 b8bd acaa 923d 0b1d 1c3e
00000170: e204 c83c 94e1 073e b798 153d d5aa bbbd

Network_stack.0.0.gru.bias_hh_l1 f4 [96]
-0.17860645 -0.1632521 -0.029699601 0.17597398 0.037947442 -0.084474914 0.0070780846 -0.07212567
0.1575939 0.15245724 -0.08113927 0.15182975 -0.06353675 0.034598947 -0.07408721 -0.05768741
0.10034607 0.009856911 0.04723249 -0.1146961 -0.03443277 0.07825908 0.10143157 -0.15541026
0.11278465 -0.051453587 -0.054793578 -0.08322693 -0.06834736 -0.07395216 0.14410062 -0.08852608
-0.04655195 -0.47590196 -0.24535905 -0.025156904 -0.06801125 0.0071799243 -0.2085268 -0.08602675
-0.03758837 0.12836069 -0.025320193 0.102939785 -0.08759438 -0.042044766 0.038193617 0.20786794
-0.014660167 0.086412854 0.06632667 0.031225214 -0.07012311 -0.17293449 -0.075526476 0.026239838
-0.09802232 0.12664467 0.053978637 -0.11741493 0.10417164 -0.0775583 -0.014936997 -0.07795603
0.0015508127 -0.034711443 0.0269182 -0.13115141 -0.039208356 -0.061436575 -0.08875015 0.1648663
-0.14448445 -0.10539856 0.006194958 -0.16535145 -0.14386757 -0.12205337 0.009295973 0.12372892
0.1592149 -0.1142906 -0.12319122 -0.033675123 0.15438458 -0.08945858 -0.111611344 -0.12801558
-0.103706025 0.026871119 -0.024171015 0.021707768 0.02009243 -0.14022405 -0.09481719 -0.10670687
00000000: 9ce4 36be 8f2b 27be 944c f3bc 8632 343e
00000010: c76e 1b3d 2f01 adbd 47ef e73b a0b6 93bd
00000020: 4c60 213e c01d 1c3e 582c a6bd 4279 1b3e
00000030: 8e1f 82bd a0b7 0d3d 09bb 97bd a249 6cbd
00000040: 3e82 cd3d e27e 213c db76 413d cae5 eabd
00000050: 6009 0dbd 4c46 a03d 5bbb cf3d de23 1fbe
00000060: a3fb e63d ffc0 52bd 3b6f 60bd e172 aabd
00000070: b3f9 8bbd 3b74 97bd 1d8f 133e 294d b5bd
00000080: 42ad 3ebd 6ca9 f3be 673f 7bbe da15 cebc
00000090: 7b49 8bbd 9245 eb3b 0d88 55be cb2e b0bd
000000a0: 43f6 19bd fc70 033e 4b6c cfbc 18d2 d23d
000000b0: af64 b3bd 2237 2cbd e970 1c3d 55db 543e
000000c0: 3231 70bc 39f9 b03d 47d6 873d 05cc ff3c
000000d0: b59c 8fbd bd15 31be a0ad 9abd eef4 d63c
000000e0: edbf c8bd 24af 013e b418 5d3d 3d77 f0bd
000000f0: f157 d53d e3d6 9ebd 4eba 74bc 69a7 9fbd
00000100: a444 cb3a 962d 0ebd 8f83 dc3c 8e4c 06be
00000110: f198 20bd eba4 7bbd a3c2 b5bd b6d2 283e
00000120: bbf3 13be 33db d7bd 13ff ca3b e451 29be
00000130: 0552 13be 1ef7 f9bd 234e 183c 9765 fd3d
00000140: 3b09 233e 3111 eabd ae4b fcbd edee 09bd
00000150: fe16 1e3e 0f36 b7bd 7d94 e4bd 8416 03be
00000160: d363 d4bd d220 dc3c 4b02 c6bc 7dd4 b13c
00000170: e198 a43c e596 0fbe 842f c2bd 2289 dabd

Network_stack.1.0.gru.weight_ih_l0 f4 [96, 2]
0.059355818 0.13452582 0.07615944 0.12484705 0.09835655 0.14822051 -0.051584557 -0.018243376
0.01561668 0.073014125 0.07429176 0.092508264 -0.15995026 0.031045899 -0.1423748 0.16540845
-0.09301067 -0.16905566 -0.123889424 0.03747869 0.11305056 -0.08909227 -0.00037509637 0.097979516
0.13719551 -0.14575416 -0.13988712 0.026481844 -0.12604618 0.123038694 -0.02642058 -0.14599843
0.10242693 -0.1610416 0.06368195 0.0759668 0.14561851 -0.14980301 0.059083514 0.093548425
-0.142317 -0.14105421 -0.0007641275 0.07971277 -0.10089171 0.11106885 0.113729455 -0.074085616
0.00052740856 -0.14521629 0.18882604 0.07141127 0.101471744 -0.026382564 0.16080283 0.006059659
-0.1672141 0.031681955 -0.09549148 -0.07630958 0.017840976 -0.03604813 0.09220391 0.08379579
0.07470819 -0.06175878 0.08297522 0.02759842 0.08363921 0.06340738 -0.035171587 0.09282107
0.08105843 0.012300763 0.1664259 -0.1166876 0.07270729 -0.07842969 -0.0896029 -0.012446974
-0.1551607 0.13100536 0.03727616 -0.14856207 -0.16262962 0.07668256 -0.040839463 0.17927864
-0.020504313 0.14221722 0.0047503565 -0.08547558 0.077791154 0.05204034 -0.11332252 -0.069809064
-0.041394103 0.15796722 -0.1658407 0.13846308 -0.1096602 -0.028336093 0.08975846 0.009578046
-0.018925434 -0.10270427 -0.16201971 0.0145416595 0.14729686 0.009199406 -0.0015465058 -0.15898965
0.16589521 0.046703313 -0.047824413 -0.00047380503 0.16836055 0.1851464 -0.09052171 0.01537078
-0.048805334 0.10203081 0.15674897 0.053917937 -0.044890106 -0.07480912 -0.13214119 -0.13564788
0.044434275 -0.14440544 0.17412958 -0.0588408 -0.091233686 0.0005099461 0.14387256 0.0658708
-0.117017545 -0.09442949 0.10845512 0.032859985 -0.018236311 -0.05547139 -0.048104238 -0.15712395
0.017419314 -0.06907341 -0.12260012 -0.11111413 0.14716573 0.00017408491 0.0755959 -0.1779727
0.04762247 -0.14399874 -0.09600037 0.013488136 -0.1318531 0.13896705 0.09652321 -0.012917477
-0.007307516 -0.064288124 -0.07007268 -0.12362577 0.11756619 -0.12877992 -0.024978349 -0.16434982
0.14617807 0.0021196106 0.08952654 0.17305075 -0.13931027 -0.017682225 -0.14658776 -0.11116723
0.12396631 -0.03447247 -0.04896743 0.062226858 -0.05968172 0.13897495 -0.13056421 0.033442747
-0.051257856 -0.1752572 0.14701882 0.0406534 0.020237824 -0.1062605 0.13888659 0.10241727
00000000: 161f 733d 23c1 093e 7bf9 9b3d cfaf ff3d
00000010: 296f c93d 1ec7 173e 544a 53bd 2273 95bc
00000020: 1add 7f3c 6e88 953d 4726 983d f974 bd3d
00000030: 00ca 23be f853 fe3c b3ca 11be d560 293e
00000040: 617c bebd ed1c 2dbe bdb9 fdbd 4183 193d
00000050: 0d87 e73d 0276 b6bd 95a8 c4b9 7ca9 c83d
00000060: fb7c 0c3e 9440 15be 923e 0fbe 74f0 d83c
00000070: 4012 01be b6fb fb3d f96f d8bc 9d80 15be
00000080: 36c5 d13d 17e8 24be af6b 823d 7b94 9b3d
00000090: 051d 153e f665 19be 8e01 723d 5196 bf3d
000000a0: 8cbb 11be 8470 10be ba4f 48ba 7340 a33d
000000b0: 50a0 cebd 1178 e33d fdea e83d 33ba 97bd
000000c0: ca41 0a3a 94b3 14be 9d5b 413e 1240 923d
000000d0: 6bd0 cf3d 3f20 d8bc 7fa9 243e 1b90 c63b
000000e0: 2c3a 2bbe f0c4 013d 0991 c3bd 3248 9cbd
000000f0: 3d27 923c 34a7 13bd 67d5 bc3d 219d ab3d
00000100: 9c00 993d c6f6 7cbd eaee a93d 1516 e23c
00000110: 094b ab3d badb 813d 1510 10bd f918 be3d
00000120: f601 a63d 2489 493c 8d6b 2a3e e9f9 eebd
00000130: 8fe7 943d bf9f a0bd ba81 b7bd 65ee 4bbc
00000140: 72e2 1ebe 4526 063e e3ae 183d a820 18be
00000150: 6188 26be bf0b 9d3d 4847 27bd d294 373e
00000160: a9f8 a7bc 64a1 113e e1a8 9b3b d20d afbd
00000170: f850 9f3d 4028 553d a315 e8bd 0ef8 8ebd
00000180: dd8c 29bd 29c2 213e 25d2 29be 44c9 0d3e
00000190: 8795 e0bd 1821 e8bc 49d3 b73d 3ded 1c3c
000001a0: 8309 9bbc 9e56 d2bd 7fe8 25be 2440 6e3c
000001b0: fdd4 163e 1bb9 163c 20b4 caba 2fce 22be
000001c0: 6fe0 293e f94b 3f3d 88e3 43bd 0969 f8b9
000001d0: b566 2c3e 0597 3d3e 7263 b9bd b9d5 7b3c
000001e0: 1ae8 47bd 88f5 d03d cd82 203e 0ed9 5c3d
000001f0: b0de 37bd 8635 99bd 0550 07be 47e7 0abe
00000200: b700 363d 05df 13be 064f 323e 0d03 71bd
00000210: bad8 babd e7ad 053a 5453 133e 45e7 863d
00000220: e5a6 efbd 4064 c1bd b81d de3d 3198 063d
00000230: 5164 95bc f835 63bd f308 45bd 1ae5 20be
00000240: f3b2 8e3c 5c76 8dbd c615 fbbd ce8f e3bd
00000250: 9db2 163e 908a 3639 06d2 9a3d 7a3e 36be
00000260: c70f 433d 6874 13be d89b c4bd 58fd 5c3c
00000270: 8004 07be 614d 0e3e f6ad c53d d3a3 53bc
00000280: e373 efbb 7ea9 83bd 4482 8fbd 822f fdbd
00000290: 8bc6 f03d e2de 03be 659f ccbc 524b 28be
000002a0: b4af 153e 2ae9 0a3b b159 b73d 3734 313e
000002b0: 5aa7 0ebe 50da 90bc 1a1b 16be a5ab e3bd
000002c0: 0ce2 fd3d 0133 0dbd 1292 48bd 97e1 7e3d
000002d0: d274 74bd 734f 0e3e a0b2 05be 43fb 083d
000002e0: c2f3 51bd a076 33be 1a8c 163e 2e84 263d
000002f0: cbc9 a53c 1b9f d9bd 4938 0e3e 25c0 d13d

Network_stack.1.0.gru.weight_hh_l0 f4 [96, 32]
-0.07172573 -0.08026018 -0.16627061 0.051461156 -0.09449359 0.1442334 0.035670996 0.0037591064
0.056340437 0.13516806 -0.17581563 -0.068021 0.09073477 -0.0026124218 0.086286955 -0.17816971
-0.07255851 0.01679812 -0.14603041 -0.123115726 0.04299642 0.05771416 0.061396513 0.0141078625
0.1251801 -0.16567928 -0.074064545 0.05621622 -0.0779061 -0.04137266 -0.04582703 -0.15834479
-0.13443357 -0.047918476 -0.09846734 -0.12249624 -0.08496292 0.12780118 -0.047904816 -0.11640352
-0.005679625 -0.027690941 0.009912176 -0.034321282 -0.09953854 0.07486739 -0.041257147 0.14383662
0.103129506 0.04763428 0.07188398 0.00733389 -0.059362605 -0.104550265 -0.065633886 0.145671
-0.14191352 0.16576928 0.15724955 0.10181367 0.11853792 -0.034616824 -0.11918081 -0.001885746
0.1294449 0.1333661 -0.12667184 -0.035530005 0.09178696 -0.019111915 0.07480354 -0.06025541
0.044671427 0.14820106 -0.10155218 -0.1497906 0.0034701223 0.099428885 0.15962367 0.02260637
-0.017528469 0.013374722 0.16976364 0.18810217 0.17241731 0.15095973 -0.119872145 0.08434995
0.16879883 -0.03971669 -0.10241173 -0.09557103 0.13943231 0.024589729 -0.13336526 -0.14350584
-0.10077928 -0.1430179 -0.13169035 -0.033724245 -0.06481624 0.05295201 -0.040280677 0.13271847
-0.1425972 -0.08715696 -0.12832354 -0.14718759 -0.00824617 -0.092942275 -0.06715579 -0.18296601
-0.1532119 -0.15400903 0.025583426 -0.11619487 -0.04831384 0.009570494 0.08011136 0.17533208
-0.019005725 0.03404952 -0.070323065 0.04592041 -0.17945419 0.016347645 0.10812041 -0.076086216
-0.11805288 0.14054112 -0.12658453 0.053925335 0.17946659 0.12559359 0.1571392 -0.15307978
0.078014255 0.019659333 0.057782277 -0.14318977 -0.07543328 -0.01873956 0.15615812 -0.12507512
0.1171073 -0.122843444 -0.16444378 -0.009170816 -0.18477829 -0.058835603 0.14057937 0.017358083
0.17382507 -0.06860503 -0.027430331 0.07672013 -0.082435176 0.13947058 -0.046709917 -0.057514172
0.031062549 0.10132655 0.1315288 -0.17963432 0.07754304 0.091637745 -0.013984035 -0.07050832
0.027719006 0.12881501 0.00649775 0.16542046 -0.07974056 0.0015669753 0.08058803 0.1371036
0.0019066264 0.07541423 -0.04695648 0.17362018 0.072688565 0.1499295 -0.090490274 0.15797079
0.024999578 0.17136796 -0.06294345 0.10555195 0.055886004 -0.0011813854 -0.108980045 0.040877596
-0.015285898 0.07773315 -0.08907474 0.068949476 -0.05062157 0.0744074 -0.066152096 0.06884768
0.11043347 0.034888584 -0.16382591 0.028537441 -0.040638745 -0.11481859 0.071347244 0.16481438
-0.113194846 -0.086575165 -0.022353299 -0.03419108 0.063572414 0.10264132 -0.1729385 0.16400956
-0.17044425 0.098375484 0.07186723 0.045364603 -0.10573548 0.114071004 -0.06758643 0.070478365
0.113648385 -0.11129515 0.05072703 -0.013772169 0.004875789 -0.038150743 -0.15052183 -0.12580565
-0.10643072 0.056047086 -0.02841674 0.18664625 -0.10094091 -0.052865066 0.12336125 0.03375262
-0.13357788 -0.15293606 -0.1681212 0.02812288 0.045389246 -0.12193925 0.17090356 -0.11994713
-0.049828183 0.1349311 0.14910479 0.036964554 0.0419074 0.027960042 0.10749893 0.10260799
00000000: f1e4 92bd 735f a4bd d842 2abe efc8 523d
00000010: db85 c1bd ecb1 133e c01b 123d 575b 763b
00000020: 3bc5 663d 7f69 0a3e 0309 34be 984e 8bbd
00000030: 27d3 b93d 2a35 2bbb 37b7 b03d 1f72 36be
00000040: 8e99 94bd 369c 893c ff88 15be 1924 fcbd
00000050: 041d 303d af65 6c3d e97a 7b3d aa24 673c
00000060: 362f 003e d4a7 29be 27af 97bd fb42 663d
00000070: 3c8d 9fbd 6176 29bd 20b5 3bbd 2325 22be
00000080: f4a8 09be 2a46 44bd 3fa9 c9bd 4fdf fabd
00000090: 0a01 aebd 50de 023e d737 44bd f864 eebd
000000a0: 261c babb 1dd8 e2bc ae66 223c 7994 0cbd
000000b0: ddda cbbd 1354 993d 41fd 28bd e849 133e
000000c0: 9035 d33d 2a1c 433d e837 933d 2151 f03b
000000d0: 3426 73bd 731e d6bd 0f6b 86bd c72a 153e
000000e0: c751 11be 6cbf 293e 0706 213e af83 d03d
000000f0: 02c4 f23d 5fca 0dbd 1215 f4bd 232b f7ba
00000100: 348d 043e 1f91 083e 43b6 01be e987 11bd
00000110: cdfa bb3d 9790 9cbc 9932 993d 60ce 76bd
00000120: 63f9 363d 05c2 173e 97fa cfbd b562 19be
00000130: fe6a 633b 5fa1 cb3d 6374 233e fe30 b93c
00000140: dd97 8fbc a621 5b3c 85d6 2d3e db9d 403e
00000150: 2a8e 303e 3095 1a3e 877f f5bd abbf ac3d
00000160: 9ad9 2c3e f8ad 22bd 3ebd d1bd bfba c3bd
00000170: 58c7 0e3e 6670 c93c e790 08be 32f3 12be
00000180: 5e65 cebd 4973 12be d6d9 06be 6f22 0abd
00000190: 60be 84bd 35e4 583d 5afd 24bd 5ae7 073e
000001a0: 0005 12be 597f b2bd 3f67 03be 58b8 16be
000001b0: f21a 07bc 8558 bebd fa88 89bd 715b 3bbe
000001c0: 95e3 1cbe 8bb4 1dbe 5594 d13c 93f7 edbd
000001d0: bce4 45bd 90cd 1c3c 6d11 a43d 418a 333e
000001e0: e5b1 9bbc 8277 0b3d 8a05 90bd 0a17 3c3d
000001f0: d7c2 37be 7feb 853c 3c6e dd3d 17d3 9bbd
00000200: b5c5 f1bd 03ea 0f3e 609f 01be d0e0 5c3d
00000210: 17c6 373e 9b9b 003e 19e9 203e f2c0 1cbe
00000220: f0c5 9f3d 9c0c a13c 1cad 6c3d 57a0 12be
00000230: c37c 9abd b583 99bc eae7 1f3e b113 00be
00000240: f4d5 ef3d 5895 fbbd f363 28be 3141 16bc
00000250: 8536 3dbe 9afd 70bd 0af4 0f3e 8a32 8e3c
00000260: 33ff 313e cb80 8cbd 93b5 e0bc 721f 9d3d
00000270: c6d3 a8bd 60d1 0e3e e652 3fbd fb93 6bbd
00000280: e376 fe3c 4b84 cf3d 7caf 063e 0ff2 37be
00000290: e3ce 9e3d 92ac bb3d 4b1d 65bc ab66 90bd
000002a0: f812 e33c 15e8 033e 14eb d43b fb63 293e
000002b0: 054f a3bd f762 cd3a 560b a53d e364 0c3e
000002c0: c4e7 f93a c772 9a3d 7055 40bd 7dc9 313e
000002d0: bedd 943d 1e87 193e f752 b9bd 18c3 213e
000002e0: eacb cc3c 157b 2f3e 7fe8 80bd 9f2b d83d
000002f0: b9e8 643d b7d8 9aba ee30 dfbd 446f 273d
00000300: b471 7abc 8f32 9f3d d16c b6bd 6235 8d3d
00000310: 9058 4fbd e862 983d c07a 87bd 0300 8d3d
00000320: f12a e23d 55e7 0e3d fbc1 27be 5ac7 e93c
00000330: d074 26bd 0226 ebbd 811e 923d 1ac5 283e
00000340: b3d2 e7bd 524e b1bd 441e b7bc f20b 0cbd
00000350: 4132 823d 9d35 d23d ca16 31be 1ff2 273e
00000360: f088 2ebe 1679 c93d 202f 933d 3cd0 393d
00000370: d88b d8bd 0f9e e93d c16a 8abd f656 903d
00000380: 7cc0 e83d b6ee e3bd 25c7 4f3d aaa4 61bc
00000390: 15c5 9f3b f443 1cbd 6522 1abe 32d3 00be
000003a0: 59f8 d9bd a191 653d 39ca e8bc 3220 3f3e
000003b0: 1cba cebd 0a89 58bd d3a4 fc3d 3040 0a3d
000003c0: a4c8 08be 459b 1cbe f727 2cbe f461 e63c
000003d0: 13ea 393d 49bb f9bd 5801 2f3e d7a6 f5bd
000003e0: a318 4cbd 612b 0a3e edae 183e 2568 173d
000003f0: 18a7 2b3d 750c e53c 6628 dc3d 2324 d23d

Network_stack.1.0.gru.bias_ih_l0 f4 [96]
0.14862521 0.13325861 -0.15887895 -0.18543963 0.09127016 0.11368384 -0.105665855 0.046048786
-0.09594558 0.17005585 -0.1343607 0.056011807 -0.10469174 0.04882654 0.03475012 -0.12356786
0.0011262192 -0.08662423 0.09932159 -0.06867716 0.079381324 0.06099077 -0.027904956 -0.027948847
0.11129729 -0.047034867 0.115242556 0.057050027 0.034834728 0.0073928353 -0.16435239 -0.16373244
-0.15328528 0.113386825 -0.03639385 0.027868856 -0.04112363 -0.016176682 -0.09143563 -0.058859106
-0.1792275 -0.090449944 -0.10592234 0.105113514 -0.09951181 0.087296195 0.033847187 0.17823301
-0.030856676 0.041134287 -0.21824194 -0.06555246 0.035045534 -0.1746662 -0.16609098 -0.17209631
-0.0765249 -0.022182738 -0.068230934 -0.080047555 0.020401761 -0.18644401 -0.0957387 0.04293294
-0.0040782755 -0.1583689 0.18395455 0.01283012 0.13717644 -0.16780642 0.16747002 -0.024913538
-0.010142045 -0.0064847264 -0.054525502 -0.0047800858 0.07366905 -0.078663744 0.073615275 0.021935787
0.077224545 0.005791244 0.13919482 0.05898161 -0.0018549768 -0.16302428 0.11931763 0.061075736
-0.103385344 0.13211729 -0.023418585 -0.16943285 0.14170465 -0.0863958 0.12133969 0.083881706
00000000: 3531 183e f274 083e 2ab1 22be e3e3 3dbe
00000010: daeb ba3d 13d3 e83d 5767 d8bd a79d 3c3d
00000020: 1e7f c4bd 1f23 2e3e da95 09be a36c 653d
00000030: 9f68 d6bd 57fe 473d 2456 0e3d 2511 fdbd
00000040: a59d 933a 0b68 b1bd 1e69 cb3d 9ca6 8cbd
00000050: ad92 a23d 75d1 793d ef98 e4bc fbf4 e4bc
00000060: d5ef e33d a2a7 40bd 4a04 ec3d 4aad 693d
00000070: dcae 0e3d 993f f23b fe4b 28be 7aa9 27be
00000080: d1f6 1cbe 5a37 e83d b811 15bd 3a4d e43c
00000090: 4071 28bd f684 84bc 9b42 bbbd 3f16 71bd
000000a0: 6a87 37be d23d b9bd d0ed d8bd c145 d73d
000000b0: d9cc cbbd 59c8 b23d 59a3 0a3d b782 363e
000000c0: 24c7 fcbc 6d7c 283d d17a 5fbe 5e40 86bd
000000d0: e88b 0f3d b2db 32be c113 2abe 043a 30be
000000e0: 16b9 9cbd 93b8 b5bc a9bc 8bbd f9ef a3bd
000000f0: 9821 a73c 2eeb 3ebe a712 c4bd 73da 2f3d
00000100: 0ea3 85bb 752b 22be 955e 3c3e 6c35 523c
00000110: fb77 0c3e 72d5 2bbe 437d 2b3e 7a17 ccbc
00000120: d22a 26bc d47d d4bb 2256 5fbd 44a2 9cbb
00000130: cddf 963d 751a a1bd 9bc3 963d aeb2 b33c
00000140: e727 9e3d 7ac4 bd3b 1689 0e3e b396 713d
00000150: b122 f3ba d6ef 26be cd5c f43d 8d2a 7a3d
00000160: b2bb d3bd c149 073e 55d8 bfbc ce7f 2dbe
00000170: 061b 113e 48f0 b0bd f280 f83d 2cca ab3d

Network_stack.1.0.gru.bias_hh_l0 f4 [96]
-0.15677713 0.13616693 -0.09187316 0.09232919 0.040016636 -0.099882506 -0.07250375 -0.0035102759
0.1839092 0.070317104 -0.14871132 -0.10203801 -0.043995917 -0.05213404 0.059250012 -0.042466942
0.15778005 0.117885835 0.055427507 -0.034773193 0.14684364 0.03159421 0.001756801 0.17029576
-0.08625131 0.04411794 0.013530306 -0.112694986 -0.06266071 -0.10988266 0.019606542 -0.16447107
-0.078155324 -0.044528116 -0.06908124 0.07669867 0.012837601 0.17655374 0.09564189 0.108132444
-0.108825386 -0.17436694 0.06491851 -0.054469552 -0.12249232 -0.030943228 -0.015328567 -0.0082533965
-0.13252342 0.085824504 -0.084230416 0.05341059 -0.0807788 0.046956573 0.10329389 -0.028349055
-0.13288766 -0.0590487 0.028630419 -0.047440596 -0.17355385 -0.023522606 -0.003931186 -0.028221602
0.120634496 0.053221535 0.056889344 0.1570752 -0.029878732 0.15820737 0.13680778 0.04939876
0.118576795 -0.044342216 0.08659506 -0.18607642 0.07113967 -0.11486364 -0.17473899 -0.14642863
0.021751227 0.07274554 -0.014203292 -0.08068382 -0.16246289 -0.007021258 -0.09940652 -0.054108292
-0.14657804 -0.09009031 0.063889086 -0.038442623 -0.11131513 -0.07832856 -0.018845262 0.10517215
00000000: 2f8a 20be 586f 0b3e ff27 bcbd 1617 bd3d
00000010: 7ce8 233d 338f ccbd d97c 94bd a80c 66bb
00000020: b152 3c3e 6a02 903d c847 18be 4ef9 d0bd
00000030: 1035 34bd 818a 55bd 24b0 723d d1f1 2dbd
00000040: 1891 213e 216e f13d f407 633d 566e 0ebd
00000050: 2e5e 163e ee68 013d 7644 e63a 0362 2e3e
00000060: 87a4 b0bd 03b5 343d 37ae 5d3c a1cc e6bd
00000070: 4254 80bd 290a e1bd e69d a03c 1b6b 28be
00000080: e60f a0bd 1d63 36bd 777a 8dbd 3114 9d3d
00000090: cd54 523c 81ca 343e e5df c33d 8b74 dd3d
000000a0: d8df debd 3f8d 32be fff3 843d 771b 5fbd
000000b0: 41dd fabd a77c fdbc ab24 7bbc 4139 07bc
000000c0: 38b4 07be c2c4 af3d ff80 acbd 10c5 5a3d
000000d0: 5b6f a5bd 8955 403d bf8b d33d 473c e8bc
000000e0: b413 08be 0ddd 71bd 578a ea3c 1251 42bd
000000f0: 1ab8 31be 7bb2 c0bc 2ed1 80bb fd30 e7bc
00000100: 380f f73d d3fe 593d cd04 693d 52d8 203e
00000110: 3ec4 f4bc 1d01 223e 5717 0c3e 5b56 4a3d
00000120: 64d8 f23d 2fa0 35bd c058 b13d d18a 3ebe
00000130: adb1 913d a13d ebbd c7ee 32be 63f1 15be
00000140: a12f b23c 9dfb 943d edb4 68bc 8f3d a5bd
00000150: ac5c 26be 9512 e6bb a595 cbbd a8a0 5dbd
00000160: 8e18 16be 4581 b8bd 48d8 823d 0376 1dbd
00000170: 30f9 e3bd b96a a0bd 6161 9abc 7f64 d73d
