models/model_uniform_region_0-0.3.0.6-0.9718a0dfa.pth (torch, 602786 bytes, 9 tensors)

Network_stack.0.0.gru.weight_ih_l0 f4 [384, 1]
0	0x3d6a1fd8	0.057159275
1	0x3d0f58c1	0.03499675
2	0x3d9d8e6d	0.07693181
3	0x3d66d603	0.05635644
4	0x3d873092	0.06601061
5	0x3d9b9de9	0.07598478
6	0xbdbe01fe	-0.09277724
7	0x3cdcaff4	0.02693937
8	0xbc22c54e	-0.009934736
9	0x3e057adb	0.13035147
10	0x3df227ed	0.118240215
11	0x3d22b54d	0.039723683
12	0xbc9dde03	-0.019270902
13	0xbc427524	-0.011868749
14	0x3d21e6ec	0.039526865
15	0xbe03e056	-0.12878546
16	0xbcf4602e	-0.029831018
17	0x3c0d31d4	0.008617837
18	0xbcb0a9e5	-0.021565387
19	0xbd2a2024	-0.041534558
20	0xbc4543e7	-0.012040115
21	0xbb0e1679	-0.0021680875
22	0xbd1ee784	-0.03879501
23	0xbd866968	-0.065630734
24	0x3d324d10	0.043530524
25	0x3dcd3d43	0.1002145
26	0x3ae3f0a1	0.0017390439
27	0xbd909bf0	-0.07060993
28	0x3dd790b1	0.105256446
29	0x3c9844b2	0.018587444
30	0xbe1c175a	-0.15243283
31	0xbc1bad3b	-0.009501751
32	0x3cce3979	0.02517389
33	0xbd9057d9	-0.070480056
34	0x3d87a3af	0.06623017
35	0x3cf7bd09	0.030241506
36	0xbdefc220	-0.11706948
37	0xbda2ba70	-0.079457164
38	0x3d944942	0.07240535
39	0xbc77c5af	-0.015122815
40	0x3d221044	0.039566293
41	0x3cff69a9	0.031178312
42	0xbd171420	-0.036884427
43	0xbdb9cd7f	-0.090723984
44	0xbd9ab5e4	-0.07554224
45	0xbdeec7c9	-0.116592
46	0x3dadb2d4	0.084813744
47	0xbd2f982e	-0.04286974
48	0x3b556972	0.003256407
49	0x3bbfd76e	0.0058545386
50	0x3d17845e	0.03699147
51	0x39f379f4	0.00046439434
52	0x3c107a08	0.008818157
53	0xbd98553d	-0.07438133
54	0x39a191dd	0.0003081699
55	0xbda0ecae	-0.07857643
56	0xbd8bbda7	-0.06823283
57	0x3ba49c98	0.0050235502
58	0xbd9c1ed7	-0.0762307
59	0xbd2af51e	-0.04173767
60	0xbdf79ead	-0.12090812
61	0xbc8e8380	-0.017396688
62	0xbd9663ae	-0.07343231
63	0xbcc204a9	-0.023683863
64	0xbcf55480	-0.02994752
65	0x3d290845	0.041267652
66	0x3e210dc0	0.15727901
67	0x3d44c75f	0.048041698
68	0x3d1c3297	0.038134184
69	0x3d86b44c	0.06577358
70	0xbca60742	-0.020267133
71	0x3c438d70	0.011935577
72	0x3d28b04f	0.041183766
73	0xbc460430	-0.012085959
74	0x3c2e3711	0.010633246
75	0x3da3ea0c	0.08003625
76	0xbd657318	-0.056017965
77	0x3c6e0599	0.014527702
78	0x3beb0f76	0.007173474
79	0xbe0f14c2	-0.13972762
80	0xbda5406c	-0.08068928
81	0xbdca21dd	-0.0986974
82	0xbbcf4f91	-0.0063266237
83	0xbda14d8a	-0.078761175
84	0x3c7d7534	0.015469838
85	0xbda39b6b	-0.07988628
86	0xbd3d3146	-0.04618957
87	0xbd22635e	-0.039645545
88	0xbd5e3298	-0.05424747
89	0xbdd9abb7	-0.10628455
90	0x3dab6c93	0.08370318
91	0xbd4f11a7	-0.050553944
92	0xbd43ebe5	-0.04783239
93	0x3d56ed23	0.052472245
94	0xbd1c52fe	-0.038165085
95	0xbd86df0e	-0.06585513
96	0x3d4db868	0.05022469
97	0x3db88ffd	0.090118386
98	0xbc3020c6	-0.010750001
99	0xbd88052c	-0.066416115
100	0xbd45b3c3	-0.048267137
101	0xbd415405	-0.047199268
102	0xbbeb2898	-0.00717647
103	0xbe22a0c3	-0.15881638
104	0x3b41cd70	0.0029571913
105	0xbce8d91d	-0.02842384
106	0x3b22717b	0.0024786878
107	0x3d81cd43	0.06337979
108	0x3b23e516	0.0025008372
109	0x3d138cfc	0.036023125
110	0xbda1ccdb	-0.07900401
111	0x3c8ebbfe	0.017423626
112	0xbd0e38a3	-0.03472198
113	0xbd7b6b1c	-0.061381444
114	0x3c7e0c17	0.015505812
115	0xbd04e072	-0.03244061
116	0xbd8ad078	-0.067780435
117	0xbc9a8fe3	-0.018867439
118	0xbe0b8bcb	-0.13627546
119	0xbd7e6a43	-0.062113058
120	0x3ced6f5b	0.028983762
121	0x3b41e045	0.0029583138
122	0x3d0d91ba	0.034562804
123	0xbd9c80a4	-0.07641724
124	0xbe158e91	-0.14605166
125	0x3d0c5635	0.0342619
126	0x3d237a7f	0.039911743
127	0x3d9a0a5a	0.07521506
128	0x3d31f12e	0.043442897
129	0xbdd11d79	-0.102106996
130	0x3d64a711	0.05582339
131	0x3de5e122	0.11224581
132	0x3db571aa	0.0885957
133	0x3bd1119f	0.0063802744
134	0xbe87fedd	-0.26561633
135	0xbde25455	-0.11051241
136	0xbe283486	-0.16426286
137	0x3dc7298c	0.09724721
138	0xbef906b6	-0.48637933
139	0xbddc304d	-0.107514
140	0xbcaed5ed	-0.021342242
141	0xbd1589fc	-0.036508545
142	0xbe78324a	-0.24237934
143	0xbe989cd8	-0.29807162
144	0x3aaf1092	0.0013356379
145	0x3db61eae	0.088925704
146	0xbd45f1b0	-0.048326194
147	0xbd96f1de	-0.07370351
148	0xbdc5bf80	-0.09655666
149	0x3db0f451	0.0864035
150	0xbcd7a7e6	-0.026325177
151	0xbcfe23fe	-0.031023022
152	0xbe9982c7	-0.29982588
153	0xbd3b1f3c	-0.045684084
154	0xbe2b9f32	-0.16759947
155	0xbd74c30c	-0.059756324
156	0xbdfda6af	-0.12385308
157	0x3d9fb33b	0.077978574
158	0xbe6b9e4f	-0.23009609
159	0xbd162840	-0.03665948
160	0x3d8f674d	0.07002125
161	0xbee13a97	-0.43990013
162	0xbaa5bf79	-0.0012645564
163	0x3dfafeba	0.122556165
164	0xbc2951c3	-0.010334435
165	0xbf0e3dbc	-0.5556295
166	0xbe80b1f1	-0.2513576
167	0xbe0e935b	-0.13923399
168	0x3d22adae	0.039716415
169	0xbe9ad2d7	-0.30238983
170	0xbea228d4	-0.31671774
171	0x3cf54eb0	0.029944748
172	0xbe7f5bd8	-0.2493738
173	0xbdb3f8c2	-0.08787681
174	0x3d352b06	0.044230483
175	0x3e406949	0.18790163
176	0x3d17fe80	0.037107944
177	0xbc906e6c	-0.017630778
178	0xbebe005f	-0.37109658
179	0x3d1bdbd8	0.038051456
180	0xbd824cb8	-0.06362289
181	0x3dd3040a	0.10303505
182	0xbed2ce56	-0.41173047
183	0xbda95437	-0.08268016
184	0xbf2def9b	-0.67943734
185	0x3d52288c	0.0513082
186	0x3e249631	0.16072918
187	0xbd04330e	-0.032275252
188	0xbe2110a4	-0.15729004
189	0x3d33bbff	0.04388046
190	0xbdce73a8	-0.100806534
191	0xbe8b2b73	-0.27181587
192	0x3cd25409	0.025674837
193	0x3cc2428b	0.02371337
194	0x3c9da465	0.019243428
195	0xbd9f56f2	-0.077802554
196	0xbdda4544	-0.106577426
197	0xbda895d2	-0.08231701
198	0xbd8a0411	-0.06739057
199	0x3db989a9	0.0905946
200	0xbd3815c2	-0.044942625
201	0x3e824cc1	0.25449184
202	0xbe7fe5a0	-0.24989939
203	0x3ca6eee8	0.020377591
204	0xbd93db27	-0.07219534
205	0x3dabc791	0.08387674
206	0xbd552926	-0.052041195
207	0xbefc335f	-0.49257943
208	0x3cc3345c	0.023828678
209	0xbeb4825d	-0.3525571
210	0x3df6fd1b	0.12059995
211	0x3d5afbef	0.05346292
212	0xbcb3c710	-0.021945506
213	0x3d3cdbb4	0.046107963
214	0x3eebc194	0.46046126
215	0x3d67de6e	0.05660861
216	0xbf39e999	-0.72622067
217	0xbe930c3e	-0.28720278
218	0x3d77b750	0.060477555
219	0x3befe20f	0.0073206495
220	0xbd595041	-0.05305505
221	0x3d741e29	0.059599075
222	0x3d59b010	0.053146422
223	0xbe3a3d12	-0.18187359
224	0xbdd10cbd	-0.10207508
225	0xbdafc3e3	-0.08582284
226	0xbf11fb2d	-0.5702389
227	0x3da25f01	0.07928277
228	0x3d8d78f1	0.06907833
229	0xbda4917b	-0.08035561
230	0xbe09379e	-0.13400123
231	0xbec4645d	-0.3835782
232	0xbe92e9c5	-0.28693977
233	0xbee6d5a3	-0.45084867
234	0xbe282691	-0.16420962
235	0xbe2117ef	-0.15731786
236	0xbd322841	-0.04349542
237	0xbe7ed55c	-0.24886078
238	0x3e875bd9	0.26437262
239	0x3d0b0e57	0.033949222
240	0x3da5bf7d	0.08093164
241	0x3c6c8a54	0.014437277
242	0xbcc5a8c8	-0.024128333
243	0x3d4c13a1	0.049823407
244	0x3c93f0ae	0.018059101
245	0xbc29787d	-0.010343668
246	0xbf3071ac	-0.6892345
247	0x3dd86cdf	0.105676405
248	0xbcc63ee8	-0.024199918
249	0x3d908726	0.070570275
250	0xbc817ed1	-0.015807541
251	0x3e8edff9	0.27905253
252	0x3e57dd2b	0.21080463
253	0x3dc74010	0.09729016
254	0x3d8ba7e2	0.068191305
255	0x3c66faa1	0.0140978405

Network_stack.0.0.gru.weight_hh_l0 f4 [384, 128]
0	0x3b451db1	0.0030077512
1	0x3d47e4c8	0.048802167
2	0x3d9b16d8	0.075727165
3	0xbd6f99d9	-0.05849633
4	0xbdd9af56	-0.10629146
5	0xbd65d044	-0.05610682
6	0xbdb79049	-0.08963067
7	0xbd442c51	-0.047893826
8	0x3badf8e7	0.0053092125
9	0x3d69edf0	0.05711168
10	0xbc5cbdd3	-0.013472992
11	0x3c913835	0.017726997
12	0x3ca84ffa	0.020545948
13	0xba4f9c3e	-0.0007919705
14	0x3cff9bd7	0.03120224
15	0xbdc95235	-0.09830133
16	0x3de8af6f	0.11361586
17	0x3d21bdc8	0.03948763
18	0x3da5b730	0.08091581
19	0x3dbed319	0.093176074
20	0xbc29424f	-0.010330751
21	0xbc3080e0	-0.010772914
22	0xbd3ac681	-0.045599464
23	0x3aa999bd	0.0012939494
24	0x3dcd6ac7	0.10030132
25	0x3d9c620c	0.076358885
26	0x3d4f6b39	0.050639365
27	0xbd8fe8b7	-0.07026809
28	0xbce03839	-0.027370559
29	0x3ddeb6fb	0.108747445
30	0x3dcef685	0.101056136
31	0xbcbf00da	-0.023315836
32	0xbdec59be	-0.115405545
33	0xb9af4724	-0.00033431605
34	0x3d3400af	0.043945964
35	0xbd42ee50	-0.047590554
36	0xbda50406	-0.08057408
37	0x3dbf14dd	0.09330151
38	0xbd6de29f	-0.05807745
39	0xbd783bec	-0.06060402
40	0xbc51c40f	-0.012803092
41	0xbdafbeee	-0.08581339
42	0x3b89d866	0.004206705
43	0xbdf0329e	-0.117284045
44	0x3d409a63	0.047022235
45	0x3926bd97	0.00015901621
46	0x3de8f981	0.11375714
47	0xbd4640a6	-0.048401497
48	0x3cf54574	0.029940344
49	0xbd4be21a	-0.049776174
50	0xbd5c4800	-0.053779602
51	0xbcb246ef	-0.02176234
52	0x3dccf84b	0.100082956
53	0x3d351825	0.04421248
54	0x3ab4ba8b	0.0013788504
55	0x3da80af8	0.08205217
56	0xbc610a0a	-0.013735304
57	0x3cce5ea7	0.025191618
58	0xbd375993	-0.04476316
59	0xbc59cde1	-0.013293714
60	0x3d50fd35	0.051022727
61	0x3b257927	0.0025249214
62	0xba8052e9	-0.0009790334
63	0x3dafaf15	0.08578316
64	0x3d2cd21b	0.04219256
65	0xbd81e31e	-0.06342147
66	0x3dfb07bf	0.12257337
67	0xbd0aed38	-0.033917636
68	0x3da5d9da	0.080981925
69	0xbda50bf3	-0.0805892
70	0x3d8182a0	0.06323743
71	0x3dd686c7	0.104749255
72	0xbb4d7bc3	-0.0031354285
73	0x3d560984	0.05225517
74	0x3da3ca31	0.07997549
75	0x3cd89755	0.026439348
76	0xbcd73cb4	-0.026274063
77	0x3d9e5655	0.0773131
78	0x3ca97246	0.020684373
79	0x3d824f22	0.0636275
80	0x3de9d32c	0.11417231
81	0x3cdfe030	0.02732858
82	0x3d6038df	0.054741737
83	0x3d659d40	0.05605817
84	0xbd95462a	-0.07288773
85	0xbd70fde0	-0.058835864
86	0xbd3502e6	-0.044192217
87	0xbd6a522a	-0.057207264
88	0xbda87d66	-0.08227043
89	0x3d4c948b	0.04994635
90	0x3cc51bda	0.024061132
91	0x3da5e8bd	0.08101032
92	0xbc865437	-0.016397579
93	0x3dcf2e69	0.10116274
94	0x3c495397	0.012287996
95	0xbd201bb5	-0.039088923
96	0xbc0131c8	-0.007885404
97	0x3c674d7b	0.014117594
98	0xbc3745e6	-0.011186099
99	0xbcdd006d	-0.026977742
100	0x3d0efe09	0.034910236
101	0x3d6d0f59	0.057875965
102	0xbd0813a8	-0.03322187
103	0xbdb5b386	-0.08872132
104	0x3d7a872d	0.06116407
105	0xbdc95377	-0.09830373
106	0x3b97db3a	0.004634288
107	0x3dea4ea6	0.11440782
108	0xbbbd2017	-0.0057716477
109	0x3dd5374f	0.1041094
110	0x3d9dbd07	0.0770207
111	0xbbcb6fd9	-0.0062084016
112	0x3dfe89d0	0.124286294
113	0xbda6dc0a	-0.08147438
114	0xba9c5297	-0.0011926469
115	0x3d082909	0.03324226
116	0xbd9e75a1	-0.0773728
117	0x3cbbb0fc	0.022911541
118	0x3d8f595a	0.06999464
119	0xbd72eff3	-0.059310865
120	0xbcaa915e	-0.02082127
121	0xbd185e17	-0.037199106
122	0xbde00715	-0.10938851
123	0xbd80f533	-0.06296768
124	0xbc4cf3d4	-0.012509305
125	0x3d143283	0.036180984
126	0x3cd3001d	0.02575689
127	0x3de431e8	0.11142331
128	0xbd9997b9	-0.07499642
129	0x3d659126	0.056046627
130	0x3d997a9e	0.074940905
131	0x3cc789d4	0.024357714
132	0x3c2f0ee9	0.010684707
133	0x3d85a63a	0.06525846
134	0x3d7ca54b	0.061681073
135	0x3dc1f1cb	0.094699465
136	0xbd691b46	-0.056910776
137	0x3cbcd068	0.023048595
138	0xbcfcd955	-0.03086535
139	0x3d049294	0.03236635
140	0x3d9bf135	0.07614366
141	0xbd92dd96	-0.071711704
142	0xbc09c75e	-0.008409349
143	0xbd113667	-0.035452273
144	0x3d333429	0.043750916
145	0xbd5545fc	-0.052068695
146	0xbd4882aa	-0.048952736
147	0x3c716976	0.0147346165
148	0xbcdc63eb	-0.026903113
149	0x3d99bc2e	0.075065956
150	0x3da02b8e	0.078208074
151	0xbc5809f0	-0.013185963
152	0x3d695925	0.05696978
153	0xbc8b5142	-0.01700652
154	0x3d8bf9c1	0.06834746
155	0xbd80c6c5	-0.06287912
156	0x3da172bd	0.07883213
157	0xbd85e75d	-0.0653827
158	0x3d42306f	0.04740947
159	0xbd86e558	-0.065867126
160	0x3d47b628	0.048757702
161	0xbd68c141	-0.056824926
162	0xbdac13ad	-0.0840219
163	0x3caffe59	0.021483587
164	0x3b562933	0.0032678365
165	0x3da15900	0.078783035
166	0xbd6217ec	-0.055198595
167	0x3d64c35e	0.05585038
168	0x3d634d22	0.05549348
169	0xbd9b9b1a	-0.07597943
170	0xbdb32eed	-0.08749185
171	0x3cea45af	0.02859768
172	0xbd975fd4	-0.07391325
173	0x3c8ba79a	0.017047692
174	0x3d725fbc	0.05917333
175	0xbdbbf0a3	-0.09176757
176	0x3d31ebe9	0.043437872
177	0x3d3ebbd0	0.04656583
178	0xbd06b40c	-0.03288655
179	0x3d873ff3	0.06603994
180	0x3d8fcea9	0.07021839
181	0x3ce31b60	0.027723014
182	0xbd92735f	-0.071509115
183	0xbd88c4d7	-0.06678169
184	0x3c059e2c	0.008155387
185	0xbc95de3f	-0.018294452
186	0x3d95cc97	0.07314413
187	0x3d9a980a	0.075485304
188	0x3cd2304b	0.025657794
189	0xbd9e8daa	-0.07741864
190	0xbd79393a	-0.06084559
191	0x3cfa91f5	0.030587176
192	0xbd463fe3	-0.04840077
193	0x3d0b6b78	0.034038037
194	0xbd6097b8	-0.05483219
195	0xbd7ba889	-0.061440025
196	0xbdb0750e	-0.086160764
197	0x3d5890dd	0.052872527
198	0xbdc5934d	-0.09647236
199	0xbd774430	-0.060367763
200	0x3da1ce47	0.079006724
201	0xbd0d9b29	-0.0345718
202	0xbc1a7638	-0.0094276
203	0xba643258	-0.00087050116
204	0x3da44e25	0.080227174
205	0xbcc67742	-0.024226788
206	0x3d916b9a	0.071006015
207	0x3d4baffa	0.04972837
208	0x3d89c85f	0.06727671
209	0xbcafe727	-0.021472527
210	0xbd98c5d0	-0.07459605
211	0x3d6aadca	0.057294644
212	0x3c7bcca9	0.015368619
213	0xbcd18368	-0.025575355
214	0xbb89192b	-0.0041839085
215	0xbcdcb760	-0.026942909
216	0x3cbc671e	0.022998389
217	0xbc525efc	-0.012840029
218	0x3d0ee044	0.034881845
219	0x3dc94dfa	0.09829326
220	0xbdb06d17	-0.08614557
221	0xbcaea3f3	-0.021318411
222	0xbd9807ce	-0.074233636
223	0x3d298a22	0.0413915
224	0xbd9775ea	-0.07395537
225	0x3c3cadf6	0.011516085
226	0x3c956ffd	0.018241877
227	0x3dad03a3	0.08447959
228	0xbc072e6a	-0.008250812
229	0xbd82926a	-0.063755825
230	0x3d7fa685	0.062414665
231	0xbd00248e	-0.03128486
232	0x3cbfb815	0.023403207
233	0xbc389f66	-0.011268472
234	0xbb7b787b	-0.0038371373
235	0x3cdcaae2	0.026936952
236	0x3cb81044	0.022468694
237	0xbd83d095	-0.06436268
238	0xbd039c7e	-0.032131664
239	0xbd93efff	-0.0722351
240	0xbc3453e0	-0.0110063255
241	0x3d4386ef	0.047736105
242	0x3c86746c	0.016412936
243	0xbc920081	-0.017822506
244	0xbd53b0d4	-0.05168231
245	0x3cf34da3	0.029700106
246	0xbd477329	-0.04869381
247	0xbc72fc35	-0.014830639
248	0x3da760d6	0.08172767
249	0xbda0fed0	-0.078611016
250	0x3c338162	0.01095614
251	0xbd3f9cc4	-0.046780363
252	0x3d00c506	0.031437896
253	0x3d8e9294	0.06961551
254	0xbd9fee36	-0.07809107
255	0xbdb43d9f	-0.08800816

Network_stack.0.0.gru.bias_ih_l0 f4 [384]
0	0xbac58afe	-0.001507133
1	0x3d26a61c	0.040685758
2	0x3c8af62e	0.01696309
3	0xbd026499	-0.03183422
4	0x3d28e729	0.041236077
5	0xbdb7726d	-0.08957372
6	0xbd1abc6b	-0.037777346
7	0xbd9a26a2	-0.075269
8	0xbe00f556	-0.12593588
9	0x3dc52c8a	0.09627636
10	0xbe013a47	-0.12619887
11	0xbd3720b1	-0.04470891
12	0xbaf2db79	-0.0018528543
13	0x3cec952c	0.028879724
14	0xbcd5f2d4	-0.026116766
15	0xbd8566fa	-0.06513782
16	0xbd3793ea	-0.044818796
17	0x3d08411e	0.033265226
18	0x3cacbbaf	0.021085588
19	0xbdf6a5a2	-0.12043311
20	0xbd5438ee	-0.051812105
21	0xbd4c3af5	-0.049860913
22	0x3cacaf21	0.021079602
23	0xbd3c2e75	-0.045942742
24	0x3cc370f8	0.023857579
25	0x3d738c1b	0.059459787
26	0xbd8082e5	-0.06274966
27	0xbdcc421b	-0.09973546
28	0x3d0d305f	0.03446996
29	0xbdab73cc	-0.08371696
30	0x3c9e6871	0.01933691
31	0x3c8151bd	0.015786046
32	0xbd2b58dd	-0.041832794
33	0xbe04346d	-0.12910624
34	0xbd599e35	-0.053129394
35	0xbda9ffed	-0.08300767
36	0xbe0404d5	-0.12892468
37	0xbc0dabd8	-0.008646928
38	0xbcede8dd	-0.029041702
39	0xbc7f605b	-0.015586938
40	0x3d3163ac	0.043307945
41	0x3c8f003a	0.017456163
42	0x3d912097	0.07086294
43	0x3cc3286a	0.023822982
44	0x3c162676	0.009164443
45	0xbd794f5d	-0.060866702
46	0x3d564f90	0.05232197
47	0xbd0ff5d8	-0.035146564
48	0xbdda0858	-0.10646123
49	0xbda35dea	-0.07976897
50	0x3b1c57c6	0.0023856028
51	0x3da2776f	0.079329364
52	0xbd8d2a38	-0.06892818
53	0xbc34c945	-0.0110343145
54	0xbda4008e	-0.08007918
55	0x3d07ef1e	0.033187024
56	0xbd732b8b	-0.059367698
57	0xbd722a86	-0.059122585
58	0x3ae2cdb4	0.0017303736
59	0x3d5cbf00	0.05389309
60	0x3bcdce86	0.006280723
61	0xbd0d64e8	-0.03452006
62	0xbd4452a0	-0.04793036
63	0x3bdc421d	0.0067217485
64	0xbd8ce2e2	-0.06879212
65	0xbcd8c8f2	-0.026463006
66	0xbbc93141	-0.0061399047
67	0x3d50687c	0.050880894
68	0xbc283991	-0.010267631
69	0xbdb6a2f8	-0.089178026
70	0xbd558c93	-0.052136015
71	0x3d87d687	0.06632715
72	0xbd7356fd	-0.05940913
73	0xbdb445f5	-0.08802406
74	0x3daae355	0.083441414
75	0x3cd0bc4b	0.02548041
76	0xbd86bb98	-0.065787494
77	0x3d4f4446	0.05060222
78	0x3d55d631	0.052206222
79	0xbd223cfb	-0.039608937
80	0xbda48ad9	-0.080342956
81	0x3c955a88	0.018231645
82	0x3d3d65a0	0.046239495
83	0x3d97198e	0.07377921
84	0x3b2c2d66	0.0026272177
85	0x3dac48f1	0.0841235
86	0xbda9e31c	-0.08295271
87	0xbdd4d17b	-0.10391518
88	0x3cc1a9b3	0.02364049
89	0x3ddebc23	0.10875728
90	0xbd266141	-0.040620092
91	0x3c978897	0.018497748
92	0x3d4e33d4	0.050342396
93	0xbd70db0b	-0.058802646
94	0xbccc3809	-0.024929063
95	0xb99a6aee	-0.00029452838
96	0x3cca2eb0	0.024680465
97	0x3d3dcb44	0.046336427
98	0xbce076cb	-0.027400395
99	0x3cfd5f13	0.030929124
100	0x3d466610	0.048437178
101	0xbc765933	-0.015035915
102	0xbce61208	-0.02808477
103	0x3c9fbfd3	0.019500649
104	0xbde55e20	-0.111995935
105	0xbd7835bb	-0.060598116
106	0x3bb9c220	0.0056688935
107	0x3c53af2c	0.012920182
108	0x3d6e27b0	0.058143318
109	0xbc5ae5fb	-0.013360496
110	0xbd321cce	-0.0434845
111	0xbd630333	-0.055422973
112	0xbccfad66	-0.025351238
113	0xbd9df371	-0.077124484
114	0xbd4c8232	-0.04992885
115	0xbbe9061f	-0.0071113254
116	0x3cdc14cf	0.026865391
117	0xbdb51a97	-0.08842962
118	0xbd56652f	-0.05234259
119	0x3cf61826	0.030040812
120	0x3d52bc9b	0.0514494
121	0xbd4a3f0d	-0.049376536
122	0xbd2fcf54	-0.042922333
123	0x3db1bbd2	0.08678402
124	0x3bcd5146	0.006265792
125	0x3d60128a	0.05470518
126	0x3d89418a	0.06701954
127	0xbcebf45f	-0.028803049
128	0x3e39e3ea	0.18153349
129	0xbcc795c0	-0.024363399
130	0x3e15c921	0.14627506
131	0x3d98bac8	0.07457501
132	0xbe428a0f	-0.18997978
133	0xbe10c836	-0.14138874
134	0xbe5baccd	-0.21452637
135	0xbcfc9d84	-0.030836828
136	0xbe7c3c7d	-0.2463245
137	0x3ce83323	0.028344696
138	0xbeea8149	-0.45801762
139	0xbda0839b	-0.07837602
140	0xbc3caf28	-0.01151637
141	0xbe967103	-0.29383096
142	0xbe3fa112	-0.18713787
143	0xbef829f0	-0.48469496
144	0x3d1376dd	0.03600203
145	0x3d6600bf	0.056153055
146	0x3d53c75a	0.05170379
147	0xbe9bd6b3	-0.3043724
148	0xbc3f7e0a	-0.011687765
149	0x3ceb2581	0.028704407
150	0xbd904057	-0.07043522
151	0xbde1f031	-0.11032141
152	0xbe892b60	-0.26790905
153	0xbdb19c17	-0.0867235
154	0xbe3c0ea4	-0.1836496
155	0xbda3ab2b	-0.07991632
156	0xbdc028fe	-0.09382819
157	0x3e2b7d7f	0.16747092
158	0xbe5efb10	-0.2177546
159	0xbe28b25f	-0.16474293
160	0xbd1af325	-0.037829537
161	0xbeeae7b1	-0.45879892
162	0x3dd8494f	0.105608575
163	0x3d9a0737	0.07520907
164	0x3d0dd645	0.03462817
165	0xbf023651	-0.5086413
166	0xbd0b1e48	-0.033964425
167	0xbeb35e71	-0.3503299
168	0x3df675e5	0.12034205
169	0xbed28802	-0.4111939
170	0xbe360a05	-0.1777726
171	0xbdb84175	-0.0899686
172	0xbe35fdb8	-0.17772567
173	0xbdc05eb3	-0.093930624
174	0xbd067fcb	-0.032836717
175	0xbe411e69	-0.18859257
176	0x3e1d6fe8	0.1537472
177	0x3d92d790	0.071700215
178	0xbe9c4539	-0.30521563
179	0x3d284808	0.04108432
180	0xbe192dde	-0.14958903
181	0x3ddb862a	0.10718949
182	0xbe87f5be	-0.26554674
183	0xbdd13f7d	-0.102171876
184	0xbecc87df	-0.3994741
185	0x3d50231d	0.050814737
186	0xbdb61df9	-0.088924356
187	0xbd7e19b3	-0.062036227
188	0xbd5ca138	-0.053864688
189	0x3e40cb7e	0.18827626
190	0xbeb49161	-0.35267165
191	0xbeb13a70	-0.34614897
192	0x3dbd12d5	0.092321075
193	0x3d2c2d81	0.042035583
194	0x3e006743	0.12539391
195	0xbd01416a	-0.031556524
196	0xbe4acff7	-0.19805895
197	0xbd7d3038	-0.061813563
198	0xbea75bdb	-0.32687268
199	0x3e1dde0e	0.15416738
200	0xbea16d57	-0.31528732
201	0x3d75cd89	0.060010467
202	0xbdff0a20	-0.12453103
203	0xbe3d69a5	-0.18497331
204	0x3c2cd9eb	0.010550003
205	0x3da55903	0.08073618
206	0xbd7a8c2a	-0.061168827
207	0xbe8b9218	-0.27259898
208	0x3cfcdb62	0.030866329
209	0xbe48d149	-0.19611086
210	0xbd129232	-0.035783954
211	0x3d946c00	0.07247162
212	0x3d01053c	0.031499133
213	0xbe0b68a4	-0.13614136
214	0x3debf141	0.11520625
215	0x3d11efe5	0.035629172
216	0xbeb39a94	-0.3507887
217	0xbe8e97af	-0.278501
218	0x3e3ff4e8	0.18745768
219	0xbccc19b7	-0.024914606
220	0x3c693747	0.014234371
221	0x3e451154	0.19244891
222	0xbdb37eab	-0.087643944
223	0xbe499a4f	-0.1968777
224	0x3db2d54c	0.087320894
225	0x3dc5b1b8	0.09653038
226	0xbea97372	-0.3309589
227	0x3dd9d834	0.106369406
228	0x3d80406c	0.062622875
229	0x3a8f58c6	0.0010936491
230	0xbda7b8e7	-0.08189564
231	0xbf1b9e13	-0.6078808
232	0xbe86e8c6	-0.26349467
233	0xbe6845a7	-0.2268282
234	0x3d18f561	0.037343387
235	0xbdf4f91c	-0.11961576
236	0x3c78f49b	0.015195037
237	0xbe462406	-0.1934968
238	0x3cdcbd34	0.026945688
239	0x3e19ec28	0.15031493
240	0xbca6a890	-0.020344049
241	0xbd3c34c4	-0.04594876
242	0x3da1a5d1	0.07892955
243	0x3dc0d3af	0.094153754
244	0x3dc6fd03	0.09716227
245	0xbdc352fb	-0.09537312
246	0xbea6bdaa	-0.32566577
247	0x3d79d9c6	0.0609987
248	0xbd10422f	-0.035219368
249	0x3e27d361	0.16389228
250	0x3a1d7a42	0.00060072925
251	0x3de8a600	0.11359787
252	0xbe880d97	-0.26572868
253	0x3e0c1ce7	0.136829
254	0xbc2aaebc	-0.0104176365
255	0x3d1619d6	0.036645733

Network_stack.0.0.gru.bias_hh_l0 f4 [384]
0	0x3d615ec9	0.055022035
1	0xbd9a113f	-0.07522821
2	0xba2474df	-0.00062735187
3	0x3d53fa97	0.051752653
4	0x3e0e5278	0.13898647
5	0xbd894e51	-0.06704391
6	0x3d90d4e2	0.07071854
7	0x3c7c8fb7	0.015415124
8	0x3d0a2f5d	0.033736575
9	0xbd8aa2ec	-0.06769356
10	0xbdca49a0	-0.09877324
11	0x3d6b4c80	0.057446003
12	0xbd12f3da	-0.035877086
13	0x3c5d1e06	0.013495928
14	0x3beff441	0.0073228185
15	0xbdb4a7a2	-0.08821036
16	0xbd69da80	-0.057093143
17	0x3d78d0b4	0.06074591
18	0xbcb592b7	-0.022164686
19	0xbd29d707	-0.04146483
20	0xbd871946	-0.065966174
21	0x3d2c9d3d	0.04214214
22	0x3d6dc70d	0.058051158
23	0xbc6201b4	-0.013794351
24	0x3d224224	0.039613858
25	0x3d94c97e	0.07264994
26	0x3d92865e	0.07154535
27	0xbd872150	-0.06598151
28	0x3caf0601	0.021365168
29	0xbcbf41bb	-0.023346772
30	0xbda95aa0	-0.082692385
31	0x3c42a8d2	0.01188107
32	0xbae55a8a	-0.0017498296
33	0xbe1ebf61	-0.15502693
34	0xbd760593	-0.06006391
35	0x3cf218da	0.029552866
36	0xbd4fc149	-0.05072144
37	0xbdfd5f22	-0.12371661
38	0xbd943cad	-0.072381355
39	0xbd62d67e	-0.055380337
40	0x3c14232d	0.00904159
41	0x3c340a12	0.010988729
42	0x3d4687a6	0.04846921
43	0x3dc62551	0.09675086
44	0x3ce23097	0.02761106
45	0xbd9c414e	-0.076296434
46	0x3dc7cf0b	0.09756287
47	0x3d11aaa1	0.035563115
48	0x3d29f2e3	0.0414914
49	0x3d488403	0.04895402
50	0xbdbf8d95	-0.093531765
51	0xbd966d57	-0.07345074
52	0x3d2b5713	0.041831087
53	0x3d52461f	0.051336404
54	0xbd0b6cfb	-0.03403948
55	0x3be3b15d	0.0069486336
56	0x3cd1584b	0.025554797
57	0xbd4ec8c6	-0.05048444
58	0x3d54545d	0.051838268
59	0xbdb5c387	-0.088751845
60	0xbda5aeac	-0.08089957
61	0x3bc1be34	0.0059125666
62	0xbded3496	-0.115822956
63	0xbc8e5556	-0.017374676
64	0xbcdd1473	-0.02698729
65	0x3b547d56	0.003242334
66	0x3d8d1ebb	0.06890627
67	0xbd8acca0	-0.0677731
68	0x3dd67dcf	0.10473215
69	0x3bb9b2d7	0.0056670713
70	0xbdd7b236	-0.10532038
71	0x3d6bbf53	0.057555508
72	0xbd8fb462	-0.07016827
73	0x3c0fc106	0.008774048
74	0x3c234537	0.009965233
75	0xbd91217e	-0.07086466
76	0x3d2540f8	0.040345162
77	0x3d775d1e	0.060391538
78	0xbc7ad957	-0.015310607
79	0xbdd8a174	-0.1057767
80	0xbbc87aaa	-0.0061181383
81	0x3c7a06f1	0.015260444
82	0x3cf8e6f3	0.030383563
83	0x3d526fde	0.051376216
84	0xbd46c8ce	-0.048531346
85	0x3dbd0901	0.09230233
86	0xbde0059c	-0.1093857
87	0xbd13b7aa	-0.036063828
88	0x3dc7ce3b	0.09756132
89	0xbd226d59	-0.039655063
90	0xbd92a979	-0.071612306
91	0xbba9764e	-0.0051715737
92	0x3d5bf1bc	0.053697333
93	0x3d5e6f2d	0.054305244
94	0xbd7b5ee1	-0.06136978
95	0x3d5dfcc2	0.054196127
96	0xbbc84a7d	-0.0061123953
97	0xbd17e3d0	-0.037082493
98	0x3d25d6a7	0.04048791
99	0xbd1bef34	-0.03806992
100	0xbd9f4bbf	-0.07778119
101	0x3dfc40a4	0.12317017
102	0xbd442994	-0.047891214
103	0x3ce4e68d	0.027941966
104	0x3cb1cc3e	0.021703836
105	0xbd6a1f96	-0.05715903
106	0xbcf8df91	-0.030380042
107	0xbe11d358	-0.14240777
108	0xbd268969	-0.04065839
109	0x3b64bbfe	0.003490209
110	0xbbfd292d	-0.007725856
111	0xbd2d27f7	-0.04227444
112	0xbc6330f1	-0.013866649
113	0xbd878739	-0.066175885
114	0xbda8787e	-0.08226107
115	0xbcb6b823	-0.0223046
116	0x3d382480	0.044956684
117	0xbd90bad5	-0.070668854
118	0xbd021651	-0.031759564
119	0x3d9b780b	0.07591256
120	0x3d72774a	0.059195794
121	0xbd87d5ba	-0.06632562
122	0xbc50665f	-0.01271972
123	0x3d1a4617	0.0376645
124	0xbcbbcab5	-0.022923807
125	0x3d63ace8	0.055584818
126	0x3d824981	0.06361676
127	0xbde4c6ae	-0.11170708
128	0x3da1ed99	0.07906646
129	0x3d1af594	0.037831858
130	0x3d3df53a	0.046376444
131	0x3c2a9b2a	0.010412971
132	0xbd20e227	-0.039278176
133	0xbdaa48bc	-0.08314654
134	0xbdeffad2	-0.11717762
135	0xbdc32b73	-0.09529772
136	0xbe7a11b5	-0.24420817
137	0x3e1117cc	0.14169234
138	0xbec6e11f	-0.3884363
139	0xbdd47409	-0.103736944
140	0x3d0a6021	0.033783082
141	0xbe6953e4	-0.22785908
142	0xbdfc0703	-0.12306025
143	0xbf00d359	-0.5032249
144	0x3cb264b2	0.02177653
145	0x3dc75174	0.09732333
146	0xbdd07926	-0.10179357
147	0xbe97021a	-0.2949379
148	0xbd6ce621	-0.057836656
149	0x3cf19d5f	0.029493986
150	0xbd4dc20a	-0.05023388
151	0xbe44fc7b	-0.19236939
152	0xbe9eef28	-0.31041837
153	0xbb8758d1	-0.004130461
154	0xbe220910	-0.1582377
155	0xbdf44ce7	-0.119287305
156	0xbd871e9a	-0.06597634
157	0x3e23dd3c	0.16002363
158	0xbe2026e0	-0.1563983
159	0xbda7fa53	-0.082020424
160	0xbd11e358	-0.035617203
161	0xbed1a13f	-0.40943334
162	0x3e23fc2f	0.16014169
163	0x3e165fd9	0.14685
164	0xbd82d65c	-0.06388542
165	0xbed12a3f	-0.40852544
166	0xbe23ec2e	-0.16008064
167	0xbead2e6b	-0.33824477
168	0x3d873281	0.0660143
169	0xbf0526a9	-0.52012116
170	0xbdf74151	-0.12073005
171	0xbdf8b2bd	-0.121434666
172	0xbd8c7807	-0.06858831
173	0x3d0a0886	0.033699535
174	0xbdaf47dd	-0.08558629
175	0xbdc44fb6	-0.09585516
176	0x3da5c37d	0.08093927
177	0x3e1d2ab1	0.15348317
178	0xbecdd27c	-0.4019965
179	0x3d86c4e4	0.06580523
180	0xbda112a0	-0.078648806
181	0x3dad7f6c	0.084715694
182	0xbdf1c3a0	-0.11804891
183	0xbe147284	-0.14496809
184	0xbedcb76b	-0.43108687
185	0x3c903a1c	0.017605834
186	0xbdcf7887	-0.10130411
187	0xbdeeaaed	-0.11653695
188	0xbdc532c6	-0.09628825
189	0x3d4015ef	0.046895918
190	0xbe92bd84	-0.28660214
191	0xbe7774de	-0.24165675
192	0x3dd6d159	0.10489149
193	0xbca7b0ac	-0.020469986
194	0x3e2d3329	0.16914047
195	0xbd97b633	-0.074077986
196	0xbe3c6814	-0.18399078
197	0xbd562c12	-0.052288122
198	0xbea32e28	-0.31871152
199	0x3d48a826	0.048988484
200	0xbe657251	-0.2240689
201	0x3ca576b2	0.0201982
202	0xbe2003c6	-0.1562644
203	0xbda2f047	-0.079559855
204	0x3c3856e3	0.011251184
205	0x3cdc594c	0.026898049
206	0xbcf6cb7c	-0.030126326
207	0xbec7ccd6	-0.39023465
208	0x3dde2cf6	0.10848419
209	0xbe09d162	-0.1345878
210	0x3bcef7ca	0.00631616
211	0x3d917e6f	0.071041934
212	0x3cc698b2	0.024242733
213	0xbcd5178d	-0.026012206
214	0x3dc6c459	0.09705419
215	0xbcbec894	-0.023289002
216	0xbe85ddfe	-0.2614593
217	0xbe8acc20	-0.2710886
218	0x3d649ca6	0.055813454
219	0xbe2c43f8	-0.16822803
220	0xbd53797c	-0.05162953
221	0x3e49eb56	0.1971868
222	0xbe1a4857	-0.15066658
223	0xbe68eaf2	-0.22745875
224	0xbd0b2b74	-0.033976987
225	0x3cf2f19d	0.029656226
226	0xbeada753	-0.3391672
227	0x3d417a53	0.047235798
228	0x3cf292ae	0.029610958
229	0xbdf858bd	-0.121263005
230	0xbe04a4e6	-0.12953529
231	0xbedfca4f	-0.43709037
232	0xbe436b87	-0.19083987
233	0xbe85ef32	-0.26159054
234	0xbd7e4bc0	-0.06208396
235	0xbcf9b721	-0.03048283
236	0x3ca229e3	0.019795364
237	0xbdc516a1	-0.09623457
238	0x3e366044	0.1781016
239	0x3e3b88c7	0.18313895
240	0xbcf801fc	-0.030274384
241	0xbccaf898	-0.024776742
242	0x3aa4e48c	0.0012580319
243	0x3cfd7315	0.030938664
244	0x3da34753	0.079725884
245	0xbdae7a87	-0.08519464
246	0xbebb113b	-0.36536583
247	0x3d80a288	0.062810004
248	0xbc60a4dd	-0.0137111815
249	0x3dcc001c	0.09960958
250	0x3d8fb759	0.07017393
251	0x3de13930	0.10997236
252	0xbe66bfdc	-0.22534126
253	0x3e184433	0.14869766
254	0x3e0aa841	0.13540746
255	0x3cf35593	0.02970389

Network_stack.0.0.gru.weight_ih_l1 f4 [384, 128]
0	0x3de542e8	0.11194402
1	0x3bcd915a	0.006273431
2	0x3cc49c0a	0.024000186
3	0xbbc8ca92	-0.006127664
4	0xbd999fac	-0.07501158
5	0x3e0aa4fb	0.13539498
6	0xbbc8d015	-0.006128321
7	0xbd662e88	-0.05619672
8	0x3e20a791	0.15688922
9	0xbd7fe4be	-0.062474005
10	0xbe17c7bf	-0.14822291
11	0x3d99e6de	0.075147375
12	0x3c1b03b8	0.009461336
13	0x3db26099	0.08709831
14	0xbde68e74	-0.112576395
15	0xbc5ca1a1	-0.01346627
16	0x3cba8c1d	0.02277189
17	0xbdb165b2	-0.08661975
18	0x3d82637c	0.063666314
19	0xbd098d20	-0.033581853
20	0x3d87f519	0.066385455
21	0x3d4ff5e6	0.050771616
22	0xbcbe885b	-0.023258379
23	0x3d8ae0c6	0.067811534
24	0xbd6e71e1	-0.058214072
25	0xbe404d39	-0.18779458
26	0xbdf8ed2e	-0.121546134
27	0xbd809180	-0.06277752
28	0xbcde7a69	-0.02715798
29	0xbdf40b71	-0.11916245
30	0x3d88adc5	0.06673769
31	0x3d0184be	0.031620733
32	0xbd6279ca	-0.05529193
33	0x3d8b6ed7	0.068082504
34	0x3d0cf691	0.03441483
35	0x3ce274ce	0.027643587
36	0xbd8bdab6	-0.06828825
37	0xbe2df241	-0.16986944
38	0x3da262a3	0.0792897
39	0xbde1edcd	-0.11031685
40	0xbda18e17	-0.078884296
41	0x3dfb9a01	0.12285233
42	0x3b834df7	0.004007097
43	0xbbeacfdd	-0.0071658925
44	0x3e07b8ef	0.1325414
45	0xbd63718d	-0.055528212
46	0xbe176101	-0.14783098
47	0xbce34c07	-0.027746214
48	0xbc907f30	-0.017638773
49	0xbd5a95cd	-0.053365517
50	0xbcc14d3f	-0.023596404
51	0xbc814f6e	-0.015784945
52	0xbcd84d37	-0.026404006
53	0xbccff9dd	-0.025387699
54	0xbc912e8f	-0.017722396
55	0x3d27d769	0.040976916
56	0x3d899283	0.06717398
57	0x3d8e0189	0.069338866
58	0xbd8cdbfb	-0.068778954
59	0x3d9b8600	0.07593918
60	0xbe838c06	-0.25692767
61	0x3d822682	0.06355001
62	0x3cc1bb29	0.023648815
63	0xbbefc9ab	-0.007317742
64	0xbd3e77f3	-0.04650111
65	0x3d317b7c	0.043330655
66	0xbdc9e70d	-0.098585226
67	0x3d925c96	0.071465656
68	0xbd8b5ac0	-0.068044186
69	0xbd9343bb	-0.07190653
70	0x3c60fc5a	0.01373204
71	0xbc1222be	-0.008919416
72	0x3c928c57	0.017889185
73	0x3c047b47	0.008086032
74	0x3e0ca63e	0.13735291
75	0xbc596acf	-0.013270094
76	0xbd82b09a	-0.0638134
77	0x3e37c8a3	0.1794763
78	0x3dd7c529	0.10535652
79	0xbdc7c17f	-0.09753703
80	0x3daf6758	0.08564633
81	0x3d33a2a4	0.043856278
82	0x3cea96dd	0.02863639
83	0x3d60769d	0.05480062
84	0x3d84b39c	0.0647957
85	0xbada2b6c	-0.0016645021
86	0x3ca1ebd2	0.019765768
87	0x3d4873ce	0.048938565
88	0xbdb3e10c	-0.08783159
89	0x3d26ed7a	0.04075382
90	0xbe1108b2	-0.14163473
91	0x3db337f2	0.08750905
92	0x3d86caa8	0.06581622
93	0xbdbf1f2e	-0.09332119
94	0xbcee0df5	-0.02905939
95	0xbdb3c877	-0.0877847
96	0xbe955f9b	-0.29174504
97	0xbccea12d	-0.025223339
98	0xbe499bf4	-0.19688398
99	0x3d871357	0.06595486
100	0xbd5520f2	-0.052033372
101	0xbddd35db	-0.10801288
102	0x3e016919	0.12637748
103	0xbd225647	-0.03963306
104	0xba94b689	-0.0011345904
105	0xbe5f5d46	-0.21812925
106	0x3d7d28e5	0.06180658
107	0x3d614ab7	0.055002894
108	0x3e0544fa	0.13014594
109	0x3d9f3bc8	0.07775074
110	0x3cfc210b	0.030777475
111	0xbd6f7b7f	-0.058467384
112	0xbcdbeb16	-0.026845496
113	0x3d5c964e	0.05385428
114	0xbd4f7842	-0.050651796
115	0xbdacc8f2	-0.08436765
116	0x3dc401e5	0.09570674
117	0x3d669ee6	0.05630388
118	0xbd226f1d	-0.039656747
119	0x3e0fde56	0.14049658
120	0xbbb624c0	-0.00555858
121	0x3d426b89	0.047465835
122	0x3d3e8222	0.046510823
123	0x3db11d57	0.08648174
124	0xbc20a488	-0.009804852
125	0x3d0f3d19	0.034970377
126	0xbbf774fb	-0.007551787
127	0x3ce0f4cd	0.02746048
128	0x3cf7dd40	0.030256867
129	0xbb8ecdb7	-0.004358019
130	0x3bd17d2e	0.0063930964
131	0x3b7de9d8	0.0038744118
132	0x3b3870cd	0.0028143406
133	0xbc3436c1	-0.0109993825
134	0x3d34bdac	0.044126198
135	0xbd2be6dd	-0.041968215
136	0x3a856158	0.0010176105
137	0xbd9368f6	-0.07197754
138	0x3d724b01	0.05915356
139	0xbd50552f	-0.050862487
140	0xbd6550c5	-0.05598523
141	0xbd82a90e	-0.06379901
142	0xbd467826	-0.048454426
143	0xbc4a0538	-0.012330346
144	0xbcb72dd7	-0.022360725
145	0x3d7a0f0a	0.0610495
146	0x3d37ea0d	0.044900943
147	0x3b468454	0.0030291276
148	0xbda9c60c	-0.082897276
149	0xbc820a15	-0.015873948
150	0xbcb9fe41	-0.022704246
151	0xbd1fc6bd	-0.03900789
152	0x3cf552bb	0.029946676
153	0x3c8c42f1	0.017121764
154	0xbc141b47	-0.009039707
155	0x3d80f317	0.06296366
156	0xbd3cc8df	-0.046090003
157	0xbc7a42b3	-0.015274691
158	0xbd0fda75	-0.035120446
159	0xbdcc96e2	-0.09989716
160	0x3c94699e	0.018116768
161	0x3cbcb190	0.023033887
162	0xba4c3d64	-0.00077911303
163	0x3d77e9ee	0.060525827
164	0x3d6fba25	0.05852713
165	0xbd99337a	-0.074805215
166	0x3d527503	0.051381122
167	0xbd700873	-0.058601808
168	0x3d3ecbde	0.04658114
169	0xbd03858f	-0.032109793
170	0x3d50d3a7	0.050983097
171	0xbc8eda67	-0.017438127
172	0xbda95e9b	-0.08269998
173	0xbcafb00c	-0.02144625
174	0xbc2a7866	-0.010404682
175	0xbd820731	-0.06349028
176	0xbdbaab83	-0.091147445
177	0xbd8b39d0	-0.06798136
178	0x3caca637	0.021075351
179	0x3c2234e3	0.0099003045
180	0x3d09ca60	0.033640265
181	0xbcadf636	-0.021235567
182	0x3ce933d9	0.028467106
183	0x3db88964	0.0901058
184	0xbd466544	-0.04843642
185	0xbd947810	-0.072494626
186	0xbd2f23fe	-0.042758934
187	0xbca8ddab	-0.020613512
188	0xbcff58be	-0.031170245
189	0xbcdaa59a	-0.026690293
190	0xbd42acb9	-0.047528002
191	0xbc869461	-0.016428174
192	0xbc726a35	-0.01479583
193	0xbd95d4f4	-0.07316008
194	0x3d59a9a9	0.053140316
195	0xbd855e5d	-0.06512139
196	0xbd612349	-0.05496529
197	0x3d3e9be5	0.04653539
198	0x3db8446b	0.08997425
199	0xbc15eecd	-0.009151173
200	0xbc49f4e4	-0.012326453
201	0x3d9fcd92	0.07802881
202	0xbca65441	-0.020303847
203	0x3d2e333e	0.042529337
204	0xbd13013a	-0.03588984
205	0x3d8188a6	0.06324892
206	0x3d300584	0.04297401
207	0xbdb40b99	-0.087912746
208	0x3d2b19b8	0.041772574
209	0x3da05007	0.07827764
210	0xbd83f51c	-0.06443235
211	0x3bc22538	0.005924847
212	0xbaa03b53	-0.0012224711
213	0x3d9a3bf0	0.075309634
214	0xbdaf0fca	-0.085479334
215	0xbd471f93	-0.048614096
216	0x3c1352b3	0.008991885
217	0x3d8bbf03	0.06823542
218	0x3b11a5f0	0.002222415
219	0xbdec8caa	-0.11550267
220	0x3d504ee9	0.050856505
221	0xbd0fd13a	-0.035111643
222	0xbd5baf35	-0.053633887
223	0x3d791663	0.060812365
224	0x3d11337d	0.035449494
225	0x3d96dd7c	0.073664635
226	0xbdbd24f1	-0.09235562
227	0xbc33a72d	-0.010965151
228	0xbcec7371	-0.02886364
229	0x3d996cbd	0.07491443
230	0xbdcad00f	-0.09902965
231	0xbd7703f3	-0.0603065
232	0x3d13cb91	0.036082808
233	0x39b03466	0.00033608376
234	0xbb4d9f4f	-0.0031375473
235	0xbd418f6a	-0.04725591
236	0x3d2b9047	0.04188564
237	0xbb960e77	-0.004579361
238	0xbc24c52c	-0.010056775
239	0xbcc67939	-0.024227725
240	0x3b7ccb60	0.003857337
241	0xbdaae9e1	-0.0834539
242	0xbd3e6a84	-0.0464883
243	0xbd76bf67	-0.06024113
244	0x3cd07ff7	0.025451643
245	0xbc01735e	-0.007901041
246	0x3c34769f	0.01101461
247	0xbb593251	-0.0033141563
248	0xbb8afdaf	-0.004241667
249	0x3c3243a5	0.0108803855
250	0x3d0fb4df	0.0350846
251	0x3d81b05b	0.06332465
252	0xbc9d3644	-0.019190915
253	0xbca5b460	-0.020227611
254	0xbd0d689f	-0.034523603
255	0xb788d2c8	-1.6310616e-05

Network_stack.0.0.gru.weight_hh_l1 f4 [384, 128]
0	0x3d15b276	0.036547147
1	0xbd9c88e2	-0.07643296
2	0x3bc96398	0.0061459057
3	0x3e1153c1	0.14192106
4	0x3e8794de	0.26480764
5	0xbd686a36	-0.056741916
6	0x3e39f815	0.18161042
7	0x3da8f91e	0.0825064
8	0xbd9bce3a	-0.07607694
9	0x3e3e5766	0.18588027
10	0x3de3e524	0.111276895
11	0xbd42975a	-0.04750762
12	0x3d8da5ee	0.06916414
13	0xbe011309	-0.12604918
14	0xbe8b784b	-0.27240214
15	0xbe364721	-0.17800571
16	0xbdfec8bc	-0.12440631
17	0xbe55932e	-0.20856926
18	0x3dd093ca	0.101844385
19	0xbc9fcfae	-0.01950821
20	0x3de52244	0.11188176
21	0xbd20597c	-0.03914784
22	0x3da62965	0.08113364
23	0xbe155015	-0.1458133
24	0x3d96ab93	0.07356944
25	0x3e6cd449	0.23127855
26	0xbe2bfe1d	-0.16796155
27	0xbcf7996d	-0.030224526
28	0xbd627a42	-0.055292375
29	0xbda0226f	-0.07819068
30	0x3dab2e9a	0.08358498
31	0xbd1ad5d8	-0.037801594
32	0x3dbb1cbb	0.09136339
33	0x3d560ef3	0.05226035
34	0xbcfec925	-0.031101773
35	0x3d8d11d8	0.06888169
36	0xbdd8dd59	-0.10589094
37	0x3db7cff9	0.089752145
38	0x3e481e00	0.19542694
39	0x3c826003	0.015914923
40	0x3e07f328	0.1327635
41	0x3e131153	0.14362077
42	0x3c1f8131	0.0097353915
43	0x3e8e1032	0.2774673
44	0x3dc7c561	0.09754444
45	0xbdf74d71	-0.12075318
46	0xbddc4469	-0.10755236
47	0x3d38a78d	0.045081664
48	0xbe4c36b3	-0.19942741
49	0xbe21332d	-0.15742178
50	0x3e2a2763	0.16616587
51	0x3e2cb2cf	0.16865085
52	0xbc15b0b7	-0.00913637
53	0x3e9eced9	0.31017187
54	0xbe8241c7	-0.2544081
55	0xbe0f242a	-0.13978639
56	0xbb8112f5	-0.0039390274
57	0xbd875edc	-0.0660989
58	0x3d938195	0.0720245
59	0xbde991ba	-0.11404748
60	0xbd345cce	-0.044033818
61	0xbdde8029	-0.10864288
62	0xbe51ffbc	-0.20507711
63	0xbe9162a3	-0.28395566
64	0x3dedd037	0.116119795
65	0xbe0efb35	-0.13963015
66	0xbe5c07a9	-0.21487297
67	0xbd31a00a	-0.043365516
68	0x3daddec3	0.08489754
69	0x3c57008b	0.013122688
70	0xbdefc69a	-0.11707802
71	0xbe70ce2c	-0.23516148
72	0x3df16eb0	0.1178869
73	0xbe1ee225	-0.15515955
74	0xbcda4051	-0.026641997
75	0x3e36912b	0.17828815
76	0xbe79c199	-0.24390258
77	0xbd4efb43	-0.05053259
78	0xbdc95d58	-0.09832257
79	0xbde5a6c4	-0.11213449
80	0xbe06eea3	-0.1317697
81	0x3e089195	0.13336785
82	0xbbdc23c7	-0.006718132
83	0x3d957d3f	0.072992794
84	0xbdeeff8b	-0.11669835
85	0x3e0457ec	0.12924165
86	0x3e50c89d	0.20389028
87	0xbdaaf7da	-0.08348055
88	0xbaf0ec3e	-0.0018380953
89	0xbe2d8a0b	-0.1694719
90	0xbd2deee5	-0.042464156
91	0xbe29b153	-0.1657155
92	0x3e0638ef	0.13107656
93	0x3b13390e	0.0022464427
94	0xbb8666ec	-0.0041016247
95	0x3df4c7a6	0.119521424
96	0x3e381baf	0.1797931
97	0x3ce1a37f	0.027543781
98	0x3dab5c24	0.08367184
99	0x3d23c36b	0.039981287
100	0x3d99f406	0.07517247
101	0xbc06f225	-0.008236443
102	0x3dfed64f	0.1244322
103	0x3e4dd5f7	0.20101152
104	0x3d01903a	0.031631686
105	0x3dec212d	0.11529765
106	0xbe81c79a	-0.25347596
107	0xbd990567	-0.074717335
108	0x3d51f8bc	0.051262602
109	0x3e7285e5	0.23683889
110	0xbdbd38f5	-0.09239379
111	0x3d6cc90f	0.057808932
112	0xbd729cbb	-0.0592315
113	0xbe5a8a83	-0.213419
114	0xbdff4998	-0.12465209
115	0xbd8fb9ab	-0.07017835
116	0x3d447941	0.0479672
117	0x3e212188	0.15735447
118	0xbe96520e	-0.29359478
119	0xbd9e2627	-0.07722121
120	0x3e199bc6	0.15000829
121	0x3e46a1b4	0.19397622
122	0xbe3cc462	-0.18434289
123	0xbca25f35	-0.019820789
124	0x3c350e3b	0.011050756
125	0xbe01d6f6	-0.12679657
126	0x3e0669a0	0.1312623
127	0x3e284fa4	0.1643663
128	0xbdc38213	-0.09546294
129	0x3c87202f	0.016494839
130	0xbd84c02a	-0.06481965
131	0x3d7d38df	0.061821815
132	0x3d9f5c27	0.077812485
133	0x3c82e5f6	0.015978795
134	0xbcbb7ebb	-0.022887578
135	0xbcd1f622	-0.02563006
136	0xbb83bd76	-0.0040203882
137	0x3d662374	0.056186154
138	0xbd1f19ed	-0.038843084
139	0x3d6cf0b5	0.057846744
140	0x3d86b5d6	0.06577651
141	0xbbae5a0c	-0.005320793
142	0xbd0b9bbb	-0.034084063
143	0xbd9a6d54	-0.07540384
144	0xbd0a19bc	-0.03371595
145	0x3d88cfee	0.066802844
146	0xbcc6b1b1	-0.024254652
147	0x3b8dee4a	0.004331385
148	0xbd77ce4a	-0.060499467
149	0x3da41757	0.08012264
150	0xbc88efba	-0.016715873
151	0xbc3b9b1d	-0.011450556
152	0x3c2f75e8	0.010709263
153	0x3c9e851d	0.019350583
154	0x3adc6616	0.0016815092
155	0xbda6e7c6	-0.08149676
156	0xbdbed735	-0.09318391
157	0xbdb801e3	-0.08984735
158	0x3d83bd06	0.06432538
159	0x3d6d51b2	0.05793924
160	0x3d965bbf	0.07341718
161	0x3d055127	0.032548096
162	0xbd3fa375	-0.046786744
163	0x3dbb5909	0.091478415
164	0xbd7d8ab7	-0.061899867
165	0xbc43f0b8	-0.011959247
166	0xbcd5200d	-0.02601626
167	0xbd3b0aa2	-0.045664437
168	0x3ccef391	0.025262626
169	0x3b1191ff	0.0022212265
170	0x3daeb4f7	0.0853061
171	0xbd4dfe5d	-0.050291408
172	0x3d46be40	0.04852128
173	0xbdc8096a	-0.097674206
174	0xbd071327	-0.03297725
175	0xbc28a441	-0.010293067
176	0x3ca7b8d1	0.02047387
177	0xbd6ccaf3	-0.057810735
178	0x3da5f242	0.08102848
179	0x3d6a73a2	0.057239182
180	0x3d9bbc4f	0.076042764
181	0xbd7272b7	-0.05919143
182	0x3d532bc2	0.051555403
183	0x3d25ee02	0.040510185
184	0xbd3e76bd	-0.046499956
185	0xbd849585	-0.06473831
186	0x3d00430e	0.03131395
187	0xbd82361a	-0.06357975
188	0x3c63f7a4	0.013914023
189	0x3d4e71b2	0.050401397
190	0xbdbca1b3	-0.09210529
191	0xbc654241	-0.013992847
192	0x3d8ac968	0.067766964
193	0xbd4763ae	-0.048679046
194	0x3b90b293	0.004415819
195	0x3d7cdcef	0.061734136
196	0x3d26eb49	0.04075173
197	0xbd7c5345	-0.06160285
198	0x3d71c603	0.05902673
199	0x3dc0b6f6	0.09409897
200	0xbcf70145	-0.030151973
201	0x3c1bdad5	0.009512623
202	0xbd9028ab	-0.07039007
203	0xbd4b09a8	-0.049569756
204	0xbcdc9400	-0.02692604
205	0x3d369644	0.0445769
206	0x3d04a527	0.032384064
207	0x3ca862d0	0.02055493
208	0x3db2029b	0.08691903
209	0x3b005349	0.0019580892
210	0xbd42f5ac	-0.047597572
211	0xbd695da0	-0.056974053
212	0x3b029187	0.0019923167
213	0xbc82cc76	-0.015966635
214	0x3b0b015d	0.002121053
215	0xbd8dfb4a	-0.06932695
216	0x3b82021b	0.003967536
217	0xbcc16f85	-0.023612747
218	0x3d3c4fce	0.045974545
219	0x3d80213a	0.062563375
220	0x3c9e5d93	0.019331729
221	0x3bbc624b	0.005749022
222	0x3c77770f	0.015104069
223	0x3d843636	0.064556524
224	0xbd44c1ec	-0.0480365
225	0x3decea2c	0.11568102
226	0xbd89a1f4	-0.06720343
227	0x3d1677e8	0.036735445
228	0xbcb9ab17	-0.02266459
229	0x3c8410da	0.016121317
230	0xbd8ef3d3	-0.069800995
231	0x3cd269f0	0.02568528
232	0x3db08632	0.08619346
233	0xbd35d317	-0.044390764
234	0x3d3274da	0.04356847
235	0x3dc0dce0	0.094171286
236	0x3ba452d4	0.0050147567
237	0x3d812705	0.063062705
238	0x3cade751	0.021228464
239	0x3c4cb04a	0.012493202
240	0xbb6c4ac8	-0.0036055315
241	0x3d0b0732	0.03394241
242	0xbc27869e	-0.010224966
243	0xbd4975b7	-0.049184527
244	0xbd4d1b40	-0.050074816
245	0xbd3364ad	-0.043797184
246	0x3cecd22c	0.028908812
247	0x3cd3f435	0.025873283
248	0xbd17356c	-0.03691618
249	0x3d1d4cd3	0.038403343
250	0x3d2b04d6	0.04175266
251	0xbcb5af58	-0.022178337
252	0x3da91925	0.08256749
253	0xbd8cdf2e	-0.06878506
254	0x3da0bd43	0.07848599
255	0x3d59e6e7	0.05319872

Network_stack.0.0.gru.bias_ih_l1 f4 [384]
0	0x3d44818d	0.04797511
1	0x3d5c91d6	0.053850017
2	0xbd6db52e	-0.058034115
3	0xbd196b6c	-0.03745596
4	0x3d7f019f	0.062257405
5	0xbda001c1	-0.078128345
6	0xbca2edb0	-0.019888729
7	0xbd43fc9e	-0.047848336
8	0xbd027113	-0.031846117
9	0x3d8430fa	0.06454654
10	0x3d6f0c6e	0.058361463
11	0xbcac59ec	-0.021038972
12	0xbd94c1bf	-0.07263517
13	0x3bf6dfa7	0.0075339857
14	0x3d3aef9c	0.045638666
15	0x3dc77f78	0.097411096
16	0x3d23bc82	0.039974697
17	0x3dcb95c5	0.09940676
18	0xbc87ddd5	-0.01658527
19	0xbce5176b	-0.027965268
20	0x3d5478a8	0.05187288
21	0x3dbb458c	0.091441244
22	0xbabdb88f	-0.0014474558
23	0xbdb6fdef	-0.08935153
24	0xbbdfec15	-0.006833563
25	0x3dcb5c8e	0.09929763
26	0xbd62a9e1	-0.05533779
27	0x3d90db48	0.070730746
28	0xbd356bad	-0.04429214
29	0x3c3eac42	0.011637749
30	0xbcfd9414	-0.030954398
31	0xbd38fd89	-0.045163665
32	0xbbe5197d	-0.006991564
33	0x3d1057ac	0.03523986
34	0xbc419213	-0.011814612
35	0xbdb46e8b	-0.08810147
36	0x3d31fa70	0.043451726
37	0xbd674e23	-0.056471
38	0x3c4da5a2	0.012551697
39	0x3d26d8b1	0.040733997
40	0x3c1bb7c3	0.009504261
41	0x3daf134f	0.08548605
42	0x3cf0a77e	0.029376741
43	0x3c80b185	0.015709648
44	0xbd419f7b	-0.047271233
45	0x3d96811a	0.07348843
46	0x3d5d7997	0.054071035
47	0x3c872c4d	0.016500616
48	0x3dd8a793	0.10578837
49	0x3d2b7429	0.041858826
50	0xbc3691b0	-0.011143133
51	0xbdf0c3ae	-0.11756073
52	0x3d93deb3	0.07220211
53	0x3db42c1c	0.08797476
54	0x3d0c98d9	0.034325454
55	0xbd571146	-0.052506708
56	0xbdd1e3bf	-0.10248517
57	0xbd8f4477	-0.069954805
58	0xbd9893e9	-0.074500866
59	0x3dad7a4c	0.08470592
60	0x3d56422f	0.05230921
61	0xbdaba286	-0.08380608
62	0xbc4996f6	-0.012304058
63	0x3ab36549	0.0013686802
64	0x3d85a62e	0.06525837
65	0xbd5e9c7e	-0.05434846
66	0xbcebbb3c	-0.028775804
67	0x3d9d72b2	0.07687892
68	0xbbf60030	-0.0075073466
69	0xbd9cbda6	-0.0765336
70	0xbdb1abf8	-0.086753786
71	0xbd10b1e1	-0.03532589
72	0x3ce9fa0f	0.02856162
73	0xbd1452c7	-0.036211755
74	0xbd0929e2	-0.03348721
75	0x3dd4e409	0.10395057
76	0x3c5448a3	0.012956771
77	0xbd1ac2a6	-0.037783287
78	0xbd76369d	-0.060110677
79	0x3d9392a8	0.07205707
80	0x3dd9552b	0.106119476
81	0xbc158e2f	-0.0091281375
82	0x3b89099d	0.004182054
83	0x3d81baeb	0.0633448
84	0xbd698dab	-0.05701987
85	0x3d91aeeb	0.07113441
86	0x3c877650	0.016535908
87	0xbcbd8e97	-0.023139281
88	0xbdb73d0e	-0.08947192
89	0x3dbc2b62	0.09187962
90	0xbd950a61	-0.0727737
91	0x3d3695fe	0.044576637
92	0x3d33af1d	0.043868173
93	0xbc82b88e	-0.015957143
94	0x3c926967	0.017872525
95	0x3d36d429	0.044635925
96	0x3c5633d8	0.013073884
97	0x3da2954d	0.07938633
98	0x3c0dccf8	0.008654825
99	0xbd742d10	-0.059613287
100	0xbbd7ef6d	-0.006589821
101	0xbdca9341	-0.09891368
102	0x3b26f3e8	0.002547497
103	0x3d06bb10	0.03289324
104	0x3db855e7	0.090007596
105	0xbdba2bd2	-0.09090389
106	0x3d617324	0.055041447
107	0x3d78b6ff	0.060721394
108	0x3d29e797	0.041480627
109	0x3b292cb5	0.0025814
110	0x3d7aa3b4	0.061191276
111	0x3de8bd8f	0.113642804
112	0xbca7299d	-0.020405585
113	0xbd06b82f	-0.032890495
114	0xbd83a71d	-0.06428359
115	0xbc773585	-0.015088444
116	0x3d1d258d	0.03836589
117	0x3cc05c18	0.023481414
118	0xbcf52f7b	-0.029929867
119	0x3d172cbd	0.0369079
120	0x3d9d8be3	0.07692697
121	0x3cb2d631	0.02183065
122	0x3e14301a	0.14471474
123	0x3d8ea135	0.069643416
124	0x3d38094a	0.044930734
125	0x3d559582	0.052144535
126	0xbcea1661	-0.028575124
127	0x3db0b0d1	0.08627475
128	0xbe7a02cc	-0.2441513
129	0xbd6dde8f	-0.058073577
130	0xbc8ed1c7	-0.017434014
131	0xbbbbf9a7	-0.005736548
132	0xbd52b045	-0.051437635
133	0xbc4329b5	-0.011911799
134	0xbe3eb3f3	-0.18623333
135	0xbebe6010	-0.37182665
136	0xbdf84be8	-0.12123853
137	0xbcd32dd8	-0.025778696
138	0xbd41f268	-0.047350317
139	0xbda3cf64	-0.07998541
140	0xbd09c477	-0.03363463
141	0x3cc6b766	0.024257373
142	0x3c80bcd1	0.015715035
143	0x3c5f4f29	0.013629713
144	0xbe295deb	-0.16539733
145	0xbdf7ad0e	-0.120935544
146	0x3ce9eb1b	0.02855449
147	0xbd8e84a7	-0.06958895
148	0x3e248f32	0.1607025
149	0xbc6fc2ac	-0.014633816
150	0x3d811ebe	0.06304692
151	0xbe8224c5	-0.25418678
152	0x3d69e964	0.057107344
153	0xbece613b	-0.40308556
154	0x3d81a2f1	0.06329907
155	0xbdee5d65	-0.11638907
156	0xbddb294d	-0.10701237
157	0x3d0766ff	0.03305721
158	0xbdd6ed72	-0.10494508
159	0xbd466314	-0.048434332
160	0x3d8e70bb	0.069550954
161	0xbe216204	-0.15760046
162	0xbd941bc7	-0.072318606
163	0xbbd628c8	-0.006535623
164	0xbe0c3f2f	-0.13695978
165	0xbcafd26d	-0.021462644
166	0xbea028e7	-0.31281206
167	0x3d0d6876	0.03452345
168	0xbe1c38e9	-0.15256085
169	0xbe1abc17	-0.15110813
170	0x3ac129bd	0.001473717
171	0x3e23fa1b	0.16013376
172	0xbd616273	-0.05502553
173	0x3cadcfc3	0.021217233
174	0xbdbc87ea	-0.09205611
175	0x3de6e09b	0.11273309
176	0xbea60076	-0.32422227
177	0xbe3fef7b	-0.18743698
178	0x3e87edce	0.26548618
179	0xbe38db39	-0.18052377
180	0xbde97975	-0.11400119
181	0xbe813e88	-0.2524302
182	0xbda0db01	-0.07854272
183	0xbde285b9	-0.11060662
184	0xbd7a380d	-0.06108861
185	0xbd82ed68	-0.06392938
186	0xbe002359	-0.12513484
187	0xbdc3e4e3	-0.09565141
188	0x3add02c5	0.0016861787
189	0xbda3cb25	-0.07997731
190	0xbdbbb3d8	-0.09165162
191	0x3bf2dedb	0.0074118203
192	0x3dc4b4d4	0.09604803
193	0xbb9c2cb6	-0.004766072
194	0xbd6e3840	-0.058159113
195	0xbd9a5ec8	-0.07537609
196	0x3e39e969	0.18155445
197	0xbd0dc9e4	-0.034616366
198	0xbe36a101	-0.17834856
199	0xbd41e7b9	-0.04734013
200	0xbd4ebe40	-0.050474405
201	0xbd572d51	-0.05253345
202	0xbddbc4d0	-0.107308984
203	0xbe01c040	-0.12670994
204	0x3deb2bed	0.114829876
205	0xbd95b0f7	-0.07309144
206	0xba2f8762	-0.0006695894
207	0xbbc9e569	-0.006161381
208	0xbca39f21	-0.01997334
209	0xbd6df7fb	-0.05809782
210	0xbce6dc6e	-0.028181281
211	0xb9de3611	-0.00042383422
212	0xbdc54cdf	-0.096338026
213	0xbe09fefb	-0.13476174
214	0xbdbc0aae	-0.091817245
215	0xbdc93153	-0.09823861
216	0xbc8f511f	-0.017494736
217	0xbe212619	-0.1573719
218	0x3cc36c2f	0.023855297
219	0xbcad6fac	-0.021171413
220	0xbd31f810	-0.04344946
221	0xbdbfaf64	-0.09359625
222	0x3e40a2a4	0.18812042
223	0x3b6ee441	0.0036451968
224	0xbdbf352a	-0.09336312
225	0x3e2c22e8	0.1681019
226	0xbd1f78e8	-0.038933665
227	0xbdeb76da	-0.114972785
228	0xbde5f4b0	-0.11228311
229	0xbe91db68	-0.28487706
230	0x3d5b4597	0.053533163
231	0xbe3da255	-0.18518956
232	0xbe76b337	-0.24091803
233	0xbdc249b2	-0.094867125
234	0xbe472090	-0.19446015
235	0xbe438639	-0.1909417
236	0xbcbebf2d	-0.02328452
237	0xbd8ea9e5	-0.069659986
238	0xbdfb04a9	-0.12256748
239	0xbe8019a2	-0.25019556
240	0xbdba202f	-0.0908817
241	0x3b8ed47b	0.0043588257
242	0xbd1de85a	-0.038551666
243	0x3c8b37c2	0.01699436
244	0x3b6f7889	0.003654035
245	0xbe0fcdf5	-0.1404341
246	0xbd6af8de	-0.057366244
247	0xbe2dde87	-0.16979419
248	0xbe63862f	-0.22219156
249	0xbe33f684	-0.17574507
250	0xbdea0395	-0.114264645
251	0xbd1a57eb	-0.0376815
252	0x3d34df5a	0.044158317
253	0xbc3ac898	-0.011400364
254	0x3b1cd0db	0.0023928198
255	0xbe9ec9b0	-0.3101325
