models/model_uniform_region_0-0.3.0.6-0.9_multiple_Agents690e5cf9.pth (torch, 87266 bytes, 18 tensors)

Network_stack.0.0.gru.weight_ih_l0 f4 [96, 2]
0	0x3da368ad	0.0797895
1	0x3dedff0e	0.116209134
2	0xbd170b27	-0.03687587
3	0xbd335a4c	-0.043787286
4	0xbd2fdc43	-0.042934667
5	0xbc6c4364	-0.014420364
6	0xbc90ba5d	-0.01766699
7	0xbd27474b	-0.040839475
8	0x3d7ca074	0.061676458
9	0x3de56f50	0.11202872
10	0x39a51dc8	0.0003149344
11	0xbd6cb5bd	-0.057790507
12	0x3bba8683	0.0056923046
13	0xbda86006	-0.0822144
14	0xbcf08686	-0.02936102
15	0x3dc48229	0.095951386
16	0x3e23707e	0.15960881
17	0x3dd27c0e	0.10277568
18	0xbe187a82	-0.14890483
19	0x3d0fde21	0.035123948
20	0x3c83cfbf	0.016090272
21	0xbdb0fc54	-0.08641878
22	0xbda5d7a6	-0.08097772
23	0x3cf72458	0.030168697
24	0xbb73f979	-0.0037227555
25	0x3e4478ae	0.1918666
26	0x3dfb2e32	0.122646704
27	0xbd00ed8d	-0.031476546
28	0x3cb3269d	0.021868998
29	0xbe433482	-0.19062999
30	0xbc411b13	-0.01178624
31	0x3dca9612	0.09891905
32	0xbd9d3165	-0.07675437
33	0xbdae6ec3	-0.0851722
34	0xbe16d450	-0.14729428
35	0x3da956c1	0.082685
36	0xbd7fad11	-0.06242091
37	0x3e085e5b	0.13317244
38	0x3d512cd7	0.051068153
39	0xbcd73930	-0.026272386
40	0x3e28e895	0.16494973
41	0x3d98ed91	0.07467187
42	0xbe012a0c	-0.12613696
43	0x3e13af93	0.14422445
44	0x3d125ecd	0.03573494
45	0x3dad5b76	0.084647104
46	0x3e212112	0.15735272
47	0xbdc827bf	-0.09773206
48	0x3e01bb4d	0.12669106
49	0x3e1c01fa	0.15235129
50	0xbde7d998	-0.113207996
51	0x3e07ca08	0.13260663
52	0xbe0b3918	-0.13595998
53	0x39f8417b	0.00047351033
54	0xbc8b6494	-0.017015733
55	0x3da060fa	0.07830997
56	0x3dbc9c0e	0.092094526
57	0x3dc4f4a1	0.09616972
58	0xbe082d46	-0.1329852
59	0x3d929306	0.07156949
60	0x3e0be01c	0.1365971
61	0xbc189f95	-0.009315391
62	0x3d1e421c	0.038637266
63	0xbdb68b2d	-0.089132644
64	0x3e430c36	0.19047627
65	0x3d263251	0.04057533
66	0xbd8681b5	-0.065677084
67	0xbd5f6aab	-0.054545086
68	0xbe3408e5	-0.17581518
69	0x3d8bf5d8	0.06834
70	0x3e03490e	0.12820837
71	0xbda1d97e	-0.079028115
72	0x3e184e05	0.14873512
73	0x3a458358	0.00075345254
74	0x3d0f2cea	0.034954943
75	0xbe3c7691	-0.18404604
76	0x3d7d07fb	0.06177519
77	0x3dcd3598	0.10019988
78	0x3e3465b9	0.17616929
79	0x3e35f569	0.17769398
80	0xbd94b56c	-0.07261166
81	0xbd9c6e8c	-0.07638273
82	0x3e257a11	0.16159846
83	0x3dabc75f	0.083876364
84	0x3ddc278a	0.10749729
85	0xbe3322fc	-0.17493814
86	0xbe2ddc28	-0.16978514
87	0xbe2e1f6e	-0.17004177
88	0xbdcb4fb1	-0.09927309
89	0xbe3a3183	-0.1818295
90	0x3e183e17	0.14867435
91	0xbe06c173	-0.13159733
92	0x3e03e14b	0.12878911
93	0x3d57fa05	0.05272867
94	0x3dfaea32	0.122517005
95	0x3c917f8b	0.017761013
96	0x3e2cc6d7	0.16872726
97	0x3e410082	0.1884785
98	0xbd65ff22	-0.056151517
99	0xbdae483c	-0.08509871
100	0x3c900413	0.017580068
101	0x3db20e74	0.08694163
102	0xbc12b454	-0.008954126
103	0x3dc0b8ce	0.09410249
104	0xbdaf1104	-0.08548167
105	0xbe174609	-0.1477281
106	0xbdeba0fe	-0.11505316
107	0xbd928345	-0.07153944
108	0xbdfe2504	-0.12409404
109	0x3d9be15f	0.076113455
110	0x3df951e8	0.121738255
111	0xbd0f6d40	-0.0350163
112	0x3e10f40e	0.141556
113	0xbb9d9b97	-0.0048098075
114	0x3e52fc84	0.2060414
115	0x3d748b1a	0.05970297
116	0xbe43d3da	-0.19123784
117	0xbd63f034	-0.055648997
118	0x3e3bc72b	0.18337695
119	0x3c655019	0.013996148
120	0xbe3e76d5	-0.18600018
121	0xbe5b413b	-0.21411602
122	0x3c4d51b9	0.012531691
123	0x3de4db42	0.111746326
124	0x3ce973b8	0.028497562
125	0xbdea08b9	-0.11427445
126	0x3df89688	0.121380866
127	0xbd8e7f94	-0.06957927
128	0xbe1937da	-0.14962712
129	0xbde00dab	-0.10940107
130	0x3e1588a2	0.14602903
131	0x3d9fa55b	0.07795211
132	0x3e44e5ba	0.19228259
133	0x3e409b02	0.18809131
134	0xbdf7e90c	-0.12104997
135	0xbe02ffa3	-0.1279283
136	0xbd46cef2	-0.048537202
137	0xbe035f97	-0.12829433
138	0x3c2fccca	0.010729978
139	0x3d354113	0.044251513
140	0xbdf23405	-0.11826328
141	0x3de8662b	0.11347612
142	0x3dfa0648	0.12208229
143	0xbe0164ee	-0.12636158
144	0x3e04c6c0	0.12966442
145	0x3d849275	0.06473247
146	0x3cc92e1c	0.02455812
147	0x3deb4668	0.11488038
148	0xbe38c540	-0.18043995
149	0x3dff8d9e	0.12478183
150	0x3cdfac9b	0.027303984
151	0xbdd81a10	-0.10551846
152	0xbd51e8f6	-0.05124756
153	0x3d3e99cf	0.046533402
154	0xbe3cf243	-0.1845179
155	0x3e0ffcec	0.14061326
156	0xbe2f37d8	-0.17111146
157	0xbd0f5b00	-0.034998894
158	0xbdfabba8	-0.12242824
159	0x3dec0f28	0.11526328
160	0x3d35bf9a	0.04437218
161	0x3dafea28	0.08589584
162	0x3e100d32	0.14067534
163	0xbd6c73ca	-0.057727613
164	0x3d9c351e	0.07627319
165	0xbdff31b5	-0.12460653
166	0xbd5529a9	-0.052041683
167	0x3dddeb76	0.10835926
168	0x3da3cb88	0.07997805
169	0xbd094fdd	-0.03352343
170	0xbb15b7f8	-0.002284525
171	0xbc731fc7	-0.014839119
172	0x3d28edcf	0.041242417
173	0xbde3aebb	-0.111173116
174	0xbe1c0a3d	-0.1523828
175	0xbd57551b	-0.052571397
176	0x3db97569	0.09055597
177	0xbd6e7915	-0.05822094
178	0x3de6e764	0.11274603
179	0xbca03130	-0.019554704
180	0xbc0922d8	-0.008370124
181	0x3e2059ad	0.15659209
182	0xbe34bf65	-0.17651136
183	0xbe003d65	-0.1252342
184	0xbe21935a	-0.15778866
185	0x3dfe7c61	0.12426067
186	0xbe14f756	-0.14547476
187	0x3d14af24	0.03629984
188	0xbd80682d	-0.0626987
189	0xbb9cf5c8	-0.0047900416
190	0x3da4395f	0.08018755
191	0x3d4949a1	0.049142484

Network_stack.0.0.gru.weight_hh_l0 f4 [96, 32]
0	0x3dfca521	0.12336183
1	0x3e19b151	0.15009047
2	0xbdb3a113	-0.08770957
3	0x3e032506	0.12807092
4	0xbe38bfee	-0.18041965
5	0xbdfd3eae	-0.12365471
6	0x3e40340a	0.18769851
7	0xbc0bab4f	-0.00852473
8	0xbdf9ddec	-0.12200531
9	0x3e18b491	0.1491263
10	0x3da54d5e	0.08071397
11	0x3d35fedd	0.04443251
12	0xbe0efe83	-0.13964276
13	0x3dd3c80e	0.10340892
14	0x3db4001f	0.087890856
15	0xbd16dac3	-0.03682972
16	0x3ded0b15	0.11574379
17	0x3c3fb3a3	0.011700544
18	0x3d80028a	0.06250484
19	0xbd89e159	-0.06732435
20	0xbe1474a0	-0.14497614
21	0xbdc4ff2b	-0.09618982
22	0xbdd3be88	-0.10339075
23	0x3d348c97	0.04407939
24	0x3d676137	0.056489196
25	0x3e117bfb	0.14207451
26	0xbd9c7229	-0.07638962
27	0xbe2ca808	-0.16860974
28	0xbe001162	-0.12506631
29	0xbd2a07eb	-0.041511457
30	0x3dd1ed73	0.10250368
31	0x3e01427c	0.12623018
32	0xbe208d52	-0.1567891
33	0xbd196f16	-0.037459455
34	0xbe147e5d	-0.14501329
35	0x3e0d7d19	0.13817252
36	0x3e2cc7a2	0.16873029
37	0xbe28c514	-0.1648143
38	0x3e0b66e9	0.13613476
39	0xbd5b39ad	-0.0535218
40	0x3dffd78f	0.124922864
41	0xbe1efb52	-0.15525559
42	0x3bc2f27b	0.005949316
43	0xbd62682b	-0.055275124
44	0xbe13969d	-0.14412923
45	0x3db54a71	0.08852089
46	0xbd509b89	-0.05092958
47	0x3d9ad96e	0.07561003
48	0xbd80f237	-0.06296199
49	0x3dd161dd	0.10223744
50	0xbe40b081	-0.18817331
51	0x3d39a17b	0.045320015
52	0xbdb7d29a	-0.08975716
53	0xbca7517e	-0.0204246
54	0xbdeb4964	-0.114886075
55	0xbd589e33	-0.052885246
56	0x3d52ff45	0.051512975
57	0xbd5b01b8	-0.053468436
58	0xbd48ec8f	-0.049053725
59	0xbd6838c6	-0.05669477
60	0x3d721d1d	0.059109796
61	0xb8c7ddc4	-9.5303665e-05
62	0x3c80c288	0.01571776
63	0x3e1811cd	0.1485054
64	0x3d64b3da	0.055835582
65	0xbaaab422	-0.0013023654
66	0xbd89f493	-0.06736102
67	0x3dd4eb5c	0.10396454
68	0x3d59965c	0.05312191
69	0xbd3b3949	-0.04570893
70	0x3cdd4cce	0.027014162
71	0xbb5278fd	-0.0032115572
72	0xbe32568c	-0.17415828
73	0xbc86bec2	-0.016448382
74	0xbe0b36f1	-0.13595177
75	0xbe075abe	-0.13218209
76	0x3e0d104b	0.13775747
77	0x3b6b5319	0.0035907684
78	0x3ce235ec	0.027613603
79	0x3c7de446	0.015496319
80	0x3d0d13d2	0.03444273
81	0xbbbf7136	-0.005842353
82	0xbdcc6e93	-0.09982028
83	0xbe000099	-0.12500228
84	0xbd6e1401	-0.058124546
85	0xbe32e176	-0.17468819
86	0x3e072a32	0.1319969
87	0x3dd9c3da	0.10633059
88	0x3d9c2593	0.07624354
89	0xbc4e9471	-0.012608633
90	0x3e0b6740	0.13613605
91	0xbd64d580	-0.055867672
92	0x3d5f5682	0.05452586
93	0x3d97fb19	0.0742094
94	0x3e106e06	0.1410447
95	0xbd1ec7ee	-0.038764887
96	0xbe07fc59	-0.13279857
97	0xbe3847f8	-0.17996204
98	0x3c1e74dd	0.009671417
99	0x3cc2cd23	0.023779457
100	0x3dc94d4b	0.098291956
101	0x3e2db809	0.16964735
102	0xbd7e481c	-0.062080488
103	0xbce1b174	-0.027550437
104	0x3e3d2e75	0.18474753
105	0x3dc906e3	0.09815767
106	0x3bfd7282	0.0077345977
107	0x3e337496	0.17524943
108	0xbd926ae5	-0.07149295
109	0x3e2ff76b	0.17184226
110	0xbd5b89ff	-0.0535984
111	0xbdde9373	-0.108679675
112	0xbc48337f	-0.012219309
113	0x3e2429e3	0.16031604
114	0x3e121c7e	0.14268681
115	0xbe05c31f	-0.13062714
116	0x3c0b6912	0.008508937
117	0xbb8feb0b	-0.004392033
118	0x3e1fbebf	0.15600108
119	0x3e349c5a	0.17637768
120	0xbb8515fb	-0.004061458
121	0x3dbac130	0.09118879
122	0xbd846919	-0.06465358
123	0x3d84c95c	0.06483719
124	0xbe0c958e	-0.13728926
125	0xbd9f95d5	-0.0779225
126	0xbe308f79	-0.1724223
127	0xbd821980	-0.0635252
128	0x3dd943ae	0.10608612
129	0x3d8d32da	0.06894465
130	0xbb98666c	-0.0046508815
131	0xbe085193	-0.13312368
132	0x3dde4704	0.10853389
133	0x3c78a7ff	0.015176772
134	0xbe186f7c	-0.14886278
135	0x3d97f62e	0.07420002
136	0x3d5aa0d2	0.053376026
137	0xbd4c7c3c	-0.049923167
138	0x3d68c2ea	0.05682651
139	0xbda594f9	-0.08085055
140	0xbe16112f	-0.14654993
141	0xbc311cf0	-0.010810122
142	0x3e12448a	0.14283958
143	0xbe04b9a6	-0.12961444
144	0xbd6f9b2c	-0.058497593
145	0xbd7a9131	-0.06117362
146	0x3e17f3e1	0.14839126
147	0xbdfb9210	-0.122837186
148	0x3e1d7fbf	0.15380763
149	0xbdb3ea32	-0.087849036
150	0x3ddb9f37	0.10723727
151	0x3e1f4014	0.15551788
152	0xbaf938a9	-0.0019014078
153	0xbdbf5df5	-0.09344093
154	0x3d84702b	0.06466707
155	0x3e24ea8d	0.16105099
156	0x3bff4df0	0.0077912733
157	0x3c9d4194	0.01919631
158	0xbdaa9ae8	-0.08330327
159	0x3c82d46e	0.015970435
160	0x39924c6e	0.00027904235
161	0x3cccef84	0.025016554
162	0x3cdc565b	0.026896646
163	0xbe28cb87	-0.1648389
164	0x3dc89cab	0.09795507
165	0xbdaa4acb	-0.08315047
166	0xbdf70605	-0.12061695
167	0xbd41e245	-0.047334928
168	0x3d856da0	0.0651505
169	0x3dd06b41	0.10176707
170	0x3e2bb444	0.16767985
171	0xbd69026f	-0.056887086
172	0x3ccf6d9b	0.025320819
173	0x3c3e6f45	0.011623208
174	0x3e3db379	0.18525495
175	0x3db86212	0.090030804
176	0x3d1e4200	0.03863716
177	0xbd41d8a1	-0.047325734
178	0xbda8d2fd	-0.08243368
179	0xbe3b5a88	-0.18296254
180	0xbc4493d7	-0.011998138
181	0x3e171d34	0.14757234
182	0xbc9ae5fb	-0.018908491
183	0xbdd3b240	-0.10336733
184	0xbba4a8a9	-0.0050249887
185	0x3de48b47	0.111593775
186	0x3cd6c344	0.026216157
187	0xbe247f50	-0.16064191
188	0xbd828a15	-0.06373993
189	0xbc405185	-0.011738186
190	0xbc5d17ad	-0.013494414
191	0x3d0527cb	0.032508653
192	0xbc6a2fc8	-0.0142936185
193	0xbca458d3	-0.020061886
194	0x3e093491	0.13398959
195	0xbe17598e	-0.14780256
196	0xbe3c2ded	-0.18376894
197	0x3d6ad59c	0.05733262
198	0x3d256e98	0.040388674
199	0x3e1a7a36	0.15085682
200	0x3db33341	0.0875001
201	0x3bd5b408	0.0065217055
202	0x3e441a9e	0.19150779
203	0x3dbbcfa7	0.09170466
204	0xbd832e01	-0.06405259
205	0xbc915062	-0.017738525
206	0xbe2dd74e	-0.16976663
207	0x3cbac679	0.022799717
208	0xbe29be3f	-0.1657648
209	0x3de9b3cd	0.114112474
210	0xbd78326f	-0.060594972
211	0x3d2e7fe9	0.042602453
212	0xbd8d17b6	-0.06889288
213	0xbc342584	-0.010995273
214	0xbd639d41	-0.05556989
215	0xbd816e42	-0.06319858
216	0x3dc522e7	0.09625798
217	0xbe1a1459	-0.15046825
218	0x3d9b6ad1	0.07588733
219	0xbd2a9a90	-0.04165131
220	0xbdaa6e20	-0.08321786
221	0x3cfa25c2	0.030535582
222	0xbe4bc513	-0.19899397
223	0x3c0db624	0.008649383
224	0xbd113c9e	-0.0354582
225	0x3b577920	0.0032878593
226	0x3e45cb48	0.19315827
227	0x3dd3799f	0.10325932
228	0x3def8b06	0.116964385
229	0xbe28f845	-0.16500957
230	0x3c7c1886	0.015386706
231	0xbda65c98	-0.081231296
232	0x3d5062d1	0.05087549
233	0x3e29171e	0.16512725
234	0xbd00d381	-0.031451706
235	0x3d6f6964	0.058450118
236	0xbdfc9994	-0.1233398
237	0x3df3ce71	0.1190461
238	0xbbe7c737	-0.007073309
239	0x3c771fd5	0.015083273
240	0xbe0bcdd0	-0.1365273
241	0xbcdaf65b	-0.0267288
242	0xbdd0518e	-0.10171805
243	0x3dedd015	0.11611954
244	0x3e103bbf	0.14085291
245	0xbddffe42	-0.10937168
246	0xbca7252f	-0.020403473
247	0x3d0a46f4	0.033759072
248	0x3cec8056	0.02886979
249	0xb66cc119	-3.5279138e-06
250	0x3ddecfcb	0.10879477
251	0xbe22fc4d	-0.15916558
252	0xbd0d6a5e	-0.034525268
253	0x3df1f610	0.11814511
254	0xbc098989	-0.008394607
255	0xbdf70745	-0.120619334

Network_stack.0.0.gru.bias_ih_l0 f4 [96]
0	0xbc24445e	-0.010026066
1	0x3d4af355	0.049548466
2	0x3e04ac42	0.12956336
3	0xbe02cd09	-0.12773527
4	0xbe3a7379	-0.18208112
5	0xbdc2f783	-0.09519865
6	0xbe107807	-0.14108287
7	0xbe068bd7	-0.13139282
8	0x3df5e8cd	0.12007294
9	0x3e20b600	0.15694427
10	0x3df5f9db	0.12010547
11	0xbde65ca1	-0.11248136
12	0x3d87a0ce	0.06622468
13	0xbc821887	-0.015880836
14	0x3de706f7	0.11280625
15	0xbd852422	-0.065010324
16	0xbd6fd5b3	-0.05855341
17	0xbe18993f	-0.14902209
18	0x3e244645	0.1604243
19	0xbd24b882	-0.040215023
20	0x3dccedde	0.10006307
21	0xbe1ef676	-0.15523705
22	0xbe29abe8	-0.16569483
23	0x3d6b039c	0.05737649
24	0x3d682837	0.056678977
25	0xbd85bd73	-0.06530275
26	0x3e3af4ab	0.18257396
27	0x3db651d2	0.08902325
28	0x3d8246ff	0.06361198
29	0xbe18d6dc	-0.14925712
30	0x3c35863c	0.011079367
31	0x3d3a337d	0.04545926
32	0x3cb9ca93	0.022679603
33	0x3c15b96f	0.009138449
34	0x3e22c557	0.15895592
35	0x3e1f58fb	0.15561287
36	0xbe41a328	-0.18909895
37	0xbde68985	-0.112566985
38	0xbe79ddc4	-0.24401003
39	0xbded3cab	-0.11583837
40	0xbde854cf	-0.11344301
41	0xbd1b1958	-0.037865967
42	0x3d4c0ace	0.04981499
43	0xba681253	-0.0008852828
44	0xbd495a0b	-0.049158137
45	0xbd9847f7	-0.07435601
46	0xbe3747ad	-0.17898436
47	0x3d32c468	0.04364434
48	0x3cbf7afe	0.023374077
49	0xbe5b28f0	-0.21402335
50	0x3e25cb0b	0.16190736
51	0xbd8a72c0	-0.06760168
52	0x3e3b6916	0.18301806
53	0xbc124f66	-0.008930063
54	0x3e252caa	0.16130319
55	0xbce6e6f6	-0.028186303
56	0x3dd1bfcd	0.10241661
57	0xbc0a5fd4	-0.008445699
58	0x3e042706	0.12905511
59	0xbdb37d92	-0.08764185
60	0xbdba2789	-0.09089572
61	0xbe336efb	-0.17522804
62	0xbcf7b842	-0.030239228
63	0xbcd1db6a	-0.02561732
64	0x3d34edaf	0.044171985
65	0x3db3c96f	0.08778655
66	0xbdcb8c0a	-0.0993882
67	0xbcd16a33	-0.025563335
68	0x3e11baa1	0.1423135
69	0xbc6f4a4c	-0.014605116
70	0xbe310d87	-0.17290317
71	0xbde622df	-0.1123712
72	0xbdbc810b	-0.092043005
73	0x3d7693a8	0.06019941
74	0xbd5b19b8	-0.053491324
75	0xbe3a77b6	-0.18209729
76	0x3c962496	0.018327992
77	0xbe38ee6c	-0.180597
78	0x3db5e42b	0.0888141
79	0xbe170269	-0.14747013
80	0xbc35acc1	-0.011088551
81	0xbdf52796	-0.11970441
82	0x3cfd48dc	0.030918531
83	0xbc9c1990	-0.019055158
84	0xbd22af8d	-0.0397182
85	0xbd7496ed	-0.059714247
86	0xbde579c5	-0.11204866
87	0xbe3d4e73	-0.18486957
88	0xbdd57780	-0.104231834
89	0x3e369080	0.1782856
90	0xbcaf2a8b	-0.02138259
91	0x3c80cd4e	0.015722897
92	0x3daf380e	0.085556135
93	0x3db70f61	0.0893848
94	0x3d70c02f	0.05877703
95	0x3c3883c0	0.01126188

Network_stack.0.0.gru.bias_hh_l0 f4 [96]
0	0xbde38995	-0.11110226
1	0xbd48842b	-0.04895417
2	0x3da7f37b	0.08200737
3	0xbdca7ab7	-0.09886687
4	0x3d2690f8	0.040665597
5	0x3de18e76	0.110135004
6	0x3d69ec49	0.057110105
7	0x3e021096	0.1270164
8	0xbd93e239	-0.07220883
9	0x3de34832	0.110977545
10	0xbdfa8b91	-0.122336514
11	0xbddd3788	-0.10801607
12	0x3e2d3466	0.1691452
13	0x3d4c8b34	0.049937442
14	0xbd7eebdf	-0.062236663
15	0xbe266f8f	-0.16253494
16	0x3ba4e99b	0.0050327308
17	0xbe467d56	-0.1938375
18	0xbdeed6d1	-0.11662067
19	0xbc60c8d1	-0.013719753
20	0x3e0a1ef1	0.13488366
21	0x3d6b84c9	0.05749968
22	0xbdaa9d7f	-0.08330821
23	0x3e198bea	0.14994779
24	0xbbd886de	-0.0066078743
25	0x3e1fed57	0.15617882
26	0x3e2a18a1	0.16610958
27	0x3e1d7042	0.15374854
28	0xbe2dc53f	-0.16969775
29	0xbd71d954	-0.05904515
30	0xbe302a87	-0.17203723
31	0xbd9dae07	-0.07699209
32	0x3dfe6a3d	0.12422607
33	0xbdabfe06	-0.083980605
34	0x3d0dac2b	0.03458802
35	0x3c1003df	0.008789985
36	0xbd911e57	-0.07085865
37	0xbe26e5d2	-0.16298607
38	0xbd8c7cf6	-0.06859772
39	0x3e262c9d	0.16227956
40	0xbd89a28f	-0.06720459
41	0x3dab90ac	0.08377203
42	0xbe35ee37	-0.17766653
43	0xbdad7af4	-0.08470717
44	0x3df1a8ca	0.11799772
45	0x3e09ecda	0.13469258
46	0x3ddc815e	0.10766862
47	0x3d7d85de	0.061895244
48	0x3d3f409a	0.04669247
49	0xbe39b4c9	-0.1813537
50	0xbdf8f614	-0.12156311
51	0xbde06282	-0.10956289
52	0x3cd796f0	0.02631709
53	0x3e01917c	0.12653154
54	0xbe257050	-0.16156125
55	0xbe6bfd95	-0.23045953
56	0xbd99dfb6	-0.075133726
57	0xbe20ff8e	-0.15722486
58	0xbdf52ec4	-0.119718105
59	0x3d7b5266	0.06135788
60	0x3bbfce7d	0.0058534727
61	0xbda1c980	-0.07899761
62	0xbe476fb9	-0.19476213
63	0xbc83cb35	-0.016088108
64	0x3e059fd8	0.13049257
65	0x3d4d1cdd	0.050076354
66	0x3e24fe05	0.16112526
67	0xbcc511ee	-0.024056401
68	0x3d243cca	0.040097035
69	0xbe1b96b2	-0.15194204
70	0x3e0c7854	0.13717777
71	0x3e354085	0.17700393
72	0x3dc4a994	0.09602657
73	0xbe346d02	-0.17619708
74	0xbe001877	-0.12509333
75	0xbdde5810	-0.1085664
76	0x3e1043da	0.14088383
77	0xbe08d627	-0.13362943
78	0xbdb44792	-0.088027135
79	0x3d9f36a4	0.07774094
80	0x3b1a07ce	0.0023503187
81	0x3e08784a	0.13327137
82	0x3cce4105	0.025177488
83	0x3e20a219	0.15686835
84	0xbc78983b	-0.015173013
85	0x3d1e84ab	0.03870074
86	0xbc04ee03	-0.008113387
87	0x3ddc3e1e	0.107540354
88	0xbccd688b	-0.025074264
89	0x3c0ebb47	0.008711643
90	0x3d2771bb	0.040879946
91	0x3e194739	0.14968576
92	0xbdf7cf65	-0.12100104
93	0x3dad29c2	0.0845523
94	0x3d367330	0.044543445
95	0xbe1f8ac8	-0.15580285

Network_stack.0.0.gru.weight_ih_l1 f4 [96, 32]
0	0x3dea152d	0.1142982
1	0x3e13b0b7	0.1442288
2	0xbe09795f	-0.13425206
3	0x3d6e858c	0.05823283
4	0x3c1b1842	0.009466233
5	0xbe0c77bd	-0.13717552
6	0x3e3149e8	0.17313349
7	0xbdcd1db6	-0.100154325
8	0x3c07ee52	0.008296566
9	0x3dc8a331	0.09796751
10	0xbe22243a	-0.15834132
11	0x3b9e12b0	0.004824005
12	0xbe2dc91a	-0.16971245
13	0xbd4a6e4e	-0.0494216
14	0xbdb206a3	-0.08692672
15	0xbdf1a703	-0.11799433
16	0x3df2ad1a	0.11849423
17	0xbd8d045f	-0.06885599
18	0x3d73a9de	0.05948817
19	0x3d9a5e19	0.07537479
20	0xbd3ffa4a	-0.046869554
21	0x3d8caf23	0.06869342
22	0xbd9c14ae	-0.07621132
23	0x3d9a829c	0.07544443
24	0xbda3dc30	-0.08000982
25	0xbe2a1de3	-0.16612963
26	0xbde50526	-0.111826226
27	0xbd83523c	-0.06412169
28	0xbdc20903	-0.09474375
29	0xbdf5946f	-0.11991202
30	0x3dc7e9a3	0.097613595
31	0xbd5a354a	-0.053273477
32	0xbe00955b	-0.12556975
33	0x3e2b11c1	0.16705991
34	0xbb49af06	-0.0030774488
35	0x3dda90ec	0.10672173
36	0x3db571a4	0.08859566
37	0x3c8e83a0	0.017396748
38	0x3e094b73	0.13407688
39	0x3dc5f6c8	0.096662104
40	0xbe260077	-0.16211115
41	0xbe298030	-0.16552806
42	0xbd75c914	-0.060006216
43	0xbe2868df	-0.16446255
44	0x3c8d3871	0.017238827
45	0x3c96d3a0	0.018411458
46	0xbda4e1a0	-0.08050847
47	0x3c60d8ef	0.013723596
48	0xbd49483b	-0.04914115
49	0xbdd07fe3	-0.101806425
50	0x3e15fb05	0.14646538
51	0x3e04c4c1	0.1296568
52	0x3e098a32	0.13431624
53	0x3db9c5f3	0.09070959
54	0x3de2baa4	0.11070755
55	0x3d031b0b	0.032008212
56	0xbdf74771	-0.12074173
57	0xbe17e5c1	-0.14833738
58	0x3cbf57f6	0.023357373
59	0x3cd2a66b	0.02571412
60	0xbd95e893	-0.07319751
61	0x3e354168	0.17700732
62	0x3c074e7e	0.00825846
63	0xbda5dd2e	-0.08098827
64	0xbdb65ac9	-0.08904035
65	0xbd9833ca	-0.07431753
66	0xbd758096	-0.059937082
67	0x3e32600e	0.17419454
68	0xbbd693d1	-0.006548383
69	0x3d97b92e	0.07408367
70	0x3d697131	0.056992713
71	0x3e22991b	0.15878718
72	0x3d44d368	0.048053175
73	0xbe232ddd	-0.15935464
74	0xbdd0cfdd	-0.10195897
75	0x3dd34999	0.10316772
76	0xbe10c114	-0.14136153
77	0x3d620686	0.055182002
78	0xbd5c419f	-0.05377352
79	0xbdf777d5	-0.12083403
80	0xbe03c77f	-0.1286907
81	0xbe1fdc3f	-0.15611361
82	0xbd9df87a	-0.07713409
83	0xbd61bd8b	-0.055112403
84	0xbc4e651d	-0.0125973495
85	0xbe113f49	-0.14184298
86	0x3db5f217	0.088840656
87	0x3e1fa3fb	0.15589897
88	0xbe1033a3	-0.14082198
89	0x3d930967	0.07179528
90	0x3df5c27c	0.119999856
91	0x3e135cb1	0.14390828
92	0xbd2f8739	-0.042853568
93	0xbe3c738d	-0.18403454
94	0xbdace460	-0.084419966
95	0x3dbe67be	0.09297131
96	0xbda7f85b	-0.08201667
97	0x3de8a558	0.11359662
98	0x3dd6653b	0.10468527
99	0x3d9612c6	0.073277995
100	0xbe29308b	-0.16522424
101	0x3dcf104c	0.1011053
102	0x3d5d23d6	0.053989254
103	0x3e245ae0	0.16050291
104	0x3daf16d3	0.08549275
105	0x3c8d2d1b	0.017233422
106	0x3e1dbe5d	0.15404649
107	0xbd6b653d	-0.057469595
108	0xbd82a142	-0.06378414
109	0xbd606f26	-0.0547935
110	0xbcee95c8	-0.029124156
111	0xbe09c41a	-0.13453713
112	0xbafaa1de	-0.0019121727
113	0x3d869759	0.06571836
114	0xbdf5a828	-0.11994964
115	0x3db1f829	0.08689911
116	0x3df1b1ba	0.11801477
117	0xba94a115	-0.001133951
118	0x3daa7d31	0.083246596
119	0x3d81d01b	0.06338521
120	0xbe21e3fb	-0.15809624
121	0xbdc08fba	-0.09402414
122	0x3dd39dd0	0.10332835
123	0xbdb2a2f6	-0.087224886
124	0x3d2f424c	0.042787835
125	0xbe1767bc	-0.14785665
126	0xbe04fd3b	-0.12987225
127	0x3cfcb34d	0.030847216
128	0x3d93b0c7	0.07211452
129	0x3e1acf32	0.15118101
130	0x3dd97aff	0.10619163
131	0xbd37fa14	-0.044916227
132	0xbe0dfbd9	-0.13865604
133	0xbddd3ebd	-0.10802982
134	0xbdf746df	-0.120740645
135	0x3e065a7d	0.13120456
136	0x3d41bbac	0.04729812
137	0xbdb3e71c	-0.08784315
138	0x3db3ec98	0.08785361
139	0x3dcffcd0	0.10155642
140	0xbe1639b3	-0.14670448
141	0x3c36e579	0.011163109
142	0x3d603fcf	0.054748353
143	0x3e2145c3	0.15749268
144	0xbb0211d3	-0.001984705
145	0x3de85888	0.11345011
146	0xbda7db4c	-0.081961244
147	0x3df86989	0.12129504
148	0x3d10f511	0.035389964
149	0xbe2c42ac	-0.16822308
150	0x3db104bb	0.086434804
151	0xbdb40333	-0.08789673
152	0xbbbd7315	-0.005781541
153	0x3d81e9cd	0.06343422
154	0xbdd104ec	-0.10206017
155	0x3dd951b5	0.106112875
156	0x3ded306f	0.115815036
157	0xbdc09135	-0.09402696
158	0x3d961d1b	0.0732977
159	0xbbb27d3e	-0.005447059
160	0x3db5308d	0.08847151
161	0x3daa18db	0.08305522
162	0xbce61311	-0.028085263
163	0x3df10c70	0.117699504
164	0x3c8b93bd	0.01703822
165	0x3e2a1500	0.16609573
166	0x3dd3ec89	0.1034785
167	0x3d9f30ab	0.077729546
168	0x3d187a55	0.03722604
169	0xbe1c9e0e	-0.15294668
170	0x3e39ac5d	0.18132158
171	0xbe22dd20	-0.15904665
172	0xbe24290b	-0.16031282
173	0x3af9543a	0.0019022294
174	0xbcfb661a	-0.030688334
175	0x3dc05932	0.09392013
176	0xbd67bf1f	-0.05657875
177	0xbdfa047c	-0.122078866
178	0x3e2e64a5	0.1703058
179	0x3e0975f8	0.13423908
180	0x3d1659ed	0.036706854
181	0x3da66dab	0.08126386
182	0xbdf38af3	-0.11891737
183	0x3e39ebbb	0.1815633
184	0xbe10aed4	-0.14129192
185	0xbd56bfbb	-0.052428942
186	0xbe39b960	-0.18137121
187	0xbd1c7655	-0.038198788
188	0xbe2fb5b1	-0.17159154
189	0xbd916861	-0.07099987
190	0x3bc7aa22	0.0060932795
191	0xbe079edb	-0.13244192
192	0xbe271a51	-0.16318633
193	0x3dde0227	0.10840254
194	0x3c26805b	0.010162438
195	0xbc05192d	-0.008123678
196	0xbe1bf36a	-0.15229574
197	0xbde35f9a	-0.11102219
198	0x3d4594f4	0.048237756
199	0xbdef7b72	-0.11693467
200	0x3d9fb7ba	0.07798715
201	0xbce6aa78	-0.028157458
202	0xbd390eb5	-0.04518004
203	0x3e32ac6a	0.17448583
204	0xbcf512dd	-0.029916221
205	0x3e13d140	0.14435291
206	0xbd486f17	-0.04893407
207	0xbda026c2	-0.078198925
208	0xbde221a8	-0.11041576
209	0x3cfe9be4	0.031080194
210	0x3e227da9	0.15868248
211	0x3d60a110	0.0548411
212	0xbca71e7c	-0.020400278
213	0xbe02e98a	-0.127844
214	0x3ce885a0	0.02838403
215	0x3ca4f2fc	0.020135395
216	0xbd63d517	-0.05562314
217	0xbd77186a	-0.060326017
218	0x3e123757	0.14278923
219	0x3d09e7d7	0.033668365
220	0x3e16d846	0.1473094
221	0xbe38e75a	-0.18057004
222	0xbe2d94b1	-0.16951253
223	0x3e42a6b5	0.19008906
224	0xbe18776e	-0.14889309
225	0x3d32e2a9	0.04367319
226	0x3e15849f	0.14601372
227	0x3d8ac1d9	0.06775255
228	0xbe3a26bd	-0.1817884
229	0xbdb83819	-0.08995075
230	0x3dbe1bbc	0.09282634
231	0x3d3c9b37	0.046046462
232	0xbd9886e6	-0.07447605
233	0x3db4ebd6	0.08834045
234	0x3e1f6c5f	0.15568684
235	0x3d42e194	0.04757841
236	0x3dd9f1e3	0.10641839
237	0x3e140451	0.14454772
238	0xbdbcf163	-0.09225728
239	0xbdf1f06d	-0.11813436
240	0xbc99140c	-0.018686317
241	0xbdf33271	-0.11874855
242	0xbd6bca50	-0.057565987
243	0xbe3de87e	-0.1854572
244	0x3dbef8c6	0.093247935
245	0xbd7dbc98	-0.061947435
246	0x3e064870	0.1311357
247	0xbe1fae11	-0.15593745
248	0xbde7d923	-0.113207124
249	0xbe31b2eb	-0.17353408
250	0xbdebc963	-0.11513021
251	0xbe14b91e	-0.14523742
252	0x3d82661a	0.063671306
253	0xbdc2ecba	-0.09517808
254	0x3e0c06e2	0.136745
255	0xbe083032	-0.13299635

Network_stack.0.0.gru.weight_hh_l1 f4 [96, 32]
0	0xbdc5c572	-0.096568
1	0xbe22d758	-0.1590246
2	0xbe091ba5	-0.13389452
3	0x3df08e69	0.117459126
4	0xbdb5c597	-0.08875578
5	0xbdf6dba6	-0.12053613
6	0x3dc45c0c	0.09587869
7	0xbdfbe8dc	-0.12300274
8	0xbd5889e5	-0.05286588
9	0xbe014afe	-0.12626263
10	0xbdbcaff5	-0.09213249
11	0x3c5a5e22	0.013328107
12	0x3da9e621	0.08295847
13	0xbba3ad8d	-0.004995054
14	0xbddcb45b	-0.107765876
15	0xbdaa67a9	-0.08320553
16	0xbd34f584	-0.044179454
17	0xbcfd835b	-0.030946424
18	0x3d50dd6f	0.050992426
19	0xbc51e10e	-0.012810005
20	0x3c0e0339	0.0086677605
21	0x3e16824f	0.14698146
22	0x3d8a18c4	0.06743005
23	0x3d7f4e59	0.062330578
24	0xbdedc819	-0.11610431
25	0xbb3ad449	-0.002850788
26	0xbdb4da15	-0.08830658
27	0xbdd91990	-0.10600579
28	0x3e21584c	0.15756339
29	0x3d9cfe9d	0.07665751
30	0xbe2e2a11	-0.17008235
31	0x3bf6634e	0.0075191623
32	0x3da7f443	0.08200886
33	0xbb699d2f	-0.0035646667
34	0xbe0c92aa	-0.13727823
35	0x3e1697fa	0.14706412
36	0x3e16e594	0.14736015
37	0x3e2fea75	0.17179282
38	0x3e1d12c1	0.15339185
39	0xbd7a6e2a	-0.061140217
40	0xbdfe756e	-0.12424742
41	0xbe10c49e	-0.14137504
42	0xbca00669	-0.019534307
43	0xbd20871d	-0.039191354
44	0x3e076ffa	0.1322631
45	0xbe14141b	-0.14460795
46	0xbe20c68d	-0.15700741
47	0xbe202bd3	-0.15641718
48	0x3e087e26	0.13329372
49	0x3da33f6c	0.07971081
50	0x3d4e672e	0.05039137
51	0x3e36ec7c	0.17863649
52	0x3e2e22b5	0.17005427
53	0xbdbee8da	-0.09321757
54	0xbdba3318	-0.090917766
55	0xbdb4c970	-0.08827484
56	0xbda20e85	-0.07912926
57	0xbc81ce3d	-0.015845412
58	0x3d0837dc	0.033256397
59	0xbd3abd3a	-0.045590617
60	0x3e06653b	0.13124554
61	0x3e2eaf43	0.17059045
62	0xbe1129aa	-0.1417605
63	0x3c4a80d7	0.012359819
64	0x3d592c5f	0.05302083
65	0xbe1036a8	-0.1408335
66	0x3cefd684	0.029277094
67	0x3e1633fe	0.14668271
68	0xbe16a180	-0.14710045
69	0x3d6b5ba7	0.057460453
70	0x3e04a813	0.1295474
71	0x3dc82bab	0.09773954
72	0x3e3220e6	0.17395362
73	0x3ce65e8e	0.028121259
74	0x3e11d3c4	0.14240938
75	0x3def5964	0.11686972
76	0xbe10a972	-0.14127138
77	0xbdec6184	-0.11542037
78	0xbdde6405	-0.10858921
79	0x3d3e1821	0.04640973
80	0xbc97d245	-0.018532882
81	0xbdabe061	-0.08392406
82	0xbd8d53c8	-0.06900746
83	0x3dced70f	0.10099613
84	0xbde237e6	-0.11045818
85	0x3d80ac6f	0.06282889
86	0x3d8f4776	0.06996052
87	0xbc2fccd5	-0.010729988
88	0x3dbdcadd	0.09267209
89	0xbe0042cc	-0.12525481
90	0x3dc04e0a	0.09389885
91	0x3da21df8	0.07915872
92	0x3d5a7656	0.05333551
93	0xbdc336e6	-0.095319554
94	0x3db4ae31	0.08822287
95	0x3e07cd03	0.132618
96	0xbda4a362	-0.08038975
97	0x3e2baf2b	0.1676604
98	0x3df36b53	0.11885705
99	0x3cc95b39	0.024579631
100	0x3e1c2952	0.15250137
101	0x3e1965f0	0.14980292
102	0x3e31297e	0.17300984
103	0x3d3656b0	0.044516265
104	0x3e2d0777	0.16897379
105	0xbde59f71	-0.11212052
106	0xbcc587e7	-0.024112655
107	0x3e0928c7	0.13394462
108	0x3dbbd3a9	0.0917123
109	0x3d21a3a6	0.039462708
110	0x3d026eb6	0.031843863
111	0xbde9903e	-0.11404465
112	0x3e308e59	0.17241801
113	0xbdf2a9f6	-0.11848824
114	0xbd9a2967	-0.07527428
115	0x3d53f7f3	0.051750135
116	0x3de32a12	0.11092009
117	0x3d7c7f1c	0.06164466
118	0x3d8d1a4f	0.068897836
119	0xbdf85e22	-0.121273294
120	0x3d98c48a	0.07459362
121	0xbdfba9d3	-0.12288251
122	0xbe422b61	-0.1896186
123	0x3e272898	0.16324079
124	0xbc9ad74a	-0.018901486
125	0xbe081b76	-0.13291726
126	0x3d39f706	0.045401596
127	0x3e19f92e	0.15036461
128	0xbe0efcbe	-0.13963601
129	0xbe123531	-0.14278103
130	0xbdc61cb0	-0.096734405
131	0x3e29313d	0.16522689
132	0xbe4c8415	-0.1997226
133	0x3d9b4fa1	0.075835474
134	0x3df9f384	0.1220465
135	0xbddbfc20	-0.107414484
136	0x3e254448	0.16139328
137	0x3d8ea0c2	0.06964256
138	0xbd822d32	-0.063562766
139	0x3e0ad530	0.13557887
140	0xbd8cdbeb	-0.068778835
141	0xbe04f156	-0.12982687
142	0xbb2eb216	-0.002665644
143	0x3e02ec2b	0.12785403
144	0xbd93df67	-0.07220345
145	0xbd141c4d	-0.036159802
146	0x3e2ace02	0.16680148
147	0x3d46fd99	0.048581693
148	0xbd9b2ccf	-0.07576906
149	0x3e1a7b1e	0.15086028
150	0x3d877c90	0.06615555
151	0x3dfacdb2	0.122462645
152	0x3df7e11b	0.12103482
153	0xbe36483b	-0.17800991
154	0xbdc998af	-0.09843575
155	0xbe2d58b0	-0.16928363
156	0x3e072ced	0.13200732
157	0x3c699de7	0.014258838
158	0xbd122a70	-0.035685003
159	0x3d7d2479	0.06180236
160	0xbd4cf911	-0.050042216
161	0x3d0bcae5	0.034129042
162	0xbcac8fb6	-0.02106462
163	0xbdc99f2d	-0.098448135
164	0x3ccffd30	0.025389284
165	0x3e3fe19b	0.18738405
166	0xbe27cfab	-0.16387813
167	0x3df656dd	0.120282866
168	0x3d150772	0.036384054
169	0x3e2c2d24	0.16814095
170	0x3d2698e5	0.040673155
171	0xbbf88075	-0.0075836726
172	0x3e1899fc	0.1490249
173	0x3e179e9c	0.14806598
174	0x3da2fb38	0.079580724
175	0xbdbb8c61	-0.091576345
176	0xbe0e0383	-0.13868527
177	0x3e416966	0.18887863
178	0x3cb8e972	0.022572253
179	0xbddf3dbf	-0.10900449
180	0xbddbf0d1	-0.107392915
181	0xbc87c954	-0.016575493
182	0xbd541ad0	-0.051783383
183	0x3d2ffb04	0.042963997
184	0x3df245c7	0.11829715
185	0x3d1caafb	0.038248997
186	0xbdae3903	-0.08506968
187	0x3d112f8e	0.035445742
188	0x3e12db7f	0.14341544
189	0xbd883abd	-0.066518284
190	0x3e19f0a9	0.15033211
191	0x3cbd1431	0.023080917
192	0xbdb8a781	-0.09016324
193	0xbd63f6b5	-0.0556552
194	0xbce97b14	-0.028501071
195	0xbde214d3	-0.11039128
196	0x3d54a5e6	0.051916026
197	0xbe0ca5f1	-0.13735177
198	0x3e1859a6	0.14877948
199	0x3cf05e49	0.029341834
200	0xbd3b8d06	-0.045788787
201	0xbe0d447b	-0.13795654
202	0xbcb319cb	-0.021862885
203	0xbe1827ba	-0.14858904
204	0x3e41063f	0.18850039
205	0xbd2672ba	-0.040636756
206	0xbdfe03ab	-0.12403043
207	0xbdc287a9	-0.09498531
208	0x3d767c4e	0.06017714
209	0xbd09f122	-0.033677228
210	0xbaea1edb	-0.0017861979
211	0x3e2ea383	0.17054562
212	0x3d491e7f	0.04910135
213	0x3dea9498	0.11454123
214	0xbe08f05d	-0.13372941
215	0x3d92d596	0.071696445
216	0xbdf59f93	-0.11993327
217	0x3d843700	0.06455803
218	0xbe1e526f	-0.15461133
219	0xbe07a88f	-0.13247894
220	0xbd9950ac	-0.0748609
221	0x3dbab6c7	0.09116893
222	0x3d9defec	0.07711777
223	0x3d2f1d35	0.042752463
224	0x3e2c7831	0.16842724
225	0x3e130b15	0.14359696
226	0xbd7b9283	-0.06141902
227	0xbd81b7fb	-0.063339196
228	0xbda4f327	-0.0805419
229	0xbcdd94db	-0.027048519
230	0x3dd2a42d	0.1028522
231	0xbba481bc	-0.0050203484
232	0x3dd15994	0.10222164
233	0xbe03d96c	-0.12875909
234	0xbd0d14b6	-0.03444358
235	0x3c3af9c0	0.011412084
236	0xbde6c234	-0.1126751
237	0xbc165989	-0.00917662
238	0xbda351c5	-0.07974581
239	0x3d41b97c	0.047296032
240	0x3e0b599c	0.13608402
241	0xbe223560	-0.15840673
242	0xbe197c19	-0.14988746
243	0xbdb64028	-0.088989556
244	0x3d70ecd0	0.058819592
245	0x3e2d19d8	0.1690439
246	0x3dc85dc0	0.097835064
247	0x3cdb739c	0.026788525
248	0x3d138f76	0.036025487
249	0x3da445aa	0.080211
250	0xbe25becf	-0.16186069
251	0xbd6afc9b	-0.05736981
252	0xbc0b655e	-0.008508055
253	0x3cb4deba	0.02207886
254	0x3dace601	0.08442307
255	0x3d8dfe5d	0.069332816

Network_stack.0.0.gru.bias_ih_l1 f4 [96]
0	0x3cd76440	0.02629292
1	0xbcf24d00	-0.029577732
2	0xbe151a41	-0.14560796
3	0x3dd485d6	0.1037709
4	0xbd8d39a6	-0.06895761
5	0xbdd1d300	-0.10245323
6	0xbe3ffc4b	-0.18748586
7	0x3d965ecf	0.07342302
8	0xbe2363f4	-0.15956098
9	0x3ca1d8c4	0.019756682
10	0xbdc91231	-0.09817923
11	0xbc01afc1	-0.007915438
12	0xbd4dd177	-0.05024859
13	0x3e24562c	0.16048497
14	0xbc7ef230	-0.015560672
15	0xbb9d64d5	-0.00480328
16	0x3cb09899	0.02155714
17	0x3df69269	0.12039644
18	0xbd8b14bd	-0.06791065
19	0xbc853715	-0.016261617
20	0xbc4b3860	-0.012403578
21	0xbda8d1b3	-0.08243122
22	0x3dde7925	0.1086295
23	0xbe13d1aa	-0.14435449
24	0xbd7838aa	-0.060600914
25	0x3d3dda49	0.04635075
26	0x3dba5d6e	0.090998515
27	0xbcfd716d	-0.030937875
28	0x3e8400f3	0.25781974
29	0xbdd2195b	-0.102587424
30	0xbe206189	-0.15662207
31	0x3daee9fc	0.08540723
32	0x3e263484	0.1623097
33	0x3de759e2	0.11296441
34	0xbc3c13df	-0.011479347
35	0x3e29b7f6	0.16574082
36	0xbd927dc2	-0.07152893
37	0x3dfbff02	0.12304498
38	0xbde6b1b0	-0.1126436
39	0x3def9b42	0.11699535
40	0x3cb8b32f	0.022546379
41	0x3dcc2f21	0.099699266
42	0xbc406c89	-0.011744627
43	0x3d93f04e	0.07223569
44	0xbdcc6dd1	-0.09981883
45	0xbd808aa4	-0.062764436
46	0xbe1f27e8	-0.15542567
47	0x3e0cc554	0.1374715
48	0x3b39367c	0.0028261235
49	0x3d9753be	0.073890194
50	0xbe5ea607	-0.21743022
51	0x3de54f63	0.111967824
52	0xbe4836c6	-0.19552144
53	0x3d3bd37a	0.045855977
54	0xbcd1ded5	-0.02561895
55	0xbdb478ed	-0.08812127
56	0x3dde8c05	0.1086655
57	0xbe17e342	-0.14832786
58	0xbd7b1ece	-0.061308675
59	0xbdb5d883	-0.08879187
60	0xbedc1b23	-0.42989454
61	0xbce09edd	-0.027419502
62	0x3db60a88	0.088887274
63	0x3d4c3ef1	0.049864713
64	0xbe1efad1	-0.15525366
65	0xbd8b66b9	-0.06806702
66	0x3d8dd954	0.06926218
67	0x3db90f26	0.090360925
68	0xbdd0275d	-0.10163758
69	0xbd00bc5e	-0.03142964
70	0xbd104aaa	-0.035227455
71	0xbe0969ef	-0.13419317
72	0x3d04c003	0.03240968
73	0xbe1eff5d	-0.15527101
74	0x3e3ab769	0.18234028
75	0x3d8c5561	0.06852222
76	0xbe0a8e94	-0.13530952
77	0xbe075194	-0.13214713
78	0xbe3d2e10	-0.18474603
79	0x3dbbc8f2	0.09169187
80	0xbe2b4b26	-0.16727886
81	0xbe447467	-0.19185029
82	0x3d7a6a92	0.06113679
83	0x3be24ff8	0.0069065057
84	0xbe42e06c	-0.19030923
85	0xbe0280be	-0.12744424
86	0x3d676d82	0.05650092
87	0x3da2533f	0.07926034
88	0xbd2ecf59	-0.04267821
89	0xbdf48552	-0.11939491
90	0x3e181473	0.14851551
91	0xbd890251	-0.06689895
92	0x3d448bbb	0.04798482
93	0x3d2c139a	0.04201088
94	0x3d0fb2da	0.035082676
95	0xbd94d085	-0.072663344

Network_stack.0.0.gru.bias_hh_l1 f4 [96]
0	0xbc8848d1	-0.016636284
1	0xbd007970	-0.03136581
2	0xbdf04662	-0.117321745
3	0x3d60ad9f	0.054853078
4	0x3d82eb0a	0.063924864
5	0x3de9e7a6	0.114211366
6	0xbde124bc	-0.10993335
7	0xbe35cf28	-0.17754805
8	0xbddf623b	-0.10907408
9	0xbe04c5dc	-0.12966102
10	0x3e301d3c	0.17198652
11	0x3e14af47	0.14519988
12	0x3d0537e5	0.03252401
13	0xbd4b749b	-0.04967175
14	0x3ca6de6f	0.020369736
15	0x3e06aea0	0.13152552
16	0xbd662875	-0.056190927
17	0x3e116e9f	0.14202355
18	0xbdd17a1b	-0.10228368
19	0x3c860b41	0.016362788
20	0x3d31534c	0.04329233
21	0x3e043384	0.12910277
22	0xbd309c9e	-0.04311811
23	0xbda91615	-0.08256165
24	0x3e32ce1d	0.17461438
25	0x3d233588	0.039845973
26	0x3d1e039e	0.03857767
27	0xbd45bb06	-0.048274063
28	0x3e016c13	0.12638883
29	0xbc8e3224	-0.017357893
30	0xbe2e3877	-0.17013727
31	0xbcd8a12c	-0.02644404
32	0x3d0be821	0.034156922
33	0xbe00a800	-0.12564087
34	0xbdce24e6	-0.100656316
35	0x3b925c55	0.0044665732
36	0xbe059415	-0.1304477
37	0xbdab8841	-0.08375598
38	0x3d5cb345	0.053881902
39	0xbe187d25	-0.14891489
40	0xbdc162b7	-0.094426565
41	0xbe01c7d6	-0.12673888
42	0x3b9532ca	0.0045531737
43	0xbe00c58d	-0.1257536
44	0xbe0bcc2d	-0.13652106
45	0x3e0b5144	0.13605219
46	0xbe1f9295	-0.1558326
47	0x3d9b7f85	0.07592682
48	0x3c0908b7	0.008363894
49	0x3d8a2086	0.067444846
50	0x3d339e9f	0.043852445
51	0x3cac10fe	0.021004196
52	0xbe4bcd16	-0.19902453
53	0x3db4f1eb	0.08835205
54	0x3bda7af7	0.0066674906
55	0xbdc37244	-0.09543279
56	0x3d453109	0.048142467
57	0xbdf9a09d	-0.12188838
58	0x3d1e41ea	0.03863708
59	0xbd4560d2	-0.04818804
60	0xbe0baa23	-0.13639121
61	0xbd42e3a9	-0.047580395
62	0x3e0fecac	0.14055127
63	0xbd8411b3	-0.06448688
64	0x3dec4782	0.115370765
65	0xbd4dc474	-0.05023618
66	0xbdd2671b	-0.10273572
67	0x3d512111	0.051056925
68	0x3dae27e2	0.08503701
69	0xbdac19b7	-0.08403342
70	0xbdd23353	-0.102636956
71	0x3dd58501	0.10425759
72	0xbe160869	-0.14651646
73	0x3c9c18e8	0.019054845
74	0x3de3bce5	0.11120013
75	0xbdf444e6	-0.11927204
76	0xbe0706b8	-0.13186157
77	0xbe1b4462	-0.15162805
78	0xbcab4dc7	-0.02091111
79	0xbd86732d	-0.06564937
80	0x3db18138	0.08667225
81	0xbe32954f	-0.17439769
82	0x3d159bac	0.036525413
83	0xbe0ff8ad	-0.14059706
84	0x3c9ee2a4	0.01939518
85	0xbd034906	-0.032052062
86	0xbe2382d7	-0.1596788
87	0xbda11e7d	-0.07867143
88	0xbd94ccef	-0.072656505
89	0x3c0de480	0.008660436
90	0x3d13b1ac	0.036058113
91	0x3d059500	0.0326128
92	0x3de7f9de	0.11326955
93	0xbe403661	-0.18770744
94	0x3de3bec8	0.11120373
95	0x3dedb2e3	0.116063856

Network_stack.1.0.gru.weight_ih_l0 f4 [96, 2]
0	0x3e2c4d0f	0.1682627
1	0x3e3bc7a7	0.1833788
2	0x3ce0be3a	0.027434457
3	0x3c459807	0.012060172
4	0x3de07fdd	0.10961888
5	0xbe17c51c	-0.14821285
6	0xbe484076	-0.1955584
7	0x3ccc336f	0.02492687
8	0x3c21616a	0.0098498855
9	0x3c9d2b9b	0.019185832
10	0x3da191b4	0.07889119
11	0xbd4bde81	-0.049772743
12	0xbc92c3f5	-0.017915705
13	0x3c113bbc	0.008864339
14	0xbd98ba0b	-0.0745736
15	0x3db8511f	0.089998476
16	0xbdfa7034	-0.12228432
17	0xbdbee4bb	-0.093209706
18	0x3ddd04a1	0.107918985
19	0x3e44c73d	0.19216628
20	0xbced8f01	-0.028998854
21	0x3dc76668	0.09736329
22	0xbdc0e597	-0.09418791
23	0xbd8bd460	-0.06827617
24	0xbe07edad	-0.1327426
25	0x3d5ab28a	0.053392924
26	0xbce76e47	-0.028250827
27	0xbda41cd1	-0.08013309
28	0x3dc69828	0.0969699
29	0x3d6d93f1	0.058002416
30	0x3da5c47b	0.08094116
31	0x3e42e9ff	0.19034575
32	0x3de709cb	0.11281165
33	0xbc0a45ee	-0.008439524
34	0xbe05f181	-0.13080408
35	0xbd7450fb	-0.05964754
36	0x3dc524e3	0.09626176
37	0x3d66e953	0.05637486
38	0xbd9f0caf	-0.07766091
39	0xbe426a95	-0.1898597
40	0xbbcb9aa4	-0.006213503
41	0x3d84507d	0.064606644
42	0xbc99e8bd	-0.018787736
43	0xbd524a30	-0.051340282
44	0x3e151b50	0.145612
45	0xbe3b03a7	-0.18263112
46	0x3e36e1c8	0.17859566
47	0xbe1d4729	-0.15359177
48	0x3d650df0	0.055921495
49	0x3dd8649c	0.10566065
50	0x3d8507c7	0.06495624
51	0x3e018510	0.12648416
52	0x3db38012	0.08764662
53	0x3e4928b4	0.19644433
54	0xbd0e151d	-0.034688104
55	0x3c27be63	0.010238263
56	0x3e423e02	0.18968967
57	0x3df52fba	0.11971994
58	0xbe070c3e	-0.13188264
59	0x3dead53a	0.11466451
60	0xbdfa1310	-0.12210667
61	0xbe110df1	-0.14165474
62	0xbd94f596	-0.07273404
63	0x3e1d4370	0.15357757
64	0x3d86d4a5	0.065835275
65	0xbe00f0c6	-0.12591848
66	0x3d58eb6a	0.052958883
67	0xbdd9482c	-0.10609469
68	0x3db24383	0.08704283
69	0xbcdfd759	-0.027324365
70	0xbd75e1ad	-0.060029674
71	0xbc830e57	-0.015998049
72	0x3db4354f	0.0879923
73	0xbcb2de79	-0.021834599
74	0xbc001e83	-0.007819775
75	0xbd1b08fc	-0.037850365
76	0xbdf0d686	-0.11759667
77	0x3d56ed0c	0.05247216
78	0x3dbd4ba1	0.09242941
79	0xbe2c719a	-0.1684021
80	0xbdcbb35c	-0.099463195
81	0x3d8f2ad3	0.0699059
82	0x3d98c801	0.07460023
83	0xbe236f18	-0.15960348
84	0x3e06f970	0.1318109
85	0x3b53f377	0.0032341161
86	0x3d2deeea	0.042464174
87	0xbd6236f1	-0.055228177
88	0x3e01edb6	0.12688336
89	0x3d5d2177	0.053986993
90	0xbdfe9206	-0.124301955
91	0x3e05c5e1	0.13063766
92	0xbe4e0918	-0.20120656
93	0xbc5dd1d7	-0.013538799
94	0x3db5a52e	0.08869396
95	0x3d5d5c1f	0.05404293
96	0xbe130767	-0.14358293
97	0xbd94e247	-0.072697215
98	0xbda7d9ab	-0.08195814
99	0xbd4743db	-0.048648696
100	0xbcde9301	-0.027169706
101	0xbd8ad179	-0.06778235
102	0xbd27b4cd	-0.04094391
103	0xbe2267aa	-0.15859857
104	0xbe3b5a02	-0.18296054
105	0xbdf0f2fb	-0.11765095
106	0x3e0714e3	0.13191561
107	0x3e379037	0.17926107
108	0xbe5b0629	-0.21389069
109	0xbe8a9dc5	-0.27073494
110	0x3d575750	0.052573502
111	0xbcc41918	-0.023937747
112	0x3dcff3b3	0.10153904
113	0x3d33e4ac	0.04391925
114	0x3cfe7021	0.031059327
115	0x3ea6c2dc	0.3257054
116	0xbe53d5f7	-0.2068709
117	0xbe01ebcc	-0.12687606
118	0xbe0394b5	-0.12849696
119	0x3c0f98e5	0.00876448
120	0xbe189a60	-0.1490264
121	0xbddaa1bd	-0.106753804
122	0xbe2f6c0b	-0.17131059
123	0xbe5e00d8	-0.2168001
124	0xbe041f65	-0.12902601
125	0xbe23f005	-0.16009529
126	0xbdae8cb3	-0.0852293
127	0xbe4c8747	-0.19973479
128	0xbe254ac9	-0.1614181
129	0xbd6f336d	-0.058398653
130	0xbd5d4ca5	-0.054028172
131	0xbcba8470	-0.02276823
132	0x3d3319fb	0.04372595
133	0x3d25fbff	0.040523525
134	0x3d559576	0.05214449
135	0xbda269a3	-0.07930305
136	0x3cc509af	0.024052469
137	0x3dcc32a5	0.09970597
138	0xbe2a86b5	-0.16652949
139	0x3d8fbdb9	0.070186086
140	0x3df2ab89	0.11849124
141	0x3e2338c4	0.15939623
142	0x3b9cd72d	0.004786393
143	0xbd8d0be6	-0.06887035
144	0xbde96b75	-0.11397449
145	0xbd2e14bd	-0.042500246
146	0xbbea3195	-0.007147024
147	0xbd90d7c5	-0.07072405
148	0xbe30a5f8	-0.17250812
149	0x3dc9cc29	0.098533936
150	0x3e2fccdc	0.17167991
151	0x3da708e8	0.081559956
152	0xbd5e5e3c	-0.054289088
153	0x3e42ba46	0.1901637
154	0x3e33db7e	0.17564198
155	0xbe3a79ac	-0.18210477
156	0x3d50fd76	0.05102297
157	0xbd469a34	-0.048486903
158	0x3dd53992	0.10411371
159	0x3df25dc3	0.1183429
160	0x3dc3f393	0.095679425
161	0xbcc54b09	-0.024083631
162	0xbd7ffaff	-0.062495228
163	0xbdcf8f2a	-0.10134728
164	0xbdf8e85b	-0.12153693
165	0x3de64461	0.11243511
166	0xbe1038ba	-0.1408414
167	0x3b0da912	0.0021615666
168	0x3d7421c3	0.05960251
169	0x3e2014b3	0.15632896
170	0xbd52319b	-0.05131684
171	0x3d1a2dfa	0.037641503
172	0x3e29150a	0.16511932
173	0x3db4e945	0.08833555
174	0xbccc2cd0	-0.024923712
175	0xbe0f32a7	-0.13984166
176	0xbe113ecf	-0.14184116
177	0x3d5bfac5	0.05370595
178	0xbc19ca3d	-0.009386596
179	0x3d6c20d0	0.05764848
180	0x3e0674d0	0.13130498
181	0x3e14eade	0.1454272
182	0x3d9a8343	0.075445674
183	0x3d75f8ca	0.060051717
184	0xbc142b23	-0.009043488
185	0xbd44779c	-0.04796563
186	0xbdc2e684	-0.095166236
187	0xbda28d3a	-0.07937093
188	0x3e1d6632	0.15371016
189	0x3da0a480	0.07843876
190	0xbe245e03	-0.16051488
191	0x3da20488	0.079110205

Network_stack.1.0.gru.weight_hh_l0 f4 [96, 32]
0	0x3e09a9f5	0.1344374
1	0xbcaf1474	-0.021372057
2	0x3d6eda83	0.058313858
3	0x3dad9cbe	0.08477162
4	0x3d9a796d	0.075426914
5	0xbe026c4f	-0.12736629
6	0x3d99858a	0.07496174
7	0x3d25f380	0.040515423
8	0x3c1b1eaf	0.009467765
9	0xbdddeb86	-0.10835938
10	0x3dc20bb5	0.09474889
11	0x3dd53ed4	0.10412374
12	0x3dc20345	0.0947328
13	0x3c765185	0.015034084
14	0xbd8c9c5b	-0.0686576
15	0xbdff7a3c	-0.12474486
16	0xbd56a8e1	-0.05240715
17	0xbe2431f8	-0.16034687
18	0x3d037b2e	0.032099895
19	0xbcad557d	-0.021158928
20	0x3e1491ce	0.14508745
21	0xbdb547e6	-0.08851604
22	0x3d6775b4	0.056508735
23	0x3d69c338	0.05707094
24	0xbc658078	-0.01400768
25	0xbc824c40	-0.0159055
26	0xbd765f12	-0.06014926
27	0x3c11535a	0.00886997
28	0x3e0d3bd0	0.13792348
29	0x3ca5e979	0.02025293
30	0x3db896dc	0.09013149
31	0x3e09002d	0.13378973
32	0xbb3f144d	-0.0029156387
33	0xbc990cd7	-0.01868288
34	0x3c063578	0.008191459
35	0xbe223356	-0.15839896
36	0xbda53db4	-0.080684096
37	0x3c9304d5	0.01794664
38	0xbd3e0553	-0.046391796
39	0xbd8a5a10	-0.06755459
40	0xbcccf059	-0.02501695
41	0x3e0523d5	0.1300195
42	0xbe1d54cb	-0.15364377
43	0x3e214c45	0.15751751
44	0x3dbc0ae6	0.09181766
45	0x3e02658d	0.12734051
46	0x3def13bd	0.11673687
47	0x3d84c797	0.06483381
48	0x3a22fef3	0.00062178
49	0x3da6244a	0.0811239
50	0x3d22cf15	0.03974827
51	0x3d075cce	0.03304749
52	0x3d250e6c	0.040296957
53	0x3c13f241	0.009029926
54	0xbd48a031	-0.048980895
55	0xbbfaad4c	-0.007650053
56	0xbd9f8a4e	-0.077900514
57	0x3d580f9c	0.05274926
58	0xbdce26df	-0.10066008
59	0x3d110aff	0.035410877
60	0xbd8fc2ae	-0.07019554
61	0x3c13b0e2	0.00901434
62	0xbdfe2a7c	-0.12410447
63	0x3e1cb77e	0.15304372
64	0xbc138d92	-0.009005921
65	0x3e04fb8d	0.12986584
66	0x3e104393	0.14088278
67	0xbbb2272f	-0.0054368
68	0x3dd31d71	0.1030835
69	0x3da6528b	0.081212126
70	0x3da4fdf8	0.08056253
71	0xbcf22f66	-0.029563617
72	0xbda77396	-0.08176343
73	0x3bb7db24	0.0056108404
74	0x3c046ab7	0.008082083
75	0xbd9271e1	-0.07150627
76	0x3da89d1a	0.0823309
77	0xbdb0637b	-0.086127244
78	0x3dfc1bf0	0.12310016
79	0xbddeac82	-0.10872747
80	0xbd18070b	-0.03711609
81	0xbba43d50	-0.005012192
82	0x3d5715be	0.05251097
83	0x3d2e70e2	0.042588122
84	0xbbe863a1	-0.007091955
85	0x3e1a2fbd	0.15057273
86	0x3dc3f054	0.09567323
87	0x3d7b6da4	0.06138386
88	0xbc37fe22	-0.011230024
89	0x3df364cb	0.11884459
90	0xbdb33739	-0.08750767
91	0xbddfad70	-0.109217525
92	0xbe183b8c	-0.14866465
93	0xbdcf1b98	-0.10112685
94	0x3d93ac73	0.072106265
95	0xbde1b145	-0.110201396
96	0x3d678050	0.056518853
97	0xbe21ad1c	-0.15788692
98	0x3df02bc4	0.11727098
99	0xbe18863d	-0.14894958
100	0xbda2474a	-0.079237536
101	0x3ddc0e25	0.10744885
102	0x3ddcaa53	0.10774674
103	0xbda70c51	-0.08156646
104	0x3e2e1f60	0.17004156
105	0x3df72a98	0.12068671
106	0xbe1578b5	-0.14596827
107	0x3d51b61e	0.05119907
108	0x3ba15c56	0.0049243374
109	0xbe16eda6	-0.14739093
110	0xbdab81d7	-0.08374374
111	0xbe025fec	-0.12731904
112	0xbc9bef93	-0.019035136
113	0xbe0ca101	-0.13733293
114	0xbdc1c25e	-0.09460901
115	0x3d856be5	0.0651472
116	0x3d6ef51b	0.05833922
117	0x3dac055a	0.08399458
118	0x3da14404	0.07874301
119	0x3d83c470	0.06433952
120	0xbe15c26f	-0.14624952
121	0xbda2c303	-0.07947352
122	0x3dec68d8	0.11543435
123	0x3d9ede9f	0.07757305
124	0x3d191fbc	0.03738378
125	0x3d79b247	0.060961034
126	0x3e23dbc0	0.16001797
127	0x3e1108b6	0.14163479
128	0xbe331b07	-0.17490779
129	0xbdf73619	-0.12070865
130	0xbdfbee7d	-0.123013474
131	0x3dcd38cd	0.100205995
132	0x3de797ad	0.11308227
133	0xbcc3dcd4	-0.02390901
134	0xbdbe9138	-0.09305042
135	0x3e17edd0	0.14836812
136	0x3d4a5986	0.049401782
137	0xbde27809	-0.11058051
138	0xbe166837	-0.14688192
139	0xbdca3a6f	-0.098744266
140	0x3e0c97d5	0.13729794
141	0x3ce06d4c	0.027395867
142	0xbe05b07b	-0.13055603
143	0x3d93c96d	0.07216153
144	0xbe1fed36	-0.15617833
145	0xbc583dac	-0.0131982975
146	0xbd89d452	-0.0672995
147	0x3e02cf6a	0.12774435
148	0xbd18d294	-0.037310198
149	0xbd9b0694	-0.07569614
150	0xbbb35415	-0.00547267
151	0xbdb61fb5	-0.088927664
152	0x3ded3156	0.11581676
153	0xbde76887	-0.11299234
154	0x3dc91835	0.0981907
155	0xbe1a9d3d	-0.15099044
156	0x3d8d4cc0	0.068994045
157	0xbc9ca3bd	-0.019121045
158	0x3e2d826a	0.1694428
159	0x3e23ceb6	0.15996823
160	0xbd891316	-0.066930935
161	0x3d594f78	0.053054303
162	0xbc239cdc	-0.009986129
163	0x3d21c503	0.039494526
164	0x3d9fe32d	0.07807002
165	0xbdb3efba	-0.087859586
166	0xbdf99b61	-0.12187839
167	0x3cfc878a	0.030826349
168	0xbc2609d2	-0.010134177
169	0xbc9e6f7b	-0.019340267
170	0xbe3bf87d	-0.1835651
171	0xbd92548e	-0.07145034
172	0x3dbfc267	0.09363251
173	0xbd38851d	-0.04504882
174	0xbda4a74b	-0.08039721
175	0x3d1c8263	0.038210284
176	0xbc994803	-0.018711096
177	0xbe39a7b7	-0.18130384
178	0x3e20a4f7	0.15687929
179	0xbe29a92e	-0.16568443
180	0xbd1ec80c	-0.038765
181	0x3e13a53e	0.14418504
182	0xbe3aa08e	-0.18225309
183	0x3db49066	0.08816604
184	0xbd868652	-0.06568588
185	0x3cdd095c	0.026982002
186	0xbe09a80f	-0.13443016
187	0x3df2d81f	0.11857628
188	0x3e088bc5	0.13334568
189	0x3d8afd85	0.06786636
190	0xbd589b20	-0.052882314
191	0x3de7ad6c	0.113123745
192	0xbe378926	-0.17923412
193	0xbd2c2b4d	-0.042033482
194	0x3ce7caff	0.028295038
195	0xbb9a377b	-0.004706321
196	0x3de1af13	0.11019721
197	0x3e10d091	0.14142062
198	0x3cd25776	0.02567647
199	0x3e2b23d4	0.16712886
200	0x3dc80a65	0.097676076
201	0x3c67c239	0.014145427
202	0x3dd56c97	0.104211025
203	0xbdffac9c	-0.124840945
204	0xbd7051fd	-0.05867194
205	0x3ab97bd4	0.0014151284
206	0x3e1ee2b4	0.15516168
207	0x3e270c97	0.16313396
208	0x3d1108fc	0.03540896
209	0x3d2a9cf0	0.041653574
210	0xbdcc35f5	-0.09971229
211	0x3c1d98f0	0.009618983
212	0xbc9d9106	-0.019234192
213	0xbdf4e4d7	-0.1195771
214	0x3d9349bd	0.07191799
215	0xbe3c37b1	-0.1838062
216	0x3dab8c28	0.08376342
217	0x3e0a82b4	0.13526422
218	0xbe02d88d	-0.1277792
219	0x3b995ccf	0.004680253
220	0xbe25a1b3	-0.16174965
221	0x3e22ca49	0.15897478
222	0xbdef632d	-0.11688838
223	0xbe151ce3	-0.145618
224	0x3d87c06c	0.066284984
225	0x3d5e2de5	0.054242987
226	0xbb088eec	-0.0020837141
227	0x3ca03cf6	0.019560318
228	0xbda57743	-0.08079388
229	0xbd927036	-0.07150309
230	0xbd16cc30	-0.036815822
231	0x3e0f7741	0.14010336
232	0x3d294172	0.04132218
233	0xbe551683	-0.20809369
234	0x3e0010a6	0.12506351
235	0x3d54d22c	0.051958248
236	0x3e1121fb	0.14173119
237	0xbe1c4cd3	-0.15263681
238	0x3d8d27f7	0.06892388
239	0xbb0e9a3b	-0.002175941
240	0x3e047ce5	0.12938268
241	0xbda028d7	-0.078202896
242	0x3dd3f62a	0.103496864
243	0xbca0d1d7	-0.01963131
244	0xbdccc8b0	-0.099992156
245	0x3da8d337	0.08243411
246	0xbdac55b9	-0.08414788
247	0xbcb382b7	-0.021912916
248	0x3d9c1b65	0.076224126
249	0xbd8e623d	-0.06952331
250	0x3e237cae	0.1596553
251	0x3dc33e59	0.09533376
252	0xbe26ac6a	-0.16276708
253	0xbdb5ffe3	-0.08886697
254	0xbbca9658	-0.006182473
255	0xbde5b416	-0.11215989

Network_stack.1.0.gru.bias_ih_l0 f4 [96]
0	0xbde5ab99	-0.1121437
1	0x3d73686a	0.05942575
2	0x3de44d61	0.11147571
3	0x3dc4b24f	0.09604322
4	0xbdbdf54a	-0.09275301
5	0x3e0ebc38	0.13938987
6	0x3db6348c	0.08896741
7	0xbdbd631f	-0.092474215
8	0x3dff6ac5	0.124715365
9	0x3e434239	0.1906823
10	0x3e197e51	0.14989592
11	0xbd8e342f	-0.06943547
12	0xbc98f973	-0.018673634
13	0x3cfeeb55	0.031118074
14	0xbe2c0d94	-0.16802055
15	0xbceb290a	-0.028706092
16	0xbe2eb45a	-0.17060986
17	0x3c7c7245	0.015408103
18	0xbe37399b	-0.17893068
19	0xbe2898ac	-0.1646449
20	0x3d593ef5	0.053038556
21	0xbd866951	-0.06563056
22	0xbe0c434c	-0.13697547
23	0x3e0a2f0f	0.13494514
24	0x3c936002	0.017990116
25	0xbc86b736	-0.016444784
26	0xbe26e97a	-0.16300002
27	0x3e0245c1	0.12721922
28	0xbde266aa	-0.11054738
29	0xbde25a8d	-0.110524274
30	0xbd30fa17	-0.043207254
31	0xbda74dad	-0.08169112
32	0xbe0a9063	-0.13531642
33	0x3c3ca4a0	0.011513859
34	0x3e4340c0	0.19067669
35	0x3e1efac3	0.15525346
36	0xbd53258c	-0.05154948
37	0x3d8fb039	0.07016034
38	0xbcbf8d1b	-0.023382714
39	0xbdc753fa	-0.09732814
40	0xbe4262aa	-0.1898295
41	0x3d990e28	0.07473403
42	0x3c259cc6	0.0101081785
43	0x3d9ef7b4	0.07762089
44	0x3e113aaa	0.14182535
45	0xbb3f4855	-0.00291874
46	0xbdf8b052	-0.121430054
47	0x3d8f57a1	0.06999136
48	0xbaa06d25	-0.0012239559
49	0xbdc69cbc	-0.096978635
50	0xbc8fee9e	-0.017569836
51	0xbd23991b	-0.039940935
52	0x3cd25785	0.025676498
53	0x3bba4149	0.005684052
54	0xbe064c20	-0.13114977
55	0xbdac1373	-0.08402147
56	0xbc6b78b2	-0.014372038
57	0xbe1cef85	-0.15325744
58	0xbc361e16	-0.0111155715
59	0xbe44e9c7	-0.19229804
60	0x3d2a699c	0.041604623
61	0xbe65bc05	-0.22435005
62	0xbdaac029	-0.08337433
63	0xbdcbda2c	-0.09953722
64	0x3e27e7cb	0.16397016
65	0x3d4760dc	0.048676357
66	0xbdbe2497	-0.09284323
67	0xbd3d6b05	-0.04624464
68	0x3ce133a9	0.027490454
69	0xbd1d66cc	-0.038428113
70	0x3d40f530	0.04710883
71	0x3cb03f84	0.021514662
72	0xbc560612	-0.013062971
73	0x3d851267	0.064976506
74	0xbe0703bf	-0.13185023
75	0x3e104680	0.14089394
76	0x3df8ff28	0.12158042
77	0x3d17a4be	0.037022345
78	0xbe024341	-0.12720968
79	0x3c978c60	0.018499553
80	0x3de2f5e6	0.11082058
81	0xbdf3210b	-0.11871537
82	0x3d327896	0.04357203
83	0xbdf66a81	-0.12032033
84	0xbcb6a081	-0.022293331
85	0x3d865f84	0.06561187
86	0x3a8c95df	0.0010725817
87	0xbd4e55cd	-0.050374795
88	0x3d6a84cd	0.057255555
89	0xbcbf7519	-0.023371266
90	0xbe04f554	-0.1298421
91	0x3cfc6e0a	0.03081419
92	0x3e1bb397	0.15205227
93	0xbd4fc8b1	-0.050728504
94	0xbdee7889	-0.11644084
95	0x3e193e17	0.14965092
