models/model_uniform_region_0-0.3.0.6-0.9_multiple_Agentsbfbe4174.pth (torch, 675014 bytes, 132 tensors)

Network_stack.0.0.gru.weight_ih_l0 f4 [96, 1]
-0.2578469 0.14109737 0.15057261 0.15339719 0.26692232 -0.027990025 0.075808026 0.15638487
-0.031794775 0.027388154 -0.013495216 0.34346187 -0.03310546 -0.119661644 -0.057901334 0.07766032
-0.13638763 -0.1202844 0.05929443 -0.14500411 -0.023292294 -0.18057029 -0.027853485 -0.16165681
-0.15049733 0.18289791 -0.09357391 0.149439 0.00308784 0.11748951 -0.076086804 -0.0112918895
-0.1671176 0.25986657 0.048848234 -0.20511697 -0.2650159 -0.2037999 -0.01786668 0.15984045
0.48149267 0.18575132 -0.06848542 -0.7829209 -0.09872988 0.08599703 0.25155604 0.19980727
0.47273493 0.44199318 0.020266572 -0.21188581 0.008452283 -0.12970424 -0.0896088 0.11791011
-0.12175098 0.17476611 1.2995088 -0.68373406 -0.22073954 -0.067260295 0.84829044 -0.0077445908
-0.16148643 -0.028338915 -0.09057196 -0.09914044 0.26641908 -0.062101915 0.12144362 0.1654156
-0.015721647 0.053165995 0.109530985 0.2814064 0.11421392 -0.10315306 -0.17399861 0.08590584
-0.16464403 0.033208624 -0.17641224 0.15616146 0.014084262 0.1844819 0.09329003 -0.16873004
0.09435909 0.015391079 0.09295028 0.19966245 -0.20257923 0.043479133 0.13995598 0.007221286
00000000: 8204 84be d47b 103e b52f 1a3e 2714 1d3e
00000010: 0baa 883e 564b e5bc 3d41 9b3d 5b23 203e
00000020: 3d3b 02bd 1f5d e03c 0a1b 5dbc 3cda af3e
00000030: 9799 07bd 2a11 f5bd f329 6dbd 600c 9f3d
00000040: 33a9 0bbe ab57 f6bd b7de 723d f57b 14be
00000050: 7bcf bebc 6be7 38be fe2c e4bc 5d89 25be
00000060: f91b 1abe 9749 3b3e aea3 bfbd 8a06 193e
00000070: 5c5d 4a3b 579e f03d 66d3 9bbd 9e01 39bc
00000080: e020 2bbe 3b0d 853e 1615 483d 2f0a 52be
00000090: 2ab0 87be ecb0 50be 255d 92bc 37ad 233e
000000a0: 3586 f63e 9835 3e3e 1542 8cbd 816d 48bf
000000b0: e432 cabd 361f b03d f4cb 803e 479a 4c3e
000000c0: 500a f23e ee4c e23e 1506 a63c 98f8 58be
000000d0: 727b 0a3c 30d1 04be d284 b7bd db7a f13d
000000e0: 9458 f9bd e3f5 323e 4e56 a63f 3209 2fbf
000000f0: 8c09 62be c4bf 89bd 9029 593f 56c6 fdbb
00000100: b35c 25be 0327 e8bc cb7d b9bd 250a cbbd
00000110: 1568 883e 945e 7ebd 6fb7 f83d b562 293e
00000120: afca 80bc 96c4 593d c851 e03d 8014 903e
00000130: fde8 e93d e941 d3bd b12c 32be 67ef af3d
00000140: 7298 28be c405 083d 69a5 34be cae8 1f3e
00000150: adc1 663c d3e8 3c3e d80e bf3d 91c7 2cbe
00000160: 573f c13d dd2a 7c3c b75c be3d 5074 4c3e
00000170: ee70 4fbe 2d17 323d 9f50 0f3e 8aa0 ec3b

Network_stack.0.0.gru.weight_hh_l0 f4 [96, 32]
0.19477233 -0.07826366 -0.13373853 0.1268418 -0.11385674 -0.13311213 -0.061873347 -0.22524337
-0.08274333 -0.080540806 -0.04984745 -0.18647803 -0.13480043 0.20057292 0.047377568 0.13127899
0.15954149 -0.032271568 0.23160735 -0.20813377 -0.0051238984 -0.07578405 -0.026833303 0.016971411
0.109432034 0.07859612 -0.13363463 -0.06270591 0.13124013 0.018012444 -0.010090523 -0.15627573
0.07198154 0.0074356464 0.16839653 -0.022183795 -0.016950164 -0.09379537 -0.16820422 0.024289338
-0.16744176 -0.012700852 -0.16603336 0.15682966 -0.0497829 0.08616254 0.0976016 -0.120567836
-0.0076973154 -0.060083136 0.080037236 -0.05948548 -0.0050768526 -0.03632864 -0.007383199 0.07041713
0.07899348 0.09870641 0.31576067 0.23358002 -0.07744802 -0.0739122 0.14513317 -0.003937046
0.039317273 0.008559355 0.0268001 0.044885136 -0.07749957 -0.13301247 0.038628954 -0.030167516
-0.020253437 -0.10433581 -0.040639546 0.032935075 -0.026149614 0.15064305 -0.19721061 0.015620696
-0.117952004 -0.07914823 0.069209814 0.105491 0.12884533 -0.15734985 -0.09462248 -0.02691856
-0.054569166 -0.06807409 0.10700453 0.08155108 -0.026775286 -0.13092756 -0.13347314 0.01407492
0.05127878 0.15889798 0.13511257 -0.03481651 0.10346591 -0.013675656 -0.061038196 0.09400408
-0.15323603 -0.018592093 -0.0073025175 -0.15679227 -0.03866725 -0.10496513 0.082256496 0.0838318
0.18096617 0.035745453 -0.111605026 -0.12550326 -0.13039589 -0.15860626 -0.13748698 0.1389513
0.13984765 -0.0995842 -0.027420875 0.12128433 0.09576325 0.17731759 0.08570267 0.08451929
-0.1295395 0.10851092 -0.1387211 -0.14923863 -0.17568295 -0.043952662 -0.07386957 -0.08729834
-0.12536809 0.08447746 -0.028565945 0.2573532 -0.09695506 -0.18758033 0.05410383 0.030836474
-0.19010277 0.095468044 -0.24968877 0.14847048 -0.091656156 0.23756786 -0.058278427 0.0067235255
0.010587674 -0.13315721 0.046637464 0.2537341 -0.06976499 -0.070308246 0.059530612 -0.17279424
0.05092605 -0.11320569 0.017536122 0.022446962 0.019193782 0.16552699 -0.025852393 -0.123972185
0.022966295 -0.08256486 0.028057327 0.020657323 -0.1377856 -0.018739825 -0.08877761 0.15485542
-0.13868612 0.03989272 0.044018026 -0.0005381446 -0.103850275 -0.11556262 0.041274197 -0.091556646
-0.06981416 0.13508222 -0.015555081 -0.12493388 -0.10508518 0.021448014 -0.041878242 -0.042240717
-0.081109755 -0.0012729233 -0.107416525 0.079552956 -0.11916116 -0.020531423 -0.015555107 -0.0666379
0.040953737 -0.15637694 0.019028366 0.03695299 0.15582778 -0.018672803 -0.107772104 -0.1279554
0.04083287 0.17440976 0.1578628 -0.09012739 -0.06953684 -0.09907951 0.038530953 -0.15549207
0.018861562 -0.13446999 -0.1265938 0.07423232 -0.06042553 -0.076098226 0.03204112 0.06908421
0.05210223 -0.0736917 0.1480939 0.09405812 0.18630709 0.1014831 0.124607064 0.018820517
0.1783667 0.081506066 -0.083962776 0.07320161 -0.1331169 -0.12540136 -0.040872995 -0.10560961
-0.12062842 0.14981344 -0.013135482 0.20050119 0.097635604 0.045977853 0.059637528 -0.1112144
0.036034778 0.0861153 -0.06081862 0.16031708 -0.039319742 0.099847674 -0.061992284 0.16666482
00000000: 6672 473e b348 a0bd c1f2 08be d1e2 013e
00000010: b92d e9bd 8c4e 08be e86e 7dbd 33a6 66be
00000020: 5675 a9bd 94f2 a4bd d72c 4cbd 19f4 3ebe
00000030: 2009 0abe fd62 4d3e fb0e 423d 006e 063e
00000040: d85e 233e 312f 04bd 7a2a 6d3e 0521 55be
00000050: 60e6 a7bb ab34 9bbd 84d1 dbbc a107 8b3c
00000060: e71d e03d 01f7 a03d 84d7 08be f56b 80bd
00000070: d063 063e d58e 933c b952 25bc bf06 20be
00000080: 0f6b 933d b9a6 f33b 2470 2c3e caba b5bc
00000090: 12db 8abc c917 c0bd ba3d 2cbe 6ffa c63c
000000a0: da75 2bbe 3c17 50bc a604 2abe f497 203e
000000b0: 27e9 4bbd fc75 b03d 59e3 c73d 45ec f6bd
000000c0: c339 fcbb bc19 76bd 90ea a33d 0ca7 73bd
000000d0: ba5b a6bb 57cd 14bd c3ee f1bb db36 903d
000000e0: 55c7 a13d 9626 ca3d 62ab a13e 9a2f 6f3e
000000f0: 119d 9ebd 485f 97bd ca9d 143e 5602 81bb
00000100: 260b 213d 893c 0c3c e28b db3c 7ad9 373d
00000110: 18b8 9ebd 6c34 08be 6539 1e3d de21 f7bc
00000120: 89ea a5bc 03ae d5bd a775 26bd eee6 063d
00000130: b737 d6bc 2c42 1a3e 94f1 49be f3ed 7f3c
00000140: d290 f1bd 7818 a2bd e0bd 8d3d aa0b d83d
00000150: 08f0 033e 5220 21be 6ec9 c1bd 5084 dcbc
00000160: eb83 5fbd 6e6a 8bbd 3125 db3d 4104 a73d
00000170: d857 dbbc e011 06be 2fad 08be 7e9a 663c
00000180: b309 523d 27b6 223e f35a 0a3e c29b 0ebd
00000190: efe5 d33d dc0f 60bc 3003 7abd 3685 c03d
000001a0: e8e9 1cbe 724e 98bc f549 efbb 278e 20be
000001b0: 8d61 1ebd f5f7 d6bd 1876 a83d 02b0 ab3d
000001c0: 324f 393e d369 123d 2d91 e4bd ed83 00be
000001d0: 8086 05be ae69 22be 63c9 0cbe 4049 0e3e
000001e0: 3934 0f3e cdf2 cbbd bea1 e0bc eb63 f83d
000001f0: 861f c43d be92 353e e284 af3d 7318 ad3d
00000200: 01a6 04be f93a de3d e70c 0ebe 03d2 18be
00000210: 3be6 33be b507 34bd ee48 97bd 79c9 b2bd
00000220: 7e60 00be 8502 ad3d 2103 eabc ccc3 833e
00000230: 6090 c6bd 0f15 40be fa9b 5d3d c69c fc3c
00000240: 4daa 42be c084 c33d 6aae 7fbe a508 183e
00000250: 39b6 bbbd fd44 733e 5cb5 6ebd 0551 dc3b
00000260: ec77 2d3c 5d5a 08be ed06 3f3d 70e9 813e
00000270: f2e0 8ebd c5fd 8fbd 5fd6 733d f9f0 30be
00000280: d597 503d 63d8 e7bd eaa7 8f3c b1e2 b73c
00000290: 473c 9d3c e87f 293e 66c8 d3bc 21e5 fdbd
000002a0: d023 bc3c c417 a9bd 7bd8 e53c 8c39 a93c
000002b0: ab17 0dbe 4384 99bc 09d1 b5bd 6b92 1e3e
000002c0: bc03 0ebe 8c66 233d 3f4c 343d 4612 0dba
000002d0: 74af d4bd 18ac ecbd 220f 293d 0d82 bbbd
000002e0: bafa 8ebd fe52 0a3e bdda 7ebc 56dd ffbd
000002f0: e636 d7bd bfb3 af3c 8588 2bbd 9a04 2dbd
00000300: df1c a6bd 38d8 a6ba 32fd dbbd a9ec a23d
00000310: c40a f4bd 8431 a8bc d9da 7ebc 7479 88bd
00000320: 1bbf 273d 4721 20be 60e1 9b3c 055c 173d
00000330: 5191 1f3e b5f7 98bc 9fb7 dcbd be06 03be
00000340: 5e40 273d 7998 323e c9a6 213e b694 b8bd
00000350: 5569 8ebd 33ea cabd a2d2 1d3d 5039 1fbe
00000360: 9083 9a3c 80b2 09be cea1 01be 1d07 983d
00000370: c380 77bd 63d9 9bbd 8d3d 033d 067c 8d3d
00000380: 2669 553d adeb 96bd eda5 173e 8ba1 c03d
00000390: 49c7 3e3e 5fd6 cf3d fd31 ff3d 7c2d 9a3c
000003a0: c3a5 363e a7ec a63d adf4 abbd baea 953d
000003b0: cc4f 08be 3769 00be 716a 27bd da49 d8bd
000003c0: 080c f7bd b268 193e 3436 57bc 2f50 4d3e
000003d0: 2df5 c73d 4653 3c3d 7b46 743d 60c4 e3bd
000003e0: 3499 133d 385d b03d f21c 79bd 292a 243e
000003f0: bd0d 21bd f07c cc3d 9feb 7dbd 2faa 2a3e

Network_stack.0.0.gru.bias_ih_l0 f4 [96]
0.11781996 -0.12336683 -0.15938297 -0.022107355 -0.10098566 0.11671043 0.10391985 0.17697555
0.2006402 0.07204647 -0.091266535 -0.16155766 0.16362062 -0.14550221 0.145234 0.052847266
0.19682255 0.020243429 -0.028489621 -0.1262318 -0.09691485 -0.08801585 -0.12681998 0.07874279
-0.15640225 0.13409753 -0.047304466 0.06467032 0.11035062 0.12587987 -0.0073507195 0.06339133
-0.8286817 -0.26502198 0.048229914 0.068459876 -0.15720649 0.0979786 -0.3176665 -0.29714012
-0.1750098 0.05478039 -0.118827134 -0.834862 0.07607406 -0.16166005 -0.27254972 0.10076745
-0.22704573 -0.10876826 -0.23179139 -0.61269987 -0.22992533 -0.32137254 -0.13112429 -0.027451018
0.0070493496 -0.31593367 -0.71145403 -0.80150735 -0.04162541 0.050535504 -0.46006963 -0.004825099
0.0105999615 -0.16396272 -0.041902483 -0.17312707 0.094007604 -0.11245212 -0.09613377 0.03404045
0.10068986 0.05812513 0.078115456 -0.113273434 0.031087872 0.12836346 0.06846494 -0.08814962
0.13258702 -0.117159605 0.08719815 -0.051539306 -0.04667776 0.013967065 -0.10294488 -0.10530301
0.034443747 -0.13258468 0.009425537 -0.12747721 -0.095763944 0.081766136 -0.18383636 0.14210959
00000000: 974b f13d c0a7 fcbd 4a35 23be 7c1a b5bc
00000010: 92d1 cebd e105 ef3d eed3 d43d 1439 353e
00000020: a074 4d3e 1a8d 933d f3e9 babd 5f6f 25be
00000030: 2a8c 273e 88fe 14be 39b8 143e 6076 583d
00000040: da8b 493e 8cd5 a53c 1163 e9bc e942 01be
00000050: 4b7b c6bd a741 b4bd 19dd 01be e643 a13d
00000060: e927 20be dd50 093e 54c2 41bd df71 843d
00000070: 81ff e13d a7e6 003e 4ede f0bb 50d3 813d
00000080: 7c24 54bf f6b0 87be bb8c 453d b134 8c3d
00000090: bdfa 20be 01a9 c83d 2fa5 a2be c022 98be
000000a0: c535 33be 6761 603d a45b f3bd 84b9 55bf
000000b0: b7cc 9b3d 368a 25be a38b 8bbe 2a5f ce3d
000000c0: ad7e 68be e5c1 debd b95a 6dbe e6d9 1cbf
000000d0: 8c71 6bbe f18a a4be 7245 06be f5e0 e0bc
000000e0: 3bfe e63b 0fc2 a1be da21 36bf 962f 4dbf
000000f0: 687f 2abd 51fe 4e3d 3f8e ebbe dd1b 9ebb
00000100: 76ab 2d3c d8e5 27be f0a1 2bbd 3948 31be
00000110: 0f87 c03d 4c4d e6bd c8e1 c4bd 006e 0b3d
00000120: 7c36 ce3d 9e14 6e3d fffa 9f3d e7fb e7bd
00000130: feab fe3c b671 033e 5937 8c3d ca87 b4bd
00000140: e4c4 073e 60f1 efbd f294 b23d e11a 53bd
00000150: 2e31 3fbd 1ed6 643c c4d4 d2bd 1ba9 d7bd
00000160: e314 0d3d 47c4 07be 916d 1a3c 6389 02be
00000170: e31f c4bd 0175 a73d 993f 3cbe 2d85 113e

Network_stack.0.0.gru.bias_hh_l0 f4 [96]
-0.12773435 0.06252828 -0.07143565 -0.019948065 0.1448026 0.05309018 0.008995884 0.18078133
-0.03629499 -0.13901529 0.00603642 0.10047051 -0.16601238 0.112189285 -0.13280542 -0.08807419
0.17729715 -0.036632366 0.011422986 -0.08546851 -0.12516347 -0.012343868 -0.034532793 0.16482297
-0.1526726 -0.10710324 0.13030984 -0.072123565 0.092114754 -0.034122963 -0.14194928 0.08975434
-0.90499586 -0.10491612 -0.036450543 -0.17135005 -0.14637202 -0.04143181 -0.1590208 -0.11120161
-0.28738326 0.16104725 -0.048979566 -0.8200071 0.11449084 -0.21276414 -0.2863767 -0.1446202
-0.08474206 -0.2615235 -0.35820344 -0.80241793 -0.17950381 -0.19888425 -0.15118076 -0.003918229
0.10754281 -0.29504228 -0.88039875 -1.007281 -0.104156725 -0.1596456 -0.43963224 0.17849898
0.10655614 0.096957766 -0.16599448 0.000928701 0.13941453 -0.1630522 0.16723265 -0.17949127
0.035976637 -0.039865695 0.010610393 0.13172033 -0.16432457 -0.07752476 0.13459413 -0.11160783
0.02690959 -0.07409695 -0.0053675594 0.027324613 -0.0544997 -0.19208767 0.087459095 -0.049548298
0.07451352 0.1539366 -0.18175355 0.1450419 -0.120167196 -0.16243453 -0.08949966 -0.12006309
00000000: cbcc 02be d40e 803d db4c 92bd 206a a3bc
00000010: 2247 143e 1775 593d 7963 133c be1e 393e
00000020: 0eaa 14bd 065a 0ebe 29cd c53b 7cc3 cd3d
00000030: 26ff 29be 7fc3 e53d 25fe 07be 3e60 b4bd
00000040: 628d 353e d20b 16bd 7a27 3b3c 1d0a afbd
00000050: da2a 00be ef3d 4abc 4272 0dbd 5ac7 283e
00000060: 3556 1cbe f258 dbbd f16f 053e 85b5 93bd
00000070: a9a6 bc3d 85c4 0bbd 275b 11be 20d1 b73d
00000080: cfad 67bf 43de d6bd 2a4d 15bd 6376 2fbe
00000090: 8ce2 15be 67b4 29bd 59d6 22be abbd e3bd
000000a0: e623 93be 92e9 243e cc9e 48bd fceb 51bf
000000b0: 2c7a ea3d d8de 59be f89f 92be 5117 14be
000000c0: 3f8d adbd 68e6 85be 7166 b7be 436b 4dbf
000000d0: d9cf 37be 50a8 4bbe 21cf 1abe 7d64 80bb
000000e0: 683f dc3d c80f 97be d061 61bf 95ee 80bf
000000f0: 1f50 d5bd 237a 23be 7a17 e1be 70c8 363e
00000100: 1b3a da3d cb91 c63d 75fa 29be 1274 733a
00000110: afc2 0e3e 28f7 26be 093f 2b3e 8fcc 37be
00000120: 3d5c 133d 364a 23bd 37d7 2d3c b2e1 063e
00000130: b344 28be 4dc5 9ebd 0bd3 093e a592 e4bd
00000140: 8071 dc3c 24c0 97bd 5ae2 afbb ded7 df3c
00000150: 143b 5fbd a1b2 44be c11d b33d 28f3 4abd
00000160: 8b9a 983d 8ea1 1d3e 9a1d 3abe dd85 143e
00000170: 381a f6bd 3d55 26be 994b b7bd a3e3 f5bd

Network_stack.0.0.gru.weight_ih_l1 f4 [96, 32]
0.088225394 -0.09249848 0.13990705 0.061008688 -0.031694215 -0.06780539 0.15427555 -0.16085741
0.10881597 -0.07235406 0.074897185 -0.02688295 0.05505468 0.029581325 0.13174951 -0.09435249
-0.06873058 0.0540683 -0.07076684 -0.18905814 0.13292862 0.0624315 -0.10904203 -0.12626661
-0.09569235 -0.052440528 -0.042767514 -0.15574975 0.1355186 0.041036632 -0.0008001415 -0.016897092
-0.023193883 0.058564074 -0.1262215 -0.021460243 0.06002949 -0.07120013 -0.17413889 -0.16866536
0.10061125 -0.10418856 -0.037903056 -0.26277038 0.16510577 -0.019640392 -0.005230746 -0.10642253
0.108985096 0.010791616 -0.02010497 0.009322394 -0.032609835 0.08627528 -0.27232042 0.02526796
-0.078965545 -0.1301478 -0.005424874 -0.027810028 0.10690871 0.112585425 -0.16615261 0.113642715
0.20764282 -0.113446645 0.10639181 -0.013430711 0.013760975 -0.09532584 -0.15680557 -0.18037279
-0.015905635 0.13310088 -0.17580225 -0.2136706 -0.16964222 -0.041841798 0.029707892 0.027965927
-0.10704517 0.008960889 0.21554965 -0.06807297 -0.105567716 -0.1477845 -0.0039371965 0.124285586
0.10675692 0.009181304 0.16136427 -0.019079491 0.10933611 0.09236327 -0.050537225 0.06642256
-0.07504961 0.16055122 -0.03811862 -0.027093608 0.16247545 -0.16382468 0.09328911 -0.009642405
0.010916854 -0.095690876 0.0852224 0.024162825 -0.101638645 -0.027038459 0.029317051 -0.04227302
0.15593627 0.058141507 -0.0050387154 0.13979451 -0.041338656 0.018030662 0.070460685 -0.085911214
0.09762551 -0.15377101 0.21078546 -0.124489464 0.030480234 0.023484422 0.035827722 0.1151966
0.10128655 0.065035366 -0.05312082 -0.1683972 -0.10760906 0.12642501 0.18367973 -0.046402574
-0.084961504 -0.12231533 0.049358327 -0.050329465 -0.02300085 -0.11578198 0.08400111 -0.12008485
-0.025294581 0.021581618 -0.103550516 0.08902737 -0.17503798 0.16522132 0.08908101 -0.18014844
-0.07017082 -0.05974555 -0.020889206 0.15646279 -0.16360012 0.0939126 0.039221592 0.11209858
0.014533301 0.13369325 0.12291657 -0.042436905 0.19032453 0.036146574 0.063966595 -0.013861766
-0.019341473 0.024297835 0.0737736 0.102432154 -0.1199533 -0.05806047 -0.19547294 0.1317291
0.037814226 -0.053734764 0.003950635 0.1416673 -0.113460794 -0.0056289327 0.028404908 -0.031729527
0.062714286 0.20389146 0.0850642 0.12748532 -0.064664096 -0.007913373 0.20341778 -0.16329885
0.059693504 -0.07297402 0.150469 0.0696308 0.15011026 0.12345698 0.10080611 0.1734617
0.0015192548 -0.041701306 0.14943187 0.16000329 -0.13138182 -0.04958896 -0.15072475 0.075818166
-0.11192714 0.019733941 0.07258669 -0.10257149 0.16512385 -0.014894189 -0.13847975 0.14265546
0.11145559 0.12523876 -0.10936571 -0.09952913 -0.06797581 0.031947836 -0.005957914 0.07969006
-0.10665239 -0.09483365 -0.02410524 0.114018716 0.049397983 -0.014499343 -0.07652089 -0.06482182
0.16390136 0.12401332 -0.053720437 0.16855195 -0.13454486 0.07155036 0.051726054 0.1806634
-0.18480362 0.14218934 0.10064187 -0.012683586 0.00840851 -0.11775802 0.18473871 0.1272945
-0.032023937 -0.134217 -0.04469806 0.109242335 -0.03096781 0.09586714 0.052163538 0.09249304
00000000: 84af b43d d86f bdbd cb43 0f3e 3fe4 793d
00000010: cbd1 01bd 8ddd 8abd 69fa 1d3e ceb7 24be
00000020: e8da de3d 5e2e 94bd b263 993d a239 dcbc
00000030: 0481 613d 8954 f23c 58e9 063e e13b c1bd
00000040: 9ec2 8cbd b976 5d3d 34ee 90bd 7598 41be
00000050: 711e 083e 2cb8 7f3d 6e51 dfbd 094c 01be
00000060: 5afa c3bd e1cb 56bd fd2c 2fbd dd7c 1fbe
00000070: 63c5 0a3e 0716 283d 96c0 51ba c56b 8abc
00000080: 1901 bebc e2e0 6f3d 3540 01be 64cd afbc
00000090: 7ce1 753d 60d1 91bd 7751 32be 9db6 2cbe
000000a0: 450d ce3d d060 d5bd 3c40 1bbd d789 86be
000000b0: 7d11 293e e3e4 a0bc ae66 abbb 0ef4 d9bd
000000c0: 9433 df3d 51cf 303c 2eb3 a4bc f4bc 183c
000000d0: e491 05bd 18b1 b03d 956d 8bbe c1fe ce3c
000000e0: b0b8 a1bd 7745 05be 24c3 b1bb dbd1 e3bc
000000f0: f4f2 da3d 3093 e63d e923 2abe 83bd e83d
00000100: 52a0 543e b756 e8bd f3e3 d93d 7c0c 5cbc
00000110: b675 613c 323a c3bd a491 20be a5b3 38be
00000120: 894c 82bc 994b 083e 8105 34be 77cc 5abe
00000130: b1b6 2dbe 4e62 2bbd f75d f33c cd18 e53c
00000140: 803a dbbd b1d0 123c 0cb9 5c3e d769 8bbd
00000150: e333 d8bd d254 17be 9903 81bb 7189 fe3d
00000160: 5fa3 da3d 2e6d 163c ad3c 253e 984c 9cbc
00000170: 9ceb df3d f428 bd3d 1f00 4fbd 8d08 883d
00000180: 9cb3 99bd 8a67 243e 4522 1cbd 6af3 ddbc
00000190: f75f 263e a8c1 27be 5c0e bf3d 2efb 1dbc
000001a0: 9bdc 323c 94f9 c3bd 1589 ae3d 1ef1 c53c
000001b0: ec27 d0bd c27f ddbc 502a f03c 7926 2dbd
000001c0: c2ad 1f3e ca25 6e3d cf1b a5bb 4b26 0f3e
000001d0: b952 29bd 0ab5 933c b14d 903d 38f2 afbd
000001e0: e2ef c73d 2676 1dbe 25d8 573e 55f4 febd
000001f0: afb1 f93c 6762 c03c 17c0 123d 32ec eb3d
00000200: 536f cf3d 4331 853d 3895 59bd 5170 2cbe
00000210: 2462 dcbd 8f75 013e 8a16 3c3e a010 3ebd
00000220: 4c00 aebd 7680 fabd f52b 4a3d 4526 4ebd
00000230: 476c bcbc 1a1f edbd c608 ac3d 0cef f5bd
00000240: 9536 cfbc efcb b03c 4b12 d4bd fb53 b63d
00000250: 283d 33be c72f 293e 1b70 b63d d578 38be
00000260: b8b5 8fbd c0b7 74bd d71f abbc c837 203e
00000270: ca86 27be 4055 c03d d2a6 203d f193 e53d
00000280: 151d 6e3c e2e6 083e afbb fb3d 52d2 2dbd
00000290: 6fe4 423e 6e0e 143d eb00 833d 761c 63bc
000002a0: 0272 9ebc 410c c73c 9d16 973d f3c7 d13d
000002b0: 13aa f5bd d1d0 6dbd 0f2a 48be fee3 063e
000002c0: 17e3 1a3d fc18 5cbd 5474 813b 3c11 113e
000002d0: 225e e8bd e972 b8bb 69b1 e83c d2f6 01bd
000002e0: 5970 803d ecc8 503e 2436 ae3d 838b 023e
000002f0: 9c6e 84bd 18a7 01bc c04c 503e d037 27be
00000300: 2d81 743d 6773 95bd 8c14 1a3e 989a 8e3d
00000310: 81b6 193e 03d7 fc3d 6f73 ce3d f29f 313e
00000320: bb21 c73a fdce 2abd ab04 193e e7d7 233e
00000330: f588 06be cb1d 4bbd 9757 1abe 8e46 9b3d
00000340: 0e3a e5bd 13a9 a13c 55a8 943d 0011 d2bd
00000350: 3a16 293e c206 74bc a3cd 0dbe 4614 123e
00000360: d442 e43d 973e 003e 21fb dfbd eed5 cbbd
00000370: e736 8bbd bcdb 023d 9b3a c3bb 8b34 a33d
00000380: 916c dabd 2538 c2bd 5a78 c5bc a582 e93d
00000390: 8a55 4a3d a78e 6dbc fcb6 9cbd 4dc1 84bd
000003a0: c2d5 273e b2fa fd3d f609 5cbd e298 2c3e
000003b0: 21c6 09be ff88 923d b3de 533d d4ff 383e
000003c0: 293d 3dbe 159a 113e 531d ce3d d1ce 4fbc
000003d0: d9c3 093c 1e2b f1bd 252c 3d3e 7d59 023e
000003e0: 882b 03bd 2e70 09be 5015 37bd 72ba df3d
000003f0: 34b0 fdbc fe55 c43d 6fa9 553d fe6c bd3d

Network_stack.0.0.gru.weight_hh_l1 f4 [96, 32]
-0.15151 -0.09041458 0.053895965 0.008578333 -0.04282153 0.14710064 -0.086022496 -0.14519979
0.036177035 0.044481624 -0.0909581 0.13216744 -0.049346205 -0.033630814 -0.0010549052 -0.119504005
0.16300838 0.11278467 0.048579186 0.08765309 -0.05445404 0.07513092 0.15296243 -0.15620098
-0.1788404 0.088139676 -0.07407783 -0.031157538 -0.06708108 -0.17003302 0.14237891 0.035195887
-0.045086004 0.35900977 0.034585267 0.064459965 0.02402258 0.17134495 -0.14472938 0.03530922
0.21526271 0.1264518 0.43376595 -0.055868477 0.10996445 -0.021756206 0.13145056 0.1817959
0.006927898 0.18903004 0.08923238 -0.12204824 -0.055323206 -0.17260915 -0.014069457 -0.1925709
-0.0038708276 -0.25443473 0.20504574 0.12604576 0.03204922 0.010084522 0.058598757 0.20391934
-0.15618438 0.049476985 0.029538145 0.06985245 0.07779283 0.1736919 0.007228172 0.022791771
-0.08830054 -0.065808795 -0.043194246 0.12522478 0.015618375 0.16751373 -0.06483481 -0.058145333
-0.038857423 0.0922931 0.04830303 -0.10776581 -0.01729706 0.1559158 -0.016162034 -0.06331782
-0.077936485 -0.06695312 0.07051419 -0.14901008 0.16488338 0.06543119 -0.00937113 0.016333008
-0.06381054 -0.12263694 -0.054253906 0.089235015 0.025566623 0.1491247 0.10251163 0.1768531
-0.03457858 0.040156804 0.11507287 -0.11646179 0.16382515 -0.018932035 0.07970953 0.15496361
-0.10822564 -0.05823548 0.17222564 0.08956746 -0.12868561 -0.061196733 -0.09121635 0.17632233
0.02531948 -0.033484753 -0.032525856 -0.13716355 -0.054738127 -0.061101843 0.055733122 0.0684392
0.0410817 0.11819352 -0.053110175 0.14373977 0.20945519 0.014381267 -0.0023434684 0.04583356
-0.09187377 0.18060233 0.0022230104 0.13549803 -0.11939507 0.11763507 -0.17177317 0.126603
-0.10103186 0.0768452 -0.06265745 0.1675975 -0.0095336335 -0.055247284 0.13301691 -0.027124675
0.010761892 0.013391386 0.018715123 0.15842205 -0.057638183 -0.009259764 0.14992335 0.05320045
0.15644477 -0.134846 -0.010165635 -0.12548557 0.058242828 0.085644625 -0.16087759 -0.1302742
-0.21508399 -0.03296008 0.054621954 -0.004711519 0.12486718 0.0731378 -0.06076646 0.1750813
0.21656437 0.05788746 -0.08223463 0.0024610127 0.106797524 0.19560014 -0.059086382 0.017761964
-0.12169253 0.2544064 0.1004489 0.1392199 0.06109167 -0.18905433 -0.043922413 -0.04351131
0.018263677 -0.174953 0.07563982 0.08221463 -0.06830342 -0.13577141 0.029880371 0.04956191
-0.05424234 0.08717115 -0.068704545 -0.10603946 0.03828158 0.029561259 -0.13404493 0.15941069
0.16207956 0.06731767 -0.13968222 0.108921595 -0.14777726 0.17466906 0.02876688 0.08437399
0.038954113 -0.029103843 -0.17245717 -0.011750768 -0.13330011 -0.04992655 -0.15300304 -0.052416056
0.0859078 0.027433105 0.12748086 0.11290579 0.03232907 0.055709746 0.119930856 -0.15970163
-0.010438907 -0.097985715 0.04487851 0.01194737 -0.04070559 0.0030728923 -0.173016 0.032091886
-0.06286267 0.09509238 -0.06330882 -0.004931602 0.08550945 -0.04056493 0.026276186 -0.00853347
0.020908492 0.04037765 -0.095659606 0.043910474 -0.051889334 0.06819518 0.039970018 0.03791145
00000000: 7025 1bbe 482b b9bd 04c2 5c3d 238c 0c3c
00000010: a165 2fbd 8da1 163e 902c b0bd 41af 14be
00000020: 5f2e 143d 5d32 363d 3e48 babd e756 073e
00000030: 3f1f 4abd 77c0 09bd bf44 8aba 84be f4bd
00000040: abeb 263e a6fb e63d f8fa 463d 7783 b33d
00000050: 330b 5fbd 3dde 993d 2fa2 1c3e 26f3 1fbe
00000060: f021 37be 9382 b43d 1eb6 97bd 183e ffbc
00000070: ce61 89bd 231d 2ebe c7cb 113e 9029 103d
00000080: 1aac 38bd 21d0 b73e 48a9 0d3d 9603 843d
00000090: 00cb c43c 0d75 2f3e f033 14be 67a0 103d
000000a0: d46d 5c3e 957c 013e 9216 de3e 58d6 64bd
000000b0: 0b35 e13d 123a b2bc fa9a 063e b428 3a3e
000000c0: 6c03 e33b 1791 413e 77bf b63d 6df4 f9bd
000000d0: 969a 62bd 74c0 30be 9483 66bc 4e31 45be
000000e0: b6ad 7dbb 4545 82be 83f7 513e 2412 013e
000000f0: 0b46 033d 8d39 253c 4005 703d 3bd0 503e
00000100: ccee 1fbe 61a8 4a3d fbf9 f13c cd0e 8f3d
00000110: d951 9f3d 4adc 313e 4dda ec3b cfb5 ba3c
00000120: ead6 b4bd c3c6 86bd 73ec 30bd ed3a 003e
00000130: 36e4 7f3c b888 2b3e 1dc8 84bd cd29 6ebd
00000140: f628 1fbd 2a04 bd3d 66d9 453d 52b4 dcbd
00000150: 90b2 8dbc 64a8 1f3e 3e66 84bc c6ac 81bd
00000160: 2a9d 9fbd b81e 89bd be69 903d 1996 18be
00000170: 30d7 283e ca00 863d 5e89 19bc cdcc 853c
00000180: 1aaf 82bd 1329 fbbd 5839 5ebd d9c0 b63d
00000190: 1871 d13c 25b4 183e 9ef1 d13d fb18 353e
000001a0: 45a2 0dbd 767b 243d 53ab eb3d 8583 eebd
000001b0: c8c1 273e 5b17 9bbc c03e a33d c8ae 1e3e
000001c0: 68a5 ddbd 5488 6ebd eb5b 303e 256f b73d
000001d0: 29c6 03be 6da9 7abd a3cf babd d78d 343e
000001e0: cc6a cf3c 4f27 09bd d539 05bd 9a74 0cbe
000001f0: 1635 60bd ed45 7abd 6a48 643d da29 8c3d
00000200: 4945 283d 720f f23d 0e8a 59bd 8530 133e
00000210: 6c7b 563e 689f 6b3c e094 19bb f9bb 3b3d
00000220: 5128 bcbd d1ef 383e edaf 113b ffbf 0a3e
00000230: 6785 f4bd a8ea f03d 4ee5 2fbe 38a4 013e
00000240: cbe9 cebd 0461 9d3d 8d52 80bd ae9e 2b3e
00000250: f532 1cbc fa4a 62bd 9635 083e 9134 debc
00000260: a652 303c 8b67 5b3c 7550 993c 6439 223e
00000270: 0416 6cbd 44b6 17bc 8285 193e b7e8 593d
00000280: 0f33 203e 1215 0abe c38d 26bc 4a7f 00be
00000290: 0890 6e3d 7366 af3d 18bd 24be 9a66 05be
000002a0: fa3e 5cbe 2601 07bd 45bb 5f3d 1663 9abb
000002b0: 5dba ff3d 45c9 953d 40e6 78bd 8348 333e
000002c0: 0dc3 5d3e 671b 6d3d a16a a8bd f148 213b
000002d0: a9b8 da3d 674b 483e 9004 72bd 8a81 913c
000002e0: ef39 f9bd 8e41 823e 27b8 cd3d a98f 0e3e
000002f0: 423b 7a3d 7597 41be fde7 33bd ea38 32bd
00000300: b59d 953c e126 33be 0de9 9a3d 2560 a83d
00000310: aae2 8bbd a907 0bbe aec7 f43c 6e01 4b3d
00000320: 372d 5ebd ca86 b23d f8b4 8cbd 372b d9bd
00000330: 25cd 1c3d 742a f23c 1343 09be 8e3c 233e
00000340: 2ff8 253e d9dd 893d db08 0fbe 4912 df3d
00000350: ec52 17be 72dc 323e 85a8 eb3c 45cc ac3d
00000360: 598e 1f3d 2f6b eebc 9d98 30be 4b86 40bc
00000370: d37f 08be c87f 4cbd d4ac 1cbe 38b2 56bd
00000380: 6ef0 af3d 64bb e03c 588a 023e 273b e73d
00000390: 7d6b 043d e72f 643d 4f9e f53d d388 23be
000003a0: f307 2bbc bcac c8bd 87d2 373d e7be 433c
000003b0: e8ba 26bd 9462 493b 1b2b 31be c872 033d
000003c0: 25be 80bd cbbf c23d 0ea8 81bd 4799 a1bb
000003d0: 941f af3d 6927 26bd 2841 d73c f8cf 0bbc
000003e0: 4948 ab3c 0963 253d 2fe9 c3bd 78db 333d
000003f0: e989 54bd eaa9 8b3d 9ab7 233d 0949 1b3d

Network_stack.0.0.gru.bias_ih_l1 f4 [96]
0.108664684 0.049555924 0.13856687 0.011472168 0.15971172 0.056584444 0.14773984 -0.008903653
0.054844808 -0.07303289 -0.07305493 0.03815331 -0.094673425 -0.09207181 -0.014116761 0.039260387
0.005201041 -0.119879544 -0.12029117 -0.056861002 0.14080435 0.16615096 -0.16865338 -0.07840783
0.054023262 0.005039016 0.02154073 0.056531753 -0.14614832 0.14828743 -0.14192015 -0.11474797
0.07486133 -0.008497119 -0.17312348 0.10411508 -0.08019812 -0.06619229 0.048755594 -0.04178357
-0.36996743 -0.007554751 -0.6607975 0.16011257 0.18643339 -0.07919483 -0.16507564 -0.1974477
-0.17747812 -0.14818637 -0.024819886 -0.14636008 0.067726344 0.15580963 -0.28675354 -0.40175852
0.050355606 0.103120044 -0.6213872 -0.034534566 0.06541436 0.04011822 0.02581637 -0.74174964
0.10689769 -0.1332399 0.051178355 0.007178437 0.12012264 -0.09603258 -0.0008744037 -0.036764853
0.010405031 0.08907151 0.09858433 -0.12761128 -0.11382384 -0.13591166 -0.11454057 -0.0063489564
0.08281277 -0.059343018 -0.19869481 0.14843886 -0.16413507 -0.08951648 0.0639311 0.018283987
0.16505739 -0.14114013 0.046025604 0.03837153 0.075631425 -0.14982888 -0.08427055 0.06503918
00000000: 978b de3d 27fb 4a3d 79e4 0d3e c3f5 3b3c
00000010: 788b 233e 17c5 673d 1d49 173e a1e0 11bc
00000020: f3a4 603d 4592 95bd d39d 95bd a546 1c3d
00000030: 24e4 c1bd 2590 bcbd fd49 67bc 80cf 203d
00000040: 7f6d aa3b 6883 f5bd 385b f6bd 15e7 68bd
00000050: 042f 103e 7a23 2a3e 79b3 2cbe 4994 a0bd
00000060: 7f47 5d3d 541e a53b 2f76 b03c d78d 673d
00000070: e8a7 15be a9d8 173e 8453 11be fc00 ebbd
00000080: e650 993d 8037 0bbc 4847 31be 493a d53d
00000090: e93e a4bd d38f 87bd f2b3 473d 4025 2bbd
000000a0: 5f6c bdbe d88d f7bb 062a 29bf 8df4 233e
000000b0: 65e8 3e3e e630 a2bd 9709 29be bb2f 4abe
000000c0: d3bc 35be 2bbe 17be 1353 cbbc 6bdf 15be
000000d0: 1cb4 8a3d 8f8c 1f3e 5cd1 92be 4bb3 cdbe
000000e0: ae41 4e3d 9a30 d33d 3b13 1fbf 1e74 0dbd
000000f0: f7f7 853d 0153 243d da7c d33c 4ee3 3dbf
00000100: 2ded da3d 0a70 08be 65a0 513d 1839 eb3b
00000110: dc02 f63d bbac c4bd 3d38 65ba be96 16bd
00000120: dd79 2a3c 206b b63d 95e6 c93d 88ac 02be
00000130: 791c e9bd 6d2c 0bbe 3f94 eabd e80a d0bb
00000140: be99 a93d aa11 73bd a776 4bbe 5b00 183e
00000150: 0613 28be 6b54 b7bd 4fee 823d 4dc8 953c
00000160: ce04 293e 0a87 10be 5885 3c3d 772b 1d3d
00000170: a6e4 9a3d be6c 19be 0a96 acbd 4333 853d

Network_stack.0.0.gru.bias_hh_l1 f4 [96]
-0.06726173 0.031282626 0.12532721 0.07103058 0.16611826 -0.060600754 0.1612791 -0.15114036
0.099140294 0.086460575 -0.08046302 0.05628367 -0.08725092 0.13246049 0.11452898 -0.14927568
0.015293864 0.033656467 -0.100188725 -0.04146079 0.04119262 0.070470706 0.06509141 -0.12428868
0.09063041 0.02967326 -0.132916 0.10145604 0.046660688 0.14752564 -0.1394558 0.04496465
0.0794595 0.073709 0.052854955 -0.058557495 0.006118908 -0.14649418 0.16195016 -0.12341198
-0.6568771 -0.13977242 -0.61641324 -0.10606059 0.076170325 0.21270877 -0.16280013 -0.09743128
0.045278262 -0.06365745 -0.18482944 0.046556808 -0.041485995 0.10586451 -0.45060274 -0.343718
0.18658204 -0.004454366 -0.6399181 -0.1104472 0.17217678 -0.10480929 -0.22607617 -0.76458246
0.10930449 0.02880928 -0.113970384 0.112134635 -0.1388315 0.12043995 0.099057965 -0.16243322
0.053040117 -0.054752044 -0.08094886 0.067004725 0.050737917 -0.13097745 0.094642445 0.051580817
-0.14457946 0.053182475 -0.10775895 0.021607244 0.0103269 -0.04994828 -0.10463852 0.088294476
0.098224685 0.15238644 -0.123605445 0.09211857 0.01814942 -0.05710383 0.118507765 -0.048085045
00000000: 85c0 89bd 3622 003d c755 003e 7b78 913d
00000010: e81a 2a3e 7f38 78bd 5926 253e 8ac4 1abe
00000020: 110a cb3d 3e12 b13d ccc9 a4bd b589 663d
00000030: 9cb0 b2bd b9a3 073e 2b8e ea3d b9db 18be
00000040: 1d93 7a3c 5ddb 093d bf2f cdbd cad2 29bd
00000050: 98b9 283d f252 903d a54e 853d 108b febd
00000060: 709c b93d 5615 f33c 221b 08be 2fc8 cf3d
00000070: 471f 3f3d f610 173e 80cd 0ebe da2c 383d
00000080: aabb a23d bff4 963d 707e 583d fcd9 6fbd
00000090: 1f81 c83b 9202 16be 43d6 253e 6cbf fcbd
000000a0: 1929 28bf 8020 0fbe 42cd 1dbf 4b36 d9bd
000000b0: 30ff 9b3d 54d0 593e 14b5 26be 0d8a c7bd
000000c0: b375 393d d65e 82bd ee43 3dbe 5ab2 3e3d
000000d0: 38ed 29bd 7ecf d83d 67b5 e6be cefb afbe
000000e0: 5d0f 3f3e eef5 91bb acd1 23bf 2432 e2bd
000000f0: 1c4f 303e 41a6 d6bd 8380 67be adbb 43bf
00000100: 08db df3d 7001 ec3c 4e69 e9bd d8a6 e53d
00000110: d829 0ebe 38a9 f63d e7de ca3d e554 26be
00000120: 9840 593d ae43 60bd 84c8 a5bd c639 893d
00000130: 90d2 4f3d f41e 06be e6d3 c13d 6846 533d
00000140: a30c 14be ded5 593d b9b0 dcbd ad01 b13c
00000150: 2832 293c 9196 4cbd b84c d6bd bcd3 b43d
00000160: 062a c93d 310b 1c3e da24 fdbd a9a8 bc3d
00000170: 18ae 943c b5e5 69bd 33b4 f23d d3f4 44bd

Network_stack.0.1.gru.weight_ih_l0 f4 [96, 1]
0.09806339 0.08007302 0.110682935 0.08399373 0.15009779 -0.005498776 0.14901061 0.16085114
0.17023365 0.10537819 -0.107631885 -0.12246216 0.09879652 0.12168974 0.036998536 -0.09218342
-0.13141061 0.08244812 -0.02950187 -0.13364664 0.17934793 0.034988638 -0.076529175 0.12126016
0.14722823 -0.15268472 0.021363737 -0.12515561 0.048414677 0.13353546 0.19332802 0.09192858
-0.26290116 -0.19730993 -0.06824495 0.07126635 -0.8507978 -0.115470245 0.098468535 0.14880447
-0.11928736 0.032501996 -0.1506693 0.1306081 -0.29361433 0.16907285 0.051448196 -0.21295711
-0.27884737 -0.31224325 -0.7084186 -0.55270284 0.22099066 0.09229868 -0.30132186 -0.1601787
-0.12288416 -0.08414485 0.15257894 0.028507786 0.13679218 0.14553258 0.0033245415 0.26985908
0.17612661 0.0485263 -0.16167346 -0.03280693 -0.28308886 -0.05521241 0.04172474 0.054523245
-0.18158963 0.02693108 0.08870578 -0.15368293 0.12409188 0.11623111 0.009461356 0.15437643
0.19479094 0.013577663 0.16528521 0.29165155 -0.021092542 -0.007463709 -0.21344331 -0.15357082
0.19536188 -0.0016967731 0.045948423 -0.024440823 0.093108 -0.043998346 0.14041877 -0.012088816
00000000: 75d5 c83d 53fd a33d bcad e23d e804 ac3d
00000010: 3cb3 193e 142f b4bb 3d96 183e 29b6 243e
00000020: bb51 2e3e 85d0 d73d 1b6e dcbd 71cd fabd
00000030: d455 ca3d 7838 f93d c78b 173d a9ca bcbd
00000040: 8190 06be 8fda a83d e8ad f1bc aada 08be
00000050: fca6 373e 3f50 0f3d 54bb 9cbd 3f57 f83d
00000060: ffc2 163e 6259 1cbe 0103 af3c cb28 00be
00000070: 784e 463d 85bd 083e c8f7 453e 0d45 bc3d
00000080: fb9a 86be 9d0b 4abe 02c4 8bbd 18f4 913d
00000090: e2cd 59bf aa7b ecbd dfa9 c93d 3360 183e
000000a0: ee4c f4bd d020 053d 0e49 1abe 21be 053e
000000b0: 9e54 96be 6f21 2d3e 58bb 523d 6e11 5abe
000000c0: 15c5 8ebe 59de 9fbe ec5a 35bf ef7d 0dbf
000000d0: 604b 623e 1707 bd3d dc46 9abe e305 24be
000000e0: b1aa fbbd 2354 acbd a73d 1c3e 2989 e93c
000000f0: 4013 0c3e 7e06 153e 8de0 593b f82a 8a3e
00000100: 895a 343e 83c3 463d ba8d 25be 8f60 06bd
00000110: 06f1 90be 6826 62bd 90e7 2a3d c453 5f3d
00000120: a2f2 39be 919e dc3c 60ab b53d 0f5f 1dbe
00000130: e223 fe3d 940a ee3d ce03 1b3c db14 1e3e
00000140: 4777 473e d974 5e3c 8740 293e 5a53 953e
00000150: 44ca acbc 2192 f4bb e290 5abe ab41 1dbe
00000160: f20c 483e 4266 deba 6a34 3c3d 1f38 c8bc
00000170: 68af be3d 9c37 34bd f0c9 0f3e 2b10 46bc

Network_stack.0.1.gru.weight_hh_l0 f4 [96, 32]
-0.087394476 -0.07488528 0.050634556 0.02886853 0.11721242 -0.022667281 -0.098335445 -0.0042070337
0.039915606 0.13909903 -0.09197928 -0.10302132 -0.13889529 0.17194587 0.020282092 -0.085551485
0.17156321 -0.15087372 0.10783847 0.1275725 -0.14536479 0.025624335 0.1302916 -0.10675433
-0.13254903 -0.1130032 0.023187462 0.18235524 -0.15486571 -0.06343592 0.096245 0.09227287
-0.050703067 0.16263285 0.11141534 -0.06517935 -0.16620198 0.039075855 0.113468334 0.0043644295
0.006455656 -0.065111525 0.17155875 -0.06196352 -0.083645314 0.04746383 -0.014578011 0.11577872
-0.10842436 0.2239982 -0.04989242 0.20772713 -0.080800615 -0.17600556 -0.18224102 -0.058708802
-0.13156836 -0.06147452 0.10125091 -0.08903502 0.012467963 -0.05985368 0.01779226 -0.05179366
0.17133148 0.084751844 -0.021383328 0.048569046 -0.12595895 0.08404412 0.077205434 -0.109444655
-0.08723906 0.11408646 0.17390886 -0.011961425 -0.057859782 -0.033373006 -0.11379884 0.053929094
-0.15481804 0.11012916 0.16759533 0.17165823 -0.08374613 -0.17167886 -0.116005786 -0.12412444
0.1722106 0.052660264 0.11579952 -0.1286361 -0.10968212 0.05598684 0.014043318 -0.08928688
0.006026377 0.11840521 -0.1055408 0.058360282 -0.13857658 -0.09320812 0.14988916 0.18150468
-0.09359264 0.14473245 0.13188887 0.089538045 -0.14806812 -0.079601824 0.10328937 0.105224445
0.1865636 -0.06069786 0.13701187 -0.1188251 0.11824852 -0.06721994 -0.15662195 -0.13859655
0.117492884 0.087413944 -0.10446417 -0.02264309 0.0671232 -0.054181524 -0.0357987 -0.04910284
-0.108093224 -0.027911281 -0.15241915 -0.020124935 0.0943983 -0.13687412 -0.11965117 -0.009986588
0.12289815 0.1739613 0.00097626133 0.106217936 0.018682629 -0.09908265 -0.13960601 -0.0043914486
0.14794475 0.09907111 0.0032327217 0.10586147 0.015740639 0.08704094 -0.13216776 0.119191736
0.15420987 0.11083678 0.08159219 -0.18270859 0.10518142 -0.017766168 0.04767934 -0.056408178
0.09483953 -0.16309686 0.071626976 0.08337231 -0.084282756 -0.063987024 0.14542228 -0.08761202
-0.013641249 -0.14138623 -0.14572866 -0.10285578 0.039074264 0.1695216 0.06455877 0.045985878
0.13349403 -0.0050684293 0.082164854 -0.10703266 0.0900961 0.027091559 0.13225499 0.021281466
0.1505967 0.01411859 -0.13572119 -0.0062744203 0.1568443 -0.049820933 0.13478242 0.016208367
0.07290965 -0.050618175 0.05271602 0.1526793 -0.033627424 0.05271879 0.094422 -0.11031436
0.06826054 0.07684604 -0.088883676 -0.08263483 0.015957456 0.05331754 -0.038796082 -0.18366545
0.1683936 0.072816044 -0.01412027 0.11841413 0.17488028 -0.16481549 0.15294068 -0.12946203
0.11809902 0.11044127 -0.10558519 0.0661561 -0.15287013 0.07940306 -0.08591873 0.1767569
-0.15327495 -0.08641394 0.0041563464 -0.13647689 -0.14084615 0.1601845 -0.03538501 0.10110272
0.15784091 0.107539415 -0.17086625 0.04891278 -0.033750743 0.16782308 -0.08379231 -0.009565123
-0.040460553 -0.238802 -0.04200409 -0.07787082 -0.12158887 0.036077645 -0.035976782 0.15005624
-0.115080774 0.1595179 -0.055346146 0.13669455 0.16518106 -0.11943194 -0.011801995 0.16174284
00000000: e0fb b2bd 745d 99bd 2e66 4f3d b27d ec3c
00000010: 110d f03d bcb0 b9bc 1864 c9bd 28db 89bb
00000020: 8c7e 233d fa6f 0e3e a25f bcbd d8fc d2bd
00000030: 913a 0ebe 9412 303e a126 a63c 9e35 afbd
00000040: 44ae 2f3e a47e 1abe 6ada dc3d 5ea2 023e
00000050: 82da 14be 20ea d13c 296b 053e 04a2 dabd
00000060: efba 07be 396e e7bd a2f3 bd3c 55bb 3a3e
00000070: 1e95 1ebe b1ea 81bd 191c c53d 8ff9 bc3d
00000080: 05ae 4fbd 3a89 263e ba2d e43d c07c 85bd
00000090: da30 2abe 010e 203d 1662 e83d 7d03 8f3b
000000a0: f889 d33b 3159 85bd 19ad 2f3e 76cd 7dbd
000000b0: 3c4e abbd 6f69 423d 9cd8 6ebc 651d ed3d
000000c0: 970d debd c95f 653e ff5b 4cbd 6cb6 543e
000000d0: cb7a a5bd cd3a 34be 649d 3abe a478 70bd
000000e0: dbb9 06be b5cc 7bbd a35c cf3d fe57 b6bd
000000f0: 6d46 4c3c 2229 75bd 13c1 913c 9725 54bd
00000100: 8571 2f3e 6092 ad3d 172c afbc 56f0 463d
00000110: 62fb 00be 531f ac3d e21d 9e3d 8524 e0bd
00000120: 64aa b2bd 29a6 e93d 2a15 323e daf9 43bc
00000130: 61fe 6cbd 22b2 08bd 5e0f e9bd c1e4 5c3d
00000140: 9f88 1ebe 668b e13d 1c9e 2b3e 2dc7 2f3e
00000150: 1783 abbd 95cc 2fbe 7194 edbd f434 febd
00000160: fa57 303e 4ab2 573d 4c28 ed3d 2fb9 03be
00000170: 05a1 e0bd 7552 653d f215 663c 0adc b6bd
00000180: ea78 c53b 6e7e f23d c625 d8bd 310b 6f3d
00000190: 05e7 0dbe e6e3 bebd 8b7c 193e 5ddc 393e
000001a0: 7fad bfbd be34 143e e00d 073e b95f b73d
000001b0: 2b9f 17be 4806 a3bd 6189 d33d ea7f d73d
000001c0: 870a 3f3e 529e 78bd d74c 0c3e 935a f3bd
000001d0: 482c f23d 9caa 89bd 8161 20be 41ec 0dbe
000001e0: 1ca0 f03d 1506 b33d 50f1 d5bd 007e b9bc
000001f0: e377 893d 72ed 5dbd a8a1 12bd 0f20 49bd
00000200: fb5f ddbd 33a6 e4bc c413 1cbe 0cdd a4bc
00000210: e553 c13d bb28 0cbe ac0b f5bd c99e 23bc
00000220: 06b2 fb3d e922 323e caeb 7f3a ca88 d93d
00000230: 500c 993c d8eb cabd e1f4 0ebe 24e6 8fbb
00000240: d47e 173e cbe5 ca3d 12dc 533b e6cd d83d
00000250: 83f2 803c 8542 b23d fc56 07be cc1a f43d
00000260: 31e9 1d3e 65fe e23d ce19 a73d f617 3bbe
00000270: 5b69 d73d 5b8a 91bc 694b 433d 430c 67bd
00000280: 3a3b c23d dd02 27be 2ab1 923d 1abf aa3d
00000290: 709c acbd a10b 83bd 94e9 143e ee6d b3bd
000002a0: 8c7f 5fbc 8dc7 10be e539 15be 0da6 d2bd
000002b0: 560c 203d 1297 2d3e 6337 843d b05b 3c3d
000002c0: a9b2 083e 1115 a6bb 0c46 a83d f033 dbbd
000002d0: 4e84 b83d 1eef dd3c da6d 073e 7856 ae3c
000002e0: 0536 1a3e a951 673c 7ffa 0abe a799 cdbb
000002f0: cb9b 203e 0911 4cbd 6704 0a3e 69c7 843c
00000300: a851 953d 0155 4fbd c1ec 573d f657 1c3e
00000310: e9bc 09bd a8ef 573d 5260 c13d 7fec e1bd
00000320: 2fcc 8b3d 7561 9d3d a508 b6bd 733c a9bd
00000330: 36b9 823c 7e63 5a3d a4e8 1ebd cc12 3cbe
00000340: 5f6f 2c3e 9420 953d b458 67bc 1b83 f23d
00000350: d113 333e 64c5 28be 7b9c 1c3e b291 04be
00000360: e6dd f13d 082f e23d 0c3d d8bd d97c 873d
00000370: fd89 1cbe 129e a23d 29f6 afbd c3ff 343e
00000380: 1cf4 1cbe cbf9 b0bd f631 883b 99c0 0bbe
00000390: f939 10be 6807 243e dfef 10bd f10e cf3d
000003a0: 0ca1 213e a03d dc3d 90f7 2ebe c458 483d
000003b0: 383e 0abd d0d9 2b3e 4d9b abbd 09b7 1cbc
000003c0: f7b9 25bd 8388 74be 7b0c 2cbd bd7a 9fbd
000003d0: 9603 f9bd 27c6 133d 645c 13bd 58a8 193e
000003e0: 78af ebbd a958 233e a4b2 62bd a8f9 0b3e
000003f0: 3925 293e bc98 f4bd 285d 41bc ea9f 253e

Network_stack.0.1.gru.bias_ih_l0 f4 [96]
-0.08991932 -0.16220886 -0.15349142 -0.11939058 -0.05191797 0.013012516 0.058361493 -0.15393063
0.19766636 -0.1384747 0.15245876 0.1455593 0.18675238 0.1353171 0.1693685 -0.17786425
0.015523301 -0.03466443 -0.01744964 0.18069479 -0.00011952818 -0.059776668 -0.007739182 0.10989406
-0.060079813 -0.027103024 0.0839018 -0.16105293 0.11392709 -0.16406292 -0.1459912 0.1694438
-0.2374893 -0.013731834 0.10075656 -0.07954813 -0.84585077 -0.033721566 0.093987495 0.13284533
-0.16415885 -0.16919814 -0.036640096 0.08375318 -0.2217901 0.1348738 -0.1370957 -0.17646424
-0.1768391 -0.26354545 -0.79111844 -0.9291293 -0.108609535 0.022623155 -0.48972863 -0.25420725
-0.18154667 -0.14536306 0.11415459 -0.031107254 0.12536712 0.05209511 0.038128424 0.01522254
0.09253045 0.1197403 -0.10712593 -0.007463434 -0.18369085 -0.07299307 0.12751397 -0.081189536
-0.167532 -0.15389934 -0.047056433 -0.021094494 -0.008973752 0.047031526 -0.1525967 -0.166366
0.046826344 0.008255838 0.027111003 0.058944624 -0.073720016 -0.067639366 -0.09079105 0.1544978
-0.040280342 -0.04190563 -0.16569023 -0.012037463 -0.07446761 -0.11258628 0.020562096 0.098756246
00000000: 9f27 b8bd 141a 26be db2c 1dbe 0c83 f4bd
00000010: f0a7 54bd 7332 553c 760c 6f3d fe9f 1dbe
00000020: 0d69 4a3e 50cc 0dbe 261e 1c3e 7f0d 153e
00000030: 043c 3f3e 9190 0a3e f06e 2d3e 0c22 36be
00000040: 7255 7e3c 4afc 0dbd 8cf2 8ebc 0e08 393e
00000050: 34ab fab8 61d8 74bd f798 fdbb 2310 e13d
00000060: 4016 76bd 2907 debc b5d4 ab3d 0feb 24be
00000070: 9b52 e93d 1c00 28be b87e 15be ad82 2d3e
00000080: 6530 73be 7cfb 60bc 7559 ce3d 21ea a2bd
00000090: ad89 58bf a01f 0abd 847c c03d 9b08 083e
000000a0: 4219 28be 4742 2dbe ed13 16bd ca86 ab3d
000000b0: f21c 63be 5c1c 0a3e d162 0cbe 0bb3 34be
000000c0: 4f15 35be 6eef 86be bd86 4abf 6bdb 6dbf
000000d0: ad6e debd 3254 b93c b6bd fabe 7427 82be
000000e0: 5fe7 39be 0eda 14be e2c9 e93d a4d4 febc
000000f0: 3d60 003e af61 553d 8d2c 1c3d f667 793c
00000100: 9b80 bd3d 673a f53d d764 dbbd d28f f4bb
00000110: 7419 3cbe 647d 95bd 0693 023e b346 a6bd
00000120: 828d 2bbe ca97 1dbe 3fbe 40bd 5cce acbc
00000130: a506 13bc 21a4 403d 4f42 1cbe d95b 2abe
00000140: fbcc 3f3d 7f43 073c e517 de3c eb6f 713d
00000150: 85fa 96bd 8286 8abd a8f0 b9bd ac34 1e3e
00000160: 00fd 24bd 3da5 2bbd b3aa 29be c738 45bc
00000170: 7982 98bd a393 e6bd d771 a83c b740 ca3d

Network_stack.0.1.gru.bias_hh_l0 f4 [96]
-0.16536623 -0.023693318 -0.07410967 0.17095692 -0.16926712 0.060723122 -0.15748559 -0.17565437
0.19187029 -0.14833653 0.15287942 -0.020237802 0.10068581 0.0048291534 0.04742208 -0.07753699
-0.16642988 -0.07442949 -0.01812338 -0.027983129 0.019720545 -0.09284861 0.11447046 -0.022562213
0.1304835 0.085194804 -0.06634581 0.059060648 -0.0015437487 0.09885746 0.004495259 -0.05201657
-0.15481995 0.048893094 0.043113526 -0.14537472 -0.57617724 0.077094555 -0.19476719 0.07936975
-0.013275163 0.06609808 0.03429974 0.13376674 -0.103212945 -0.10511059 -0.11732132 -0.05804395
-0.08127159 -0.34591785 -0.51934695 -0.620914 0.10504267 -0.054673616 -0.24572687 -0.2176155
-0.13594387 -0.113354914 0.0331547 -0.09771788 -0.031129392 0.03588975 -0.22874008 0.02715416
-0.05987807 -0.0049052536 -0.035499007 0.038426723 0.027244752 -0.0005538277 -0.10048047 0.103744425
0.0040056906 -0.13830338 0.13113272 0.03187293 0.07801961 0.12686302 0.087056175 -0.06399768
0.1082429 -0.012549163 -0.07270421 -0.06349982 0.07735488 -0.06307076 0.10629355 -0.06505745
-0.009844054 0.12846518 -0.13740583 0.11669444 -0.17056386 0.06280817 0.18082641 -0.03875118
00000000: c455 29be 7d18 c2bc d0c6 97bd 550f 2f3e
00000010: 5c54 2dbe cfb8 783d e743 21be bdde 33be
00000020: a579 443e 88e5 17be 6c8c 1c3e bfc9 a5bc
00000030: 5d34 ce3d e03d 9e3b a83d 423d b7cb 9ebd
00000040: 986c 2abe 7d6e 98bd 7c77 94bc e03c e5bc
00000050: fb8c a13c 6927 bebd 7d6f ea3d 64d4 b8bc
00000060: 779d 053e 9d7a ae3d 50e0 87bd 94e9 713d
00000070: 9c57 caba c875 ca3d f74c 933b 540f 55bd
00000080: 1f89 1ebe 2044 483d cf97 303d 1cdd 14be
00000090: 5a80 13bf c0e3 9d3d 0d71 47be 9c8c a23d
000000a0: 1280 59bc 6e5e 873d e27d 0c3d 26fa 083e
000000b0: 4f61 d3bd 3944 d7bd 2946 f0bd 7ebf 6dbd
000000c0: b871 a6bd 251c b1be ecf3 04bf 38f4 1ebf
000000d0: 9d20 d73d 71f1 5fbd d39f 7bbe 99d6 5ebe
000000e0: df34 0bbe 9f26 e8bd 39cd 073d 5020 c8bd
000000f0: 1103 ffbc 2101 133d d73a 6abe 6772 de3c
00000100: b542 75bd 40bc a0bb 6867 11bd 5765 1d3d
00000110: 6330 df3c bf2e 11ba b4c8 cdbd f577 d43d
00000120: 2b42 833b 679f 0dbe a847 063e 308d 023d
00000130: bfc8 9f3d 61e8 013e 824a b23d 3711 83bd
00000140: 74ae dd3d 019b 4dbc f2e5 94bd 320c 82bd
00000150: 3c6c 9e3d 3e2b 81bd 6fb0 d93d d73c 85bd
00000160: f448 21bc 608c 033e 1db4 0cbe 7ffd ee3d
00000170: 4ba8 2ebe 92a1 803d 8f2a 393e 8fb9 1ebd

Network_stack.0.1.gru.weight_ih_l1 f4 [96, 32]
0.13722825 0.09528941 0.014046414 0.026966302 -0.08651531 -0.009515503 0.12459249 -0.0919479
0.07491424 -0.025741097 0.043849163 -0.14926006 -0.06904943 -0.027732668 0.051938996 0.10214826
-0.0034137366 -0.25011066 0.030212043 -0.13287258 0.1056521 0.042576283 0.040553533 -0.061968803
-0.18131788 -0.1760146 0.07610423 0.123875104 -0.07262659 -0.0924929 -0.13071711 -0.1789795
0.01720227 -0.17480798 -0.14256874 0.12543267 0.048729327 0.17354822 0.044324417 -0.04100625
0.0369004 0.10864679 -0.15053554 0.14696506 0.03179667 -0.16836989 -0.019281952 -0.07828003
0.012959832 0.0063438285 0.01848898 -0.15105148 0.085923985 -0.10335482 -0.0019339947 -0.1294168
0.13394526 -0.14443083 -0.06334506 0.107239984 0.08820154 -0.049400426 -0.1414028 -0.15280916
0.109434634 0.08985333 0.040621895 0.018235162 -0.08593893 0.15020117 -0.11942541 -0.12752037
-0.08559407 -0.112739846 0.15802906 0.12578325 -0.02820722 -0.07162267 0.085568294 -0.1310624
-0.0031306539 -0.12880428 -0.19155791 0.07274835 0.02919506 0.16876897 0.05763845 0.17254184
-0.17787956 -0.020142203 -0.06062225 0.11488171 0.15042743 0.045239773 0.10136975 -0.16681492
0.07372538 -0.119943045 0.059277568 -0.021740207 0.14901197 0.06528674 0.0038800668 -0.06044374
0.0595101 -0.13543516 0.14456937 -0.04342488 -0.052026864 -0.07893073 0.020435601 0.05286809
0.11020681 0.10372123 -0.08841489 0.06342497 -0.0039944593 0.056817673 -0.1669613 0.023744117
-0.023159219 0.070545755 -0.13437524 0.1602172 0.17501318 0.049537525 0.12631102 -0.08773805
0.029027114 -0.033214603 -0.16335486 -0.00029058146 -0.12592722 0.13443792 -0.08155209 0.11112093
0.060328074 0.15108736 0.025257362 0.018474543 0.11027032 0.14540525 0.020024378 0.08352244
-0.01113894 -0.1509142 0.021308193 0.122848265 -0.13195139 0.08183195 0.008385264 0.06419408
0.08844081 0.14943622 0.07029353 0.15822975 -0.029903935 -0.018411001 0.086114295 -0.054847635
0.0084624775 -0.11568757 -0.04752306 -0.0508573 0.10539204 0.0323209 -0.016342467 -0.13924976
-0.028431334 0.066411234 0.09242521 -0.056748014 0.12610732 0.17009057 -0.01687438 0.04900052
-0.042968217 0.060281437 0.049171127 -0.18503638 0.14333183 0.043521944 -0.1509958 -0.106247924
-0.051019363 -0.058645867 -0.002890294 0.057184782 0.03866838 0.017344825 0.15754242 -0.113762826
0.02611949 -0.15094066 0.099492654 -0.0036229498 -0.054066703 0.0349922 0.13398154 0.016483381
-0.033251368 0.16524258 0.11163408 0.13071635 -0.053294614 0.16102122 -0.12931377 -0.09093425
0.18136726 0.18431197 -0.012327613 0.17973316 0.06975376 0.058724634 -0.1511909 -0.042353973
0.16658233 0.14781925 0.009330143 0.012310313 -0.06462186 -0.0064911507 0.0007301099 -0.07717419
0.05556836 0.22044641 -0.22131923 -0.04267628 8.41805e-05 -0.09444576 0.22483957 0.04042046
-0.08028083 -0.11466639 0.087387115 -0.0011465421 0.28234968 0.10280837 -0.08670507 0.20430972
0.19174828 0.1074303 0.41413242 0.14101839 0.04662529 -0.06261662 -0.13478856 -0.194145
0.26620793 -0.15061776 -0.112762906 0.19866624 -0.11024696 -0.16412896 -0.04934306 -0.047034845
00000000: 9085 0c3e 1827 c33d ee22 663c 6fe8 dc3c
00000010: f02e b1bd eae6 1bbc 592a ff3d 2e4f bcbd
00000020: a36c 993d fede d2bc 2e9b 333d a1d7 18be
00000030: ca69 8dbd 9f2f e3bc fcbd 543d 1b33 d13d
00000040: ffb8 5fbb 810e 80be 3f7f f73c c00f 08be
00000050: 2160 d83d 7864 2e3d 761b 263d 00d3 7dbd
00000060: 65ab 39be 2c3d 34be 89dc 9b3d 3bb2 fd3d
00000070: 40bd 94bd eb6c bdbd b5da 05be 6746 37be
00000080: c6eb 8c3c dd00 33be 8afd 11be 6c71 003e
00000090: 6798 473d a0b6 313e 858d 353d 2bf6 27bd
000000a0: e024 173d 3582 de3d fd25 1abe 027e 163e
000000b0: 3a3d 023d 2869 2cbe 2ff5 9dbc 4851 a0bd
000000c0: 7a55 543c e4df cf3b 3476 973c 3dad 1abe
000000d0: eaf8 af3d b1ab d3bd 187e fdba d685 04be
000000e0: f228 093e ade5 13be 0ebb 81bd a3a0 db3d
000000f0: 02a3 b43d 1a58 4abd e5cb 10be 017a 1cbe
00000100: 441f e03d 0605 b83d 2563 263d e861 953c
00000110: c000 b0bd 56ce 193e 4f95 f4bd b394 02be
00000120: f24b afbd 26e4 e6bd 5fd2 213e 53cd 003e
00000130: d412 e7bc e8ae 92bd 6e3e af3d 3935 06be
00000140: a82b 4dbb 45e5 03be c227 44be 16fd 943d
00000150: 7a2a ef3c c6d1 2c3e 4c16 6c3d cfae 303e
00000160: 0f26 36be 4301 a5bc 094f 78bd 1a47 eb3d
00000170: a609 1a3e 574d 393d f29a cf3d 88d1 2abe
00000180: 55fd 963d b3a4 f5bd 09cd 723d 8518 b2bc
00000190: 9896 183e 0eb5 853d b848 7e3b db93 77bd
000001a0: ddc0 733d 84af 0abe fe09 143e 49de 31bd
000001b0: 1f1a 55bd 6fa6 a1bd 9068 a73c 368c 583d
000001c0: 1cb4 e13d cc6b d43d de12 b5bd f3e4 813d
000001d0: f4e3 82bb a6b9 683d e7f7 2abe 0683 c23c
000001e0: 67b8 bdbc 4b7a 903d aa99 09be fa0f 243e
000001f0: a836 333e dce7 4a3d ad57 013e 02b0 b3bd
00000200: 45ca ed3c 090c 08bd 7f46 27be 2f59 98b9
00000210: 11f3 00be 18aa 093e c804 a7bd 5f93 e33d
00000220: 921a 773d a5b6 1a3e 87e8 ce3c ed57 973c
00000230: 68d5 e13d 1de5 143e 2a0a a43c d00d ab3d
00000240: 1a80 36bc 4189 1abe 858e ae3c df97 fb3d
00000250: 441e 07be 8297 a73d 5962 093c 3078 833d
00000260: 7520 b53d cf05 193e 0ef6 8f3d fb06 223e
00000270: 19f9 f4bc abd2 96bc b15c b03d eaa7 60bd
00000280: 34a6 0a3c 9bed ecbd 8aa7 42bd bf4f 50bd
00000290: c8d7 d73d ec62 043d a3e0 85bc 7d97 0ebe
000002a0: d4e8 e8bc 9d02 883d 6e49 bd3d 9b70 68bd
000002b0: 4722 013e 392c 2e3e 243c 8abc c5b4 483d
000002c0: 71ff 2fbd abe9 763d aa67 493d 2d7a 3dbe
000002d0: 94c5 123e 1144 323d a59e 1abe 8398 d9bd
000002e0: aef9 50bd a636 70bd 166b 3dbb 973a 6a3d
000002f0: bc62 1e3d bc16 8e3c cd52 213e 7cfc e8bd
00000300: 8af8 d53c 3090 1abe cec2 cb3d 036f 6dbb
00000310: 0c75 5dbd fb53 0f3d 7532 093e 2808 873c
00000320: 9632 08bd 5a35 293e 69a0 e43d 82da 053e
00000330: 744b 5abd bfe2 243e d46a 04be bc3b babd
00000340: 57b8 393e 47bc 3c3e c2f9 49bc f80b 383e
00000350: 0fdb 8e3d 3e89 703d cad1 1abe 5c7b 2dbd
00000360: 8f94 2a3e ee5d 173e 75dd 183c 32b1 493c
00000370: 7758 84bd b8b3 d4bb d964 3f3a 800d 9ebd
00000380: a69b 633d b4bc 613e 82a1 62be 53cd 2ebd
00000390: 108a b038 c76c c1bd 583c 663e ed8f 253d
000003a0: 476a a4bd 36d6 eabd 04f8 b23d 9247 96ba
000003b0: 2390 903e 328d d23d 6e92 b1bd 9136 513e
000003c0: a959 443e 6b04 dc3d 2a09 d43e 2067 103e
000003d0: 29fa 3e3d 243d 80bd 0306 0abe f2cd 46be
000003e0: 684c 883e 8b3b 1abe 3df0 e6bd 2a6f 4b3e
000003f0: 28c9 e1bd 6c11 28be f31b 4abd 9ca7 40bd
