models/model_uniform_region_0-0.3.0.6-0.9_multiple_Agents06c6048c.pth (torch, 87266 bytes, 18 tensors)

Network_stack.0.0.gru.weight_ih_l0 f4 [96, 2]
-0.05942773 -0.044578895 -0.040351957 0.097990625 0.09778015 -0.14304939 -0.009820386 -0.014160191
0.034196608 -0.016051557 -0.14502524 0.111963674 0.05338519 -0.11970357 0.10158737 0.01921081
-0.09379636 0.13657132 0.0997764 -0.015285442 -0.1434435 0.14057368 -0.13707617 -0.11033964
0.13947783 0.14216225 0.07510455 -0.1195093 0.03485287 0.036683485 -0.047348946 0.15839103
0.020609898 -0.11578467 0.10794579 -0.16364072 -0.10390488 0.024184426 -0.061161634 -0.021612039
-0.17974766 0.04336676 0.06627961 -0.09327937 -0.14420436 0.12883988 -0.09560767 0.11795656
-0.10339389 -0.088838585 0.042732857 0.116233364 0.054677963 -0.05806262 0.025392761 -0.006373277
0.052169807 0.14156891 -0.098873764 0.15542987 -0.13071157 -0.14908949 0.076281615 -0.014227429
-0.18117212 0.05760891 -0.032855842 0.0045052418 0.101969734 -0.14659773 -0.08670241 -0.16756861
-0.122546874 0.13044055 0.10621417 0.098917566 -0.1573038 -0.116415046 -0.119379036 -0.14255634
-0.009275744 0.010540969 -0.13373598 0.1542027 -0.05169324 -0.02249864 0.010728302 -0.08244596
0.18259263 -0.14991099 0.00090842845 0.15169106 0.09367157 -0.09091679 -0.13092655 -0.039888125
0.09520579 -0.044578128 0.09980163 0.01636001 0.17235257 0.16612354 -0.05646263 0.08665399
0.07829153 -0.097073495 -0.11530447 -0.030019384 0.0806373 -0.14749806 0.12814516 0.12536833
0.034067787 0.0799964 -0.01918856 -0.11039595 -0.26818347 -0.091299295 0.051960424 -0.035253506
-0.1838572 0.03781406 -0.21187836 0.124930814 0.049572103 0.070740424 0.07050533 -0.09107251
-0.11134833 -0.10554151 -0.12900004 -0.048524164 0.029854218 0.057690892 0.15685442 -0.077499256
-0.053883545 0.12430639 -0.080684654 0.011853152 0.091368236 0.09650872 -0.08423844 0.10531037
0.116697565 -0.16952464 0.10721006 0.111690916 0.10516323 0.09041179 0.06921263 -0.13182831
-0.13349673 -0.123405166 -0.16385655 0.06644297 -0.027958905 -0.10815826 0.053656027 -0.034399748
0.16692697 0.06197783 0.033345167 0.1307836 -0.12637551 -0.10657606 -0.12831798 -0.060988262
-0.058001164 0.15346882 0.15440758 0.08287744 0.12230745 -0.03963495 -0.13331361 0.05834737
0.006773329 -0.14350548 -0.052827314 0.046135094 -0.09268047 0.06277905 -0.110661745 0.09797033
-0.07429011 -0.17940286 -0.16357729 0.025312303 0.18843149 -0.013184752 0.12396758 -0.022317538
00000000: 7e6a 73bd 5c98 36bd 1848 25bd 4faf c83d
00000010: f640 c83d 8a7b 12be afe5 20bc 2500 68bc
00000020: be11 0c3d 8e7e 83bc 7f81 14be 364d e53d
00000030: 6eaa 5a3d 2527 f5bd 0a0d d03d fd5f 9d3c
00000040: 4e18 c0bd 5ad9 0b3e 9257 cc3d ca6f 7abc
00000050: dae2 12be 8cf2 0f3e b25d 0cbe c0f9 e1bd
00000060: 47d3 0e3e fb92 113e 6ad0 993d 4bc1 f4bd
00000070: e2c1 0e3d 6c41 163d f8f0 41bd 4231 223e
00000080: 17d6 a83c 8320 edbd af12 dd3d 6f91 27be
00000090: 15cc d4bd 6b1e c63c 9f84 7abd bb0b b1bc
000000a0: c50f 38be 58a1 313d 9bbd 873d 4109 bfbd
000000b0: 4faa 13be 9aee 033e f4cd c3bd 3593 f13d
000000c0: 2dc0 d3bd 01f1 b5bd a608 2f3d c20b ee3d
000000d0: 00f6 5f3d 12d3 6dbd 7b04 d03c ecd6 d0bb
000000e0: 02b0 553d 71f7 103e 547e cabd 0229 1f3e
000000f0: 41d9 05be eaaa 18be 8939 9c3d 2a1a 69bc
00000100: 2f85 39be 52f7 6b3d d993 06bd b5a0 933b
00000110: 82d5 d03d b71d 16be 0891 b1bd 1b97 2bbe
00000120: dbf9 fabd 3592 053e d186 d93d 4b95 ca3d
00000130: 3f14 21be 036b eebd ff7c f4bd 4afa 11be
00000140: 4af9 17bc 07b4 2c3c 16f2 08be 50e7 1d3e
00000150: 4abc 53bd 114f b8bc c3c5 2f3c 6dd9 a8bd
00000160: 90f9 3a3e 4482 19be 9a23 6e3a e754 1b3e
00000170: e1d6 bf3d 9532 babd 9c11 06be bb61 23bd
00000180: 41fb c23d 8e97 36bd cc64 cc3d 6d05 863c
00000190: 317d 303e 4a1c 2a3e 5c45 67bd a677 b13d
000001a0: 4f57 a03d 78ce c6bd c024 ecbd 36eb f5bc
000001b0: 2b25 a53d bb09 17be 7c38 033e 8e60 003e
000001c0: aa8a 0b3d 27d5 a33d 5431 9dbc 4617 e2bd
000001d0: 584f 89be 20fb babd 74d4 543d fb65 10bd
000001e0: 1045 3cbe eae2 1a3d a4f6 58be badb ff3d
000001f0: 1e0c 4b3d 5be0 903d 1965 903d 3984 babd
00000200: 980a e4bd 2626 d8bd 9618 04be 46c1 46bd
00000210: d590 f43c 494d 6c3d 729e 203e eeb7 9ebd
00000220: feb4 5cbd 5994 fe3d ff3d a5bd b933 423c
00000230: 451f bb3d 5da6 c53d 3485 acbd f7ac d73d
00000240: 22ff ee3d de97 2dbe f390 db3d 35be e43d
00000250: d25f d73d d129 b93d 5abf 8d3d 00fe 06be
00000260: 5eb3 08be d9bb fcbd 03ca 27be 4013 883d
00000270: 130a e5bc 1482 ddbd 6cc6 5b3d c0e6 0cbd
00000280: e7ee 2a3e 77dc 7d3d f194 083d 23ec 053e
00000290: 9568 01be 8d44 dabd ca65 03be d4ce 79bd
000002a0: a192 6dbd ee26 1d3e 051d 1e3e a6bb a93d
000002b0: 547c fa3d 4258 22bd 5d83 08be a7fd 6e3d
000002c0: cdf2 dd3b 1af3 12be 7461 58bd 27f8 3c3d
000002d0: 42cf bdbd 4d92 803d a0a2 e2bd aba4 c83d
000002e0: 6a25 98bd 62b5 37be ce80 27be bf5b cf3c
000002f0: 2ff4 403e dc04 58bc b7e2 fd3d 45d3 b6bc

Network_stack.0.0.gru.weight_hh_l0 f4 [96, 32]
0.049334288 -0.039685547 -0.08288554 0.0006097541 0.12546533 0.12759502 0.0263808 -0.061864525
-0.13578449 -0.13298249 -0.045740657 -0.09470301 0.1116127 0.09584436 0.09625966 -0.16383821
0.13320382 0.056334503 0.052562095 -0.15498663 -0.123443685 -0.038376536 -0.14149022 0.14832295
0.075065784 0.009978782 0.012111041 0.02694108 0.10410546 -0.059928212 -0.11619024 -0.040398818
0.007299596 0.13372156 0.17243074 -0.12909429 0.083302364 0.16032334 0.09229024 -0.14790292
0.12465632 -0.139722 -0.16365324 -0.11183485 0.09125406 -0.13206832 -0.14078502 -0.081529684
0.068471506 0.10117306 0.035008248 -0.101433404 0.08282202 -0.09528315 0.013591507 0.0035385222
-0.0053220927 -0.06497998 0.13830176 0.04863634 -0.0789735 -0.12054749 -0.1065979 0.037446488
-0.040602397 0.051063336 -0.10303585 0.10369115 0.10256776 0.077443875 0.17360093 -0.0583502
-0.0028032803 -0.07051596 0.0034634029 0.110913925 0.09363574 0.13024785 0.17578062 -0.20467636
-0.07763368 0.08483557 -0.18378249 0.029750613 -0.0741428 -0.14259116 -0.19266267 -0.14610766
0.0035583503 -0.030408949 0.2493967 0.19769819 -0.04707915 -0.06065113 0.10598695 -0.05364744
0.039519176 0.02724914 -0.07440305 0.025090378 -0.11391046 -0.014417992 -0.011976671 -0.15877673
0.0021692018 0.06092105 0.10634528 0.010985217 -0.028847741 -0.09795585 0.012543659 0.09996384
-0.1317717 0.018643247 0.040091712 0.07114682 0.13516599 0.14589521 -0.058541488 0.14307874
0.17362927 0.026423065 -0.12284231 -0.20699163 0.17595161 0.109317146 0.12644105 0.12423376
0.11648924 0.15780123 -0.15007043 -0.10813867 0.15394224 -0.029842852 -0.056182936 0.0435598
0.021788565 -0.0940707 -0.08402199 0.19067456 0.1205188 0.15728633 0.110746264 0.038292322
-0.08248667 0.07484773 -0.048707653 -0.002756697 -0.13683036 0.092395276 0.007709334 -0.07886234
-0.099603675 -0.01177232 0.097799115 -0.09788407 -0.10616059 -0.099159636 0.07872939 0.12734348
0.14139028 0.051249966 0.110763185 -0.038829226 -0.09882317 -0.14115925 -0.059068993 0.18709035
-0.03868243 0.040801026 -0.104515634 -0.06328383 -0.103180096 -0.08345756 -0.040877312 0.17013434
0.11407952 -0.0016191417 0.12657292 -0.052009374 0.0013022649 -0.10010441 -0.15231393 0.13070755
-0.13432482 0.104835056 0.15553112 -0.1423821 -0.081792854 -0.05542794 -0.06196104 0.07851865
-0.15878738 -0.01612897 -0.1299639 -0.08657614 0.11350865 -0.04688193 -0.065902375 -0.07046587
-0.18363152 0.032361582 -0.17286736 -0.026123341 0.014768079 0.046308864 0.054350253 0.14865468
-0.16323134 0.033632778 -0.009459761 0.05726494 -0.13061284 0.13310237 -0.12794857 0.026292665
0.12707776 0.23123074 -0.05094675 0.1517405 0.056873143 0.036535025 -0.04531728 -0.051719137
-0.09375004 -0.028615762 -0.023916598 -0.013496491 -0.04814567 0.04957604 -0.03905074 -0.16334087
0.120694764 -0.029092709 -0.06899222 0.017084047 -0.13959695 -0.11556832 -0.17675234 -0.092704654
-0.0027484496 0.041840293 -0.028335987 0.091266796 0.15396355 -0.06648894 0.11138807 0.095772475
0.039259914 0.070609264 -0.07732974 -0.090651415 0.10058008 0.08387508 0.066735856 -0.060092732
00000000: c012 4a3d 508d 22bd e5bf a9bd e8d7 1f3a
00000010: fc79 003e 45a8 023e 8c1c d83c a865 7dbd
00000020: 170b 0bbe 902c 08be 8e5a 3bbd a7f3 c1bd
00000030: 3395 e43d 0c4a c43d c923 c53d 34c5 27be
00000040: 9566 083e 02bf 663d 5a4b 573d d1b4 1ebe
00000050: 0bd0 fcbd b730 1dbd d0e2 10be f9e1 173e
00000060: 17bc 993d 0c7e 233c 636d 463c 8ab3 dc3c
00000070: 3e35 d53d 4977 75bd 26f5 edbd 3b79 25bd
00000080: 7331 ef3b 4eee 083e af91 303e 4b31 04be
00000090: 6e9a aa3d cd2b 243e aa02 bd3d dd73 17be
000000a0: d04b ff3d 4913 0fbe b794 27be ab09 e5bd
000000b0: 69e3 ba3d eb3c 07be f329 10be 09f9 a6bd
000000c0: ca3a 8c3d d233 cf3d cf64 0f3d 51bc cfbd
000000d0: 979e a93d d023 c3bd eaae 5e3c 8de6 673b
000000e0: f364 aebb 3914 85bd fa9e 0d3e e636 473d
000000f0: dcbc a1bd 9ae1 f6bd 0050 dabd 7d61 193d
00000100: b34e 26bd ca27 513d 7604 d3bd 075c d43d
00000110: 0c0f d23d e59a 9e3d 71c4 313e 9f00 6fbd
00000120: 3db7 37bb ac6a 90bd 42fa 623b d726 e33d
00000130: 18c4 bf3d b15f 053e d6ff 333e ae96 51be
00000140: 68fe 9ebd 45be ad3d 7a31 3cbe 8fb7 f33c
00000150: 2ed8 97bd 6b03 12be 5d49 45be 3f9d 15be
00000160: 3633 693b 301c f9bc d961 7f3e 6571 4a3e
00000170: 11d6 40bd 526d 78bd b00f d93d 6bbd 5bbd
00000180: dcde 213d 9739 df3c a060 98bd 568a cd3c
00000190: e349 e9bd 7139 6cbc cd39 44bc 5e96 22be
000001a0: 2b29 0e3b 5a88 793d 8ecb d93d 57fb 333c
000001b0: 1952 ecbc 149d c8bd eb83 4d3c d7b9 cc3d
000001c0: 29ef 06be b9b9 983c 3537 243d 6db5 913d
000001d0: f468 0a3e 8e65 153e 33c9 6fbd 3c83 123e
000001e0: dfcb 313e 2f75 d83c c094 fbbd 9df5 53be
000001f0: a92c 343e abe1 df3d c379 013e 456e fe3d
00000200: e991 ee3d a596 213e 10ac 19be cf77 ddbd
00000210: 09a3 1d3e ff78 f4bc 1420 66bd c36b 323d
00000220: ef7d b23c 24a8 c0bd b913 acbd 3140 433e
00000230: 90d2 f63d ab0f 213e f0ce e23d 69d8 1c3d
00000240: c5ee a8bd c449 993d ad81 47bd b3a9 34bb
00000250: 421d 0cbe bc39 bd3d 959e fc3b 9482 a1bd
00000260: 03fd cbbd b0e0 40bc e74a c83d 7177 c8bd
00000270: b96a d9bd 3514 cbbd e03c a13d 5466 023e
00000280: 9dc8 103e 7ceb 513d cfd7 e23d 650b 1fbd
00000290: cd63 cabd 0d8c 10be 54f2 71bd 9d94 3f3e
000002a0: 7871 1ebd fa1e 273d 4b0c d6bd f49a 81bd
000002b0: 1650 d3bd cceb aabd f86e 27bd b237 2e3e
000002c0: 86a2 e93d 6139 d4ba 559c 013e c807 55bd
000002d0: c2b0 aa3a 8a03 cdbd 2ff8 1bbe 33d8 053e
000002e0: 728c 09be c3b3 d63d 8d43 1f3e 9dcc 11be
000002f0: 0383 a7bd 6808 63bd dcca 7dbd 63ce a03d
00000300: 2999 22be e720 84bc 4215 05be d54e b1bd
00000310: 3977 e83d 4407 40bd d3f7 86bd 6950 90bd
00000320: e709 3cbe 948d 043d 2404 31be 9e00 d6bc
00000330: d0f5 713c 5dae 3d3d 5f9e 5e3d ef38 183e
00000340: 1e26 27be 86c2 093d 1dfd 1abc a48e 6a3d
00000350: 5fbf 05be fd4b 083e f304 03be b763 d73c
00000360: ac20 023e c0c7 6c3e 8aad 50bd dd61 1b3e
00000370: d0f3 683d c0a5 153d 9d9e 39bd 72d7 53bd
00000380: 0500 c0bd 9a6b eabc beec c3bc 6320 5dbc
00000390: 6534 45bd 3f10 4b3d abf3 1fbd d442 27be
000003a0: d12e f73d d553 eebc cb4b 8dbd d8f3 8b3c
000003b0: 81f2 0ebe 15af ecbd 91fe 34be f0db bdbd
000003c0: 551f 34bb ba60 2b3d df20 e8bc 16ea ba3d
000003d0: 9fa8 1d3e 5a2b 88bd 6e1f e43d 5c24 c43d
000003e0: 01cf 203d 979b 903d 0e5f 9ebd 73a7 b9bd
000003f0: eefc cd3d b3c6 ab3d cfac 883d cc23 76bd

Network_stack.0.0.gru.bias_ih_l0 f4 [96]
-0.059947688 -0.17704834 0.017063979 -0.024898168 0.08336956 0.08770781 -0.007127983 0.12862718
-0.050129067 -0.18639264 -0.02451509 0.17570107 0.04786959 0.14712511 -0.065855384 -0.028375985
0.04668942 -0.03985796 -0.14097366 -0.09372172 0.05585095 -0.0745373 0.13817489 0.06214544
-0.1724051 -0.10081041 -0.07308715 -0.07810209 0.022673255 0.17320473 0.0060322313 -0.0426037
0.041434184 0.08979517 -0.198722 -0.19500877 0.037806742 -0.01052475 -0.09270245 -0.10497722
0.16375679 -0.02516877 -0.039338768 -0.010015449 -0.047100127 0.13932078 0.09174896 0.060663763
-0.048770823 -0.021662928 0.0877361 -0.09333216 -0.062883444 -0.092127286 0.009696943 -0.08493771
0.04818714 -0.13931826 0.10826723 -0.08813719 -0.18157847 -0.20609425 0.080843315 -0.08880319
-0.08028361 -0.12905736 -0.19391964 0.048558567 0.16114286 0.01581984 0.06548369 -0.057076376
-0.13359936 -0.086084284 -0.036975387 0.08162938 0.10820786 -0.06126049 0.17941482 -0.05817874
-0.15017724 -0.15241455 0.05927163 -0.020953681 -0.15004565 -0.080030136 0.004205076 -0.030359717
0.09052799 -0.033739578 0.1621549 0.060269747 0.118439876 0.11315505 0.013241281 -0.056720365
00000000: b58b 75bd 294c 35be c2c9 8b3c 3ef7 cbbc
00000010: a9bd aa3d 27a0 b33d db91 e9bb d8b6 033e
00000020: 2354 4dbd b6dd 3ebe dfd3 c8bc fbea 333e
00000030: e712 443d f7a7 163e 30df 86bd c174 e8bc
00000040: 683d 3f3d 1a42 23bd 665b 10be 2cf1 bfbd
00000050: f7c3 643d 03a7 98bd b87d 0d3e 388c 7e3d
00000060: f68a 30be b075 cebd b7ae 95bd fdf3 9fbd
00000070: 43bd b93c 955c 313e 06aa c53b 3881 2ebd
00000080: e4b6 293d 88e6 b73d c87d 4bbe 61b0 47be
00000090: 3edb 1a3d 0070 2cbc c8da bdbd 4cfe d6bd
000000a0: dcaf 273e bd2e cebc b021 21bd d617 24bc
000000b0: 10ec 40bd 1baa 0e3e e1e6 bb3d 917a 783d
000000c0: eac3 47bd 7476 b1bc fcae b33d ee24 bfbd
000000d0: 09c9 80bd 3bad bcbd eddf 1e3c d2f3 adbd
000000e0: e15f 453d 72a9 0ebe 36bb dd3d 4581 b4bd
000000f0: b5ef 39be 5f0a 53be 2e91 a53d 72de b5bd
00000100: bc6b a4bd 9d27 04be df92 46be 59e5 463d
00000110: a202 253e 9c98 813c 501c 863d ebc8 69bd
00000120: 45ce 08be f54c b0bd 8173 17bd 4e2d a73d
00000130: 159c dd3d 48ec 7abd 85b8 373e d54c 6ebd
00000140: 10c8 19be 8f12 1cbe cfc6 723d 0ea7 abbc
00000150: 91a5 19be d7e6 a3bd bcca 893b f1b4 f8bc
00000160: bd66 b93d 8332 0abd ef0b 263e 69dd 763d
00000170: 9b90 f23d d6bd e73d f5f1 583c 9d53 68bd

Network_stack.0.0.gru.bias_hh_l0 f4 [96]
-0.08090869 0.025718456 -0.0035253316 -0.17985111 -0.008962718 0.06047533 0.11755657 0.1266031
-0.15920497 0.08655155 0.12632115 -0.051214192 -0.0122331325 0.075387806 -0.12934646 0.055778746
-0.123307 0.043232813 -0.058893476 -0.19239439 -0.10846204 0.06597673 -0.023832045 0.116375886
0.14175767 -0.15970573 -0.028601743 0.18458682 0.07073571 0.095648125 -0.0006907281 0.1262982
-0.21056654 -0.012086768 -0.20478772 -0.13967255 0.06754179 0.028718505 0.12319878 -0.10481069
-0.12887046 0.041140895 -0.15518694 -0.20127788 -0.04894721 0.03804676 -0.17521334 -0.060084525
-0.029371757 0.18908566 0.16853294 0.09397054 0.13808152 -0.13841519 0.069063075 -0.03159716
-0.07351182 -0.13887107 -0.015094556 -0.163842 -0.045926318 -0.13903712 0.017462123 -0.23395577
0.16443013 -0.1631049 -0.05034761 0.12813969 -0.13898449 -0.095079154 -0.13360624 0.044436853
0.11316178 -0.12751344 0.05913271 0.027832583 -0.050927054 -0.14831746 0.1871292 -0.06802364
0.05679263 -0.101469375 -0.14549778 -0.08582221 0.16171376 0.14942019 0.036716033 0.0914154
0.10845217 0.042426113 -0.061050273 0.05344134 0.008036659 -0.08771057 -0.058589317 -0.15213148
00000000: 75b3 a5bd 83af d23c 4009 67bb e42a 38be
00000010: 5dd8 12bc fbb4 773d 80c1 f03d 3ea4 013e
00000020: a106 23be f041 b13d 555a 013e f9c5 51bd
00000030: 7a6d 48bc ec64 9a3d 6673 04be 4178 643d
00000040: 6188 fcbd e414 313d 493a 71bd 0903 45be
00000050: 5921 debd cf1e 873d 6c3b c3bc 7b56 ee3d
00000060: ec28 113e e689 23be 344e eabc 5404 3d3e
00000070: e2dd 903d 2ae3 c33d fa11 35ba 5154 013e
00000080: c19e 57be 9407 46bc dfb3 51be 5206 0fbe
00000090: 5a53 8a3d 1243 eb3c a44f fc3d fda6 d6bd
000000a0: 9ef6 03be 5b83 283d 53e9 1ebe ca1b 4ebe
000000b0: df7c 48bd ebd6 1b3d 206b 33be 311b 76bd
000000c0: 0a9d f0bc ac9f 413e e693 2c3e a073 c03d
000000d0: 3e65 0d3e b6bc 0dbe f170 8d3d 066c 01bd
000000e0: 5d8d 96bd 3834 0ebe 284f 77bc 32c6 27be
000000f0: 3c1d 3cbd bf5f 0ebe ba0c 8f3c 1a92 6fbe
00000100: 5f60 283e f904 27be 4c39 4ebd 0d37 033e
00000110: f351 0ebe dcb8 c2bd 13d0 08be 6b03 363d
00000120: 5dc1 e73d e292 02be 2435 723d 2801 e43c
00000130: e398 50bd 88e0 17be cc9e 3f3e fa4f 8bbd
00000140: 649f 683d 2dcf cfbd 5ffd 14be 8ec3 afbd
00000150: 4b98 253e 9b01 193e 8d63 163d ff37 bb3d
00000160: 2c1c de3d 01c7 2d3d da0f 7abd 4ee5 5a3d
00000170: 31ac 033c 99a1 b3bd 5afb 6fbd 5bc8 1bbe

Network_stack.0.0.gru.weight_ih_l1 f4 [96, 32]
0.19393925 -0.1468498 0.037444353 -0.046665702 -0.09370565 0.12976353 0.14530826 0.04156231
-0.0018030396 0.04838749 -0.0449474 -0.012162525 -0.058014613 0.08448496 -0.047393348 0.19246723
-0.17880712 -0.017948247 0.035591707 -0.009544156 -0.097278886 -0.12597151 -0.18325856 0.19460307
-0.076094285 0.015138216 -0.046181936 -0.15142056 0.067932546 0.15568341 0.10033207 0.017870469
-0.03463235 0.05719233 -0.13812637 0.027971262 -0.1537045 -0.1197032 -0.1793566 -0.11195041
-0.1642833 -0.15929887 0.0327664 -0.12289041 0.04978085 -0.15757065 0.12744246 0.05273097
0.14687818 0.1071737 -0.06895532 0.0803397 -0.17959721 -0.070795126 -0.12012566 -0.14003111
0.017057985 -0.058783177 0.053995702 0.022898829 -0.12476116 0.12667048 -0.0055723414 0.014162325
-0.10866088 -0.14353839 0.08367411 0.121572345 -0.14706542 -0.0764283 0.032486204 0.15191428
0.15414737 -0.123601146 -0.092356466 0.07525402 -0.06270346 -0.016895154 0.0076994197 0.011346355
0.12726717 -0.01847829 -0.10758251 0.049735826 -0.018670809 -0.17308103 -0.1295528 -0.04751168
-0.055367418 -0.09471605 0.010461404 -0.08581031 -0.14929968 0.012774875 0.115264244 0.16627878
0.00413882 0.08717217 0.0033518707 0.15527292 0.1373962 0.119883016 0.0042685242 0.17461923
-0.016722832 -0.059091445 -0.05430914 -0.14683288 -0.07833868 0.16110328 0.038573418 -0.05077282
0.07946596 0.14022467 -0.04888093 0.11295667 -0.0676887 -0.17600618 0.16779046 0.02083065
0.11545773 -0.044618476 -0.18398903 0.025421683 -0.0821173 -0.044905603 0.093899846 0.15110652
-0.0040036533 -0.054941483 0.08036779 -0.10660622 0.113089256 0.16416033 -0.07878373 0.045950815
0.17566507 0.06829124 -0.009981553 0.001593574 0.17560257 0.10618614 -0.1378228 0.09627239
0.07320967 0.004593595 0.15498245 -0.13488795 0.020963043 0.104002 0.023185315 0.17122304
-0.012625196 0.033090863 -0.13119805 -0.18529156 -0.07324523 0.11053416 -0.0047433944 0.18688282
0.14209479 -0.06710094 -0.08983423 0.13003908 -0.10449941 -0.16510636 0.13734467 -0.053198878
-0.14215791 0.15340179 0.08986218 0.032963313 -0.05418353 -0.08323694 0.12374315 -0.13490419
-0.04843925 -0.15919504 0.088192604 -0.075016275 0.107261084 -0.11837582 0.11256609 -0.04295386
-0.13074905 -0.18569428 -0.17007789 0.026838748 -0.1116107 0.12205899 0.044807177 -0.075852476
0.15262718 -0.039247986 -0.036900017 -0.04811183 -0.080065235 -0.11386178 -0.15355927 -0.16434655
0.08183338 -0.14343941 0.07936259 -0.14354643 -0.14787617 0.055270307 -0.09406437 0.036574945
0.16153616 -0.022553086 -0.014416422 0.10568918 -0.075708 0.16672754 -0.1330728 0.16548048
0.09653524 -0.04891605 -0.0926572 -0.06960369 0.150801 0.07684699 0.11828659 0.04095361
0.057399485 -0.15866068 -0.08297768 -0.07391278 -0.13097118 0.14219402 -0.08595494 0.031042943
0.10672037 0.09672389 -0.075038455 -0.047934644 0.11138064 0.09360405 0.1173846 -0.05781419
-0.10553596 0.14804323 -0.04472245 0.19122447 -0.030686721 0.13990764 0.12972657 -0.07975534
-0.16524328 -0.13576804 -0.08098039 0.060979668 0.1250944 -0.1254582 -0.17242223 -0.034726057
00000000: 0398 463e cb5f 16be 405f 193d 8924 3fbd
00000010: bfe8 bfbd bbe0 043e b0cb 143e 3e3d 2a3d
00000020: f853 ecba f631 463d c41a 38bd 5445 47bc
00000030: bba0 6dbd 7306 ad3d 871f 42bd 2116 453e
00000040: 3719 37be 3408 93bc 9cc8 113d 175f 1cbc
00000050: 273a c7bd adfe 00be 22a8 3bbe 0746 473e
00000060: 52d7 9bbd 4806 783c 4529 3dbd fe0d 1bbe
00000070: 3820 8b3d 796b 1f3e e67a cd3d 1765 923c
00000080: a7da 0dbd 8142 6a3d 0071 0dbe fd23 e53c
00000090: b664 1dbe f426 f5bd 42a9 37be 4246 e5bd
000000a0: e239 28be 3e1f 23be 1036 063d f8ad fbbd
000000b0: 01e7 4b3d 335a 21be 4780 023e 6efc 573d
000000c0: 3c67 163e e37d db3d 7238 8dbd 2489 a43d
000000d0: 55e8 37be 09fd 90bd 7104 f6bd 5164 0fbe
000000e0: 30bd 8b3c a1c6 70bd 992a 5d3d 5396 bb3c
000000f0: c782 ffbd e8b5 013e 3098 b6bb 1909 683c
00000100: 9889 debd bafb 12be 555d ab3d ecfa f83d
00000110: 5198 16be 7186 9cbd 4110 053d 6b8f 1b3e
00000120: cfd8 1d3e 9922 fdbd 6325 bdbd c81e 9a3d
00000130: ac6a 80bd b567 8abc 6a4b fc3b 10e6 393c
00000140: 5352 023e c85f 97bc 3854 dcbd cbb7 4b3d
00000150: 86f3 98bc 273c 31be 7da9 04be 9b9b 42bd
00000160: f2c8 62bd 7dfa c1bd 4f66 2b3c 51bd afbd
00000170: 04e2 18be b64d 513c a90f ec3d fc44 2a3e
00000180: f09e 873b 5387 b23d 0fab 5b3b ddff 1e3e
00000190: 97b1 0c3e 3a85 f53d fade 8b3b 62cf 323e
000001a0: 52fe 88bc df09 72bd 4373 5ebd 5c5b 16be
000001b0: 0870 a0bd 42f8 243e 29ff 1d3d 29f7 4fbd
000001c0: 0dbf a23d 0e97 0f3e 5f37 48bd d455 e73d
000001d0: 60a0 8abd f73a 34be 43d1 2b3e 0aa5 aa3c
000001e0: 1a75 ec3d ddc1 36bd 9f67 3cbe 2241 d03c
000001f0: 1d2d a8bd f0ee 37bd 904e c03d abbb 1a3e
00000200: 1431 83bb 520a 61bd de97 a43d 5d54 dabd
00000210: 579b e73d a519 283e 5d59 a1bd ec36 3c3d
00000220: 8be1 333e 47dc 8b3d ab89 23bc 78df d03a
00000230: 29d1 333e 1e78 d93d 6c21 0dbe 752a c53d
00000240: f4ee 953d de85 963b b8b3 1e3e 1120 0abe
00000250: b0ba ab3c 00ff d43d 21ef bd3c 1855 2f3e
00000260: e9d9 4ebc 498a 073d c858 06be 12bd 3dbe
00000270: 9801 96bd bc5f e23d 7a6e 9bbb 365e 3f3e
00000280: 4c81 113e 386c 89bd 02fb b7bd f728 053e
00000290: c903 d6bd a411 29be 15a4 0c3e 11e7 59bd
000002a0: d891 11be 5c15 1d3e aa09 b83d 8a04 073d
000002b0: 8def 5dbd 2178 aabd 0c6d fd3d 5324 0abe
000002c0: 3c68 46bd 0604 23be 539e b43d 22a2 99bd
000002d0: b3ab db3d 066f f2bd 0d89 e63d 63f0 2fbd
000002e0: 14e3 05be a426 3ebe e628 2ebe efdc db3c
000002f0: 2794 e4bd 10fa f93d bb87 373d 8b58 9bbd
00000300: 4d4a 1c3e 7fc2 20bd 7924 17bd e910 45bd
00000310: 3ef9 a3bd 5d30 e9bd a43e 1dbe 764a 28be
00000320: 4298 a73d c8e1 12be db88 a23d d6fd 12be
00000330: da6c 17be 1e63 623d d2a4 c0bd 9ccf 153d
00000340: bc69 253e 40c1 b8bc db32 6cbc 9273 d83d
00000350: cc0c 9bbd a0ba 2a3e 3c44 08be b773 293e
00000360: 45b4 c53d 325c 48bd 0fc3 bdbd 618c 8ebd
00000370: 946b 1a3e f461 9d3d 3d40 f23d f9be 273d
00000380: b91b 6b3d f277 22be 34f0 a9bd 955f 97bd
00000390: 4f1d 06be 4f9b 113e 2509 b0bd c54d fe3c
000003a0: 3690 da3d 2d17 c63d c3ad 99bd 1e57 44bd
000003b0: 881b e43d 7bb3 bf3d 5667 f03d 92ce 6cbd
000003c0: 3d23 d8bd a598 173e e32e 37bd 59d0 433e
000003d0: b862 fbbc f343 0f3e 0bd7 043e c556 a3bd
000003e0: 8935 29be c706 0bbe 0cd9 a5bd d1c5 793d
000003f0: bf18 003e 1d78 00be 748f 30be e93c 0ebd

Network_stack.0.0.gru.weight_hh_l1 f4 [96, 32]
0.101000644 0.12896264 -0.05605878 0.002080979 -0.19764462 -0.04667552 -0.14636204 0.13083692
-0.069883995 -0.1226094 -0.05948552 0.1942353 -0.1314206 0.006474585 -0.0635338 -0.05096653
-0.18235373 0.14216405 0.028825253 -0.17097683 0.053678043 0.0727165 -0.104723744 0.16495782
-0.068776146 0.05119423 0.05183206 0.021413103 -0.051652975 0.10949422 -0.0052730995 0.14844906
-0.0005601688 -0.19007856 0.0017687436 -0.16509937 -0.095133804 -0.16861613 0.02060226 -0.123210624
-0.06563635 0.005584113 0.09475556 0.14528841 0.1374624 -0.15698773 0.104402244 0.060181137
0.09462405 -0.04880523 0.15030016 0.103145316 0.037389275 -0.12805268 -0.15941541 0.15060945
-0.16119269 -0.16991279 0.113821186 0.052549046 0.08661927 0.0783143 0.04980464 -0.07424315
0.17482358 0.120001666 -0.13154665 0.1850652 0.13337499 -0.10117289 0.09103913 0.15227701
0.06002133 -0.08668418 0.09913553 -0.011285616 -0.10427599 -0.13926941 -0.08294241 -0.044627387
0.03736366 -0.049943455 -0.116919674 -0.014463164 -0.15506834 0.07689561 0.18910834 -0.054247458
0.05737822 -0.08494872 -0.00730828 -0.090511315 0.11148099 -0.19056743 -0.11851805 -0.1596394
0.15858436 0.06431892 0.08376151 -0.10210085 -0.010024384 -0.023759253 0.12273805 -0.1171395
0.061663564 0.009081697 -0.01721559 0.12557799 -0.16063836 0.11091946 0.079288855 -0.055092383
-0.10626222 0.047243744 0.040184617 -0.0863117 -0.0972102 -0.016702801 -0.12747772 -0.10705973
0.08194671 0.07654682 -0.177079 -0.11203652 0.15015723 0.078424394 0.015922736 0.05961573
-0.15423232 0.079195045 -0.0367574 -0.12703395 0.14100981 0.021484762 0.030972857 -0.009769188
-0.13674767 0.00707725 -0.03636233 0.07557261 0.059401963 0.01867571 -0.0018031549 0.06249163
0.07034491 0.06868696 0.09099687 -0.07260453 -0.07298147 0.117472455 -0.05092734 -0.07154856
0.14202705 -0.15690657 -0.043850407 -0.029275704 0.1960343 -0.0258693 -0.017132103 0.056555346
0.027216202 0.17620619 0.17398643 -0.08396908 0.12319981 0.13826203 0.013775294 -0.15857023
-0.107649006 0.1065007 0.13494329 -0.18125753 0.18798828 0.08876412 0.10923362 -0.020367635
0.047064763 -0.04252645 0.042945717 0.11820619 0.10745425 0.05982545 -0.15686898 -0.086579576
0.11874419 0.074352115 0.028715918 -0.1475268 0.029308049 -0.054648586 0.07189972 -0.17405999
0.15644844 -0.046047594 0.04829894 -0.13148473 0.13882498 -0.09149342 0.016636342 -0.0545308
-0.055907268 0.082139045 0.11287134 -0.025249336 -0.056081492 0.15087666 0.17051794 -0.038075916
-0.09834441 0.036499098 0.03896606 -0.002045351 0.103027515 -0.109783225 0.14696997 -0.009323998
0.04412543 0.08491655 -0.070899084 0.016320556 0.082082026 -0.028529225 -0.007655235 -0.15813191
0.15267007 -0.13329926 0.11609556 0.05594039 -0.12517859 -0.06613477 0.037284464 -0.15403134
-0.15290788 -0.18337935 -0.16285563 0.05919275 -0.005101465 0.081637904 -0.15178256 -0.14740255
0.093389764 -0.087262236 0.010939596 0.13308465 0.0042462666 -0.18886821 0.004608924 0.18619962
0.07192017 0.030482056 0.021641254 0.11778598 0.19069248 -0.106759295 -0.04996187 -0.07051921
00000000: 6dd9 ce3d c80e 043e e49d 65bd 0961 083b
00000010: 5a63 4abe d42e 3fbd eedf 15be 1dfa 053e
00000020: 571f 8fbd a31a fbbd 17a7 73bd 9ee5 463e
00000030: 1f93 06be c128 d43b 021e 82bd 48c2 50bd
00000040: f0ba 3abe 7493 113e f022 ec3c 8d14 2fbe
00000050: 82dd 5b3d 63ec 943d 6779 d6bd b4ea 283e
00000060: 82da 8cbd 0ab1 513d db4d 543d 886a af3c
00000070: 1292 53bd 813e e03d f7c9 acbb 0803 183e
00000080: 4bd8 12ba f4a3 42be 30d5 e73a cf0f 29be
00000090: 83d5 c2bd b5a9 2cbe 12c6 a83c da55 fcbd
000000a0: 5a6c 86bd effa b63b 340f c23d 7cc6 143e
000000b0: f2c2 0c3e 64c1 20be d8d0 d53d 7f80 763d
000000c0: 41ca c13d fee7 47bd 49e8 193e da3d d33d
000000d0: 7f25 193d 3e20 03be cb3d 23be 5d39 1a3e
000000e0: b20f 25be 9efd 2dbe 151b e93d ab3d 573d
000000f0: 7265 b13d 3f63 a03d f3ff 4b3d cb0c 98bd
00000100: f404 333e 6fc3 f53d 2ab4 06be bb81 3d3e
00000110: 7493 083e bb33 cfbd b972 ba3d 81ee 1b3e
00000120: edd8 753d 7a87 b1bd 9207 cb3d 4ee7 38bc
00000130: a68e d5bd a49c 0ebe b6dd a9bd 35cb 36bd
00000140: a30a 193d 8291 4cbd 9573 efbd e8f6 6cbc
00000150: 3cca 1ebe 727b 9d3d 9ea5 413e 9532 5ebd
00000160: 6d05 6b3d 98f9 adbd 4c7a efbb ff5d b9bd
00000170: 2550 e43d 1c24 43be 97b9 f2bd 8378 23be
00000180: f063 223e a3b9 833d 288b ab3d 401a d1bd
00000190: 503d 24bc c4a2 c2bc 165e fb3d d6e6 efbd
000001a0: ef92 7c3d 66cb 143c b607 8dbc 8497 003e
000001b0: 627e 24be be29 e33d 3262 a23d 8da8 61bd
000001c0: 02a0 d9bd a882 413d a098 243d 30c4 b0bd
000001d0: 2416 c7bd 50d4 88bc 8589 02be 2242 dbbd
000001e0: add3 a73d 94c4 9c3d 3354 35be 6773 e5bd
000001f0: d1c2 193e f89c a03d 6670 823c a02f 743d
00000200: 14ef 1dbe 0331 a23d ed8e 16bd 3015 02be
00000210: e064 103e d000 b03c caba fd3c f20e 20bc
00000220: 9507 0cbe 47e8 e73b abf0 14bd d0c5 9a3d
00000230: 794f 733d cdfd 983c d757 ecba 39f7 7f3d
00000240: fe10 903d c0ab 8c3d 915c ba3d afb1 94bd
00000250: 4f77 95bd 6695 f03d 3099 50bd 0d88 92bd
00000260: 8a6f 113e 1eac 20be 7c9c 33bd 9ad3 efbc
00000270: 37bd 483e dbeb d3bc a058 8cbc 94a6 673d
00000280: 83f4 de3c 656f 343e 8029 323e fbf7 abbd
00000290: 2f50 fc3d 9094 0d3e c5b1 613c 3c60 22be
000002a0: 1577 dcbd 0a1d da3d 932e 0a3e 939b 39be
000002b0: 0080 403e f7c9 b53d e0b5 df3d 07da a6bc
000002c0: fbc6 403d 3730 2ebd d9e7 2f3d 1616 f23d
000002d0: f910 dc3d 880b 753d 43a2 20be a250 b1bd
000002e0: 2730 f33d ec45 983d a53d eb3c 4411 17be
000002f0: 6f17 f03c 32d7 5fbd 2940 933d c83c 32be
00000300: 0534 203e 679c 3cbd 1cd5 453d efa3 06be
00000310: 2328 0e3e e760 bbbd f048 883c b05b 5fbd
00000320: 05ff 64bd 8438 a83d 1729 e73d b2d7 cebc
00000330: b5b5 65bd 697f 1a3e 419c 2e3e 7ef5 1bbd
00000340: cb68 c9bd 1480 153d e09a 1f3d 4c0b 06bb
00000350: 1700 d33d 07d6 e0bd 4c7f 163e afc3 18bc
00000360: debc 343d bae8 ad3d 8a33 91bd b0b2 853c
00000370: 9f1a a83d 1fb6 e9bc c4d8 fabb 55ed 21be
00000380: 8b55 1c3e 9a7f 08be 82c3 ed3d c021 653d
00000390: d12e 00be ab71 87bd 98b7 183d 64ba 1dbe
000003a0: e293 1cbe ccc7 3bbe a0c3 26be 1974 723d
000003b0: 312a a7bb c631 a73d e36c 1bbe b2f0 16be
000003c0: 2243 bf3d 8bb6 b2bd fe3b 333c 5847 083e
000003d0: 4424 8b3b ab66 41be 7506 973b 1dab 3e3e
000003e0: e24a 933d 81b5 f93c 0049 b13c c739 f13d
000003f0: e444 433e 9ea4 dabd d1a4 4cbd 606c 90bd

Network_stack.0.0.gru.bias_ih_l1 f4 [96]
-0.041951668 -0.070567414 0.14993875 0.15001287 -0.19213223 -0.04093232 0.13851048 0.12454259
0.15286683 -0.09092448 0.120287254 0.04506494 0.06034572 -0.017711313 -0.12696473 -0.08787177
0.070262186 0.04063841 -0.16535999 0.0859318 0.077227816 -0.13857275 -0.028552696 -0.13887793
0.09490682 -0.013479738 -0.138827 -0.021911096 0.17232424 -0.15154958 -0.12706669 0.012177056
-0.01518351 -0.062419187 0.18422544 0.17429349 0.18579464 0.093914255 -0.15565029 0.18283333
-0.10885069 0.0480059 -0.19392188 -0.08949893 -0.030972168 0.0006616996 0.0044835703 0.084724426
-0.038384415 0.15980364 0.14257555 -0.08028288 -0.06695253 0.06503063 -0.15121713 -0.17583548
-0.041611865 -0.06783748 -0.17266886 -0.1574112 -0.12867686 -0.12932256 -0.14555064 -0.08253103
0.0074403235 0.08617658 -0.025466839 -0.123043224 0.10181444 -0.076752566 0.1399131 0.065722175
0.108876325 0.17369932 0.014514845 -0.14479974 0.11405856 0.010103651 -0.067337506 0.06349182
0.013235057 -0.0299284 0.12458828 0.1274386 -0.12576246 -0.14768353 0.10515145 -0.029900119
0.152228 0.07594909 -0.022712886 -0.01650261 -0.05054168 0.16922376 0.050091688 -0.117565274
00000000: 83d5 2bbd a685 90bd 8b89 193e f99c 193e
00000010: 50be 44be a6a8 27bd b1d5 0d3e 2f10 ff3d
00000020: 1f89 1c3e 9d36 babd 2a59 f63d 0496 383d
00000030: 132d 773d 5117 91bc 0b03 02be 1df6 b3bd
00000040: 9fe5 8f3d 7674 263d 2154 29be 03fd af3d
00000050: 9e29 9e3d 04e6 0dbe 58e7 e9bc 0436 0ebe
00000060: 825e c23d 1eda 5cbc aa28 0ebe e67e b3bc
00000070: c475 303e d02f 1bbe c51d 02be 4682 473c
00000080: 42c4 78bc 43ab 7fbd 98a5 3c3e fe79 323e
00000090: f340 3e3e 1e56 c03d ca62 1fbe a938 3b3e
000000a0: 1ced debd d6a1 443d 7593 46be 374b b7bd
000000b0: 58b9 fdbc e975 2d3a eaea 923b 0084 ad3d
000000c0: fa38 1dbd 91a3 233e 53ff 113e 5a6b a4bd
000000d0: 681e 89bd c72e 853d aad8 1abe 370e 34be
000000e0: 3471 2abd 60ee 8abd 1bd0 30be 6730 21be
000000f0: dec3 03be 226d 04be 3a0b 15be 0706 a9bd
00000100: f5cd f33b 597d b03d d59f d0bc 16fe fbbd
00000110: 1784 d03d 7330 9dbd 6145 0f3e 5999 863d
00000120: 8dfa de3d 3cde 313e accf 6d3c 6246 14be
00000130: 8997 e93d c989 253c 3fe8 89bd 0008 823d
00000140: dad7 583c 672c f5bc 2428 ff3d 447f 023e
00000150: e0c7 00be 5a3a 17be a559 d73d 18f1 f4bc
00000160: a8e1 1b3e 328b 9b3d 6010 babc 7b30 87bc
00000170: cb04 4fbd fe48 2d3e f12c 4d3d 10c6 f0bd

Network_stack.0.0.gru.bias_hh_l1 f4 [96]
-0.12450764 -0.046539262 0.15825514 -0.16671027 -0.19078413 -0.13168868 0.105125174 0.06675391
0.15440153 -0.032627396 -0.02386947 -0.067628935 0.15005197 0.13341473 -0.07898931 0.06376843
0.12440892 -0.05717356 -0.13522807 -0.03819622 0.11314211 -0.09882696 0.10490259 0.12702873
0.094402626 0.15918943 0.085829586 0.04351795 0.07256694 -0.13032174 0.040775225 -0.12465653
-0.08495513 0.1401095 0.06954969 -0.05081799 -0.09615967 -0.010921264 -0.12952979 0.047559936
-0.0761974 -0.18636179 -0.07841494 -0.06707472 0.09620763 -0.15813409 -0.09174239 0.060653333
0.13659035 0.037178818 0.1326243 -0.02983208 -0.10872725 0.061943408 0.13970137 0.037794147
0.13481882 0.11918058 0.10740955 0.13762408 0.15343355 -0.07698504 0.106526226 -0.13128553
0.015155142 -0.15249774 0.14225899 0.124863066 0.09699603 -0.14113356 -0.0473928 0.08764577
-0.09894611 -0.05267282 -0.07922667 -0.14850804 0.036284745 -0.1350219 -0.097997345 0.030861227
-0.11573339 0.15925309 -0.025960216 0.11450461 0.110445976 0.149967 -0.15048301 0.071066804
-0.09368358 0.16187723 -0.0065594865 0.018861156 -0.08669866 -0.118694626 -0.013222057 -0.10714985
00000000: ddfd febd f49f 3ebd a30d 223e 19b6 2abe
00000010: ea5c 43be 66d9 06be de4b d73d 46b6 883d
00000020: 6f1b 1e3e 4ea4 05bd e889 c3bc 0a81 8abd
00000030: 39a7 193e df9d 083e 26c5 a1bd 0699 823d
00000040: 1bca fe3d d32e 6abd 3a79 0abe a473 1cbd
00000050: 0db7 e73d ca65 cabd 2bd7 d63d d213 023e
00000060: 2a56 c13d 8e02 233e 6cc7 af3d e13f 323d
00000070: fa9d 943d 1073 05be ec03 273d ec4b ffbd
00000080: f5fc adbd dd78 0f3e 1170 8e3d 8626 50bd
00000090: 5cef c4bd 1aef 32bc 75a3 04be 35ce 423d
000000a0: 620d 9cbd a0d5 3ebe 0398 a0bd 795e 89bd
000000b0: 8208 c53d e7ed 21be 6fe3 bbbd a16f 783d
000000c0: 57de 0b3e d148 183d aace 073e 6862 f4bc
000000d0: 64ac debd 5fb8 7d3d e00d 0f3e 09ce 1a3d
000000e0: f20d 0a3e f314 f43d 8af9 db3d 54ed 0c3e
000000f0: af1d 1d3e 55aa 9dbd 6c2a da3d b76f 06be
00000100: 464d 783c 5e28 1cbe 57ac 113e 35b8 ff3d
00000110: dba5 c63d 5185 10be f41e 42bd a07f b33d
00000120: 42a4 cabd 74bf 57bd 9841 a2bd 7e12 18be
00000130: 509f 143d 2e43 0abe d5b2 c8bd afd0 fc3c
00000140: a105 edbd 3e13 233e 85aa d4bc 6581 ea3d
00000150: 8031 e23d f390 193e 3818 1abe 798b 913d
00000160: 2ddd bfbd 25c3 253e f6f0 d6bb b682 9a3c
00000170: 118f b1bd 2b16 f3bd 54a1 58bc 6171 dbbd

Network_stack.1.0.gru.weight_ih_l0 f4 [96, 2]
0.0009864476 -0.017226608 -0.06060986 0.008456419 -0.11815053 -0.17545289 0.089049414 -0.11917239
-0.11310438 0.014564237 -0.15204374 0.14969496 0.15346901 0.024964552 -0.03037896 0.120582215
0.113780014 -0.13667053 -0.0042095487 0.15589023 0.14323534 -0.053346254 -0.13321799 -0.021605853
0.08644034 0.0061379964 -0.1560273 0.15229754 0.090090916 0.14527704 0.175119 0.07840053
0.024376791 0.030464927 0.04698188 0.07837377 0.34039453 0.18945923 0.13594986 0.16324389
-0.13606456 -0.018285483 0.016255645 0.11126832 -0.05388905 0.012669863 -0.088364944 -0.115012705
-0.02261389 0.03935701 0.020962464 0.12821674 -0.07294481 -0.04336516 -0.1421368 0.0054743253
0.12272063 -0.1250737 0.086254366 0.11847511 -0.0020629019 -0.06786969 -0.060449827 -0.14144553
-0.15028763 0.16119987 0.039197285 -0.10817505 0.0998641 -0.12831657 -0.094178595 -0.06430101
0.020287601 0.04683133 0.08711851 0.19155252 0.113407016 -0.031298477 -0.122046195 0.12438603
-0.037714016 -0.038609892 -0.08488801 0.034700714 0.09639212 0.009730208 0.10151209 -0.12887894
0.046815775 0.114034265 0.019109273 -0.046728954 -0.17674942 -0.08408575 0.08180412 0.019616144
-0.039013997 0.0060391873 0.13203931 0.12881304 -0.1714259 0.16402678 0.010056836 -0.06013867
-0.0009213419 -0.13450012 0.115901954 -0.08023518 -0.2614682 -0.31119305 0.034264743 0.008186791
0.07767512 0.082993485 -0.07340781 -0.049604002 -0.02616411 -0.13865669 0.11262505 -0.26464415
0.014658438 0.10476319 -0.14402243 -0.10907673 -0.14897537 -0.12970613 0.121640205 0.010989963
-0.14016727 -0.06377392 0.15861626 -0.04516268 -0.08918443 -0.11420358 0.1012161 0.08828068
-0.09889396 -0.0563231 0.09611797 -0.08579221 0.01565677 -0.053739596 0.089790314 -0.0145015605
-0.040066835 -0.18250227 0.026430504 0.060604688 0.046984453 -0.03083609 -0.015856283 -0.09873503
-0.10646818 0.15117191 -0.07738138 0.15586002 0.13901669 0.06074977 -0.09232822 -0.12510599
0.17347616 0.101318926 -0.029940557 0.101337075 0.16326949 0.06912285 -0.07023227 -0.12478326
0.081075445 0.05919063 0.030415706 -0.13100459 -0.04393308 0.16189846 -0.13441704 0.061267797
0.079971306 -0.06550206 0.08378047 0.07341096 0.027470302 0.01930575 -0.13562907 -0.12781578
0.090237744 0.12436143 -0.17344438 -0.07877599 -0.12694412 0.113722935 0.090193026 0.20290253
00000000: b04b 813a d11e 8dbc 0b42 78bd cb8c 0a3c
00000010: e8f8 f1bd eca9 33be 8a5f b63d a710 f4bd
00000020: 45a3 e7bd d69e 6e3c 5bb1 1bbe a349 193e
00000030: fb26 1d3e 7682 cc3c 4cdd f8bc cff3 f63d
00000040: 7f05 e93d 5cf3 0bbe 41f0 89bb b0a1 1f3e
00000050: 49ac 123e 9a81 5abd 4c6a 08be c2fe b0bc
00000060: a207 b13d 3f21 c93b 9fc5 1fbe e3f3 1b3e
00000070: 9681 b83d 81c3 143e 6552 333e 7590 a03d
00000080: d6b1 c73c 9591 f93c 1270 403d 6d82 a03d
00000090: 3148 ae3e 9a01 423e 7136 0b3e 6829 273e
000000a0: 8254 0bbe 70cb 95bc 8f2a 853c a5e0 e33d
000000b0: c4ba 5cbd 4295 4f3c aef8 b4bd c88b ebbd
000000c0: c440 b9bc d134 213d 79b9 ab3c 404b 033e
000000d0: 1764 95bd aa9f 31bd 4f8c 11be f861 b33b
000000e0: f454 fb3d 5213 00be 21a6 b03d 14a3 f23d
000000f0: c031 07bb 44ff 8abd 3d9a 77bd 19d7 10be
00000100: 00e5 19be 9411 253e 558d 203d e18a ddbd
00000110: 8d85 cc3d 6b65 03be b5e0 c0bd 3fb0 83bd
00000120: 2f32 a63c 35d2 3f3d 306b b23d 5826 443e
00000130: f041 e83d d532 00bd 5bf3 f9bd 1abe fe3d
00000140: 037a 1abd 6825 1ebd c4d9 adbd 5622 0e3d
00000150: 3b69 c53d 736b 1f3c 92e5 cf3d d7f8 03be
00000160: e6c1 3f3d cc8a e93d 0d8b 9c3c dc66 3fbd
00000170: cdfd 34be 2635 acbd eb88 a73d 09b2 a03c
00000180: 24cd 1fbd 60e4 c53b 5035 073e 91e7 033e
00000190: 458a 2fbe a3f6 273e 6dc5 243c f753 76bd
000001a0: 3586 71ba 66ba 09be 015e ed3d 5852 a4bd
000001b0: 29df 85be b254 9fbe 3059 0c3d e421 063c
000001c0: 2214 9f3d 7df8 a93d d556 96bd 912d 4bbd
000001d0: 1e56 d6bc 05fc 0dbe f6a7 e63d 707f 87be
000001e0: f229 703c 158e d63d 9e7a 13be 9f63 dfbd
000001f0: 008d 18be afd1 04be 801e f93d 3f0f 343c
00000200: 0288 0fbe e79b 82bd 4d6c 223e 81fc 38bd
00000210: 54a6 b6bd 91e3 e9bd 634a cf3d 80cc b43d
00000220: eb88 cabd 0db3 66bd 80d9 c43d d4b3 afbd
00000230: a042 803c 0d1e 5cbd fce3 b73d f497 6dbc
00000240: 1f1d 24bd e0e1 3abe c984 d83c 9f3c 783d
00000250: c572 403d f89b fcbc 09e5 81bc 9735 cabd
00000260: fd0b dabd cfcc 1a3e 217a 9ebd c599 1f3e
00000270: 645a 0e3e c0d4 783d 9416 bdbd c91b 00be
00000280: bca3 313e 4c80 cf3d e645 f5bc d089 cf3d
00000290: 1e30 273e 4890 8d3d f0d5 8fbd 5e8e ffbd
000002a0: e20a a63d e071 723d 5c2a f93c 1126 06be
000002b0: 2cf3 33bd b6c8 253e 9fa4 09be f1f3 7a3d
000002c0: ffc7 a33d f225 86bd 1895 ab3d 7c58 963d
000002d0: 6609 e13c 1827 9e3c 59e2 0abe 24e2 02be
000002e0: 91ce b83d 35b1 fe3d 679b 31be 4e55 a1bd
000002f0: a4fd 01be 92e7 e83d 1fb7 b83d aec5 4f3e

Network_stack.1.0.gru.weight_hh_l0 f4 [96, 32]
-0.032495778 0.036870174 0.035556182 0.18562597 -0.09221666 0.16541453 -0.111292794 -0.11812531
-0.04761345 -0.07886984 0.045400105 -0.040138748 -0.011920766 -0.038084768 0.13385151 0.157653
0.16615376 0.14336833 0.08922924 0.008362146 -0.0037558142 0.1190732 0.07888727 0.12781306
-0.18442169 -0.14713088 -0.09130658 0.115023285 0.07901125 -0.108516105 0.079687804 0.15033555
0.02271185 -0.09880885 -0.006890113 -0.049561564 0.09436493 0.03485542 0.09569053 0.1475769
0.1294522 -0.026700577 0.15663125 -0.08142257 -0.09133984 0.13911486 -0.12555258 -0.16854519
0.08572358 0.12480202 0.17787394 -0.1193158 0.0044670524 -0.06740707 -0.14458065 -0.0898576
-0.13259849 -0.110798866 -0.100392215 0.041012704 -0.08897659 0.15169899 -0.009682527 0.041827764
0.050582707 -0.1368035 -0.14385672 0.16450308 0.009385843 0.02520815 -0.0009231626 -0.026890704
-0.15711975 -0.08567066 0.008639769 0.05111535 0.05861142 -0.14816467 -0.03705343 0.066827096
-0.118474945 0.10637712 0.038442064 0.16221152 -0.015095048 0.14927688 -0.16313149 -0.07286405
-0.07487227 0.0064603915 0.11252386 -0.1257742 -0.02880613 -0.051521678 -0.019386651 -0.0498884
0.16434577 -0.019116286 0.06284112 0.029124947 0.15122086 0.113421135 -0.12729216 0.16490361
-0.048085093 0.16750719 -0.019223543 0.011380705 0.011560739 -0.17652543 -0.01659602 -0.06938107
0.017752474 0.035329252 0.027443754 -0.12392566 -0.040778708 -0.076319106 -0.12967676 0.17494902
-0.060663667 -0.029953556 0.10762591 0.1723302 -0.1479888 0.03668779 0.074982785 -0.1174481
0.11877628 -0.14753643 0.060931824 -0.12283257 -0.08286494 -0.16674218 -0.022154804 0.13083497
0.17816928 -0.006972261 -0.07880265 0.055816237 -0.064415 0.11413836 0.0405853 -0.031199217
0.069344975 0.1472517 0.1436191 0.02925521 0.06674606 0.15547387 -0.16637406 -0.08079094
-0.06643081 -0.05363345 -0.022627372 0.004669974 0.03261479 0.09780989 -0.06591031 0.06854246
0.112005174 0.07045097 -0.11000921 -0.17693771 -0.0393367 -0.09607726 0.08266088 -0.13990842
0.18584032 0.05434502 -0.07973288 0.10076525 -0.11149875 0.10054962 -0.08972757 0.06371711
-0.04061837 0.08727287 -0.17191325 -0.028957726 0.17047617 0.042271793 0.0877499 -0.16193086
0.13412887 0.007838519 0.1312774 -0.0109739425 0.14159769 -0.1573875 0.15644254 -0.09446274
0.09064163 -0.14232345 0.17140374 0.053665537 -0.12042172 0.04648536 0.16219652 -0.05244292
0.17056333 -0.017372284 0.057456594 -0.14745392 -0.06792358 0.1635313 0.086993635 0.015011663
-0.15417786 0.011851924 0.021091843 0.15941168 0.10979678 -0.03222861 0.006802448 0.074461855
0.10300727 -0.18052585 -0.12282262 0.083910875 0.15585506 -0.124845505 0.042756166 0.030413814
0.11577392 0.05400121 0.16291139 -0.13608752 0.16240308 0.032484554 -0.18258853 0.14183927
0.01886272 0.11866776 0.07400667 -0.018959293 0.07183594 -0.17989472 0.0106633 0.14994411
0.016488055 -0.1396137 0.15054724 0.104906924 0.025880199 0.109479316 -0.12775503 0.111778945
0.004823488 -0.015052948 -0.146299 0.11037773 0.08027072 0.056332245 -0.18507068 -0.05703307
00000000: 4b1a 05bd 2e05 173d 5ca3 113d bc14 3e3e
00000010: 17dc bcbd 6d62 293e 7aed e3bd afeb f1bd
00000020: 5206 43bd 8386 a1bd 76f5 393d 8768 24bd
00000030: 514f 43bc c6fe 1bbd 5f10 093e ca6f 213e
00000040: 3624 2a3e 26cf 123e d2bd b63d 6201 093c
00000050: 1b24 76bb a6dc f33d a68f a13d 6de1 023e
00000060: 0ad9 3cbe 7aa9 16be f2fe babd 5491 eb3d
00000070: a6d0 a13d b13d debd 5c33 a33d 90f1 193e
00000080: 340e ba3c 4b5c cabd 75c6 e1bb 1101 4bbd
00000090: 6742 c13d 8fc4 0e3d 66f9 c33d 661e 173e
000000a0: 1e8f 043e 2bbb dabc f163 203e e0c0 a6bd
000000b0: 6210 bbbd 2074 0e3e db90 00be 1c97 2cbe
000000c0: d88f af3d 3498 ff3d 9624 363e d85b f4bd
000000d0: 5a60 923b b80c 8abd f30c 14be 4307 b8bd
000000e0: e6c7 07be 84ea e2bd 6f9a cdbd f0fc 273d
000000f0: 5c39 b6bd fb56 1b3e 76a3 1ebc 9753 2b3d
00000100: d02f 4f3d 3716 0cbe 2d4f 13be 7f73 283e
00000110: 14c7 193c 5281 ce3c 6500 72ba e549 dcbc
00000120: 00e4 20be 1974 afbd d18d 0d3c 545e 513d
00000130: 8712 703d 7bb8 17be 56c5 17bd a5dc 883d
00000140: fea2 f2bd 3fdc d93d 6d75 1d3d c71a 263e
00000150: 3851 77bc 0adc 183e f10b 27be bf39 95bd
00000160: a256 99bd b1b1 d33b e972 e63d f4ca 00be
00000170: d5fa ebbc 6508 53bd c1d0 9ebc c757 4cbd
00000180: 424a 283e c299 9cbc d8b2 803d 7197 ee3c
00000190: a4d9 1a3e 5749 e83d e058 02be 7edc 283e
000001a0: e0f4 44bd 0187 2b3e b17a 9dbc 2376 3a3c
000001b0: 4169 3d3c 15c3 34be 60f4 87bc aa17 8ebd
000001c0: a36d 913c 68b5 103d b9d1 e03c bdcc fdbd
000001d0: 9307 27bd 314d 9cbd fcc9 04be d625 333e
000001e0: 777a 78bd 2961 f5bc f96a dc3d 5477 303e
000001f0: 608a 17be f045 163d 9390 993d a188 f0bd
00000200: fa40 f33d ca13 17be a693 793d a48f fbbd
00000210: 18b5 a9bd 76be 2abe fe7d b5bc 9af9 053e
00000220: 0272 363e 9077 e4bb 4963 a1bd 919f 643d
00000230: 03ec 83bd 5fc1 e93d c63c 263d 8095 ffbc
00000240: bd04 8e3d 26c9 163e e310 133e 9fa8 ef3c
00000250: 29b2 883d 8b34 1f3e f65d 2abe b875 a5bd
00000260: e00c 88bd c0ae 5bbd 0a5d b9bc 9506 993b
00000270: 1697 053d 8d50 c83d fcfb 86bd fd5f 8c3d
00000280: f862 e53d 9948 903d 824c e1bd 292f 35be
00000290: 851f 21bd 28c4 c4bd 1c4a a93d 2744 0fbe
000002a0: ed4c 3e3e e298 5e3d fe4a a3bd 035e ce3d
000002b0: 7559 e4bd f6ec cd3d 17c3 b7bd 1e7e 823d
000002c0: 735f 26bd 1ebc b23d 070a 30be c138 edbc
000002d0: 4e91 2e3e 3025 2d3d 38b6 b33d 34d1 25be
000002e0: 1459 093e 226d 003c 956d 063e 0dcc 33bc
000002f0: fcfe 103e 302a 21be 7932 203e ae75 c1bd
00000300: 52a2 b93d 3dbd 11be 7684 2f3e 65d0 5b3d
00000310: aa9f f6bd 6f67 3e3d d816 263e 63ce 56bd
00000320: 27a8 2e3e 5250 8ebc 9b57 6b3d 29fe 16be
00000330: 851b 8bbd c074 273e b829 b23d 7af3 753c
00000340: cde0 1dbe 922e 423c cdc8 ac3c d13c 233e
00000350: 22dd e03d 2602 04bd 12e7 de3b 757f 983d
00000360: 7af5 d23d c5db 38be 6d8a fbbd 77d9 ab3d
00000370: 7898 1f3e 00af ffbd 1721 2f3d 6426 f93c
00000380: e11a ed3d 5f30 5d3d 3ed2 263e 875a 0bbe
00000390: fe4c 263e 860e 053d 7df8 3abe 503e 113e
000003a0: fe85 9a3c 1508 f33d cf90 973d 8550 9bbc
000003b0: b91e 933d 5236 38be 1fb5 2e3c f38a 193e
000003c0: f511 873c e5f6 0ebe 0e29 1a3e 71d9 d63d
000003d0: b602 d43c b136 e03d 37d2 02be 5cec e43d
000003e0: 5a0e 9e3b a4a0 76bc 68cf 15be b80d e23d
000003f0: fa64 a43d a4bc 663d 2b83 3dbe 829b 69bd

Network_stack.1.0.gru.bias_ih_l0 f4 [96]
-0.127546 -0.14826217 0.11325071 -0.11030925 0.025266431 -0.041726135 0.16088824 -0.10347725
0.15705714 -0.077875935 0.03369425 0.13155217 0.09976991 -0.019834975 -0.11567794 0.021443617
-0.13376446 -0.1517856 0.29357603 -0.12360128 0.1045308 -0.17128403 -0.13161258 0.09286114
-0.14025874 0.043284677 -0.09541643 0.025146715 0.09277743 -0.13949108 0.10446763 0.020373896
-0.03144323 0.16130081 0.0040626377 -0.010995049 0.07836651 0.09295261 -0.04370276 -0.044334743
-0.020775069 0.016784074 0.017771209 0.016479071 0.13139842 -0.049329244 0.06077199 -0.09960115
-0.06864389 0.10629669 0.1595838 -0.09859724 -0.13950258 -0.031068627 -0.1362095 0.10865322
0.16695863 0.13342471 0.048080873 -0.17672722 -0.1674962 0.031116536 -0.11688724 -0.057308514
0.13535066 -0.1346409 -0.14702478 0.06004372 -0.11339594 0.15500624 0.12063214 0.08497007
-0.03283386 0.064318515 0.036797598 0.106876895 -0.07643163 -0.14584137 -0.00028306522 -0.13741162
-0.117628425 -0.048365764 -0.014498665 0.020218173 -0.18584149 0.11914035 -0.03950078 -0.08842837
-0.13306762 -0.095561646 0.06607654 -0.10182607 -0.03294258 -0.12787654 0.035763618 -0.14321026
00000000: 6b9b 02be 0ad2 17be fdef e73d d1e9 e1bd
00000010: 8cfb ce3c 06e9 2abd e3bf 243e e1eb d3bd
00000020: 96d3 203e 6b7d 9fbd fb02 0a3d 9db5 063e
00000030: 2b54 cc3d f57c a2bc 8ee8 ecbd 86aa af3c
00000040: 8df9 08be af6d 1bbe 994f 963e ab22 fdbd
00000050: 3e14 d63d 1565 2fbe 73c5 06be fb2d be3d
00000060: fd9f 0fbe 464b 313d b069 c3bd 7c00 ce3c
00000070: 1802 be3d c0d6 0ebe 20f3 d53d 28e7 a63c
00000080: 9eca 00bd 0a2c 253e e01f 853b 9424 34bc
00000090: 9f7e a03d f05d be3d aa01 33bd 5998 35bd
000000a0: 7a30 aabc c17e 893c ed94 913c 1eff 863c
000000b0: 4f8d 063e 760d 4abd 0dec 783d b0fb cbbd
000000c0: 2b95 8cbd 14b2 d93d f069 233e 5aed c9bd
000000d0: c4d9 0ebe a283 febc 817a 0bbe 9485 de3d
000000e0: 34f7 2a3e 7da0 083e 73f0 443d fbf7 34be
000000f0: 2084 2bbe 1be8 fe3c 9462 efbd 55bc 6abd
00000100: 5d99 0a3e 4edf 09be aa8d 16be 67f0 753d
00000110: 213c e8bd f5b9 1e3e fc0d f73d ca04 ae3d
00000120: cc7c 06bd 6db9 833d 14b9 163d 46e2 da3d
00000130: 3088 9cbd 7157 15be 5f68 94b9 a2b5 0cbe
00000140: 2ce7 f0bd 2e1b 46bd cf8b 6dbc 95a0 a53c
00000150: 3b4d 3ebe dbff f33d 92cb 21bd ef19 b5bd
00000160: e142 08be d3b5 c3bd 2353 873d 308a d0bd
00000170: ccee 06bd 11f2 02be df7c 123d b6a5 12be

Network_stack.1.0.gru.bias_hh_l0 f4 [96]
0.18274648 -0.078490995 0.11342228 -0.13480265 0.037643015 -0.17331111 -0.12174216 -0.016082032
-0.07033968 -0.019379156 -0.080316335 0.11313173 0.041171834 -0.037340663 0.022256006 -0.088906184
0.15080981 -0.14636713 0.37611648 0.09341005 -0.1502111 0.08308863 -0.14515312 -0.11689225
-0.006624781 0.1523016 -0.06465275 -0.047314715 -0.07693784 0.02001678 -0.0017613806 0.003052826
0.041127317 0.004144699 0.06264496 0.1457302 -0.05145309 0.066830605 0.0027412681 0.053449754
-0.10962232 0.021440174 0.10910015 0.18106484 0.15145105 -0.05581685 -0.09206248 -0.16521336
-0.038809553 -0.021380663 0.01274092 0.0068388875 0.0008716692 0.13857135 0.04800176 0.16305923
0.043667365 0.06609411 -0.095295474 -0.0820865 0.004237772 -0.081588894 0.12816183 0.0067465333
0.15472612 0.1699787 -0.106055975 0.021549871 0.07846666 0.16072345 0.155857 0.005484573
-0.1007079 0.11056109 -0.087741405 -0.075141124 -0.1652451 0.01876953 0.17545393 0.15049724
-0.16594028 0.13813177 0.017789671 -0.072793484 -0.12801841 0.021920431 -0.031178469 0.08477851
0.09876362 0.0894744 0.17458059 0.14931978 -0.14238258 -0.03911231 -0.020663619 -0.10287901
00000000: e521 3b3e e3bf a0bd f149 e83d b509 0abe
00000010: 902f 1a3d 7878 31be f453 f9bd 77be 83bc
00000020: 400e 90bd 09c1 9ebc e47c a4bd 9cb1 e73d
00000030: cca3 283d 86f2 18bd 3a52 b63c 7214 b6bd
00000040: e36d 1a3e 44e1 15be 5792 c03e c54d bf3d
00000050: f0d0 19be 5f2a aa3d 05a3 14be 3465 efbd
00000060: b114 d9bb f3f4 1b3e a968 84bd 13cd 41bd
00000070: 9691 9dbd 3bfa a33c 20de e6ba ec11 483b
00000080: 1e75 283d 41d0 873b 004c 803d 4c3a 153e
00000090: 7ac0 52bd 7cde 883d d9a6 333b 21ee 5a3d
000000a0: ab81 e0bd 4ea3 af3c e66f df3d 1069 393e
000000b0: fc15 1b3e 36a0 64bd 418b bcbd b12d 29be
000000c0: c4f6 1ebd 8026 afbc 4bbf 503c bf18 e03b
000000d0: bb80 643a a6e5 0d3e 7e9d 443d 00f9 263e
000000e0: 8ddc 323d 595c 873d 462a c3bd f81c a8bd
000000f0: 02dd 8a3b 1418 a7bd db3c 033e 0612 dd3b
00000100: 8670 1e3e e50e 2e3e e033 d9bd 5b89 b03c
00000110: 21b3 a03d b094 243e fa98 1f3e efb7 b33b
00000120: f23f cebd da6d e23d c4b1 b3bd 97e3 99bd
00000130: 0336 29be 8fc2 993c 32aa 333e f31b 1a3e
00000140: 40ec 29be 6a72 0d3e a5bb 913c c014 95bd
00000150: 4217 03be 7a92 b33c fd69 ffbc 5ba0 ad3d
00000160: 9544 ca3d 5b3e b73d 41c5 323e 49e7 183e
00000170: bdcc 11be 3b34 20bd c046 a9bc 3bb2 d2bd
