models/model_uniform_region_0-0.3.0.6-0.9_multiple_Agents0dfd9814.pth (torch, 87266 bytes, 18 tensors)

Network_stack.0.0.gru.weight_ih_l0 f4 [96, 2]
0	0xbcbb6c73	-0.022878861
1	0x3d0d3d3c	0.034482226
2	0x3d4e47ba	0.050361373
3	0xbcd02b29	-0.025411205
4	0x3e1052d8	0.14094102
5	0xbe1fa586	-0.15590486
6	0xbe07b213	-0.13251524
7	0x3e3bfa4b	0.18357198
8	0xbe538983	-0.20657925
9	0xbe353535	-0.17696078
10	0x3d8bd9cf	0.06828653
11	0x3dc03e6f	0.09386908
12	0x3dc2bf70	0.0950917
13	0xbdccb183	-0.09994795
14	0x3e0ff47d	0.14058109
15	0x3d6b5cd7	0.057461586
16	0xbd480df4	-0.04884143
17	0x3d9345f2	0.071910754
18	0x3e0dd798	0.13851774
19	0xbe0ee2c8	-0.13953698
20	0xbe5b955c	-0.21443695
21	0x3dbe90e5	0.0930498
22	0xbcba218c	-0.022721075
23	0xbe10de29	-0.14147247
24	0xbe089e41	-0.13341619
25	0x3e1a3322	0.15058568
26	0x3d2fa6d0	0.042883694
27	0x3e1b8e2e	0.15190956
28	0xbe212ef1	-0.15740563
29	0xbe0ae6e6	-0.13564643
30	0xbbf52bc2	-0.007482023
31	0x3e287ec6	0.1645461
32	0x3d9bbb27	0.07604056
33	0x3e599054	0.21246463
34	0xbd91e454	-0.07123628
35	0x3e5df4ef	0.21675466
36	0xbe0be8e2	-0.13663056
37	0x3e306178	0.17224681
38	0x3de06b61	0.10957981
39	0x3e659e8d	0.22423764
40	0xbe14e73a	-0.14541331
41	0x3dcd89fe	0.100360855
42	0xbe08d214	-0.13361388
43	0xbd33185d	-0.043724407
44	0x3cfc59be	0.030804511
45	0xbe019705	-0.12655266
46	0x3dd4f444	0.103981525
47	0x3e0b53e0	0.13606215
48	0x3e0a1249	0.13483538
49	0x3ddabbee	0.10680376
50	0x3e17fd42	0.14842704
51	0x3d3aa0bb	0.04556344
52	0x3e13d45e	0.1443648
53	0xbd388ea2	-0.0450579
54	0xbdef8a03	-0.116962455
55	0x3dbb793d	0.09153984
56	0x3e2bb09a	0.16766587
57	0x3ca84301	0.020539762
58	0xbe0fefec	-0.14056367
59	0xbda0eebe	-0.078580365
60	0xbe217a1b	-0.15769236
61	0x3db225a3	0.08698585
62	0xbd71eb74	-0.059062436
63	0x3e2116b6	0.1573132
64	0xbe65a291	-0.22425295
65	0xbdbed498	-0.09317893
66	0x3d6a3aa3	0.057184827
67	0xbb8a0b02	-0.004212738
68	0x3de4b09b	0.11166497
69	0x3e0e68d7	0.1390718
70	0xbe9bf063	-0.30456838
71	0xbddf0385	-0.10889343
72	0x3e8ecb60	0.27889538
73	0x3e07be74	0.13256246
74	0xbde6772b	-0.11253198
75	0xbce7d266	-0.028298568
76	0x3d5447d3	0.05182631
77	0x3ca31f8d	0.019912506
78	0xbdafd3e3	-0.08585336
79	0xbdb9770b	-0.09055909
80	0x3e92e610	0.2869115
81	0x3dd38da8	0.10329753
82	0x3e4483ce	0.19190904
83	0x3c812796	0.015765946
84	0xbd2412bf	-0.04005694
85	0xbde3fe1f	-0.11132454
86	0x3cb51c71	0.022108288
87	0xbe07dbee	-0.1326749
88	0x3d9b916b	0.07596096
89	0xbe24feab	-0.16112773
90	0xbb2bb499	-0.0026200174
91	0x3dd49155	0.103792824
92	0xbe4e1dd7	-0.2012857
93	0x3e21f33f	0.15815447
94	0x3d1cc518	0.0382739
95	0xbcd76832	-0.026294801
96	0x3ed78138	0.42090774
97	0x3e468e45	0.19390209
98	0xbd3b7e03	-0.04577447
99	0x3d35cfe7	0.044387724
100	0xbdbdf662	-0.092755094
101	0x3d36de16	0.04464539
102	0xbdcd6de9	-0.10030729
103	0xbe955460	-0.29165936
104	0x38a0fafa	7.6761426e-05
105	0xbdb80b47	-0.08986526
106	0xbdaa09e5	-0.083026685
107	0x3c9e6fe1	0.019340457
108	0xbbce2e7c	-0.0062921625
109	0xbd00a26b	-0.031404894
110	0xbde4a159	-0.11163587
111	0xbd14f17b	-0.036363106
112	0x3c21a883	0.0098668365
113	0xbe4b93ee	-0.1988065
114	0x3d6ba27a	0.057527997
115	0xbe206fae	-0.15667602
116	0x3d803842	0.0626073
117	0xbd7ff54b	-0.06248979
118	0x3db10bf8	0.08644861
119	0x3dccfc7a	0.100090936
120	0xbbd75367	-0.0065712216
121	0xbd026091	-0.031830374
122	0xbd295fda	-0.041351177
123	0x3dfef317	0.124487095
124	0x3dc8718a	0.09787281
125	0x3e19cbc3	0.15019135
126	0xbd5a4b37	-0.053294387
127	0xbe2864a7	-0.16444646
128	0xbe19f8f3	-0.15036373
129	0xbc9a1215	-0.01880745
130	0xbe683af4	-0.22678739
131	0xbd92d6f3	-0.071699046
132	0xbd81e745	-0.06342939
133	0x3c3156f3	0.010823953
134	0x3e403793	0.187712
135	0xbdcd5b55	-0.10027186
136	0xbe12b33f	-0.1432619
137	0x3d275a81	0.040857796
138	0xbe2c93d9	-0.16853274
139	0x3dc295c6	0.09501223
140	0x3db2891b	0.08717557
141	0xbc54ee40	-0.012996256
142	0x3c726d74	0.0147966035
143	0xbce34d7c	-0.027746908
144	0x3e3a93f5	0.18220504
145	0xbd9952d7	-0.074865036
146	0xbd5bca98	-0.053660005
147	0xbdad2ca5	-0.08455781
148	0x3de385b3	0.111094855
149	0xbe0d1c6f	-0.13780378
150	0x3d0fe89e	0.03513395
151	0x3e19a7a0	0.1500535
152	0xbcf7041b	-0.030153325
153	0x3dfcc590	0.123423696
154	0xbd59c943	-0.053170454
155	0x3dd59f7b	0.10430809
156	0xbd01910a	-0.03163246
157	0xbdf10d9a	-0.117701724
158	0xbdcb3ec7	-0.09924083
159	0xbe0a6168	-0.1351372
160	0x3dcda985	0.10042099
161	0xbd10dff2	-0.03536982
162	0xbe325dc4	-0.17418581
163	0xbd19cb4f	-0.037547406
164	0x3da4c548	0.08045441
165	0x3ce6d170	0.02817604
166	0xbe5d3b52	-0.2160466
167	0xbd002f22	-0.03129495
168	0x3ddb1b6e	0.10698591
169	0x3e0af448	0.13569748
170	0x3e47d0b7	0.19513212
171	0x3d793afd	0.06084727
172	0xbd7f9c0c	-0.062404677
173	0xbcb5e8e3	-0.022205776
174	0x3e366363	0.1781135
175	0x3e4add40	0.19810963
176	0xbd901868	-0.07035905
177	0x3c9bf012	0.019035373
178	0x3ddaa089	0.10675151
179	0x3c5f99b6	0.013647487
180	0xbdd9692d	-0.10615764
181	0xbe1b5bbd	-0.15171714
182	0xbbb9235b	-0.0056499667
183	0x3ddfd207	0.109287314
184	0x3de53cd6	0.11193244
185	0xbe02956e	-0.12752315
186	0xbe0b389f	-0.13595818
187	0x3cef2978	0.029194579
188	0xbe0970a2	-0.13421872
189	0xbda71c28	-0.08159667
190	0xbe18f29e	-0.14936301
191	0x3d873012	0.066009656

Network_stack.0.0.gru.weight_hh_l0 f4 [96, 32]
0	0xbdae284f	-0.08503782
1	0x3e1adf67	0.15124284
2	0xbe2c1b1c	-0.16807216
3	0x3e1df4fb	0.15425484
4	0x3d8069df	0.06270193
5	0xbe2f9ab9	-0.17148866
6	0xbe03a5e0	-0.12856245
7	0x3d8d04a1	0.068856485
8	0xbba72572	-0.0051008994
9	0x3e1398b5	0.14413722
10	0xbe305e23	-0.1722341
11	0xbdab7f06	-0.08373837
12	0x3d79c4e4	0.060978785
13	0xbd8b2625	-0.06794385
14	0x3dacfbf5	0.084464945
15	0x3da9e6e2	0.082959905
16	0x3e1b0b87	0.15141116
17	0x3daa373d	0.08311317
18	0x3d13d308	0.036089927
19	0x3ce3d993	0.027813708
20	0x3dbb389c	0.09141657
21	0x3d4907cf	0.049079712
22	0x3dd03538	0.10166401
23	0xbe26e42d	-0.1629798
24	0xbd055a7c	-0.032556996
25	0xbd97bd96	-0.074092075
26	0x3df346c5	0.118787326
27	0x3dac83c4	0.0842357
28	0x3dbf016e	0.093264446
29	0x3d802c93	0.06258502
30	0x3e1cf4f7	0.15327822
31	0xbe24d335	-0.16096194
32	0xbd3f9a84	-0.046778217
33	0xbd4cb4a6	-0.049976967
34	0xbe39ca61	-0.18143608
35	0x3dea1514	0.114298016
36	0x3d1d4067	0.038391497
37	0xbd851d91	-0.0649978
38	0xbdb4704d	-0.08810482
39	0xbd9110ec	-0.07083306
40	0x3d0fe865	0.035133738
41	0x3d5b6c9c	0.053570375
42	0x3d910e97	0.07082861
43	0xbd3c4b72	-0.045970388
44	0x3d428056	0.047485672
45	0x3da3ee52	0.0800444
46	0x3da20db0	0.07912767
47	0x3de98b0e	0.11403476
48	0xbdb7d408	-0.089759886
49	0x3d53a1e1	0.05166805
50	0xbd9c0b07	-0.07619291
51	0xbd37337a	-0.044726826
52	0xbe31e0f1	-0.17370965
53	0x3d73ac8c	0.059490725
54	0xbe108175	-0.14111884
55	0x3d34727e	0.0440545
56	0x3c69d06e	0.014270885
57	0xbe1d31b8	-0.15350997
58	0x3ddc33dc	0.10752079
59	0xbdd429ad	-0.103595115
60	0x3d2655af	0.040609058
61	0xbbf12914	-0.007359633
62	0xbbe9cef5	-0.007135267
63	0x3cd7e7fb	0.026355734
64	0x3cfcb93a	0.030850042
65	0x3d0c8149	0.034302983
66	0xbdfd8295	-0.12378422
67	0xbe1f5aa8	-0.15561926
68	0x3d8ee67b	0.069775544
69	0x3dc1079d	0.0942528
70	0xbced5836	-0.028972726
71	0xbe06bee5	-0.13158758
72	0x3bca1b51	0.006167807
73	0x3e2de7d3	0.16982965
74	0x3db92bae	0.09041534
75	0x3d8d678e	0.06904517
76	0x3d1b7bbd	0.037959803
77	0xbd7f10e4	-0.062271968
78	0x3d4a0473	0.04932065
79	0xbde8dc0b	-0.11370095
80	0xbdebd3cb	-0.11515006
81	0x3e27043a	0.16310206
82	0xbe02a9f1	-0.1276014
83	0x3dfbb813	0.12290969
84	0xbdc6d126	-0.09707861
85	0x3d545fba	0.051849104
86	0x3cbaf759	0.022823023
87	0x3dfbdba8	0.122977555
88	0xbdfa4ead	-0.122220375
89	0xbcf9a207	-0.030472768
90	0x3d30c26a	0.043154158
91	0xbde2dcd4	-0.11077276
92	0x3cf09c73	0.029371476
93	0x3ca93fcb	0.020660302
94	0xbe195cf7	-0.1497687
95	0x3e192737	0.14956366
96	0xbe2f074a	-0.17092624
97	0x3e1fe07e	0.1561298
98	0x3dfc5138	0.12320179
99	0xbe0a58d7	-0.13510452
100	0x3e06bc23	0.13157706
101	0x3c7a1159	0.015262925
102	0x3da80210	0.082035184
103	0x3d522729	0.051306877
104	0xbdc59338	-0.096472204
105	0x3ca55ec8	0.020186797
106	0xbe2daf40	-0.16961384
107	0xbdc9a957	-0.09846752
108	0x3ddd47ae	0.108046874
109	0x3e3a77b5	0.18209727
110	0x3d0accc5	0.03388669
111	0xbe1534a9	-0.1457087
112	0x3ce26b34	0.027639009
113	0xbe1e7352	-0.15473679
114	0xbdc38f44	-0.0954881
115	0xbe2e19b8	-0.17001998
116	0xbe190984	-0.14945036
117	0xbe15114b	-0.14557378
118	0x3dbc2862	0.0918739
119	0x3e1c54c1	0.15266706
120	0x3d83cdc9	0.06435735
121	0xbbd71955	-0.006564299
122	0xbe3ee1d7	-0.18640839
123	0xbdb13fdc	-0.08654758
124	0x3d235f1e	0.039885633
125	0xbd609116	-0.054825865
126	0x3de9d4ae	0.114175186
127	0xbe39f7a8	-0.1816088
128	0xbc92ea31	-0.017933937
129	0x3de25a33	0.110523604
130	0xbe1e629f	-0.15467308
131	0x3e132c35	0.14372332
132	0xbe19d681	-0.15023233
133	0x3d505c19	0.05086908
134	0xbe2b5b77	-0.1673411
135	0xbe4bd7de	-0.19906566
136	0xbda3cdc8	-0.07998234
137	0xbdd1a2fd	-0.10236166
138	0xbde4de89	-0.11175258
139	0xbd1f48ed	-0.038887907
140	0xbd4015ea	-0.0468959
141	0x3e12fe95	0.14354928
142	0x3bf21267	0.0073874476
143	0xbe2275b3	-0.15865211
144	0xbe52fc77	-0.2060412
145	0x3cd87652	0.026423607
146	0xbe4d1b3a	-0.20029917
147	0x3e321b5d	0.17393251
148	0x3d69a80e	0.057045035
149	0x3e0a6a7f	0.13517188
150	0xbdab956e	-0.08378111
151	0xbe1f680f	-0.15567039
152	0xbe1b8b2a	-0.15189806
153	0xbe618916	-0.2202495
154	0x3e82e6cf	0.25566718
155	0x3e1e2c36	0.15446553
156	0xbe10bec6	-0.14135274
157	0x3d87131a	0.0659544
158	0x3dd5b211	0.10434354
159	0x3d5bd2d0	0.053667843
160	0xbb9b5f57	-0.00474159
161	0x3dcede78	0.10101026
162	0x3e197d98	0.14989316
163	0x3e32334f	0.17402385
164	0x3bc50c12	0.006013402
165	0xba2b90d1	-0.00065447117
166	0x3d69b6ec	0.057059214
167	0xbe11ebd6	-0.1425012
168	0x3db1c651	0.08680404
169	0xbe5dfb50	-0.216779
170	0xbe0df68d	-0.13863583
171	0xbc6f30fa	-0.014599079
172	0xbdb44498	-0.08802146
173	0x3d6b7933	0.05748863
174	0x3d56150a	0.05226616
175	0x3def4011	0.116821416
176	0x3e0a14f7	0.1348456
177	0xbe1009c8	-0.14066231
178	0x3dce2d72	0.10067262
179	0xbdc173d8	-0.094459236
180	0xbbdb27d5	-0.006688098
181	0x3deacd28	0.11464912
182	0x3db5a98d	0.0887023
183	0x3db1450c	0.08655748
184	0xbe18fb43	-0.14939599
185	0x3e22e594	0.1590789
186	0xbe0d19f3	-0.1377943
187	0xbdcec346	-0.10095839
188	0xbe23ff76	-0.1601542
189	0xbe04977c	-0.12948412
190	0xbe37b181	-0.17938806
191	0xbe1abd82	-0.15111354
192	0xbe154bf1	-0.1457975
193	0x3cd8746c	0.026422702
194	0xbd3cafdd	-0.046066154
195	0x3e426bd0	0.1898644
196	0xbddec5dd	-0.10877583
197	0xbcc5b5b6	-0.024134498
198	0xbd5d7a69	-0.054071818
199	0xbd830dc3	-0.06399109
200	0x3dcde8a0	0.10054135
201	0xbd8d5a75	-0.06902019
202	0x3d04111f	0.03224289
203	0xbcad9c30	-0.02119264
204	0xbde4a420	-0.11164117
205	0x3e340ed9	0.17583789
206	0xbe2fdeea	-0.17174879
207	0xbe0ade68	-0.13561404
208	0xbd247ab3	-0.040156078
209	0xbdd298bc	-0.10283038
210	0xbd653e2a	-0.055967487
211	0xbd94a5ec	-0.072582096
212	0xbe066505	-0.13124473
213	0x3dd3016a	0.10303004
214	0xbd82ecdd	-0.06392834
215	0xbe16761d	-0.14693494
216	0xbdbaa293	-0.0911304
217	0x3decd4bd	0.11564014
218	0x3e225733	0.15853576
219	0x3e178281	0.14795877
220	0x3db6defd	0.089292504
221	0xbdc79368	-0.097449124
222	0x3df6d0a4	0.12051514
223	0x3db48944	0.08815244
224	0xbc3e9c98	-0.011634015
225	0xbe0d70d5	-0.13812573
226	0x3dd24a6b	0.102681
227	0x3e375e21	0.17907001
228	0xbdcc7aee	-0.099843845
229	0x3ba48a0e	0.00502134
230	0xbe5535ac	-0.20821255
231	0xbcc700c2	-0.024292354
232	0xbdfcc926	-0.123430535
233	0x3e660994	0.22464591
234	0xbde1d843	-0.11027577
235	0x3e0be4fb	0.13661568
236	0x3ca1aaf7	0.019734843
237	0xbda0948a	-0.078408316
238	0x3cb38736	0.02191506
239	0xbe38f5ca	-0.18062511
240	0x3c5494ef	0.012974962
241	0x3d535dbf	0.051603075
242	0x3cb3d56d	0.021952355
243	0xbe088d55	-0.13335164
244	0x3d2b19b1	0.041772548
245	0x3b928c49	0.0044722897
246	0xbd9d881f	-0.07691979
247	0xbc84c7ed	-0.016208613
248	0xbdd45c0a	-0.103691176
249	0xbdccb548	-0.09995514
250	0x3a99d3aa	0.0011736054
251	0x3d992f9d	0.07479785
252	0xbaf0e180	-0.0018377751
253	0xbc764152	-0.015030222
254	0x3e15d2b4	0.14631158
255	0x3e0693b5	0.13142283

Network_stack.0.0.gru.bias_ih_l0 f4 [96]
0	0xbdddaeed	-0.1082438
1	0x3e1687ea	0.14700285
2	0xbe1d8c97	-0.15385662
3	0xbd7a25d6	-0.06107124
4	0x3dea63ea	0.11444838
5	0xbd5f948e	-0.054585032
6	0xbe275073	-0.16339283
7	0xb9af1933	-0.00033397376
8	0x3e30529b	0.17219011
9	0xbd6b55f6	-0.057455026
10	0x3da15d77	0.07879155
11	0x3cfb750f	0.030695466
12	0x3bd6aa25	0.0065510445
13	0x3d9ca6e3	0.076490186
14	0xbe2a3fa3	-0.16625838
15	0x3e303277	0.17206751
16	0x3e4b0621	0.19826557
17	0x3e224ada	0.15848866
18	0x3e1ffadc	0.15623039
19	0x3d193f31	0.03741378
20	0x3cc41899	0.02393751
21	0x3d269dbf	0.040677782
22	0x3d1cc1c3	0.038270723
23	0x3d8b65ba	0.06806512
24	0xbd05e706	-0.032691024
25	0xbdecda2e	-0.11565052
26	0x3e6a83e0	0.22901869
27	0x3e22b393	0.15888815
28	0x3e03e647	0.12880813
29	0x3e1c1140	0.15240955
30	0xbe257827	-0.16159116
31	0x3d930fc4	0.071807414
32	0xbd9117db	-0.07084628
33	0xbdc977ab	-0.09837278
34	0xbd8f7ad8	-0.070058525
35	0xbe17cc21	-0.14823963
36	0x3e77db96	0.24204859
37	0x3df6a990	0.1204406
38	0x3da3472b	0.079725586
39	0xbd882cd7	-0.066491775
40	0x3e0faed4	0.14031535
41	0xbde477a0	-0.11155629
42	0x3d3d4588	0.04620889
43	0x3e05be0a	0.13060775
44	0x3cf1c0fc	0.029510967
45	0xbdc4e756	-0.09614436
46	0x3d912151	0.07086433
47	0x3d0216b5	0.031759936
48	0x3d374ad5	0.0447491
49	0xbd5f48bc	-0.054512724
50	0x3e3b4ea1	0.18291713
51	0xbe513de9	-0.20433773
52	0x3df56472	0.11982049
53	0xbe12a177	-0.14319406
54	0x3ddc3653	0.10752549
55	0xbdb9ef92	-0.090788975
56	0xbdc53658	-0.09629506
57	0x3d4cf572	0.050038762
58	0xbe1a322b	-0.150582
59	0x3dc17b08	0.094472945
60	0x3e476c1c	0.19474834
61	0x3db69f21	0.0891707
62	0x3a02754f	0.0004976587
63	0x3d39f438	0.04539892
64	0xbe2ac273	-0.16675739
65	0x3d4a2e0a	0.049360313
66	0xbe329343	-0.17438988
67	0xbd85ea84	-0.06538871
68	0x3d832bb8	0.06404823
69	0x3e18e196	0.14929804
70	0xbdd54062	-0.10412671
71	0x3deda4e8	0.11603719
72	0xbd78937b	-0.060687523
73	0x3d5a2647	0.05325916
74	0xbdc7fdcb	-0.09765204
75	0x3e01d1a6	0.12677631
76	0x3db4293a	0.08796926
77	0x3def1856	0.116745636
78	0xbd77f05f	-0.06053197
79	0xbdbd6058	-0.09246892
80	0xbe03cf9d	-0.12872167
81	0x3d1285cd	0.035772134
82	0xbd0a123e	-0.033708803
83	0xbbf1d02a	-0.0073795514
84	0xbde49923	-0.11162021
85	0x3d9abe08	0.07555777
86	0x3cf4e8f9	0.029896246
87	0x3d1cdb3b	0.038295012
88	0xbb8e3715	-0.0043400624
89	0xbd9635f8	-0.073345125
90	0x3cfdebf9	0.03099631
91	0x3e30a5b0	0.17250705
92	0xbbdff086	-0.0068340925
93	0xbde69a05	-0.11259846
94	0x3dedec44	0.1161733
95	0xbccb8a04	-0.024846084

Network_stack.0.0.gru.bias_hh_l0 f4 [96]
0	0x3e13677b	0.14394943
1	0x3c72ecf8	0.014827006
2	0xbc18559e	-0.0092977565
3	0x3e38c82c	0.1804511
4	0x3dc52666	0.096264645
5	0x3e20bba0	0.15696573
6	0x3dd0f260	0.10202479
7	0x3dc5f673	0.09666147
8	0x3c003e17	0.007827303
9	0x3bc16da2	0.005902962
10	0x3bbfdccb	0.005855178
11	0x3ba2fb7b	0.0049738265
12	0xbd99cf35	-0.07510225
13	0x3cc46746	0.023975026
14	0xbe1dda74	-0.15415365
15	0xbd99529e	-0.07486461
16	0x3ddea9dd	0.108722426
17	0x3b8f960a	0.0043818997
18	0x3dca3e31	0.09875143
19	0x3d9180bb	0.071046315
20	0xbd84f53f	-0.064920895
21	0xbda45720	-0.0802443
22	0x3e10e0cb	0.14148252
23	0x3cf5ee67	0.030020906
24	0x3e29b42e	0.1657264
25	0xbcbe9b8a	-0.023267526
26	0xbd62893e	-0.055306666
27	0xbd86fb75	-0.0659093
28	0xbc7f5654	-0.015584547
29	0x3d986dd2	0.074428216
30	0xbde265d9	-0.11054582
31	0x3d707fdf	0.058715697
32	0xbdfd1e13	-0.12359252
33	0xbd2bd75d	-0.041953433
34	0xbd0f6079	-0.035004113
35	0x3c67bbca	0.0141438935
36	0x3e7c8d62	0.24663308
37	0xbe4140a5	-0.18872316
38	0xbd09146f	-0.033466753
39	0xbe50ae5a	-0.2037901
40	0x3d3ef236	0.04661771
41	0x3d97fb95	0.07421032
42	0xbcd3df10	-0.0258632
43	0x3e34474f	0.17605327
44	0xbdc75897	-0.09733694
45	0x3da83796	0.08213727
46	0x3d5ed152	0.054398842
47	0x3d562e79	0.052290414
48	0x3e0d208c	0.13781947
49	0xbda1a43c	-0.07892653
50	0x3da6487d	0.08119295
51	0xbe04fb01	-0.12986375
52	0x3d80103f	0.06253099
53	0xbd782436	-0.06058141
54	0x3c9093bf	0.017648576
55	0xbe8777b7	-0.26458523
56	0x3d7fff46	0.062499307
57	0xbb14e566	-0.002271974
58	0xbe195912	-0.14975384
59	0x3e8dfa88	0.27730203
60	0xbcc90174	-0.024536826
61	0x3b23a509	0.0024970195
62	0xbdfc2c66	-0.12313156
63	0xbe67b345	-0.2262698
64	0xbd8c2de5	-0.06844691
65	0xbc00f601	-0.007871152
66	0x3e0204c4	0.1269713
67	0x3e0c76eb	0.13717239
68	0x3c05ebf6	0.008173933
69	0xbda95726	-0.08268575
70	0xbe2b8af8	-0.16752231
71	0xbd4adb8f	-0.049525794
72	0xbd2aca93	-0.041697096
73	0x3d68940b	0.05678181
74	0xbde0dd3c	-0.10979697
75	0x3e0c9fc4	0.13732821
76	0xbe084aa1	-0.13309719
77	0x3dbfaa05	0.093586005
78	0x3e2d4a43	0.1692286
79	0xbdb9719a	-0.09054871
80	0xbd4c9784	-0.049949184
81	0x3d3ee951	0.046609227
82	0xbd44e30d	-0.048068095
83	0xbd86366e	-0.065533504
84	0xbe3089b6	-0.17240033
85	0xbd911863	-0.070847295
86	0xbdd1e6ba	-0.10249086
87	0x3e18a026	0.14904842
88	0xbe3d7c69	-0.1850449
89	0x3d90fc70	0.07079399
90	0x3d71ce12	0.059034415
91	0x3dea9ec8	0.11456066
92	0xbe055748	-0.13021576
93	0x3e2a42e0	0.16627073
94	0xbc804070	-0.015655726
95	0xbd88df52	-0.0668322

Network_stack.0.0.gru.weight_ih_l1 f4 [96, 32]
0	0xbc71847c	-0.014741059
1	0x3e609ef9	0.21935643
2	0xbd68fcdf	-0.05688178
3	0x3e1def48	0.1542331
4	0xbd41edf7	-0.04734608
5	0xbd3d2687	-0.04617932
6	0xbd150dab	-0.036389988
7	0xbcb92f6a	-0.022605617
8	0x3ca31b02	0.01991034
9	0xbe04beb1	-0.12963368
10	0x3e35adc2	0.17742065
11	0xbe0210f7	-0.12701784
12	0xbe12379e	-0.14279029
13	0x3dc84d76	0.097803995
14	0x3e281485	0.16414078
15	0x3ddd3616	0.10801332
16	0x3e174bbb	0.14774983
17	0x3cd8b36b	0.02645274
18	0x3cf227f2	0.029560063
19	0xbdf4a595	-0.11945645
20	0xbcf8fd1d	-0.030394131
21	0xbd1220b5	-0.035675723
22	0x3d85d417	0.065345936
23	0x3d918f01	0.07107354
24	0x3cf3e80b	0.029773733
25	0x3d95bb95	0.07311169
26	0xbd91a8db	-0.07112285
27	0xbdc7693a	-0.09736867
28	0xbdf274ad	-0.118386604
29	0x3e0832fd	0.133007
30	0x3d953710	0.07285893
31	0xbdeb3b33	-0.11485901
32	0x3d705b20	0.058680654
33	0xbcfc8748	-0.030826226
34	0x3dbe7f24	0.09301594
35	0xbc0a3595	-0.0084356265
36	0xbc41575c	-0.011800613
37	0x3dfb9b5d	0.122854926
38	0x3de9e50b	0.114206396
39	0x3dcc11fc	0.09964368
40	0x3d4d6094	0.050140932
41	0x3ddde4cb	0.108346544
42	0xbe1179b1	-0.14206578
43	0xbe0d3073	-0.13788013
44	0xbd6e97e2	-0.058250315
45	0xbcfb839b	-0.030702403
46	0x3d090573	0.033452462
47	0x3d5f6d32	0.054547496
48	0xbe057dd2	-0.13036278
49	0xbbab093b	-0.005219606
50	0xbcff1818	-0.031139418
51	0xbe09587d	-0.13412662
52	0x3d8c8b00	0.0686245
53	0xbcce7950	-0.02520433
54	0xbd803ad1	-0.06261218
55	0xbe0b57fa	-0.13607779
56	0xbe0ca470	-0.13734603
57	0x3bdf5ac0	0.006816238
58	0x3e526859	0.20547618
59	0x3d8b267d	0.067944504
60	0xbdb21fda	-0.086974815
61	0x3ddc3bcd	0.107535936
62	0xbdc6c596	-0.09705655
63	0xbdf3c8d3	-0.119035386
64	0xbcd2d823	-0.025737828
65	0xbc14e2a5	-0.009087239
66	0x3e20b4a7	0.15693913
67	0x3d1a1947	0.037621763
68	0x3e169b92	0.14707783
69	0x3cd8d60f	0.026469259
70	0xbe39d081	-0.18145944
71	0x3cae0513	0.021242654
72	0x3d25ce63	0.04048003
73	0x3e1c1ecf	0.15246128
74	0xbdd16a04	-0.10225299
75	0xbdcd1bc0	-0.100150585
76	0x3d4f982a	0.050682224
77	0x3d181452	0.037128754
78	0xbd8eeed9	-0.0697915
79	0xbe2a8425	-0.16651972
80	0xbe4fd2e9	-0.202953
81	0xbccb186d	-0.02479192
82	0x3d5bfcc8	0.053707868
83	0x3e734c57	0.2375959
84	0xbdb506d5	-0.08839194
85	0xbe51fb0e	-0.20505926
86	0xbccfa07a	-0.025345076
87	0x3e1009a3	0.14066176
88	0x3dbfdbb0	0.09368074
89	0xbdcab0f9	-0.09897036
90	0x3e796be6	0.24357566
91	0xbc2b1c45	-0.010443752
92	0xbd20d3cd	-0.03926449
93	0x3e89e658	0.2693355
94	0x3e18456d	0.14870234
95	0x3c9070dc	0.01763194
96	0x3cdcc566	0.026949596
97	0x3e1a4cc2	0.15068343
98	0x3e32bcda	0.17454854
99	0xbd1619b5	-0.03664561
100	0xbdc6e7b3	-0.09712162
101	0xbdf6de3d	-0.12054107
102	0x3cf78f71	0.030219765
103	0x3d8cf8cb	0.06883391
104	0xbd6a43cd	-0.057193566
105	0xbdf3ac9b	-0.11898156
106	0x3ccb997b	0.024853459
107	0xbd235b0f	-0.039881762
108	0xbd7cd0d5	-0.061722595
109	0x3dd30062	0.103028074
110	0x3e2e1ea0	0.1700387
111	0x3db7f502	0.089822784
112	0x3d5f5b86	0.054530643
113	0x3dfff0ce	0.12497102
114	0xbdf9a8f7	-0.121904306
115	0xbe04e2c0	-0.12977123
116	0xbc8518b4	-0.01624713
117	0x3e2ae3c6	0.16688451
118	0x3d10547f	0.03523683
119	0x3d66fcaf	0.05639332
120	0xbe29a6a2	-0.16567472
121	0x3d328085	0.043579597
122	0x3e4f6d28	0.20256484
123	0x3df5ee3a	0.12008329
124	0xbd6e79a4	-0.058221474
125	0xbc6ccb7d	-0.014452812
126	0x3ddb5c27	0.10710936
127	0x3b8ed417	0.004358779
128	0x3d997912	0.074937955
129	0xbc4b8d4a	-0.012423823
130	0xbd5a0970	-0.053231657
131	0x3e66eaf5	0.22550566
132	0x3d86e1c4	0.0658603
133	0x3b9a8e57	0.0047166753
134	0xbe5459b8	-0.2073735
135	0xbdf01680	-0.117230415
136	0xbd41fd5a	-0.047360756
137	0x3c9e1eb0	0.019301742
138	0xbe340c3f	-0.17582797
139	0x3cb3dbf8	0.021955475
140	0xbcf90700	-0.030398846
141	0x3d5d9c80	0.05410433
142	0xbe59e358	-0.21278131
143	0xbdbd4225	-0.09241132
144	0x3dbb246b	0.091378056
145	0x3ce5ffc0	0.028076053
146	0x3d70e0db	0.05880819
147	0xbe0575e7	-0.13033257
148	0x3d0492c3	0.032366525
149	0xbd91adc5	-0.07113222
150	0x3d39a77f	0.045325752
151	0x3e257ad9	0.16160144
152	0xbe28625d	-0.16443773
153	0x3d9ba358	0.07599515
154	0xbe85b315	-0.2611319
155	0x3e17235e	0.14759585
156	0xbb582222	-0.003297933
157	0xbe4eb290	-0.20185304
158	0x3d2a89e7	0.04163542
159	0xbe4a4a33	-0.19754867
160	0x3d19add4	0.03751929
161	0xbd9429bf	-0.07234525
162	0xbc3e6acd	-0.011622143
163	0xbc8632e0	-0.016381681
164	0xbe0f1bd7	-0.13975464
165	0xbd166776	-0.03671976
166	0x3e2a7e20	0.16649675
167	0xbe01ef3d	-0.12688918
168	0x3cda314b	0.026634833
169	0xbd9eff4d	-0.077635385
170	0xbd972546	-0.07380156
171	0xbe27e5c2	-0.1639624
172	0x3bb51284	0.005525889
173	0x3dcee7b7	0.1010279
174	0x3e46c56e	0.19411251
175	0x3e03d7f9	0.12875356
176	0x3d3514e7	0.044209387
177	0x3e3d39d8	0.18479097
178	0xbe2dac1e	-0.16960189
179	0x3c28e80a	0.010309229
180	0xbe73c6ee	-0.23806354
181	0xbd02c924	-0.031930104
182	0x3dd27019	0.10275287
183	0xbdd7684b	-0.10517939
184	0x3e3596da	0.17733327
185	0x3b0d042f	0.0021517386
186	0xbe14ed22	-0.14543584
187	0xbdba2192	-0.09088434
188	0xbd880845	-0.06642202
189	0x3e407c2c	0.18797368
190	0x3c0980fa	0.008392567
191	0x3da6e753	0.0814959
192	0x3e019a2a	0.12656465
193	0xbb2c029a	-0.0026246668
194	0xbdb3a947	-0.087725215
195	0xbe13e497	-0.14442669
196	0xbe09c1c1	-0.13452817
197	0x3e08a53c	0.13344282
198	0xbd19852b	-0.037480514
199	0xbd4b0b1c	-0.04957114
200	0x3a615daa	0.0008597026
201	0xbe01faed	-0.12693377
202	0xbd9c11c3	-0.07620575
203	0xbc2a55f3	-0.010396468
204	0x3c40e832	0.01177411
205	0x3da9d06e	0.08291708
206	0xbd9f7043	-0.07785084
207	0xbd933cb2	-0.07189311
208	0x3d708a23	0.058725487
209	0xbe003993	-0.12521963
210	0xbe1a2f45	-0.15057094
211	0xba80fd72	-0.0009841158
212	0xbde31d32	-0.11089553
213	0xbd92c230	-0.071659446
214	0x3d429542	0.047505625
215	0xbe01e160	-0.1268363
216	0xbd557ec6	-0.052122854
217	0x3dd16a20	0.1022532
218	0x3d863356	0.0655276
219	0xbdf25d12	-0.11834158
220	0xbd59a29c	-0.053133592
221	0xbcfd6361	-0.030931177
222	0xbdcd0d0b	-0.100122534
223	0xbdc3be71	-0.09557808
224	0x3e09b31f	0.13447236
225	0xbe168dfb	-0.14702599
226	0x3ded2c30	0.11580694
227	0x3e2a331f	0.16621064
228	0xbd6f2576	-0.058385335
229	0xbd8cc17d	-0.068728425
230	0xbd87b5a7	-0.06626444
231	0xbde74bfc	-0.1129379
232	0xbdd162f4	-0.10223952
233	0xbd113af5	-0.035456616
234	0xbc5b9686	-0.013402587
235	0xbd6df259	-0.05809245
236	0x3dad217d	0.08453653
237	0x3e038980	0.12845421
238	0xbd60ac55	-0.05485185
239	0xbd1f3316	-0.03886708
240	0xbc8eb7dc	-0.017421655
241	0xbe186510	-0.14882302
242	0xbc9a1918	-0.018810794
243	0xbd5c0de6	-0.053724192
244	0x3e2c3301	0.16816331
245	0xbe00c705	-0.1257592
246	0xbd8f3458	-0.06992406
247	0x3de14b04	0.11000636
248	0x3dbd69af	0.09248673
249	0x3d2e230a	0.042513885
250	0xbe12101d	-0.14263959
251	0x3e1c70cc	0.15277404
252	0x3b96e702	0.004605175
253	0x3e22944b	0.15876882
254	0xbde66f93	-0.1125175
255	0x3d7e4240	0.0620749

Network_stack.0.0.gru.weight_hh_l1 f4 [96, 32]
0	0x3e084e5f	0.13311146
1	0x3e1d1a40	0.15342045
2	0xbd2aec38	-0.041729182
3	0x3e09ccc2	0.13457015
4	0xbc0e0c4b	-0.008669923
5	0xbb9540fe	-0.004554867
6	0x3e024e1b	0.12725107
7	0x3d4fc830	0.050728023
8	0x3e221a99	0.15830459
9	0x3e2366ce	0.15957186
10	0x3df766d1	0.120801575
11	0xbe1e59de	-0.15463969
12	0xbd691a6c	-0.056909963
13	0xbe09721e	-0.13422439
14	0xbd13290d	-0.03592782
15	0x3d2947d1	0.041328255
16	0x3e0f01e2	0.13965562
17	0xbdec4852	-0.115372315
18	0x3daa23b0	0.08307588
19	0xbe339a2f	-0.17539285
20	0x3e2175af	0.15767549
21	0xbc840eb9	-0.016120302
22	0x3e07667b	0.13222687
23	0xbe312e99	-0.17302932
24	0xbcf03eba	-0.029326785
25	0x3cb6e9be	0.022328254
26	0x3d2c117c	0.042008862
27	0xbdd1080d	-0.10206614
28	0x3dba2663	0.09089353
29	0xbccfff22	-0.025390211
30	0x3d0d01cd	0.034425545
31	0x3dbe803f	0.09301805
32	0xbd189956	-0.037255608
33	0x3dfac990	0.12245476
34	0xbd8e5493	-0.06949725
35	0xbdcb2619	-0.09919376
36	0x3d04dea8	0.032438904
37	0x3d1687b8	0.036750525
38	0xbdd5889d	-0.104264475
39	0x3e0b5013	0.13604765
40	0x3e2a601e	0.16638228
41	0x3c996b40	0.018727899
42	0x3ce0a066	0.027420234
43	0xbdb02bea	-0.08602126
44	0x3c5b2045	0.013374393
45	0x3dfcfb34	0.12352601
46	0x3e0c424b	0.13697164
47	0x3dc90c74	0.09816828
48	0xbcb9af46	-0.022666585
49	0x3dfe8896	0.124283955
50	0xbe3e14ff	-0.18562697
51	0xbd32baf7	-0.043635335
52	0xbe022f09	-0.12713255
53	0xbc153814	-0.009107608
54	0x3d9a21b8	0.075259626
55	0xbe39e316	-0.18153033
56	0xbe36a27d	-0.17835422
57	0xbe240c25	-0.16020258
58	0x3dbbbccf	0.09166872
59	0xbe3a7ee1	-0.18212463
60	0xbe240ece	-0.16021273
61	0x3e0a38b9	0.134982
62	0x3b6b53ae	0.0035908031
63	0xbbb794ba	-0.0056024464
64	0x3d8f9397	0.070105724
65	0xbe2ad0d5	-0.16681226
66	0x3e4ecb6e	0.2019479
67	0x3d2e4946	0.042550348
68	0xbea7a0a9	-0.3273976
69	0x3d8a27d9	0.067458816
70	0x3ebe67b7	0.37188503
71	0xbe59b4a9	-0.21260323
72	0x3e0cf511	0.1376536
73	0x3dda8eb9	0.106717534
74	0x3cbf6a5b	0.023366144
75	0x3dbd0280	0.092289925
76	0xbe0450d3	-0.12921457
77	0xbe6d87cb	-0.23196332
78	0x3e1bce08	0.15215313
79	0xbe5b7cd9	-0.21434344
80	0xbdf54134	-0.11975327
81	0xbd7e697d	-0.06211232
82	0x3b51afd6	0.0031995676
83	0xbe0ccc2f	-0.13749765
84	0x3be436b0	0.006964527
85	0xbebaedf6	-0.36509675
86	0x3d0c4efd	0.034255017
87	0x3e230068	0.15918124
88	0xbdcf398e	-0.101183996
89	0xbdec55ca	-0.115398005
90	0x3b9d6eb3	0.004804456
91	0x3cfd5185	0.03092266
92	0x3d824aa3	0.06361892
93	0x3d45487f	0.04816484
94	0xbddbd05f	-0.10733103
95	0xbde55de3	-0.11199548
96	0xbe267c00	-0.1625824
97	0xbd73a763	-0.059485804
98	0x3cfafcb0	0.030638069
99	0x3e2c88f6	0.16849121
100	0x3d3dbbd6	0.046321712
101	0xbe2b809f	-0.16748284
102	0xbdb599d6	-0.088672325
103	0xbd953d8b	-0.07287129
104	0x3e0fa441	0.14027502
105	0x3e0fd2fa	0.14045325
106	0xbdf35b25	-0.11882619
107	0xbd1351ac	-0.03596656
108	0x3e132a6d	0.14371653
109	0xbcc2c277	-0.023774369
110	0xbd538f87	-0.05165055
111	0x3af88966	0.0018961846
112	0x3d18ac82	0.03727389
113	0xbe30b6ca	-0.17257228
114	0xbc7d1835	-0.015447666
115	0x3e20d6c2	0.15706924
116	0x3ddd8408	0.108161986
117	0xbe1be6a9	-0.15224709
118	0x3e255643	0.16146187
119	0xbe1f449b	-0.15553515
120	0x3e0a7644	0.13521677
121	0x3e1fab08	0.15592587
122	0xbde9238f	-0.113837354
123	0xbd615fb7	-0.05502292
124	0xbe00524e	-0.12531397
125	0xbe29299b	-0.16519777
126	0xbdf2fde5	-0.11864833
127	0xbd5eba43	-0.05437685
128	0xbdef6fdb	-0.116912566
129	0x3eb3181c	0.34979331
130	0xbdc02807	-0.093826346
131	0xbd98d502	-0.07462503
132	0x3e4010b7	0.18756376
133	0x3e472c35	0.19450457
134	0x3e0d8a69	0.1382233
135	0x3d9cb30f	0.0765134
136	0xbe11fd81	-0.1425686
137	0xbddfa181	-0.10919476
138	0xbe247913	-0.16061811
139	0x3d912837	0.070877485
140	0xbdbd42d5	-0.09241263
141	0xbdcac2be	-0.099004254
142	0xbda7781f	-0.08177208
143	0xbe0ee825	-0.13955744
144	0xbd8ead7e	-0.06966685
145	0x3dec8e19	0.115505405
146	0xbc89c56c	-0.01681777
147	0xbe0fb63a	-0.14034358
148	0x3dcf0ee0	0.10110259
149	0x3d6c107e	0.057632916
150	0xbe4851d7	-0.1956247
151	0x3da2ad25	0.07943181
152	0xbd98a3ad	-0.07453094
153	0x3c0ab8e5	0.008466934
154	0x3d8749a8	0.06605846
155	0xbcc862d7	-0.024461193
156	0xbd7b6dce	-0.061384015
157	0xbdbb2ddc	-0.09139606
158	0xbe299170	-0.16559386
159	0xbe38f375	-0.18061621
160	0xbda8e140	-0.08246088
161	0x3e1fe7ff	0.15615843
162	0x3e551498	0.20808637
163	0x3ce4a07a	0.027908552
164	0x3ed5da42	0.4176808
165	0xbe1eb518	-0.1549877
166	0x3dbba310	0.09161961
167	0xbd2b37f9	-0.041801427
168	0xbe266688	-0.1625005
169	0x3c34852d	0.01101808
170	0xbd949e30	-0.07256734
171	0xbdca4951	-0.09877265
172	0xbb4f90e3	-0.0031672053
173	0xbe02669e	-0.12734458
174	0x3de197ac	0.11015257
175	0xbdf4d1cd	-0.11954079
176	0xbdda17a4	-0.1064904
177	0x3d95a534	0.073069006
178	0x3d9a12b6	0.075231
179	0xbd82cce7	-0.06386738
180	0xbe308bf6	-0.17240891
181	0xbced0f19	-0.028937863
182	0xbc5c7bed	-0.013457281
183	0x3d6c38ba	0.057671286
184	0xbdcc6d85	-0.09981827
185	0x3e2d37d7	0.16915832
186	0xbe3f47f8	-0.18679798
187	0x3e898b06	0.2686388
188	0x3de515df	0.11185812
189	0xbe12850b	-0.14308564
190	0xbd7df576	-0.062001668
191	0xbe425176	-0.18976387
192	0xbe180959	-0.14847316
193	0x3d2fb002	0.042892464
194	0x3e4f5d8a	0.20250526
195	0xbe02fc09	-0.12791456
196	0xbd86d7d5	-0.065841354
197	0xbd35e2b0	-0.04440564
198	0xbd8189ec	-0.06325135
199	0x3e2cd225	0.16877039
200	0x3d936f7b	0.071989976
201	0xbd2c5c02	-0.042079933
202	0x3e285ef8	0.16442478
203	0xbc6169dc	-0.013758149
204	0xbdadf154	-0.08493295
205	0x3d878227	0.066166215
206	0xbe31330a	-0.17304626
207	0xbd874810	-0.06605542
208	0xbd7b3199	-0.061326597
209	0x3c510488	0.012757428
210	0x3e0f0edd	0.13970514
211	0x3d4a945c	0.049457893
212	0x3e2ef982	0.17087367
213	0xbcdebf00	-0.027190685
214	0x3dd3fd80	0.10351086
215	0x3e0951ea	0.13410154
216	0xbe2186c8	-0.15774071
217	0xbdd4879f	-0.1037743
218	0x3e0ff836	0.14059529
219	0x3d65dfee	0.05612176
220	0x3ca7d05a	0.020485092
221	0xbe13c196	-0.14429316
222	0xbdaad01f	-0.08340477
223	0xbe1979c2	-0.14987853
224	0x3c702719	0.014657759
225	0x3c6383db	0.013886417
226	0x3dac7e88	0.084225714
227	0xbe262555	-0.16225179
228	0xbdff401b	-0.12463399
229	0x3e3487ce	0.1762993
230	0xbe292039	-0.16516198
231	0x3e2a0468	0.16603243
232	0xbd195bac	-0.03744094
233	0x3dd3a326	0.103338525
234	0x3e0601ee	0.13086674
235	0x3e1c9872	0.15292528
236	0xbc45e959	-0.01207956
237	0xbe33febe	-0.17577645
238	0xbe15385d	-0.14572282
239	0xbd9d597b	-0.07683083
240	0xbddd73c1	-0.10813094
241	0xbd2128d4	-0.039345577
242	0x3e259b03	0.16172414
243	0xbcfa9e3e	-0.030593034
244	0xbda3ba0f	-0.07994472
245	0x3d054748	0.032538682
246	0x3e0008d1	0.12503363
247	0x3e248c28	0.1606909
248	0xbe2eba39	-0.17063226
249	0xbe0558c7	-0.13022147
250	0xbe01783f	-0.12643526
251	0x3e13814c	0.14404792
252	0xbd4d23a8	-0.050082833
253	0xbcd3a800	-0.025836945
254	0x3c908f0f	0.01764634
255	0xbd226940	-0.039651155

Network_stack.0.0.gru.bias_ih_l1 f4 [96]
0	0xbe403938	-0.18771827
1	0xbda4d1c9	-0.08047826
2	0x3e2ef92a	0.17087236
3	0xbe05b8f4	-0.13058835
4	0xbb90adac	-0.0044152346
5	0xbdd88699	-0.105725475
6	0xbdeeaeab	-0.11654409
7	0x3d55e8f9	0.052224133
8	0x3df9cc10	0.12197125
9	0x3c9ffd7c	0.01953005
10	0x3e12e265	0.14344175
11	0x3d7ef201	0.06224251
12	0x3e115cdd	0.14195581
13	0x3da368e1	0.079789884
14	0xbcb85c0f	-0.022504834
15	0xbe0ad7ab	-0.13558833
16	0x3d7a5192	0.061112948
17	0xbdd55675	-0.10416881
18	0xbe212891	-0.15738131
19	0xbe342265	-0.17591245
20	0x3d90d36e	0.07071577
21	0xbe02cf3e	-0.12774369
22	0x3d427b9e	0.04748117
23	0xbcb66d86	-0.022269022
24	0x3e82796b	0.2548326
25	0xbe1ae0fa	-0.15124884
26	0xbdda63b8	-0.10663551
27	0x3cdf77c7	0.027278794
28	0x3be46e82	0.0069711814
29	0x3de12f7c	0.10995385
30	0xbddaed3f	-0.10689782
31	0xbd9a0f24	-0.07522419
32	0xbcbadde1	-0.022810878
33	0xbe029f51	-0.12756087
34	0x3e153ba9	0.1457354
35	0x3d9933ed	0.07480607
36	0xbcf50631	-0.029910179
37	0x3d96fef0	0.07372844
38	0xbd9ca345	-0.07648329
39	0x3caec459	0.02133386
40	0xbdca5ed1	-0.09881366
41	0xbe047800	-0.12936401
42	0x3e0dcdf7	0.138481
43	0xbe2e6fd9	-0.17034854
44	0xbda65377	-0.081213884
45	0x3e6ea936	0.23306736
46	0x3dd24397	0.10266798
47	0xbd9470f9	-0.0724811
48	0xbe342afd	-0.17594524
49	0x3e093a15	0.13401063
50	0xbdec52d2	-0.11539234
51	0xbc6ac4d2	-0.014329152
52	0x3de0ef6d	0.10983167
53	0x3d2bca65	0.041941065
54	0x3d99fbf0	0.075187564
55	0xbe0d85f4	-0.1382063
56	0x3d8d4389	0.06897647
57	0x3dfaa3f1	0.122383006
58	0x3cbe8c95	0.023260394
59	0xbe0bb566	-0.13643417
60	0x3e39ecb7	0.18156706
61	0x3d7c6aa1	0.061625127
62	0x3e0c4792	0.13699177
63	0xbe549638	-0.20760429
64	0xbe0ceeea	-0.13763013
65	0x3d39f10c	0.045395896
66	0xbd602207	-0.05471995
67	0xbdbf774b	-0.09348925
68	0xbd454407	-0.04816058
69	0x3df2c5b6	0.118541166
70	0xbce9a3ce	-0.028520491
71	0xbdebf934	-0.11522141
72	0x3c51611f	0.012779503
73	0xbc875171	-0.016518326
74	0xbda0bd89	-0.07848651
75	0x3de04869	0.10951311
76	0xbe259856	-0.16171393
77	0xbdb28db0	-0.08718431
78	0xbd4a4cfd	-0.049389828
79	0x3cc5159c	0.024058156
80	0xbe205e45	-0.15660961
81	0x3e3897dd	0.18026681
82	0x3d2c3a33	0.04204769
83	0x3d8d1fdd	0.06890843
84	0xbd274f81	-0.040847305
85	0xbd3a5690	-0.04549271
86	0xbe270601	-0.16310884
87	0x3ddbf6ad	0.10740409
88	0xbdb0003f	-0.08593797
89	0x3d9b21b6	0.07574789
90	0xbce6f0c2	-0.028190974
91	0xbda4aa2a	-0.08040269
92	0xbd535405	-0.0515938
93	0xbe23cc48	-0.15995896
94	0x3d39e6fb	0.045386296
95	0x3dd9bf92	0.10632242

Network_stack.0.0.gru.bias_hh_l1 f4 [96]
0	0x3d117da8	0.035520226
1	0x3e1a0cba	0.15043917
2	0x3e39e1e0	0.1815257
3	0xbdf66e30	-0.12032735
4	0x3ddc68a6	0.107621476
5	0xbd092779	-0.03348491
6	0x3e0b7645	0.13619335
7	0x3e3b9a97	0.1832069
8	0x3e13847f	0.14406012
9	0xbcee80ab	-0.029114088
10	0xbe0c8cf4	-0.13725644
11	0xbe1ec740	-0.15505695
12	0x3db329d1	0.0874821
13	0x3e0148a2	0.12625363
14	0xbdc7a635	-0.09748498
15	0xbd9829c6	-0.07429843
16	0x3bd04255	0.0063555636
17	0xbc395cb0	-0.011313602
18	0xbcb06d45	-0.021536479
19	0x3dc05c68	0.09392625
20	0x3b76e87a	0.0037675188
21	0x3bd38695	0.0064552524
22	0x3dedad9e	0.116053805
23	0xbdd56e68	-0.10421449
24	0x3e82fa61	0.2558165
25	0x3e242167	0.16028367
26	0xbd9750dc	-0.073884696
27	0x3e2ce385	0.16883667
28	0xbe28cb47	-0.16483794
29	0xbd2fc980	-0.042916775
30	0xbde71e87	-0.112851195
31	0x3dbeab80	0.09310055
32	0xbe23cb85	-0.15995605
33	0x3d00221a	0.03128252
34	0x3ea86953	0.32892856
35	0xbe1e69f2	-0.15470102
36	0xbe006301	-0.12537767
37	0x3cd07c1b	0.025449803
38	0x3e382f17	0.17986713
39	0xbde16f83	-0.11007597
40	0x3dbb63e7	0.09149914
41	0x3dba7421	0.09104181
42	0x3e579f4d	0.21056862
43	0xbe491671	-0.19637467
44	0x3d01c79b	0.0316845
45	0x3e897842	0.26849562
46	0x3df5daeb	0.12004646
47	0x3d49cbc2	0.049266584
48	0x3e0c1efb	0.13683693
49	0x3db755fb	0.08951946
50	0x3d0350f3	0.03205962
51	0xbdd2688e	-0.102738485
52	0xbbe9004e	-0.007110632
53	0xbc5d3922	-0.013502391
54	0xbe421f6f	-0.18957303
55	0xb9f69179	-0.00047029162
56	0x3d966ba8	0.073447526
57	0xbe28a440	-0.16468906
58	0xbcbcc140	-0.023041368
59	0x3d4f9d12	0.050686903
60	0x3e6d17ad	0.23153563
61	0xbe194273	-0.14966755
62	0xbe1504b3	-0.14552574
63	0xbcea2b29	-0.028585033
64	0xbbeef942	-0.0072928974
65	0xbdf17047	-0.11788993
66	0x3dcca74e	0.09992848
67	0xbcc863d7	-0.02446167
68	0x3e1b4cac	0.15165967
69	0xbdf13b00	-0.117788315
70	0xbda6a242	-0.08136417
71	0xbe18123f	-0.1485071
72	0x3ce6a66a	0.028155524
73	0xbcf1b27a	-0.02950405
74	0xbca7ea57	-0.020497484
75	0x3dad3218	0.0845682
76	0x3d589ecf	0.052885827
77	0xbd3b3e0f	-0.04571348
78	0xbd287953	-0.04113133
79	0xbe06f6ce	-0.13180086
80	0xbe276df0	-0.16350532
81	0x3e098a3b	0.13431637
82	0x3dd1489d	0.10218928
83	0x3ceafebd	0.028685922
84	0xbe2529cb	-0.16129224
85	0xbe05c411	-0.13063075
86	0xbe307367	-0.17231523
87	0x3cc5fe29	0.024169045
88	0xbcb91194	-0.02259139
89	0xbd8ace37	-0.067776136
90	0x3e07aac7	0.1324874
91	0x3e2a4887	0.1662923
92	0x3d0cfe9e	0.03442251
93	0x3c7fd859	0.015615546
94	0xbc4513c3	-0.012028637
95	0xbd12ade7	-0.035810377

Network_stack.1.0.gru.weight_ih_l0 f4 [96, 2]
0	0x3e18393a	0.1486558
1	0xbdf3b6bf	-0.119000904
2	0xbcfc97b5	-0.030834058
3	0x3d119b2c	0.035548374
4	0x3d7eeffa	0.06224058
5	0xbe109e89	-0.14122976
6	0x3c56b842	0.013105454
7	0x3d54ceb2	0.051954933
8	0xbe14e433	-0.14540176
9	0xbdd43a9a	-0.1036274
10	0xbdad3b1e	-0.08458541
11	0xbe2d9ccb	-0.16954343
12	0x3d0ee3b9	0.034885142
13	0xbe3845e5	-0.17995413
14	0xbe24fc3a	-0.16111842
15	0x3d5dc225	0.05414023
16	0xbdc9b1a7	-0.098483376
17	0xbd9f4ca2	-0.077782884
18	0x3e194917	0.14969288
19	0x3dc06f60	0.09396243
20	0xbe0d128c	-0.13776606
21	0x3e13e237	0.14441763
22	0x3df1dc8e	0.118096456
23	0xbde6f746	-0.112776324
24	0x3dcdc0ca	0.10046537
25	0xbbb658f2	-0.0055648023
26	0xbe1acbbb	-0.1511678
27	0xbdf1a4d3	-0.11799016
28	0xbda3fb6d	-0.0800694
29	0x3dc25f04	0.09490779
30	0xbdff48bc	-0.12465045
31	0xbcc5ea7e	-0.024159666
32	0x3e22cc19	0.1589817
33	0x3d180e0f	0.037122782
34	0x3cd3d0e7	0.025856448
35	0xbc2d62b6	-0.010582617
36	0xbd5d48d8	-0.054024547
37	0xbe2e2568	-0.17006457
38	0xbdeac582	-0.11463453
39	0x3d5bbfe9	0.053649817
40	0xbd7db00e	-0.061935477
41	0xbdc1ddb3	-0.09466114
42	0x3e1cd7b4	0.15316659
43	0x3c88beaf	0.016692488
44	0xbd89a587	-0.06721025
45	0x3e2d3b48	0.16917145
46	0x3d5f9012	0.054580756
47	0x3dcbd766	0.09953193
48	0xbe163ead	-0.14672346
49	0x3e2be4bf	0.16786478
50	0xbe336143	-0.17517571
51	0x3d5638fa	0.05230043
52	0xbe37d11c	-0.17950863
53	0x3c138d49	0.009005853
54	0x3df2dd73	0.11858644
55	0xbe3d25a8	-0.18471396
56	0xbe2cd069	-0.16876377
57	0x3d958e32	0.07302512
58	0x3d27bb2d	0.04094999
59	0x3def021e	0.11670326
60	0xbe354291	-0.17701174
61	0x3d1f0386	0.03882172
62	0x3db71a6d	0.08940587
63	0xbdb566e3	-0.08857515
64	0xbdc042a7	-0.09387713
65	0x3dfd6eeb	0.123746715
66	0xbdf4d799	-0.119551845
67	0xbe3f0cfc	-0.18657297
68	0xbbf44274	-0.007454211
69	0x3f00a1b9	0.5024677
70	0xbd9a118b	-0.07522877
71	0xbd8baf03	-0.0682049
72	0xbe02d132	-0.12775114
73	0x3e129a90	0.14316773
74	0x3dec4986	0.11537461
75	0x387f3bef	6.0852555e-05
76	0x3e1f58d7	0.15561233
77	0x3e12eafc	0.14347452
78	0x3e03a156	0.12854514
79	0xbd5bf174	-0.053697065
80	0xbd8f2264	-0.06988981
81	0xbd428879	-0.04749343
82	0x3c7d0575	0.015443196
83	0x3d831c15	0.064018406
84	0xbe288494	-0.16456825
85	0xbe4d55b9	-0.20052232
86	0xbd727c3d	-0.059200514
87	0xbdd8d814	-0.10588089
88	0xbf0af803	-0.54284686
89	0xbea81b57	-0.3283336
90	0x3e57a2c4	0.21058184
91	0xbe32d75c	-0.17464966
92	0xbd4839ba	-0.048883177
93	0x3ddb464c	0.107067674
94	0xbec4e0ee	-0.38452858
95	0xbd7554a2	-0.059895165
96	0xbc846d30	-0.016165346
97	0xbe3b2db8	-0.18279159
98	0x3a131097	0.0005610077
99	0xbd64386e	-0.055717878
100	0x3dfa9487	0.122353606
101	0xbdd37120	-0.10324311
102	0xbdde2503	-0.10846903
103	0x3de3e576	0.111277506
104	0x3d8a3bd2	0.06749691
105	0x3da80d52	0.08205666
106	0xbdd3589c	-0.10319635
107	0xbca5d490	-0.02024296
108	0xbe300783	-0.17190365
109	0xbd57fbdd	-0.05273043
110	0xbddd62a2	-0.10809828
111	0xbdf71e22	-0.12066294
112	0xbd9b92c8	-0.07596356
113	0xbd75e04c	-0.06002836
114	0x3e0c1533	0.13679962
115	0xbdd6bc37	-0.10485118
116	0xbe206e9f	-0.15667199
117	0xbd29d373	-0.04146142
118	0x3ccd9759	0.025096582
119	0xbe88a02a	-0.26684695
120	0x3d0811ca	0.03322009
121	0x3dc960bc	0.09832904
122	0xbe280bc4	-0.16410738
123	0xbaa4eb3a	-0.001258231
124	0x3dc3a64c	0.09553203
125	0x3dc4a045	0.096008815
126	0xbe12eead	-0.1434886
127	0xbd0a219e	-0.033723466
128	0x3e20253f	0.15639208
129	0xbcd0e4e8	-0.025499776
130	0x3dded985	0.10881332
131	0x3e0857c6	0.13314733
132	0x3dd0919a	0.10184021
133	0x3dbc47c2	0.09193374
134	0xbca3d8ee	-0.020000901
135	0x3db2a538	0.08722919
136	0xbe36bdde	-0.17845866
137	0x3ddb8198	0.107180774
138	0xbc9aed5c	-0.01891201
139	0x3c892f1a	0.016746093
140	0x3e0cad4a	0.1373798
141	0xbdd61e02	-0.10454942
142	0xbd9e4dad	-0.07729659
143	0xbda18329	-0.07886345
144	0x3db56684	0.08857444
145	0xbd1c5e8f	-0.038176116
146	0x3db12a01	0.0865059
147	0x3e2b236a	0.16712728
148	0x3dfa9981	0.1223631
149	0x3d9d3020	0.07675195
150	0x3c8bce82	0.017066244
151	0xbd1c80a1	-0.038208608
152	0x3cfb183b	0.030651202
153	0xbe4b2662	-0.1983886
154	0xbe27a653	-0.16372041
155	0x3ce01fb6	0.027358871
156	0x3e1d726a	0.15375677
157	0x3cf5d586	0.030009042
158	0x3e157757	0.14596306
159	0x3e6dff1a	0.23241845
160	0xbdddc4b5	-0.108285345
161	0x3c71603c	0.014732417
162	0x3d6358d3	0.05550463
163	0x3daec055	0.08532778
164	0x3dce6835	0.1007847
165	0xbce37189	-0.027764099
166	0xbe090d8c	-0.13384074
167	0x3dd7cf97	0.105376415
168	0xbdbcf80d	-0.092269994
169	0x3d4468f5	0.047951657
170	0x3e039111	0.12848307
171	0xbd12f186	-0.035874866
172	0x3cd1fcce	0.025633242
173	0x3e0b4643	0.13601021
174	0xbdb64886	-0.089005515
175	0xbe1b9623	-0.15193991
176	0xbb821e30	-0.003970884
177	0x3d73a87e	0.05948686
178	0x3da95248	0.08267647
179	0x3df37969	0.118883915
180	0xbde9b44d	-0.11411343
181	0xbdbe6ca5	-0.09298066
182	0xbdd22bc6	-0.10262255
183	0xbe0bb47f	-0.13643073
184	0xbe185bdc	-0.14878792
185	0x3ce13f28	0.027495936
186	0x3e079908	0.1324197
187	0xbd8a5ce9	-0.067560025
188	0xbd765f1e	-0.060149305
189	0xbdde1364	-0.10843542
190	0x3d2ac92a	0.04169575
191	0xbe294919	-0.16531791

Network_stack.1.0.gru.weight_hh_l0 f4 [96, 32]
0	0x3d371291	0.04469544
1	0xbdd35d39	-0.10320515
2	0x3e1549da	0.14578953
3	0xbe294b38	-0.165326
4	0xbe01d938	-0.12680519
5	0xbd861ad1	-0.065480836
6	0xbe1c5b77	-0.15269266
7	0x3de1cbb7	0.11025184
8	0x3dc7066e	0.09718023
9	0x3e126925	0.14297922
10	0x3ddcbb60	0.107779264
11	0xbe253ca2	-0.16136411
12	0xbe1dfbe6	-0.15428123
13	0xbd9dc964	-0.07704428
14	0xbdc80015	-0.09765641
15	0xbda81ce1	-0.08208633
16	0xbdf2900a	-0.118438795
17	0x3c16914f	0.009189918
18	0x3e157a16	0.14597353
19	0x3cbeaa7e	0.023274656
20	0xbe271922	-0.16318181
21	0xbe01d79f	-0.12679909
22	0x3e310fbf	0.17291163
23	0xbd5f9664	-0.054586783
24	0xbc4f15b2	-0.01263945
25	0xbdc0a02c	-0.0940555
26	0xbe1c64c5	-0.15272816
27	0x3e2f8f39	0.17144479
28	0xbdfa425e	-0.1221969
29	0xbe1ea2c6	-0.1549178
30	0xbda08618	-0.07838076
31	0x3e0d9c92	0.13829258
32	0xbd8ec4a5	-0.06971101
33	0x3c965945	0.018353114
34	0x3b4f1f55	0.0031604369
35	0xbe15e953	-0.14639787
36	0x3dfeca67	0.12440949
37	0x3d0d422c	0.034486935
38	0xbe0684e8	-0.13136637
39	0xbe10163a	-0.14070979
40	0xbd8ec17a	-0.069704965
41	0xbd7b5f11	-0.06136996
42	0x3e02f3be	0.12788293
43	0x3e1489f5	0.14505751
44	0x3e13bc80	0.14427376
45	0x3d987cb4	0.0744566
46	0xbdb63741	-0.088972576
47	0xbcb81590	-0.02247122
48	0x3df50df5	0.11965553
49	0x3e2395b7	0.1597508
50	0xbdb5d643	-0.08878758
51	0x3db0feda	0.08642359
52	0xbd868cb0	-0.06569803
53	0x3de094e0	0.10965896
54	0xbe0d0652	-0.13771942
55	0xbc93c179	-0.01803659
56	0xbdee1b90	-0.11626351
57	0xbe2a98d7	-0.16659866
58	0xbdbdc662	-0.09266354
59	0x3a077781	0.0005167649
60	0x3db12a1c	0.0865061
61	0xbdebf4f9	-0.11521334
62	0xbd881bde	-0.0664594
63	0x3d704e84	0.05866863
64	0xbda842b8	-0.082158506
65	0x3df7bf2c	0.1209701
66	0x3bb3706f	0.0054760496
67	0x3c643dd8	0.01393076
68	0x3dc380c8	0.095460474
69	0xbdf9c2c2	-0.1219535
70	0x3cc773aa	0.024347145
71	0x3e352478	0.17689693
72	0xbcd06f14	-0.025443591
73	0x3c518b47	0.012789554
74	0xbc273136	-0.010204604
75	0xbdbc638b	-0.09198674
76	0x3e1af3c4	0.15132052
77	0xbd213799	-0.039359663
78	0x3d64bcee	0.05584424
79	0xbdbcf282	-0.09225942
80	0xbe10972b	-0.14120166
81	0x3da75dc0	0.08172178
82	0xbe02fa28	-0.1279074
83	0xbd1c02ec	-0.038088724
84	0xbdce563d	-0.100750424
85	0xbe002721	-0.12514926
86	0x3e148b2e	0.14506218
87	0x3e1e002e	0.15429756
88	0x3cd88637	0.026431186
89	0x3c1041e3	0.008804771
90	0x3e0bc137	0.13647924
91	0xbdf76131	-0.12079085
92	0xbdc711ea	-0.09720214
93	0x3e3b16bf	0.18270396
94	0xbe0d6680	-0.13808632
95	0xbdd3e685	-0.103467025
96	0x3e0ec449	0.13942064
97	0xbd6fd6f7	-0.058554616
98	0x3e194894	0.14969093
99	0xbcbc8781	-0.023013832
100	0x3d642508	0.05569938
101	0x3d8750b4	0.0660719
102	0xbe16dd09	-0.14732756
103	0x3e04eac4	0.12980181
104	0xbd7d2e12	-0.061811514
105	0x3e1db4a3	0.15400939
106	0xbd005dbb	-0.03133939
107	0x3c71f083	0.014766815
108	0xbe0c74db	-0.13716452
109	0xbd8d43d9	-0.068977065
110	0x3d24ad05	0.040204067
111	0xbe3dd926	-0.18539867
112	0x3bee2468	0.0072675236
113	0xbd0186c8	-0.031622678
114	0x3e232eba	0.15935794
115	0xbcd8cad8	-0.026463911
116	0xbe25cccd	-0.16191407
117	0xbde0ae7a	-0.10970779
118	0xbe1c628c	-0.15271968
119	0x3e3aeb0b	0.18253724
120	0xbd47292d	-0.048623253
121	0xbe10451d	-0.14088865
122	0xbcb73341	-0.022363307
123	0x3c467524	0.012112889
124	0xbcbdf997	-0.023190303
125	0xbd360644	-0.04443957
126	0x3cf97d76	0.030455332
127	0xbce18b7b	-0.02753233
128	0xbe0a4ff4	-0.13507062
129	0xbdf5e8c3	-0.120072864
130	0xbe015ee0	-0.12633848
131	0xbe020e80	-0.12700844
132	0xbdd17ef6	-0.10229294
133	0x3df540fa	0.11975284
134	0xbdec1e94	-0.1152927
135	0xbdc95791	-0.09831155
136	0xbe22c2a9	-0.1589457
137	0xbbccdcf5	-0.006251926
138	0xbdc12cdc	-0.09432384
139	0xbcc8bd17	-0.024504228
140	0x3e30ceb4	0.17266351
141	0x3e0db20e	0.13837454
142	0xbddf19c9	-0.1089359
143	0xbdfdc431	-0.12390936
144	0x3dc66fb8	0.096892774
145	0x3c3a4114	0.011368055
146	0x3e3dcec6	0.18535909
147	0xbe341d9b	-0.17589419
148	0x3dfe3f15	0.12414376
149	0x3cd8b66b	0.026454171
150	0xbe0a6dbd	-0.13518424
151	0x3e15b584	0.14620024
152	0xbccbaeb7	-0.024863584
153	0x3e33fe4a	0.17577472
154	0xbd8bfd90	-0.068354726
155	0xbdee0f93	-0.11624064
156	0x3d37a5fe	0.044836037
157	0xbdbd3f9e	-0.0924065
158	0x3d6f8273	0.058474015
159	0x3d7796ee	0.060446672
160	0xbcea6198	-0.02861099
161	0xbd1de5c0	-0.038549185
162	0x3dd0d6e7	0.10197239
163	0x3e3c22a9	0.18372597
164	0x3d5c7763	0.053824794
165	0x3e1edc93	0.1551383
166	0x3e27c67c	0.1638431
167	0xbc8fd9d1	-0.017559918
168	0xbd051d89	-0.03249887
169	0x3dd68b25	0.104757585
170	0xbd9a1473	-0.07523432
171	0xbd302f12	-0.04301364
172	0x3de04c66	0.10952072
173	0x3ca7527b	0.020425072
174	0x3dbffc47	0.0937429
175	0xbe3e3f83	-0.18578915
176	0xbded9e06	-0.11602406
177	0xbda1a240	-0.07892275
178	0x3e0d62b5	0.13807185
179	0xbdb37a86	-0.08763604
180	0xbb7999ff	-0.0038086174
181	0xbd96449e	-0.073373064
182	0x3db308a8	0.087418854
183	0x3e13c0a2	0.14428952
184	0x3c9e34af	0.01931223
185	0x3d9e7a2f	0.077381484
186	0xbe1fc237	-0.15601431
187	0xbe12cdbc	-0.14336294
188	0xbe01f48a	-0.1269094
189	0x3d163fb3	0.036681842
190	0xbdb9214a	-0.090395525
191	0x3daef99d	0.08543704
192	0x3c4f4962	0.012651773
193	0x3d1714cb	0.036885064
194	0x3e078c29	0.1323706
195	0xbe0147e6	-0.12625083
196	0xbe263e04	-0.16234595
197	0x3dd003bd	0.10156963
198	0x3c3335b1	0.010938094
199	0xbdc91ac7	-0.098195605
200	0xbd29903a	-0.04139731
201	0xbe2dd7e5	-0.16976888
202	0x3dbbaf4e	0.09164296
203	0xbe29ffe7	-0.16601525
204	0x3d7882ce	0.06067162
205	0x3e28a48e	0.16469023
206	0x3d22d771	0.039756242
207	0x3d8838b3	0.066514395
208	0xbe1b10be	-0.15143105
209	0x3e3500e0	0.17676115
210	0xbd3ed38d	-0.04658847
211	0x3ddc6c6d	0.10762868
212	0xbe20f1c0	-0.1571722
213	0x3dd273d2	0.10275997
214	0xbdbc699a	-0.091998294
215	0xbe0bef0b	-0.13665406
216	0xbe2e20a4	-0.17004639
217	0xbcd52f79	-0.026023613
218	0x3de02f69	0.10946543
219	0x3db9ff59	0.09081907
220	0xbe166419	-0.14686622
221	0x3e14fb7a	0.14549056
222	0xbe1713cd	-0.14753647
223	0x3dad19b0	0.08452165
224	0xbde54261	-0.111943014
225	0x3e16845c	0.14698929
226	0x3c53f69e	0.012937216
227	0x3dd29a24	0.10283306
228	0xbddd5891	-0.10807908
229	0x3cf2cb8d	0.029638076
230	0xbab254d0	-0.0013605598
231	0x3be18ea4	0.006883459
232	0x3e0d7571	0.13814332
233	0x3e1474bf	0.1449766
234	0x3e266db9	0.16252793
235	0xbde635ab	-0.11240705
236	0x3e1230df	0.14276455
237	0xbd5ca592	-0.053868838
238	0xbdd1de75	-0.102475084
239	0xbe28d8b3	-0.16488914
240	0xbda94918	-0.08265895
241	0x3d80f9e7	0.06297665
242	0xbd073753	-0.033011746
243	0xbdfb7f78	-0.12280172
244	0x3e09ade2	0.13445237
245	0xbde61abb	-0.11235567
246	0x3c83a226	0.01606853
247	0xbc0a4a95	-0.008440633
248	0x3c2ab9d7	0.010420284
249	0xbe0fe15c	-0.14050812
250	0xbd0e81e8	-0.034791857
251	0x3e071d5b	0.13194792
252	0xbe26277c	-0.16226
253	0x3db274a0	0.08713651
254	0xbd85e3ee	-0.06537615
255	0xbe17d0d1	-0.14825751

Network_stack.1.0.gru.bias_ih_l0 f4 [96]
0	0x3c101275	0.008793463
1	0x3c11e0bf	0.008903681
2	0xbe23c920	-0.15994692
3	0xbd851f37	-0.065000944
4	0x3c49d690	0.012319222
5	0xbd27bd1d	-0.040951837
6	0xbde49b88	-0.11162478
7	0x3dae42c2	0.08508827
8	0xbcdb5099	-0.02677183
9	0xbcd5920b	-0.026070615
10	0x3e0a85fb	0.13527672
11	0x3e073e8b	0.13207452
12	0x3e36cce4	0.17851597
13	0x3dce9fe1	0.10089088
14	0x3ded09bc	0.11574122
15	0x3d914e3b	0.070949994
16	0x3d88ee20	0.06686044
17	0xbd219183	-0.03944541
18	0x3c80f551	0.015741976
19	0x3e424f22	0.189755
20	0x3e353677	0.17696558
21	0x3dd1adbe	0.10238217
22	0xbdcb2c16	-0.09920518
23	0xbd5d7fe7	-0.054077055
24	0xbe1c5b0b	-0.15269105
25	0x3d96d8be	0.07365559
26	0xbd31e2bf	-0.043429133
27	0xbd424c1a	-0.047435857
28	0xbdac5241	-0.08414126
29	0xbdefdcca	-0.11712034
30	0x3e243e2a	0.16039339
31	0x3cf5ab73	0.02998898
32	0xbdeb88ec	-0.11500725
33	0xbe51e56d	-0.20497675
34	0xbe6b7a5f	-0.229959
35	0xbcbe42d1	-0.02322522
36	0x3cd047f4	0.025424935
37	0x3de37053	0.111054085
38	0x3cf0b48e	0.02938297
39	0xbcb93dd8	-0.022612497
40	0xbe21d38c	-0.15803355
41	0xbdc3c9c0	-0.09559965
42	0x3c8fb9af	0.017544596
43	0xbe015c66	-0.12632903
44	0xbed76e63	-0.42076406
45	0x3e571ecb	0.2100784
46	0xbd601fcd	-0.054717828
47	0xbe92bc83	-0.28659448
48	0x3b8d8473	0.0043187677
49	0xbb980356	-0.0046390695
50	0xbd22e61c	-0.03977023
51	0xbca9078d	-0.020633483
52	0xbb17b314	-0.002314751
53	0x3d894a5d	0.06703637
54	0xbe33fce5	-0.1757694
55	0xbe002a97	-0.12516247
56	0x3d8f54a0	0.06998563
57	0x3e05e0cb	0.13074033
58	0x3dee823a	0.116459325
59	0x3df151cf	0.11783182
60	0xbde29ea4	-0.110654145
61	0x3c8c896f	0.017155377
62	0x3d96f6d1	0.07371295
63	0xbde9ad90	-0.114100575
64	0x3cc62b51	0.024190577
65	0x3e333b6b	0.17503135
66	0xbe05df70	-0.13073516
67	0xbe2dfac0	-0.16990185
68	0xbc55e1a4	-0.013054285
69	0xba87f861	-0.0010373705
70	0xbe1fb68f	-0.15596984
71	0x3dafdb4c	0.085867494
72	0xbdc76e1c	-0.097377986
73	0x3dcd0cd7	0.10012215
74	0x3e2c7e0c	0.16844958
75	0xbe2c2668	-0.16811526
76	0x3d08c77f	0.03339338
77	0x3e111e5c	0.14171737
78	0x3adc435c	0.0016804743
79	0xbd811b9e	-0.06304096
80	0xbe0f0b53	-0.13969164
81	0xb9ee3e7a	-0.00045441446
82	0x3e045fb5	0.12927134
83	0xbdc4615e	-0.09588884
84	0xbd820f22	-0.063505426
85	0x3e193479	0.14961423
86	0xbdcc04b9	-0.09961838
87	0x3e2f64c5	0.17128284
88	0xbe177514	-0.14790756
89	0x3e1e019b	0.154303
90	0x3cd82ac2	0.026387576
91	0xbe090844	-0.1338206
92	0xbd771d65	-0.060330767
93	0x3e01a183	0.12659268
94	0x3d1e7f96	0.038695894
95	0x3e2cb46e	0.16865703
