models/model_uniform_region_0-0.3.0.6-0.9_multiple_Agentscc06369e.pth (torch, 87266 bytes, 18 tensors)

Network_stack.0.0.gru.weight_ih_l0 f4 [96, 2]
0	0xbc0e120b	-0.008671294
1	0xbdc6944b	-0.096962534
2	0xbe0c9553	-0.13728838
3	0x3e154d4f	0.14580272
4	0x3df20c3b	0.11818739
5	0xbd27f175	-0.041001756
6	0x3e03251e	0.12807128
7	0x3db570e7	0.08859425
8	0x3b8a9e9c	0.0042303335
9	0x3e2318d6	0.15927443
10	0x3e695ad9	0.22788562
11	0x3e58acce	0.2115967
12	0xbd25e9a2	-0.040506013
13	0x3e0976e1	0.13424255
14	0x3be2b4c3	0.006918521
15	0x3e038641	0.12844183
16	0xbd1fa4e0	-0.038975596
17	0xbdccaa24	-0.09993389
18	0xbdfdfa2b	-0.124012314
19	0x3e072534	0.13197786
20	0xbbda13bb	-0.006655184
21	0xbd966bf5	-0.0734481
22	0x3e0a8143	0.13525872
23	0x3dcf0512	0.10108389
24	0x3e10094e	0.1406605
25	0x3d4bc7a9	0.049750958
26	0x3b00fd1b	0.0019682113
27	0x3e18d211	0.14923884
28	0xbd4ac3f3	-0.049503278
29	0xbd9af7cd	-0.075667955
30	0x3e57412c	0.21020955
31	0x3d6432cf	0.055712517
32	0x3dfc7109	0.12326247
33	0x3e2eb624	0.17061669
34	0x3d2238e9	0.039605055
35	0x3db559d0	0.08855021
36	0xbd9cf57b	-0.07664009
37	0xbe205a08	-0.15659344
38	0x3d9fca3a	0.078022435
39	0xbdef2e5c	-0.11678764
40	0xbcb69261	-0.022286596
41	0xbdc515e8	-0.09623319
42	0x3b03da91	0.002011929
43	0x3e58532a	0.21125475
44	0x3f5bc1dc	0.8584268
45	0x3e361ad4	0.17783672
46	0x3d4a0054	0.04931672
47	0x3e653e36	0.22387013
48	0xbd3ba406	-0.04581072
49	0xbdae430c	-0.08508882
50	0x3cdb34cd	0.026758576
51	0x3d4aa2eb	0.049471777
52	0x3e02ecd8	0.12785661
53	0xbe31e4ad	-0.17372389
54	0xbe3ba215	-0.18323548
55	0xbe5c670d	-0.21523686
56	0x3e0732d7	0.13202988
57	0xbcc8f2d4	-0.024529852
58	0xbe2c6e28	-0.16838896
59	0x3e0ed382	0.13947871
60	0x3da39fbd	0.07989452
61	0xbcce3371	-0.025171014
62	0x3d97de55	0.07415453
63	0xbdfaa7ca	-0.122390345
64	0xbd6b50bf	-0.057450052
65	0xbe85eb74	-0.261562
66	0x3dda9c85	0.10674385
67	0xbc8023e2	-0.01564211
68	0xbe763e29	-0.2404715
69	0xbe809f17	-0.25121376
70	0xbeb9b759	-0.36272696
71	0xbec74793	-0.38921794
72	0xbf4e9fab	-0.80712384
73	0xbf07eeaf	-0.5309858
74	0x3d8b85f8	0.06812662
75	0xbd345a48	-0.04403141
76	0xbeae4917	-0.34040138
77	0xbd2e8c8b	-0.0426145
78	0xbe0ee372	-0.13953951
79	0x3bd5c7e7	0.0065240744
80	0xbe81583d	-0.25262633
81	0xbedb55e4	-0.42838967
82	0xbe5b990d	-0.21445103
83	0x3a33e15b	0.00068618887
84	0xbe13b047	-0.14422713
85	0x3d0c68e3	0.034279715
86	0xbef5dffc	-0.4802245
87	0xbee11681	-0.43962482
88	0xbdcdba86	-0.10045342
89	0xbe0c0e02	-0.13677219
90	0xbe9ac16c	-0.30225694
91	0x3a47ffbf	0.00076293567
92	0xbdb05040	-0.086090565
93	0xbe307c2b	-0.17234866
94	0xbf0c50e6	-0.5481094
95	0xbed86994	-0.4226805
96	0xbe75dc86	-0.24009904
97	0xbe981619	-0.2970436
98	0xbdc71bdd	-0.097221114
99	0xbd2d5e49	-0.042326245
100	0x3e7a680c	0.24453753
101	0xbd7391ea	-0.059465326
102	0x3d90ab6d	0.07063947
103	0xbea1b961	-0.31586745
104	0xbe81091b	-0.2520226
105	0xbe96738d	-0.29385033
106	0xbefb9698	-0.4913833
107	0xbea3c2a7	-0.31984445
108	0xbf0a82b8	-0.5410571
109	0xbe802420	-0.2502756
110	0xbee7f102	-0.45301062
111	0xbeb662a0	-0.3562212
112	0xbddb215f	-0.106997244
113	0xbd82ea63	-0.06392362
114	0xbdf2c5eb	-0.11854156
115	0xbd231c32	-0.03982181
116	0x3dc15c44	0.094414264
117	0xbe9fe807	-0.3123171
118	0x3e3a7c1e	0.1821141
119	0xbe82e449	-0.25564793
120	0xbc8e0696	-0.017337125
121	0xbd212d00	-0.039349556
122	0xbe6e2178	-0.23254955
123	0xbd46e5c0	-0.04855895
124	0xbe04c09f	-0.12964104
125	0xbdaaaf2b	-0.08334192
126	0xbf7d74a9	-0.99006134
127	0xbefe2a65	-0.4964172
128	0x3e058e5e	0.1304259
129	0xbdc651fd	-0.09683607
130	0x3e1c9ac0	0.15293407
131	0xbe1cdb62	-0.15318063
132	0xbe22a6d3	-0.15883951
133	0x3e13743e	0.14399812
134	0xbe357262	-0.17719415
135	0xbe11d104	-0.1423989
136	0xbe9ccb9e	-0.30624098
137	0xbe0aed06	-0.1356698
138	0x3dc55e22	0.09637095
139	0x3d8bdadb	0.06828853
140	0x3df3ce1f	0.11904549
141	0x3d07336a	0.033008017
142	0x3dd1b654	0.102398545
143	0xbe02fb11	-0.12791087
144	0xbe5d2996	-0.21597895
145	0x3e3c9bd3	0.18418817
146	0x3d03ff5e	0.03222596
147	0xbcb878f5	-0.022518614
148	0xbe2dc76c	-0.16970605
149	0xbddcbd1c	-0.10778257
150	0xbe165a6b	-0.14682929
151	0x3c94ef22	0.018180434
152	0x3e0ee0b8	0.13952911
153	0x3da95534	0.08268204
154	0xbdd13b53	-0.10216393
155	0xbd270293	-0.04077394
156	0x3dc66999	0.0968811
157	0xbe25df99	-0.16198577
158	0x3e5ba8fc	0.21451181
159	0xbe264bfa	-0.1623992
160	0xbe254fdb	-0.16143744
161	0xbdbec928	-0.09315711
162	0xbe2007c1	-0.15627958
163	0xbdc2b892	-0.0950786
164	0x3d9de1e6	0.07709102
165	0x3dcd10c9	0.10012967
166	0xbd494451	-0.049137417
167	0xbd4c7751	-0.049918476
168	0xbe2a1c30	-0.16612315
169	0x3d041a0c	0.032251403
170	0x3e238f0b	0.15972535
171	0xbdd6ca32	-0.104877844
172	0xbd3e41ed	-0.04644959
173	0x3e122d3e	0.14275071
174	0x3e049d7e	0.12950704
175	0x3d3a04b1	0.04541463
176	0xbe14f85e	-0.1454787
177	0xbdf40195	-0.11914364
178	0xbb32b88c	-0.0027270643
179	0x3dd7be0a	0.10534294
180	0xbd3b803d	-0.045776594
181	0x3e0b4115	0.13599046
182	0x3e27ca2b	0.16385715
183	0xbe300d6d	-0.17192622
184	0xbc911f80	-0.017715216
185	0x3dec5b69	0.115408726
186	0xbdc17bda	-0.09447451
187	0xbdb37bfe	-0.08763884
188	0x3e561903	0.20907979
189	0x3d550ec2	0.052016027
190	0xbe955f24	-0.2917415
191	0xbcf31d4a	-0.029677052

Network_stack.0.0.gru.weight_hh_l0 f4 [96, 32]
0	0x3decc25a	0.11560507
1	0x3c25d973	0.010122645
2	0xbd29a125	-0.041413445
3	0xbe355f71	-0.1771219
4	0x3db93020	0.09042382
5	0x3d55b018	0.05216989
6	0x3dc6a08e	0.09698592
7	0xbded3fb5	-0.11584417
8	0x3cf4a35c	0.029863052
9	0x3ddf5e8a	0.10906704
10	0x3d42e155	0.047578175
11	0xbe01d722	-0.12679723
12	0x3d839502	0.06424905
13	0xbdf78400	-0.12085724
14	0x3e24a58a	0.16078773
15	0xbd8af070	-0.06784141
16	0xbd01c65a	-0.031683303
17	0xbe0006d2	-0.12502602
18	0x3e14b433	0.14521866
19	0x3de7f1c1	0.11325408
20	0x3dc9abf1	0.09847248
21	0x3dcc5c33	0.09978523
22	0xbe0fdb1d	-0.14048429
23	0x3e0c7a88	0.13718617
24	0xbca96410	-0.020677596
25	0x3e198c6c	0.14994973
26	0xbddd0e83	-0.107937835
27	0xbc6df094	-0.01452269
28	0xbe027540	-0.1274004
29	0xbd3f4192	-0.046693392
30	0xbdd2e0b0	-0.10296762
31	0xbe1682ab	-0.14698283
32	0xbe18279a	-0.14858857
33	0xbd4e9b84	-0.05044128
34	0x3bf5c23f	0.0074999626
35	0xbe169418	-0.14704931
36	0xbe297fc8	-0.16552651
37	0xbddc89cf	-0.107684724
38	0x3e23a89a	0.15982285
39	0xbdd963d3	-0.10614743
40	0xbd4d2b44	-0.05009009
41	0xbd024d9b	-0.03181229
42	0x3df0a71a	0.11750622
43	0xbe0e9e3a	-0.13927546
44	0x3d993d2a	0.07482369
45	0xbe1747f0	-0.14773536
46	0x3dee539c	0.11637041
47	0xbc434808	-0.011919029
48	0xbdd02dd0	-0.10164988
49	0xbd1e8661	-0.038702372
50	0xbd8dc7aa	-0.069228485
51	0x3e060226	0.13086757
52	0x3d468222	0.048463948
53	0x3d53d567	0.05171719
54	0x3d509166	0.050919913
55	0xbd0c3325	-0.034228463
56	0x3dba27a5	0.09089593
57	0x3bda4f5a	0.0066622915
58	0xbe39e119	-0.18152274
59	0x3d7c6c3b	0.061626654
60	0xbdb632a0	-0.08896375
61	0x3c078055	0.008270343
62	0x3da939e2	0.082629934
63	0xbd7634a1	-0.060108785
64	0xbcba12cd	-0.022714043
65	0x3c81924c	0.01581683
66	0x3e13d1f4	0.1443556
67	0x3e1b38bf	0.15158366
68	0xbde4c8da	-0.11171122
69	0x3d18d9ba	0.037317015
70	0x3dfc4359	0.12317533
71	0xbe1301ac	-0.14356107
72	0xbc7f922a	-0.015598813
73	0x3db16d3a	0.086634114
74	0x3d666ea7	0.05625787
75	0xbca0c3c9	-0.019624608
76	0xbe297a35	-0.16550525
77	0x3e246a6d	0.16056223
78	0x3d8573a1	0.06516195
79	0xbd7f8559	-0.06238303
80	0xbd5f46ac	-0.054510757
81	0x3c304d17	0.010760567
82	0xbe2027f6	-0.15640244
83	0x3dac3bc8	0.0840984
84	0x3d69573b	0.056967955
85	0x3e0c8fbb	0.13726704
86	0xbdeb9b9e	-0.11504291
87	0xbd80a64e	-0.0628172
88	0x3d875dc1	0.06609679
89	0xbe3bf260	-0.18354177
90	0xbdc51db3	-0.09624805
91	0x3e0f1490	0.13972688
92	0xbd9acf75	-0.075591005
93	0x3e2ffb40	0.17185688
94	0xbd9e85ea	-0.07740386
95	0xbc82fc6a	-0.015989501
96	0x3e02d546	0.1277667
97	0xbd30329d	-0.04301702
98	0xbd6569f1	-0.056009237
99	0xbda9a808	-0.082840025
100	0xbc4f5fc1	-0.012657107
101	0x3da710eb	0.08157524
102	0xbd92463b	-0.07142302
103	0x3d2c92ec	0.042132303
104	0xbe61798b	-0.22019021
105	0xbd21ba9d	-0.03948461
106	0xbd2d5a72	-0.042322583
107	0xbe3ec8ff	-0.18631361
108	0x3d946720	0.07246232
109	0xbdacf5c1	-0.08445311
110	0x3d85983b	0.06523176
111	0x3d9c49de	0.076312765
112	0xbd4e3b17	-0.05034932
113	0xbe499269	-0.19684757
114	0x3d81c522	0.06336428
115	0x3d939cca	0.072076395
116	0xbe5a18a1	-0.21298458
117	0x3e5ec6e0	0.21755552
118	0xbe433cdf	-0.19066189
119	0x3e5fee86	0.21868333
120	0x3e1ad70a	0.15121093
121	0xbdd69956	-0.10478465
122	0xbcd594f6	-0.026072007
123	0xbe0b36fa	-0.1359519
124	0xbccadb7d	-0.024762863
125	0xbda21f39	-0.079161115
126	0x3cc0c790	0.023532659
127	0x3cbf6f0c	0.023368381
128	0x3e10c619	0.14138068
129	0x3df7dedb	0.12103053
130	0x3da718d8	0.081590354
131	0xbd07db79	-0.03316829
132	0x3eba1fdd	0.36352435
133	0x3db991a0	0.09060979
134	0x3ccad0ec	0.024757825
135	0x3ccfffe5	0.025390575
136	0xbcc63327	-0.024194313
137	0xbda2de5f	-0.0795257
138	0xbde8c39b	-0.11365434
139	0x3e3e7abf	0.18601511
140	0xbcfa0eb3	-0.030524587
141	0x3e0b6fe7	0.13616906
142	0xbd9198cc	-0.07109222
143	0xbe88ca27	-0.2671673
144	0x3e4f764a	0.20259967
145	0xbdcee2e3	-0.10101869
146	0x3cb0928b	0.021554252
147	0xbd59a793	-0.053138327
148	0x3d3303e0	0.043704867
149	0xbe4487af	-0.19192384
150	0xbd304f6e	-0.0430445
151	0x3c9bbb47	0.0190102
152	0x3e147730	0.14498591
153	0x3d531d04	0.051541343
154	0x3e3cfaa8	0.18454993
155	0xbd84ffb5	-0.06494085
156	0x3dd3bce2	0.10338761
157	0x3e59af1f	0.2125821
158	0xbe10aa26	-0.14127406
159	0x3e80b5dd	0.2513875
160	0x3deb7f25	0.1149886
161	0x3ea8e104	0.32984173
162	0x3e2b451f	0.16725586
163	0xbe868373	-0.26272163
164	0xbe1d7321	-0.1537595
165	0x3e81b451	0.25332883
166	0x3e1b172d	0.1514556
167	0xbea5460d	-0.32280007
168	0x3d77eab2	0.060526557
169	0x3e32aa92	0.1744788
170	0xbe0ea643	-0.13930611
171	0xbebb3c42	-0.3656941
172	0xbd09a351	-0.033603016
173	0xbdb40b9e	-0.08791278
174	0x3e8635dc	0.26212966
175	0x3e4f4c8f	0.20244049
176	0xbe92a905	-0.28644577
177	0x3cd9b409	0.026575105
178	0x3e885c35	0.26632848
179	0x3e26a02f	0.16272043
180	0xbed568c2	-0.41681486
181	0x3e260eef	0.16216634
182	0xbe285638	-0.1643914
183	0x3eb9761c	0.36222923
184	0xbdf9abcb	-0.1219097
185	0x3de72cec	0.11287865
186	0x3e5e68da	0.21719685
187	0xbdc06027	-0.093933396
188	0x3e0471e9	0.12934078
189	0x3e9cdf8f	0.30639312
190	0x3e9d3d33	0.30710754
191	0xbe540a75	-0.20707114
192	0xbc80317b	-0.015648594
193	0xbdf01a6a	-0.11723788
194	0xbe45f2b0	-0.19330859
195	0xbc89a58f	-0.016802577
196	0x3c144688	0.009050019
197	0xbdd95a0b	-0.106128775
198	0xbdd0df1c	-0.10198805
199	0xbd8b42b7	-0.06799834
200	0x3e0c72d7	0.13715683
201	0x3cff4c09	0.031164186
202	0xbe158649	-0.14602007
203	0xbe28ebb3	-0.16496162
204	0x3dd019cc	0.1016117
205	0xbda210e7	-0.0791338
206	0x3e4727b0	0.19448733
207	0x3e187ee1	0.1489215
208	0x3d32ecff	0.04368305
209	0x3d9adfbe	0.07562207
210	0x3dc1732d	0.09445796
211	0xbe9c1fa5	-0.30492893
212	0xbe2e43f4	-0.1701811
213	0x3e054013	0.13012724
214	0x3e4a99c6	0.19785222
215	0x3e423840	0.1896677
216	0xbd3c2768	-0.04593602
217	0xbd63b8e7	-0.05559626
218	0xbdfda84f	-0.12385618
219	0x3dbf7e10	0.093502164
220	0x3c1b0dc3	0.00946373
221	0x3d5d487f	0.054024216
222	0xbde841c1	-0.113406666
223	0xbd137875	-0.03600355
224	0x3d516762	0.051123984
225	0x3e05058d	0.12990399
226	0xbd539096	-0.05165156
227	0x3df88a79	0.121357866
228	0xbdf99014	-0.12185684
229	0xbe32f319	-0.17475547
230	0x3c6e9cdd	0.014563766
231	0xbdf5aaa0	-0.11995435
232	0xbe3d126d	-0.1846406
233	0xbe319977	-0.17343698
234	0x3dffb795	0.12486187
235	0x3dca4275	0.09875957
236	0xbd184775	-0.03717752
237	0xbc994991	-0.018711837
238	0x3e39d578	0.18147838
239	0x3da4dfb5	0.08050481
240	0xbe2b4d60	-0.16728735
241	0xbd6632f8	-0.05620095
242	0x3e02d5d4	0.12776881
243	0x3d189b03	0.037257206
244	0x3d80e38c	0.06293401
245	0x3dc5b31a	0.096533015
246	0xbcb9b994	-0.022671498
247	0x3ddf8993	0.10914912
248	0xbc8d02b5	-0.017213205
249	0xbdcbebc8	-0.09957081
250	0xbd8f0e5c	-0.06985161
251	0xbd7b8a2a	-0.06141106
252	0xbd7bb316	-0.061450087
253	0x3e2a5edd	0.1663775
254	0xbe102c93	-0.14079504
255	0xbdf5f383	-0.12009337

Network_stack.0.0.gru.bias_ih_l0 f4 [96]
0	0xbc023781	-0.0079478035
1	0xbc100e2d	-0.008792442
2	0xbe17464c	-0.1477291
3	0x3d51ed80	0.05125189
4	0xbb412f3c	-0.0029477617
5	0x3d9695b4	0.07352772
6	0x3e0b21b8	0.13587081
7	0x3d14617f	0.036225792
8	0x3c81cae1	0.01584381
9	0x3c2329e6	0.00995872
10	0xbc91d538	-0.017801866
11	0x3dd68bdc	0.10475895
12	0xbe094954	-0.13406879
13	0xbe0cedd6	-0.13762602
14	0xbe06c07e	-0.13159367
15	0x3d529cdc	0.051419124
16	0xbe0d1983	-0.13779263
17	0x3d8c5b65	0.068533696
18	0xbdffe60e	-0.12495051
19	0x3caa11cc	0.02076044
20	0x3dff5110	0.12466633
21	0x3d471413	0.04860313
22	0x3f250b36	0.6447023
23	0xbc282ebf	-0.010265051
24	0xbca5f1e5	-0.020256946
25	0xbe0c0d6c	-0.13676995
26	0x3cca807a	0.024719466
27	0xbb0328c4	-0.0020013312
28	0xbd41eecb	-0.04734687
29	0xbd82c7ab	-0.0638574
30	0xbd978d2c	-0.07399973
31	0x3caeeb32	0.021352384
32	0x3d1c96ad	0.038229633
33	0x3dac6a9a	0.0841877
34	0xbf146dff	-0.5798034
35	0xbeea33fe	-0.45742792
36	0xbf2d6a28	-0.67740107
37	0x3c69927a	0.014256114
38	0xbe1ed887	-0.15512286
39	0xbe3ee73e	-0.186429
40	0xbf08bed6	-0.5341619
41	0xbe614072	-0.2199724
42	0xbe50d4fd	-0.20393749
43	0xbee17401	-0.44033816
44	0xbeae51fe	-0.3404693
45	0xbec44ab1	-0.38338235
46	0xbe938450	-0.28811884
47	0xbf01b333	-0.5066406
48	0xbeb03f70	-0.344234
49	0xbdf4870c	-0.11939821
50	0x3e2233a8	0.15840018
51	0xbe2a108d	-0.16607876
52	0xbe9280e8	-0.28613973
53	0xbf0b4f29	-0.54417664
54	0xbf0ad11c	-0.54225326
55	0xbef4ef53	-0.4783884
56	0x3d28c6e9	0.04120532
57	0xbe89f4d2	-0.26944596
58	0xbe170f73	-0.14751987
59	0xbe569bf8	-0.20957935
60	0xbe09aa9a	-0.13443986
61	0xbdf9474c	-0.12171802
62	0xbd611ea2	-0.054960854
63	0xbf650312	-0.8945781
64	0x3d53f2a5	0.051745076
65	0x3e29a9ec	0.16568726
66	0x3d99e905	0.07515148
67	0xbd4103fe	-0.047122948
68	0x3dbd40ff	0.09240913
69	0x3db80790	0.089858174
70	0x3c151252	0.009098606
71	0xbe106ecf	-0.1410477
72	0x3dde7301	0.10861779
73	0x3d4f1454	0.050556496
74	0xbcf3b771	-0.029750558
75	0x3cad905c	0.021187
76	0xbde6e36c	-0.11273846
77	0x3dfb7c63	0.12279584
78	0xbd35a0d2	-0.044342823
79	0xbdc5933c	-0.09647223
80	0x3dbe915e	0.0930507
81	0x3ca7f43d	0.020502204
82	0x3d8d24ae	0.06891762
83	0x3da3e1fb	0.08002087
84	0x3d577f2f	0.052611526
85	0xbcd4da5d	-0.02598303
86	0x3d9e15f2	0.077190295
87	0x3cc1be48	0.023650303
88	0xbe158b4b	-0.14603917
89	0x3d2b92a0	0.04188788
90	0x3d20e823	0.039283883
91	0xbe3f5c0e	-0.1868746
92	0x3d994810	0.07484448
93	0x3dc28e7f	0.09499835
94	0x3e0e91ae	0.1392276
95	0x3db6801e	0.08911155

Network_stack.0.0.gru.bias_hh_l0 f4 [96]
0	0xbe143d4b	-0.14476506
1	0x3d4cf581	0.05003882
2	0xbd968fdf	-0.0735166
3	0x3e094867	0.13406526
4	0x3e3f658d	0.18691082
5	0x3e36315e	0.1779227
6	0x3d25e08a	0.04049734
7	0xbdfe492d	-0.12416301
8	0x3e101004	0.1406861
9	0x3d83e1a8	0.06439525
10	0x3da06bfe	0.07833098
11	0x3d7aee65	0.061262507
12	0xbdaa5782	-0.08317472
13	0x3c7a7389	0.015286335
14	0xbe00e62c	-0.12587804
15	0x3e01294c	0.1261341
16	0x3de008ea	0.109392
17	0x3e5d784b	0.2162792
18	0x3dc7f30a	0.09763153
19	0x3e048b02	0.12943652
20	0x3e418e9a	0.18902054
21	0x3cb2eec1	0.021842362
22	0x3f0dc990	0.55385685
23	0x3e101338	0.14069831
24	0x3e283966	0.16428146
25	0xbddaa047	-0.10675102
26	0xbe1275f8	-0.14302814
27	0xbd39494a	-0.04523591
28	0x3ca4b0e0	0.020103872
29	0x3c8bb44e	0.01705375
30	0xbe0496a9	-0.12948097
31	0x3e1781f7	0.14795671
32	0xbe2832a0	-0.16425562
33	0xbd3b946a	-0.045795836
34	0xbecd392b	-0.40082678
35	0xbe8257bc	-0.2545756
36	0xbf21bf99	-0.6318298
37	0xbe23a574	-0.15981084
38	0xbd7e661a	-0.06210909
39	0xbe5d4d1a	-0.21611443
40	0xbf10e6aa	-0.56601965
41	0x3d1d1798	0.03835258
42	0x3d5cd058	0.05390963
43	0xbea42c4f	-0.32065055
44	0xbea1e730	-0.31621695
45	0xbe0e53ad	-0.13899107
46	0xbe8f9b9a	-0.28048402
47	0xbf06fb05	-0.52726775
48	0xbee41849	-0.44549778
49	0xbe70ea07	-0.23526774
50	0x3d8e705b	0.06955024
51	0xbe67698d	-0.22598858
52	0xbe860e5f	-0.2618284
53	0xbe6e8328	-0.2329222
54	0xbece550f	-0.4029927
55	0xbe9edcdd	-0.3102788
56	0xbd08b41a	-0.033374883
57	0xbdfff773	-0.12498369
58	0xbe7341d8	-0.23755586
59	0xbeebaaa6	-0.46028632
60	0x3d93b9a3	0.07213142
61	0xbe273873	-0.16330127
62	0xbe269dd1	-0.1627114
63	0xbf4a87a8	-0.79113245
64	0x3d80fcfd	0.06298254
65	0xbd30e87c	-0.043190464
66	0x3e058f3e	0.13042924
67	0x3e18404a	0.14868274
68	0x3e0790d8	0.13238847
69	0x3d763cf0	0.06011671
70	0x3dac539c	0.08414385
71	0xbe0c7406	-0.13716134
72	0x3e08882b	0.13333194
73	0x3d6952bd	0.05696367
74	0x3af11707	0.0018393704
75	0x3cef0120	0.029175341
76	0x3d829973	0.06376924
77	0xbe01bb05	-0.12668999
78	0x3d93c747	0.072157435
79	0x3d891329	0.06693108
80	0xbd8c3bdf	-0.06847357
81	0x3cfad2c5	0.03061808
82	0x3e161707	0.14657222
83	0x3d410e33	0.047132682
84	0xbde5ae68	-0.11214906
85	0x3d13b4df	0.036061164
86	0xbae3e2ca	-0.0017386314
87	0x3d9fde17	0.07806032
88	0x3e00dd98	0.12584531
89	0xbd95db31	-0.07317198
90	0x3dfe8ac1	0.12428809
91	0x3d1dbf96	0.03851279
92	0xbdee99d7	-0.11650436
93	0x3d96a067	0.07354813
94	0x3e172f81	0.14764215
95	0xbddad538	-0.106851995

Network_stack.0.0.gru.weight_ih_l1 f4 [96, 32]
0	0xbd6f4d52	-0.058423348
1	0xbe291ff5	-0.16516097
2	0x3d10f3e3	0.03538884
3	0x3e4f599f	0.20249031
4	0x3cd3f310	0.025872737
5	0xbc0e24eb	-0.008675794
6	0xbe3361ae	-0.1751773
7	0xbd69c4ce	-0.057072453
8	0xbdce65d2	-0.100780144
9	0x3e2c2886	0.16812333
10	0x3d59b3f7	0.053150143
11	0x3ba13075	0.0049191066
12	0x3cc9f9df	0.02465528
13	0xbcd20be2	-0.025640432
14	0xbe3175c8	-0.17330086
15	0x3d05bce4	0.032650843
16	0x3e3587e3	0.17727618
17	0xbe0bd0c6	-0.1365386
18	0x3e264d27	0.16240369
19	0x3d956010	0.07293713
20	0x3d0d4194	0.03448637
21	0x3e0ba1a3	0.13635878
22	0x3d325e5f	0.04354703
23	0xbe1ee0ae	-0.15515396
24	0xbe207c37	-0.15672384
25	0xbd63fe23	-0.055662286
26	0x3d284467	0.04108086
27	0x3d9ed875	0.0775613
28	0xbe17365e	-0.14766833
29	0x3e67cd49	0.22636904
30	0x3d8c087b	0.06837555
31	0xbe02cb70	-0.12772918
32	0xbde05946	-0.109545276
33	0xbc0edbae	-0.008719368
34	0x3db4a003	0.08819582
35	0xbe39ed6f	-0.1815698
36	0xbd837b15	-0.064199604
37	0xbcaa69b6	-0.02080236
38	0x3e407a07	0.1879655
39	0xbd05e428	-0.03268829
40	0xbe209832	-0.15683058
41	0x3d90e4b3	0.07074871
42	0xbe15f19e	-0.14642951
43	0xbe62d028	-0.22149718
44	0xbd94af74	-0.072600275
45	0x3d2ec824	0.042671338
46	0x3bf2e247	0.0074122283
47	0x3cd4d25e	0.025979217
48	0xbe07d337	-0.13264166
49	0xbda07534	-0.07834855
50	0x3e02d910	0.12778115
51	0x3e07bd35	0.1325577
52	0xbde2804c	-0.11059627
53	0x3e1fd347	0.1560794
54	0xbdeffd46	-0.1171823
55	0x3def21f5	0.11676399
56	0xbe137dd8	-0.14403474
57	0xbcbd3e73	-0.023101067
58	0x3d85b209	0.06528098
59	0xbd48e778	-0.04904887
60	0xbd010a09	-0.03150371
61	0xbe068f28	-0.13140547
62	0xbd810494	-0.06299701
63	0xbde03aaa	-0.10948689
64	0x3dc335b2	0.09531726
65	0xbd4a2538	-0.0493519
66	0xbd8bf9b9	-0.0683474
67	0x3e585648	0.21126664
68	0x3e27d05e	0.1638808
69	0x3e15d893	0.14633398
70	0x3dced06c	0.10098347
71	0x3e107780	0.14108086
72	0xbe0c21b0	-0.13684726
73	0xbc9ae47d	-0.01890778
74	0x3d544218	0.051820844
75	0x3d6cca84	0.05781032
76	0xbdbb19bd	-0.091357686
77	0x3dc110fd	0.094270684
78	0xbdcfea88	-0.10152155
79	0xbe2187ae	-0.15774414
80	0x3e07f567	0.13277207
81	0xbe0206ce	-0.12697908
82	0x3dc60993	0.09669795
83	0x3d9cb8f7	0.07652467
84	0xbd472cfa	-0.048626877
85	0xbe19f6ec	-0.150356
86	0xbdeac61b	-0.11463567
87	0xbe185ccd	-0.1487915
88	0xbd774ea0	-0.060377717
89	0x3e1fbbef	0.15599035
90	0xbbc85702	-0.0061138878
91	0x3e179f58	0.14806879
92	0xbdaec531	-0.08533705
93	0xbdc6ce5f	-0.09707331
94	0x3d39e46d	0.04538386
95	0x3e6bb7bc	0.23019308
96	0xbc338930	-0.010958001
97	0x3e111cfc	0.14171213
98	0x3d890f85	0.06692413
99	0xbe05a98b	-0.13052957
100	0x3d99755e	0.07493089
101	0x3c76fc53	0.015074807
102	0xbe2a4405	-0.1662751
103	0x3db3282e	0.08747898
104	0xbde1abf5	-0.11019126
105	0x3d34a5ef	0.04410356
106	0xbe219a82	-0.15781596
107	0xbdb4d722	-0.08830096
108	0x3ccca7a2	0.024982277
109	0x3d9f19f9	0.07768626
110	0x3dc1b232	0.09457816
111	0xbd5d8b5f	-0.054087993
112	0x3e2925d4	0.16518337
113	0xbe0a2995	-0.13492425
114	0xbcef087f	-0.029178856
115	0xbbdd7dd9	-0.006759387
116	0x3a49b614	0.0007694673
117	0x3c888126	0.016663145
118	0xbd883def	-0.06652438
119	0xbdd3ff22	-0.10351397
120	0x3d4fd7c1	0.05074287
121	0x3d6a8c99	0.05726299
122	0x3d946aff	0.072469704
123	0x3dd318e8	0.10307485
124	0x3b7426c3	0.003725455
125	0x3d68445a	0.05670581
126	0x3e0b0b79	0.13578595
127	0x3e1b5d03	0.151722
128	0xbe074a7c	-0.13212007
129	0xbd05916c	-0.03260939
130	0xbdd852cd	-0.10562668
131	0xbc3c089c	-0.011476662
132	0x3c89c031	0.016815277
133	0xbd7f71ca	-0.062364377
134	0xbdaf6c64	-0.08565596
135	0xbd97fa29	-0.07420761
136	0xbdba1505	-0.090860404
137	0x3e20302b	0.15643375
138	0x3d3979ac	0.04528205
139	0xbd954b25	-0.07289723
140	0x3cd4fb3e	0.025998708
141	0xbd3ba7f4	-0.04581447
142	0x3abf3bc6	0.0014589957
143	0x3e55595a	0.20834866
144	0x3e11fbec	0.14256257
145	0xbe4805bd	-0.19533439
146	0xbe061979	-0.13095655
147	0xbe2ff80e	-0.17184469
148	0xbdd7748c	-0.105202764
149	0x3ca41620	0.020030081
150	0x3d2ee052	0.042694397
151	0x3c81790a	0.015804786
152	0x3ce3509d	0.0277484
153	0x3da3f014	0.08004776
154	0xbe311902	-0.17294696
155	0x3d9c0692	0.07618441
156	0x3d479929	0.04873005
157	0xbe45b29b	-0.19306414
158	0x3e27e1ea	0.16394773
159	0xbcb2d677	-0.02183078
160	0xbe20db66	-0.15708694
161	0xbddf71ad	-0.10910354
162	0x3c2a612f	0.010399147
163	0xbd706ef1	-0.058699552
164	0xbe2bd960	-0.1678214
165	0x3ca5ce92	0.020240102
166	0xbdc985e2	-0.09839989
167	0x3e22fe40	0.15917301
168	0xbe461819	-0.1934513
169	0xbda6cdb6	-0.08144705
170	0x3d0ce190	0.0343948
171	0x3dc360b9	0.09539933
172	0xbdbd5abd	-0.092458226
173	0xbe52cad5	-0.20585187
174	0xbde686e7	-0.11256199
175	0xbc6b228c	-0.014351498
176	0x3dd27326	0.10275869
177	0x3de8cf17	0.11367624
178	0x3dcfbf6a	0.10143931
179	0xbdd8a62b	-0.10578569
180	0x3cdc044f	0.026857523
181	0x3e5e515d	0.21710725
182	0x3d6a5b53	0.057216
183	0x3d3b5c05	0.045742054
184	0xbe080714	-0.1328395
185	0x3e297b47	0.16550933
186	0x3dfeaa3d	0.12434814
187	0x3dd33648	0.10313088
188	0xbdb9a533	-0.090647124
189	0x3dedeb4a	0.116171435
190	0xbd826644	-0.06367162
191	0xbbe527e7	-0.006993282
192	0xbda7c06d	-0.08190999
193	0xbc4dec20	-0.012568504
194	0xbe4e35b9	-0.20137681
195	0xbcb95ca2	-0.022627179
196	0xbe80dd24	-0.25168717
197	0x3e322b25	0.17399271
198	0x3d37e81e	0.0448991
199	0xbd7b97bd	-0.061424006
200	0xbe0fdb52	-0.14048508
201	0x3dbf451f	0.09339356
202	0x3d96fdb4	0.07372609
203	0xbdf752cf	-0.12076341
204	0xbde6c1e4	-0.112674505
205	0xbd5b76b6	-0.05358001
206	0x3e1236dc	0.1427874
207	0x3e128db0	0.14311862
208	0xbe2299d1	-0.15878989
209	0x3c8d031e	0.0172134
210	0x3d0a0e9c	0.03370534
211	0x3da2f088	0.07956034
212	0xbd69d2f0	-0.05708593
213	0x3dec81e8	0.11548215
214	0x3cb6d5fc	0.022318833
215	0x3e2da874	0.16958791
216	0xbdbf938c	-0.09354314
217	0x3d7a10ff	0.061051365
218	0x3e1b5e53	0.151727
219	0x3e39561f	0.18099259
220	0xbdd45487	-0.10367685
221	0x3d44f24d	0.04808264
222	0x3d34c8a6	0.044136666
223	0xbe0f2e3c	-0.13982481
224	0xbc01e47b	-0.007928009
225	0x3b9616c5	0.004580351
226	0x3c598a46	0.013277596
227	0xbdd20b9e	-0.10256122
228	0xbd19999f	-0.03750002
229	0xbd42bd18	-0.047543615
230	0x3e0da336	0.13831791
231	0xbe25174d	-0.1612217
232	0x3def4bca	0.116843775
233	0xbb6f6872	-0.003653076
234	0xbdf87231	-0.12131155
235	0xbd6b2e5e	-0.057417266
236	0xbe087e84	-0.13329512
237	0x3c2fa794	0.010721106
238	0x3dd6d031	0.10488928
239	0x3cc6bac7	0.024258984
240	0xbe1952af	-0.14972948
241	0xbd60caf9	-0.05488107
242	0x3e110bf2	0.14164713
243	0xbd92bd1c	-0.07164976
244	0x3cb3c2ee	0.021943536
245	0x3e49d1b1	0.19708897
246	0xbe103d52	-0.14085892
247	0x3e20dfdb	0.15710394
248	0xbdc0e76e	-0.09419142
249	0xbe252a1f	-0.16129349
250	0xbdf88614	-0.121349484
251	0xbd3ed505	-0.04658987
252	0x3dd7a3f0	0.105293155
253	0x3d8e43dd	0.06946538
254	0xbbcd8611	-0.0062720855
255	0x3db8e2f9	0.090276666

Network_stack.0.0.gru.weight_hh_l1 f4 [96, 32]
0	0xbd99ef21	-0.07516313
1	0x3da20015	0.07910172
2	0x3e0ed870	0.13949752
3	0x3dd700db	0.1049821
4	0xbd177111	-0.036973063
5	0xbc8b386e	-0.016994681
6	0xbd2f8617	-0.042852487
7	0xbd5a2428	-0.053257138
8	0x3e0d3412	0.13789394
9	0xbc810be1	-0.015752735
10	0x3e5587ac	0.20852536
11	0x3d4d21eb	0.050081175
12	0x3d07e6e6	0.033179186
13	0x3e164573	0.1467493
14	0xbd2481d6	-0.040162884
15	0xbbdf167d	-0.0068081007
16	0xbe377d6a	-0.17918935
17	0x3d9e9bba	0.07744546
18	0x3dcc1344	0.09964612
19	0x3d6b6091	0.05746514
20	0x3e0037ab	0.12521236
21	0xbe315f71	-0.17321564
22	0xbdfd7241	-0.12375308
23	0xbddf4f25	-0.109037675
24	0x3da471dd	0.0802953
25	0x3e118433	0.14210586
26	0x3e2cbcd8	0.16868913
27	0x3c607299	0.013699197
28	0x3e0f8cc8	0.14018548
29	0xbe18887b	-0.14895813
30	0xbc817c46	-0.015806329
31	0x3e226926	0.15860423
32	0x3cd02a38	0.025410756
33	0xbc1ec930	-0.0096915215
34	0xbc669466	-0.014073467
35	0x3d3c7408	0.046009094
36	0xbe0ccf1e	-0.13750884
37	0x3d7aea9f	0.06125891
38	0x3df6e6c2	0.12055732
39	0xbe08e618	-0.13369024
40	0x3e2ac9f8	0.16678607
41	0xbd609711	-0.05483157
42	0x3e519745	0.20467861
43	0xbd8c8692	-0.06861605
44	0xbdf898fc	-0.121385545
45	0xbc17e8c3	-0.009271803
46	0xbe22d609	-0.1590196
47	0x3dc92977	0.09822362
48	0x3e400fa1	0.18755962
49	0x3e37cc64	0.17949063
50	0x3d5aff84	0.053466335
51	0xbca94997	-0.020664973
52	0x3e37a960	0.17935705
53	0xbb990825	-0.0046701604
54	0xbdb2aa0d	-0.08723841
55	0x3d4ee9c1	0.050515894
56	0x3dcaba56	0.09898822
57	0x3e003207	0.12519084
58	0xbe111a40	-0.1417017
59	0xbe29b409	-0.16572584
60	0x3db70c6e	0.08937918
61	0x3ddada62	0.106861845
62	0x3db691c0	0.08914518
63	0x3e0256de	0.1272845
64	0xbd1876f1	-0.037222806
65	0xbe081403	-0.13288884
66	0x3c7a0d45	0.015261953
67	0x3e177271	0.1478975
68	0xbe188892	-0.14895847
69	0x3e2796ff	0.16366194
70	0x3e27e548	0.16396058
71	0xbd4faec3	-0.050703775
72	0xbe37746f	-0.1791551
73	0x3cef1ed7	0.02918951
74	0xbe4e4ea9	-0.20147194
75	0x3d7d0cdc	0.06177984
76	0x3d903b22	0.07042529
77	0x3e2edac6	0.17075643
78	0x3d924869	0.071427174
79	0xbdded303	-0.10880091
80	0xbdc49ece	-0.09600602
81	0xbddf5d7c	-0.109065026
82	0xbcbb0024	-0.022827215
83	0xbd2eab3e	-0.042643778
84	0xbdc3a617	-0.095531635
85	0x3e3ec0d6	0.18628249
86	0xbde509f1	-0.11183537
87	0x3ccca6a7	0.02498181
88	0x3d1030aa	0.03520266
89	0xbc8d996d	-0.017285073
90	0x3dff7d91	0.12475122
91	0x3b54fdd5	0.0032499928
92	0xbe321dbc	-0.17394155
93	0x3e0fd768	0.14047015
94	0xbe23c5b3	-0.15993385
95	0x3e36bfac	0.17846555
96	0xbd92d2ea	-0.07169135
97	0x3e19508f	0.14972137
98	0xbd2a4205	-0.041566867
99	0x3db17273	0.086644076
100	0xbd4a97a9	-0.04946104
101	0x3d90f183	0.07077315
102	0x3db7edbe	0.089808926
103	0x3d89e293	0.06732669
104	0xbd932545	-0.07184843
105	0x3c9f6e2e	0.019461717
106	0x3e0564d3	0.13026743
107	0xbe3bcad5	-0.18339093
108	0x3d27a9df	0.040933486
109	0xbdb6708d	-0.08908186
110	0x3d443305	0.04790022
111	0xbd82895f	-0.06373858
112	0x3e2d4c8e	0.16923735
113	0xbe0a5c1a	-0.13511696
114	0xbdcb1251	-0.09915603
115	0x3e09fb3c	0.13474745
116	0x3d057ea1	0.032591466
117	0x3dfd8dd0	0.12380564
118	0x3e0dc6e4	0.13845402
119	0xbdba5289	-0.090977736
120	0xbddcc739	-0.10780186
121	0x3d8724e2	0.06598832
122	0xbe07d35a	-0.13264218
123	0x3db0997a	0.08623023
124	0x3e079c5a	0.13243237
125	0xbdf21dc9	-0.11822087
126	0x3d08736f	0.03331321
127	0x3d810700	0.06300163
128	0xbdb76ce0	-0.08956313
129	0xbbc5022e	-0.0060122227
130	0xbe0e5bba	-0.13902178
131	0x3db7ab43	0.089682125
132	0xbe12cfa1	-0.14337017
133	0x3e163b94	0.14671165
134	0x3df1bf57	0.11804073
135	0x3da1a6b7	0.078931265
136	0x3def5d6f	0.11687743
137	0x3dfd4b0f	0.12367832
138	0xbde394c0	-0.11112356
139	0xbdcd7317	-0.10031717
140	0x3e12d9e9	0.14340939
141	0xbe418c6b	-0.18901221
142	0x3e049002	0.1294556
143	0x3e27ee29	0.16399445
144	0xbd86f080	-0.065888405
145	0x3dd30d2b	0.10305246
146	0xbd90e41b	-0.07074758
147	0xbe15c0e3	-0.14624362
148	0x3d776834	0.06040211
149	0xbdcd76ad	-0.10032401
150	0x3d8ea54b	0.06965121
151	0x3bb16158	0.0054132156
152	0xbe2d400e	-0.16918966
153	0x3d0350a0	0.032059312
154	0xbd973e49	-0.07384927
155	0xbe1127bb	-0.14175312
156	0xbd580001	-0.05273438
157	0x3de796ad	0.11308036
158	0x3cb6476e	0.022250857
159	0xbe071ae1	-0.13193847
160	0x3d320c1d	0.043468583
161	0xbcec0fdf	-0.028816162
162	0x3d360d60	0.04444635
163	0xbd42c81b	-0.047554117
164	0xbc82972f	-0.01594123
165	0xbdd74eae	-0.10513054
166	0x3c80ab95	0.015706817
167	0xbe2c2db9	-0.16814317
168	0x3dd400b5	0.10351697
169	0x3dca9159	0.09891004
170	0xbd2781d9	-0.040895317
171	0xbd9eeb2c	-0.07759699
172	0x3e00d30c	0.12580508
173	0xbdb0d443	-0.08634236
174	0x3ddf2175	0.10895053
175	0xbdec807f	-0.11547946
176	0x3dcf784b	0.10130366
177	0xbdaea79e	-0.08528064
178	0xbe1a56c1	-0.15072156
179	0xbe138fae	-0.14410278
180	0xbdff021e	-0.12451576
181	0xbde49a5b	-0.111622535
182	0xbc79b8b6	-0.015241792
183	0xbc90753c	-0.017634027
184	0x3dd778fb	0.10521122
185	0xbe094621	-0.13405658
186	0x3ddbf300	0.10739708
187	0x3de0002f	0.10937535
188	0x3d5ad4ff	0.053425785
189	0x3c102aa3	0.008799228
190	0xbe1f31c7	-0.15546332
191	0x3dc0fc53	0.09423127
192	0xbe21e6d1	-0.15810706
193	0xbdc438a1	-0.095811136
194	0xbe2ccbf0	-0.16874671
195	0xbdbf3f49	-0.093382426
196	0xbc27c1ac	-0.010239046
197	0xbe375638	-0.17903984
198	0xbdc7d487	-0.09757333
199	0xbcd01443	-0.025400287
200	0xbe1d8bc9	-0.15385355
201	0x3df7928d	0.12088499
202	0x3d1ef266	0.038805388
203	0xbdee606f	-0.11639487
204	0xbe1c88f9	-0.15286626
205	0x3d8037b5	0.06260625
206	0x3db3b4c5	0.087747134
207	0xbe3a2e3e	-0.18181702
208	0x3e2dcfb8	0.1697377
209	0x3e03b510	0.12862039
210	0xbdd824b9	-0.10553879
211	0x3db1bfde	0.08679174
212	0xbdb3f1e7	-0.087863736
213	0xbd04ef99	-0.03245506
214	0x3d51a81d	0.051185716
215	0x3ce4671a	0.027881194
216	0xbe1fdc47	-0.15611373
217	0xbd87bc8f	-0.066277616
218	0xbe1e1117	-0.15436207
219	0x3c268d2f	0.010165497
220	0xbdf5a287	-0.1199389
221	0xbc9c9da1	-0.019118132
222	0xbdcd9efb	-0.10040089
223	0xbe48bfab	-0.19604366
224	0xbd21c639	-0.03949568
225	0x3c8f247e	0.017473456
226	0xbc07e56d	-0.008294445
227	0x3df8562c	0.12125811
228	0xbce54d1e	-0.027990874
229	0x3d915b23	0.07097461
230	0x3da19a1b	0.078907214
231	0xbe2e21ce	-0.17005083
232	0x3d6a4207	0.057191875
233	0x3e28a2fe	0.16468427
234	0xbddb34bf	-0.1070342
235	0xbd65bcb0	-0.05608815
236	0xbc6b4d3c	-0.014361676
237	0x3d71c2f1	0.0590238
238	0xbded23c3	-0.11579087
239	0xbda6d498	-0.08146018
240	0x3e287e8a	0.16454521
241	0x3d6472f9	0.05577371
242	0xbd2cf675	-0.042227227
243	0xbb2632d7	-0.0025359893
244	0xbe1b2809	-0.15151991
245	0x3deaf1a9	0.11471874
246	0x3e117660	0.14205313
247	0xbd97d072	-0.07412805
248	0xbde4706c	-0.11154255
249	0xbe0e703b	-0.1391
250	0x3d2de938	0.042458743
251	0x3dcefda0	0.10106969
252	0xbd407edc	-0.046995983
253	0xbe147664	-0.14498287
254	0xbd853a99	-0.06505317
255	0xbdb2fbd3	-0.08739438

Network_stack.0.0.gru.bias_ih_l1 f4 [96]
0	0x3bc4effe	0.0060100546
1	0x3dcfd281	0.10147572
2	0xbdb9412b	-0.09045633
3	0xbdd15e81	-0.10223103
4	0x3e1791ae	0.14801666
5	0x3dc545b7	0.09632438
6	0x3e274f51	0.1633885
7	0x3e0ca2db	0.13734
8	0x3d7a3d12	0.061093397
9	0xbdd390e8	-0.10330373
10	0xbcdd0f9e	-0.026984986
11	0xbd4ee150	-0.050507843
12	0xbe179ac2	-0.14805129
13	0xbe0ddbd4	-0.13853389
14	0x3d410ff8	0.04713437
15	0x3d44906b	0.04798929
16	0x3dd7af7e	0.10531519
17	0xbdc1d95e	-0.094652876
18	0xbd2fdb6b	-0.042933863
19	0x3da606bc	0.08106753
20	0xb9e3044c	-0.00043300015
21	0x3dd0bd40	0.101923466
22	0xbd9dc67b	-0.07703873
23	0xbcdeb0f7	-0.027183993
24	0x3de97273	0.113987826
25	0x3cc217b9	0.023692952
26	0xbb948101	-0.00453198
27	0xbe064f79	-0.13116254
28	0xbbabfef3	-0.005248898
29	0xbd454172	-0.048158117
30	0x3ddf1b9e	0.108939394
31	0xbd98d2b2	-0.07462062
32	0xbcdbd9c8	-0.026837245
33	0xbd9c14e2	-0.076211706
34	0xbe9e9ed2	-0.30980545
35	0xbd5e0e60	-0.054212928
36	0x3d454276	0.048159085
37	0x3b034160	0.002002798
38	0x3dbc0ab4	0.09181729
39	0xbe40b667	-0.18819581
40	0x3d0a8b5e	0.033824317
41	0x3de0c86c	0.109757274
42	0xbebf98f9	-0.37421396
43	0x3a51b4d0	0.00079996604
44	0xbea63252	-0.32460266
45	0xbe684358	-0.2268194
46	0x3d89a8a7	0.06721621
47	0xbe48b65b	-0.19600813
48	0x3e211557	0.15730797
49	0xbd31486d	-0.04328196
50	0xbe7037c5	-0.23458774
51	0xbeaf9ac2	-0.34297758
52	0xbc40844f	-0.011750295
53	0xbeb204e0	-0.34769344
54	0xbe1dfa07	-0.15427409
55	0xbcbc11c7	-0.022957696
56	0xbde87dff	-0.11352157
57	0xbcdf7ebd	-0.027282113
58	0x3ab0d74f	0.0013491901
59	0x3e1f4cdd	0.15556665
60	0xbe996e26	-0.2996685
61	0x3ddd0d75	0.10793582
62	0xbdacf731	-0.084455855
63	0xbe8b7239	-0.27235582
64	0x3db378c6	0.0876327
65	0x3e0dc8b3	0.13846092
66	0x3d1f352b	0.038869064
67	0xbe065ae8	-0.13120615
68	0x3dd4c443	0.103889965
69	0x3d69201e	0.056915395
70	0xbc72263e	-0.014779625
71	0x3d333584	0.04375221
72	0x3e0c2ddd	0.1368937
73	0x3e1004af	0.14064287
74	0x3d1005a3	0.035161626
75	0xbd3f2d75	-0.04667421
76	0xbd7c66ae	-0.06162136
77	0xbd7b6fb9	-0.061385844
78	0xbdadac7c	-0.084801644
79	0xbb6f6dda	-0.0036533982
80	0x3da75458	0.08170384
81	0x3c2e1446	0.010624951
82	0xbd4f47cb	-0.050605576
83	0xbce2a584	-0.027666815
84	0xbc967d87	-0.018370403
85	0xbdb62bde	-0.08895086
86	0x3c7c5a9c	0.015402462
87	0xbc8d6f0b	-0.017264863
88	0x3cadcfa8	0.021217182
89	0x3e163e67	0.14672242
90	0xbe120212	-0.14258602
91	0xbe29d803	-0.16586308
92	0xbb79a500	-0.0038092732
93	0x3e0354e9	0.1282536
94	0x3e21ed57	0.15813194
95	0xbd0180c5	-0.031616945

Network_stack.0.0.gru.bias_hh_l1 f4 [96]
0	0x3d81b2b7	0.06332915
1	0xbe254a43	-0.1614161
2	0xbc902742	-0.017596845
3	0xbdbba341	-0.091619976
4	0x3dbade68	0.09124452
5	0xbe1bf8b2	-0.15231588
6	0xbd48ff76	-0.04907175
7	0xbca90d73	-0.020636296
8	0xbd092876	-0.033485852
9	0xbdf1588f	-0.11784469
10	0x3c013b97	0.0078877425
11	0xbd5c799b	-0.05382691
12	0x3e327850	0.17428708
13	0x3d51335c	0.05107437
14	0x3dc8a7f2	0.09797658
15	0x3d8e8cc6	0.06960444
16	0x3d6222ab	0.055208843
17	0x3e163e07	0.14672099
18	0xbddddfed	-0.10833726
19	0x3e34958d	0.17635174
20	0xbcdc38a2	-0.026882473
21	0xbcf5b470	-0.029993266
22	0xbdc99a8d	-0.09843931
23	0x3dc49adb	0.09599849
24	0x3e1c522a	0.15265718
25	0x3e2d9df4	0.16954786
26	0xbc662e5e	-0.014049141
27	0xbce05121	-0.027382435
28	0xbd2c0401	-0.041996006
29	0xbe24dd3d	-0.1610002
30	0x3e25049c	0.1611504
31	0x3e18dfa7	0.14929067
32	0xbe1f594b	-0.15561406
33	0xbe1dcbf1	-0.15409829
34	0xbdc66bfa	-0.09688564
35	0xbe592400	-0.21205139
36	0x3e36fa3e	0.17868897
37	0x3bbaf7b2	0.005705797
38	0xbc463ff5	-0.0121002095
39	0x3d64a09a	0.055817224
40	0xbda91362	-0.0825565
41	0xbd5c8ae6	-0.0538434
42	0xbe726928	-0.23672926
43	0xbe652a58	-0.22379434
44	0xbe92ce62	-0.28673083
45	0xbeb24317	-0.3481681
46	0xbdf89451	-0.12137664
47	0x3d88dc43	0.066826366
48	0xbdf7196d	-0.120653965
49	0x3dad0405	0.08448032
50	0xbe734cc2	-0.2375975
51	0xbd245dda	-0.040128566
52	0xbe62f5cc	-0.22164077
53	0xbc9f616f	-0.01945564
54	0xbe65b5b4	-0.22432595
55	0xbd9e5d15	-0.07732598
56	0xbda518f0	-0.08061397
57	0xbe4fbbef	-0.20286535
58	0xbe0a13a2	-0.13484052
59	0xbe0357ab	-0.12826411
60	0xbdf84d1f	-0.12124085
61	0x3e228603	0.15871434
62	0xbe250340	-0.16114521
63	0xbd712363	-0.058871638
64	0x3d9f7e9a	0.07787819
65	0xbe1f0cf6	-0.15532288
66	0xbd6c4d7d	-0.057691086
67	0x3cb2cbff	0.021825789
68	0x3e1c40a1	0.15259029
69	0x3e2ec38a	0.1706678
70	0x3e219d80	0.15782738
71	0xbcf6ce59	-0.030127691
72	0x3da60ebe	0.081082806
73	0xbdb48d62	-0.08816029
74	0xbce5ba1e	-0.02804285
75	0xbd8d90c6	-0.06912379
76	0xbde6f8b0	-0.11277902
77	0xbe1b8eb3	-0.15191154
78	0x3d3544cd	0.044255067
79	0x3d31f486	0.043446086
80	0xbd7de09f	-0.061981793
81	0x3e1d5b75	0.1536692
82	0x3e1cf0e2	0.15326265
83	0x3b46e969	0.0030351526
84	0x3e12f05a	0.143495
85	0xbccb64ee	-0.0248284
86	0x3dfb9627	0.12284499
87	0x3c10e329	0.008843222
88	0x3e2a373d	0.16622634
89	0x3dd8506d	0.10562215
90	0xbd2aa6b8	-0.0416629
91	0xbe16713c	-0.14691633
92	0x3d4be535	0.049779136
93	0x3dba34d9	0.09092111
94	0x3e03cbdb	0.12870733
95	0xbe3cc2ec	-0.18433732

Network_stack.1.0.gru.weight_ih_l0 f4 [96, 2]
0	0x3d04f544	0.032460466
1	0xbc8f3fae	-0.01748642
2	0xbc48e33e	-0.01226121
3	0xbe03e943	-0.12881951
4	0x3e25e1ae	0.16199371
5	0xbe4e744e	-0.20161554
6	0x3d80b552	0.06284584
7	0x3e4bae02	0.19890597
8	0x3e165771	0.14681794
9	0xbdf20b4b	-0.1181856
10	0x3d1aa7fd	0.037757862
11	0xbaa10eb2	-0.0012287705
12	0x3d580079	0.052734826
13	0x3e2acb22	0.16679052
14	0x3e13d5db	0.14437048
15	0xbc81d3bc	-0.015848033
16	0xbe1f4a36	-0.15555653
17	0x3d396dc6	0.045270704
18	0xbcce4a22	-0.025181834
19	0x3cff0902	0.031132225
20	0x3dfe4be8	0.12416822
21	0x3ecbd132	0.3980804
22	0xbdd0e768	-0.10200387
23	0x3e7f092f	0.24905847
24	0x3ce2dc8d	0.027693057
25	0xbe128356	-0.14307913
26	0x3df3f83b	0.119125806
27	0x3a3434ed	0.00068743416
28	0xbcc31153	-0.023811972
29	0xbd9d1675	-0.07670299
30	0x3dce805c	0.10083076
31	0xbdc82b7a	-0.097739175
32	0xbd093638	-0.033498973
33	0xbcbb07aa	-0.022830803
34	0x3d920552	0.07129921
35	0xbdf6ac35	-0.12044565
36	0x3dca2a40	0.0987134
37	0x3d9ea27d	0.07745836
38	0x3e05b817	0.13058506
39	0x3e0ef8f1	0.13962151
40	0x3df21d60	0.11822009
41	0x3d3f0195	0.046632368
42	0x3cfe71d1	0.031060131
43	0x3d1a98b9	0.037743304
44	0x3db8472b	0.08997949
45	0x3daf41d6	0.08557479
46	0x3d0c02a5	0.03418221
47	0xbb03e4c9	-0.002012538
48	0xbd888bea	-0.066673115
49	0xbd061ff8	-0.03274533
50	0xbd29fc6e	-0.0415005
51	0xbdaaaac7	-0.083333544
52	0xbd6057c1	-0.05477119
53	0x3cc06478	0.023485407
54	0x3e527cf1	0.20555474
55	0x3e212492	0.15736607
56	0xbd269470	-0.040668905
57	0xbcacb748	-0.021083489
58	0xbd55e03b	-0.052215796
59	0x3e606b23	0.2191587
60	0xbbd15e47	-0.0063894126
61	0xbe1c1d6c	-0.15245599
62	0x3e64c8cc	0.22342223
63	0x3d3daae5	0.046305556
64	0xbba12c7f	-0.0049186344
65	0xbf116efb	-0.5680997
66	0x3de641c9	0.11243016
67	0xbdf57a57	-0.11986225
68	0x3c9ef11d	0.019402081
69	0xbdb05e1b	-0.08611699
70	0x3d918463	0.07105329
71	0xbdd9a9fe	-0.106281266
72	0xbe88fc44	-0.26754963
73	0xbf11940b	-0.5686652
74	0xbe9bab96	-0.30404347
75	0xbe94d4bf	-0.29068562
76	0xbdd70f18	-0.10500926
77	0xbe2bf399	-0.16792144
78	0xbe8fbd71	-0.2807422
79	0xbb24ac22	-0.0025127013
80	0x3da528a5	0.08064393
81	0xbe36a32a	-0.1783568
82	0xbea36088	-0.31909585
83	0xbe940bf3	-0.28915367
84	0xbe97da5f	-0.2965879
85	0xbf3fb4c2	-0.7488519
86	0xbeae5403	-0.3404847
87	0xbe69a698	-0.22817457
88	0xbed89c92	-0.42306954
89	0xbe02ba20	-0.12766314
90	0x3e3b4b47	0.18290435
91	0x3cc024e3	0.023455089
92	0xbe00ef0b	-0.12591188
93	0x3d90cfa2	0.07070853
94	0xbdfc32f9	-0.1231441
95	0xbda17db5	-0.07885305
96	0xbe239407	-0.15974437
97	0xbef5456d	-0.4790453
98	0xbd5d418c	-0.05401759
99	0xbd8f354a	-0.06992586
100	0xbe2d78c9	-0.16940607
101	0xbeb76af6	-0.35823792
102	0xbee8292a	-0.45343906
103	0xbf122c07	-0.5709843
104	0xbe56f3eb	-0.20991485
105	0x3c9430bb	0.018089643
106	0xbe7249cd	-0.23660965
107	0xbd062fec	-0.032760546
108	0xbea1d49e	-0.31607527
109	0xbf095a15	-0.5365308
110	0xbde8b6e2	-0.11363007
111	0xbf0226c4	-0.508404
112	0xbe261be9	-0.16221584
113	0xbe62d63e	-0.2215204
114	0xbeaafc64	-0.33395684
115	0xbeeab3fa	-0.45840436
116	0xbe81de36	-0.25364846
117	0xbe5dc0d2	-0.21655586
118	0xbf280cf0	-0.6564474
119	0xbebcf84d	-0.36908188
120	0xbece6d6c	-0.40317857
121	0xbec0edf4	-0.37681544
122	0xbe010e70	-0.12603164
123	0xbf179537	-0.5921206
124	0xbe26d704	-0.1629296
125	0xbeb05413	-0.34439144
126	0xbebf148a	-0.37320358
127	0xbea352d7	-0.3189914
128	0x3ca9e115	0.02073721
129	0xbde622fd	-0.11237142
130	0x3df7b5dc	0.12095234
131	0x3d7337d6	0.05937942
132	0x3e3b17c6	0.18270788
133	0xbe08a933	-0.13345794
134	0xbe025203	-0.12726597
135	0x3d54dffe	0.051971428
136	0xbc89f431	-0.016840072
137	0xbe69f669	-0.22847904
138	0xbe0f8f1f	-0.1401944
139	0xbde1538b	-0.11002263
140	0x3d765d3d	0.060147513
141	0x3ccee996	0.025257867
142	0x3cfaafce	0.030601408
143	0xbcf28319	-0.029603528
144	0xbdfa985d	-0.12236092
145	0x3ded38da	0.11583109
146	0x3e172112	0.14758709
147	0x3d994694	0.07484165
148	0x3c2b80cb	0.010467718
149	0x3ce8e731	0.028430553
150	0x3d9131d5	0.07089583
151	0x3d93ed56	0.072230026
152	0x3e1c4ff1	0.1526487
153	0xbd2b56b7	-0.041830745
154	0xbd687737	-0.056754317
155	0x3dab823d	0.0837445
156	0x3c520b0e	0.012820018
157	0xbe461fe8	-0.19348109
158	0x3e06fe70	0.13182998
159	0x3df92919	0.12166042
160	0xbc9458f8	-0.01810883
161	0x3dc11cdb	0.09429332
162	0xbe044340	-0.12916279
163	0xbe088303	-0.13331227
164	0xbc24e888	-0.010065205
165	0x3e5df09f	0.21673821
166	0x3db6648f	0.08905899
167	0x3e6ae772	0.22939852
168	0x3e099c2b	0.1343848
169	0x3d8e7d17	0.06957453
170	0x3dfe0e36	0.12405054
171	0x3c7e00cc	0.01550312
172	0xbe2f1502	-0.17097858
173	0x3e625266	0.22101745
174	0x3e0f6a81	0.14005472
175	0x3e10c814	0.14138824
176	0x3dcc55b3	0.09977283
177	0x3dfa5fc9	0.12225301
178	0x3ddcdc1e	0.107841715
179	0xbe29086a	-0.16507116
180	0xbe1790c2	-0.14801314
181	0x3de7da99	0.11320991
182	0xbd74e2da	-0.059786655
183	0x3dcc683b	0.09980818
184	0xbe0f2ba9	-0.13981499
185	0xbbab69fe	-0.005231141
186	0xbe1fb36a	-0.15595785
187	0xbda92dad	-0.08260665
188	0xbdf3dc55	-0.119072594
189	0x3e44e498	0.19227827
190	0xbd1c6247	-0.038179662
191	0xbe5fdec2	-0.21862319

Network_stack.1.0.gru.weight_hh_l0 f4 [96, 32]
0	0xbdad4710	-0.0846082
1	0xbd87a79b	-0.06623765
2	0x3c9df1e4	0.019280382
3	0xbde6df30	-0.112730384
4	0xbda1770b	-0.07884034
5	0x3d9bb746	0.07603316
6	0xbd8ada8a	-0.06779964
7	0x3e14f100	0.14545059
8	0x3d5768ae	0.052590065
9	0xbe051c61	-0.12999107
10	0xbe5ef898	-0.21774518
11	0xbe3d21ac	-0.18469876
12	0x3da925d7	0.082591705
13	0xbd3eaa6f	-0.046549257
14	0x3a2a54b0	0.0006497605
15	0x3d9f1e3a	0.07769437
16	0x3e2cdaac	0.16880292
17	0xbd8aaedb	-0.06771632
18	0x3de7f9b2	0.113269225
19	0xba702d6a	-0.00091620407
20	0x3d534624	0.051580563
21	0xbdf3a653	-0.11896958
22	0xbcd2fe90	-0.02575615
23	0xbdd1b06c	-0.10238728
24	0xbc9f9490	-0.01948002
25	0xbd6dc15f	-0.05804574
26	0x3e27916a	0.16364065
27	0x3dc5c76b	0.096571766
28	0xbd2c9a67	-0.042139437
29	0x3e1a86f3	0.15090542
30	0x3e422c1c	0.18962139
31	0x3d03f512	0.03221614
32	0xbd5f0c7d	-0.05445527
33	0xbd57d550	-0.052693665
34	0x3d0c7f93	0.03430135
35	0xbd1e40be	-0.03863596
36	0x3a0cfe6c	0.0005378488
37	0xbe353f67	-0.17699967
38	0xbcce269c	-0.025164895
39	0x3d93d3ef	0.072181575
40	0xbe15790f	-0.14596961
41	0xbe2503c0	-0.16114712
42	0xbe46f7c9	-0.1943046
43	0xbdb9d882	-0.09074499
44	0xbe083e08	-0.13304913
45	0xbe432b20	-0.1905942
46	0x3daa9d8e	0.083308324
47	0xbdb70a59	-0.089375205
48	0xbe0fc37c	-0.14039415
49	0xbdb1af6e	-0.08676039
50	0xbe225014	-0.1585086
51	0xbe41fe34	-0.18944627
52	0x3e088a75	0.13334067
53	0xbe0aab75	-0.13541968
54	0xbe422d81	-0.18962671
55	0xbd527d9d	-0.051389325
56	0xbc864e4b	-0.016394755
57	0x3ca77eb1	0.020446153
58	0x3cca54d9	0.024698662
59	0xbce4e08d	-0.027939105
60	0x3d85cfa3	0.06533744
61	0x3e14147f	0.14460944
62	0x3e0e93e7	0.13923608
63	0x3e84b040	0.25915718
64	0xbdc79d44	-0.09746793
65	0xbdb711c3	-0.08938935
66	0xbd6e5b82	-0.058192737
67	0x3da2afb6	0.079436705
68	0x3cb35bbc	0.021894328
69	0xbd213c6b	-0.03936426
70	0xbbc9e8ce	-0.0061617857
71	0xbe0942a3	-0.13404326
72	0x3d358499	0.044315908
73	0x3da8435d	0.082159735
74	0x3e2fbc41	0.17161657
75	0xbdbb9fae	-0.09161316
76	0x3d6fccf1	0.058545057
77	0xbdf17e39	-0.11791653
78	0xbc81f1cc	-0.015862368
79	0x3e152ad1	0.14567114
80	0xbb379756	-0.0028013787
81	0xbb630f4a	-0.0034646564
82	0xbdd987a7	-0.10621577
83	0xbe52f795	-0.20602258
84	0xbe23d167	-0.1599785
85	0x3dd59c0a	0.10430153
86	0xbce2420b	-0.027619382
87	0x3ddf395d	0.10899613
88	0x3df6b2f3	0.120458506
89	0x3e21343e	0.15742585
90	0x3de2e503	0.11078837
91	0x3dcc4c70	0.09975517
92	0x3e21ee7c	0.15813631
93	0xbd7d8c1f	-0.061901208
94	0x3d96d13c	0.07364127
95	0x3cfd1ff4	0.030899025
96	0xbe5e57a0	-0.21713114
97	0x3e19fe11	0.15038325
98	0xbe04e374	-0.12977391
99	0xbd7892df	-0.060686942
100	0xbe290d37	-0.16508947
101	0xbe60f633	-0.21968918
102	0x3e79d0b0	0.24396014
103	0x3dcc19ef	0.09965884
104	0x3cf67167	0.030083371
105	0xbe3181d7	-0.17334686
106	0xbeb9cda1	-0.36289695
107	0x3e1809cd	0.14847489
108	0xbc627de4	-0.01382396
109	0xbd30e1bf	-0.04318404
110	0xbdff514e	-0.124666795
111	0x3bc9d3c4	0.0061592776
112	0x3dc9ed16	0.09859674
113	0xbe5ca1a4	-0.21546036
114	0x3e64981a	0.22323647
115	0xbdc4c062	-0.096070066
116	0x3db1a7ec	0.08674607
117	0x3db67a6d	0.089100696
118	0x3e30e12b	0.17273395
119	0x3e14d965	0.14536054
120	0xbd43ab20	-0.04777062
121	0xbd858cc0	-0.065209866
122	0x3e4bd89b	0.19906847
123	0x3d1a5d0f	0.037686404
124	0x3d583496	0.052784525
125	0xbe5c1e79	-0.21496
126	0xbd03f44f	-0.032215413
127	0x3de70754	0.112806946
128	0x3d9ca28f	0.07648193
129	0x3e341809	0.17587294
130	0x3e0103cd	0.12599106
131	0xbc496703	-0.012292626
132	0x3dde44ee	0.10852991
133	0x3d70a000	0.058746338
134	0xbdecba7c	-0.115590066
135	0x3e0bcc97	0.13652264
136	0x3daeea9a	0.085408404
137	0xbe64ee05	-0.22356422
138	0x3e39745c	0.18110794
139	0xbdde79a5	-0.108630456
140	0x3dae49ed	0.08510194
141	0xbe44ec81	-0.19230844
142	0xbdf976bf	-0.12180852
143	0xbdf603e1	-0.120124586
144	0x3d86cdfc	0.06582257
145	0x3d871275	0.06595317
146	0xbba396d4	-0.0049923453
147	0xbda6a1cd	-0.0813633
148	0x3dab1370	0.08353317
149	0xbc444f39	-0.011981779
150	0x3de66529	0.112497635
151	0xbe3be4fd	-0.18349071
152	0xbda299fe	-0.07939528
153	0x3e3471a5	0.17621477
154	0x3e36df69	0.17858662
155	0xbd713a7e	-0.058893673
156	0xbdb2614f	-0.087099664
157	0x3deda60f	0.11603939
158	0x3cd89e39	0.026442634
159	0xbd2b25b0	-0.04178399
160	0x3da1cbe1	0.07900215
161	0x3d668169	0.05627576
162	0x3e409030	0.18805003
163	0xbc0e3d1c	-0.008681562
164	0xbdc41ca7	-0.095757775
165	0x3ce39526	0.02778108
166	0xbcfbd2f4	-0.030740239
167	0x3cd62299	0.026139544
168	0x3e0ad618	0.13558233
169	0xbe82f4da	-0.25577432
170	0x3d758a78	0.059946507
171	0xbe602638	-0.2188958
172	0x3e29e985	0.16592987
173	0xbdb26fb1	-0.0871271
174	0xbd6e61f2	-0.058198877
175	0xbdf8319a	-0.12118836
176	0x3e1b5700	0.15169907
177	0xbd03c106	-0.032166503
178	0xbe1b84fd	-0.1518745
179	0xbe9bb1ab	-0.30408987
180	0x3caef78c	0.021358274
181	0xbdf32564	-0.11872366
182	0xbd745bd5	-0.05965789
183	0x3cbaaab4	0.022786476
184	0xbd870852	-0.06593384
185	0x3e595811	0.21225001
186	0xbd9f0553	-0.077646874
187	0xbe430a91	-0.19047
188	0x3d6bd138	0.057572573
189	0x3e4e4c0b	0.20146196
190	0x3d84242e	0.06452213
191	0xbc9dc9fa	-0.019261349
192	0xbe1828bf	-0.14859293
193	0xbd2abdc7	-0.041684892
194	0x3e28df50	0.16491437
195	0x3dbc0f6d	0.0918263
196	0x3e515f20	0.20446444
197	0x3d0b1c50	0.033962548
198	0x3e1fe8ea	0.15616193
199	0xbd4c88cd	-0.04993515
200	0x3e179a23	0.14804892
201	0xbe215bf1	-0.15757729
202	0xbe6275f5	-0.2211531
203	0xbe28c884	-0.1648274
204	0x3e290e34	0.16509324
205	0xbe5349a9	-0.20633568
206	0xbe3e9cc9	-0.18614496
207	0x3e6faacf	0.23405002
208	0xbbfa0644	-0.0076301415
209	0xbda5e035	-0.08099405
210	0xbd459d58	-0.048245758
211	0xbd661b08	-0.056178123
212	0xbcad793a	-0.02117597
213	0x3dc3b178	0.09555334
214	0x3e1c2c17	0.15251194
215	0xbda30fba	-0.07961984
216	0x3d12fc0d	0.035884906
217	0xbda3cfa6	-0.0799859
218	0x3e7370b1	0.23773457
219	0xbe75f9bc	-0.24021047
220	0x3d9df061	0.07711864
221	0xbabcbb67	-0.0014399112
222	0x3e3fc564	0.18727642
223	0x3d52b50d	0.051442195
224	0xbc07d58e	-0.0082906615
225	0xbd4fad9a	-0.05070267
226	0xbe070c9d	-0.13188405
227	0xbdd8f7ff	-0.105941765
228	0x3e2909b7	0.16507612
229	0x3dd8485f	0.10560679
230	0xbe128b2e	-0.14310905
231	0xbcdecffe	-0.027198788
232	0xbdd32dab	-0.10311445
233	0x3d7ef321	0.062243585
234	0x3cacfad2	0.021115694
235	0x3e311f09	0.17296995
236	0xbdcebcb0	-0.10094583
237	0xbd26f66b	-0.040762346
238	0x3dbb6eff	0.0915203
239	0x3dbf0d1a	0.09328671
240	0x3e322f34	0.17400819
241	0xb5039ac0	-4.9026494e-07
242	0xbdac2362	-0.08405186
243	0x3db03c10	0.08605206
244	0xbdb40244	-0.08789495
245	0x3d92e970	0.07173431
246	0xbd8c0ce8	-0.06838399
247	0xbb4ba815	-0.0031075526
248	0xbc633a59	-0.013868892
249	0xbe1c331c	-0.15253872
250	0xbc9c6a6e	-0.019093718
251	0x3b7a66a1	0.0038208144
252	0x3d84b929	0.06480629
253	0xbe3dacb2	-0.1852291
254	0x3bf9e097	0.00762565
255	0x3df3a01e	0.11895774

Network_stack.1.0.gru.bias_ih_l0 f4 [96]
0	0xbd79cf6d	-0.060988832
1	0x3e3b62bc	0.18299383
2	0x3d2486be	0.040167563
3	0xbdcadf82	-0.09905912
4	0x3bfc7321	0.007704154
5	0xbd898a0b	-0.06715783
6	0x3d658136	0.05603143
7	0x3dd67a18	0.10472506
8	0x3d829164	0.06375387
9	0x3e328732	0.17434385
10	0x3df34317	0.11878031
11	0x3b6bbe54	0.0035971599
12	0xbc6b27f8	-0.014352791
13	0xbd8304c0	-0.0639739
14	0x3d97bc9f	0.074090235
15	0xbcda609b	-0.026657393
16	0xbd6cbdf4	-0.05779834
17	0xbd5c4562	-0.053777106
18	0x3e26aafc	0.16276163
19	0x3d797595	0.06090315
20	0x3ce5268f	0.027972488
21	0x3e637aca	0.22214809
22	0x3d66634d	0.056247044
23	0xbd70f678	-0.0588288
24	0x3ddcceb1	0.10781611
25	0xbd5cbef2	-0.053893037
26	0x3ca7b9a9	0.020474272
27	0x3dbe4cb1	0.092919715
28	0x3e506b2b	0.20353381
29	0xbd88ee4d	-0.06686077
30	0x3d43a5ca	0.04776553
31	0xbdbc6409	-0.09198768
32	0xbdd3b5e1	-0.10337425
33	0xbe44dbee	-0.19224522
34	0xbe840296	-0.25783223
35	0xbdf6cd10	-0.12050831
36	0xbe929a57	-0.28633377
37	0xbc52f08a	-0.012874732
38	0xbdbfb658	-0.09360951
39	0xbe4e8f0a	-0.20171753
40	0x3de7fd7a	0.11327644
41	0xbec95060	-0.39319134
42	0xbef21443	-0.47281083
43	0xbea7d251	-0.32777646
44	0xbedeaa88	-0.4348948
45	0xbcf8b928	-0.030361727
46	0xbde497b2	-0.11161746
47	0xbce5b911	-0.028042348
48	0xbf0274c6	-0.5095943
49	0xbe823092	-0.2542768
50	0xbe75406a	-0.23950353
51	0xbee02685	-0.43779388
52	0xbc138d92	-0.009005921
53	0xbe27c502	-0.16383746
54	0xbea90adf	-0.33016106
55	0xbe0101d4	-0.12598354
56	0xbe8ae257	-0.2712581
57	0xbea25528	-0.31705594
58	0xbe0375a2	-0.12837842
59	0xbf1563b6	-0.5835527
60	0xbefef329	-0.4979489
61	0xbebcc383	-0.36867914
62	0xbec1f4bf	-0.3788204
63	0xbe88dbc8	-0.2673018
64	0x3d1577e2	0.036491282
65	0x3d1b7d5e	0.037961356
66	0xbe0aeb74	-0.1356638
67	0x3d8ef2c4	0.069798976
68	0x3e1ba170	0.15198302
69	0xbe4547b1	-0.1926563
70	0x3d9fa900	0.07795906
71	0x3e1bed5e	0.15227267
72	0x3e1759fc	0.1478042
73	0xbe01b9eb	-0.12668578
74	0xbd134af6	-0.03596016
75	0xbe008bc8	-0.12553322
76	0x3ca3b76c	0.019984923
77	0xbd95b659	-0.07310171
78	0xbd6c6b87	-0.057719734
79	0x3ddd48ad	0.108048774
80	0x3aedba53	0.0018137194
81	0x3dd513d1	0.1040417
82	0xbdd12702	-0.10212518
83	0xbe24aed6	-0.1608232
84	0x3d107e4b	0.035276692
85	0x3d97d7e3	0.07414224
86	0x3d8d27cf	0.068923585
87	0xbd912337	-0.07086795
88	0x3e136cb1	0.14396931
89	0x3b32d943	0.0027290143
90	0x3e0f340a	0.13984695
91	0xbe51a100	-0.20471573
92	0xbe51a7e3	-0.204742
93	0x3de7783d	0.113022305
94	0x3dad97a3	0.08476188
95	0x3de14ccf	0.11000978
