models/model_uniform_region_0-0.3.0.6-0.9_multiple_Agentsf1206585.pth (torch, 87266 bytes, 18 tensors)

Network_stack.0.0.gru.weight_ih_l0 f4 [96, 2]
0	0x3d83c758	0.06434506
1	0x3bf3f471	0.007444911
2	0xbe20e50f	-0.15712379
3	0x3e290c5d	0.16508622
4	0x3e14dc3b	0.14537136
5	0x3cd7e772	0.026355479
6	0x3c15058d	0.009095562
7	0xbda4e930	-0.080522895
8	0xbe1636a3	-0.1466928
9	0x3d1817dd	0.037132133
10	0x3dca13fc	0.09867093
11	0x3b8db024	0.004323976
12	0x3d086722	0.03330148
13	0xbcb1afd4	-0.021690287
14	0xbc3a69fa	-0.011377806
15	0x3d0eed4a	0.034894265
16	0xbe1538b0	-0.14572406
17	0x3da49cd8	0.08037728
18	0x3db69983	0.08915999
19	0xbdd0698a	-0.1017638
20	0x3d33b83b	0.043876868
21	0x3d6c5420	0.057697415
22	0xbd823dc2	-0.063594356
23	0x3d9e9132	0.077425376
24	0xbe227b68	-0.15867388
25	0xbdd8fa8e	-0.105946645
26	0x3c23e8f9	0.0100042755
27	0xbc87caa3	-0.016576117
28	0xbe3ab8b3	-0.1823452
29	0xbdb255cc	-0.08707771
30	0x3e17f672	0.14840105
31	0xbd744435	-0.05963536
32	0xbe2cfffa	-0.16894522
33	0xbd9a564f	-0.07535993
34	0x3dd81012	0.1054994
35	0x3de015b8	0.109416425
36	0xbdf3f4f3	-0.11911955
37	0xbcf74bbf	-0.030187486
38	0xbe23adc5	-0.15984257
39	0xbe021716	-0.12704119
40	0xbe1c5957	-0.15268455
41	0xbd21e67a	-0.03952644
42	0x3d41ac15	0.04728325
43	0xbc82b825	-0.015956948
44	0x3cd32ee7	0.0257792
45	0x3c290cd3	0.010317999
46	0xbdd34ecb	-0.10317763
47	0xbdbcc3d2	-0.09217037
48	0x3d0509be	0.032479994
49	0xbe01e3a5	-0.12684496
50	0xbe249dad	-0.16075774
51	0x3dc1ddea	0.09466155
52	0xbdf68e6f	-0.12038886
53	0x3e13b78d	0.14425488
54	0xbddc8e7b	-0.107693635
55	0x3e03c955	0.12869771
56	0x3d8a2412	0.06745161
57	0x3d964fc6	0.07339434
58	0x3be6410a	0.007026796
59	0x3e270e2a	0.16313997
60	0x3d391ffe	0.045196526
61	0xbdc99913	-0.0984365
62	0xbd1b1985	-0.037866134
63	0xbb7a9805	-0.0038237583
64	0xbcf2b550	-0.029627472
65	0xbc5af6ab	-0.013364474
66	0x3c97ccf8	0.018530354
67	0x3dc39eb2	0.09551753
68	0xbdf21848	-0.118210375
69	0xbda874b4	-0.08225384
70	0x3b40beda	0.0029410631
71	0x3cdbf38b	0.026849529
72	0x3d28f9a7	0.041253712
73	0x3cf783a4	0.030214138
74	0xbd09bb20	-0.033625722
75	0x3cc2485a	0.02371614
76	0x3cc63fcb	0.02420034
77	0xbdefbdc5	-0.117061175
78	0x3de9d5c6	0.11417727
79	0xbe25f4a2	-0.16206601
80	0xbe0c9df4	-0.1373213
81	0x3db72246	0.08942084
82	0x3cc614a3	0.024179762
83	0xbb49d9d1	-0.0030799995
84	0xbe168d2a	-0.14702287
85	0x3d486ffc	0.04893492
86	0x3dfb7840	0.12278795
87	0x3e10c587	0.1413785
88	0xbc356c0f	-0.011073126
89	0xbd3f4fbb	-0.046706896
90	0x3c1a24bf	0.009408175
91	0xbc34862f	-0.01101832
92	0xbb609554	-0.0034268694
93	0xbdddcc9f	-0.10830044
94	0x3e19027c	0.14942354
95	0x3d711fb4	0.058868125
96	0x3d940ce9	0.07229025
97	0x3d51197a	0.051049687
98	0xbd1134ec	-0.03545086
99	0x3cd25f9e	0.02568036
100	0xbd9c1a5d	-0.07622216
101	0x3e10e02e	0.14148018
102	0xbe07a01d	-0.13244672
103	0xbdc82308	-0.09772307
104	0xbd9e7e40	-0.07738924
105	0x3dbb2625	0.09138135
106	0x3db8d513	0.09025016
107	0x3d81e957	0.06343334
108	0x3d687bcc	0.056758687
109	0x3e4b7b26	0.19871196
110	0x3d2ecd52	0.042676277
111	0xbdd1eb05	-0.102499045
112	0xbdd5ec06	-0.104454085
113	0xbda2750b	-0.079324804
114	0xbc52441b	-0.01283362
115	0xbe419bff	-0.18907164
116	0x3db41ca7	0.087945275
117	0x3d6f06aa	0.058355965
118	0x3d64662b	0.055761497
119	0xbd95795f	-0.0729854
120	0x3e074284	0.13208967
121	0xbd991fd3	-0.07476773
122	0x3da26d8c	0.07931051
123	0x3e1d395a	0.15353909
124	0xbd802b3b	-0.062582456
125	0xbdbe3d78	-0.09289068
126	0xbd3520cd	-0.044220734
127	0x3d9653dd	0.073402144
128	0x3db699a2	0.08916022
129	0xbdea5b7c	-0.114432305
130	0xbc55bd86	-0.013045674
131	0x3e20decf	0.15709995
132	0x3d65127c	0.05592583
133	0x3d1f83eb	0.038944166
134	0xbd23e1d8	-0.040010303
135	0xbdb01154	-0.08597055
136	0x3e00e30c	0.12586612
137	0x3dec5ac5	0.115407504
138	0xbcabf4b8	-0.020990714
139	0x3de878a4	0.113511354
140	0xbb5400e4	-0.0032349164
141	0xbc14d53a	-0.00908404
142	0xbe3cc2c3	-0.1843367
143	0x3d0c7ac7	0.034296777
144	0x3d3113da	0.043231823
145	0xbc289a2e	-0.010290666
146	0x3d8c35ce	0.068462
147	0x3e002ec3	0.12517838
148	0xbb0a9c15	-0.002115016
149	0xbe181df3	-0.14855175
150	0x3caab7ea	0.02083965
151	0x3de56696	0.11201207
152	0xbe075213	-0.13214903
153	0x3cca00f6	0.024658661
154	0x3d486d8a	0.04893259
155	0xbd3014b9	-0.042988513
156	0xbce69219	-0.028145837
157	0x3d3eaadd	0.046549667
158	0x3d35a65f	0.044348117
159	0xbdfd2444	-0.12360433
160	0x3df25749	0.118330546
161	0xbd619457	-0.05507311
162	0xbc8f33f4	-0.017480828
163	0x3db51136	0.08841173
164	0xbe1aafa3	-0.15106063
165	0x3c219f0d	0.009864581
166	0xbc2687e4	-0.010164235
167	0x3e2a6b47	0.16642486
168	0x3e117ec6	0.14208516
169	0x3e1bd0a2	0.15216306
170	0xbdde665a	-0.10859366
171	0x3d9ee55a	0.07758589
172	0x3da07b27	0.078359894
173	0x3d0d40ed	0.034485746
174	0xbe0c2277	-0.13685022
175	0x3bf33497	0.0074220407
176	0x3d868280	0.0656786
177	0x3e0decfc	0.13859934
178	0xbe11770d	-0.1420557
179	0xbdb960b7	-0.0905165
180	0xbe1d4aa7	-0.15360509
181	0x3d5f5690	0.05452591
182	0x3d987bc0	0.074454784
183	0xbe1ecf90	-0.15508866
184	0xbe426308	-0.1898309
185	0x3e0a4c2d	0.13505621
186	0xbe33abdc	-0.17546028
187	0xbb53f5ba	-0.003234251
188	0xbdf83d43	-0.1212106
189	0x3d233215	0.039842684
190	0xbd65b0a8	-0.056076676
191	0xbe226ad7	-0.15861069

Network_stack.0.0.gru.weight_hh_l0 f4 [96, 32]
0	0xbcd08fc1	-0.025459172
1	0x3e3e15b6	0.1856297
2	0xbbc8865e	-0.0061195334
3	0x3e3841df	0.17993878
4	0x3df8c137	0.12146228
5	0x3e1ffe08	0.15624249
6	0x3e222189	0.15833105
7	0x3e304b59	0.17216243
8	0xbc15ff63	-0.009155127
9	0x3dda5b8e	0.10661994
10	0xbc84d41c	-0.016214423
11	0xbe3d85f9	-0.18508138
12	0x3b5ac600	0.0033382177
13	0xbe261140	-0.16217518
14	0xbd9743ff	-0.07386016
15	0x3d91ddb2	0.07122363
16	0x3d9b4ddc	0.0758321
17	0xbe1d5673	-0.15365009
18	0x3d4719d2	0.04860861
19	0x3e0f799b	0.14011233
20	0xbda17eb9	-0.078854986
21	0x3e06b623	0.13155417
22	0xbe2a4b9d	-0.16630407
23	0xbcb97fdb	-0.022643974
24	0xbe2733fa	-0.16328421
25	0x3d1cba4f	0.038263615
26	0xbcc86f2e	-0.024467077
27	0xbe230ee9	-0.15923657
28	0x3d466b33	0.048442077
29	0x3c5002cf	0.012695982
30	0xbd94ffb0	-0.07275331
31	0x3de7ee2e	0.11324726
32	0x3e18dce7	0.14928018
33	0x3cf37b18	0.029721782
34	0x3a5d1390	0.0008433396
35	0xbbe9fabf	-0.007140487
36	0x3d8c0a5e	0.06837915
37	0x3e2db32f	0.16962884
38	0xbd971fb4	-0.07379094
39	0x3deffe3d	0.11718414
40	0xbba7a167	-0.005115676
41	0xbce45f16	-0.027877372
42	0xbe246f73	-0.1605814
43	0x3dcb464a	0.09925516
44	0xbe02d2ff	-0.12775801
45	0xbbf6b1ea	-0.007528533
46	0xbe1f7662	-0.15572503
47	0xbdde5400	-0.108558655
48	0xbde55e32	-0.11199607
49	0xbc1b5dae	-0.009482784
50	0xbdfb1955	-0.12260691
51	0xbe1fa488	-0.15590107
52	0x3dab4ecb	0.08364638
53	0x3e278946	0.1636096
54	0xbd9bda7a	-0.076100305
55	0x3d6022e3	0.05472077
56	0xbe030cf9	-0.12797917
57	0x3d49d79f	0.049277898
58	0x3d981900	0.07426643
59	0x3e169c52	0.14708069
60	0x3dbbd871	0.09172142
61	0xbdbbc4c1	-0.09168387
62	0xbc5565ca	-0.013024757
63	0xbc516825	-0.012781178
64	0x3e0300fb	0.12793343
65	0x3dad313a	0.08456655
66	0x3c1cf62f	0.009580179
67	0x3c81b771	0.015834542
68	0x3d1fddfb	0.039030056
69	0xbd97d626	-0.074138924
70	0x3d9f11bf	0.07767057
71	0x3e1aa547	0.15102111
72	0x3dac97de	0.08427404
73	0xbe0c8fb9	-0.13726701
74	0x3dec543d	0.11539505
75	0xbda31953	-0.079638146
76	0xbe04bbe7	-0.12962304
77	0xbd9988af	-0.074967735
78	0xbd99636c	-0.07489666
79	0x3da51310	0.080602765
80	0xbd1e7ee2	-0.038695224
81	0x3dce2843	0.10066273
82	0x3d3d4188	0.046205074
83	0xbd8ec348	-0.06970841
84	0x3d083308	0.033251792
85	0xbe0d0150	-0.13770032
86	0x3c9487b5	0.018131116
87	0x3c5fdbe2	0.013663264
88	0x3e2aab31	0.16666867
89	0xbdaf4179	-0.0855741
90	0x3e0ea8c5	0.13931568
91	0x3cd86767	0.026416494
92	0x3d32aa20	0.043619275
93	0xbe1ba25f	-0.15198658
94	0xbd1e8f56	-0.038710915
95	0xbdd609f3	-0.104511164
96	0xbd3cf6bd	-0.046133745
97	0x3dd5e63c	0.10444304
98	0xbdbe70e8	-0.09298879
99	0x3c79f144	0.015255276
100	0x3e3d518f	0.18488143
101	0xbde6b8ea	-0.11265738
102	0xbdc0f9f6	-0.09422676
103	0x3cf4a405	0.029863367
104	0xbe160c62	-0.14653161
105	0x3d81f00d	0.06344614
106	0x3d785620	0.06062901
107	0xbc890cb3	-0.016729688
108	0x3d850a91	0.06496156
109	0x3df84982	0.121233955
110	0xbd340ab0	-0.043955505
111	0x3e1d356f	0.15352415
112	0x3e03c971	0.12869813
113	0x3e394e53	0.18096285
114	0x3db2fe43	0.08739903
115	0xbe0cc800	-0.13748169
116	0xbd8563d6	-0.06513183
117	0x3e1cefbc	0.15325826
118	0x3de32b14	0.11092201
119	0xbe4048f6	-0.18777832
120	0xbd4eaea1	-0.050459508
121	0xbdec8c6a	-0.11550219
122	0xbd8689a2	-0.0656922
123	0xbd5ee282	-0.054415233
124	0xbda7fe57	-0.08202808
125	0xbd8a8999	-0.06764526
126	0xbe164528	-0.14674819
127	0xbd92f672	-0.07175912
128	0x3df69e97	0.12041967
129	0xbdcea80f	-0.100906484
130	0x3de4a167	0.111635976
131	0xbe06eb5e	-0.13175723
132	0xbda6b8b1	-0.08140696
133	0xbceb6a3d	-0.028737182
134	0xbdf466a2	-0.11933638
135	0x3c9fc54a	0.019503254
136	0x3df06c07	0.117393546
137	0xbd4ca0b2	-0.04995794
138	0xbd72a2d6	-0.059237324
139	0xbdf01fa5	-0.11724786
140	0x3bf4b423	0.007467763
141	0xbdf812c6	-0.12112956
142	0x3d88110b	0.06643876
143	0x3e256e98	0.1615547
144	0xbd0ccd1d	-0.0343753
145	0x3d5ee49d	0.05441724
146	0xbdb3d20c	-0.08780298
147	0xbcd258f0	-0.025677174
148	0xba4f0651	-0.00078973646
149	0xbc93ee3c	-0.018057935
150	0x3e04ac72	0.12956408
151	0x3dd41c31	0.103569396
152	0x3dc3c08b	0.09558209
153	0x3e240aa9	0.16019692
154	0x3cd39ccd	0.025831604
155	0x3dece13e	0.11566399
156	0x3ceb1b28	0.028699473
157	0x3d83ec5f	0.064415686
158	0x3e0129d0	0.12613606
159	0xbc09cfdb	-0.008411373
160	0xbd51db49	-0.051234517
161	0x3c8cf6b9	0.01720749
162	0xbdd29568	-0.10282403
163	0xbdf9ed1c	-0.12203428
164	0x3e072e8f	0.13201354
165	0xbda9c449	-0.082893915
166	0x3dc20dea	0.0947531
167	0xbe292658	-0.16518533
168	0x3e2d9d65	0.16954572
169	0xbd0f8f07	-0.03504851
170	0xbe193235	-0.14960559
171	0xbdbefcbb	-0.09325548
172	0xbdbc52f7	-0.09195512
173	0x3d0be478	0.03415343
174	0xbc6facbd	-0.014628586
175	0xbe03fa6d	-0.12888499
176	0xbe14539f	-0.14485024
177	0xbde6bc8a	-0.1126643
178	0xbd3b82ad	-0.04577892
179	0x3e078aee	0.13236591
180	0x3c3ac025	0.01139835
181	0xbe0555d6	-0.13021025
182	0x3d5c9e69	0.05386201
183	0x3c3a4d92	0.011371033
184	0x3e07d304	0.1326409
185	0xbe1ac0cc	-0.15112609
186	0x3e226961	0.15860511
187	0x3e0752e8	0.1321522
188	0x3d7cddc8	0.061734945
189	0xbe384837	-0.17996298
190	0x3e2e0430	0.16993785
191	0xbd978c66	-0.07399826
192	0x3e0996e0	0.1343646
193	0x3d2f9274	0.042864278
194	0x3c3492bb	0.011021311
195	0x3d37d674	0.044882253
196	0x3a22930c	0.0006201721
197	0xbc243d94	-0.010024447
198	0x3d8b717b	0.06808754
199	0x3b342399	0.0027487038
200	0x3e19406d	0.14965983
201	0xbe394b66	-0.18095168
202	0x3cae3e9c	0.021270089
203	0x3e26f33d	0.16303726
204	0x3e20ab5f	0.15690373
205	0x3dabb00c	0.08383188
206	0xbdafe9f1	-0.08589543
207	0x3e400370	0.18751311
208	0x3e416fcd	0.18890305
209	0x3b0c8259	0.0021439998
210	0x3dd8111f	0.105501406
211	0xbdf23dc5	-0.11828188
212	0xbc947093	-0.018120086
213	0x3e277382	0.16352656
214	0xbcbc7d2a	-0.023008902
215	0xbdef02d6	-0.11670463
216	0x3d8bbb72	0.06822862
217	0xbdd50f81	-0.10403348
218	0x3e1ff53a	0.1562089
219	0xbdeb0ef8	-0.114774644
220	0x3c87b226	0.01656444
221	0xbe01b5bc	-0.12666982
222	0x3dfc7e49	0.123287745
223	0x3c1e717a	0.00967061
224	0xbdcac7f5	-0.0990142
225	0xbe368be0	-0.17826796
226	0xbc550fa3	-0.013004216
227	0xbd888933	-0.06666794
228	0x3cc32419	0.023820924
229	0xbe214a69	-0.15751041
230	0x3e326adc	0.17423576
231	0xbd0fee05	-0.035139102
232	0x3d81bd63	0.06334951
233	0xbe278f58	-0.16363275
234	0x3d2e3546	0.042531274
235	0x3e0a789f	0.13522576
236	0x3e1a299f	0.1505494
237	0xbd580a2b	-0.052744072
238	0xbcf14136	-0.02945004
239	0xbd376455	-0.04477342
240	0xbc7c62f9	-0.015404456
241	0xbe00a461	-0.12562706
242	0x3de83eed	0.11340127
243	0xbe0c293e	-0.13687608
244	0x3de28a38	0.110615194
245	0xbb5f8d5c	-0.0034111356
246	0x3e215722	0.15755895
247	0xbd47ebe5	-0.04880895
248	0x3b748f76	0.0037316955
249	0x3e3ef8f6	0.18649659
250	0xbd8aafd0	-0.06771815
251	0x3dd56882	0.10420324
252	0xbc471d62	-0.0121530015
253	0xbe3c9799	-0.18417205
254	0xbd8199b5	-0.063281454
255	0xbcfa41f1	-0.030549021

Network_stack.0.0.gru.bias_ih_l0 f4 [96]
0	0xbc099b1d	-0.008398798
1	0xbda5e485	-0.08100227
2	0x3c5cced3	0.013477045
3	0x3df3ef22	0.11910845
4	0xbd41d559	-0.047322605
5	0xbdd1d96a	-0.102465466
6	0x3dad7339	0.084692426
7	0x3d913e20	0.070919275
8	0x3e07aa8d	0.13248654
9	0x3cab82e3	0.020936435
10	0x3cced913	0.025249993
11	0x3e402825	0.18765314
12	0x3dccdbca	0.10002859
13	0x3d8898fc	0.066698045
14	0xbab3946e	-0.0013700852
15	0xbd2c1f71	-0.042022172
16	0x3bd70c72	0.006562763
17	0x3dce106c	0.10061726
18	0xbdf39f71	-0.118956454
19	0xbdd0e294	-0.10199466
20	0x3e1608bb	0.14651768
21	0x3d8e09d2	0.06935467
22	0xbaae12da	-0.0013280765
23	0xbdffe850	-0.12495482
24	0xbd3b889f	-0.04578459
25	0x3e0a5d28	0.13512099
26	0xbdab6980	-0.08369732
27	0x3cbbc64c	0.022921704
28	0x3d4d4b25	0.05012049
29	0x3d5a025c	0.053224906
30	0x3e05bdbf	0.13060664
31	0x3dddbc1f	0.10826897
32	0xbe56c13b	-0.20972149
33	0x3de94f31	0.11392058
34	0xbe4b5f9f	-0.19860695
35	0x3d4a0b9a	0.04932747
36	0xbe33611e	-0.17517516
37	0x3d7427a3	0.059608113
38	0x3d4d753c	0.05016063
39	0x3e01c1a1	0.1267152
40	0x3db66e9d	0.089078166
41	0xbd01be14	-0.031675413
42	0xbccfdc75	-0.025373677
43	0x3dcb094f	0.09913885
44	0x3da98b17	0.082784824
45	0xbd35fbd7	-0.044429626
46	0xbc3666b3	-0.011132884
47	0x3d6e664f	0.058203038
48	0xbd8231a1	-0.06357122
49	0x3d88cc0e	0.06679545
50	0xbd8b9817	-0.06816118
51	0xbe11e841	-0.14248754
52	0x3e33ff84	0.1757794
53	0x3d4ff146	0.050767206
54	0xbd7fa73f	-0.062415358
55	0x3e334023	0.17504935
56	0xbc299ec9	-0.010352799
57	0x3dd1d3ea	0.102454975
58	0x3e16d5b0	0.14729953
59	0x3d166afb	0.03672312
60	0x3e10ee02	0.14153293
61	0x3dcbfd93	0.09960475
62	0xbc11eb32	-0.008906173
63	0x3d1021b9	0.03518841
64	0x3e34e293	0.17664556
65	0x3d9d45cc	0.07679328
66	0xbe296f8f	-0.16546462
67	0x3e07be7c	0.13256258
68	0x3d0344ba	0.032047965
69	0x3d9ae640	0.07563448
70	0xbdbd4616	-0.092418835
71	0x3db92d66	0.09041862
72	0xbe275005	-0.16339119
73	0x3dac554d	0.08414707
74	0xbd6dec9d	-0.05808698
75	0xbe1439c3	-0.1447516
76	0x3e179f1d	0.1480679
77	0xbe2c05d9	-0.16799106
78	0xbd874a97	-0.06606024
79	0xbda5bd55	-0.08092753
80	0xbd7be96f	-0.061501916
81	0x3e1ae6b0	0.15127063
82	0xbe1e793b	-0.15475933
83	0x3dad71d8	0.084689796
84	0xbd73ccc4	-0.05952145
85	0x3c64a36c	0.013954978
86	0x3d51db4a	0.05123452
87	0x3d2c341a	0.042041875
88	0x3b8fb2f5	0.004385347
89	0xbe23a1df	-0.15979718
90	0x3d1b74e8	0.037953287
91	0xbe281282	-0.1641331
92	0x3d058570	0.03259796
93	0x3de75b89	0.11296756
94	0xbe13e5f9	-0.14443196
95	0xbd0444f4	-0.03229232

Network_stack.0.0.gru.bias_hh_l0 f4 [96]
0	0xbdea341d	-0.11435721
1	0x3dcb15c7	0.09916263
2	0x3e330233	0.17481308
3	0xbd82e1d8	-0.063907325
4	0x3c0f997f	0.008764624
5	0xbce81a19	-0.028332757
6	0x3e001393	0.12507467
7	0xbbc05f99	-0.005870771
8	0x3ded4863	0.11586072
9	0xbe10a397	-0.14124905
10	0x3aad4281	0.0013218672
11	0xbdad5d4f	-0.08465063
12	0x3d1e5192	0.03865201
13	0xbde0c94e	-0.10975896
14	0xbd464ded	-0.04841416
15	0xbdd7f129	-0.105440445
16	0x3e1c4705	0.15261467
17	0xbcd3df9e	-0.025863465
18	0x3d9ff5d8	0.07810563
19	0xbe05a2d9	-0.13050403
20	0x3cec693b	0.028858772
21	0xbdc1d1d8	-0.09463853
22	0x3dc1b652	0.09458603
23	0x3db47c65	0.08812789
24	0xbe13c390	-0.1443007
25	0x3d885268	0.06656343
26	0x3d54e863	0.051979434
27	0x3caf80f5	0.021423796
28	0x3e0248a9	0.1272303
29	0xbb57f6ee	-0.0032953578
30	0xbe1ca7b0	-0.15298343
31	0xbe0a4c58	-0.13505685
32	0xbcff9aab	-0.031201681
33	0x3da82922	0.082109705
34	0x3de31b5f	0.11089205
35	0xbc2ede83	-0.010673168
36	0x3cbeb934	0.023281671
37	0x3da1f02f	0.079071395
38	0x3dd3e69d	0.1034672
39	0xbdf69234	-0.12039605
40	0x3dbb74e5	0.09153155
41	0x3dc665fa	0.09687419
42	0x3de19b22	0.11015917
43	0x3bd81a0c	0.006594902
44	0xbb669962	-0.0035186638
45	0xbc9b9e3c	-0.01899635
46	0xbd8d284d	-0.068924524
47	0x3b7f53b1	0.0038959796
48	0xbd6d23e6	-0.057895564
49	0x3e16527a	0.146799
50	0x3ceae593	0.028673923
51	0x3e194be7	0.1497036
52	0xbcf64439	-0.030061828
53	0xbdf7bcda	-0.120965675
54	0xbd9e128d	-0.07718382
55	0x3e0f66b7	0.14004026
56	0x3cc5aee8	0.024131253
57	0xbe36aed8	-0.17840135
58	0xbcfa67a0	-0.03056699
59	0x3e0e5407	0.13899241
60	0xbd604a5f	-0.054758426
61	0xbdf6f99f	-0.1205933
62	0x3d7fad8a	0.06242136
63	0xbd668fab	-0.056289356
64	0x3decf67a	0.11570449
65	0x3ddeeb0c	0.108846754
66	0xbd6d61b4	-0.057954505
67	0xbd81bfa0	-0.06335378
68	0xbdd6d5e0	-0.10490012
69	0x3d9fa9e7	0.07796078
70	0xbc5409bb	-0.012941773
71	0xbd255f3c	-0.040374026
72	0xbde9ec3b	-0.114220105
73	0x3e0fd538	0.1404618
74	0x3dba451b	0.09095212
75	0x3e08284a	0.13296619
76	0xbe23e60b	-0.16005723
77	0xbe0297f2	-0.12753275
78	0x3dafd425	0.08585385
79	0xbd3db2a8	-0.046312958
80	0xbdc32226	-0.09527998
81	0x3c9388e6	0.018009614
82	0x3c3dbca6	0.011580622
83	0xbd472c96	-0.048626505
84	0x3e00d3cb	0.12580793
85	0x3d0c3d75	0.034238297
86	0xbdb74c62	-0.08950116
87	0xbe036216	-0.12830386
88	0xbdb85012	-0.08999647
89	0x3e07c413	0.1325839
90	0xbd348174	-0.04406877
91	0x3d074a19	0.03302965
92	0xbd292f3d	-0.041304816
93	0xbbf918a6	-0.0076018153
94	0x3d50e8f6	0.05100342
95	0xbd3fad9b	-0.046796422

Network_stack.0.0.gru.weight_ih_l1 f4 [96, 32]
0	0xbe2d0dd0	-0.168998
1	0x3da606df	0.08106779
2	0x3a5a2b21	0.0008322467
3	0xbdaee479	-0.085396715
4	0xbe20341b	-0.15644877
5	0x3c09c658	0.008409105
6	0x3dd0a6f5	0.101880945
7	0x3de8b984	0.11363509
8	0xbd5b9aec	-0.053614542
9	0xbd291a01	-0.041284565
10	0xbe371837	-0.17880331
11	0xbe405483	-0.18782239
12	0x3d7a6c5f	0.061138507
13	0x3e1d2cb2	0.15349081
14	0x3b1f294f	0.0024286096
15	0x3ba8ddbf	0.0051533873
16	0xbe2f4b66	-0.17118606
17	0xbde8b7ef	-0.113632075
18	0xbe1ec507	-0.15504847
19	0x3dd6d466	0.104897305
20	0x3e2671a1	0.16254283
21	0xbb9e88cd	-0.0048380853
22	0xbdeb07c8	-0.114760935
23	0x3d718b80	0.05897093
24	0xbd9da15a	-0.07696791
25	0xbd9449a1	-0.07240606
26	0x3e42f4bb	0.1903867
27	0x3ded7f37	0.1159653
28	0x3e19363f	0.149621
29	0xbe1bb26c	-0.15204781
30	0x3dd27953	0.10277047
31	0xbd8f1707	-0.06986814
32	0xbc830862	-0.015995208
33	0xbd5c89d6	-0.053842388
34	0xbdd06845	-0.10176138
35	0x3d59e1ad	0.053193737
36	0x3d739f98	0.059478372
37	0xbe0da05c	-0.13830703
38	0x3d22eab2	0.039774604
39	0xbdd3ae20	-0.10335946
40	0x3e26998d	0.16269512
41	0xbd662b3c	-0.056193575
42	0x3dba6962	0.091021314
43	0xbde883fa	-0.113532975
44	0x3d690242	0.05688692
45	0xbba650cf	-0.005075551
46	0xbcf38a8e	-0.029729154
47	0xbdbea123	-0.09308078
48	0xbdc1ddae	-0.0946611
49	0xbd7e7082	-0.062119015
50	0xbcb2f2a4	-0.021844216
51	0xbc13ed07	-0.00902868
52	0xbc8f518d	-0.017494941
53	0xbbd25590	-0.0064188913
54	0xbe041890	-0.12899995
55	0x3c1b3581	0.009473206
56	0x3d54c48f	0.051945265
57	0xbd04e0fd	-0.032441128
58	0x3e0ebf14	0.13940078
59	0xbca1f84b	-0.019771716
60	0xbde152d0	-0.11002123
61	0xbe3b80cb	-0.1831085
62	0x3d8b6158	0.06805676
63	0xbd9568f8	-0.07295412
64	0xbd634193	-0.05548246
65	0xbcfa4e90	-0.03055504
66	0xbe1f5a3d	-0.15561767
67	0xbe1a4f3d	-0.1506929
68	0xbe249741	-0.16073324
69	0x3db6efaa	0.08932431
70	0xbe122339	-0.14271249
71	0xbd1b9762	-0.037986167
72	0x3e21d7bd	0.15804954
73	0x3e0e8907	0.1391946
74	0xbdbf59fb	-0.09343334
75	0xbde42a1d	-0.11140845
76	0x3d0efe63	0.03491057
77	0xbbc7bd63	-0.0060955747
78	0xbd924a54	-0.07143083
79	0x3de5695d	0.11201737
80	0xbb3d1586	-0.002885194
81	0x3e11d745	0.14242275
82	0x3e2e5e3b	0.17028134
83	0xbd836c87	-0.06417184
84	0xbcd1d16c	-0.025612555
85	0x3d1454d9	0.03621373
86	0xbd4eabd7	-0.050456848
87	0x3e33f584	0.17574126
88	0xbe0fd24d	-0.14045067
89	0xbdd10456	-0.10205905
90	0xbd0f255c	-0.034947738
91	0x3dd6f87c	0.104966134
92	0xbb44ea37	-0.003004683
93	0x3e03a382	0.12855342
94	0x3d684d08	0.056714088
95	0x3d6251ff	0.05525398
96	0x3cc250bc	0.023720138
97	0xbd776c0c	-0.060405776
98	0x3e3b02af	0.18262742
99	0xbe0e6c06	-0.13908395
100	0x3e274a6d	0.16336985
101	0x3d1139fa	0.03545568
102	0xbd98e578	-0.07465643
103	0xbbf6396a	-0.0075141685
104	0x3c8c3f23	0.01711995
105	0xbdc703ae	-0.09717499
106	0xbd945aa8	-0.07243854
107	0xbd32c931	-0.043648902
108	0x3de5d8a2	0.1122296
109	0xbdfcf69f	-0.12351727
110	0xbd3c361d	-0.045950044
111	0xbe09e27d	-0.13465305
112	0xbe21c6b2	-0.15798452
113	0xbcd633d7	-0.026147766
114	0x3e25a895	0.1617759
115	0xbe2b6d9a	-0.16741028
116	0x3d08dc1f	0.03341305
117	0xbe266e62	-0.16253045
118	0x3d97741e	0.073951945
119	0x3e1f8704	0.15578848
120	0x3d88e1a3	0.06683662
121	0x3cf38677	0.029727204
122	0xbdcc3527	-0.099710755
123	0x3e3f90d4	0.18707591
124	0xbd655c20	-0.05599606
125	0xbe0ca1a7	-0.1373354
126	0x3e354e21	0.17705585
127	0xbe123545	-0.14278133
128	0x3d9e3eaf	0.077268
129	0xbae7bcf6	-0.0017680216
130	0xbc4e965b	-0.01260909
131	0xbd9c3177	-0.07626622
132	0x3e27d714	0.1639064
133	0xbd98d646	-0.074627444
134	0x3de3ad8d	0.111170866
135	0xbd875976	-0.0660886
136	0x3d92bf53	0.071653984
137	0xbdcf5c3e	-0.10125016
138	0x3c86b45a	0.01644342
139	0xbda017db	-0.0781705
140	0x3e2a31c8	0.16620553
141	0x3de5ef87	0.11227327
142	0xbe11e257	-0.14246498
143	0xbd071a9c	-0.03298436
144	0x3bebe680	0.0071991086
145	0xbca57299	-0.020196246
146	0x3c90c902	0.017673973
147	0x3d8f1bd4	0.0698773
148	0x3d8f8802	0.07008363
149	0xbd5e348c	-0.05424933
150	0xbe011409	-0.12605299
151	0xbc3ee0ac	-0.011650246
152	0x3d4291c9	0.047502313
153	0xbd517ce2	-0.05114449
154	0x3e27b956	0.16379294
155	0xbd3b93a6	-0.045795105
156	0x3dd4a684	0.10383323
157	0x3db1bf43	0.086790584
158	0x3d97a1cc	0.07403907
159	0x3caf16d2	0.021373186
160	0x3c573de1	0.013137312
161	0xbdd03cf4	-0.10167876
162	0xbe2784f7	-0.16359316
163	0xbcf65000	-0.030067444
164	0xbe1f24be	-0.1554136
165	0x3e17281d	0.14761396
166	0xbd57f3d4	-0.052722767
167	0x3db21371	0.086951144
168	0xbd6019e2	-0.054712184
169	0x3e264139	0.16235818
170	0x3e20e72c	0.15713185
171	0x3b780c9c	0.0037849313
172	0x3da155ea	0.07877715
173	0xbda271a0	-0.079318285
174	0x3e3a6a44	0.182046
175	0x3d2076e7	0.039175894
176	0xbe1e7684	-0.15474898
177	0x3e27f916	0.16403612
178	0xbdbe9927	-0.09306555
179	0x3cdede1b	0.027205518
180	0xbdda684f	-0.106644265
181	0x3e2f5c15	0.1712497
182	0xbe20c388	-0.15699589
183	0x3dc5be01	0.09655381
184	0xbe268d1d	-0.16264768
185	0x3e1c634b	0.15272252
186	0xbde65902	-0.11247446
187	0x3d8941c9	0.06702001
188	0x3d301ea6	0.04299798
189	0xbd01511a	-0.031571485
190	0x3d9d245d	0.07672951
191	0x3dcf0b7a	0.10109611
192	0xbd94503c	-0.07241866
193	0xbe15b190	-0.14618516
194	0xbe1cff53	-0.15331773
195	0x3dc53799	0.09629745
196	0x3cf9f42c	0.030511938
197	0xbc803307	-0.015649332
198	0xbe360a99	-0.1777748
199	0xbd7ce601	-0.061742786
200	0x3e228c44	0.1587382
201	0x3e1b8135	0.15186007
202	0xbc9db61d	-0.019251877
203	0x3c8a830d	0.016908193
204	0xbde9b5bd	-0.11411617
205	0x3df1cb65	0.118063726
206	0x3e1cdef0	0.15319419
207	0x3cfbc3c8	0.030733004
208	0xbd2cadbf	-0.042157885
209	0x3d8416dc	0.064496726
210	0x3d92eadd	0.07173703
211	0xbc82fc44	-0.01598943
212	0xbdf0cc58	-0.117577255
213	0x3c246188	0.010033019
214	0xbd192a88	-0.037394077
215	0x3d991c8e	0.074761495
216	0x3db816bf	0.089887135
217	0xbe00803d	-0.12548919
218	0xbdc1e191	-0.094668515
219	0xbd79390c	-0.06084542
220	0x3de19600	0.11014938
221	0xbe13d671	-0.14437272
222	0x3e0d6d38	0.13811195
223	0xbd477aa8	-0.04870096
224	0xbcdec262	-0.027192298
225	0xbe036f7b	-0.12835495
226	0xbe1343c3	-0.14381318
227	0xbcf45654	-0.02982632
228	0x3e12b3d5	0.14326413
229	0xbcc76bcb	-0.024343392
230	0xbd546a14	-0.051858976
231	0x3e27a78f	0.16372512
232	0x3dfb2997	0.12263792
233	0xbdcd1c60	-0.10015178
234	0xbd9c8ea9	-0.07644398
235	0x3d195b87	0.037440803
236	0xbdca2ac2	-0.09871437
237	0xbdfc96cb	-0.12333449
238	0xbe0ddce9	-0.13853802
239	0xbdcce801	-0.10005189
240	0xbdd13d5a	-0.1021678
241	0xbdf4d539	-0.119547315
242	0xbd336392	-0.04379613
243	0xbe07f7cf	-0.13278125
244	0x3e105cd6	0.14097914
245	0xbd4cd63b	-0.050008994
246	0x3e0b9fa1	0.13635112
247	0x3cfcc6f7	0.030856593
248	0xbe16e54f	-0.14735912
249	0x3e03f84d	0.12887688
250	0xbe10a664	-0.14125973
251	0xbe322ef9	-0.17400731
252	0x3c6ccd64	0.014453266
253	0xbcbe1d52	-0.02320734
254	0x3d3d35f8	0.046194047
255	0xbdee06d4	-0.11622396

Network_stack.0.0.gru.weight_hh_l1 f4 [96, 32]
0	0x3a6902a6	0.0008888639
1	0xbe324422	-0.17408803
2	0x3de381b8	0.11108726
3	0x3da1b77c	0.07896325
4	0x3e222545	0.1583453
5	0x3de1367d	0.10996721
6	0xbd092033	-0.033477973
7	0x3c21a91f	0.009866982
8	0x3e1c7e6e	0.15282604
9	0x3e10a68e	0.14126036
10	0x3dc3b47c	0.09555909
11	0x3d94498b	0.0724059
12	0x3df25f34	0.11834565
13	0x3dd04d1c	0.101709574
14	0xbc5359f8	-0.012899868
15	0xbd6deedc	-0.058089122
16	0xbac8ad7f	-0.0015310495
17	0xbe0490c1	-0.12945844
18	0xbd898f32	-0.067167655
19	0xbdc053aa	-0.09390958
20	0xbc33bc1e	-0.010970144
21	0xbe00cd00	-0.12578201
22	0xbe3ce4a5	-0.18446596
23	0xbe2fa551	-0.17152907
24	0x3cad986b	0.021190843
25	0xbda8965e	-0.08231805
26	0x3e1d7b8d	0.15379162
27	0xbe007fab	-0.12548701
28	0x3db68523	0.089121126
29	0x3e1ff1d1	0.1561959
30	0xbdb05e50	-0.08611739
31	0x3ceff015	0.029289285
32	0x3e0080ea	0.12549177
33	0x3da3c9b2	0.07997455
34	0x3e0b909c	0.13629383
35	0x3e01027d	0.12598605
36	0x3d0d5e1f	0.03451359
37	0xbe37fba5	-0.17967089
38	0x3dcb0fea	0.09915145
39	0x3dd27c7d	0.102776505
40	0xbdf46a06	-0.11934285
41	0x3e091753	0.13387804
42	0x3e14b043	0.14520364
43	0xbd9b6d24	-0.07589176
44	0xbd1f7c3d	-0.038936842
45	0x3d9ff23b	0.07809874
46	0xbdf9e9a0	-0.122027636
47	0xbd93bd0c	-0.07213792
48	0x3e14fe88	0.14550221
49	0xbc66b8f3	-0.014082181
50	0x3df5891b	0.119890414
51	0x3ddeb5b7	0.10874503
52	0xbdecc4b0	-0.11560953
53	0x3dbeab75	0.093100466
54	0xbe118b90	-0.14213395
55	0xbd94b253	-0.07260575
56	0x3df2f062	0.11862256
57	0x3d0e68fb	0.034768086
58	0xbc5628f4	-0.013071287
59	0x3e249b1f	0.16074799
60	0x3c9bc8ab	0.019016584
61	0x3e0b754d	0.13618965
62	0x3df61991	0.12016595
63	0x3cf856e5	0.030314872
64	0x3d1fc01f	0.03900158
65	0xbdaf1be9	-0.08550245
66	0xbe0a8e59	-0.13530864
67	0xbd0f54b5	-0.034992892
68	0x3d97ce9a	0.07412453
69	0xbcb5c3a4	-0.022188015
70	0xbdd502e1	-0.1040094
71	0x3e22685c	0.15860122
72	0xbdbce166	-0.09222679
73	0x3d58b1c5	0.05290391
74	0xbd0fbcf2	-0.0350923
75	0xbdf8d2c1	-0.12149573
76	0xbe094f52	-0.13409165
77	0x3e346368	0.17616045
78	0xbc5242cd	-0.012833309
79	0xbe134178	-0.14380443
80	0x3de2b71e	0.11070083
81	0xbdb89705	-0.0901318
82	0xbd23fba5	-0.04003491
83	0xbdc79cfd	-0.0974674
84	0x3da5d676	0.08097546
85	0x3d68bd03	0.05682088
86	0xbe2095b5	-0.15682109
87	0x3c153bd4	0.009108502
88	0x3d9276d5	0.07151572
89	0xbe146ca5	-0.1449457
90	0x3d556765	0.052100558
91	0x3c3aafd1	0.011394457
92	0x3cb40c2e	0.021978464
93	0xbdf9e8c3	-0.12202599
94	0xbe1db95e	-0.15402743
95	0xbd37f5d7	-0.044912186
96	0x3e2066ba	0.15664187
97	0xbe0148eb	-0.12625472
98	0x3d472b99	0.048625562
99	0x3dcc0ad3	0.09963002
100	0x3d9ffd32	0.07811965
101	0xbe03c45c	-0.12867874
102	0x3d332562	0.043736823
103	0xbe04b9f6	-0.12961563
104	0xbe0c983e	-0.13729951
105	0x3d54b36e	0.05192893
106	0xbd0ac2c0	-0.033877134
107	0xbe1fc583	-0.15602688
108	0xbda1a789	-0.07893283
109	0xbb5ca626	-0.0033668368
110	0x3db303d1	0.08740962
111	0xbe31d961	-0.1736808
112	0xbdf6ff1c	-0.12060377
113	0xbda6d208	-0.08145529
114	0xbdaf3230	-0.085544944
115	0x3caf42b4	0.021394111
116	0x3e2911d7	0.16510712
117	0x3dfef4bd	0.12449024
118	0xbbb2e01e	-0.0054588458
119	0x3daea03e	0.085266575
120	0x3d7e429d	0.062075246
121	0xbd3c27ae	-0.04593628
122	0xbbef2bf3	-0.0072989403
123	0x3e0a7b8d	0.13523693
124	0x3da621f6	0.08111946
125	0xbdb97610	-0.09055722
126	0xbcbf1828	-0.023326948
127	0xbdd4abd4	-0.10384336
128	0xbe39e10f	-0.1815226
129	0x3e000eb6	0.12505612
130	0x3e0a233b	0.13490002
131	0x3bdede87	0.0068014297
132	0x3d8c8ff5	0.06863395
133	0xbd72949b	-0.059223752
134	0xbd80e4a2	-0.06293608
135	0xbde1264f	-0.10993635
136	0x3d8dd4f0	0.0692538
137	0x3df13f6c	0.11779675
138	0x3c03663f	0.008019983
139	0xbda0f70a	-0.07859619
140	0xbd8dd415	-0.06925217
141	0xbdf82600	-0.12116623
142	0x3c0fcd58	0.008776985
143	0xbe00757c	-0.12544817
144	0x3e3dd602	0.18538669
145	0xbe414611	-0.18874384
146	0xbe2057a4	-0.15658432
147	0xbdff6961	-0.12471271
148	0xbdc902ff	-0.098150246
149	0x3e0cebec	0.13761872
150	0xbdc55ed4	-0.09637228
151	0x3ddf373b	0.10899206
152	0xbc8454ae	-0.01615366
153	0x3e0a0a4d	0.13480492
154	0x3d8ed86f	0.06974875
155	0x3da24817	0.07923906
156	0xbdadcced	-0.08486352
157	0xbcf414ea	-0.029795129
158	0xbd04c515	-0.032414515
159	0xbd07d61a	-0.033163168
160	0x3d4b3518	0.04961118
161	0xbe0eff96	-0.13964686
162	0xbd49ab0d	-0.049235392
163	0xbb9bda81	-0.0047562723
164	0xbdeda3b0	-0.116034865
165	0xbcace7bd	-0.021106595
166	0x3e3ab14c	0.18231696
167	0xbd72879b	-0.059211355
168	0xbdbc2e87	-0.09188562
169	0x3dc8631a	0.09784527
170	0xbd85dd37	-0.06536334
171	0xbccd157a	-0.025034655
172	0xbd2679a0	-0.040643334
173	0xbd484fd7	-0.048904266
174	0xbe07568f	-0.13216613
175	0x3d57bae3	0.052668463
176	0x3d3195f8	0.043355912
177	0x3e0f6bdd	0.1400599
178	0xbdd960b6	-0.10614149
179	0x3daf287a	0.08552642
180	0x3e3054d6	0.17219862
181	0x3dedca4d	0.116108514
182	0x3d1a3595	0.037648756
183	0x3c732ce1	0.014842243
184	0x3e0e918f	0.13922714
185	0xbe01d86d	-0.12680216
186	0x3dbbf95e	0.091784224
187	0xbe034914	-0.12820846
188	0x3e123826	0.14279231
189	0x3e28e185	0.16492279
190	0xbdf1cae8	-0.118062794
191	0xbd8a2554	-0.06745401
192	0x3ce144b6	0.027498584
193	0x3d41021a	0.047121145
194	0x3ddde016	0.108337566
195	0xbcb07aee	-0.021542992
196	0x3ddb68a4	0.10713318
197	0x3dd6ae08	0.104824126
198	0xbdf6a738	-0.12043613
199	0x3e141530	0.14461207
200	0x3a1d46bb	0.00059996144
201	0xbcff24bb	-0.031145444
202	0xbc5ffcf0	-0.013671145
203	0x3dc61eea	0.09673865
204	0xbd07ef2d	-0.03318708
205	0x3e32d8d9	0.17465533
206	0x3e019f2b	0.12658374
207	0x3e2c6eeb	0.16839187
208	0x3d1696ea	0.036765017
209	0x3b85766d	0.0040729553
210	0x3e1da674	0.15395528
211	0xbdb54495	-0.088509716
212	0xbb023de7	-0.0019873322
213	0x3d213288	0.03935483
214	0xbca35377	-0.01993726
215	0x3dcbc404	0.099494964
216	0x3d035e88	0.032072574
217	0x3ddbe25d	0.10736535
218	0x3d8030cf	0.062593095
219	0xbdb30835	-0.087418
220	0xbd202e86	-0.03910687
221	0xbdc750ec	-0.097322315
222	0xbdf871c6	-0.121310756
223	0x3e04351a	0.12910882
224	0xbde2487f	-0.11048984
225	0xbe04a666	-0.12954101
226	0x3cd340b6	0.025787693
227	0x3dd61c62	0.10454632
228	0x3df5d54c	0.12003574
229	0xbe232d72	-0.15935305
230	0xbaf4cc9d	-0.0018676702
231	0x3d89341b	0.066993915
232	0xbd14dcfb	-0.036343556
233	0x3d893735	0.06699983
234	0x3e327324	0.17426735
235	0xbe383d2f	-0.1799209
236	0xbdd89a67	-0.10576325
237	0xbda07d10	-0.07836354
238	0x3de91f92	0.11382975
239	0xbc3369eb	-0.010950546
240	0x3d6747bf	0.056464907
241	0x3c99c509	0.018770711
242	0xbe40876a	-0.18801656
243	0xbdee3b29	-0.11632378
244	0x3bbbaf1f	0.005727663
245	0x3ba9f367	0.0051864865
246	0xbe0f3314	-0.13984329
247	0xbd127ae2	-0.03576172
248	0x3e28d2c4	0.1648665
249	0xbd50c7b7	-0.050971713
250	0x3e02a79d	0.12759252
251	0x3ca19d8b	0.019728443
252	0x3e20d7aa	0.1570727
253	0xbbda5ce9	-0.006663908
254	0xbe1d8522	-0.15382817
255	0xbda457d8	-0.08024567

Network_stack.0.0.gru.bias_ih_l1 f4 [96]
0	0xbd60942d	-0.05482881
1	0x3e0bc670	0.13649917
2	0xbe1348a9	-0.14383186
3	0xbd6d375b	-0.05791412
4	0x3e1aa9e2	0.15103868
5	0xbde1a6be	-0.11018132
6	0xbe265eba	-0.16247073
7	0x3d47b1ce	0.048753552
8	0xbcf155fc	-0.029459946
9	0x3dbad433	0.09122505
10	0x3de4620a	0.11151512
11	0x3c9ab829	0.018886643
12	0x3d44b7b2	0.048026748
13	0x3db79eef	0.08965861
14	0x3db82261	0.08990932
15	0xbdd84a17	-0.105610065
16	0x3b2a1fd4	0.0025958912
17	0x3aa8228b	0.0012827677
18	0xbd8dc5c1	-0.06922484
19	0xbdee8374	-0.116461664
20	0x3dc293ce	0.09500848
21	0xbdfed1f5	-0.1244239
22	0x3d26b8fb	0.040703755
23	0x3d8bf2f3	0.06833448
24	0xbe212afb	-0.15739052
25	0xbc40d75a	-0.011770094
26	0x3cf31c1b	0.029676488
27	0xbd1725da	-0.036901332
28	0xbe06dc08	-0.13169873
29	0x3daf6af1	0.08565319
30	0xbcadb9a3	-0.021206683
31	0xbda7ab64	-0.08186987
32	0x3dc31f5c	0.09527466
33	0x3e1f0656	0.1552976
34	0xbe273be9	-0.16331448
35	0x3e280fb8	0.16412246
36	0xbda2f94b	-0.07957705
37	0xbd0d849f	-0.034550305
38	0xbd1712d0	-0.036883175
39	0xbe20579a	-0.15658417
40	0x3e0e7d86	0.13915071
41	0xbd401c69	-0.046902094
42	0x3da2d2e9	0.07950384
43	0x3dc573c8	0.09641224
44	0xbdfbf62e	-0.123028144
45	0x3e0a4d8e	0.13506147
46	0xbdc2a479	-0.09504027
47	0xbca256cd	-0.01981678
48	0x3db62fda	0.08895846
49	0x3dc8dff9	0.098083444
50	0xbd3dca49	-0.046335492
51	0x3dc92e94	0.09823337
52	0x3e1780b7	0.14795195
53	0xbbd55caa	-0.0065112906
54	0x3dc7a701	0.0974865
55	0x3e0daa99	0.13834609
56	0xbd44b321	-0.048022393
57	0x3d68a91b	0.056801897
58	0x3d2d825f	0.04236066
59	0x3e326cac	0.17424268
60	0xbe1c4976	-0.15262398
61	0x3c8cc5aa	0.017184097
62	0xbc79249e	-0.015206484
63	0xbc05475b	-0.008134688
64	0xbe17cc55	-0.1482404
65	0xbe0cf48f	-0.13765167
66	0x3d39f710	0.045401633
67	0x3d23dfa7	0.040008213
68	0xbe182fb0	-0.14861941
69	0x3e4111c4	0.18854433
70	0x3bb67316	0.0055679185
71	0xbe1640e7	-0.14673196
72	0xbd106411	-0.03525168
73	0xbe2aa029	-0.16662659
74	0x3d8497a8	0.06474239
75	0xbe08c43a	-0.13356104
76	0xbda8c657	-0.08240955
77	0x3e19c90b	0.15018098
78	0xbe03babb	-0.12864201
79	0xbca30ddb	-0.019904068
80	0x3dd4b081	0.10385228
81	0xbdc69870	-0.09697044
82	0xbe1ba7f4	-0.15200788
83	0x3e1cc247	0.15308486
84	0x3e09064d	0.1338131
85	0xbd8117b1	-0.06303347
86	0xbbf98431	-0.0076146354
87	0xbdb97c9d	-0.09056971
88	0xbcae4867	-0.021274759
89	0xbcca2da0	-0.024679959
90	0xbe394212	-0.1809161
91	0x3c96ca14	0.018406905
92	0xbe03be50	-0.12865567
93	0xbe29becf	-0.16576694
94	0xbe333eb9	-0.17504396
95	0x3dab8b70	0.08376205

Network_stack.0.0.gru.bias_hh_l1 f4 [96]
0	0xbc22dcc3	-0.009940329
1	0xbe345e9c	-0.17614216
2	0x3deee373	0.11664476
3	0xbd7de8a7	-0.061989453
4	0xbc8ce0ca	-0.017197032
5	0xbe206ed8	-0.15667284
6	0x3e057d62	0.13036111
7	0xbd8363a4	-0.06415489
8	0x3d9cd976	0.07658665
9	0xbd0c7a8d	-0.03429656
10	0x3e0ca78a	0.13735786
11	0xbe20f46b	-0.15718238
12	0xbd7c917e	-0.06166219
13	0xbc9a3e0e	-0.018828418
14	0xbb9dba54	-0.004813472
15	0x3e25234d	0.16126747
16	0xbc56c19c	-0.0131076835
17	0x3d906d8c	0.070521444
18	0xbe284b67	-0.16435014
19	0x3dfaf9a4	0.122546464
20	0xbcf46bc0	-0.029836535
21	0x3d898a46	0.06715827
22	0xbe2e4365	-0.17017896
23	0x3d13f614	0.03612335
24	0x3da18f0b	0.078886114
25	0xbd9aba30	-0.07555044
26	0xbc85ad4d	-0.016317988
27	0x3da43499	0.08017845
28	0x3dfdf064	0.123993665
29	0x3e2cd521	0.16878177
30	0xbd8b8dd8	-0.06814164
31	0xbc81c95f	-0.015843092
32	0x3c2a8fab	0.01041023
33	0xbd43690e	-0.04770761
34	0x3da41226	0.08011274
35	0x3b8e8291	0.004349061
36	0x3b868304	0.0041049737
37	0xbdcbcb66	-0.099509045
38	0x3e05e61c	0.13076061
39	0x3da61de1	0.08111168
40	0xbe30f3be	-0.1728048
41	0xbe37542d	-0.17903204
42	0x3e445fb1	0.19177128
43	0xbd54f356	-0.051989876
44	0x3da53567	0.08066826
45	0x3e1ab594	0.15108329
46	0x3e033e2c	0.12816685
47	0xbdd5d90a	-0.104417875
48	0x3e2aaa90	0.16666627
49	0x3db9f445	0.09079794
50	0x3d7d3472	0.061817594
51	0xbd1d386f	-0.038383897
52	0x3d95be81	0.07311726
53	0xbe036d0a	-0.12834564
54	0xbe04559c	-0.12923282
55	0x3c467f77	0.012115351
56	0x3de4e686	0.11176781
57	0xbd602fe1	-0.05473316
58	0x3d0c1577	0.034200158
59	0xbc3d5bb3	-0.011557507
60	0x3d0adb7e	0.03390073
61	0xbe123aa8	-0.14280188
62	0xbe3a17a9	-0.18173088
63	0x3cb09af1	0.021558257
64	0xbdec101c	-0.1152651
65	0x3e1654df	0.14680813
66	0xbe377908	-0.17917264
67	0xbd3084f7	-0.043095555
68	0x3bfff6fd	0.0078114257
69	0xbdf610eb	-0.120149456
70	0x3d895c34	0.067070395
71	0xbe0bff39	-0.13671578
72	0x3dbd347f	0.092385285
73	0xbd007fda	-0.03137193
74	0x3db26be3	0.08711984
75	0xbe091663	-0.13387446
76	0x3e226611	0.15859248
77	0x3d85fdd9	0.06542558
78	0x3d1c9493	0.03822763
79	0x3daa31c9	0.08310277
80	0x3d893a19	0.067005344
81	0xbdee388f	-0.116318814
82	0x3e0005ab	0.12502162
83	0xbccce738	-0.025012597
84	0xbc0ae19b	-0.00847664
85	0x3e126dea	0.14299741
86	0xbde00a71	-0.109394915
87	0xbce31014	-0.027717628
88	0x3de7085f	0.112808935
89	0xbe1048e2	-0.14090303
90	0x3e1f887d	0.1557941
91	0xbd4b4398	-0.04962501
92	0x3ded7f74	0.115965754
93	0xbd77e4e1	-0.06052101
94	0x3c83c3d7	0.016084595
95	0xbe2c3e2f	-0.16820596

Network_stack.1.0.gru.weight_ih_l0 f4 [96, 2]
0	0xbddd2e73	-0.10799875
1	0x3de241c7	0.11047702
2	0xbcbd0781	-0.023074867
3	0xbd057677	-0.03258368
4	0xbdad56d2	-0.08463825
5	0x3dc9a229	0.09845383
6	0xbd7c27f3	-0.061561536
7	0x3e037124	0.12836128
8	0x3dd7e003	0.10540774
9	0xbbebb0d9	-0.0071927127
10	0x3e28d61b	0.16487925
11	0x3d936d81	0.071986206
12	0xbe2074da	-0.15669575
13	0xbe1728ef	-0.14761709
14	0x3e223cc3	0.15843491
15	0xbdec7324	-0.11545399
16	0x3c065120	0.008198053
17	0x3daeccd1	0.085351594
18	0x3da5058c	0.080576986
19	0xbe39c05d	-0.18139787
20	0x3d5a5efe	0.053313248
21	0xbdffb777	-0.12486165
22	0x3d8939fd	0.067005135
23	0x3e1bca92	0.15213993
24	0x3e2297eb	0.15878265
25	0xbdd9ef29	-0.10641319
26	0xbe0e1752	-0.13876083
27	0x3e2b5dee	0.1673505
28	0xbdeca0ab	-0.115540825
29	0xbd679e82	-0.05654765
30	0x3e183015	0.14862092
31	0x3b9d3640	0.004797727
32	0x3ddf3e62	0.109005705
33	0xbc1e1a3c	-0.009649809
34	0xbd3b5276	-0.045732938
35	0xbdae3504	-0.08506206
36	0xbb53d919	-0.0032325445
37	0x3d47f1a5	0.048814435
38	0xbddb4a07	-0.10707479
39	0xbd9d9775	-0.07694904
40	0xbdd7fecb	-0.10546645
41	0xbdeccb24	-0.115621835
42	0xbc936819	-0.017993974
43	0x3bc2670b	0.005932694
44	0xbe1330e7	-0.14374124
45	0x3e05454e	0.13014719
46	0xbe31f581	-0.17378809
47	0x3cbd83fa	0.02313422
48	0x3e0814e8	0.13289225
49	0xbe25ca33	-0.16190414
50	0xbe00ee4d	-0.12590905
51	0xbbabd5f5	-0.0052440115
52	0xbd1df31c	-0.038561925
53	0xbb88fc6d	-0.004180482
54	0xbde9e078	-0.11419767
55	0xbdf7d872	-0.121018305
56	0xbdce8fe7	-0.10086041
57	0x3cefcc41	0.0292722
58	0x3e2fcb8f	0.17167495
59	0x3ce0fce3	0.027464336
60	0xbe3a91bd	-0.18219657
61	0xbdb4711f	-0.08810639
62	0xbd9b4f2a	-0.07583459
63	0x3e271ba3	0.16319136
64	0x3c94bcf0	0.018156499
65	0xbdd58099	-0.10424919
66	0xbd456c51	-0.048199
67	0xbd301439	-0.042988036
68	0x3cdf164c	0.027232312
69	0x3cf03c69	0.02932568
70	0xbcea1c8a	-0.028578062
71	0x3d2645bb	0.040593844
72	0xbdc6af8d	-0.097014524
73	0x3d89dce3	0.06731584
74	0xbc40406f	-0.011734112
75	0x3dc021bc	0.09381434
76	0x3e258d2d	0.16167136
77	0x3e3b30b8	0.18280303
78	0xbe23b152	-0.15985611
79	0xbe283e24	-0.16429955
80	0xbdfd1841	-0.12358142
81	0xbdfd829d	-0.12378428
82	0x3be8707a	0.0070934864
83	0x3e1b7e21	0.15184833
84	0x3d000f58	0.031264633
85	0x3dd17c0f	0.102287404
86	0xbe1867e1	-0.14883377
87	0xbd757f73	-0.059936
88	0xbc153a0f	-0.0091080805
89	0x3d406246	0.04696872
90	0xbbca27a5	-0.006169277
91	0xbedc1f43	-0.429926
92	0xbe1b5e73	-0.15172748
93	0x3cb74b22	0.022374693
94	0xbdf81545	-0.12113432
95	0xbe29ac28	-0.16569579
96	0xbc6b3b8d	-0.01435746
97	0x3e08990e	0.13339636
98	0x3cf41a7d	0.029797787
99	0xbe50bc76	-0.20384392
100	0x3d20bae6	0.03924074
101	0xbda85fe5	-0.082214154
102	0x3c8fb667	0.01754303
103	0x3d8902dc	0.066899985
104	0x3dc3a557	0.095530204
105	0x3d5a3081	0.053268913
106	0xbd7c9754	-0.061667755
107	0x3e166338	0.14686286
108	0xbce82a08	-0.028340355
109	0xbe4f811b	-0.20264094
110	0x3e1d728d	0.15375729
111	0x3d45a060	0.04824865
112	0xbb4faa12	-0.0031687063
113	0xbe3ae15a	-0.18250027
114	0xbd0edf80	-0.034881115
115	0x3cfdfea8	0.031005219
116	0x3e1c2f72	0.15252474
117	0xbd935c25	-0.071953095
118	0xbd0f6ff9	-0.035018895
119	0xbc898227	-0.016785694
120	0xbdf7d2d5	-0.1210076
121	0xbe5c42b7	-0.21509825
122	0xbe88a840	-0.26690865
123	0xbe31c8af	-0.17361711
124	0xbd9dba1e	-0.07701515
125	0x3e03b0ca	0.12860408
126	0xbd2511ec	-0.040300295
127	0xbc46bc9b	-0.012129928
128	0x3d906ecf	0.07052385
129	0x3d9f5ee2	0.07781769
130	0xbd910f6d	-0.0708302
131	0xbd7ef567	-0.062245753
132	0x3dab4284	0.08362296
133	0x3e123350	0.14277387
134	0x3cd20ef3	0.025641894
135	0x3d924502	0.071420684
136	0xbd43797d	-0.047723282
137	0x3d2a4362	0.041568168
138	0x3cce03ee	0.025148358
139	0x3e23fbd7	0.16014038
140	0x3e28ec55	0.16496404
141	0x3e24e6d3	0.16103677
142	0x3e1b5da9	0.15172447
143	0xbdf4489e	-0.11927913
144	0x3e239268	0.15973818
145	0xbcf70bcb	-0.03015699
146	0xbbfcdda6	-0.0077168522
147	0x3d511314	0.051043585
148	0xbdb135cf	-0.08652841
149	0x3e00e931	0.12588955
150	0x3dce0504	0.100595504
151	0x3cf631de	0.030053075
152	0xbd633fc7	-0.055480745
153	0xbbbb246e	-0.00571113
154	0x3db0ef47	0.086393885
155	0x3e17aec6	0.14812765
156	0x3cd1c9e7	0.02560897
157	0xbdbda4fb	-0.09259983
158	0x3dd604cd	0.104501344
159	0x3e3eb324	0.18623024
160	0x3cadab92	0.021199975
161	0xbd38c1b8	-0.04510662
162	0xbc2be31c	-0.010491159
163	0x3dd5e567	0.10444146
164	0x3d97b6f0	0.074079394
165	0x3dfd8dcd	0.12380562
166	0xbe05d203	-0.13068394
167	0x3e149b68	0.14512408
168	0xbd9414dc	-0.07230541
169	0xbe1edeeb	-0.15514724
170	0xbd9b6751	-0.075880654
171	0x3e09866a	0.13430181
172	0x3b91b838	0.0044470094
173	0xbe172d9d	-0.14763494
174	0x3d0336be	0.032034628
175	0xbde62520	-0.1123755
176	0xbe07a36f	-0.13245939
177	0xbe1ba604	-0.15200049
178	0xbe100aa6	-0.14066562
179	0x3e1ffd8a	0.15624061
180	0x3c962efb	0.018332949
181	0xbdc15495	-0.09439961
182	0x3e28908e	0.16461393
183	0x3e2c6b5a	0.16837826
184	0x3dd16ac3	0.10225441
185	0x3e250314	0.16114455
186	0x3c980655	0.018557707
187	0xbe082513	-0.13295393
188	0x3d496f15	0.0491782
189	0xbe12f997	-0.14353023
190	0xbcc37ac8	-0.023862258
191	0xb99a1bbe	-0.00029393838

Network_stack.1.0.gru.weight_hh_l0 f4 [96, 32]
0	0x3c6fd536	0.014638236
1	0xbe24e7e6	-0.16104087
2	0x3e097a8d	0.13425656
3	0xbc8b4b5b	-0.017003706
4	0x3daee0d6	0.08538978
5	0xbdbde675	-0.09272472
6	0x3d9a0cd9	0.07521982
7	0xbdf0905c	-0.11746284
8	0xbdb81c1a	-0.08989735
9	0xbda95aef	-0.08269297
10	0xbe255015	-0.1614383
11	0x3e19026f	0.14942335
12	0xbd44d7d0	-0.048057377
13	0xbe2866b3	-0.16445427
14	0x3c6cc535	0.014451315
15	0xbc911915	-0.017712155
16	0xbdaef5c9	-0.085429735
17	0xbd1947f0	-0.03742212
18	0x3d00c1cd	0.031434823
19	0xbe0f05da	-0.13967076
20	0x3ddd14b5	0.10794965
21	0x3ca552fc	0.020181172
22	0xbd5bfb15	-0.053706247
23	0x3dd9df5c	0.106383055
24	0x3dba92ff	0.091100685
25	0xbd369487	-0.04457524
26	0xbe1740a8	-0.14770758
27	0x3e1f30e3	0.15545993
28	0xbd832b3c	-0.06404731
29	0x3e0f1b29	0.13975205
30	0x3ddb1ec8	0.106992304
31	0xbdab31c7	-0.08359104
32	0x3e240571	0.160177
33	0xbd5864e2	-0.052830584
34	0x3e28b83e	0.16476533
35	0x3d99faed	0.075185634
36	0x3dafc73b	0.08582922
37	0xbdb6ae40	-0.08919954
38	0x3d4f5980	0.050622463
39	0x3caa0a4d	0.020756865
40	0xbe0d3396	-0.1378921
41	0xbcae4ee2	-0.021277849
42	0x3de99654	0.11405626
43	0xbdcdd116	-0.100496456
44	0x3c8328e3	0.016010707
45	0xbe0d8f9d	-0.13824315
46	0xbe363fdc	-0.17797798
47	0xbda23c5b	-0.07921668
48	0xbda804bd	-0.08204029
49	0x3df11159	0.11770887
50	0x3d5a58c1	0.0533073
51	0x3d5a1b07	0.05324843
52	0xbe1a7d93	-0.15086965
53	0xbdacc63f	-0.0843625
54	0xbe2e574e	-0.17025492
55	0xbe240c4a	-0.16020313
56	0x3c9a1e0e	0.01881316
57	0x3cdb3cb7	0.02676235
58	0xbccd74bd	-0.02508008
59	0xbe05c415	-0.1306308
60	0x3df91cba	0.12163682
61	0x3d081a1e	0.033228032
62	0x3e24fac3	0.16111283
63	0x3cd23e68	0.025664523
64	0xbbe7aad4	-0.007069925
65	0xbdd9ce6f	-0.10635077
66	0xbdb4232d	-0.08795772
67	0xbd2eaa4b	-0.042642873
68	0x3e2f21c4	0.17102724
69	0x3df87051	0.12130798
70	0xbe0fa457	-0.14027534
71	0x3e37ca82	0.17948344
72	0x3e3e2ce7	0.18571816
73	0x3ddd5ca6	0.10808687
74	0xbe3754dd	-0.17903467
75	0x3e18be77	0.14916407
76	0x3e126de1	0.14299728
77	0xbd6897ec	-0.05678551
78	0x3e30bae9	0.172588
79	0x3de95165	0.11392478
80	0x3dad8244	0.08472112
81	0x3d2b44d8	0.0418137
82	0x3d4e2984	0.05033256
83	0x3e13d56c	0.14436883
84	0x3ddbd0e7	0.10733204
85	0xbc8edf7b	-0.017440548
86	0xbdf12703	-0.11775019
87	0x3d04136c	0.032245085
88	0xbd535872	-0.05159802
89	0x3de41108	0.11136061
90	0xbd896000	-0.06707764
91	0x3d9088b1	0.07057322
92	0x3c229258	0.009922586
93	0xbe111ef3	-0.14171962
94	0x3dfe27a3	0.12409904
95	0x3e052d4c	0.1300556
96	0x3e2087f7	0.15676866
97	0xbd0d5602	-0.03450585
98	0xbd9dcdaf	-0.07705247
99	0x3ce8e635	0.028430084
100	0x3c61bd9d	0.0137781175
101	0x3d54f8fe	0.05199527
102	0xbe0e91d1	-0.13922812
103	0x3d55e182	0.052217014
104	0x3d8b3ad2	0.067983285
105	0xbda0d784	-0.07853606
106	0xbdfa48c5	-0.12220911
107	0x3da327c1	0.07966567
108	0xbc838c8b	-0.016058227
109	0xbe0ddaea	-0.1385304
110	0xbd952d24	-0.072840005
111	0xbdd3e1df	-0.10345816
112	0x3e32a0a9	0.174441
113	0xbd5c42f7	-0.0537748
114	0xbbf99cd5	-0.007617573
115	0x3dc1f02a	0.09469636
116	0x3bb7c7a4	0.005608516
117	0xbe13b633	-0.14424972
118	0xbde990c9	-0.11404569
119	0xbde396e0	-0.111127615
120	0x3e040ae9	0.12894787
121	0x3ccbc5e3	0.024874633
122	0x3bfe1220	0.0077536255
123	0xbdea7e35	-0.11449853
124	0xbd84821e	-0.064701304
125	0x3daa59ff	0.08317947
126	0x3e14944e	0.14509699
127	0x3ce9051c	0.02844482
128	0x3d05fbc7	0.032710817
129	0x3a86f78b	0.0010297162
130	0xbdb19923	-0.08671787
131	0x3de99006	0.114044234
132	0xbd8146d7	-0.0631234
133	0xbdb63f84	-0.088988334
134	0xbde79e72	-0.11309518
135	0xbddce318	-0.10785502
136	0xbe1d0e1a	-0.1533741
137	0xbe21033d	-0.15723892
138	0xbe0a6eb5	-0.13518794
139	0x3e25bdeb	0.16185729
140	0x3c9e518a	0.01932599
141	0xbd8101a0	-0.06299138
142	0xbe1b5e0d	-0.15172596
143	0xbe1f629e	-0.15564963
144	0xbd181ab6	-0.03713485
145	0xbdfc07fb	-0.1230621
146	0x3c9a172d	0.01880988
147	0x3e4380ac	0.19092053
148	0xbe136ac1	-0.14396192
149	0xbd9f052a	-0.07764657
150	0x3d7c2c39	0.06156561
151	0xbbbb43e6	-0.0057148812
152	0x3d202af3	0.03910346
153	0x3e298399	0.16554107
154	0x3d1bbc72	0.038021512
155	0xbe0e852f	-0.13917993
156	0x3d4317ff	0.047630306
157	0xbca4a482	-0.020097975
158	0x3d1d790f	0.03844553
159	0x3df9527c	0.12173936
160	0xbd21985d	-0.039451946
161	0xbdde3075	-0.10849086
162	0x3cf031b1	0.02932057
163	0x3ddfda0f	0.10930263
164	0xbe033a28	-0.12815154
165	0xbd56e357	-0.052462902
166	0x3e02358d	0.1271574
167	0xbe4a4fca	-0.19757
168	0x3d6dfc2c	0.058101818
169	0xbd6923f6	-0.05691906
170	0xbdc7e081	-0.097596176
171	0xbd61763a	-0.05504439
172	0xbd8c32a1	-0.06845594
173	0xbe1b2c00	-0.15153503
174	0xbbe82169	-0.007084061
175	0xbdb83b6b	-0.08995708
176	0xbe343205	-0.17597206
177	0x3d47ca67	0.04877701
178	0xbd67eb21	-0.05662072
179	0x3de5d64d	0.11222515
180	0x3dd53587	0.104106
181	0x3e144da1	0.14482738
182	0x3c275628	0.010213412
183	0x3d9589b0	0.073016524
184	0xbdd6265c	-0.10456535
185	0x3d2f1bdb	0.042751174
186	0xbc4901ce	-0.012268497
187	0xbdd7aae6	-0.10530643
188	0xbe005068	-0.12530673
189	0x3c44fbb4	0.012022901
190	0x3d774ebf	0.060377833
191	0xbe180af5	-0.1484793
192	0x3e1022cb	0.14075772
193	0x3e274e84	0.16338545
194	0xbc63dfef	-0.01390837
195	0xbe2b881e	-0.16751143
196	0x3c0b3be3	0.008498165
197	0xbdb080da	-0.086183265
198	0x3d2dd89c	0.042442903
199	0xbd2f9fab	-0.04287688
200	0x3dbf6e39	0.09347195
201	0xbd94bde2	-0.0726278
202	0x3e2bc390	0.1677382
203	0xbe33152f	-0.1748855
204	0xbdf48b56	-0.11940639
205	0x3e17866c	0.14797372
206	0xbe2bc59c	-0.167746
207	0x3d32c739	0.043647025
208	0x3d5e9dfc	0.054349884
209	0x3da85378	0.082190454
210	0x3d8b5c80	0.06804752
211	0x3dd99c88	0.10625559
212	0xbe03c2d6	-0.12867293
213	0x3c70e979	0.014704102
214	0xbdd94ece	-0.10610734
215	0xbe279161	-0.16364051
216	0x3dea5981	0.11442853
217	0xbdd57490	-0.10422623
218	0x3de27226	0.11056928
219	0xbe0202b9	-0.12696351
220	0x3d543d0a	0.051816024
221	0x3c8f6c48	0.017507687
222	0xbb90bc0c	-0.004416948
223	0xbdf9b5ad	-0.12192855
224	0x3db50e66	0.08840637
225	0x3d641a7d	0.055689324
226	0xbddd550a	-0.108072355
227	0x3df36ecd	0.11886368
228	0x3de27187	0.1105681
229	0x3e06fcbb	0.13182347
230	0x3d2fea21	0.042947892
231	0xbdfa029f	-0.12207531
232	0x3dc56dd3	0.09640088
233	0xbc51c48d	-0.012803209
234	0x3e14549c	0.14485401
235	0x3df78218	0.1208536
236	0xbe281e58	-0.16417825
237	0x3dd4f98a	0.10399158
238	0x3ce4733d	0.027886981
239	0x3d97da45	0.074146785
240	0x3b8adaad	0.004237494
241	0xbe1e75d3	-0.15474634
242	0xbd699d9e	-0.05703508
243	0xbe15a4f8	-0.14613712
244	0xbe3853fa	-0.18000785
245	0xbcaa4654	-0.020785488
246	0xbc767c22	-0.015044244
247	0xbda87a36	-0.08226435
248	0x3d0c1d02	0.03420735
249	0x3dfc869e	0.12330364
250	0xbdd936be	-0.10606144
251	0x3dabb6bc	0.08384463
252	0xbdffa9cd	-0.12483559
253	0xbe241ec8	-0.16027367
254	0x3d9b85aa	0.07593854
255	0x3dcef1c6	0.101047084

Network_stack.1.0.gru.bias_ih_l0 f4 [96]
0	0xbcf697c4	-0.030101664
1	0xbdf94a2e	-0.12172352
2	0x3e00c43a	0.12574854
3	0x3cd46179	0.025925385
4	0xbdac2f10	-0.08407414
5	0x3d423970	0.047418058
6	0xbe225377	-0.15852152
7	0x3e0171c8	0.1264106
8	0xbdfd0e4b	-0.12356242
9	0x3d660a47	0.056162145
10	0x3e2bf398	0.16792142
11	0xbd87547e	-0.066079125
12	0x3d0ac095	0.033875067
13	0x3dfcf821	0.12352014
14	0x3e072be3	0.13200335
15	0xbde59290	-0.11209595
16	0x3d987911	0.074449666
17	0x3da37d56	0.0798289
18	0x3dc5d998	0.09660643
19	0xbe36ec06	-0.17863473
20	0x3e28bded	0.16478701
21	0xbdc90d4e	-0.09816991
22	0x3da43a27	0.08018904
23	0xbe1fa3c3	-0.15589814
24	0x3e2b9578	0.16756237
25	0x3d076376	0.033053838
26	0x3d47da16	0.048791967
27	0xbd861710	-0.065473676
28	0xbe06eb7f	-0.13175772
29	0x3e4fa792	0.20278767
30	0xbdfe411b	-0.12414762
31	0x3da1c191	0.07898248
32	0xbe0eac64	-0.1393295
33	0xbd7fd21b	-0.06245623
34	0x3deed5f6	0.116619036
35	0x3d4ce707	0.050025012
36	0x3df65784	0.12028411
37	0xbcfbd3bc	-0.030740611
38	0x3e07748c	0.13228053
39	0xbd73c6c7	-0.05951574
40	0x3cb38989	0.021916168
41	0x3d9f400f	0.0777589
42	0x3e151257	0.14557777
43	0xbd945360	-0.07242465
44	0x3e0175ff	0.12642668
45	0xbc7285c6	-0.014802402
46	0xbd84bc32	-0.06481208
47	0xbe1b3571	-0.15157105
48	0x3c61e782	0.013788106
49	0x3e0fb34e	0.14033243
50	0x3de09761	0.10966373
51	0xbdc2281b	-0.09480306
52	0xbe0e41d5	-0.138923
53	0x3dd6b168	0.10483056
54	0xbe42b3ac	-0.19013852
55	0x3d5d0c8c	0.053967044
56	0x3a859d93	0.0010194056
57	0xbd3199a6	-0.04335942
58	0x3d99e533	0.075144194
59	0xbe3ac867	-0.1824051
60	0xbe6e6d11	-0.23283793
61	0xbe6f99c6	-0.23398504
62	0x3cb1acf3	0.021688914
63	0xbdf50904	-0.1196461
64	0xbdf67038	-0.12033123
65	0x3e162100	0.14661026
66	0xbe13a9b1	-0.14420201
67	0xbe18bdc1	-0.14916135
68	0xbe296b74	-0.16544896
69	0x3e063c4d	0.1310894
70	0x3e209e63	0.1568542
71	0x3d956bfe	0.072959885
72	0xbca7cb29	-0.020482616
73	0x3e00483e	0.12527558
74	0xbce1562f	-0.027506916
75	0xbde0b84d	-0.109726526
76	0x3d0896aa	0.03334681
77	0xbb0f7b40	-0.002189353
78	0x3caf5da2	0.021406952
79	0xbde9d93a	-0.11418386
80	0xbc2175d9	-0.009854757
81	0x3d874ae5	0.06606082
82	0x3db7b654	0.08970323
83	0xbe26aadc	-0.16276115
84	0x3db369a8	0.08760387
85	0x3d059e13	0.032621454
86	0xbd5e98d7	-0.05434498
87	0xbd20ff6a	-0.03930608
88	0x3e37afd2	0.17938164
89	0x3df15416	0.11783616
90	0xbcdb1e07	-0.026747717
91	0xbdd94607	-0.1060906
92	0xbd6bff46	-0.057616495
93	0x3d691777	0.056907143
94	0xbd5f1e68	-0.054472357
95	0xbdc1988b	-0.094529234
