models/model_uniform_region_0-0.3.0.6-0.9_multiple_Agentsbb3cb23c.pth (torch, 87266 bytes, 18 tensors)

Network_stack.0.0.gru.weight_ih_l0 f4 [96, 2]
0	0x3d8927ac	0.0669702
1	0xbde7adf5	-0.113124765
2	0xbc95bb05	-0.018277654
3	0x3db113d1	0.08646358
4	0xbcc830bd	-0.024437303
5	0xbc8b2507	-0.01698543
6	0x3e4c36aa	0.19942728
7	0x3d06416a	0.032777227
8	0x3e8c2a0b	0.27375826
9	0x3db4bed0	0.08825457
10	0x3d65ddd0	0.05611974
11	0x3df6bf13	0.12048163
12	0xbc7ab81f	-0.015302687
13	0x3dcce3b1	0.10004366
14	0xbd90e090	-0.07074082
15	0x3ceb8be2	0.028753225
16	0xbcf40977	-0.02978967
17	0xbe1b1784	-0.15145689
18	0xbd75243f	-0.05984902
19	0xbdfb00cf	-0.122560136
20	0x3ea7b941	0.32758525
21	0x3e075614	0.1321643
22	0xbe0159a3	-0.1263185
23	0x3e155d6f	0.14586423
24	0xbdc6f716	-0.09715097
25	0x3d2c0d52	0.04200489
26	0x3dd41a63	0.10356595
27	0xbc1081a6	-0.008819973
28	0xbe9936cd	-0.29924622
29	0xbe05f6eb	-0.13082473
30	0xbd98e8db	-0.07466289
31	0xbd06b16f	-0.032884058
32	0xbe686eec	-0.22698563
33	0xbc555159	-0.013019883
34	0x3e294b38	0.165326
35	0x3e1c2b30	0.1525085
36	0x3cc698aa	0.024242718
37	0xbe389beb	-0.18028228
38	0x3d822f94	0.06356731
39	0x3d4354dd	0.047688354
40	0xbe0d3d61	-0.13792945
41	0xbdc1c653	-0.094616555
42	0xbe651b98	-0.22373807
43	0xbe06b87e	-0.13156316
44	0xbeb1a88f	-0.34698913
45	0x3d36d3f4	0.044635728
46	0x3e121eec	0.14269608
47	0x3e077895	0.13229592
48	0xbe08f1d3	-0.13373499
49	0x3df108ee	0.11769281
50	0x3e5e4f32	0.21709898
51	0xbc78f1aa	-0.015194336
52	0x3cf063f6	0.02934454
53	0x3d800d44	0.0625253
54	0x3e90579a	0.28191835
55	0xbde52378	-0.11188406
56	0x3c9e8d31	0.019354435
57	0x3e289df7	0.16466509
58	0xbd9f68b4	-0.077836424
59	0xbb2b3a48	-0.0026127268
60	0x3dc7ab5c	0.09749481
61	0x3dc849dc	0.097797126
62	0x3e707854	0.23483402
63	0xbe3dbde6	-0.18529472
64	0x3e9a44cd	0.30130616
65	0x3eb21b8b	0.3478664
66	0xbe97f121	-0.29676154
67	0xbf4ff5ed	-0.8123463
68	0xbd62c121	-0.055359963
69	0xbce0f2de	-0.027459558
70	0xbea0beac	-0.3139547
71	0xbe47eefe	-0.19524762
72	0xbf138413	-0.57623404
73	0xbe9f0938	-0.3106172
74	0xbf56ab15	-0.838548
75	0xbf9f6240	-1.2451859
76	0xbe95b209	-0.29237393
77	0xbeb6047f	-0.35550305
78	0xbed17d98	-0.40916133
79	0xbf48eea9	-0.78489166
80	0xbec2f389	-0.38076428
81	0xbec321a0	-0.3811159
82	0x3ef3e170	0.47632933
83	0x3ef5a8ff	0.47980496
84	0xbf801f29	-1.0009509
85	0xbf4f32a8	-0.8093667
86	0xbfcebfaf	-1.6152247
87	0xbdcabec8	-0.0989967
88	0x3e2dd917	0.16977344
89	0xbf055d80	-0.52095795
90	0xbb457d14	-0.0030134367
91	0x3e27ae60	0.16375113
92	0xbfae8a1b	-1.3635896
93	0xbf74a51c	-0.95564437
94	0x3c2b61ef	0.010460361
95	0xbd130cdd	-0.03590094
96	0xbc574547	-0.013139076
97	0xbe840977	-0.2578847
98	0xbefbf660	-0.49211407
99	0xbd893fe9	-0.06701643
100	0x3c01cf75	0.007922997
101	0xbdbe7dbe	-0.09301327
102	0xbeb8fd4c	-0.3613075
103	0xbe8503e1	-0.25979522
104	0x3d90ebda	0.07076235
105	0xbe9affd3	-0.30273303
106	0xbe85a07f	-0.2609901
107	0xbeab1a4a	-0.33418494
108	0xbfad05b4	-1.3517365
109	0xbfc837b6	-1.5642002
110	0xbeeaa029	-0.45825318
111	0xbe4a309d	-0.19745107
112	0xbe7a3f3d	-0.24438186
113	0xbeaa109a	-0.3321579
114	0xbf0951a5	-0.53640205
115	0xbdda9913	-0.10673728
116	0xbe89452d	-0.2681059
117	0xbefae66d	-0.49003926
118	0xbf7d10ea	-0.98853934
119	0xbea1c179	-0.3159292
120	0xbe92193a	-0.2853487
121	0xbf07514b	-0.5285842
122	0x3e8ea2a3	0.27858457
123	0xbb8b5d90	-0.004253097
124	0x3e142695	0.14467843
125	0x3e4f0de0	0.20220137
126	0xbf033f0e	-0.5126809
127	0xbf063e03	-0.5243837
128	0xbd2cf057	-0.042221393
129	0xbdd23fc7	-0.10266071
130	0xbe25b3b7	-0.16181837
131	0x3e37f876	0.17965874
132	0x3e25a3a0	0.16175699
133	0x3d26769a	0.04064045
134	0x3d82b10e	0.06381427
135	0xbd3357e3	-0.043784987
136	0x3df4dfeb	0.119567715
137	0x3c5d2f73	0.013500082
138	0xbe4cf468	-0.20015109
139	0x3d210b15	0.03931721
140	0xbe4cc65d	-0.19997545
141	0xbe2c8948	-0.16849244
142	0x3e2eb1c3	0.17059998
143	0x3d45d6f8	0.048300713
144	0x3dbcd00a	0.09219368
145	0xbc9a4563	-0.018831914
146	0x3d8af713	0.06785407
147	0xbd66272c	-0.0561897
148	0x3e8da854	0.27667487
149	0xbd4040ee	-0.04693692
150	0x3e908928	0.28229642
151	0x3dee411c	0.116335124
152	0xbe51ae42	-0.2047663
153	0xbd076fbc	-0.033065543
154	0xbd8e95bd	-0.06962154
155	0xbe1b0fd9	-0.15142764
156	0x3e30eab1	0.17277028
157	0xbbee3bb2	-0.0072703
158	0xbcfb5237	-0.030678852
159	0x3e1815fd	0.14852138
160	0x3d9f48ca	0.07777555
161	0x3dab81a6	0.08374338
162	0xbe72e073	-0.23718433
163	0xbb3c914f	-0.0028773134
164	0x3cec50f9	0.028847205
165	0xbd4c1233	-0.049822044
166	0xbd80befc	-0.062864274
167	0xbe0c493a	-0.13699809
168	0x3e550e64	0.20806271
169	0x3db51f0a	0.08843811
170	0x3e14ce39	0.14531793
171	0x3dd430a0	0.10360837
172	0x3e9eb4c5	0.3099729
173	0x3d1710c4	0.036881223
174	0x3e84b5ad	0.25919858
175	0xbd94b8d1	-0.072618134
176	0xbe5bdc3a	-0.21470729
177	0xbda17246	-0.07883124
178	0x3e161459	0.146562
179	0xbe168e6d	-0.14702769
180	0x3e099426	0.1343542
181	0xbe441923	-0.19150214
182	0xbe3467c9	-0.17617716
183	0x3e03f892	0.12887791
184	0x3e5b7dc7	0.21434699
185	0xbe3b24d9	-0.18275775
186	0xbc951128	-0.018196657
187	0x3d8b9009	0.06814582
188	0xbe19d7c8	-0.1502372
189	0x3e02071a	0.12698022
190	0xbdde8f0f	-0.1086713
191	0xbda52f0e	-0.080656156

Network_stack.0.0.gru.weight_hh_l0 f4 [96, 32]
0	0xbd72b57b	-0.059255105
1	0x3db5f0a0	0.08883786
2	0xbe05d78c	-0.13070506
3	0x3dbd4cea	0.09243186
4	0xbd6b7ded	-0.05749314
5	0xbe3b2ef9	-0.18279637
6	0xbcd57fae	-0.026061859
7	0x3d0573b7	0.032581057
8	0xbdcc83e7	-0.09986096
9	0xbd8eb121	-0.069673784
10	0xba587a6a	-0.0008257987
11	0xbe21864c	-0.15773886
12	0xbd365b7e	-0.044520847
13	0x3e46dce0	0.19420195
14	0x3e3836cb	0.17989652
15	0x3c190ef7	0.009341947
16	0xbca038dd	-0.019558365
17	0xbe030c0f	-0.12797569
18	0x3e387339	0.18012704
19	0x3db25e44	0.08709386
20	0xbdcfb822	-0.101425424
21	0x3d59a52d	0.05313604
22	0x3e50e5c4	0.20400149
23	0x3d062967	0.032754328
24	0xbe0bbca8	-0.13646185
25	0x3e0e0268	0.13868105
26	0xbdb1e5c9	-0.08686406
27	0xbdec5fc5	-0.11541704
28	0x3da46d8c	0.08028707
29	0xbe12b6cf	-0.14327548
30	0xbdbc89cb	-0.092059694
31	0x3be55ccd	0.006999588
32	0xbc317553	-0.010831195
33	0xbe01314f	-0.12616466
34	0xbdc4a6bb	-0.09602114
35	0xbcf0500a	-0.02933504
36	0x3e702d59	0.23454799
37	0x3efa1e1d	0.488511
38	0x3dc75296	0.09732549
39	0x3d8ded47	0.06930023
40	0xbe2b3663	-0.16719966
41	0x3e201b8c	0.15635508
42	0xbe694273	-0.22779255
43	0x3d0e1a13	0.034692835
44	0x3e1b0e63	0.15142207
45	0xbd86578f	-0.06559669
46	0xbe9514c8	-0.29117417
47	0x3d8f78a0	0.07005429
48	0xbde14e2f	-0.110012405
49	0x3e2cb0da	0.16864339
50	0xbe07c1ff	-0.13257597
51	0x3e873114	0.2640463
52	0xbeeee1b5	-0.46656576
53	0x3d06e5df	0.032934066
54	0xbe5b4e90	-0.21416688
55	0xbe809675	-0.2511479
56	0x3ea7051e	0.32621092
57	0xbe92dace	-0.2868256
58	0x3e1aaf09	0.15105833
59	0x3d6bf7fc	0.057609543
60	0xbe489ba6	-0.19590625
61	0x3daa02cb	0.08301314
62	0x3e2a7a40	0.16648197
63	0x3c3be676	0.01146852
64	0x3e08400d	0.13305683
65	0x3e39c155	0.18140157
66	0xbde70fb6	-0.112822935
67	0xbd44cbc9	-0.048045907
68	0x3dcbdf0b	0.099546514
69	0x3e42fe20	0.19042253
70	0x3d1d9de7	0.038480666
71	0xbc6f02d3	-0.014588076
72	0x3d0ba432	0.034092136
73	0x3dd15abf	0.102223866
74	0x3e03fec3	0.12890153
75	0xbe5c5423	-0.2151647
76	0x3d978bbc	0.07399699
77	0x3e23e881	0.16006662
78	0xbaaa51b8	-0.0012994325
79	0xbda7aca5	-0.08187226
80	0xbc32424d	-0.010880065
81	0x3e16455e	0.14674899
82	0xbd44382f	-0.047905143
83	0xbc98fdb2	-0.018675659
84	0xbe002fec	-0.1251828
85	0xbb7ba5ea	-0.0038398453
86	0xbd9edc78	-0.07756895
87	0xbe0973b1	-0.13423039
88	0xbe1dfa9e	-0.15427634
89	0x3e2de6e6	0.16982612
90	0xbe34070f	-0.17580818
91	0x3e6c38c9	0.23068537
92	0x3db9e935	0.09077684
93	0xbe3c2019	-0.1837162
94	0xbe2c508c	-0.16827601
95	0x3ce55914	0.027996577
96	0x3d85c6a6	0.0653203
97	0x3d40e07d	0.04708909
98	0x3e2838f5	0.16427977
99	0x3d1e3641	0.03862596
100	0xbe08c6c6	-0.13357076
101	0xbdedd56a	-0.11612971
102	0xbe41ea33	-0.18936996
103	0xbd473d4f	-0.048642453
104	0x3d9d258f	0.07673179
105	0xbe27d0e5	-0.1638828
106	0x3deaf049	0.11471612
107	0x3cb16e13	0.021658933
108	0x3c4cb15a	0.012493456
109	0xbe18056a	-0.14845815
110	0x3c1239ca	0.008924911
111	0x3e3fe223	0.18738608
112	0xbd76f5b9	-0.060292933
113	0x3cf13be4	0.029447503
114	0x3d24708c	0.040146396
115	0xbd624324	-0.05523981
116	0xbe2af968	-0.16696703
117	0xbca7bb49	-0.020475047
118	0x3d5cac2a	0.053875126
119	0x3dc8dc1b	0.09807607
120	0xbc7f68df	-0.015588968
121	0xbcfdb898	-0.03097181
122	0x3de956c3	0.113935016
123	0x3d5569ac	0.05210273
124	0x3c6c212c	0.014412206
125	0xbdaf0e04	-0.08547595
126	0x3ddfece9	0.10933859
127	0xbdfa5141	-0.12222529
128	0x3d1df999	0.038568113
129	0xbe694964	-0.22781903
130	0xbe0136af	-0.12618516
131	0x3d09fc1c	0.033687696
132	0x3e9c866f	0.30571315
133	0xbea2ad3b	-0.3177279
134	0xbe4a41a3	-0.19751601
135	0x3dcf2d2c	0.10116038
136	0xbe06d461	-0.13166954
137	0x3affbe5e	0.001951169
138	0x3e75e0b2	0.24011496
139	0x3c9f3048	0.019432202
140	0xbd1770b5	-0.03697272
141	0xbe038825	-0.12844904
142	0x3db116c7	0.086469226
143	0xbdd39c41	-0.103325374
144	0x3b8be194	0.0042688344
145	0x3d792dbe	0.06083464
146	0x3daf7c35	0.085686125
147	0xbe66af6b	-0.22527854
148	0x3d9f4ead	0.07778678
149	0x3d6f2c26	0.058391713
150	0x3e642a2c	0.22281712
151	0x3e38ee08	0.18059552
152	0xbe64e8f4	-0.2235449
153	0xbc9c77de	-0.019100126
154	0x3d85bb62	0.06529881
155	0x3dc3855a	0.09546919
156	0x3e266ab8	0.16251647
157	0xbe0b8a7b	-0.13627045
158	0x3e2bef7e	0.16790578
159	0xbd959a1c	-0.07304785
160	0x3cd90fdd	0.026496822
161	0x3e02baa4	0.1276651
162	0x3d8b6765	0.0680683
163	0x3e21490a	0.15750518
164	0x3d4d8472	0.050175138
165	0x3e093cfe	0.13402173
166	0x3d8659c3	0.065600894
167	0xbb31e855	-0.0027146537
168	0xbbb1f6c4	-0.005431028
169	0xbd98ef83	-0.07467558
170	0x3d01b084	0.03166248
171	0x3ce39bef	0.027784316
172	0xbe2983b7	-0.16554151
173	0xbd8ffb8b	-0.070304
174	0x3e920bfa	0.28524762
175	0x3e23974e	0.15975687
176	0xbe2c7b19	-0.16843833
177	0x3dfbc44d	0.12293301
178	0x3da952d7	0.082677536
179	0xbe20b917	-0.15695606
180	0x3d06faea	0.032954134
181	0xbe4124cf	-0.18861698
182	0x3d89c3f1	0.06726826
183	0xbd7eae8b	-0.062178176
184	0x3e6d7c19	0.23191871
185	0x3d274348	0.04083565
186	0x3d93c4bf	0.07215261
187	0xbdf57b8f	-0.119864576
188	0xbe26bc73	-0.16282825
189	0xbe0011aa	-0.12506738
190	0xbc36a45d	-0.011147586
191	0x3e39796d	0.18112727
192	0x3d85e03a	0.065369084
193	0xbe389e98	-0.18029249
194	0xbd9ca790	-0.076491475
195	0xbe2bd4ad	-0.16780348
196	0xbdf83df8	-0.121211946
197	0x3e17a81b	0.14810221
198	0xbd39fc28	-0.04540649
199	0xbd4d6327	-0.050143387
200	0xbdbefc5c	-0.093254775
201	0x3d68c703	0.056830417
202	0xbe15cfa2	-0.14629987
203	0x3c2a6db8	0.010402136
204	0x3e329e1e	0.1744313
205	0x3d7698f0	0.060204446
206	0x3e04f4ec	0.12984055
207	0xbce3ddd0	-0.02781573
208	0xbe0f8b08	-0.1401788
209	0xbd5d6d8a	-0.054059543
210	0xbd85023a	-0.06494565
211	0xbdfa9324	-0.12235096
212	0xbca4a7f4	-0.020099618
213	0xbe2461a7	-0.16052876
214	0x3da77e83	0.08178427
215	0xbde43b55	-0.11144129
216	0x3c5c2f11	0.013438956
217	0xbd6f8632	-0.058477588
218	0xbd4aa8b0	-0.04947728
219	0xbd32064e	-0.043463044
220	0xbde0e18a	-0.10980518
221	0x3e28467f	0.16433142
222	0x3d97a285	0.07404045
223	0xbdf2f8bb	-0.11863848
224	0x3de8d376	0.11368458
225	0xbd98185f	-0.074265234
226	0x3cc45e93	0.023970878
227	0x3cdd29d2	0.02699748
228	0x3bcb0dd9	0.006196719
229	0x3e20af09	0.1569177
230	0xbe142b66	-0.1446968
231	0xbdac568a	-0.084149435
232	0x3bff50db	0.007791621
233	0xbce95c6b	-0.028486451
234	0x3e30c1e0	0.17261457
235	0x3e0e7cd7	0.1391481
236	0xbcab94dc	-0.020945005
237	0x3e1745d6	0.14772734
238	0xbd177851	-0.036979977
239	0x3d1f6446	0.038913988
240	0x3ca8ade7	0.020590736
241	0xbdd95f49	-0.10613877
242	0xbdcef4f4	-0.10105315
243	0x3ddb1d2c	0.106989235
244	0xbe15333c	-0.14570326
245	0x3ca2ce5d	0.019873792
246	0x3e104269	0.14087833
247	0x3dd1c169	0.10241968
248	0x3ea06055	0.31323496
249	0x3e405865	0.1878372
250	0x3d69685a	0.056984283
251	0xbd2515bd	-0.040303934
252	0x3dc402e0	0.09570861
253	0xbd926c80	-0.07149601
254	0xbb909db4	-0.004413331
255	0x3d0fc5f0	0.035100877

Network_stack.0.0.gru.bias_ih_l0 f4 [96]
0	0x3dcdde42	0.10052158
1	0x3e36403b	0.1779794
2	0xbe61c52b	-0.2204787
3	0xbd320209	-0.043458972
4	0x3d8d8f12	0.06912054
5	0xbd52ad91	-0.051435057
6	0xbdfd725b	-0.12375327
7	0x3c9146ee	0.017734017
8	0xbde114f4	-0.109903246
9	0x3e459da1	0.19298412
10	0x3d88423f	0.066532604
11	0x3e147193	0.1449645
12	0xbcb4ecc7	-0.02208556
13	0x3ddb10c7	0.106965594
14	0xbe2aa2bd	-0.16663642
15	0xbe1075cb	-0.14107434
16	0xbda3ad4e	-0.079920396
17	0xbd11ede6	-0.03562727
18	0x3e24c35e	0.16090152
19	0xbd3248d2	-0.043526478
20	0x3de86076	0.113465235
21	0xbe47839d	-0.194838
22	0x3d9edab5	0.07756559
23	0xbd9975a9	-0.07493145
24	0x3d7090cc	0.05873184
25	0xbd6469d8	-0.055765003
26	0x3dcb2091	0.09918321
27	0xbdb02634	-0.08601037
28	0x3de949ac	0.11391005
29	0x3c923559	0.017847704
30	0xbd02f840	-0.03197503
31	0x3e12e6bc	0.1434583
32	0x3e927e68	0.28612065
33	0xbf659f50	-0.89696217
34	0x3c3a36fb	0.011365647
35	0xbdbb658d	-0.09150229
36	0xbe4dbc49	-0.20091356
37	0xbfaa1d0c	-1.3290114
38	0xbea081b3	-0.31348953
39	0xbffcf0d7	-1.9760998
40	0xbead9512	-0.33902794
41	0x3e65d4f5	0.22444518
42	0xbfa5838d	-1.2930771
43	0xbe9e4e20	-0.3091898
44	0xbe903c6b	-0.28171095
45	0x3e4f31df	0.20233868
46	0xbfa78187	-1.3086404
47	0xbe32f74d	-0.1747715
48	0xbd6f1619	-0.058370683
49	0xbeceaafa	-0.4036482
50	0x3dcd85f9	0.10035319
51	0x3e0d4ad6	0.13798079
52	0xbc721496	-0.014775416
53	0x3a900584	0.0010987972
54	0xbfe5f628	-1.7965746
55	0xbed7b00e	-0.42126507
56	0xbf195182	-0.59889996
57	0xbf7a5033	-0.97778624
58	0xbeddd52d	-0.43326703
59	0xbef67bc1	-0.48141292
60	0xbed67cbc	-0.4189204
61	0x3ef0c9e7	0.4702904
62	0x3dd7515b	0.10513564
63	0xbf96d4a4	-1.1783643
64	0x3d5df4f7	0.054188695
65	0x3dd434bd	0.103616215
66	0x3e1b0560	0.15138769
67	0xbe2a6586	-0.1664029
68	0xbe4fb440	-0.20283604
69	0x3db9ab26	0.09065847
70	0x3c24f2f2	0.010067688
71	0xbe5b6557	-0.21425377
72	0x3d1e6ac8	0.038676053
73	0xbd97f2d7	-0.07419365
74	0xbd346884	-0.044044986
75	0x3e5b00a2	0.2138696
76	0x3da7bdb5	0.081904806
77	0xbbc2fe55	-0.005950729
78	0x3d23b367	0.039966013
79	0x3e2eecaa	0.17082468
80	0xbde8ae60	-0.113613844
81	0xbd340c25	-0.043956894
82	0xbd8ebaf8	-0.06969255
83	0xbd23529b	-0.0398737
84	0xbe234869	-0.15945591
85	0xbd807797	-0.0627281
86	0x3bc68e6c	0.0060594585
87	0x3e2131e6	0.15741691
88	0x3e294517	0.16530262
89	0x3cf660cf	0.030075459
90	0xbd972f88	-0.07382113
91	0xbd9e7b62	-0.07738377
92	0xbd89d05d	-0.06729195
93	0x3e53d043	0.20684914
94	0x3e0da38c	0.1383192
95	0x3e87cffb	0.26525864

Network_stack.0.0.gru.bias_hh_l0 f4 [96]
0	0xbbcdd8f0	-0.0062819645
1	0x3e6cbd86	0.23119172
2	0x39a63153	0.00031698737
3	0x3c93d701	0.018046858
4	0xbd76b891	-0.06023461
5	0xbe033c83	-0.12816052
6	0xbdf2bbd1	-0.118522294
7	0xbe29893c	-0.16556257
8	0x3db5ba50	0.08873427
9	0x3e15bc31	0.1462257
10	0x3af1a687	0.001843647
11	0x3d9cc611	0.07654966
12	0x3e2ed407	0.1707307
13	0xbe38d3c9	-0.1804954
14	0x3d9e7aa2	0.07738234
15	0xbd52db83	-0.051478874
16	0x3d138510	0.03601557
17	0x3aa6f8f2	0.0012738986
18	0x3e174d96	0.1477569
19	0x3e4ff62a	0.20308748
20	0x3df7c086	0.12097268
21	0xbc606e8f	-0.013698234
22	0x3e26b8c5	0.16281421
23	0xbdaa6043	-0.08319142
24	0x3d8aff8a	0.067870215
25	0x3e5fd7fc	0.21859735
26	0x3ace914b	0.0015759853
27	0xbdb0c750	-0.08631766
28	0x3d8fc2ee	0.07019602
29	0xbd6356f1	-0.055502836
30	0x3d8aa7ad	0.06770263
31	0x3d3c5e90	0.04598862
32	0x3e4ea807	0.20181285
33	0xbf84e23e	-1.0381544
34	0xbe7de7c5	-0.24795444
35	0xbcd71221	-0.026253762
36	0xbe83a148	-0.25708985
37	0xbfc2a51c	-1.5206637
38	0xbeca28b7	-0.39484188
39	0xbfe91d72	-1.8212111
40	0xbe8874f2	-0.26651722
41	0x3e39bb6f	0.18137906
42	0xbfa2eebd	-1.2729107
43	0xbd27c43e	-0.040958636
44	0xbecd4f1a	-0.40099412
45	0x3d54286c	0.05179636
46	0xbf9c63df	-1.2217978
47	0xbe86f442	-0.2635823
48	0x3d2ff2a5	0.042956013
49	0xbe364e51	-0.17803313
50	0xbd95ee39	-0.07320828
51	0xbd914a40	-0.0709424
52	0xbd40d230	-0.04707545
53	0xbe7853e5	-0.24250753
54	0xbfef410c	-1.8691726
55	0xbeaf3e84	-0.34227383
56	0xbf27ddaa	-0.6557261
57	0xbf5485b2	-0.830165
58	0xbf2574ad	-0.6463116
59	0xbf079a33	-0.52969664
60	0xbed4f04a	-0.41589576
61	0x3f0c090f	0.5470132
62	0x3e3107ae	0.17288086
63	0xbfaa3515	-1.3297449
64	0xbdeafd00	-0.11474037
65	0x3e47154d	0.1944172
66	0xbdd38cff	-0.10329627
67	0xbd83e7b5	-0.06440679
68	0xbe16dec0	-0.1473341
69	0xbda762fc	-0.08173177
70	0x3cd2f57a	0.025751818
71	0x3b9c6d41	0.0047737663
72	0x3d37ed07	0.04490378
73	0x3d82e73e	0.06391762
74	0x3dc6f484	0.097146064
75	0x3d6c7430	0.057727993
76	0x3e580352	0.21095017
77	0xbd24667e	-0.040136807
78	0xbd82dfb0	-0.06390321
79	0x3e43c4b7	0.1911801
80	0xbccbd8a1	-0.02488357
81	0xbe285c43	-0.16441445
82	0xbe0f032b	-0.13966052
83	0x3bf59cd1	0.0074955006
84	0xbdc1845d	-0.094490744
85	0xbe1b4a69	-0.15165104
86	0xbe2475fe	-0.16060635
87	0x3df9c69a	0.12196083
88	0x3dede632	0.11616172
89	0x3c0aca5d	0.008471099
90	0xbcb8c0a2	-0.022552792
91	0xbe559ace	-0.20859835
92	0xbd66c3b5	-0.056338985
93	0x3dd6e823	0.10493495
94	0x3de036cb	0.10947951
95	0xbdb4dc7e	-0.08831118

Network_stack.0.0.gru.weight_ih_l1 f4 [96, 32]
0	0xbe34addc	-0.17644447
1	0xbe1037ce	-0.14083788
2	0x3dc7fde9	0.097652264
3	0xbd833400	-0.064064026
4	0x3cc43001	0.023948671
5	0xbe0b76ad	-0.1361949
6	0xbdfdc3b4	-0.12390843
7	0xbdd88a69	-0.10573275
8	0x3cccd22a	0.025002558
9	0x3d559fd4	0.052154377
10	0x3e93841a	0.28811723
11	0x3e07b9e2	0.13254502
12	0xbdd9d605	-0.10636524
13	0xbe0412a7	-0.1289774
14	0x3d08d916	0.033410154
15	0xbbe7346f	-0.007055811
16	0xbdd3b88c	-0.10337934
17	0xbdf39a63	-0.11894681
18	0xbe007861	-0.12545921
19	0xbd4ed479	-0.0504956
20	0xbcc0b3db	-0.023523262
21	0x3d122597	0.03568038
22	0x3da9f687	0.082989745
23	0x3d56290d	0.052285243
24	0xbcd78dbe	-0.026312705
25	0xbd07e5a5	-0.03317799
26	0xbc93f992	-0.01806334
27	0xbe4cc1bb	-0.19995777
28	0xbd1dbb74	-0.038508847
29	0xbdb9920b	-0.090610586
30	0x3d0aecc6	0.03391721
31	0xbdc4d3b5	-0.096106924
32	0xbe168be4	-0.14701802
33	0x3d7e4e8a	0.06208662
34	0x3e032744	0.12807947
35	0xbc8f4e12	-0.017493282
36	0xbdaec740	-0.08534098
37	0xbe0e235d	-0.13880678
38	0xbdb6f75b	-0.08933898
39	0xbe479588	-0.19490635
40	0x3df6cc15	0.12050644
41	0x3dc3dd19	0.095636554
42	0x3d09ec8c	0.033672854
43	0xbe1d3e1e	-0.15355727
44	0xbd7d769e	-0.0618807
45	0x3e1f1c22	0.15538076
46	0xbd9e6d53	-0.07735696
47	0xbd575a5b	-0.052576404
48	0x39fa8715	0.0004778436
49	0xbdbb1256	-0.09134357
50	0xbcb62903	-0.022236353
51	0xbdccbe79	-0.09997267
52	0xbe09e0e9	-0.13464703
53	0x3a37a038	0.00070047705
54	0xbc79d19f	-0.0152477315
55	0x3e0314ff	0.12800978
56	0x3de383a1	0.111090906
57	0x3db86899	0.090043254
58	0x3dc5e3e2	0.09662606
59	0xbdc81534	-0.09769669
60	0x3d863552	0.06553139
61	0xbdf1eb10	-0.11812413
62	0xbde086b0	-0.109631896
63	0x3e35b5bc	0.17745107
64	0xbd93b98a	-0.07213123
65	0x3e07b5e3	0.13252978
66	0xbe53cf35	-0.20684512
67	0x3e4f841f	0.20265244
68	0x3d58adaf	0.052900013
69	0xbd669430	-0.056293666
70	0xbd53f07d	-0.05174302
71	0xbe10a5b8	-0.14125717
72	0xbd9b9ce4	-0.07598284
73	0xbd8f69f8	-0.07002634
74	0x3d52e530	0.0514881
75	0x3d9437dc	0.07237217
76	0xbe5f43f5	-0.21803267
77	0x3db21128	0.086946785
78	0xbe02c8e0	-0.1277194
79	0x3b484183	0.0030556626
80	0x3e4a4343	0.19752221
81	0x3e18c03b	0.1491708
82	0x3e27b628	0.16378081
83	0xbca71631	-0.020396324
84	0xbcb142c8	-0.02163829
85	0xbe231500	-0.1592598
86	0x3c976eff	0.018485544
87	0xbe474191	-0.19458605
88	0x3e2591eb	0.16168945
89	0x3dafbf76	0.0858144
90	0xbde79d28	-0.11309272
91	0x3d7b957d	0.06142186
92	0xbdf71eea	-0.12066443
93	0xbe66e24b	-0.22547261
94	0xbe2e6549	-0.17030825
95	0xbc8d4aed	-0.017247641
96	0xbe0228ae	-0.1271083
97	0x3e434143	0.19067864
98	0xbd749078	-0.05970809
99	0xbda11684	-0.07865623
100	0xbdfaa5d8	-0.122386634
101	0x3d906a2f	0.07051503
102	0x3da20b0e	0.07912265
103	0xbd890942	-0.06691219
104	0x3d1b4713	0.03790958
105	0xbe417693	-0.18892889
106	0xbd9043f4	-0.07044211
107	0x3e143a96	0.14475474
108	0xbbc00dbc	-0.0058610123
109	0xbdcd64a4	-0.10028961
110	0x3c27b115	0.010235091
111	0xbd1db8cf	-0.038506325
112	0xbd302116	-0.043000303
113	0x3e252abd	0.16129585
114	0xbc23ad57	-0.009990058
115	0x3e018b8a	0.12650886
116	0xbd6ecc0f	-0.058300074
117	0xbe207f3e	-0.15673539
118	0xbe98d7fa	-0.29852277
119	0xbe19af2b	-0.15008228
120	0x3e83fd2d	0.25779095
121	0x3d395796	0.045249544
122	0xbe01eea4	-0.1268869
123	0xbdbc9655	-0.09208361
124	0xbe5360f1	-0.20642449
125	0xbe07341f	-0.13203476
126	0x3c4b1cfa	0.012397045
127	0xbe03441d	-0.12818952
128	0xbe1aad93	-0.15105276
129	0x3e20da00	0.1570816
130	0x3dd397a3	0.10331657
131	0xbe2e75fd	-0.17037196
132	0xbe08ce3d	-0.13359924
133	0x3e464c93	0.19365148
134	0xbe03982e	-0.1285102
135	0xbd973744	-0.07383588
136	0x3ccc294c	0.024922036
137	0x3d0a86db	0.033820014
138	0x3e03e41c	0.12879986
139	0xbd9605f5	-0.07325355
140	0xbdeba162	-0.11505391
141	0xbe2b9c18	-0.16758764
142	0xbdf6270b	-0.120191656
143	0x3d1e0896	0.038582407
144	0xbdcb2b58	-0.099203765
145	0xbd98a388	-0.07453066
146	0x3d7ddbc1	0.06197715
147	0x3de8a7c8	0.11360127
148	0xbe580bff	-0.21098326
149	0x3d3f4fbd	0.046706904
150	0x3e13a270	0.14417434
151	0x3dc0ee34	0.09420434
152	0x3d590c28	0.05299011
153	0xbdd78b34	-0.10524598
154	0x3ce26f52	0.027640972
155	0xbe233c00	-0.15940857
156	0xbdb3c28b	-0.087773405
157	0x3c56cdda	0.013110602
158	0xbe2abce3	-0.16673617
159	0xbe01b84b	-0.12667958
160	0x3ddbbb37	0.10729068
161	0x3e36ba5e	0.17844531
162	0x3c201759	0.0097711915
163	0xbd435d9c	-0.047696695
164	0xbe8ade3a	-0.2712267
165	0x3e1e325b	0.15448897
166	0xbe0802de	-0.13282344
167	0xbe1f3f89	-0.1555158
168	0x3d3cbaa9	0.04607645
169	0x3d76de22	0.060270436
170	0x3ddf1aca	0.108937815
171	0xbdebd685	-0.11515526
172	0xbd2e16c3	-0.042502176
173	0x3d1057f3	0.035240125
174	0x3e160a6f	0.14652418
175	0x3d396d86	0.045270465
176	0x3dfd69ad	0.12373672
177	0x3c922299	0.017838763
178	0x3cdd380a	0.02700426
179	0xbd52ac1b	-0.051433664
180	0xbe5d1234	-0.21588975
181	0xbe343b04	-0.17600638
182	0xbd987b72	-0.0744542
183	0x3bf0757b	0.0073382235
184	0x3dd891b4	0.10574666
185	0x3e1bcf60	0.15215826
186	0x3e20e366	0.15711746
187	0x3e054997	0.13016354
188	0xbcf341d7	-0.02969448
189	0xbdd17daa	-0.10229047
190	0x3d3e6a45	0.046488065
191	0x3e10e369	0.1414925
192	0xbdeec32c	-0.1165832
193	0xbe456a81	-0.1927891
194	0x3e139cf2	0.14415339
195	0xbe0897c0	-0.13339138
196	0xbe1a9442	-0.15095618
197	0xbed5b20c	-0.417374
198	0xbd850d85	-0.06496719
199	0x3e8ffde2	0.28123385
200	0x3e12dec8	0.14342797
201	0xbd9bf1ba	-0.07614465
202	0x3f24e63a	0.644138
203	0x3e46c103	0.19409566
204	0x3dcfb3f6	0.10141747
205	0xbdea795b	-0.11448928
206	0x3f5e8f5e	0.8693751
207	0xbd3b44e6	-0.045720004
208	0xbdb920ee	-0.09039484
209	0xbe6f57df	-0.23373364
210	0xbe91f20a	-0.28504974
211	0xbdb00264	-0.08594206
212	0x3d018976	0.031625234
213	0x3e0b2b79	0.13590802
214	0x3f1c921e	0.6116046
215	0x3eb9c738	0.36284804
216	0xbcf711e7	-0.030159904
217	0x3eb8b461	0.36075118
218	0xbdad61d8	-0.08465928
219	0xbec9cadc	-0.39412582
220	0xbda7a510	-0.0818578
221	0xbd00266e	-0.03128665
222	0x3d35f5b3	0.04442377
223	0xbea91345	-0.33022514
224	0x3db02c45	0.08602194
225	0xbc821ea7	-0.015883757
226	0xbe2c81ac	-0.16846341
227	0xbdd06378	-0.10175222
228	0xbd105582	-0.035237797
229	0x3e9d49f9	0.307205
230	0x3e2cbb93	0.16868429
231	0x3d9f98ee	0.07792841
232	0xbe003481	-0.12520029
233	0xbcdc2212	-0.026871715
234	0x3e0305e5	0.12795217
235	0xbe0cf6bd	-0.13765998
236	0x3e2980c5	0.16553028
237	0x3d0a3635	0.033743102
238	0x3d277570	0.04088348
239	0x3e0b46bf	0.13601206
240	0x3e2e3480	0.17012215
241	0xbde51e3b	-0.11187407
242	0xbbdbb30b	-0.006704693
243	0xbda42af4	-0.08016005
244	0xbe87921d	-0.26478663
245	0x3c2050c8	0.009784885
246	0x3d58dfa2	0.052947648
247	0xbdedcadb	-0.11610957
248	0xbd03753e	-0.032094233
249	0xbe0d94e6	-0.13826331
250	0x3c9278f6	0.017879944
251	0x3c89b227	0.016808582
252	0xbbaadd36	-0.0052143587
253	0xbe200601	-0.1562729
254	0xbccee96c	-0.025257789
255	0x3e25cc8c	0.1619131

Network_stack.0.0.gru.weight_hh_l1 f4 [96, 32]
0	0xbcb028c8	-0.021503821
1	0x3c05b207	0.008160121
2	0xbd47ed22	-0.04881013
3	0xbda9bc2a	-0.082878426
4	0xbbc8c9ff	-0.0061275954
5	0x3d09fa53	0.033685993
6	0x3e3f4105	0.18677147
7	0xbd910135	-0.07080308
8	0x3dd2859f	0.102793925
9	0x3da8a07b	0.08233734
10	0x3d051c76	0.032497846
11	0x3e22f459	0.15913524
12	0x3c3c872e	0.011506839
13	0xbe37c5db	-0.1794657
14	0x3e1865ba	0.14882556
15	0xbd49512e	-0.049149685
16	0x3e97d69e	0.29655927
17	0x3db6430c	0.08899507
18	0x3d90835c	0.07056305
19	0xbe2ee431	-0.17079236
20	0xbd17812e	-0.03698843
21	0x3d9bfcd4	0.076165825
22	0xbb0cae1d	-0.0021466084
23	0xbe0196da	-0.12655202
24	0x3de863c6	0.11347155
25	0x3dc194e6	0.09452228
26	0x3e17bbc3	0.14817719
27	0xbde287e9	-0.11061079
28	0x3e35fc9c	0.17772144
29	0xbd1c2015	-0.038116533
30	0xbdfd27d6	-0.12361114
31	0xbdadcb61	-0.08486057
32	0xbb360bdf	-0.0027778072
33	0xbdd89759	-0.10575742
34	0x3ddab731	0.10679472
35	0xbd9eba60	-0.07750392
36	0xbe367890	-0.17819428
37	0xbdd6f3ac	-0.104956955
38	0x3e01184a	0.12606922
39	0xbc371cb8	-0.011176281
40	0xbe5a890f	-0.21341346
41	0x3e048f00	0.12945175
42	0xbd09281c	-0.033485517
43	0xbe14f875	-0.14547904
44	0xbd60958c	-0.05483012
45	0x3d6e5a5f	0.058191653
46	0x3e3616a2	0.17782071
47	0x3dc6af19	0.09701366
48	0xbc9e1512	-0.019297156
49	0xbce70444	-0.028200276
50	0x3d94584c	0.07243404
51	0xbd4ad3b0	-0.049518287
52	0xbdf17add	-0.117910124
53	0xbd59c825	-0.05316939
54	0xbe668cad	-0.22514601
55	0x3d54cbe0	0.051952243
56	0xbdf332c8	-0.1187492
57	0xbe1ebf42	-0.15502647
58	0x3da224cb	0.07917174
59	0x3e43039b	0.19044344
60	0x3dbf9c31	0.09355963
61	0x3da02904	0.07820323
62	0xbe572507	-0.21010219
63	0xbd947ad5	-0.07249991
64	0xbe468247	-0.19385634
65	0x3d06cae3	0.03290833
66	0xbe2aa3d0	-0.16664052
67	0x3e6aba84	0.22922713
68	0x3dd7956a	0.10526545
69	0xbd7c6233	-0.061617088
70	0x3d8c644a	0.06855066
71	0xbdbea685	-0.09309105
72	0xbe097161	-0.13422157
73	0xbdaa2cb9	-0.083093114
74	0x3e94f669	0.29094246
75	0x3eb15faf	0.34643313
76	0xbca7e2a3	-0.020493811
77	0x3de0c3b9	0.10974831
78	0x3e806642	0.25078017
79	0x3e8d8f3b	0.2764834
80	0x3e214406	0.15748605
81	0xbe6710e0	-0.22565031
82	0xbe326bbc	-0.1742391
83	0xbd755b93	-0.059901785
84	0xbcde1dcd	-0.02711382
85	0xbe426f35	-0.18987735
86	0xbd4ea840	-0.050453424
87	0xbd5f407a	-0.05450485
88	0x3d41d234	0.047319606
89	0xbd90af9e	-0.07064746
90	0x3e59e0e2	0.21277192
91	0x3e6d722e	0.23188087
92	0x3e809a2d	0.25117627
93	0x3de43026	0.11141996
94	0x3e49360f	0.19649528
95	0xbd9cf3ff	-0.07663726
96	0xbddd0aae	-0.107930526
97	0xbe6ca949	-0.23111452
98	0xbde612d8	-0.11234063
99	0x3e376c11	0.17912318
100	0xbc561ff6	-0.0130691435
101	0xbddd1bad	-0.10796294
102	0x3e8f294e	0.279612
103	0xbd55179a	-0.05202446
104	0xbd4a3ddf	-0.04937541
105	0xbdea4556	-0.11439006
106	0xbd8e7fe7	-0.06957989
107	0xbdca43e5	-0.09876231
108	0xbe85d526	-0.26139182
109	0xbe398a1c	-0.18119091
110	0xbd3cccbe	-0.046093695
111	0xba87596e	-0.0010326335
112	0xbcec892f	-0.028874008
113	0x3df58144	0.11987546
114	0xbc932b90	-0.017965108
115	0x3d5c8b8a	0.053844012
116	0x3df4f9f1	0.11961735
117	0xbcdd8b1e	-0.027043875
118	0xbc81495e	-0.015782055
119	0xbdda469c	-0.10657999
120	0xbc417e38	-0.011809878
121	0xbcd1b5da	-0.025599409
122	0x3dab67ca	0.083694056
123	0xbd9d514a	-0.0768152
124	0x3e3a0e03	0.18169408
125	0x3d4102a3	0.047121655
126	0x3dd3d460	0.10343242
127	0xbe3351f3	-0.1751173
128	0xbddd9fc4	-0.108214885
129	0x3dc7e5e3	0.09760644
130	0xbc561828	-0.013067283
131	0xbd02eeeb	-0.03196613
132	0x3d10b03f	0.03532433
133	0xbad55cd6	-0.0016278278
134	0x3e134fad	0.14385863
135	0xbc3b616a	-0.0114368
136	0xbbdcd483	-0.0067392006
137	0xbe25578c	-0.16146678
138	0xbd88fd15	-0.066888966
139	0xbd55daba	-0.052210547
140	0xbe2ecd7d	-0.17070575
141	0xbd90f3f9	-0.07077784
142	0x3d693be6	0.05694189
143	0xbcd00f49	-0.025397914
144	0x3d8c74af	0.06858193
145	0x3e687c98	0.22703779
146	0xbd05f8cf	-0.032707985
147	0xbe1406a0	-0.14455652
148	0x3dac7543	0.084208034
149	0xbc3572f3	-0.011074769
150	0x3e7690c7	0.24078666
151	0xbcccf1e6	-0.02501769
152	0x3d34d2f6	0.0441465
153	0x3d84d94c	0.064867586
154	0x3c0f5bd0	0.008749917
155	0x3e11bfc6	0.14233312
156	0xbcb595e3	-0.022166198
157	0xbe3b95df	-0.1831889
158	0x3cbde072	0.023178313
159	0x3c8870d3	0.016655361
160	0xbdfc21f6	-0.12311165
161	0x3e17fc8c	0.14842433
162	0xbe30dd20	-0.17271852
163	0xbd77ac68	-0.060467154
164	0x3db87e5d	0.09008477
165	0x3db3d7e5	0.08781413
166	0x3e64bd70	0.2233789
167	0x3d561279	0.05226371
168	0xbe06b3db	-0.13154547
169	0xbe06c665	-0.13161619
170	0x3dc9d7bb	0.098556004
171	0x3e21ce3a	0.15801325
172	0xbe438457	-0.19093452
173	0xbd88cfa8	-0.06680232
174	0xbd448aff	-0.04798412
175	0x3e3ebc2e	0.18626472
176	0x3c070d10	0.00824286
177	0xbc1dcae2	-0.009630891
178	0x3da759be	0.08171414
179	0x3c8fa764	0.017535873
180	0xbdc4e215	-0.09613434
181	0x3e0c7232	0.13715437
182	0xbe2af7dc	-0.16696113
183	0xbe40cd11	-0.18828227
184	0xbdd0b546	-0.10190825
185	0x3dc7718e	0.09738456
186	0xbd745ab3	-0.05965681
187	0x3d8cd827	0.06877165
188	0x3dfdf4bc	0.12400195
189	0x3de42c0c	0.11141214
190	0x3db28d5d	0.08718369
191	0x3e25a845	0.16177471
192	0x3dbaaf23	0.09115436
193	0x3e921ef4	0.2853924
194	0xb9dc9aec	-0.00042077096
195	0xbb25eb86	-0.0025317385
196	0x3da75538	0.08170551
197	0xbe052186	-0.1300107
198	0x3ea4eb70	0.32210875
199	0x3e5e8419	0.21730079
200	0x3d724324	0.05914606
201	0x3e6f385f	0.23361348
202	0x3d20d7b3	0.039268207
203	0x3e2773af	0.16352724
204	0x3e4fbda8	0.20287192
205	0xbd9543c0	-0.07288313
206	0x3cb98658	0.022647068
207	0x3cb51103	0.022102838
208	0x3e618286	0.22022447
209	0xbba93849	-0.0051641804
210	0x3de2e598	0.11078948
211	0x3e3a598d	0.18198223
212	0x3e0431a2	0.12909558
213	0x3e07d533	0.13264923
214	0x3e955b90	0.2917142
215	0xbd5e7db2	-0.05431909
216	0x3e3e54ae	0.1858699
217	0x3d9e9b64	0.07744482
218	0xbb270deb	-0.0025490473
219	0xbe5b842b	-0.21437137
220	0xbe12374e	-0.1427891
221	0x3dab2e0e	0.083583936
222	0xbe422c8c	-0.18962306
223	0x3e89eaa1	0.2693682
224	0xbd3cc353	-0.046084713
225	0xbe547485	-0.20747574
226	0x3d51b209	0.05119518
227	0xbda6a2e3	-0.08136537
228	0x3c5b6809	0.013391503
229	0x3c269bb4	0.010168958
230	0x3ef9bd1e	0.48777097
231	0x3d85f2d7	0.06540459
232	0x3d8427d2	0.064529076
233	0xbdf110ca	-0.117707804
234	0xbd8816f8	-0.06645006
235	0x3ea74d70	0.32676268
236	0xbd0d14cf	-0.034443673
237	0xbe6131b4	-0.21991616
238	0x3d511cbd	0.051052798
239	0x3e742566	0.23842391
240	0xbcdbfbd0	-0.026853472
241	0x3d377334	0.0447876
242	0x3ca7ec26	0.020498347
243	0xbd690dac	-0.056897804
244	0x3e16d9c5	0.1473151
245	0xbe3a15b5	-0.18172343
246	0x3e8a3c90	0.2699933
247	0x3d815b38	0.06316227
248	0xbdeb772b	-0.11497339
249	0xbe60ecc2	-0.21965316
250	0xbd926553	-0.07148232
251	0xbdca453a	-0.09876485
252	0x3e196ad4	0.14982158
253	0xbe268894	-0.16263038
254	0xbe1b4afa	-0.1516532
255	0xbdbb8bae	-0.09157501

Network_stack.0.0.gru.bias_ih_l1 f4 [96]
0	0x3dedf037	0.11618083
1	0x3df0dad3	0.117604874
2	0xbe374e4b	-0.1790096
3	0x3dbc2ed5	0.0918862
4	0x3cfa19bf	0.030529855
5	0x3e311507	0.17293178
6	0x3e6b2bfb	0.22965996
7	0xbdec7392	-0.11545481
8	0xbdfb2e8e	-0.12264739
9	0xbe7c0a46	-0.24613294
10	0x3c86ac56	0.016439598
11	0x3e9b8c3a	0.30380422
12	0xbce9a402	-0.028520588
13	0x3d4679f5	0.04845615
14	0x3d79ac59	0.06095538
15	0xbcfb26c5	-0.030658135
16	0xbd661ee4	-0.056181803
17	0x3da67fa0	0.08129811
18	0x3dcebe3c	0.10094878
19	0x3da1e0c4	0.07904199
20	0xbd866cc2	-0.06563713
21	0x3e038f83	0.12847714
22	0x3e080f09	0.13286985
23	0xbe0b0ea5	-0.13579805
24	0x3de0c298	0.10974616
25	0x39910218	0.00027658115
26	0xbc698fed	-0.014255506
27	0x3def2c5f	0.11678385
28	0xbd4c974c	-0.049948975
29	0xbd3ddb53	-0.046351742
30	0xbd203655	-0.039114315
31	0x3e5a18c9	0.21298517
32	0xbe9a3458	-0.3011806
33	0xbae6d240	-0.0017610267
34	0xbe0f7749	-0.14010347
35	0x3e3118a5	0.17294557
36	0xbe652dc0	-0.22380733
37	0xbe902a73	-0.28157386
38	0xbe8cdc62	-0.2751189
39	0xbea8af2d	-0.3294615
40	0x3e25230b	0.16126649
41	0xbdbfc9a2	-0.0936463
42	0x3e4ed7d5	0.20199521
43	0xbfca830d	-1.5821244
44	0x3d9973f6	0.07492821
45	0xbe35daef	-0.17759298
46	0xbc78d80e	-0.01518823
47	0x3da67563	0.081278585
48	0xbf5168bf	-0.81800455
49	0xbf089711	-0.5335551
50	0x3c718d4f	0.014743163
51	0xbd00ae2b	-0.0314161
52	0xbe506a8a	-0.20353141
53	0xbec201b6	-0.3789193
54	0xbed9c613	-0.4253393
55	0x3daafa14	0.0834848
56	0x3cbf38eb	0.02334257
57	0x3d661909	0.05617622
58	0xbf05eb5c	-0.52312255
59	0x3e894ef5	0.26818052
60	0xba5948c6	-0.0008288737
61	0xbe75a4f3	-0.23988704
62	0xbd124103	-0.03570653
63	0x3f536a7c	0.8258436
64	0x3e05df1f	0.13073395
65	0x3dbc0a84	0.09181693
66	0x3e210a14	0.15726501
67	0x3ce46b13	0.027883088
68	0x3d9101e8	0.07080442
69	0xbd73711b	-0.059434038
70	0xbca0c387	-0.019624485
71	0x3de63d49	0.11242158
72	0xbbe57d87	-0.0070034894
73	0x3e025a14	0.12729675
74	0xbdf7afd0	-0.120940804
75	0x3d9346c0	0.07191229
76	0xbd880bac	-0.06642851
77	0x3e2e5be4	0.17027241
78	0x3ca71d92	0.020399842
79	0xbded1c2b	-0.11577638
80	0x3e5d604e	0.21618769
81	0xbdb40c05	-0.08791355
82	0x3e165574	0.14681035
83	0x3e1c41e9	0.15259518
84	0xbd055779	-0.032554124
85	0xbdbebf9b	-0.093138896
86	0xbd475064	-0.04866065
87	0xbc762cb2	-0.015025305
88	0x3c825024	0.015907355
89	0x3e2805ee	0.16408512
90	0x3dcde22e	0.10052906
91	0x3d0d2fa4	0.03446926
92	0xbdd3c7a0	-0.1034081
93	0xbdbe3907	-0.09288221
94	0xbd8e584d	-0.06950436
95	0xbc05c759	-0.008165204

Network_stack.0.0.gru.bias_hh_l1 f4 [96]
0	0x3d2ac3e0	0.041690707
1	0x3dea19bd	0.114306904
2	0x3dde81b6	0.10864584
3	0x3dade1e7	0.08490353
4	0x3df4c7c3	0.11952164
5	0xbe19bb8b	-0.15012948
6	0x3e7e74df	0.2484927
7	0x3d1b92fa	0.037981965
8	0x3dcde39a	0.10053177
9	0xbe5d5276	-0.21613488
10	0x3e1d6e36	0.15374073
11	0x3ed14f69	0.40880898
12	0xbdecfa54	-0.11571184
13	0xbe236a62	-0.1595855
14	0xbe03abad	-0.12858458
15	0xbddeba03	-0.10875323
16	0x3d0c0ede	0.034193866
17	0xbdd9b41c	-0.10630056
18	0xbd9b392c	-0.07579264
19	0x3d7de26a	0.061983503
20	0x3de24aa0	0.1104939
21	0x3da0af9b	0.07845994
22	0x3e4cb0ad	0.19989271
23	0x3e3cb679	0.18428983
24	0xbdc057b8	-0.09391731
25	0xbe03917e	-0.1284847
26	0x3ddb1dba	0.10699029
27	0x3c9d2eec	0.019187413
28	0xbd9508f9	-0.07277102
29	0x3d854b3d	0.06508491
30	0xbe00c37a	-0.12574568
31	0x3d26c4ee	0.04071515
32	0xbe20f7e5	-0.15719564
33	0x3df643f4	0.1202468
34	0xbcd0a637	-0.025469882
35	0xbde15bde	-0.110038504
36	0xbeea1b8a	-0.45724136
37	0xbdde87dd	-0.108657576
38	0xbe7d8b5d	-0.24760194
39	0xbdea0b28	-0.11427909
40	0x3e8e27c8	0.27764726
41	0x3d8da681	0.06916524
42	0x3e5dc0cd	0.21655579
43	0xbfbeb02a	-1.4897511
44	0x3e011033	0.12603836
45	0xbdbe2b01	-0.09285546
46	0x3ded701c	0.11593649
47	0xbe042031	-0.12902905
48	0xbf3c35a3	-0.73519343
49	0xbebd6e12	-0.3699804
50	0xbdf3fad4	-0.11913076
51	0xbdda0502	-0.106454864
52	0xbef15d75	-0.47141615
53	0xbe278af6	-0.16361603
54	0xbf1799a8	-0.59218836
55	0xbd97adce	-0.074061975
56	0xbdae32b2	-0.08505763
57	0x3e816019	0.2526863
58	0xbf0854df	-0.53254503
59	0xbc75a2dd	-0.014992443
60	0x3e298b35	0.1655701
61	0xbdfd0d11	-0.12356008
62	0x3c5cf67d	0.013486502
63	0x3f2c86ac	0.6739299
64	0x3e05c432	0.13063124
65	0xbe1c58fd	-0.15268321
66	0xbd70a3ac	-0.05874984
67	0xbce6d0c0	-0.028175712
68	0xbd87133b	-0.06595465
69	0xbe053c29	-0.1301123
70	0x3dfd08b8	0.123551786
71	0xbdeb22d6	-0.11481254
72	0x3de814a4	0.11332062
73	0xbc96379c	-0.018337063
74	0xbd423385	-0.047412414
75	0x3e9b5cc6	0.30344218
76	0x3b62b4be	0.0034592594
77	0xbc304769	-0.010759213
78	0x3e3301ee	0.17481205
79	0xbd1cdf87	-0.03829911
80	0x3d037f34	0.032103732
81	0x3cd487bc	0.02594363
82	0x3c5868f0	0.013208613
83	0x3d5047e4	0.05084981
84	0x3cec4f7a	0.028846491
85	0x3d65e7ec	0.05612938
86	0x3e22b348	0.15888703
87	0x3c355fcf	0.011070206
88	0x3cb8a3b1	0.022538992
89	0xbcf618a5	-0.030041048
90	0x3dc5f0ca	0.096650675
91	0xbd0071f9	-0.031358693
92	0x3c9315ee	0.017954793
93	0xbcec9a43	-0.028882151
94	0xbddc3a41	-0.107532986
95	0xba86ad5f	-0.0010275057

Network_stack.1.0.gru.weight_ih_l0 f4 [96, 2]
0	0x3e2df8be	0.16989419
1	0x3bc18f52	0.0059069777
2	0xbe4ad6ae	-0.19808456
3	0xbe571853	-0.21005373
4	0x3da1ea6a	0.07906039
5	0xbb11e224	-0.0022260034
6	0xbe3699fa	-0.17832175
7	0xbd0df07f	-0.034653183
8	0x3c924129	0.017853336
9	0xbde2fa59	-0.11082906
10	0x3ac6bf2c	0.0015163175
11	0xbcf5adef	-0.029990165
12	0x3e1348fb	0.14383309
13	0xbd6d0d7a	-0.05787418
14	0xbe4d987e	-0.20077702
15	0xbced01c7	-0.028931512
16	0xbdf99f55	-0.12188593
17	0x3d77c001	0.060485844
18	0x3c356098	0.011070393
19	0x3e20c9dc	0.15702003
20	0x3e05bf58	0.13061273
21	0xbc52a623	-0.012856993
22	0x3d93403b	0.07189985
23	0xbe332e47	-0.17498122
24	0xbdde4547	-0.10853057
25	0xbdeed2f7	-0.11661332
26	0xbe583e8c	-0.2111761
27	0xbd5dc2d0	-0.054140866
28	0x3e1417b6	0.1446217
29	0xbe04a28e	-0.12952635
30	0x3e8ccb29	0.2749875
31	0x3d6ffc88	0.058590442
32	0xbd4f2169	-0.05056897
33	0xbdcea6f4	-0.100904375
34	0xbc65e141	-0.0140307555
35	0xbddcbc53	-0.107781075
36	0xbe444c4b	-0.19169728
37	0xbd83e81c	-0.06440756
38	0x3e683109	0.22674955
39	0x3e410b84	0.18852049
40	0x3cff574d	0.031169558
41	0xbd2390e2	-0.039933093
42	0xbdb81f55	-0.08990351
43	0xbd6c7a32	-0.057733722
44	0x3daa2427	0.08307677
45	0xbd7a79ff	-0.0611515
46	0x3d8aedc3	0.06783631
47	0x3df32dd7	0.11873978
48	0xbe511ee1	-0.20421936
49	0xbe102379	-0.14076032
50	0xbe49a3c2	-0.19691375
51	0xbe1be6c3	-0.15224747
52	0xbd5f4a78	-0.05451438
53	0x3da2a1e0	0.079410315
54	0xbdd274a0	-0.10276151
55	0xbcc06d72	-0.023489688
56	0x3e0b80fe	0.13623425
57	0xbe33f02a	-0.17572084
58	0x3ceaa52b	0.028643211
59	0xbd82549f	-0.063637964
60	0xbd61f114	-0.05516155
61	0xbd7b49da	-0.061349727
62	0xbdfb80f6	-0.12280457
63	0x3e813344	0.25234425
64	0x3e34ae92	0.17644718
65	0x3dd86063	0.10565259
66	0xbda2f54a	-0.079569414
67	0x3d16ce69	0.03681794
68	0xbd8a4c98	-0.0675289
69	0x3f44ece1	0.7692395
70	0x3e8f6b9d	0.2801179
71	0xbebfb308	-0.37441278
72	0x3dd9f189	0.10641772
73	0xbca76222	-0.020432536
74	0xbcd602cc	-0.02612438
75	0xbd84ab5a	-0.06477995
76	0x3e0267bc	0.12734884
77	0xbea6dd27	-0.325906
78	0xbe0f09df	-0.1396861
79	0xbf6fe4c9	-0.93708473
80	0x3d8f5ff6	0.07000725
81	0xbd8e5387	-0.06949525
82	0xbd6d3064	-0.057907477
83	0xbe3d6472	-0.18495348
84	0x3e0b692d	0.1361434
85	0xbe9b82d5	-0.30373254
86	0xbe804b53	-0.25057468
87	0xbddc7111	-0.10763753
88	0xbe4468a5	-0.19180544
89	0xbf3e1198	-0.74245596
90	0x3c071d2b	0.0082467
91	0xbe23ba46	-0.15989026
92	0xbd9c8f60	-0.07644534
93	0xbc9d97f6	-0.0192375
94	0xbefd6f79	-0.4949911
95	0xbe2db344	-0.16962916
96	0xbe23b3fb	-0.15986626
97	0xbf99fca4	-1.2030225
98	0x3dd2111d	0.1025717
99	0xbe465f68	-0.19372332
100	0xbe959efc	-0.29222858
101	0xbe8d3e36	-0.27586526
102	0x3e1ed57e	0.15511128
103	0xbf8d8e6c	-1.1059089
104	0xbd814eda	-0.06313868
105	0xbfd53c82	-1.665909
106	0xbd91df1c	-0.07122633
107	0xbe778f31	-0.24175717
108	0x3e4a8bd1	0.19779898
109	0xbefa3ef7	-0.48876163
110	0xbe3b7705	-0.18307121
111	0xbe0d8004	-0.13818365
112	0x3d1ab99a	0.03777466
113	0x3e2af73a	0.16695872
114	0xbd0a8934	-0.033822253
115	0xbcf2d584	-0.029642828
116	0xbe73c4c2	-0.23805526
117	0xbd99680c	-0.074905485
118	0x3ebde376	0.370876
119	0xbe0b2cb1	-0.13591267
120	0xbe8953b6	-0.2682168
121	0xbf5004ff	-0.81257623
122	0xbf2dc5db	-0.6788003
123	0xbfbea5a3	-1.4894298
124	0x3e310b87	0.17289554
125	0xbed82510	-0.42215776
126	0xbf2d6935	-0.6773866
127	0xbf99daa5	-1.201985
128	0x3daf4a62	0.08559109
129	0xbdb388f1	-0.08766354
130	0xbe16ef5a	-0.14739743
131	0x3e201c18	0.15635717
132	0xbc4c70c4	-0.012478057
133	0x3cdcbe05	0.026946077
134	0xbd4bbfa8	-0.049743325
135	0xbdaa097f	-0.083025925
136	0xbda67739	-0.08128209
137	0x3c9ac232	0.018891428
138	0x3e1c4137	0.15259252
139	0x3d894674	0.06702891
140	0x3e08a1cc	0.1334297
141	0xbe133500	-0.14375687
142	0xbd9a7a89	-0.07542903
143	0xbe3daba1	-0.18522502
144	0x3ca1ab75	0.019735077
145	0xbdd8cf3a	-0.105864
146	0xbe0050da	-0.12530842
147	0x3dbc94d5	0.09208075
148	0xbdc39918	-0.09550685
149	0xbe2c18f0	-0.16806388
150	0x3d56b266	0.052416228
151	0xbdaa365b	-0.08311149
152	0xbddf17b5	-0.10893194
153	0x3e12ba87	0.14328967
154	0xbe2f3a45	-0.17112072
155	0xbdd72414	-0.10504928
156	0x3d366af5	0.044535596
157	0xbd961661	-0.07328487
158	0x3d78368c	0.060598895
159	0x3ccf8200	0.025330544
160	0xbe40274a	-0.18764988
161	0xbe854625	-0.2603008
162	0x3e0a9899	0.13534774
163	0x3b131d64	0.0022447938
164	0xbdf06e93	-0.1173984
165	0x3da629e4	0.08113459
166	0xbd9ce2b3	-0.07660427
167	0xbd922539	-0.07136006
168	0xbcf76c4a	-0.030203003
169	0xbe1209f9	-0.14261617
170	0xbda2e26e	-0.07953344
171	0x3e3c7c6f	0.18406843
172	0x3ce659c2	0.028118972
173	0xbcaae438	-0.020860776
174	0xbbb124d7	-0.005406003
175	0xbdb51d42	-0.08843471
176	0x3d02f929	0.0319759
177	0xbcc4ca8b	-0.024022361
178	0x3ddf03ba	0.10889383
179	0xbe41ef68	-0.18938982
180	0xbd0cb7cd	-0.034354974
181	0x3e0f50a6	0.13995609
182	0xbda15a0f	-0.078785054
183	0xbe325b6a	-0.17417684
184	0xbe1b3057	-0.15155159
185	0x3e62314f	0.22089122
186	0xbd3671ac	-0.044542
187	0xbe7ea3ad	-0.24867125
188	0x3e3aa55f	0.18227147
189	0x3d21b3c2	0.03947807
190	0x3d807f7a	0.06274314
191	0xbe69c2b9	-0.22828187

Network_stack.1.0.gru.weight_hh_l0 f4 [96, 32]
0	0x3e324ae9	0.17411388
1	0xbe0cbe2c	-0.1374442
2	0x3d8b1c44	0.067925006
3	0xbe2f7cee	-0.171375
4	0x3cbdff66	0.023193073
5	0x3e0b8ade	0.13627192
6	0x3cd14f54	0.025550522
7	0xbd45f54a	-0.04832963
8	0xbdcc4dc8	-0.09975773
9	0x3dc9b691	0.09849275
10	0x3d5f0988	0.05445245
11	0xbdb421cd	-0.087955095
12	0x3dfe0cc6	0.1240478
13	0x3d65250d	0.055943538
14	0x3de0ab91	0.10970224
15	0x3d84da83	0.0648699
16	0x3e1d1833	0.15341263
17	0x3de31b9f	0.11089253
18	0xbc8d19ab	-0.017224154
19	0xbd88a62f	-0.06672322
20	0x3dea5f76	0.11443989
21	0x3da8381b	0.08213826
22	0x3d65be81	0.05608988
23	0xbc5bfccf	-0.0134269735
24	0xbe04e4e6	-0.12977943
25	0xbda906e6	-0.08253269
26	0x3e0defe0	0.13861036
27	0xbe27782b	-0.16354434
28	0x3df67d64	0.12035635
29	0x3e332386	0.1749402
30	0xbe0a879e	-0.13528296
31	0x3dd7cfca	0.105376795
32	0x3e38de91	0.18053652
33	0x3c4b3df5	0.012404908
34	0x3dc38341	0.09546519
35	0x3b3edaae	0.0029122042
36	0xbdf64ff1	-0.12026966
37	0x3e01be95	0.12670358
38	0xbdff1be0	-0.124564886
39	0x3e3337cc	0.17501754
40	0x3d77e649	0.06052235
41	0xbdb6ee5b	-0.089321814
42	0x3c8bfe91	0.01708916
43	0x3cfe09d5	0.031010548
44	0xbe0998b0	-0.13437152
45	0xbcccdc0c	-0.02500727
46	0xbdd0751a	-0.10178585
47	0x3e21fbaa	0.15818658
48	0xbc8b5c37	-0.017011745
49	0xbd69341e	-0.05693447
50	0x3d4535f4	0.048147157
51	0x3d60ac46	0.054851793
52	0xbd61d9fc	-0.055139527
53	0x3d866484	0.065621406
54	0x3e185df6	0.14879593
55	0x3d97412e	0.07385479
56	0x3db50dac	0.08840498
57	0x3c90e699	0.017688083
58	0xbdca7c24	-0.09886959
59	0x3c94ee4a	0.018180031
60	0x3bd4f2d5	0.0064986744
61	0xbd9cf413	-0.07663741
62	0xbdd550d5	-0.10415808
63	0xbdd79b46	-0.10527663
64	0xbdef2a20	-0.116779566
65	0xbe1fff58	-0.1562475
66	0xbdb76fe7	-0.089568906
67	0x3d3dd9bb	0.046350222
68	0xbdae9d16	-0.085260555
69	0x3df3bc79	0.11901183
70	0xbdfaf7b6	-0.12254278
71	0x3d976fe5	0.07394389
72	0xbe01e735	-0.12685855
73	0x3d52a4f1	0.05142683
74	0xbcacd878	-0.021099314
75	0x3dc192eb	0.094518505
76	0xbdaa4997	-0.083148174
77	0xbe14684f	-0.14492916
78	0x3e1918a7	0.1495081
79	0x3de5cccd	0.11220703
80	0xbe215409	-0.15754713
81	0x3d0c73f6	0.034290276
82	0x3d5b5428	0.053547055
83	0xbe28cb21	-0.16483738
84	0x3d799f0d	0.0609427
85	0xbe207693	-0.15670232
86	0x3e3e04ba	0.1855649
87	0x3d5d35d7	0.054006424
88	0xbd6ff1fc	-0.058580384
89	0xbe196b17	-0.14982258
90	0x3d2d11f2	0.042253442
91	0x3e322d6f	0.17400144
92	0xbe07d18e	-0.13263533
93	0x3d722e09	0.059125934
94	0x3d9db7c3	0.077010654
95	0xbcc41b20	-0.023938715
96	0x3e0dff2e	0.13866875
97	0x3e136668	0.14394534
98	0x3dfd98f3	0.123826884
99	0x3e41df6c	0.18932885
100	0x3da3b58b	0.07993611
101	0x3c50acd7	0.012736521
102	0xbd52306b	-0.051315706
103	0x3e33e440	0.17567539
104	0xbcd5c4f7	-0.026094897
105	0xbcf269c5	-0.02959145
106	0x3e3c95b6	0.18416485
107	0xbe1c7383	-0.15278439
108	0xbd516cf1	-0.051129285
109	0x3e1da6e0	0.15395689
110	0xbde607ac	-0.11231932
111	0xbcfdc6ca	-0.03097858
112	0x3e17bd1b	0.14818232
113	0x3dcb242b	0.09919008
114	0x3e2ea500	0.1705513
115	0x3d495f80	0.04916334
116	0x3e2f5dd7	0.17125641
117	0xbdc89b47	-0.09795242
118	0xbded79c3	-0.1159549
119	0x3d7c6c51	0.061626736
120	0xbc22d82c	-0.009939235
121	0x3ba8f08e	0.0051556295
122	0xbc8d27fd	-0.017230982
123	0x3ddafe2d	0.106930114
124	0xbe396d7a	-0.18108168
125	0xbd9f6838	-0.0778355
126	0xbe3998b7	-0.18124662
127	0x3e01d4eb	0.12678878
128	0xbe1e24ae	-0.1544368
129	0xbe30ee65	-0.1727844
130	0xbe13770b	-0.1440088
131	0x3ce5b06a	0.028038222
132	0xbbb0f87b	-0.005400715
133	0xbda2f811	-0.07957471
134	0x3dd2b542	0.102884784
135	0xbca14c2f	-0.019689647
136	0x3e3cde8e	0.18444273
137	0xbccb5a32	-0.024823282
138	0x3e036757	0.1283239
139	0x3bc63817	0.006049167
140	0xbd94f03e	-0.07272385
141	0xbd8c188b	-0.06840619
142	0xbdbc40c0	-0.091920376
143	0x3e138ae1	0.14408447
144	0x3e0bf1f7	0.13666521
145	0x3e38a87f	0.18033026
146	0x3dc70493	0.09717669
147	0x3e1ce881	0.15323068
148	0x3e23b7bf	0.15988062
149	0xbe2ed114	-0.17071944
150	0x3d1c3afd	0.038142193
151	0xbe2f5043	-0.17120461
152	0x3d6101b3	0.05493326
153	0x3c2d4675	0.01057588
154	0x3d4b499c	0.049630746
155	0x3cec478c	0.02884271
156	0x3cfff409	0.031244295
157	0xb9e64606	-0.0004392119
158	0xbd7fc217	-0.062440958
159	0x3d6d9559	0.058003757
160	0x3c0b33ff	0.008496284
161	0xbd78acb0	-0.060711563
162	0xbde5c851	-0.11219848
163	0xbe2f1df9	-0.17101277
164	0x3d324002	0.043518074
165	0x3d5f1321	0.054461602
166	0xbcecdcc9	-0.028913872
167	0xbda2dd99	-0.07952423
168	0x3d9e3c81	0.07726384
169	0xbd71b6e3	-0.059012305
170	0x3d5c838d	0.053836394
171	0xbe235df8	-0.15953815
172	0xbd8bde50	-0.06829512
173	0x3d19823b	0.037477713
174	0x3d7efc07	0.06225207
175	0xbd38fc82	-0.045162685
176	0x3d5802b6	0.05273696
177	0x3e27079d	0.16311498
178	0xbe01d242	-0.12677863
179	0x3d63901e	0.055557363
180	0xbe13a255	-0.14417394
181	0x3dd7c586	0.105357215
182	0xbe05a2ce	-0.13050386
183	0x3dfc97d1	0.12333644
184	0xbdf4be41	-0.119503506
185	0x3d484530	0.048894107
186	0x3e14c7d2	0.1452935
187	0xbd41f9ac	-0.047357246
188	0x3e2b3540	0.16719532
189	0x3b17aa58	0.0023142304
190	0xbdb8453f	-0.08997583
191	0x3c265a13	0.010153311
192	0x3d45855a	0.048222877
193	0xbd8165cb	-0.063182436
194	0xbdf5d0f0	-0.12002742
195	0x3d27d157	0.040971126
196	0xbe4be811	-0.19912745
197	0xbe0783b3	-0.13233833
198	0x3d70f4e1	0.058827285
199	0xbdbf0779	-0.09327597
200	0x3d25b111	0.040452067
201	0xbd51a6d2	-0.051184483
202	0xbc97236e	-0.018449511
203	0x3c81f7c1	0.015865209
204	0xbd856590	-0.06513512
205	0x3e2a3601	0.16622163
206	0xbc8a95ce	-0.016917136
207	0xbd162a08	-0.036661178
208	0xbdb97854	-0.09056154
209	0xbdaac1f1	-0.08337773
210	0xbe344521	-0.17604496
211	0xbe243cef	-0.1603887
212	0x3bd203c6	0.0064091412
213	0xbd9cb4c2	-0.07651664
214	0x3d2e5825	0.04256453
215	0xbd467621	-0.0484525
216	0x3e4e75a7	0.20162068
217	0x3e09aa09	0.1344377
218	0x3e4c5549	0.19954409
219	0x3e21a03d	0.15783782
220	0xbe16ce1d	-0.14727063
221	0xbd55ada5	-0.052167553
222	0xbbc56cd6	-0.006024937
223	0x3d94fdee	0.07274996
224	0x3e1d2aba	0.1534833
225	0xbe0c2506	-0.13685998
226	0x3d9c6b6c	0.076376766
227	0x3e618644	0.22023875
228	0xbe1a43f8	-0.1506499
229	0xbe07c34e	-0.13258097
230	0xbe129615	-0.14315064
231	0x3d9019ba	0.07036157
232	0x3d501c7a	0.050808407
233	0xbd9e4fd6	-0.07730071
234	0x3d982ad9	0.074300475
235	0x3d7472b6	0.05967971
236	0x3e0bd41f	0.13655137
237	0xbda84000	-0.08215332
238	0x3dfb3d3e	0.122675404
239	0xbdfaeff0	-0.12252796
240	0x3d9320a9	0.07183964
241	0x3c80ecb3	0.015737867
242	0x3e1f3a1f	0.15549515
243	0x3e0da006	0.13830575
244	0x3d81410d	0.063112356
245	0x3da7b522	0.08188845
246	0x3e14033f	0.14454363
247	0x3d948633	0.07252159
248	0x3e2c536d	0.168287
249	0x3e027bb6	0.12742504
250	0xbd93621e	-0.07196449
251	0x3dd1eb21	0.102499254
252	0x3ceb7456	0.028741997
253	0x3c58255e	0.013192503
254	0x3e2b06bf	0.16701792
255	0x3dc5650a	0.09638412

Network_stack.1.0.gru.bias_ih_l0 f4 [96]
0	0x3cd355bc	0.025797717
1	0xbd60f433	-0.054920387
2	0xbe1f99c6	-0.15586004
3	0xbddc6b25	-0.10762624
4	0xbe0f98a7	-0.14023076
5	0x3d8d1a9c	0.06889841
6	0x3c879b29	0.016553478
7	0xbcbafbbd	-0.022825116
8	0xbe128780	-0.14309502
9	0xbd3dfc2c	-0.046383068
10	0xbd522de2	-0.05131329
11	0xbd04c0e9	-0.032410536
12	0x3d8ee2e4	0.0697687
13	0xbd4f21b4	-0.05056925
14	0x3bfe0254	0.0077517424
15	0xbdb3144b	-0.08744105
16	0xbd1600a5	-0.03662171
17	0x3db7ceaf	0.08974969
18	0xbd149492	-0.0362745
19	0x3ea681ae	0.32520813
20	0xbd8fb8ed	-0.07017694
21	0x3ce51d9b	0.027968219
22	0xbdde2c9a	-0.10848351
23	0xbdec3d7f	-0.11535167
24	0x3e119d54	0.14220172
25	0x3d5f6064	0.054535285
26	0x3c5b87d3	0.013399082
27	0xbcd939c7	-0.026516808
28	0x3dffdc12	0.12493147
29	0x3dab99ac	0.0837892
30	0xbcf6e5d9	-0.030138897
31	0x3d49c64a	0.04926137
32	0x3e2bdbfd	0.16783138
33	0xbe5e27c8	-0.21694863
34	0x3dbbb110	0.09164631
35	0xbe5bd1e3	-0.21466784
36	0xbddb46da	-0.10706873
37	0xbdacd9cb	-0.08439978
38	0x3c4eb079	0.012615317
39	0xbee49c96	-0.44650716
40	0xbece1889	-0.40253094
41	0xbdb59e08	-0.08868033
42	0x3b09675b	0.0020966146
43	0xbd8c9f50	-0.06866324
44	0xbf1d8bfb	-0.6154172
45	0x3cdc44e2	0.026888315
46	0x3da77070	0.081757426
47	0x3be96313	0.0071224063
48	0xbfabd0b9	-1.3423072
49	0xbd89be4a	-0.06725748
50	0xbe5739d0	-0.21018147
51	0xbeba4b7e	-0.3638572
52	0xbf23e428	-0.64020014
53	0xbceabe90	-0.02865532
54	0xbdcc43dd	-0.099738814
55	0xbd35c7d0	-0.04438001
56	0xbdf0fa1e	-0.11766456
57	0xbe54fafc	-0.20798868
58	0xbde730aa	-0.11288579
59	0x3d8f0fd1	0.069854386
60	0xbf29b03e	-0.6628455
61	0xbf2ebfb2	-0.68261254
62	0x3e8a49ba	0.27009374
63	0xbf4c5e18	-0.79831076
64	0xbd2a8a1e	-0.041635625
65	0xbdd0783e	-0.101791844
66	0xbde2bc77	-0.11071103
67	0xbd4f929d	-0.05067693
68	0x3e042749	0.12905611
69	0x3d78c8b0	0.060738266
70	0xbda6cc97	-0.08144491
71	0xbe31e9b8	-0.17374313
72	0x3dff0202	0.12451555
73	0x3e17cf51	0.14825179
74	0xbe2bd689	-0.16781057
75	0xbe0181e2	-0.12647203
76	0x3cadc9f3	0.021214461
77	0x3d74aee9	0.05973712
78	0xbe2a1c23	-0.16612296
79	0x3c95939e	0.018258866
80	0x3e148b6c	0.1450631
81	0xbdbf9fb8	-0.09356636
82	0x3e14f2d4	0.14545757
83	0x3d309516	0.04311093
84	0xbcf4ce25	-0.029883454
85	0x3c8ee878	0.017444834
86	0xbe2d5483	-0.1692677
87	0x3e0181e9	0.12647213
88	0xbde5665d	-0.11201165
89	0x3e181e15	0.14855225
90	0xbe1ccb70	-0.1531198
91	0xbdd4cda8	-0.10390788
92	0x3e1fc8f7	0.15604006
93	0x3d2e6d7b	0.042584877
94	0x3d8408ab	0.06446966
95	0x3e0b5f25	0.13610514
