models/model_uniform_region_0-0.3.0.6-0.9_multiple_Agentsd6c0bd47.pth (torch, 87266 bytes, 18 tensors)

Network_stack.0.0.gru.weight_ih_l0 f4 [96, 2]
00000000: 717e 9b3d 37a5 f4bd fc6c 0e3e 1ed9 af3d
00000010: 65e8 a73d 3134 adbd aa5d 90bd 007d ef3d
00000020: b172 27be 49f2 213e dc32 bebc dab0 f13d
00000030: 39ad cf3d f5dd 053e d428 cbbc e025 d7bd
00000040: 54b9 d53d 60c5 1dbd b507 c6bd 1550 09be
00000050: 6e11 d2bd 2121 a13c 1801 a6bd 818f d63c
00000060: 20fc 0c3e 2399 b43c 9f86 2cbe 49c7 e8bd
00000070: 8cbf 55bd 35f2 883c 8782 b4bd 0d89 0cbe
00000080: ec72 a9bd a6e9 ebbd 20ca e9bd 464b e2bd
00000090: d6b1 84bd 2d18 86bd e9a1 5dbd 4001 173e
000000a0: 9dae 71bd 4777 f43d 84ac e5bd a936 49bd
000000b0: ab82 4fbc 9977 653d 4368 133e 7a00 ebbd
000000c0: 51fe 38be 5d4c 07be 5ae7 ab3d a2a5 223e
000000d0: 75e7 24be 6c0d dd3d 68e1 193e 1863 183c
000000e0: f25b 9d3d 59af e33c cfc8 0f3e d2f7 11bd
000000f0: 34f2 f7bd 6b54 9ebc 5a28 e33d 94ab bcbd
00000100: 56eb fc3d 9d32 973d d439 683b 8fde c6bd
00000110: 2284 dd3c 8bd5 71bd 6559 11bd b754 0dbd
00000120: 1da5 ed3c 3cca 823d 70c8 953b 3b89 263e
00000130: 5261 023e a0c5 33bd f569 1a3e 5963 3ebd
00000140: 2892 4e3b 4f77 88ba 44d9 3ebe 5ebb 95bd
00000150: 815c 9d3d da83 733d ab86 8fbe 4209 f8bd
00000160: 93d3 cd3d 27cf 333c a120 3abe 3088 71be
00000170: 7d63 993d cfc3 35bc 1d6a 263c a262 8f3d
00000180: e426 4bbe ecac 27be bb37 d5b9 f46e 8d3d
00000190: f6a0 46be 9731 303d 97b3 b5bd 2e6f fe3d
000001a0: ca65 e03d 60f2 f43d c1b2 49be f7a9 3abd
000001b0: 954b b1bc 8ace ee3d ed5a 74bc aa40 dabd
000001c0: a9dc 0abe 8415 483c b444 873d 6480 d3bd
000001d0: 9313 e5bd e6f8 e2bd bebc f63b 3d4b 27be
000001e0: 2545 3ebe 5f22 a93d 6bfe 0ebd f2c7 fabd
000001f0: 351f 343e 9aab 5f3d 11b6 28be e8d7 7ebd
00000200: 2c66 3bbc dfd4 12be 5321 173e 1b6a 9b3c
00000210: 8c84 1dbc 18e4 ebbd 2489 bf3d e7a0 d43d
00000220: 855c edbd 1e99 463d 8dae 75bd d040 d2bd
00000230: ea69 1b3e f839 1ebe e897 c43d 6968 dcbd
00000240: ede4 1a3e 27b8 ee3d d8b9 d6bd feec 31bd
00000250: d474 a9bd d504 2abd 1e7b 493e e032 0d3c
00000260: 5f83 4bbd 4045 dfbd 85b9 80bd ea2c 8bbd
00000270: e445 9ebd 7779 883d 9b70 16be df99 d9bd
00000280: 35fc fabd 6ac9 94bd 104e c2bd 5158 21be
00000290: dff8 e6bd 5d73 05be 3c0d bd3c 70a3 93bd
000002a0: da41 b13d 3052 28be 56fd ae3c 0947 8a3d
000002b0: b462 3dbd a060 1e3e be8f 1f3e 6735 b63d
000002c0: 174a ca3c 8aaa a93d 0c34 8abd ed1f 97bd
000002d0: 41e4 923d 18ed 3bba fac7 e93d de18 763c
000002e0: ca8b ad3d e963 9abd 69c8 f73d d6ed bbbd
000002f0: ff91 9c3d 703d 1dbe e5bd d7bd 5db3 ac3d
0.07592476 -0.11945575 0.13908762 0.08586334 0.081986226 -0.0845722 -0.07049115 0.11693764
-0.16352345 0.1581508 -0.023217611 0.1180131 0.101404615 0.13072951 -0.024799742 -0.10505271
0.10435739 -0.03851831 -0.09669439 -0.13409455 -0.10257231 0.019669117 -0.08105677 0.026191475
0.13768053 0.022045678 -0.16848229 -0.113661356 -0.052184626 0.016717056 -0.088139586 -0.13724156
-0.08273873 -0.11519174 -0.114155054 -0.110495135 -0.06479232 -0.0654758 -0.054109488 0.1474657
-0.059004415 0.11936813 -0.11214545 -0.049124394 -0.012665431 0.05602226 0.14395241 -0.114747
-0.18065764 -0.13212724 0.08393736 0.15883496 -0.16103919 0.10793576 0.15027392 0.00930097
0.07683553 0.027793573 0.14041446 -0.03563673 -0.121067435 -0.019327363 0.11091681 -0.092124134
0.12349574 0.073827006 0.003543486 -0.097104184 0.027040545 -0.05904154 -0.035485644 -0.03450462
0.029009396 0.063862294 0.004571013 0.16263287 0.12732437 -0.04388964 0.15079482 -0.046481464
0.0031520221 -0.0010411533 -0.18637568 -0.07311128 0.07683659 0.059451915 -0.2803243 -0.12111141
0.1005012 0.010974682 -0.1817651 -0.23587108 0.07489679 -0.011094048 0.010157135 0.070012346
-0.19839054 -0.16374558 -0.00040668048 0.06905928 -0.19397339 0.043016043 -0.08872145 0.124235496
0.10956915 0.11960292 -0.19697095 -0.045572247 -0.021642486 0.11660488 -0.0149142565 -0.10656865
-0.13560738 0.012212161 0.06604901 -0.10327223 -0.11185374 -0.1108263 0.007529824 -0.16337295
-0.18581064 0.08258509 -0.0349106 -0.12245168 0.1759003 0.05460701 -0.16475703 -0.062217623
-0.011437934 -0.14339016 0.14758806 0.018971493 -0.009614121 -0.11518115 0.093523294 0.10382252
-0.11589912 0.048485868 -0.059980918 -0.10266268 0.15177122 -0.15451801 0.09599286 -0.10762102
0.15126391 0.11656218 -0.10484666 -0.043438904 -0.08274236 -0.041508514 0.19675872 0.008618087
-0.049685832 -0.1090188 -0.06285385 -0.06795676 -0.07728174 0.066637926 -0.14691393 -0.10625052
-0.12255136 -0.07264979 -0.094875455 -0.15756346 -0.11277937 -0.13032289 0.0230776 -0.072089076
0.08655138 -0.16437602 0.021361034 0.0675183 -0.04623671 0.15466547 0.15582177 0.088969044
0.024693532 0.08284481 -0.067482084 -0.07379136 0.07172442 -0.00071688136 0.114150956 0.015020577
0.08473928 -0.075385876 0.12098772 -0.09176223 0.07645034 -0.15355468 -0.105342664 0.08432648

Network_stack.0.0.gru.weight_hh_l0 f4 [96, 32]
00000000: e9f3 38be b294 1f3e b049 0cbe 6671 f03d
00000010: a3ac d2bd 09ec 7bbc a826 3e3e b47c 46bd
00000020: e2b5 3a3d a306 1b3e 30f6 0ebe 5605 0f3e
00000030: f380 27be 90a0 dabd cf34 0bbb e67f 8fbd
00000040: 6380 fabd 758a 9abc 0a4f f5bc 12b3 bdbd
00000050: 6b74 c73c ded1 243e 4228 a43c 277f 1dbe
00000060: 7d6d b43d af61 823d 6eb3 133e 6834 b7bd
00000070: 72b2 a73d 81ce 133e 9466 0cbb 07ce a03d
00000080: 6659 533d 4f63 98bc 42c9 2b3e c88c 813d
00000090: 0038 dcbd 9e07 babd 1c7f a2bd 725c dc3d
000000a0: 9793 20be 54a1 b1bd 6c57 8d3d f5c1 953d
000000b0: 7e30 663d 3a0b 213d 5fcc 023a 1e1b a8bd
000000c0: dd87 613d 1b73 9f3d 30b3 4abd df6e 223e
000000d0: b845 3f3d 3cbd 64bd 7a23 11be 885d 29be
000000e0: 4f9b 00be 23d8 873d ad89 0bbe 2f2b 0d3e
000000f0: 5444 19be 6de7 083d 0d9e 21be cb16 29be
00000100: b0ad 2bbe bf8e f23d cf80 1bbe efb8 eabd
00000110: 7bd4 e0bd 3bc2 013d a8a3 61bd de83 acbd
00000120: f408 3b3d 4244 16bd 6095 3f3d 96f5 1abe
00000130: 3d38 1ebe d98b 713d 26a7 a93d 2771 76bc
00000140: d591 42bd 787a 49bd 96ce e63c b751 153e
00000150: 11e0 123e 3727 863c 718d e7bd 6d8e c23d
00000160: 4960 90bc 1cf5 843d a370 be3d 31fa 25be
00000170: 878c 0abe 8a83 38be 25de 903d d91b 06be
00000180: b34e 843c ac23 3abe 3e5f 3abd 17e5 353e
00000190: 41f3 943d 3756 633c 6e12 cf3d 1b4c 1d3e
000001a0: cbb8 893d fe57 8b3d d8e5 2cbe 4943 a33d
000001b0: afe0 b4bd 8096 32be 0bdd 1dbd 24e5 8a3d
000001c0: 3da4 963d 345f 0f3e e915 f73d 2fc5 62bc
000001d0: 4cef 3a3e 25bb 14be 700b 02bd 397c 20be
000001e0: e4b6 24be 3996 053e a793 d93d fa81 5abc
000001f0: 7963 d5bd c322 8c3d 311e fabc 7715 14be
00000200: 00e7 b9bd e5f1 3ebe edb7 be3d e7c3 c93d
00000210: 52d0 97bc dc04 f13d 840b f5bd 9b50 3cbe
00000220: 1cac 963d a681 013d 9574 e13d 11d9 17be
00000230: d4c1 983d 619b 0ebe 7cad 17be cad9 e13d
00000240: 0f18 013d 21fa 9cbd dd88 d43d 9255 90bc
00000250: 6dbd 81bd fe82 4ebc 845d edbd cdcd ea3d
00000260: 9fdf c4bd 2c4e 89bd bf44 c8bd 160f e93d
00000270: b024 50bd 9375 e33d 3322 f6bd 4c76 bf3d
00000280: 0e64 80bc 87da 22be a18c a83d 5263 143e
00000290: 25a5 f5bd fdf0 03be c8cc 28bd ad58 1ebe
000002a0: 3b4f 043c efb8 e8bc 3707 02be 7459 01be
000002b0: 0562 243d b238 8dbd 07cc 6e3a 1c64 50bd
000002c0: 331c bebd 3656 503d 9c8b c3bc 402e ee3a
000002d0: fc87 6abb 45aa 16bb bef0 ba3d c975 3c3d
000002e0: 6d9b bfbd 7fe1 bfbd 6610 c93b 70ba 8cbd
000002f0: 9d99 39be 8d32 dc3b e58d a2bd 2479 153d
00000300: 8f30 303e 5c63 2a3e e341 143e 8918 043e
00000310: 1cd1 363d c9e6 f43d 5591 d8bd 3569 f53d
00000320: 5220 3f3d 4f01 cebc 52bf de3d 0c46 4c3d
00000330: 9281 b13d 1ef6 bcbd 5fc7 4f3c 3686 25bd
00000340: a57a 2b3d 8903 1c3d 364a 10ba 7d08 fd3d
00000350: 0e28 cbbc 9ac9 17be f8c8 84bc 90eb 1b3e
00000360: 2e5b 9a3d eae0 e4bd 5cb7 bdbd ec35 7439
00000370: a0a2 d93d 6e9a 13be 3dba b6bd 6638 203e
00000380: 3f75 f4bd 91fc 953d 099c c5bd e1e6 4abd
00000390: 8c18 c3bd 81bb d7bd 32c4 1fbe 4179 223e
000003a0: b38c 953d fb0b fbbc 3e21 883d f3b2 27bd
000003b0: 83cf f03d b4f3 0b3e 9e59 2ebe 40cc 173e
000003c0: dc00 893c bb8d 9b3d a162 39be 5394 c1bd
000003d0: 1001 e73c c2e6 f23d 35bf f23d b235 483d
000003e0: 6f38 b1bd 27da 4bbd 1b72 313d b048 21bd
000003f0: f590 05be cb31 623d 73f0 b23d f389 143e
-0.18061794 0.15584067 -0.13699985 0.11740379 -0.10286834 -0.015376099 0.18569434 -0.04845877
0.045583613 0.1513925 -0.139611 0.13966879 -0.16357784 -0.10675156 -0.0021241193 -0.070068166
-0.12231519 -0.01886485 -0.029944915 -0.092626706 0.024347505 0.16095683 0.020038728 -0.15380536
0.08809946 0.06366288 0.14423916 -0.089455426 0.081883326 0.14434244 -0.0021423446 0.078517966
0.05159893 -0.018602042 0.16775993 0.0632568 -0.10752869 -0.09083484 -0.079344004 0.1075982
-0.15681301 -0.08673349 0.0690144 0.07312385 0.05619859 0.039317347 0.000498956 -0.08208297
0.05506121 0.077856265 -0.049487293 0.15862606 0.04669735 -0.05584453 -0.1417369 -0.16539586
-0.12559246 0.06633022 -0.13626738 0.13786004 -0.14967471 0.03342383 -0.15782948 -0.16512601
-0.16765475 0.11843633 -0.15185855 -0.114610545 -0.109780274 0.031679373 -0.055087715 -0.08423589
0.045662835 -0.03668619 0.046773314 -0.15132746 -0.1545114 0.05897126 0.08283834 -0.015041626
-0.047502358 -0.04918906 0.02817468 0.14581953 0.14343287 0.016376121 -0.11306275 0.09499822
-0.017624037 0.064920634 0.092988275 -0.16208722 -0.1353017 -0.18018928 0.07073621 -0.1309656
0.016150808 -0.1817767 -0.045500986 0.17763172 0.072729595 0.013875536 0.10110937 0.15361063
0.067246996 0.068038926 -0.16884553 0.07971818 -0.088319175 -0.17440224 -0.03854088 0.06781986
0.07355545 0.14001161 0.12064726 -0.013840958 0.18255347 -0.14524515 -0.03174919 -0.15672387
-0.16085392 0.13045587 0.106238656 -0.013336653 -0.104193635 0.06842568 -0.030531975 -0.14461313
-0.09077263 -0.18646963 0.09312425 0.098518185 -0.018531952 0.11768505 -0.11965087 -0.18390124
0.07357046 0.031617783 0.110085644 -0.14828898 0.07458845 -0.1392646 -0.14812273 0.11027868
0.031517085 -0.07664896 0.10377667 -0.017618928 -0.06334958 -0.012604473 -0.11590102 0.11465035
-0.09612965 -0.06704363 -0.09778737 0.113798305 -0.050816238 0.1110641 -0.12018242 0.09348735
-0.01567271 -0.15903674 0.08229948 0.14491013 -0.119943894 -0.12884898 -0.04121092 -0.15463515
0.008075531 -0.028408496 -0.12698065 -0.1263178 0.04013254 -0.068955794 0.0009109382 -0.05087672
-0.09282722 0.050863467 -0.023870282 0.0018171743 -0.003578662 -0.0022989672 0.09127949 0.046010766
-0.09355817 -0.09369182 0.006135988 -0.06871498 -0.18125005 0.0067198933 -0.079372205 0.03649248
0.17206024 0.16639465 0.14478259 0.12899984 0.044633016 0.11958081 -0.10574595 0.11982957
0.046661682 -0.025147108 0.10876335 0.04987149 0.08667292 -0.09226631 0.012681811 -0.040411197
0.04186501 0.03808931 -0.00055042224 0.12355135 -0.024799373 -0.14822999 -0.01620911 0.15226579
0.075369224 -0.111757115 -0.09263489 0.00023289741 0.106267214 -0.14414379 -0.08922241 0.15646514
-0.119364254 0.07323564 -0.09648902 -0.04953659 -0.09526166 -0.105338104 -0.15602186 0.15866567
0.07302227 -0.030645361 0.066469654 -0.040942144 0.1175833 0.13667184 -0.17026374 0.14824009
0.016724043 0.07595392 -0.1810403 -0.09452119 0.028198749 0.1186042 0.11852876 0.048879333
-0.08653342 -0.049768593 0.04332171 -0.03937596 -0.13043578 0.055223268 0.08737268 0.14505748

Network_stack.0.0.gru.bias_ih_l0 f4 [96]
00000000: a194 6a3d 311c 683d d49a c03d 3d3d 323e
00000010: f9ce 023e 9d02 dd3d a118 a23c 28ac a5bd
00000020: 3a73 0c3e d392 193d f96c 563d 1138 483c
00000030: 04c6 273e 46d6 053d b756 9dbc 7146 203e
00000040: d7c4 b73d 4780 1c3e 850b 1d3e 1600 0cbd
00000050: 85d5 60bd 86c1 923c 8f75 0e3e 2c65 fabd
00000060: 1c3e c9bd 5865 8fbd ea23 2a3e 52ba 05be
00000070: efda b8bc 858d 0abe 1a69 babd 99bf dfbd
00000080: 64b7 5b3d 2baa 1e3d 6496 29bd a142 5bbd
00000090: c8d1 1dbd 2191 383e 18a1 ba3c 12ca d33d
000000a0: 7814 afbd 5a38 a53d 58ac 8f3d 45df 3cbd
000000b0: b91e fbbd 0231 20be c5a2 033d 5ebb 6cbd
000000c0: a239 713c 9880 f73c ed9f 6dbe 35a0 1bbd
000000d0: 511e 163e 429d e73d 1809 15be 15bf 9dbc
000000e0: 8e46 11be 4170 64bd e858 0dbe c459 5ebd
000000f0: bbcf 80bd 614f 14be f52c 51bd c4ee 87bd
00000100: 1523 69bc ebee 11be bd7a d63d eb5e 8f3b
00000110: b514 cc3c 4696 b83d 5848 03bb ddb6 0d3e
00000120: 3fc1 16bc 3ad0 c53d 1cf2 943d 7a02 ad3c
00000130: 6826 a1bc e524 573d 4daf a9bd ac1b 4d3d
00000140: ab09 323d be68 1dbc 4f40 563c 5eb0 99bd
00000150: 8ae0 073e c2bf b3bd dd23 b03c 6db4 fb3d
00000160: c87d a93d c1d3 22be 9372 ff3d 6fb7 f5bc
00000170: 76fa 1c3e 42d6 08be 8e5b b73d 9b02 d7bc
0.05727065 0.05666751 0.09404531 0.17406173 0.12774266 0.10791514 0.019787135 -0.08089477
0.1371583 0.037493538 0.05235002 0.0122203985 0.1638413 0.03267505 -0.019206388 0.15651871
0.08973091 0.15283309 0.15336426 -0.03417977 -0.054891128 0.017914545 0.13912033 -0.12226328
-0.098262995 -0.07001752 0.16615263 -0.13059357 -0.022565333 -0.13530548 -0.09102078 -0.10925216
0.05364169 0.038736504 -0.04140319 -0.05353034 -0.03853014 0.18024112 0.022781894 0.10341276
-0.08548826 0.08067389 0.07015294 -0.046111364 -0.12261719 -0.15643695 0.03213765 -0.057795875
0.014723213 0.030212685 -0.23205538 -0.037994582 0.14660002 0.113092914 -0.1455425 -0.019256154
-0.1418707 -0.055771116 -0.13803446 -0.054284826 -0.062896214 -0.14483406 -0.051068265 -0.06637338
-0.014229556 -0.14251296 0.10472629 0.004375329 0.024912218 0.090130374 -0.0020032134 0.13839288
-0.009201347 0.09658857 0.07272741 0.021119345 -0.019671634 0.05252542 -0.08285389 0.050075218
0.04346625 -0.009607492 0.013076856 -0.075043425 0.13269249 -0.08776809 0.021501476 0.12290273
0.08275944 -0.1590109 0.12473025 -0.029994695 0.15329918 -0.13362983 0.089530095 -0.02624636

Network_stack.0.0.gru.bias_hh_l0 f4 [96]
00000000: 8725 0c3e 74c3 0f3e 4820 d73d cf4e 183e
00000010: 403c 0fbe 255b abbc ce50 a63d 5f2e 8fbc
00000020: 3e6d 3b3e 118a 043e 8d5f 513d b7e6 bf3c
00000030: 2b4c 213d 5f92 3bbe f8f4 a93d 8943 b8bd
00000040: 9965 4abc 5df8 8d3d 704b 033e 565c 223e
00000050: 5977 4d3d fce8 2f3e 255e e5bd 746e 3abd
00000060: d848 9e3d 2ec3 ebbd 6ad0 183e c032 d3bd
00000070: 7169 453d ec7c c33d cfaf 33bd 4f96 ea3d
00000080: 9547 44be 582c e73d 5df3 643d dcf9 b6bc
00000090: 7080 033e 14da 01be 95ca b93d e4f2 293e
000000a0: e32d 05bd abd3 2ebe 679b 0fbe e8e9 78bc
000000b0: 2cd7 3a3c f56d c33c f308 dc3d 334b 513d
000000c0: 3a0f e23d 475b ecbd 9688 4ebe ee36 d13d
000000d0: 2d8d 47be af95 2ebe 530f 373c d6fc 9abc
000000e0: f6e4 373e 692b acbd b0ef 863d 22ba ddbb
000000f0: e00a 5a3d 834b 113c df18 26be b0d4 28be
00000100: 6868 033e a270 bb3c 79b7 7f3d d59b 6fbd
00000110: 2e41 bebd 55be 073d 1907 183e 309e 3ebe
00000120: 475c 913c 606d 27be 2dc4 1f3d 9154 29be
00000130: c38c 003e 373b 0cbe 8d20 87bc d635 123e
00000140: b96c 1cbd aa51 0b3e e94f 54bd 1adf a9bd
00000150: 2941 e93d cabf 34be 631d 95bd f907 cf3d
00000160: 8024 133c eb32 973d 6041 2cbe 9274 bf3d
00000170: ac2a 02be 76c2 cbbc ec78 60bd e2d8 eebc
0.1368619 0.14039403 0.10504204 0.14873813 -0.13987827 -0.020917485 0.08120881 -0.017478166
0.18303391 0.12943293 0.051116515 0.023425443 0.03937928 -0.18317555 0.08298677 -0.08997256
-0.012353324 0.06932137 0.12821746 0.15855536 0.050162647 0.1717872 -0.11199597 -0.045515493
0.077287376 -0.11511837 0.14923254 -0.10312414 0.04819626 0.09545311 -0.043868836 0.1145445
-0.19167931 0.11287755 0.05589615 -0.02233594 0.12841964 -0.12680846 0.090718426 0.16596562
-0.032514464 -0.17072932 -0.14024125 -0.015192486 0.01140384 0.023856143 0.107438944 0.051097106
0.110380605 -0.11540847 -0.20169291 0.10215555 -0.19487448 -0.17049287 0.011173087 -0.01891939
0.17958435 -0.08406717 0.065886855 -0.0067665735 0.053233027 0.008868101 -0.16220425 -0.16487384
0.12832797 0.022880856 0.062430833 -0.058498222 -0.09289776 0.0331405 0.14846458 -0.18615031
0.017744197 -0.16350317 0.039005447 -0.16536166 0.12553696 -0.13694464 -0.016495014 0.1427835
-0.038189624 0.13605371 -0.05183402 -0.08294506 0.113893814 -0.17651287 -0.07280996 0.101089425
0.00898087 0.07382759 -0.16821814 0.09348406 -0.1271159 -0.024873 -0.05480282 -0.029156152

Network_stack.0.0.gru.weight_ih_l1 f4 [96, 32]
00000000: d8f4 51bd 7530 263d 1628 8b3c 1a5b 903d
00000010: ba72 d1bc 760a 713d 04b1 05be 66cb 033e
00000020: 1c74 533c 614e 4abd 95a8 323e 2a8b a6bc
00000030: 7274 fc3d b7af ee3d 47f3 743d 4b51 8fbc
00000040: 2bfb df3d 7bb1 6abd ce68 203e 9b54 8bbd
00000050: d5d6 39be 609e 20bd 2e89 e23c 7766 2bbe
00000060: f157 fe3b 3ca4 8cbd c212 1dbe 1249 1d3e
00000070: 9569 3ebd acd5 5ebd 456c 2bbd 65de a03d
00000080: 4303 f83c 9579 733e d4d1 3dbe 50d9 28bd
00000090: f3b5 eb3d d7f1 123e 8019 a63d 436e b03d
000000a0: d883 0ebd a6f5 223c f486 4bbc cadd da3c
000000b0: f93b e5bd f2c0 1d3e 0b35 1dbe 8266 203c
000000c0: 44f0 1d3d 9e69 a53d 1a77 983d 88b7 163e
000000d0: 1686 ed3c 764e cf3d 9943 0fbe 2d6b fe3d
000000e0: a179 f03d 391d 033d 5eb7 ecbd da3c ae3c
000000f0: 7d29 fd3d c647 bbbd ea43 5d3d 61f8 e53c
00000100: ff90 803d d94a 373d 13ab 01be fc98 18be
00000110: 9ca7 82bd 29e9 3abd 2341 72bd fafc 3bbe
00000120: 6257 bb3d 2cb0 20be ac13 c73d ad8a c6bc
00000130: a299 a7bd 3f25 1e3e 3c8e 37bb ba17 19be
00000140: 9d4a 8dbb 7f6a dd3d db47 95bb 1518 14be
00000150: b6be a1ba 6f4a 303e bbd7 f1bd c575 debd
00000160: a312 dabd 100b 383e 5d90 c63c 3f14 8fbc
00000170: b3dc 783d e7d3 3f3e 2a51 1cbe 9a10 dbbd
00000180: 5cbf 843d 76d5 863d 8e46 1fbe 5b3f eebb
00000190: a7d4 d23d 87b2 243e e623 d4bd cb1e 3abe
000001a0: 7dfc 4d3c dd63 2d3e 49d5 c43d be43 59bd
000001b0: 428f f6bb 3e1e a63d 5dcf ba3d 422c c93d
000001c0: da7f 833d 085e 233e 568e 1e3e 322d 403d
000001d0: 604a 52bd 9328 2dbe eb7d 2bbe 3b57 efbc
000001e0: fb79 2dbe 7d58 383e 4118 bebc 6f56 b13d
000001f0: 8f2f 223d 100e 9dbd 504c b43d 47f0 1ebe
00000200: 57cf 1c3e 07e3 0a3e d35e 0c3e cad2 f03d
00000210: 9f81 d23d df0f 3abe 088e afbd b3ed bd3d
00000220: 4485 c9bd 4580 fd3d 37d9 41bd 5b56 a1bd
00000230: 0f25 953d 8f9d 1dbe b4f0 af3c 766d 483e
00000240: 699a b2b9 8ded 303c 959e d93c ed04 183e
00000250: b1d8 023e 07ac 11be c057 913c f4f1 143e
00000260: c441 253e 8ccb 26be 7b68 c33b c04c 35bc
00000270: ed2b 163e 435d 003e 989d 913d a977 2e3e
00000280: c10b 20bd 5316 b13d 8cc5 22bc bc6a 96bc
00000290: 5e22 7ebd 1521 0c3e 1c85 0f3d c11f 2e3e
000002a0: debc 053e d14b 273e a3e5 173e 9976 d3bd
000002b0: 9383 9c3d 3755 f1bd 09ce 22be 856b e33d
000002c0: f8c6 c03d 9c4c b4bb e726 0abe 8eae 503d
000002d0: b127 16be 00fb 25be 65e8 18bd 9314 323e
000002e0: bd5e 14bd 5fa1 403d 8750 8abd da60 a03d
000002f0: 397e 293e eef9 003e 0784 5a3d 4deb a93d
00000300: 743b de3d 1b0a a8bd 0851 8d3c e302 80bd
00000310: 55ab 023c 3d82 0abb 91c3 cc3d d4fc 24be
00000320: 95e6 98bc 592a 2abd 50a8 113e 2115 1fbd
00000330: 274b cf3d 95fd 403d 0473 cbbb 43b0 f7bd
00000340: 7036 12bc 96ae 1b3e f858 aabd d2f7 20be
00000350: 3a7c 0a3e e088 84bd 3a79 48bc dee1 c13d
00000360: efcc a53d 7b48 dabd 32d3 62bc 14ea 183e
00000370: 3c1f 12be 6669 babc 3f00 2fbc d00e aebd
00000380: 74fd a5bc 2631 1b3e 3d01 30be 0dd1 703d
00000390: e3b2 35be f022 d0bd e3a4 18be 4d30 69bd
000003a0: cfed a73d 2132 ecbd a49f 28be 945a 363e
000003b0: 3d21 053e 8d7b f9bd 248e 1e3e b1a5 39be
000003c0: 1666 efbd 4c81 a4bd 2d80 cbbc 005d aa3d
000003d0: fcd6 17bc a639 16be a072 14be a8cf 15bc
000003e0: 87f3 febd 762c 2ebe 7374 21be 213e e43c
000003f0: e99c 0b3e f824 86bd 3ec2 01be c26e 49bd
-0.05125889 0.040573556 0.016986888 0.07048626 -0.025567401 0.058847867 -0.13055807 0.12870559
0.012906101 -0.049391154 0.17447121 -0.02033003 0.12326898 0.11654609 0.05980232 -0.017494818
0.10936578 -0.057298165 0.1566498 -0.068032466 -0.18148358 -0.03921354 0.027653303 -0.16738306
0.0077619483 -0.06867263 -0.15339187 0.15359905 -0.04648741 -0.054402992 -0.0418513 0.078549184
0.030274993 0.23776849 -0.18537074 -0.04122287 0.115093134 0.14350067 0.081103325 0.08614781
-0.034793705 0.009946262 -0.012422312 0.026717085 -0.111930795 0.15405634 -0.15352266 0.009790065
0.038559213 0.080767855 0.07444592 0.14718449 0.028994601 0.10122387 -0.1399063 0.12422786
0.11741949 0.03201029 -0.11558412 0.02126925 0.12361429 -0.09144549 0.054019846 0.028072538
0.06277656 0.044749115 -0.12662916 -0.14902109 -0.06379625 -0.045632515 -0.05914415 -0.18358222
0.09147526 -0.15692204 0.09720549 -0.024236048 -0.081836 0.15443896 -0.0028008362 -0.14950457
-0.004311873 0.10811328 -0.004555685 -0.14462312 -0.0012340161 0.17215894 -0.118087254 -0.108623065
-0.10648086 0.1797297 0.02423876 -0.017465709 0.06075735 0.18733178 -0.15265337 -0.10696526
0.064818114 0.06583683 -0.15554258 -0.007270736 0.102944665 0.16083728 -0.103584096 -0.18175809
0.012572405 0.16932626 0.096109934 -0.05304312 -0.007524402 0.08111237 0.09121583 0.09822895
0.0642087 0.15953839 0.15483984 0.0469181 -0.05134046 -0.16910009 -0.16747253 -0.0292164
-0.16941063 0.18002506 -0.023204925 0.08659064 0.039596137 -0.07668698 0.08803618 -0.15521346
0.15313469 0.13563167 0.13708048 0.11758955 0.102786295 -0.18170117 -0.08572012 0.09273853
-0.098398715 0.12377981 -0.047326293 -0.07877799 0.07282459 -0.15392135 0.02147708 0.19573006
-0.0003406585 0.010798824 0.026564876 0.14845629 0.12777974 -0.1422578 0.017742038 0.14545423
0.16138369 -0.16288584 0.005963383 -0.011065662 0.14665194 0.12535577 0.07110137 0.17037834
-0.03907371 0.08646836 -0.009934794 -0.018361442 -0.062044494 0.13684495 0.035039052 0.170043
0.13060328 0.16337515 0.14833693 -0.10325355 0.07642283 -0.117838316 -0.15898909 0.11104492
0.0941295 -0.0055022966 -0.13491403 0.05094772 -0.14663579 -0.1620903 -0.037331004 0.17390661
-0.036223162 0.047028895 -0.067536406 0.07830973 0.16552056 0.1259534 0.053348567 0.08296833
0.108511835 -0.082050525 0.017250553 -0.062505506 0.007975419 -0.0021134757 0.09998239 -0.16112071
-0.018664638 -0.041544292 0.14224362 -0.03883851 0.10121756 0.047116835 -0.0062087793 -0.12094166
-0.008924112 0.15203318 -0.08317751 -0.15719536 0.13523951 -0.06471419 -0.012235934 0.09466909
0.080957286 -0.10658356 -0.013844298 0.14933044 -0.14269727 -0.022755336 -0.010681211 -0.08498919
-0.020262457 0.15155467 -0.17187972 0.058793116 -0.17744021 -0.10162914 -0.1490665 -0.05693083
0.08199655 -0.11532999 -0.16467148 0.1780799 0.1300096 -0.121817686 0.1548391 -0.18129613
-0.11689393 -0.08032474 -0.024841392 0.083185196 -0.009267565 -0.14670429 -0.14496851 -0.009143747
-0.12448793 -0.17009148 -0.15767078 0.027861657 0.13634075 -0.0655002 -0.12671754 -0.049177893

Network_stack.0.0.gru.weight_hh_l1 f4 [96, 32]
00000000: dc97 98bd f921 c4bd 5ffc e8bd 0335 233e
00000010: d70b 11be ba34 07be f24d 4d3d 20f0 4fbd
00000020: ce68 09be 4756 d33d 14e0 133d 687b 353c
00000030: c0a0 f73d ed6d 323d ba60 fcbd 11fd 193c
00000040: 13b1 00bd a0ab 2ebe c929 c73c 4e71 b1bc
00000050: b029 523d 6e03 833d 9267 bd3d 7a0e 223e
00000060: 42f7 adbd eccc dbbd 0256 573d bee8 27be
00000070: e0ae 9cbd 3462 b93b ab45 20be a195 f43d
00000080: f374 373e 6b9b d2bd 69e4 343e c7f4 913d
00000090: 060a 14bd a90b 11be bf29 1b3e 08b7 6cbd
000000a0: 00d7 27be 87d1 253d 7d03 373d c790 fa3c
000000b0: c25a 2e3e 0bba 98bd 20a3 9dbd 1ca8 29be
000000c0: a1b1 2f3c 8f96 cfbb 4a9f 24bc 9dcc 233e
000000d0: 61b1 afbd 0707 2bbe 88d0 0e3c 88e6 e23d
000000e0: c638 55bd a097 583d 2edb 2ebe b288 60bd
000000f0: f613 ff3d 4610 9cbd 403b 003e fa25 20be
00000100: 5da0 223e 939e f3bd d5b4 3bbe e75b 20be
00000110: e9b4 e63d 2668 3b3d bae1 973d 44ec 223e
00000120: 5700 a2bc a9ba fc3c e3c6 43bb 1a21 49bb
00000130: d93a 11be 3347 93bd 9e94 8bbd 08ff 89bd
00000140: ace1 9e3d 260c b53d 33fe f6bd 5b19 29be
00000150: 35ea a43c 92d3 4fbd 1347 22be 44a3 db3d
00000160: e54f 38be cee7 a63d 0a50 0bbd 6425 53bd
00000170: f535 bebc 6090 0ebe 864a 203e 9a42 ef3d
00000180: f338 093e 64b0 313e 43ea 9b3d 859a 923b
00000190: c4ba 313d bfa5 1bbe ed81 a8bd 6da3 183e
000001a0: 173a ecbd fb39 293e d36b a73d 4dcc 9d3c
000001b0: 0e25 77bd 1289 603d 0ef9 d6bd 17c1 01be
000001c0: 94e0 b93b c084 1fbd 7917 eebd 7bc5 6e3c
000001d0: 9d97 023e e1b9 973d a113 c13d acab d9bd
000001e0: f7d6 7cbd 6aa9 2b3e d3c5 03bd ffb4 4fbc
000001f0: ae2a aebc b7d7 27be 9352 bb3a e9de 203e
00000200: 9f0f 0abe 44ed acbd db07 363d d413 1abd
00000210: 2050 28be d698 11be 4e55 1ebe f76c 90bd
00000220: c945 a6bd 726c 273e 72cf f73d 5ece 543c
00000230: ce5a 8c3d 602b ef3c 36f3 b2bd 8a10 393e
00000240: e2c9 c53d 9968 cc3c e170 2a3e aa4c b43d
00000250: 630b 11be 6399 20be 7378 123d cc60 283d
00000260: 5e28 003e baad 183e 99f6 193c 6d6b 14be
00000270: b422 a1bb aa37 4b3d a025 8cbd 15f5 393e
00000280: b5f9 f4bd fb11 09be ba4c 20be 3961 1b3e
00000290: 8fb0 e43d 21ba e4bd a423 1f3d e0aa a43d
000002a0: 67e9 0f3e acc1 32bd 9369 8a3c d80e f3bd
000002b0: 2abf 2d3e 12d0 633d a04a 923d 2062 a5bd
000002c0: 1050 33be 5de6 fcbd de51 a33d 4bb5 bdbd
000002d0: c806 db3d 4a76 da3d d83c 5bbd 8982 e93d
000002e0: ccff d0bd d05a f0bd e2b5 9abd 7cd0 cebd
000002f0: 97f2 803d 8c28 293e 354e 12be b466 b23d
00000300: c5c0 8ebd ddbe fe3d 7d11 02bd b846 3d3d
00000310: 7be6 24bd fd2d a13d 3f67 a3bd ba95 b93d
00000320: 32e7 0d3e 68de a339 f20f 54bd 910a 36bc
00000330: 480a b5bb 5f21 24be cf9b 24be da2f ebbd
00000340: 490e 223e 2fa5 de3d b3b0 993d 9cf8 fd3d
00000350: 5972 03bd 2a34 583c 9f1c 23be d8bf b43d
00000360: 70cc 6ebd e78a 8abd 17e0 5fbd 3bb6 86bd
00000370: 6c99 933d 61a2 113e 795e 65bd 9333 54bd
00000380: 113f c4bd 7a05 a83d 76f2 03be 09cc e83d
00000390: 1a4c 1bbe 40ac 2fbe 55e3 f93d fad1 313d
000003a0: 1295 dbbd 4254 32be 2946 03be 8ac5 03bd
000003b0: b842 d5bd 0051 2d3d 2732 59bd 4729 09be
000003c0: 1ffa 06be c974 2a3e 3aa3 10be eeab cc3d
000003d0: e9e8 5f3d d84c 8b3d b1c9 183e 3264 36be
000003e0: 8682 7f3d 46d5 173e aed4 e23c 6878 c7bc
000003f0: cbf8 a43c 2d32 18be 186d 20be 3ef2 d63d
-0.0745084 -0.09576792 -0.11376261 0.15938191 -0.14164673 -0.13203707 0.050123163 -0.05076611
-0.13418886 0.103191905 0.03610237 0.011076786 0.120912075 0.043561865 -0.12323137 0.009398715
-0.03141887 -0.17057657 0.024311917 -0.021660473 0.051309288 0.063971385 0.0924827 0.15825835
-0.08494426 -0.10732445 0.052572258 -0.16397378 -0.07650542 0.0056574587 -0.15651576 0.11942602
0.17915706 -0.1028355 0.17665257 0.07126766 -0.03614237 -0.14164604 0.15152644 -0.05779174
-0.1639061 0.040483024 0.04468106 0.030586613 0.17026809 -0.0745736 -0.07697129 -0.16568035
0.010723502 -0.0063350867 -0.010047743 0.15996023 -0.08578754 -0.167019 0.00871671 0.110791266
-0.052056096 0.052878976 -0.17075798 -0.054817863 0.12454979 -0.076202914 0.12522602 -0.15639487
0.15881486 -0.1189548 -0.183307 -0.15660058 0.112649746 0.04575362 0.07416101 0.1591044
-0.019775553 0.030850725 -0.0029873184 -0.0030689896 -0.14182605 -0.071913145 -0.06815456 -0.067380965
0.07757887 0.08840208 -0.120602034 -0.16513579 0.02013121 -0.05073888 -0.15847425 0.107245
-0.17999227 0.08149682 -0.034011878 -0.05154933 -0.023219088 -0.13922262 0.15653428 0.11682625
0.1340063 0.17352444 0.07613041 0.0044739866 0.043391004 -0.15199946 -0.082279064 0.14906092
-0.11534517 0.16526024 0.08174863 0.019262457 -0.060338072 0.05481822 -0.10496722 -0.12671314
0.0056725238 -0.03894496 -0.11625571 0.01457345 0.12753148 0.074085005 0.09427572 -0.10628447
-0.061728444 0.16763845 -0.03217108 -0.01267743 -0.021260586 -0.16390882 0.0014291577 0.15710033
-0.13482521 -0.08443692 0.044441085 -0.037616566 -0.16436815 -0.14218459 -0.15462229 -0.070520334
-0.08118779 0.16349962 0.12100114 0.012988655 0.06853257 0.029195487 -0.08737795 0.18072715
0.09657647 0.02495222 0.16644622 0.08803685 -0.141645 -0.15683512 0.0357594 0.041107938
0.12515399 0.14910021 0.009397172 -0.14494105 -0.004917467 0.049613632 -0.06843114 0.18159898
-0.1196169 -0.13385765 -0.15654269 0.15173806 0.111664884 -0.11168314 0.03885235 0.08040404
0.1405388 -0.04364173 0.016896045 -0.118680656 0.16967455 0.055618353 0.0714314 -0.080753565
-0.1751101 -0.12348626 0.07974599 -0.092630945 0.10694653 0.10667093 -0.053524822 0.11401851
-0.102050394 -0.11736071 -0.07554223 -0.10098359 0.0629627 0.16519374 -0.14287646 0.08710995
-0.069703616 0.12438748 -0.03175496 0.04621002 -0.040258866 0.078701 -0.07978677 0.09061761
0.13857725 0.00031255488 -0.05177302 -0.011110918 -0.0055249073 -0.16028355 -0.16075061 -0.11483736
0.15825762 0.1087135 0.07504406 0.12400934 -0.032091472 0.013196031 -0.15928887 0.08825654
-0.058300436 -0.06764775 -0.054657068 -0.065777265 0.07206997 0.14222099 -0.0559983 -0.051806998
-0.095823415 0.082041696 -0.1288546 0.113670416 -0.15165749 -0.17155552 0.12201563 0.04341314
-0.10721792 -0.17414954 -0.12819733 -0.03217081 -0.10413116 0.042313576 -0.053026345 -0.13394652
-0.13181351 0.16646113 -0.14124766 0.099937305 0.05466548 0.06801766 0.14920689 -0.17811659
0.062380336 0.14827451 0.027689304 -0.024349406 0.020138165 -0.1486289 -0.15666616 0.10495423

Network_stack.0.0.gru.bias_ih_l1 f4 [96]
00000000: 91c8 283e 34b2 823d 096c 88bc 11a3 a23d
00000010: 0cde 0f3e 0771 993d 199b cf3b 1ac4 8c3d
00000020: 0f90 debd cc06 d83d 3aa9 9abd 3988 12bd
00000030: f3c5 2cbe 909b 7dbd 3972 99bd 85b2 e9bd
00000040: 032a d53d 7e19 313e 4481 d73b be4a 69bd
00000050: 45bb 333e a2a5 81bd 4e84 79bb 6b54 ce3d
00000060: 50dd b9bc 9500 07bd 6f77 ec3d 2da5 e2bd
00000070: e58d 9abc 1b6c f7bd 5cbb 273e 1b43 da3d
00000080: 9a8a 943d dbcd cbbd cae5 37be 05de 003e
00000090: c453 ff3d 4051 95bc 23c4 053e 3977 a53c
000000a0: 12e5 963d 8fee 113e 7a2a d6bd 776a 293e
000000b0: fd3e ebbd 77df 02bd 9a8b 9e3d ac4e d03d
000000c0: 3130 d33c 3074 d03d e486 563e ddfa b93d
000000d0: fa78 df3d 541c 453e 87a7 45be 0581 ef3d
000000e0: 1050 53be 47ac 39be 2841 cbbc 3587 7bbd
000000f0: e5d3 3e3e 37cb f63b a466 59bd 2311 3dbe
00000100: 2414 85bd 2c47 a9bd 182e 90bc 8f31 08bd
00000110: 4ef1 353e 3d04 88bc ceb1 82bd 40f0 07be
00000120: ec39 aa3d 6bd5 943c 423b f8bd 208d 05be
00000130: e1bc 373e d5d4 873d a4d7 cfbc 722d dabb
00000140: 7829 0d3e 30e5 d43d ef20 7a3c 3ce0 9a3d
00000150: 0e84 ba3d 84b9 4e3d 18e1 383e a71a 20be
00000160: 5588 043e 802e 2f3e ba09 143e f731 e13d
00000170: 249b 5dbd 3fa0 fa3c f2a9 083e f9e0 33bd
0.1648276 0.06381646 -0.016653078 0.07941259 0.14049548 0.074922614 0.0063356278 0.06873341
-0.10867321 0.105481714 -0.07551809 -0.035774443 -0.16872387 -0.061915934 -0.07492489 -0.11411003
0.10408404 0.17294881 0.006576689 -0.056956045 0.17551906 -0.0633042 -0.0038073245 0.10074695
-0.022688538 -0.03295954 0.11546218 -0.11066661 -0.018866489 -0.12081166 0.16380066 0.106573306
0.07252999 -0.09951373 -0.17958751 0.12584694 0.12467149 -0.01822722 0.13063101 0.020198451
0.073679104 0.14251159 -0.104573205 0.1654452 -0.114866234 -0.031951394 0.07741471 0.101712555
0.025779815 0.10178411 0.20949894 0.090810515 0.10911746 0.19249088 -0.19302188 0.116945304
-0.2063601 -0.18132125 -0.024811342 -0.06140824 0.18635519 0.0075315493 -0.0530764 -0.18463568
-0.06497982 -0.08265528 -0.017600104 -0.033250388 0.17767832 -0.016603583 -0.0638157 -0.13275242
0.08311829 0.018168172 -0.121206775 -0.13042116 0.17943145 0.06632391 -0.02537138 -0.0066582495
0.1378535 0.103952765 0.015266641 0.075623006 0.09107219 0.05046989 0.18054616 -0.15635167
0.12942632 0.17107582 0.14456835 0.10995858 -0.05410303 0.03059399 0.13346079 -0.043915723

Network_stack.0.0.gru.bias_hh_l1 f4 [96]
00000000: 7106 1ebc 1c4c 083e c07e 7dbd 892a 7e3d
00000010: 5e6b 0abe 04c3 76bd c7fb 66bd c852 373e
00000020: dfef 1dbe a7c1 263e 6c63 88bd 05bf 2a3d
00000030: 6922 26be c4f1 0f3e c66f e4bd b760 edbd
00000040: 8639 5cbc 8433 053e 415b 843d 0dad 773c
00000050: 85e9 073e 5ffc 0f3e 9a2d 743c 0793 333e
00000060: 9ca9 a73a 4a87 a43d f882 7bbd 4228 0abe
00000070: 08b3 5d3d d43f 133d 4108 e3bd b74e acbd
00000080: d6e4 273b 1df8 7cbe ba20 8abb b8fd 97bc
00000090: f200 d63d 56af 0e3e efcd b9bd 237a e63d
000000a0: 9e9a ab3d 3b11 b1bd 0493 55bd 8317 5c3d
000000b0: 71d3 dd3d 18cc 1c3e 3d37 073e ec25 623d
000000c0: 1fda 3abe cceb 19bc eb09 923d 7f33 453e
000000d0: 1c80 01be 9ed6 79bd f139 4bbe 07ee a9bd
000000e0: e9c9 42be 5137 f4bd 8cdf 483e 8010 0f3d
000000f0: 79b4 1c3e ff7c b43d 4550 5a3d f59f 89bd
00000100: 70cb bf3c 8928 5639 d07d cabc 1462 5e3d
00000110: d8bb 87bd 3cf7 eabd 3c65 1b3e 4a94 f53d
00000120: 5a10 8a3d ee73 f83b 7c96 9a3d cf1f 2bbc
00000130: a531 a1bd 5aea e73d 7fd8 833d a26b 8dbc
00000140: 97ce 6c3d 09a7 a1bd ad03 00bc 0144 fd3d
00000150: 5734 1f3e bb45 19bd 52d3 283e 2863 84bb
00000160: 807d 793d 9412 663d f4ac 433d 4cc7 133e
00000170: e9b0 db3d 40d0 dc3d 83d8 14be fb07 04be
-0.00964509 0.13310283 -0.061888456 0.062052283 -0.1351752 -0.060244575 -0.056392457 0.17902672
-0.15423535 0.1628481 -0.06659588 0.041686077 -0.16224064 0.1405707 -0.111541316 -0.115907125
-0.013441449 0.13007933 0.06462718 0.015116942 0.13272674 0.14061116 0.01490345 0.17536555
0.0012791636 0.08033617 -0.0614042 -0.1349192 0.054125816 0.035949543 -0.11085559 -0.08413451
0.0025618575 -0.24704023 -0.004215327 -0.0185536 0.10449399 0.13934073 -0.09072482 0.112537645
0.083791 -0.086458646 -0.05214216 0.05373336 0.10831345 0.1531223 0.13204665 0.055211946
-0.18247269 -0.009394597 0.07130798 0.19257925 -0.12646526 -0.06099569 -0.19846322 -0.08297353
-0.19022335 -0.11924613 0.19616526 0.034927845 0.1530322 0.088129036 0.053299207 -0.067199625
0.023412436 0.00020423731 -0.024718195 0.054292753 -0.06627625 -0.114729375 0.15175337 0.119911745
0.067414 0.0075821793 0.07548234 -0.0104445955 -0.07870797 0.11323996 0.06437778 -0.017263237
0.057814207 -0.078931876 -0.007813376 0.12366486 0.1554731 -0.037420016 0.16486862 -0.0040401407
0.0609107 0.05617006 0.047772363 0.14431494 0.10727102 0.10781908 -0.14535718 -0.1289367

Network_stack.1.0.gru.weight_ih_l0 f4 [96, 2]
00000000: 0115 a43d 9a1c 073e 8c57 3fbe 24ce b73d
00000010: 1ca5 0fbd 319c 6abb 95eb efbb 451a 94bd
00000020: 6e6a 0a3e c689 11be 00b6 99bd cd90 00be
00000030: 6b3c 6ebd b1d2 55bd d548 debc 6b8e d3bd
00000040: 02b7 0b3e d8d3 9e3d 2302 41bd 036d cd3d
00000050: f8dd 773c 87b3 d53d f729 0fbe 1944 4cbd
00000060: f635 053e 27f5 f73d e7f7 54bd 3f8b 5a3d
00000070: ad7f e23d 2712 4fbe 3d09 263d 90a4 23bd
00000080: 72ed 71bd f851 1f3d 3d3f 353e c31b bc3d
00000090: 1429 15be 05f4 42be dfe5 2cbc 602d 853d
000000a0: 332a 8c3b e31a 4fbc 4be0 703d 7d03 2dbe
000000b0: 6a67 e2bd a4a8 9b3d 9605 d83d 4a12 22be
000000c0: 2ff4 46bd 7c96 b43d 78c7 463c bb07 39bd
000000d0: 4895 5dbd 698b 623c cfd0 053e 67fb e8bd
000000e0: d274 db3d db7e 0bbe a321 b4bc fbfd 633c
000000f0: de3d 00be 1b13 d6bd 8c6e 66bd 7dcf 993c
00000100: d1a9 3f3e 6500 073e 4e80 493d 6f39 803d
00000110: 6754 79bd f27d 99bc 5fe2 243d 4604 f03d
00000120: fe06 083e 5b8d 9f3d 78a9 fbbc fb66 bc3d
00000130: cddf da3d fe03 dcbd 581f 913d bd8f 753d
00000140: 0f82 f23d 240c 6fbd 2360 443d 554a 6d3d
00000150: cdf8 f5bd f684 ec3c 7a4c 0f3e 5c83 9dbd
00000160: 2c9c ecbd fbff 4fbc d2d8 083d b7f9 ebbc
00000170: 8126 1cbd c229 33be 2d69 a1bd 6ff1 5c3d
00000180: f394 20be 3455 33be ab74 27bd 44be d13c
00000190: 0ca8 0d3e cba9 243e 1c2b 41bd 8f02 013d
000001a0: a618 60be 8706 9cbd 6faf a3bc c197 abbd
000001b0: d419 93bc bdf8 af3c 8d88 183d 9d50 b73d
000001c0: f55d 213e db3e 3d3e 890d a73d 6e18 34bb
000001d0: da3d b73d 66bf bbbd 81aa 483d cedc 293e
000001e0: 1c06 eebd af39 06be b622 83ba ab8b e43d
000001f0: 9384 11be 2167 933d 1fa1 8bbd 78f2 793d
00000200: b8d0 933d 9b0b 82bd 304b c9bd b897 d1bd
00000210: afec aebd 6bba 013d 2bdb 3b3e 10c8 4dbd
00000220: 0c2f 733d f816 3e3e f804 02be ba23 0fbe
00000230: c4df e0bd 1625 5e3d eb5a 2abe fd56 193e
00000240: 5497 e33d cb01 2bbe 368c b9bd 48c4 0c3e
00000250: 1c9e a93b 2a94 e4bd af66 89bd a55a 363e
00000260: 8991 b5bc 9ae5 d9bd 19d5 bc3d e8ab 0bbe
00000270: b217 113e ae19 5ebd 5b80 1c3e e133 91bd
00000280: 7829 66bd 209e 3ebe 2d60 dc3d 1157 163e
00000290: fef0 0c3e 4cb4 c13d 12cd 073e eb55 303e
000002a0: 6ace d6bd 567a 93bc 1631 693d cf7b e73d
000002b0: e280 443e da86 f7bd aff9 35be dd9e 803d
000002c0: 228e 213e 44f2 d6bd b6ba 78bd f230 323e
000002d0: 1fc0 adbd 99df 423c 4194 cebd c827 2ebe
000002e0: 89e2 323e 0c28 a23d 81ec 17bc 7abc 0abe
000002f0: 51c9 c53c a89e b4bd 8575 c83d 8183 33be
0.08011819 0.13194504 -0.1868574 0.08974865 -0.03506957 -0.0035798664 -0.0073217847 -0.07231573
0.13517162 -0.14212713 -0.07505417 -0.12555237 -0.058163088 -0.052202884 -0.027134338 -0.103298984
0.1364403 0.0775525 -0.04712118 0.10030558 0.015128605 0.10434633 -0.13980852 -0.04986963
0.13008866 0.12107306 -0.05199423 0.05335545 0.110595085 -0.20221768 0.040536154 -0.03995186
-0.059064336 0.03889653 0.17699905 0.09184983 -0.14566451 -0.19038399 -0.010552852 0.06502795
0.0042774915 -0.012640688 0.058807652 -0.16895862 -0.11054881 0.07600525 0.105479404 -0.15827289
-0.048572715 0.08817765 0.012132518 -0.045173388 -0.054097444 0.013827183 0.13067935 -0.11376076
0.10715641 -0.1362261 -0.021988695 0.013915534 -0.125236 -0.10452863 -0.05625777 0.018775696
0.18717124 0.13183744 0.049194627 0.062609546 -0.060871508 -0.018736813 0.040254947 0.11719565
0.13283917 0.07790633 -0.030720457 0.091993295 0.10687218 -0.10742949 0.070860565 0.059951533
0.11841213 -0.058361188 0.047943246 0.057932217 -0.120103456 0.028871994 0.13994017 -0.076910704
-0.11553225 -0.012695308 0.0334099 -0.028805597 -0.038122658 -0.17496398 -0.07881389 0.053941187
-0.1568182 -0.17512971 -0.040882748 0.025603421 0.13833636 0.16080396 -0.047160253 0.03149658
-0.21884403 -0.076184325 -0.019981114 -0.08378554 -0.017956652 0.021480912 0.0372396 0.08950923
0.15758498 0.18481009 0.081568785 -0.0027480382 0.08947344 -0.09167366 0.04899073 0.16588137
-0.11622259 -0.13107942 -0.0010004852 0.11159452 -0.1421073 0.07197405 -0.06817841 0.06102225
0.07217544 -0.0634987 -0.09828794 -0.10234016 -0.085412376 0.031671923 0.18345325 -0.050239623
0.05937104 0.1856345 -0.12697208 -0.13978472 -0.1098018 0.054234587 -0.16636245 0.1497459
0.11112848 -0.16699903 -0.09059946 0.1374675 0.005176319 -0.111610726 -0.067090385 0.17808016
-0.022164123 -0.10639496 0.09220333 -0.13639796 0.14169195 -0.05422371 0.15283339 -0.07089973
-0.05619189 -0.18615007 0.107605316 0.1468165 0.13763806 0.09458217 0.13261822 0.17220275
-0.10488589 -0.01800267 0.056931578 0.113029115 0.1918979 -0.12086268 -0.17771028 0.06280301
0.15776876 -0.10495427 -0.060724936 0.17401484 -0.0848391 0.01189413 -0.10086871 -0.17007363
0.17469229 0.079177946 -0.0092726955 -0.1354846 0.024143847 -0.08819324 0.0978804 -0.17530634

Network_stack.1.0.gru.weight_hh_l0 f4 [96, 32]
00000000: c93d 7abc 0f76 7b3d 5624 003e 7b8f 25be
00000010: 11b9 d53c 7f2a 1abd afd1 b23d c07b ff3d
00000020: a18f a83d ac90 20be 3810 c8bd 317c b6bd
00000030: 35b7 a93c e5f6 b23d 780c 3cbe 3acb e33d
00000040: 802d 3c3c 16b7 7abc ae45 c9bd 5214 803d
00000050: 6c0f c5bd 2b70 103e 887a 88bd 09c1 1fbe
00000060: 26e7 d9bc 8d7d 97bd edc0 083e 9c15 04bd
00000070: f463 6cbd d456 a63d 83ba 21be 73b4 523d
00000080: 45d1 363d 0922 a23a 6cc7 20ba d59a d7bd
00000090: 7e5b b2bd 39b9 7a3d d8b2 0dbe 0723 04be
000000a0: 7f57 37be cadf c5bc 61cf dabc 1d65 ba3c
000000b0: a572 bcbd a08f acbd d06c e93d 3567 a43d
000000c0: 06b9 223e 2aad d33c 435b eabd 390f de3d
000000d0: 0e16 b83d 2123 81bd 4083 87bd 1f92 14be
000000e0: cb82 77bd 1a5d 003e 34cb a03d eee3 25bd
000000f0: 6184 36be bc5d 38bd fcd3 93bd d218 063e
00000100: 33a1 4abd 7216 873d 3b52 4d3d a707 02be
00000110: d7e9 e03a 386a 33bd fbde 1e3e ce90 04be
00000120: 7ee3 073e fbda f9bc 5e48 2dbe be6a 1ebd
00000130: 3869 acbd 386e d5bd 7271 c43c cc4f 68bd
00000140: ce21 abbd 45de 34bd 6491 6bbc 43ee 363e
00000150: 714d 883c fcf3 2d3e c33e 9ebc b4bf 1cbe
00000160: cc5f 99bc d3a1 7fbd 7c65 0b3d 19e8 263e
00000170: 0851 833a 0b68 cebc 21b4 9abd e29e 4f3b
00000180: 90bc 343e 55d5 893d 0d68 413d 010e fdbd
00000190: 53cd 493e 8828 a23d c5b4 1dbe 622d bbbd
000001a0: 8c9d fa3d 8b48 7cbd c53e ccbd 3f6b c9bd
000001b0: bb92 58bd a22f d53d d877 20be 3396 1b3e
000001c0: 1778 cb3a 06fd 343e f7cf 423e 03d2 033e
000001d0: 81ed ddbb 804d 0d3d 703a dfbd b119 fabd
000001e0: fa22 f63d 46bb d7bc cc2f e5bd ab29 aabc
000001f0: 5bfc 59bc 2249 81bd d9de 703d 80d3 523c
00000200: bb42 fabc b51f 073d 1d2f 05bd 1136 013e
00000210: 16a8 d6bd 1001 69bc 7363 60bb a769 093e
00000220: f0fb 63bd 8b48 debd 4a4c 203e 72f9 f8bd
00000230: 4551 13be 693b af3c 9689 d43d fa01 103e
00000240: 7b09 12be 78ad 0ebe fdaf 37be b2e0 63bb
00000250: 3d47 e73d 00c6 c0bd aee6 0dbe ac39 dabd
00000260: 6cbb 353e 13b1 98bd 4328 84bc 1b27 2b3e
00000270: d181 e3bd 94fc 3f3e 02a0 153e 4c08 d93d
00000280: c8ae c33c 9360 363e 9f5c 8abd fcd8 b53d
00000290: f2e9 acbd 3527 393e 8e4a fc3d 4e53 ed3d
000002a0: 0f57 4d3c 261b ec3d c2f9 fb3d b9b7 d2bd
000002b0: 8c5b 96bd f1c5 af3c 1976 20be 12c8 bf3c
000002c0: 4817 54bc aada 3cbd 1b60 a7bd a75d d0bd
000002d0: 292c 2bbe 068c aabc a2f6 633c 732f 2dbe
000002e0: eb29 e0bd 07a1 c4bd af8a 1ebe c781 743d
000002f0: 637c eb3c 5b76 cc3d 0131 df3d 5fdf 0f3e
00000300: 5685 173d ea5d a83d 423f c53b 3dc3 dfbc
00000310: 36af e4bb 2218 25be 61fc 0f3e 5543 e3bc
00000320: 0983 6ebd 9a38 0abe d0a8 c73c 62dd e73b
00000330: 6115 23be 833d f83d 9cd5 223e 05a5 19be
00000340: 49f3 ecbd 9ac6 15be fbdd a13c fa27 0f3a
00000350: c0aa 70bd 2197 1dbd d8cd 973d f9fa 8fbd
00000360: 31cf 13be 0f4c ab3c cd44 37be e398 99bd
00000370: d2e9 abbd 5a41 1a3e 824e 593c 50ba 173e
00000380: ef60 15be 405f e5bd 26e0 553c c384 fd3d
00000390: 425e 153e c086 2f3e d66f bbbc 9acd 3c3c
000003a0: 3f2e e33d 302f 1dbd 7b5e 2d3e 22ab 29bc
000003b0: 014e 7b3c 40cf 4ebd 1a27 a13b a8cf ccbd
000003c0: 4ca9 233e 33d8 883c 9733 17be 58a3 4dbc
000003d0: 83f2 31bd 141c d4bb 8a6e 563d a62f 1bbe
000003e0: 43bc d0bd 813c 113e c790 d3bc 522e a73d
000003f0: 0d40 3ebe b94e a2bd e2a2 60bd 0426 74bd
-0.01527352 0.061391886 0.12513861 -0.16168015 0.026089223 -0.037638184 0.087314 0.12474775
0.0823052 -0.15680188 -0.097687185 -0.089104064 0.020717243 0.08738498 -0.18364131 0.11122747
0.011485457 -0.01530244 -0.098277435 0.06253876 -0.09622082 0.14105289 -0.06663996 -0.15600981
-0.026599478 -0.07396994 0.13354845 -0.03224717 -0.05771251 0.0812203 -0.15793805 0.05144162
0.04463317 0.0012369762 -0.0006133232 -0.10527579 -0.08708857 0.0612118 -0.13837755 -0.12903987
-0.17904471 -0.024154563 -0.026710214 0.022753293 -0.09201554 -0.08425832 0.113977075 0.08027498
0.15890893 0.025839407 -0.11443188 0.10842747 0.089885816 -0.063055284 -0.06616831 -0.14508866
-0.06042747 0.12535515 0.07851258 -0.040500574 -0.17823936 -0.045011267 -0.07218167 0.13095406
-0.049470138 0.06596078 0.05012725 -0.12698232 0.0017159533 -0.04380247 0.15514748 -0.12945864
0.13270375 -0.030499926 -0.16922137 -0.038676016 -0.084185064 -0.10421413 0.023979876 -0.056716725
-0.08356057 -0.044157285 -0.014377926 0.17864327 0.01663849 0.16987604 -0.019317036 -0.15307504
-0.018722437 -0.062410187 0.03403233 0.16299476 0.0010018656 -0.025196096 -0.07553888 0.0031680395
0.17650056 0.06730143 0.04721837 -0.12356187 0.19707231 0.07917887 -0.1540099 -0.091395155
0.12237081 -0.06159262 -0.0997291 -0.09834909 -0.052874308 0.10409476 -0.15670717 0.15194015
0.001552346 0.17674646 0.19024645 0.12873082 -0.0067726974 0.034497738 -0.10899818 -0.122119315
0.1201839 -0.026334416 -0.11190757 -0.020771822 -0.013304795 -0.06312777 0.058806274 0.012867808
-0.030549398 0.032989223 -0.032515634 0.12618281 -0.104812786 -0.014221445 -0.0034238964 0.1341921
-0.05566019 -0.1085368 0.15654102 -0.12156953 -0.1438647 0.021390634 0.10377805 0.14063254
-0.14261429 -0.1393336 -0.17938228 -0.003477138 0.112928845 -0.094127655 -0.13857529 -0.10655531
0.17747277 -0.07455649 -0.01613248 0.16714136 -0.11108745 0.18748695 0.1461182 0.10597286
0.023887053 0.17810278 -0.06755947 0.08879277 -0.08443059 0.18081363 0.12318908 0.11588155
0.012532963 0.11528616 0.12303497 -0.102889486 -0.0734168 0.02145669 -0.1567005 0.02341083
-0.012945004 -0.04610697 -0.081726275 -0.10174113 -0.16716065 -0.020818722 0.013913782 -0.16912632
-0.10945495 -0.09601026 -0.15482591 0.059694078 0.028745836 0.09983512 0.10898019 0.14050053
0.036992393 0.08221038 0.006019504 -0.027314777 -0.0069788946 -0.16122487 0.14061119 -0.027742067
-0.058230434 -0.13498154 0.024372488 0.0070759514 -0.15926124 0.121211074 0.15901798 -0.15004356
-0.115698405 -0.14626542 0.019759169 0.0005460974 -0.05875659 -0.038474206 0.074123085 -0.07030291
-0.14434506 0.020910291 -0.17897339 -0.07499864 -0.08394207 0.15063992 0.013263347 0.14817166
-0.14587758 -0.11199808 0.013053929 0.12378838 0.14586738 0.17141247 -0.022880476 0.011523629
0.11092805 -0.03837508 0.16930573 -0.010355743 0.015338422 -0.050490618 0.0049179913 -0.10000545
0.1598255 0.016704654 -0.14765774 -0.012551151 -0.043444168 -0.0064730737 0.052351512 -0.15154895
-0.10192158 0.14183237 -0.025825871 0.08163132 -0.18579121 -0.079251714 -0.054842837 -0.059606567

Network_stack.1.0.gru.bias_ih_l0 f4 [96]
00000000: 3709 01be 6342 1abd 4155 b6bd 1386 d43d
00000010: 6f44 3c3e e19d 02be ddb9 363d 77cb adbd
00000020: e037 78bb e42f 02be 5663 cfbd 58c9 b1bd
00000030: 89b3 163e fbba 0abd 93b7 363d b08b 3e3e
00000040: 34be 153e 83d8 3f3c 5201 d4bd 4b1b dabc
00000050: 5908 d13d 4e74 9fbd 85b3 57bd 5b19 233e
00000060: d517 c8bd c089 27be adfb 193c 35d2 a4bd
00000070: a69a 9c3d 54ec 40bc aaad ba3d 456d ee3d
00000080: 3540 94bd 4aa6 c8bc 1476 183d 50c0 ae3d
00000090: 4c94 153e 922f 8abe 51ba febc 0058 973d
000000a0: 634d f33d 136f 403d 2896 0bbe 34c0 66bd
000000b0: d284 3ebe 2f6e de3d 9f2b aebd 72f3 e6bd
000000c0: bdca 3bbe 457b 1fbc 990c 393e 5ce6 2e3e
000000d0: a95d 12be 93bf 1abe e039 21be f1c3 cabd
000000e0: 4e7b db3a 5260 2bbe a4c5 3d3e 0df5 6d3d
000000f0: a2e7 e33c e6e1 ceba 1a82 ccbd 7267 c23d
00000100: d6dd 13be 2f2a 883d 3249 c83d 8b3d aebd
00000110: d0e6 d6bd 44e5 bebd d95e b43d 4fa7 913d
00000120: 70e6 9c3d 2b30 41be 0525 8abc 1197 efbd
00000130: 3068 b3bd 2d0a bebd 0e05 333e 4e13 043e
00000140: 1e36 343e 969f 21bd 175b 14be 284d 16be
00000150: 039a 063e d12f 6c3d 3a6d 3dbd 223c 5a3d
00000160: 8e37 d63c 1560 09be 764d cc3d 5a1f 363e
00000170: d32f 1c3e 38b1 dc3d 2bda 58bd d449 d73d
-0.12601171 -0.037660968 -0.0890298 0.10377135 0.1838548 -0.12755539 0.044610847 -0.084860735
-0.00378751 -0.12713581 -0.10126369 -0.086809814 0.14716925 -0.033869725 0.044608664 0.18607974
0.14623338 0.011709335 -0.10351814 -0.026624342 0.1020667 -0.07785855 -0.052661438 0.15927641
-0.097701706 -0.16361141 0.009398383 -0.08047906 0.07646684 -0.011775095 0.09115155 0.11641935
-0.07238809 -0.024493355 0.037221983 0.085327744 0.14607352 -0.26989418 -0.031094702 0.073898315
0.11879995 0.04698093 -0.13631499 -0.056335643 -0.18605354 0.108608596 -0.08504414 -0.11276902
-0.18339057 -0.00973398 0.18071212 0.17080063 -0.14293541 -0.15112142 -0.15744734 -0.09900654
0.0016745122 -0.16735962 0.18532425 0.058095027 0.027820412 -0.0015783876 -0.099857524 0.09492387
-0.14440092 0.06648671 0.09779586 -0.08507832 -0.10493243 -0.09321073 0.08807153 0.0711199
0.0766114 -0.18866031 -0.016863355 -0.116987355 -0.087601066 -0.092792846 0.17482397 0.12897989
0.17598769 -0.039458834 -0.14487873 -0.1467787 0.13144688 0.05766279 -0.046246745 0.053280003
0.026149537 -0.13415559 0.09975712 0.17785397 0.15252618 0.10775989 -0.052942436 0.105121285

Network_stack.1.0.gru.bias_hh_l0 f4 [96]
00000000: 3979 3fbe 6408 62bd 0a78 273e 3940 c9bd
00000010: a370 103e ec04 893d c163 123d a04c 43bd
00000020: c329 41be 904b 0e3e 9402 01be 5737 e53d
00000030: 9182 2abe b37f 47bd c92d eabd 84e0 0abe
00000040: c814 303e 77b5 1b3e d4b9 fb3d 6dcc b4bd
00000050: 75bc 06be 8c27 58bd c340 de3d 99d5 0f3e
00000060: 8e51 32be c773 8bbd 4c6d b1bd 2e16 3abd
00000070: 5471 1dbb efc7 4abb 95d8 89bd 517c 3b3e
00000080: c032 6b3d 2406 303e ac58 00be 6a3a 0cbe
00000090: 1a31 803c 687c 053d 7e7c 35be dbc3 093e
000000a0: 4775 edbd 0954 1abe 92bb 80be 7ffe 803d
000000b0: b95c 2fbd da04 19be 6373 81bd 26c4 6d3d
000000c0: 19c5 55be dcc2 62bd 8440 483c a481 353e
000000d0: 3590 0dbd f11d 2f3e 01ef b6bd 846d 9d3d
000000e0: 82ae ecbd 3c58 c13d bf68 d13d e217 fdbd
000000f0: 9c75 8ebc 3a1e 413e 4502 683d a9f7 00be
00000100: 4259 dfbd 55ba 68bd ab09 02be 402b babd
00000110: b345 043d 75f0 b1bb 7711 813d 3c12 213e
00000120: 6cfd 99bc a5af 9e3d 1f7e 04be fdf6 f7bd
00000130: d3bc 833d f28e 3d3e 60b7 3fbd ce5f ee3c
00000140: 5c69 953d 25af b0bc 445d 1fbe c8cc 943d
00000150: 47ee da3d 2329 e63c 2f4f dcbd 516f 023e
00000160: 2fc3 1f3e c388 133e cdb7 c23d cc0f d43d
00000170: db8d 09be 219c eabd 3d50 16be fcf7 243e
-0.18698587 -0.055183783 0.16354385 -0.098267026 0.14105467 0.06690392 0.035739664 -0.047680497
-0.18863587 0.13896012 -0.1259864 0.11192196 -0.1665137 -0.048705768 -0.11434514 -0.13562208
0.17195427 0.15205942 0.12291303 -0.088280536 -0.13157828 -0.05277209 0.10852196 0.14046325
-0.17413923 -0.06809192 -0.08663425 -0.04543131 -0.0024023848 -0.0030941924 -0.06730763 0.18309142
0.057421446 0.17189842 -0.12533826 -0.13694158 0.015648413 0.032589346 -0.17723271 0.13453619
-0.115946345 -0.1507112 -0.25143105 0.06298541 -0.042813037 -0.14943257 -0.063208364 0.05804839
-0.20875968 -0.055361614 0.012222413 0.17725235 -0.034561355 0.17101265 -0.08932305 0.07686904
-0.11556722 0.094406575 0.10225057 -0.12358071 -0.017390065 0.18859187 0.05664279 -0.12594475
-0.109056965 -0.056818325 -0.12699 -0.090902805 0.032293033 -0.005430276 0.06302159 0.15729612
-0.018797599 0.07748345 -0.12938736 -0.12107656 0.064325 0.1851156 -0.04680574 0.029098418
0.07295486 -0.02156789 -0.15562922 0.072656214 0.10689979 0.028095787 -0.107572906 0.12737776
0.156018 0.14407639 0.095077135 0.103545755 -0.1343302 -0.114555605 -0.14679046 0.16110224
