models/model_uniform_region_0-0.3.0.6-0.9_multiple_Agents546e0d09.pth (torch, 87266 bytes, 18 tensors)

Network_stack.0.0.gru.weight_ih_l0 f4 [96, 2]
0	0x3dc95bcb	0.09831961
1	0x3dcabe38	0.098995626
2	0xbdeeae0c	-0.116542906
3	0x3d2c82f6	0.04211708
4	0x3ddbcc0b	0.107322775
5	0x3e029b0e	0.12754461
6	0x3e0a11c1	0.13483335
7	0x3c8a8c7a	0.016912688
8	0xbe01d562	-0.12679055
9	0xbe2a7311	-0.16645457
10	0x3e05c92b	0.1306502
11	0x3e2d7322	0.16938451
12	0xbdcd35d5	-0.10020033
13	0x3e227cae	0.15867874
14	0x3dec504a	0.115387514
15	0x3d8db143	0.069185756
16	0x38fc2634	0.00012023412
17	0xbdc797c5	-0.097457446
18	0xbe025645	-0.12728222
19	0xbdf76b02	-0.12080957
20	0x3e26402e	0.1623542
21	0xbe4ce259	-0.2000822
22	0xbda0e57f	-0.07856273
23	0x3e0925bd	0.13393302
24	0xbe458cff	-0.19292067
25	0xbd01ab44	-0.031657472
26	0x3e016ae1	0.12638427
27	0xbe41a72b	-0.18911426
28	0x3e146d39	0.1449479
29	0x3ca990c6	0.020698916
30	0x3e0d8ed6	0.13824019
31	0xbd5924cf	-0.05301362
32	0x3dd49d58	0.103815734
33	0x3da235ce	0.07920419
34	0xbc92c44e	-0.017915871
35	0xbdc4b0e8	-0.09604055
36	0xbef16069	-0.47143868
37	0x3e9ec3a6	0.31008643
38	0x3e1debc5	0.1542197
39	0x3aeb61d6	0.0017958235
40	0xbd4b7195	-0.049668867
41	0x3e287bd5	0.16453488
42	0x3e261cd7	0.16221939
43	0xbc596a9d	-0.0132700475
44	0xbd9fab93	-0.07796397
45	0xbdb43a41	-0.088001736
46	0xbe268f06	-0.16265497
47	0x3d69fc19	0.057125185
48	0x3d3f75ce	0.046743207
49	0xbe29bb08	-0.16575253
50	0x3c9eee24	0.019400664
51	0x3e2466a3	0.16054778
52	0x3da6a2c1	0.081365116
53	0xbd1f3c74	-0.038876012
54	0x3c306e95	0.010768552
55	0x3d8d3737	0.06895297
56	0x3e244f58	0.16045892
57	0xbe303a32	-0.172097
58	0xbd33a7b0	-0.04386109
59	0x3d2328aa	0.039833702
60	0x3e227da3	0.15868239
61	0xbd8596fe	-0.0652294
62	0x3da06fb5	0.078338064
63	0x3d5ec637	0.05438825
64	0xbe91c23e	-0.28468508
65	0x3dfae394	0.12250438
66	0xbc470f2f	-0.012149616
67	0xbea5728d	-0.32313958
68	0xbea81930	-0.32831717
69	0x3cf68227	0.030091358
70	0xbec662b7	-0.38747188
71	0xbd28d44b	-0.041218083
72	0xbf0972c8	-0.5369077
73	0xbf2ee7f8	-0.68322706
74	0x3dcf986a	0.101364926
75	0xbc84d8bb	-0.016216626
76	0xbdd3cc17	-0.103416614
77	0x3ea9187c	0.33026493
78	0xbe81a774	-0.2532307
79	0xbdc86c7b	-0.09786316
80	0x3c4d4b11	0.012530104
81	0x3e4985d0	0.19679952
82	0x3ec7dc6b	0.39035353
83	0xbd8f5234	-0.06998101
84	0xbd388462	-0.045048125
85	0xbc9f6f9f	-0.019462405
86	0xbe547d46	-0.20750913
87	0x3e2aeab0	0.16691089
88	0x3d824133	0.06360092
89	0x3e1c863f	0.15285586
90	0xbe1c16c6	-0.15243062
91	0x3da7e5f0	0.08198154
92	0xbeb44783	-0.3521081
93	0xbbd2f745	-0.006438168
94	0xbd36575c	-0.044516906
95	0xbe90ef64	-0.2830764
96	0xbca48f99	-0.020088004
97	0xbdc2536a	-0.09488566
98	0x3e1cc4f4	0.15309507
99	0x3c2b94dc	0.010472503
100	0xbf44c4c5	-0.76862746
101	0xbf90f1c7	-1.1323785
102	0x3e0e6b83	0.139082
103	0xbd9aa74b	-0.0755144
104	0xbed54aa6	-0.41658515
105	0xbee1d40a	-0.44107085
106	0xbd481799	-0.04885063
107	0xbd09822e	-0.033571415
108	0x3e3d9f1f	0.18517731
109	0x3e9fb7bc	0.31194866
110	0xbc06de6c	-0.00823174
111	0xbc4c847f	-0.012482761
112	0x3d37f2e9	0.04490939
113	0xbd1f59e1	-0.038904075
114	0x3d8d6f12	0.069059506
115	0x3e867a1c	0.26265037
116	0x3bfdfba7	0.0077509466
117	0xbe6301ec	-0.22168702
118	0x3d09d665	0.03365173
119	0x3d27a53f	0.040929075
120	0xbc668f10	-0.014072195
121	0xbe19e88e	-0.15030119
122	0xbf184409	-0.59478813
123	0xbee0e264	-0.43922722
124	0x3d2226aa	0.039587654
125	0x3cf89891	0.030346187
126	0xbf41ce90	-0.75705814
127	0xbd3a9f3e	-0.04556202
128	0xbc2f3f6b	-0.010696272
129	0xbd83c08e	-0.06433211
130	0x3dcd7a49	0.1003309
131	0xbcfc2c3e	-0.030782815
132	0xbe0f8e41	-0.1401911
133	0xba2cbd9a	-0.0006589532
134	0x3d88af24	0.066740304
135	0xbdc74160	-0.09729266
136	0xbe2be385	-0.1678601
137	0xbdb37466	-0.087624356
138	0xbda34a6b	-0.079731785
139	0x3d14b449	0.036304746
140	0x3db8b047	0.09017997
141	0xbd833c24	-0.06407955
142	0x3e0e4142	0.13892081
143	0xbdfd7364	-0.12375525
144	0xbca38569	-0.019961076
145	0x3d863cf2	0.06554593
146	0xbc1a7575	-0.009427418
147	0xbd881f2c	-0.066465706
148	0xbd8a9f36	-0.06768648
149	0xbd24f4bd	-0.040272463
150	0x3d8b896f	0.06813323
151	0x3e3551e6	0.17707023
152	0x3dd19af5	0.10234634
153	0x3e361856	0.17782721
154	0xbd20b561	-0.039235476
155	0x3e01263d	0.12612243
156	0xbe18c65a	-0.14919415
157	0x3ce2be0e	0.027678516
158	0xbd6df4f6	-0.05809494
159	0x3d935726	0.071943566
160	0xbd35492d	-0.04425924
161	0x3db234ce	0.08701478
162	0x3e2456f9	0.16048802
163	0x3dd91007	0.1059876
164	0x3ebbf0a5	0.36707035
165	0x3ce4a3e7	0.027910186
166	0xbcc6f31f	-0.024285851
167	0x3dcf7160	0.101290464
168	0xbe2a9427	-0.16658078
169	0xbddb9405	-0.10721592
170	0xbe110b0a	-0.14164367
171	0xbb1daf9b	-0.0024060968
172	0xbd70ec61	-0.05881918
173	0x3c584b4f	0.013201549
174	0xbd58d665	-0.052938838
175	0x3d9e17a5	0.077193536
176	0x3d0cc3f0	0.034366548
177	0xbc312e74	-0.010814298
178	0x3e066b51	0.13126875
179	0x3dd55b7c	0.1041784
180	0x3de74381	0.11292172
181	0x3d2a4319	0.041567896
182	0xbd4b0c19	-0.049572084
183	0xbd3b7f52	-0.04577572
184	0x3da773f9	0.08176417
185	0x3e2d113a	0.16901103
186	0xbe12b31b	-0.14326136
187	0x3e520f73	0.20513706
188	0xbe397943	-0.18112664
189	0xbde827f5	-0.11335746
190	0xbd87a00d	-0.06622324
191	0x3e57d1ce	0.21076128

Network_stack.0.0.gru.weight_hh_l0 f4 [96, 32]
0	0xbce74f12	-0.028235946
1	0xbd8426fd	-0.06452749
2	0xbcf0a418	-0.029375121
3	0xbc99f653	-0.018794214
4	0xbc6db096	-0.014507433
5	0x3d8da698	0.06916541
6	0x3c7134eb	0.014722089
7	0xbcd5aa43	-0.026082164
8	0x3dc70904	0.097185165
9	0x3d17f686	0.037100337
10	0x3cf80709	0.030276792
11	0x3e17afd0	0.14813161
12	0x3e14be78	0.14525783
13	0xbd859dd5	-0.06524245
14	0xbdea4042	-0.114380375
15	0xbe05971c	-0.13045925
16	0x3dd5f4a8	0.10447055
17	0xbe132a6c	-0.14371651
18	0x3c9edd6c	0.019392692
19	0xbc6522e9	-0.013985374
20	0x3dce461b	0.10071965
21	0x3dda7e03	0.10668566
22	0xbd7b7373	-0.061389398
23	0xbdcd4bc7	-0.10024219
24	0x3befc23e	0.0073168566
25	0x3dbaf563	0.09128835
26	0xbe24543a	-0.16047755
27	0xbe2b6d52	-0.16740921
28	0xbe5a368f	-0.21309875
29	0xbe3212a2	-0.1738992
30	0xbd8c4115	-0.06848351
31	0xbe306f70	-0.1723001
32	0x3e395a07	0.18100749
33	0x3e0362b9	0.12830628
34	0xbc606114	-0.01369502
35	0x3d908913	0.07057395
36	0x3d298749	0.041388784
37	0xbe233b1f	-0.15940522
38	0xbca3c2ec	-0.019990407
39	0xbe09a467	-0.13441621
40	0x3de212fd	0.11038778
41	0xbe0dbf6c	-0.13842553
42	0xbdc221b0	-0.09479082
43	0x3d25300e	0.04032903
44	0x3986a528	0.00025681523
45	0xbd015957	-0.03157934
46	0x3e3c3aba	0.18381777
47	0xbde16527	-0.110056214
48	0xbd9e1358	-0.07718533
49	0xbd8e0561	-0.0693462
50	0x3cbf2a7d	0.02333569
51	0xbe0ea499	-0.13929977
52	0x3e117741	0.14205648
53	0xbdc0e475	-0.09418575
54	0xbe188d22	-0.14897588
55	0xbdac2122	-0.08404757
56	0x3d9cecff	0.07662391
57	0xbae0e383	-0.0017157648
58	0xbdf34dcc	-0.11880073
59	0x3e2c2158	0.16809595
60	0x3d91a5f6	0.07111733
61	0xbdb36e77	-0.08761304
62	0xbde505c1	-0.11182738
63	0xbdbd8c89	-0.092553206
64	0xbabe5357	-0.0014520687
65	0x3de2cfeb	0.110748135
66	0x3dcc1c1a	0.099662974
67	0x3d88ec5a	0.066857055
68	0xbc11074e	-0.008851839
69	0x3e151e3e	0.14562318
70	0xbc9e683b	-0.01933681
71	0x3da2934e	0.079382524
72	0x3d09e75e	0.033667915
73	0xbda6eb24	-0.08150318
74	0x3db19eb1	0.08672846
75	0x3e17c4ee	0.14821216
76	0xbc37355b	-0.0111821545
77	0x3d04e0e1	0.032441024
78	0xbd8186a6	-0.0632451
79	0x3d4dc859	0.050239895
80	0x3e44ae64	0.1920715
81	0xbd98afa0	-0.07455373
82	0xbdd07ffe	-0.101806626
83	0x3de14501	0.109994896
84	0xbe3317f6	-0.17489609
85	0xbdc281e3	-0.0949743
86	0xbcacff28	-0.021117762
87	0x3ba17e95	0.00492842
88	0xbc6dc89e	-0.014513163
89	0x3e34b7ef	0.1764829
90	0xbe2a1ec9	-0.16613306
91	0x3dd26648	0.10273415
92	0x3e4a9431	0.19783093
93	0x3cf69675	0.03010104
94	0x3da0b5a6	0.07847147
95	0xbcba0996	-0.022709649
96	0xbe179bb0	-0.14805484
97	0xbcad3697	-0.021144195
98	0x3dbf23a0	0.09332967
99	0xbdeb87e5	-0.11500529
100	0xbd8d40b3	-0.06897106
101	0xbdf53a88	-0.119740546
102	0x3e3dea8f	0.18546508
103	0x3da63089	0.08114726
104	0xbde6efa7	-0.11276179
105	0x3e031253	0.12799959
106	0x3e3ff076	0.18744072
107	0xbdaaac01	-0.083335884
108	0x3e03b660	0.1286254
109	0xbdb1adf8	-0.0867576
110	0xbd115a49	-0.035486493
111	0xbe13b17a	-0.1442317
112	0xbd8c4d51	-0.068506844
113	0x3dd3f26f	0.10348975
114	0x3deb943a	0.11502881
115	0x3d81818e	0.06323539
116	0x3e1715a7	0.14754353
117	0xbd368400	-0.04455948
118	0xbdd78981	-0.10524274
119	0x3da6fa97	0.08153265
120	0xbe20056d	-0.1562707
121	0x3c566c0c	0.013087284
122	0xbd59b5ad	-0.053151775
123	0x3e27a9bc	0.16373342
124	0xbdb42b84	-0.087973624
125	0x3da8d760	0.082442045
126	0xbd3709c7	-0.04468706
127	0xbda53880	-0.08067417
128	0xbdfa8dc1	-0.12234069
129	0xbe516b70	-0.2045114
130	0x3d8266a0	0.063672304
131	0x3d92f9c5	0.07176546
132	0x3e1a50b0	0.15069842
133	0x3e49567d	0.19661899
134	0x3cca34be	0.024683353
135	0x3de53031	0.111908324
136	0xbde6fe96	-0.11279027
137	0xbd7349be	-0.059396498
138	0xbd39a59e	-0.04532396
139	0xbe43ec06	-0.19133005
140	0xbccb97b2	-0.024852607
141	0x3e1e290a	0.15445343
142	0x3d923d63	0.07140615
143	0x3d071087	0.032974746
144	0xbc422855	-0.011850436
145	0xbe37ada2	-0.1793733
146	0xbeeb2b37	-0.45931408
147	0xbc12ac7a	-0.008952254
148	0x3d028df5	0.031873662
149	0xbc0d912f	-0.0086405715
150	0x3df06d75	0.11739627
151	0x3e3ae0f9	0.18249883
152	0x3d60db97	0.054896917
153	0x3cc37715	0.023860494
154	0xbe18ecf0	-0.14934134
155	0x3d946ff4	0.07247916
156	0xbe3409c6	-0.17581853
157	0x3e72f848	0.23727524
158	0x3d69bc74	0.05706449
159	0x3d69a486	0.057041667
160	0xbe1dbc66	-0.154039
161	0x3e1c7699	0.15279616
162	0xbe06422a	-0.13111177
163	0xbdc36c51	-0.09542144
164	0xbe17301d	-0.14764448
165	0x3bd1a1ab	0.006397446
166	0xbe24af97	-0.16082607
167	0x3dfe8d71	0.124293216
168	0x3d7bb6fe	0.06145381
169	0xbe0646af	-0.13112901
170	0xbdd01749	-0.10160691
171	0xbd8ff51a	-0.07029171
172	0xbe1213cc	-0.14265364
173	0x3e6e1ff9	0.23254384
174	0xbe164874	-0.14676076
175	0xbdd15515	-0.10221306
176	0x3e51199d	0.20419927
177	0xbc9e81dd	-0.019349033
178	0x3e0243df	0.12721203
179	0x3cbd900c	0.023139976
180	0x3d83eaa6	0.0644124
181	0x3d2fcccf	0.04291993
182	0x3d56c407	0.05243304
183	0xbe0b3c3f	-0.13597201
184	0x3bc411dc	0.0059835743
185	0x3dea079a	0.11427231
186	0x3d91d74c	0.07121143
187	0xbd875251	-0.066074975
188	0xbceab199	-0.028649138
189	0x3e29c72c	0.16579884
190	0xbdeea543	-0.11652615
191	0xbe06de3a	-0.1317071
192	0xbe485bed	-0.19566317
193	0xbd767e1b	-0.060178857
194	0xbe38a4e0	-0.18031645
195	0x3e3171ef	0.17328618
196	0x3e91ba10	0.28462267
197	0xbc6e32f9	-0.01453852
198	0x3d934988	0.07191759
199	0xbdb10621	-0.08643747
200	0x3c904e86	0.017615568
201	0xbaef17b6	-0.0018241319
202	0x3d8263c9	0.06366689
203	0x3ca3f0c1	0.020012261
204	0xbe1761ee	-0.14783451
205	0x3d0a9f65	0.033843417
206	0x3dbf2f95	0.093352474
207	0x3dc8d539	0.09806294
208	0x3e9bed4d	0.30454484
209	0x3dc2be77	0.095089845
210	0xbecb23f2	-0.39675862
211	0x3dbcda04	0.09221271
212	0x3e9327d8	0.28741336
213	0x3dce9a8d	0.10088072
214	0xbe436c8f	-0.1908438
215	0xbe1e7acd	-0.15476532
216	0x3d1f1b70	0.038844526
217	0x3d8394b5	0.06424848
218	0xbe7f5e8c	-0.2493841
219	0xbea4abe2	-0.32162386
220	0xbdfb54a7	-0.122720055
221	0x3decd069	0.115631886
222	0x3c0f8789	0.008760341
223	0xbd6a62ba	-0.05722306
224	0xbe3dc19c	-0.18530887
225	0x3c3e59fd	0.011618135
226	0xbe1bdb3d	-0.15220352
227	0xbdc3ac3e	-0.09554337
228	0xbdddb9d4	-0.108264595
229	0xbc1b15c9	-0.009465643
230	0xbda94e71	-0.08266915
231	0xbd0082d2	-0.03137476
232	0xbc6736e5	-0.014112209
233	0xbe1f31f6	-0.15546402
234	0x3e17023a	0.14746943
235	0x3c95d911	0.018291982
236	0xbe0221ca	-0.12708202
237	0xbd1ccf33	-0.038283538
238	0x3de06ef5	0.109586634
239	0x3c2cc950	0.0105460435
240	0xbe06b404	-0.13154608
241	0x3e0faf86	0.140318
242	0xbdc1d3b0	-0.09464204
243	0x3e3ecd0f	0.18632911
244	0x3dd21ed2	0.10259785
245	0xb966e801	-0.00022020937
246	0xbd761630	-0.060079753
247	0xbde80859	-0.11329717
248	0x3d5976d3	0.053091835
249	0x3dd9cd2e	0.10634838
250	0xbdfb4eef	-0.12270915
251	0x3da8c9b8	0.082416
252	0xbe099cbd	-0.13438697
253	0xbcf11d8f	-0.02943304
254	0x3d991b52	0.07475914
255	0xbe4daccd	-0.2008545

Network_stack.0.0.gru.bias_ih_l0 f4 [96]
0	0x3cbb2543	0.022844916
1	0xbd5c773c	-0.05382465
2	0x3e0f5147	0.13995849
3	0x3da0acf5	0.07845489
4	0xbe153490	-0.14570832
5	0x3cbb3866	0.022854041
6	0xbcb0d4f0	-0.021585912
7	0xbc3b5f86	-0.011436349
8	0xbd59d5f2	-0.05318255
9	0xbb90f937	-0.00442424
10	0x3dbebf89	0.09313876
11	0x3e491fe7	0.19641076
12	0xbdf6e020	-0.12054467
13	0xbe140262	-0.14454034
14	0x3e2c060b	0.1679918
15	0xbd7cc3b1	-0.061710063
16	0xbd9367d0	-0.07197535
17	0x3d305c9c	0.04305707
18	0x3d9f7869	0.07786638
19	0x3e24084b	0.16018789
20	0xbde37401	-0.1110611
21	0x3d653723	0.055960786
22	0xbe3827bc	-0.17983907
23	0xbd6cadae	-0.05778282
24	0x3d25dee5	0.040495772
25	0xbdc452e2	-0.09586121
26	0x3e0d5fbf	0.13806055
27	0xbd1360c7	-0.035980966
28	0x3dd3a573	0.10334291
29	0x3df92b65	0.1216648
30	0x3d9cbc6b	0.076531254
31	0x3cc0a78d	0.023517394
32	0x3d504537	0.05084726
33	0xbd3995ee	-0.045309
34	0xbe2d3a3e	-0.16916749
35	0xbe3532b5	-0.17695124
36	0xbf817aaa	-1.0115559
37	0x3de690fb	0.112581216
38	0x3d1fa27b	0.038973313
39	0xbd7f4e90	-0.062330782
40	0x3e802141	0.2502537
41	0xbd75f6e8	-0.06004992
42	0xbe531f20	-0.20617342
43	0x3cf5e9ac	0.03001865
44	0xbe12644b	-0.14296071
45	0xbdca4b0f	-0.098775975
46	0x3d98fc1e	0.074699625
47	0xbda47536	-0.08030169
48	0x3e380e34	0.17974168
49	0x3af772fd	0.0018878874
50	0xbf2f6c72	-0.6852485
51	0xbd94f71b	-0.07273694
52	0xbed700ec	-0.4199289
53	0x3d2fccab	0.042919796
54	0x3e9b707a	0.3035925
55	0xbde2c6cd	-0.110730745
56	0xbdf64657	-0.12025135
57	0xbb73e063	-0.0037212602
58	0xbe66caf2	-0.22538355
59	0xbdc86765	-0.09785346
60	0xbd0df112	-0.03465373
61	0xbe1e0ff2	-0.1543577
62	0x3d0e5287	0.034746673
63	0xbeb4ef02	-0.35338598
64	0x3d6b41f4	0.057435945
65	0xbc0b901d	-0.008518246
66	0xbbe6d521	-0.00704445
67	0xbcb6c836	-0.022312265
68	0x3de6da5a	0.11272116
69	0xbc33f56e	-0.010983808
70	0xbdb900a7	-0.090333275
71	0x3e22e31b	0.15906946
72	0x3da015b4	0.078166395
73	0xbe0cd24e	-0.137521
74	0xbdb55452	-0.088539734
75	0x3ca7175c	0.02039688
76	0xbcb40f0f	-0.021979837
77	0xbd919550	-0.07108557
78	0xbde53323	-0.11191394
79	0x3da46ad6	0.0802819
80	0xbe1b114d	-0.15143318
81	0x3e2aa601	0.16664888
82	0xbe5573de	-0.20844981
83	0xbc062656	-0.008187851
84	0x3d9e5d72	0.07732667
85	0x3dbf8f6b	0.09353527
86	0x3c9a2ea2	0.018821064
87	0xbdefb3d2	-0.1170422
88	0x3e0a0544	0.13478571
89	0x3df57912	0.11985983
90	0xbd90827d	-0.07056139
91	0xbe0da6c1	-0.13833143
92	0xbd817482	-0.0632105
93	0xbdf93c38	-0.12169689
94	0x3d08c975	0.03339525
95	0xbcda2f02	-0.026633743

Network_stack.0.0.gru.bias_hh_l0 f4 [96]
0	0x3d8729d7	0.06599777
1	0x3e041e6b	0.12902229
2	0x3e4e8a79	0.2017001
3	0x3e07f6d8	0.13277757
4	0xbe08fb59	-0.13377132
5	0xbd125737	-0.035727706
6	0x3e24bf1a	0.16088524
7	0x3e101477	0.14070307
8	0xbdf30672	-0.11866464
9	0xbcdcf86a	-0.026973922
10	0xbdf34919	-0.11879177
11	0x3cfcfcff	0.030882357
12	0xbda0744c	-0.07834682
13	0xbd68cd99	-0.0568367
14	0x3b0d033f	0.0021516827
15	0x3de8ddae	0.11370407
16	0x3e017ed4	0.12646037
17	0xbc3a63c7	-0.011376328
18	0x3dd1e5c7	0.10248905
19	0x3d541e86	0.051786922
20	0x38e8e9a1	0.00011106139
21	0x3e28bcc0	0.16478252
22	0xbe0885b4	-0.13332254
23	0x3bb3ab53	0.00548307
24	0xbe5f54b1	-0.21809651
25	0xbd638bd1	-0.05555326
26	0x3c9ad464	0.018900104
27	0x3b33da97	0.0027443522
28	0xbdff7284	-0.12473014
29	0x3c18202b	0.009285013
30	0x3dff3e81	0.124630935
31	0xbe1909dc	-0.14945167
32	0x3d672a54	0.05643685
33	0xbe3d2c07	-0.18473826
34	0xbe8f0a10	-0.27937365
35	0xbe25beb9	-0.16186036
36	0xbf71e8f1	-0.94496065
37	0x3d9d898b	0.0769225
38	0x3d15799d	0.036492933
39	0xbe096a7f	-0.13419531
40	0x3e02f109	0.1278726
41	0xbce7d2ca	-0.028298754
42	0xbe5aa1ca	-0.2135078
43	0x3e54b96c	0.20773858
44	0xbb278cad	-0.0025566027
45	0xbb0b90f7	-0.0021296123
46	0xbd17809f	-0.036987897
47	0xbe280f5c	-0.16412109
48	0x3e6ca15a	0.23108426
49	0xbd8f8ce3	-0.07009294
50	0xbf684ced	-0.9074238
51	0x3d0b252a	0.03397099
52	0xbe9e33d6	-0.30898923
53	0xbe11f6a0	-0.14254236
54	0x3e06ab07	0.13151179
55	0x3d8d7c4d	0.06908474
56	0x3dbf8a7f	0.09352588
57	0x3d37308c	0.044724032
58	0x3c953d1a	0.018217612
59	0xbcd7943b	-0.026315799
60	0x3e46ea28	0.19425261
61	0xbd276d48	-0.040875703
62	0x3d06f8f7	0.032952275
63	0xbed6a193	-0.41920146
64	0xbd0fbf48	-0.03509453
65	0xbdc93d28	-0.09826118
66	0x3e1b30ae	0.15155289
67	0x3d88817d	0.06665323
68	0x3d785db0	0.060636222
69	0xbbef9ea3	-0.007312612
70	0x3dd9ed09	0.10640914
71	0x3b9c2ffe	0.0047664633
72	0xbdfdd55a	-0.12394209
73	0x3d6a9e04	0.0572796
74	0xbd56fdc1	-0.052488092
75	0xbbab3e5f	-0.005225941
76	0xbe078efd	-0.1323814
77	0x3cb2aa6a	0.021809775
78	0x3e1b0c63	0.15141444
79	0xbdafa370	-0.08576095
80	0x3dafa382	0.085761085
81	0xbe335455	-0.17512639
82	0xbe3a1f9b	-0.18176119
83	0x3e126aa9	0.142985
84	0x3de53fd6	0.11193816
85	0xbe14cb95	-0.14530785
86	0xbd3299b8	-0.04360363
87	0x3ccf900f	0.025337247
88	0xbcb9a930	-0.022663683
89	0x3decd1fc	0.11563489
90	0xbdcdc49f	-0.10047268
91	0x3e0298c2	0.12753585
92	0xbe33f6ee	-0.17574665
93	0x3e198f21	0.14996006
94	0xbde8bb1e	-0.11363815
95	0xbdb35523	-0.08756473

Network_stack.0.0.gru.weight_ih_l1 f4 [96, 32]
0	0x3e0309af	0.12796663
1	0x3df320bb	0.11871477
2	0x3cb85eb7	0.022506101
3	0x3d299458	0.041401237
4	0x3e1a72be	0.15082833
5	0x3dc63c3f	0.0967946
6	0xbd93ddd1	-0.072200425
7	0x3e1af930	0.1513412
8	0xbe271b09	-0.16318907
9	0xbe1ae290	-0.15125489
10	0xbe07c7ce	-0.13259813
11	0x3d93d458	0.07218236
12	0xbe0c23c6	-0.13685521
13	0xbdd22288	-0.102604926
14	0xbd0f24b3	-0.03494711
15	0x3dd1c667	0.1024292
16	0xbd293193	-0.041307043
17	0xbd8d299d	-0.06892703
18	0xbe9a85fd	-0.3018035
19	0xbe0335a0	-0.12813425
20	0xbc5debc9	-0.013544985
21	0x3e21cbc5	0.15800388
22	0xbccd2522	-0.02504212
23	0x3e3f9038	0.18707359
24	0xbd84c2b5	-0.0648245
25	0xbdb4499f	-0.088031046
26	0x3e27a630	0.16371989
27	0x3e0733b2	0.13203314
28	0x3e036294	0.12830573
29	0x3e0b50da	0.13605061
30	0xbdbe7132	-0.09298934
31	0xbcecf1bb	-0.02892386
32	0x3e164f26	0.1467863
33	0x3cb182a5	0.021668741
34	0xba76359a	-0.00093921425
35	0xbd3465ef	-0.044042524
36	0x3e329135	0.17438205
37	0xbc0c0ef0	-0.008548483
38	0x3d9d3135	0.07675401
39	0xbcacb930	-0.021084398
40	0xbdd75e00	-0.10515976
41	0xbe29fe49	-0.16600908
42	0x3dc02478	0.09381956
43	0x3de4bbf0	0.11168659
44	0xbdb1c7e4	-0.08680704
45	0x3dc50ce4	0.09621599
46	0x3cb12ea7	0.02162869
47	0xbe3b7c2b	-0.18309085
48	0x3e72fe0b	0.23729722
49	0x3e01fb95	0.12693627
50	0xbdfcc8c9	-0.12342984
51	0xbe1d2139	-0.15344705
52	0x3e195ab9	0.14976014
53	0x3e29d39e	0.16584632
54	0xbd4966ab	-0.049170177
55	0xbe208b0e	-0.15678045
56	0xbd360bcd	-0.044444848
57	0xbdc9ee3f	-0.09859895
58	0xbde6a47d	-0.112618424
59	0xbd1b470b	-0.03790955
60	0xbe3b15ad	-0.18269987
61	0x3dc20c40	0.09474993
62	0x3e19f9b1	0.15036656
63	0x3d828d8a	0.06374653
64	0xbe3b2cdb	-0.1827883
65	0xbe4924e3	-0.19642977
66	0x3e52b096	0.20575175
67	0x3de88b6c	0.113547176
68	0x3ec69e0c	0.38792455
69	0xbe0722ea	-0.13196912
70	0x3d369b98	0.04458198
71	0x3dd1927f	0.1023302
72	0x3e7015ad	0.23445769
73	0xbe1b783c	-0.15182585
74	0x3bc55169	0.0060216677
75	0x3e6d53db	0.2317652
76	0xbe90e05e	-0.2829618
77	0x3da692a6	0.0813344
78	0x3db7e79f	0.08979725
79	0x3f011c0b	0.50433415
80	0x3e341be7	0.17588769
81	0x3de22588	0.11042315
82	0xbe719084	-0.23590285
83	0x3da49749	0.08036668
84	0x3e81fe92	0.25389534
85	0x3c5b7237	0.01339393
86	0x3dab366b	0.08359989
87	0xbe14606b	-0.14489906
88	0x3e535864	0.20639187
89	0x3e415809	0.18881239
90	0xbc509387	-0.012730486
91	0x3b753020	0.0037412718
92	0xbe5caa36	-0.21549305
93	0x3ebb5433	0.36587676
94	0xbce166c3	-0.02751482
95	0x3d94d88b	0.07267865
96	0xbde1bd8f	-0.110224836
97	0xbd47e976	-0.04880663
98	0x3da8123c	0.08206603
99	0xbcd52233	-0.026017284
100	0x3da62bd2	0.08113827
101	0x3de53ee4	0.11193636
102	0x3cdca3d6	0.026933592
103	0xbe229c2f	-0.15879892
104	0xbddea1a9	-0.10870678
105	0xbcdf5863	-0.027263826
106	0x3d79b033	0.060959052
107	0xbdfc3dcb	-0.123164736
108	0x3d9b2104	0.075746566
109	0xbdff8a4c	-0.1247755
110	0xbbd876c6	-0.006605956
111	0xbd1a50db	-0.037674766
112	0x3c346946	0.011011427
113	0xbdfe4f69	-0.1241749
114	0x3ccf71e3	0.02532286
115	0xbdbb8ad3	-0.09157338
116	0x3d44356e	0.047902517
117	0x3dfb8cc4	0.12282708
118	0x3db3fec9	0.08788831
119	0x3ddfa2be	0.109197125
120	0x3c413fb3	0.011794972
121	0x3d38d754	0.045127228
122	0xbd728b2b	-0.059214752
123	0xbcacc4a0	-0.021089852
124	0xbd2111b2	-0.039323516
125	0xbc39282a	-0.01130108
126	0xbd608f50	-0.054824173
127	0xbc0956cd	-0.008382511
128	0xbc201a6b	-0.009771924
129	0xbb79def8	-0.0038127284
130	0xbcf67e6f	-0.030089585
131	0xbd5a25ec	-0.05325882
132	0x3d0525c9	0.032506738
133	0x3e1661a9	0.14685692
134	0x3d97e8c8	0.074174464
135	0x3d063fc1	0.032775644
136	0x3d225b21	0.03963769
137	0xbd5410e9	-0.05177394
138	0xbe2001fc	-0.15625757
139	0x3e1dd192	0.15411976
140	0x3cc1f80e	0.023677852
141	0xbdffb12f	-0.12484967
142	0xbd48a6e4	-0.048987284
143	0xbd9d5c35	-0.07683603
144	0x3d1ee60b	0.038793605
145	0xbdfc0ceb	-0.123071514
146	0x3e81fdc1	0.2538891
147	0x3d497624	0.049184933
148	0xbe3500a9	-0.17676033
149	0xbdc72d73	-0.097254656
150	0x3b02015a	0.0019837231
151	0xbc0d8920	-0.00863865
152	0x3dc0b450	0.09409392
153	0x3dfbe1d7	0.12298935
154	0x3e108c65	0.14116056
155	0xbdaa6b2a	-0.08321221
156	0x3d9bc943	0.07606747
157	0x3aee3535	0.0018173816
158	0xbe3b848a	-0.18312278
159	0xbe0c1689	-0.13680471
160	0xbde6eaa6	-0.112752244
161	0xbe2d47ea	-0.16921964
162	0xbdc012a7	-0.09378558
163	0xbd2430a9	-0.04008547
164	0xbe2c2f62	-0.1681495
165	0xbe0c0b80	-0.13676262
166	0xbd166620	-0.036718488
167	0x3d2ff984	0.042962566
168	0x3dc35ef1	0.09539593
169	0x3dbb9331	0.09158934
170	0x3dcc08a6	0.09962587
171	0xbdbaa97e	-0.09114359
172	0x3d2cc767	0.042182352
173	0x3eab5b2f	0.33468005
174	0xbdc48079	-0.09594817
175	0x3e57966b	0.21053474
176	0x3e109cb1	0.14122273
177	0xbdee37d1	-0.1163174
178	0xbde35f77	-0.11102193
179	0x3da2c352	0.07947411
180	0x3cd576be	0.026057597
181	0xbd1d13bf	-0.03834891
182	0xbe3cd0d0	-0.1843903
183	0x3cd6c172	0.026215289
184	0x3e5777d6	0.21041808
185	0xbdf2a781	-0.11848355
186	0xbd8f8e77	-0.07009595
187	0xbded9ce8	-0.11602193
188	0xbe24223e	-0.16028687
189	0x3e27cea7	0.16387425
190	0xbdbbd29b	-0.09171029
191	0x3e0684a6	0.13136539
192	0xbd3aefb1	-0.045638744
193	0x3d734dee	0.05940049
194	0x3dd75bab	0.10515531
195	0x3d5f1b8f	0.05446964
196	0x3bd81048	0.0065937378
197	0x3e529c55	0.20567448
198	0x3e10cae0	0.1413989
199	0x3db933ad	0.090430595
200	0xbe11d7cf	-0.1424248
201	0x3e39fa69	0.1816193
202	0x3d73a359	0.059481952
203	0x3dbc2f80	0.091887474
204	0xbe229b43	-0.1587954
205	0x3dba7405	0.0910416
206	0x3df08c05	0.117454566
207	0xbdda8de0	-0.10671592
208	0xbdab92c1	-0.083776005
209	0x3dce28fa	0.100664094
210	0x3d9c10e0	0.07620406
211	0xbda89b92	-0.08232798
212	0xbd8b5968	-0.06804162
213	0xbe134796	-0.14382777
214	0x3e4fcc96	0.20292887
215	0xbe0e6dd3	-0.13909082
216	0xbc1b511f	-0.00947979
217	0xbe01292f	-0.12613367
218	0x3dd3d06e	0.10342489
219	0x3da7f87a	0.0820169
220	0x3e089c41	0.13340856
221	0x3e0e8ff6	0.13922104
222	0xbdec8249	-0.115482874
223	0x3dded233	0.10879936
224	0x3dc0a215	0.09405915
225	0x3e0f81b5	0.14014323
226	0x3bde5d09	0.006785993
227	0xbca062a1	-0.01957828
228	0x3d365a5e	0.044519775
229	0x3db9825c	0.09058067
230	0x3ce02092	0.02735928
231	0xbd68c75c	-0.05683075
232	0x3da28104	0.07934764
233	0xbdc552d5	-0.096349396
234	0x3e0a20b3	0.13489036
235	0x3e296028	0.16540587
236	0xbdf821cc	-0.12115821
237	0x3daf905c	0.08572456
238	0xbe4e17a0	-0.201262
239	0xbdcc3cd7	-0.09972542
240	0x3e2832bd	0.16425605
241	0x3db2ae22	0.087246194
242	0x3e97f3e5	0.29678264
243	0xbddf0b86	-0.1089087
244	0xbb3e2c3c	-0.0029018065
245	0xbba0dc14	-0.004909048
246	0xbe1edd71	-0.1551416
247	0xbe246db9	-0.16057481
248	0xbd830fba	-0.06399484
249	0x3d6cbb32	0.05779571
250	0xbc9922b7	-0.018693311
251	0x3e070694	0.13186103
252	0xbda7299b	-0.081622325
253	0x3da9f97c	0.082995385
254	0xbdbaba34	-0.09117547
255	0xbe0bb97e	-0.13644978

Network_stack.0.0.gru.weight_hh_l1 f4 [96, 32]
0	0xbcf25225	-0.029580185
1	0x3e2e263a	0.1700677
2	0x3d6338bb	0.055474024
3	0xbe372f41	-0.1788912
4	0x3cffe613	0.031237638
5	0x3d434bd1	0.047679726
6	0x3c683e4f	0.014175012
7	0x3da7df25	0.08196858
8	0x3d1ac8da	0.037789203
9	0xbdff6b6e	-0.124716625
10	0x3ca3a91a	0.019978095
11	0x3e31a435	0.17347796
12	0x3dbf7983	0.093493484
13	0xbdfb12db	-0.12259456
14	0x3df69a8a	0.12041195
15	0x3cf5e845	0.030017981
16	0x3de29920	0.110643625
17	0xbd9071d2	-0.070529595
18	0xbd48a0f4	-0.04898162
19	0xbc1f272a	-0.009713927
20	0xbd312af2	-0.043253846
21	0x3e1976f4	0.14986783
22	0x3dc74f73	0.097319506
23	0x3cb1987c	0.021679156
24	0x3db8d695	0.09025303
25	0x3cab7a9e	0.020932492
26	0xbcac71ad	-0.021050299
27	0xbdaf45b7	-0.08558219
28	0xbdc44cea	-0.09584983
29	0xbd196123	-0.037446152
30	0xbdc32881	-0.0952921
31	0x3e31146c	0.17292947
32	0xbbe91a2a	-0.0071137147
33	0xbc2b8822	-0.010469468
34	0xbc4b1204	-0.012394432
35	0xbe1c4b53	-0.15263109
36	0x3d232706	0.039832138
37	0xbe2abf24	-0.16674477
38	0xbe125379	-0.14289655
39	0xbccee7ce	-0.025257017
40	0xbcbc838b	-0.023011943
41	0xbda0e3ba	-0.078559354
42	0x3db95b54	0.090506226
43	0x3d6b2b01	0.05741406
44	0x3aff6030	0.0019483622
45	0xbdc093ef	-0.09403216
46	0xbde105ec	-0.10987458
47	0x3e9cb27d	0.30604926
48	0xbd9dc254	-0.07703081
49	0xbe4beae8	-0.19913828
50	0xbd33986a	-0.043846525
51	0x3e43e510	0.19130349
52	0xbd4d58fe	-0.050133698
53	0xbe208831	-0.15676953
54	0x3dda276b	0.1065205
55	0x3daa2333	0.08307495
56	0x3e785801	0.24252321
57	0xbcaad76e	-0.020854678
58	0xbd192ae7	-0.03739443
59	0xbd47f3ba	-0.04881642
60	0x3da5e0f3	0.08099546
61	0xbc83ab19	-0.016072797
62	0xbbbe3f57	-0.0058058905
63	0xbd827a61	-0.06370998
64	0x3ed99217	0.4249427
65	0x3e1ef04c	0.15521353
66	0x3e4055a2	0.18782666
67	0x3d57d553	0.052693676
68	0x3ddd8033	0.10815468
69	0x3d8066b1	0.06269587
70	0xbe944bb3	-0.28964004
71	0x3e013bbd	0.12620445
72	0x3e19411d	0.14966245
73	0xbdeb1fe7	-0.11480694
74	0xbe3b7b7c	-0.18308824
75	0xbecfd8ab	-0.40594992
76	0xbe73b5b0	-0.23799777
77	0x3e610249	0.21973528
78	0xbe641207	-0.22272502
79	0xbec4005d	-0.38281527
80	0x3d9dbd01	0.07702065
81	0x3d4a7c8a	0.049435176
82	0xbc8076c3	-0.01568163
83	0xbf134e71	-0.5754157
84	0x3e023afd	0.12717815
85	0xbe78661d	-0.24257703
86	0xbbfed2e0	-0.007776603
87	0x3e08f55c	0.13374847
88	0x3ea36fd2	0.3192125
89	0x3e5c0062	0.21484521
90	0xbd068da7	-0.032849934
91	0xbdf6ad49	-0.1204477
92	0x3ec4cf66	0.38439482
93	0xbdee09a0	-0.116229296
94	0xbed51d76	-0.4162404
95	0xbcfc40d6	-0.030792635
96	0x3de10910	0.10988057
97	0xbd8ce41f	-0.06879448
98	0x3d93cf71	0.07217301
99	0xbcb18843	-0.02167142
100	0xbd847df2	-0.06469335
101	0x3e0f489a	0.13992539
102	0xbe038d99	-0.12846984
103	0xbe035f02	-0.12829211
104	0xbd6e8f90	-0.05824238
105	0x3d207605	0.039175052
106	0x3e3593d3	0.17732172
107	0xbdcc5a16	-0.0997812
108	0xbd461f69	-0.0483698
109	0x3bde772a	0.006789108
110	0x3d90b0d9	0.07064981
111	0x3dc6dd7f	0.09710216
112	0xbbcc884c	-0.006241834
113	0x3da86179	0.082217164
114	0x3afe92e3	0.0019422438
115	0xbe0528f4	-0.13003904
116	0xbdd12ebc	-0.10213992
117	0xbdfb1e4a	-0.122616366
118	0x3dee6e92	0.11642183
119	0x3de1741c	0.11008474
120	0x3e352af0	0.1769216
121	0x3d937829	0.07200653
122	0xbdfc403b	-0.123169385
123	0x3d16a38f	0.036777075
124	0x3d19fb2b	0.037593048
125	0x3e32e320	0.17469454
126	0xbe191c9b	-0.14952318
127	0xbdbda348	-0.09259659
128	0xbde27e1e	-0.11059211
129	0xbdb0d58a	-0.08634479
130	0x3dc9884e	0.09840451
131	0x3e046ef4	0.1293295
132	0xbe266f79	-0.16253461
133	0xbe47bfa8	-0.19506705
134	0xbe0a5eb4	-0.13512689
135	0x3d9d0def	0.07668673
136	0xbdf9b03e	-0.12191819
137	0xbe30d45e	-0.17268512
138	0xbe2fe016	-0.17175326
139	0x3d49b8f5	0.049248654
140	0xbe387439	-0.18013085
141	0xbdb17292	-0.08664431
142	0x3d10502a	0.0352327
143	0xbde5d83d	-0.11222885
144	0x3e1da22f	0.153939
145	0x3d4deb44	0.050273195
146	0xbd5511ac	-0.052018806
147	0x3ea6285f	0.32452676
148	0xbc563665	-0.013074492
149	0xbe221489	-0.15828146
150	0xbdbe8094	-0.09301868
151	0x3dd73495	0.10508076
152	0xbd5709eb	-0.052499693
153	0x3dde1d60	0.108454466
154	0x3b527be3	0.00321173
155	0x3d5dc0a5	0.0541388
156	0xbc570b70	-0.0131252855
157	0xbdf14f1e	-0.117826685
158	0xbd53286a	-0.051552214
159	0xbdb7446e	-0.08948599
160	0x3def6727	0.116895966
161	0x3e7f5f71	0.24938752
162	0x3ec75d5b	0.38938412
163	0x3e2d08a3	0.16897826
164	0x3d9b4bf7	0.075828485
165	0xbe721fed	-0.23644991
166	0x3dc954c7	0.09830623
167	0xbdcc2b17	-0.09969156
168	0x3e1466ac	0.14492291
169	0x3d8a4c0e	0.067527875
170	0x3dd25e97	0.10271948
171	0xbde185bb	-0.11011835
172	0xbe594389	-0.21217169
173	0x3d810607	0.06299978
174	0xbe91c084	-0.2846719
175	0x3d5b3b41	0.053523306
176	0x3df19651	0.11796249
177	0xbdc0f23c	-0.094212025
178	0xbce89c4d	-0.028394843
179	0x3cd7cb04	0.026341923
180	0x3e39f294	0.18158942
181	0x3db3e705	0.08784298
182	0xbe30241a	-0.17201272
183	0xbc436c0c	-0.011927616
184	0x3dacfebf	0.084470265
185	0x3df25339	0.1183228
186	0xbe91d823	-0.28485212
187	0x3dce21b4	0.10065022
188	0xbd546621	-0.05185521
189	0x3e02e1e1	0.12781478
190	0xbea2be5c	-0.31785858
191	0xbe954b41	-0.29158977
192	0x3e0fe9bd	0.14054008
193	0x3cae43e6	0.02127261
194	0xbb9cd659	-0.0047862944
195	0xbcff8805	-0.031192789
196	0x3e160bca	0.14652935
197	0x3dcb2813	0.09919753
198	0x3da68b36	0.08132021
199	0x3df1d484	0.11808112
200	0xbd91b8b3	-0.07115307
201	0xbd90b514	-0.07065788
202	0x3d08c054	0.033386543
203	0xbd167ad2	-0.036738224
204	0xbcc16588	-0.023607984
205	0x3d961a36	0.07329218
206	0x3cede533	0.029039955
207	0xbd6274b3	-0.055287074
208	0xbe248826	-0.16067562
209	0x3d97ca89	0.074116774
210	0x3df73a75	0.12071697
211	0xbe26fdd4	-0.16307765
212	0xbbeeb59f	-0.0072848345
213	0xbe000bfe	-0.12504575
214	0x3e4f7309	0.20258726
215	0x3cac75b2	0.021052215
216	0x3e02b963	0.12766032
217	0x3e0c77a7	0.13717519
218	0x3e16caac	0.1472575
219	0xbe2edfb6	-0.17077526
220	0xbe28db7b	-0.16489975
221	0x3c9b25db	0.01893895
222	0x3d588f22	0.052870877
223	0x3e443e54	0.19164401
224	0xbc7f549f	-0.01558414
225	0xbdbc9049	-0.09207208
226	0xbe0bc54e	-0.13649485
227	0x3e44d36b	0.19221275
228	0x3d9bcf8f	0.07607948
229	0xbd1077f1	-0.035270635
230	0xbe1f51e5	-0.15558584
231	0x3dd94d5b	0.106104575
232	0x3df5118c	0.119662374
233	0xbe1600e4	-0.14648777
234	0x3da7e397	0.08197706
235	0x3ded26a4	0.11579636
236	0x3e22889f	0.1587243
237	0xbe0e2fce	-0.13885424
238	0xbdc8b97a	-0.09801002
239	0x3e340de7	0.17583428
240	0x3b84fa26	0.0040581403
241	0xbcbaaae1	-0.02278656
242	0xbe09fc9a	-0.13475266
243	0x3e12fd9e	0.1435456
244	0xbd6b5521	-0.057454232
245	0xbddcbe1a	-0.107784465
246	0xbe1d0209	-0.15332808
247	0x3e0c1335	0.13679202
248	0x3be29736	0.0069149984
249	0xbe179256	-0.14801916
250	0x3e31d046	0.17364606
251	0xbe17a84f	-0.14810298
252	0x3d24842c	0.04016511
253	0xbddb46e1	-0.107068785
254	0xbca2e98d	-0.019886756
255	0xbe0377c1	-0.12838651

Network_stack.0.0.gru.bias_ih_l1 f4 [96]
0	0x3d7df55b	0.062001567
1	0x3cc2cdee	0.023779836
2	0x3e863895	0.26215044
3	0x3e00a36d	0.12562342
4	0x3e2b7d52	0.16747025
5	0xbd1a19ee	-0.037622385
6	0xbe2d47a2	-0.16921857
7	0xbdc24ea1	-0.094876535
8	0x3d38c51e	0.04510986
9	0x3dc839ce	0.0977665
10	0x3d4313f7	0.04762646
11	0xbc8b72d5	-0.01702253
12	0xbd008bdc	-0.03138338
13	0x3d3ab7e2	0.04558552
14	0xbdebaeae	-0.11507927
15	0xbc1685b2	-0.009187149
16	0x3e129d89	0.14317907
17	0xbe307a86	-0.17234239
18	0x3e1642a3	0.14673857
19	0xbcee2572	-0.02907059
20	0x3e4f07a2	0.20217755
21	0xbd3e585f	-0.046470996
22	0xbc6920fe	-0.014229057
23	0xbdcbe85e	-0.0995643
24	0x3d31d928	0.043419987
25	0xbc6c6ad5	-0.014429768
26	0x3b683444	0.0035431543
27	0xbe56cf04	-0.20977408
28	0x3d6a68d2	0.05722887
29	0x3e2bb361	0.16767646
30	0x3d72b5e4	0.059255496
31	0x3e02b9bf	0.12766169
32	0xbe2df7c2	-0.16989043
33	0x3e8f8e33	0.28038177
34	0xbf2d9fc5	-0.67821914
35	0xbdb10809	-0.08644111
36	0x3e9aca1d	0.30232325
37	0x3e73160e	0.23738882
38	0xbd108da7	-0.03529134
39	0xbd0f3705	-0.03496458
40	0x3d93bc26	0.07213621
41	0x3dec77a6	0.11546259
42	0xbd5d3a4e	-0.05401068
43	0xbe3fd130	-0.18732142
44	0x3e335112	0.17511395
45	0xbd8011cf	-0.06253397
46	0xbea21347	-0.31655332
47	0xbdbf8699	-0.09351844
48	0xbe09be9e	-0.13451621
49	0xbcd0ed54	-0.025503792
50	0x3e14f1d0	0.14545369
51	0xbda3bfbd	-0.079955555
52	0xbd228b18	-0.03968343
53	0xbd3f9104	-0.046769157
54	0xbd65abd5	-0.056072075
55	0x3dc8a548	0.0979715
56	0xbe474bf0	-0.19462562
57	0xbd7d4f45	-0.061843175
58	0x3da17526	0.078836724
59	0x3d4d8d2d	0.050183464
60	0x3c6c3fd9	0.014419519
61	0x3e801154	0.2501322
62	0xbefa56d6	-0.48894376
63	0x3bda5a98	0.0066636316
64	0xbb5821c9	-0.0032979122
65	0x3dcf9c92	0.10137285
66	0xbd40d58d	-0.047078658
67	0xbd03c8b9	-0.032173846
68	0xbb9e91ce	-0.0048391586
69	0xbddfd31d	-0.109289385
70	0xbddb6b2c	-0.10713801
71	0x3ddb3965	0.107043065
72	0x3e08557c	0.1331386
73	0xbda4b3f2	-0.08042134
74	0xbe34c747	-0.17654143
75	0xbe2988e8	-0.16556132
76	0xbe01763e	-0.12642762
77	0x3de4652c	0.111521095
78	0x3d6438f8	0.055718392
79	0xbe06df69	-0.13171162
80	0x3d94eae2	0.07271363
81	0xbde264dd	-0.110543944
82	0x3e109525	0.14119394
83	0xbe1b6abd	-0.15177436
84	0x3e0be9e8	0.13663447
85	0xbe093391	-0.13398577
86	0xbce012bd	-0.027352685
87	0x3da5a5c6	0.080882594
88	0x3e07a787	0.132475
89	0x3e39f02a	0.18158022
90	0xbdc93dcb	-0.09826239
91	0x3d07397f	0.033013817
92	0xbb841172	-0.0040304
93	0xbe382ed2	-0.1798661
94	0x3e4a832e	0.19776604
95	0xbdf49964	-0.119433194

Network_stack.0.0.gru.bias_hh_l1 f4 [96]
0	0xbdfe3be7	-0.12413769
1	0xbd495129	-0.049149666
2	0x3dfaafe3	0.12240579
3	0x3d480860	0.048836112
4	0xbd2e4136	-0.04254266
5	0x3e338e1b	0.17534678
6	0x3c50b822	0.012739213
7	0xbdc04428	-0.09388
8	0x3d223b87	0.03960755
9	0x3d7cfeff	0.06176662
10	0xbdeade18	-0.11468142
11	0xbcf751a0	-0.030190289
12	0xbd447e9e	-0.047972314
13	0x3cdd7019	0.027030991
14	0xbd9fcb25	-0.078024186
15	0x3e1d0117	0.15332447
16	0xbdce7b44	-0.10082105
17	0xbd55e667	-0.052221682
18	0x3da2ee0e	0.079555616
19	0xbe0fc7fe	-0.14041135
20	0x3dc7f218	0.097629726
21	0xbd77234d	-0.0603364
22	0x3e8cc193	0.27491435
23	0xbccd9c3c	-0.025098912
24	0xbd7a928f	-0.061174925
25	0x3d12fb0f	0.03588396
26	0xbd8b5f44	-0.0680528
27	0xbe0f59ae	-0.13999054
28	0xbb9e8024	-0.004837053
29	0x3e430ac7	0.1904708
30	0xbe4c2b1c	-0.1993832
31	0xbd807722	-0.06272723
32	0x3c30c5dc	0.010789361
33	0x3e8a6b4b	0.27034983
34	0xbf4e9c05	-0.80706817
35	0xbe12205b	-0.14270155
36	0x3e87121f	0.26381013
37	0x3e5f618a	0.21814552
38	0xbdd5da98	-0.10442084
39	0xbe073739	-0.1320466
40	0xbd6ea8d7	-0.058266487
41	0x3e096af9	0.13419713
42	0x3e3d71d0	0.18500447
43	0xbe82cd45	-0.25547233
44	0x3e20688f	0.15664886
45	0xbe011dfa	-0.12609091
46	0xbe79aadd	-0.24381585
47	0xbe2683d4	-0.16261226
48	0x3c9928dd	0.018696243
49	0x3e06762c	0.13131016
50	0x3e01dbcc	0.12681502
51	0xbd0bc32f	-0.03412169
52	0xbddca70f	-0.107740514
53	0xbd46b27a	-0.048510052
54	0xbd9a55b1	-0.075358756
55	0x3c84c81c	0.0162087
56	0xbce77afe	-0.02825689
57	0xbd0efbb9	-0.03490803
58	0x3e78bcbe	0.2429075
59	0x3d2d1bc4	0.042262807
60	0x3d85d813	0.065353535
61	0x3dc5d747	0.096602015
62	0xbf142373	-0.5786659
63	0x3e317c64	0.17332608
64	0x3e09ad3b	0.13444988
65	0xbd9da72f	-0.07697903
66	0x3df44f0d	0.1192914
67	0x3c711dc5	0.01471657
68	0xbe27d831	-0.16391064
69	0xba9c311a	-0.0011916489
70	0xbdaabe32	-0.08337058
71	0x3e3c504a	0.18390003
72	0xbdf1d364	-0.11807898
73	0xbd71cb81	-0.059031967
74	0x3d77bef2	0.060484834
75	0xbe0faa48	-0.14029801
76	0xbdaeb86f	-0.08531272
77	0xbcea5ff9	-0.028610216
78	0xbdfd9717	-0.12382334
79	0x3e205ff0	0.15661597
80	0xbe277bdd	-0.16355844
81	0xbd9c9353	-0.07645287
82	0x3e205bfa	0.15660086
83	0x3db24453	0.08704438
84	0x3cd0abb9	0.025472509
85	0xbd3ed164	-0.04658641
86	0xbcb0ad1f	-0.021566926
87	0xbe03891c	-0.12845272
88	0xbd9216b3	-0.07133236
89	0xbd1cf8d2	-0.03832323
90	0xbdbce7cb	-0.092238985
91	0xbcab9132	-0.020943258
92	0x3e186afe	0.14884564
93	0xbd298862	-0.04138983
94	0xbdce2745	-0.10066084
95	0x3deca4c0	0.11554861

Network_stack.1.0.gru.weight_ih_l0 f4 [96, 2]
0	0xbe21843b	-0.15773098
1	0xbe3808a0	-0.1797204
2	0xbe1d0533	-0.15334015
3	0xbdb4971d	-0.08817885
4	0x3d966c9f	0.073449366
5	0x3e38f0ee	0.18060657
6	0xbd829420	-0.06375909
7	0x3db2607b	0.087098084
8	0xbe43ab6c	-0.19108361
9	0xbe2fe8f5	-0.1717871
10	0x3d0b2ce8	0.033978373
11	0x3e5aefc6	0.21380529
12	0xbe5ab25d	-0.21357103
13	0xbc64b0ae	-0.013958139
14	0x3e29d5be	0.16585442
15	0x3e09886f	0.13430952
16	0x3cfa813a	0.030579198
17	0xbc1639b1	-0.009169028
18	0x3d5a7286	0.053331874
19	0x3c4711a0	0.012150198
20	0xbc14d5cb	-0.009084175
21	0x3d69300d	0.05693059
22	0x3e3fdd7c	0.18736833
23	0x3de3cd3d	0.111231305
24	0x3db00b81	0.08595944
25	0xbd94632f	-0.0724548
26	0xbdb0ba50	-0.08629286
27	0xbe383fbb	-0.17993061
28	0x3de78ae2	0.11305787
29	0x3e505c09	0.20347609
30	0xbe3142c6	-0.17310628
31	0xbe4865f3	-0.1957014
32	0xbc929000	-0.01789093
33	0x3d5169fb	0.05112646
34	0xbd4b1a13	-0.049585413
35	0xbe0a7a35	-0.13523181
36	0xbe323633	-0.17403488
37	0xbce67fed	-0.028137172
38	0xbc7204ec	-0.014771681
39	0x3b01e7ae	0.001982193
40	0x3d2da702	0.0423956
41	0x3c10e131	0.008842752
42	0x3d85a892	0.06526293
43	0x3e2fdd47	0.17174254
44	0x3d757aad	0.059931446
45	0x3d6c8c38	0.05775091
46	0xbe471b1e	-0.19443938
47	0xbdba7a5f	-0.09105372
48	0xbd78b8d1	-0.06072313
49	0x3de71243	0.1128278
50	0xbbb02184	-0.005375089
51	0xbb61a281	-0.0034429135
52	0xbd4be29c	-0.04977666
53	0x3e799796	0.24374232
54	0xbc437bb9	-0.011931353
55	0x3b9b022f	0.004730485
56	0xbd84ebe8	-0.06490308
57	0x3cca9bb7	0.024732454
58	0x36cbb6a0	6.071132e-06
59	0xbdfdfbbc	-0.1240153
60	0xbdb03318	-0.08603495
61	0x3e011e0c	0.12609118
62	0xbda6efe3	-0.081512235
63	0xbc1be276	-0.009514442
64	0xbea43a85	-0.32075897
65	0x3d272a42	0.040811785
66	0x3db8cbf2	0.090232745
67	0x3e91d110	0.28479815
68	0xbeaa388c	-0.33246267
69	0xbed21552	-0.4103189
70	0xbdaa43f0	-0.08313739
71	0xbd8565f1	-0.065135844
72	0xbea43760	-0.32073498
73	0xbec935f5	-0.39298978
74	0xbe77c815	-0.24197419
75	0xbe22167b	-0.15828888
76	0xbe80881b	-0.2510384
77	0xbe357c87	-0.17723285
78	0x3e2c0dfe	0.16802213
79	0x3e402c41	0.18766882
80	0xbd14d588	-0.03633645
81	0x3e1dfbf6	0.15428147
82	0x3eda46ff	0.4263229
83	0x3ed5b684	0.4174081
84	0x3e117323	0.14204077
85	0x3db6dcf2	0.08928861
86	0xbe437643	-0.19088082
87	0xbecc4367	-0.39895174
88	0x3b999f74	0.0046881977
89	0x3e5daa64	0.2164703
90	0x3dd7d58b	0.10538777
91	0x3df67258	0.12033528
92	0xbd996465	-0.07489852
93	0xbd080b1a	-0.033213712
94	0x3e127960	0.14304113
95	0xbd288423	-0.04114164
96	0x3e97dd49	0.29661015
97	0x3e02d9d0	0.12778401
98	0xbdb3e9b1	-0.087848075
99	0x3e187cac	0.14891309
100	0x3e11f79f	0.14254616
101	0x3d6612ef	0.0561704
102	0xbe1429ae	-0.14469025
103	0xbe2a11c2	-0.16608337
104	0xbdf8dc57	-0.121514015
105	0xbd36d75c	-0.044638976
106	0xbe2903a8	-0.16505301
107	0xbde53893	-0.11192431
108	0xbd7185ae	-0.058965378
109	0x3d8329cf	0.06404459
110	0x3daf7f5e	0.08569215
111	0x3e0224e4	0.12709385
112	0xbd3d5933	-0.046227645
113	0x3dccf607	0.100078635
114	0xbba0db5d	-0.0049089626
115	0xbe27abfe	-0.16374204
116	0xbf1e7821	-0.6190205
117	0xbea9d03a	-0.33166677
118	0x3e1ced20	0.15324831
119	0x3d314f8e	0.04328876
120	0x3d7c0c70	0.0615353
121	0x3e7058ae	0.23471329
122	0xbecdd419	-0.4020088
123	0xbd0e0696	-0.03467425
124	0xbe28cdc1	-0.16484739
125	0xbe275691	-0.16341616
126	0xbf118eb4	-0.5685837
127	0xbef50341	-0.47854045
128	0x3d88efce	0.06686364
129	0x3e296ef0	0.16546226
130	0xbe005a4e	-0.12534449
131	0xbd14d296	-0.036333643
132	0xbddf9b7c	-0.10918328
133	0x3e8d8b39	0.2764528
134	0x3daf4c10	0.0855943
135	0x3de1aaea	0.110189274
136	0x3e2df619	0.1698841
137	0xbe29a59b	-0.1656708
138	0x3e06f515	0.13179429
139	0xbd9fd81d	-0.07804892
140	0x3d8cb622	0.068706766
141	0x3e1f323e	0.1554651
142	0xbd91bb03	-0.07115748
143	0x3d4e8677	0.050421204
144	0x3e0591b5	0.13043864
145	0x3e270c60	0.16313314
146	0xbca1abe9	-0.019735293
147	0x3df90c57	0.12160557
148	0xbcc17c00	-0.023618698
149	0xbda14119	-0.078737445
150	0x3d5efc2f	0.05443972
151	0xbe5fc498	-0.21852338
152	0x3d74be77	0.059751954
153	0xbc9ffe71	-0.019530507
154	0xbc392b91	-0.011301891
155	0xbdfcd03a	-0.123444036
156	0x3d8af693	0.067853115
157	0xbdd6ce09	-0.10488517
158	0x3dde074d	0.10841236
159	0xbe0e6bf7	-0.13908373
160	0x3d6664ae	0.05624836
161	0xbce78f53	-0.028266585
162	0x3e169130	0.14703822
163	0xbdac1a0a	-0.08403404
164	0xbe103b94	-0.14085227
165	0xbe1e73c2	-0.15473846
166	0x3dc54986	0.09633164
167	0x3e4d0591	0.20021655
168	0x3d826ec9	0.06368787
169	0xbdb0bdd6	-0.08629958
170	0x3e1b0521	0.15138675
171	0x3e7d18a4	0.24716431
172	0x3d6d2ec7	0.05790594
173	0xbdee0dd4	-0.11623731
174	0xbd1a75ec	-0.037710115
175	0xb9b3bc25	-0.0003428172
176	0xbb690a39	-0.0035559072
177	0x3e076321	0.13221408
178	0xba8d4218	-0.0010777144
179	0x3d6bfa36	0.057611667
180	0xbdac86fa	-0.08424182
181	0x3e7ab9a8	0.24484885
182	0x3ded059f	0.11573338
183	0xbc59ce60	-0.013293833
184	0x3dff5715	0.124677815
185	0x3d7b8d57	0.06141409
186	0x3d4effb8	0.05053684
187	0x3e4a7d7e	0.19774434
188	0x3e3c0fbd	0.18365379
189	0xbdb6c294	-0.089238316
190	0xbe4bf8d8	-0.19919145
191	0x3e83704d	0.25671616

Network_stack.1.0.gru.weight_hh_l0 f4 [96, 32]
0	0xbe5a2206	-0.21302041
1	0x3db115fb	0.086467706
2	0xbdc5295f	-0.096270315
3	0xbe3f8704	-0.18703848
4	0xbd10e7ab	-0.035377186
5	0x3e30712d	0.17230673
6	0xbe052594	-0.13002616
7	0xbe27f140	-0.16400623
8	0x3c5b2c1e	0.013377218
9	0xbe25dd0e	-0.16197607
10	0x3d9dbc65	0.07701949
11	0x3e5ec36a	0.21754232
12	0x3db12d04	0.08651164
13	0xbb1321de	-0.0022450606
14	0xbe3b08e4	-0.1826511
15	0xbe8659f9	-0.2624052
16	0x3e5668fc	0.20938486
17	0xbdc51311	-0.09622777
18	0x3e3e45fd	0.18581386
19	0xbe7432ac	-0.23847455
20	0x3e4a59a8	0.19760764
21	0x3cc28788	0.023746267
22	0x3ea1010d	0.31446114
23	0x3e3e5973	0.1858881
24	0xbdb373a1	-0.08762289
25	0x3d8a8326	0.06763296
26	0x3c1f4fde	0.009723632
27	0xbd86dd04	-0.06585124
28	0xbe64ea05	-0.22354896
29	0xbd2315ab	-0.039815586
30	0x3d5011d8	0.050798267
31	0xbd1aedd4	-0.037824467
32	0xbd4c1bc7	-0.049831178
33	0x3d2b26ee	0.041785173
34	0x3d787f51	0.060668293
35	0x3d693248	0.056932718
36	0x3df212a1	0.118199594
37	0xbe3158b8	-0.17319
38	0xbe1c496b	-0.15262382
39	0x3dd5eec9	0.10445935
40	0x3dadbc3c	0.084831685
41	0x3dee79f7	0.11644357
42	0x3d090d2e	0.033459835
43	0x3e0c85c8	0.13722908
44	0xbdcde11c	-0.10052702
45	0xbdcb58b7	-0.099290304
46	0xbdc98d29	-0.09841377
47	0xbc854048	-0.016266003
48	0xbdf29042	-0.11843921
49	0xbcc517fe	-0.024059292
50	0xbc259e2c	-0.010108512
51	0xbe1ebeab	-0.15502422
52	0x3de4755e	0.111551985
53	0xbcaaedd8	-0.020865366
54	0x3c9257af	0.017864076
55	0x3db357cd	0.08756981
56	0xbdbe4c47	-0.092918925
57	0x3ce22860	0.027607143
58	0xbe199bee	-0.15000889
59	0xbe09e60b	-0.1346666
60	0x3df7fe2d	0.12109027
61	0x3c980260	0.01855582
62	0xbcc8d62a	-0.024516184
63	0xbe22f789	-0.1591474
64	0x3e52da36	0.20591053
65	0xbe8a6a7d	-0.2703437
66	0x3dcb9b8d	0.09941778
67	0xbde34551	-0.110972054
68	0x3c82c39d	0.015962416
69	0x3db13a38	0.086536825
70	0xbcfc6f7a	-0.030814875
71	0x3d376fa7	0.044784214
72	0x3e8589a9	0.2608159
73	0xbe0eba81	-0.13938333
74	0xbcbbeae7	-0.022939159
75	0xbdc88a54	-0.09792009
76	0x3d3bc020	0.04583752
77	0xbe0b57a9	-0.13607658
78	0xbe163895	-0.14670022
79	0xbe435742	-0.19076255
80	0x3e2525fc	0.16127771
81	0x3deccc38	0.11562389
82	0xbe06aad7	-0.13151108
83	0x3d106743	0.035254728
84	0xbde67951	-0.11253608
85	0x3e130c6c	0.14360207
86	0x3d76046b	0.060062807
87	0x3d0ca3b5	0.03433581
88	0x3e58f1fb	0.21186058
89	0xbd1b230c	-0.03787522
90	0xbd88abbb	-0.0667338
91	0x3e40445b	0.18776076
92	0xba03fcf6	-0.00050349475
93	0x3e10b22e	0.1413047
94	0x3d3416ee	0.04396718
95	0xbdbdacc0	-0.09261465
96	0x3e4086fa	0.1880149
97	0x3e2efe14	0.1708911
98	0xbe0f147c	-0.13972658
99	0xbd0500a3	-0.03247131
100	0x3dbed56e	0.09318052
101	0x3dc7ab6b	0.09749492
102	0xbd02d6a1	-0.031942967
103	0xbd1d811d	-0.03845321
104	0x3d1b07c3	0.0378492
105	0x3de5a187	0.112124495
106	0x3e2fb69a	0.171595
107	0x3e04cee7	0.12969552
108	0xbdc6433b	-0.09680792
109	0xbcc4d148	-0.024025574
110	0xbdbea673	-0.093090914
111	0x3de4bb68	0.111685574
112	0x3cbd78ad	0.023128832
113	0x3d1921f6	0.037385903
114	0x3e1f356f	0.15547727
115	0x3e2a43f2	0.16627482
116	0xbdea9e05	-0.11455921
117	0xbe0495db	-0.1294779
118	0xbbc7ca39	-0.006097105
119	0xbdfc1443	-0.12308552
120	0x3dd674ec	0.1047152
121	0xbe0d5f94	-0.13805991
122	0x3e651234	0.22370225
123	0x3de0e5aa	0.10981305
124	0xbdab1a31	-0.08354605
125	0x3d064d74	0.03278871
126	0x3d54fba9	0.051997814
127	0x3e40597b	0.18784134
128	0x3d7d3436	0.06181737
129	0x3e0a3119	0.13495292
130	0xbb5ce600	-0.0033706427
131	0xbd007e93	-0.03137071
132	0xbe22c6cf	-0.15896152
133	0x3e040088	0.12890828
134	0x3e177897	0.14792095
135	0xbd250f2a	-0.040297665
136	0xbd9769b1	-0.07393206
137	0xbe47b7e0	-0.19503736
138	0xbc82a6dc	-0.015948705
139	0xbdbf3759	-0.093367286
140	0x3dda67a9	0.10664303
141	0x3e149481	0.14509775
142	0x3d54019b	0.051759344
143	0xbd61d605	-0.055135746
144	0xbe2502a0	-0.16114283
145	0x3dc44fae	0.0958551
146	0xbd248edd	-0.040175308
147	0x3dccaf9f	0.099944346
148	0x3deb9fd5	0.11505095
149	0xbe0335c9	-0.12813486
150	0xbe5ea210	-0.2174151
151	0x3e43a1e4	0.19104725
152	0xbd7ac20f	-0.061220225
153	0x3da444fb	0.080209695
154	0x3d97c351	0.074103005
155	0x3df148bd	0.11781452
156	0xbc1de382	-0.009636762
157	0xbdc3a288	-0.09552485
158	0x3ddc995d	0.10771439
159	0xbd3dab31	-0.04630584
160	0x3e15832e	0.14600822
161	0xbe4d3d9d	-0.20043035
162	0x3e1be496	0.15223917
163	0xbb993751	-0.0046757837
164	0xbe19b6f6	-0.150112
165	0x3d85c654	0.06531969
166	0xbd420431	-0.04736728
167	0x3dca7747	0.098860316
168	0x3e1fe356	0.15614066
169	0x3d815b2b	0.06316217
170	0x3b43a010	0.0029850043
171	0xbe1f5ee7	-0.15563546
172	0x3d45f079	0.048325036
173	0xbded59f7	-0.11589425
174	0xbe7703de	-0.24122569
175	0xbd4607ac	-0.04834716
176	0xbdb61191	-0.08890069
177	0x3e3cbe46	0.18431959
178	0xbe68cef6	-0.227352
179	0x3d733e06	0.059385322
180	0xbe477eae	-0.19481918
181	0x3d560508	0.052250892
182	0x3dd5edce	0.10445748
183	0xbe4cae37	-0.19988333
184	0xbdfcd172	-0.12344636
185	0xbdde029e	-0.10840343
186	0x3e75f6fa	0.24019995
187	0xbe53a6c0	-0.20669079
188	0x3d71eb8c	0.059062526
189	0x3e1b66f2	0.1517599
190	0x3d941953	0.07231393
191	0x3b77a8ab	0.0037789743
192	0x3e033b84	0.12815672
193	0x3dbf6bd3	0.09346738
194	0x3c8fb1d8	0.017540857
195	0xbda61fb5	-0.081115164
196	0xbe3e16f8	-0.1856345
197	0x3e5d3420	0.21601915
198	0x3d504fe2	0.050857432
199	0x3e2d8599	0.16945495
200	0x3df1469b	0.11781045
201	0xbae162bb	-0.0017195562
202	0x3e467b41	0.19382955
203	0xbd463b1d	-0.04839622
204	0x3e0d9c2a	0.13829103
205	0xbd2d379c	-0.04228936
206	0xbd82e845	-0.06391958
207	0xbe52d16c	-0.205877
208	0xbe0b1e01	-0.13585664
209	0xbc199338	-0.009373479
210	0x3e440c2e	0.19145271
211	0xbe0c80cb	-0.13721006
212	0xbb6c217f	-0.0036030707
213	0xbe463f2c	-0.19360036
214	0x3dc54929	0.09633095
215	0x3cf4c33f	0.029878257
216	0xbd4b60a7	-0.04965272
217	0x3e4509ce	0.19242021
218	0xbd602ea7	-0.05473199
219	0x3dbb8b85	0.091574706
220	0x3e3dc076	0.1853045
221	0x3d44f212	0.04808242
222	0xbd27d5bd	-0.04097532
223	0xbd35bb65	-0.044368166
224	0xbda5f6f5	-0.08103744
225	0x3d8d9424	0.06913021
226	0x3df22113	0.11822715
227	0x3e0f7455	0.14009221
228	0x3ddcabaa	0.1077493
229	0xbe537ea8	-0.20653784
230	0xbd2507af	-0.04029053
231	0xbdb3a289	-0.087712355
232	0x3d5d8d0c	0.05408959
233	0x3e17c4fa	0.14821234
234	0xbe026eea	-0.12737623
235	0xbe063ae6	-0.13108405
236	0xbc3f90d2	-0.011692243
237	0xbe00aa50	-0.12564969
238	0x3de5e595	0.1122543
239	0x3e2619f4	0.16220838
240	0xbe1917ba	-0.14950457
241	0xbe1aff8c	-0.15136546
242	0xbdc7ddc5	-0.09759096
243	0x3d480c5d	0.048839916
244	0x3ddcd438	0.10782665
245	0xbcd685d2	-0.026186857
246	0x3d814826	0.06312589
247	0xbe0956c1	-0.13412
248	0xbe1533ec	-0.14570588
249	0x3cc3f7c9	0.023921864
250	0x3dd974db	0.106179915
251	0x3da99739	0.082807966
252	0x3c4301be	0.011902271
253	0x3d2f4b2c	0.0427963
254	0x3d00c639	0.03143904
255	0xbd264759	-0.040595386

Network_stack.1.0.gru.bias_ih_l0 f4 [96]
0	0xbdef56da	-0.116864875
1	0xbc40ca1a	-0.011766935
2	0x3dbc27d7	0.09187286
3	0x3cdbfee5	0.026854942
4	0x3bbadefe	0.0057028523
5	0x3e28768d	0.16451474
6	0x3d83e686	0.06440453
7	0xbd42ffb4	-0.04760714
8	0xbe0a477e	-0.13503835
9	0x3e144f06	0.1448327
10	0xbd1f7161	-0.038926486
11	0x3d96d711	0.073652394
12	0x3cc2672f	0.023730842
13	0xbd33e000	-0.043914795
14	0xbccb666f	-0.024829118
15	0xbce52b5b	-0.027974775
16	0x3da8c40d	0.08240519
17	0x3ce14092	0.02749661
18	0x3dfcc184	0.12341598
19	0x3cf94c33	0.030431842
20	0xbd8be060	-0.068299055
21	0x3e31b2b9	0.17353334
22	0x3cf90c86	0.03040148
23	0xbdd8927a	-0.10574813
24	0xbd9b713a	-0.07589956
25	0x3e0ce880	0.13760567
26	0xbd43d76b	-0.04781286
27	0x3e097783	0.13424496
28	0xbdcb379c	-0.09922716
29	0xbe5f7750	-0.21822858
30	0xbe26b7f0	-0.16281104
31	0xbce5770c	-0.028010868
32	0xbe6f2bdb	-0.23356573
33	0xbe0d67cd	-0.13809128
34	0xbd80710d	-0.06271563
35	0xbdc4acb0	-0.0960325
36	0xbe9d8ab4	-0.30769885
37	0xbe29f286	-0.16596422
38	0xbdecbac9	-0.11559064
39	0x3e9b0545	0.30277458
40	0x3e06dd3a	0.13170329
41	0x3db89a9e	0.09013866
42	0x3d2fd698	0.042929262
43	0xbd3533c1	-0.04423881
44	0x3d86232f	0.065496795
45	0x3e2075fa	0.15670004
46	0xbe1a66c9	-0.15078272
47	0xbe10e13d	-0.14148422
48	0x3e2900dd	0.16504236
49	0x3c4fa2a9	0.012673059
50	0x3e379b74	0.17930394
51	0xbe7a1580	-0.24422264
52	0xbd899d41	-0.06719447
53	0xbe58cf22	-0.21172765
54	0x3e150868	0.14553988
55	0xbdcda58b	-0.100413404
56	0xbde34c84	-0.110985786
57	0x3e32802a	0.17431703
58	0xbebe89a4	-0.37214386
59	0x3e1a8eaf	0.15093492
60	0x3dd6ebc2	0.10494186
61	0x3d70001b	0.05859385
62	0x3d28dd71	0.041226808
63	0xbf241f4e	-0.6411027
64	0xbdbdc16f	-0.0926541
65	0x3e0a3271	0.13495804
66	0x3caf4f52	0.021400128
67	0x3d6739cc	0.056451604
68	0xbcf5b595	-0.029993812
69	0xbe02cea9	-0.12774147
70	0xbd1af21a	-0.037828542
71	0x3e06bbd0	0.13157582
72	0xbe03c35b	-0.12867491
73	0x3e2a7229	0.16645111
74	0xbd8623a7	-0.06549769
75	0xbd9a4c19	-0.07534046
76	0xbe3781db	-0.1792063
77	0xbc387053	-0.011257249
78	0xbd1679ef	-0.03673738
79	0x3e24382b	0.16037051
80	0x3d33793c	0.04381679
81	0x3cfe9d39	0.031080829
82	0xbcfe7820	-0.03106314
83	0xbc5d9be3	-0.013525936
84	0x3e149de2	0.14513353
85	0xbcb6a403	-0.022295004
86	0x3ded5556	0.11588542
87	0xbddbb147	-0.10727172
88	0xbe45a3ac	-0.19300717
89	0xbe1fef0e	-0.15618536
90	0xbd9567ff	-0.07295226
91	0xbe165745	-0.14681728
92	0x3d94425c	0.072392195
93	0xbd9c5884	-0.076340705
94	0xbe13a55b	-0.14418547
95	0x3daed92c	0.08537516
