models/model_uniform_sigma_005_region_0-0.3.0.6-0.9_multiple_Agentsaa9b9fdf.pth (torch, 87762 bytes, 18 tensors)

Network_stack.0.0.gru.weight_ih_l0 f4 [96, 2]
-0.027907964 -0.049531132 0.02201676 0.120774634 -0.027945003 -0.10128505 -0.010977728 -0.03505255
-0.124098234 0.0064428556 0.09303716 -0.11853507 -0.2668141 -0.1581604 -0.036406983 0.09255653
0.20637138 0.41005716 0.21472982 0.16566917 0.005793575 0.03286698 0.20248923 0.09444652
-0.08064677 0.3294596 -0.20042382 -0.40323216 -0.094204344 0.20640746 -0.1976393 0.236334
-0.06929462 0.084131286 -0.0742188 -0.20243281 0.034274198 0.1293839 0.108275704 0.0465909
-0.02126514 -0.08242931 0.30982432 0.0971941 0.15634143 0.037187796 0.14367697 0.19564778
0.1854811 -0.22069465 0.043578457 0.29840472 -0.18671545 -0.009348828 0.08759325 0.043443788
0.07685196 0.099963345 -0.13746244 -0.0063521513 0.07039196 -0.13893622 0.012397864 0.2879444
-0.52519375 0.58709294 -0.14591664 0.27998698 -1.175507 0.8621194 -0.0023238678 -0.28350884
0.2553005 -0.42906725 -2.418924 0.3664093 -0.6168931 -1.2740872 0.38016132 -0.50496507
0.33726707 0.7642562 -0.36455 -0.21006185 -0.2726805 0.2732629 -1.0804847 -0.004948569
0.34473744 -1.0962864 -0.8720379 1.7631036 -0.30680335 0.7717239 -0.101397395 0.36131382
-0.26874554 -1.0641295 0.4238649 -0.65243596 -0.9590846 -0.28837222 -0.42629087 -0.74897444
-0.51862586 0.3522355 -1.416345 -0.057991438 0.3270186 0.2838699 -0.6502351 -0.40317434
-0.20690194 -0.013538133 0.24509577 0.39562407 -0.5826426 -0.17265128 0.34839395 0.16711688
0.3910489 -0.66150105 -1.0935644 0.62179834 -0.07402495 0.21589229 -0.35621557 0.120416656
-0.088924326 -0.22140472 0.1363389 -0.2722984 0.22279112 0.26322827 -0.23491971 0.23700634
0.18914413 0.13650198 0.21781857 0.17267913 -0.41284278 0.10060315 0.11817002 -0.2793599
-0.19841246 -0.09771924 0.2206826 -0.18734697 -0.16798693 -0.038459864 -0.31106287 -0.16896647
-0.09092315 0.282884 0.1815402 0.23932354 0.2353892 0.18210322 0.07221621 0.3023944
0.25479668 -0.2891923 0.012342919 0.31026682 -0.10940751 -0.009083693 -0.09483693 -0.22360305
-0.3066589 -0.13985711 -0.1594603 0.017556833 0.14316392 0.048830938 -0.17992559 -0.25522846
0.24688402 -0.25226203 0.17443836 0.2194005 -0.21997875 -0.20342952 -0.117885694 -0.06030896
-0.06268425 -0.1617399 0.31516472 0.21211658 0.19407885 0.23642242 -0.08320111 0.3327442
00000000: 3e9f e4bc 28e1 4abd 7e5c b43c b158 f73d
00000010: ebec e4bc 896e cfbd eedb 33bc 4393 0fbd
00000020: 3727 febd 971e d33b 448a be3d 84c2 f2bd
00000030: dc9b 88be cdf4 21be 7d1f 15bd 478e bd3d
00000040: 0553 533e 03f3 d13e 22e2 5b3e 2ea5 293e
00000050: 08d8 bd3b 879f 063d 5659 4f3e 2d6d c13d
00000060: 222a a5bd eeae a83e e73b 4dbe 7274 cebe
00000070: 35ee c0bd 7a5c 533e f561 4abe 8a01 723e
00000080: 56ea 8dbd 064d ac3d 0700 98bd 8c4a 4fbe
00000090: 1a63 0c3d 377d 043e a7bf dd3d 19d6 3e3d
000000a0: 3b34 aebc b3d0 a8bd 4ba1 9e3e b30d c73d
000000b0: f817 203e 3b52 183d 0e20 133e e457 483e
000000c0: c2ee 3d3e c7fd 61be 537f 323d 81c8 983e
000000d0: 5632 3fbe d42b 19bc 1764 b33d 1df2 313d
000000e0: 8f64 9d3d 95b9 cc3d f4c2 0cbe b525 d0bb
000000f0: a929 903d 4c45 0ebe 6920 4b3c 736d 933e
00000100: 1973 06bf b94b 163f 2c6b 15be 745a 8f3e
00000110: 0377 96bf dbb3 5c3f 084c 18bb 1228 91be
00000120: bfb6 823e b4ae dbbe a7cf 1ac0 009a bb3e
00000130: b5ec 1dbf 4a15 a3bf 81a4 c23e 6445 01bf
00000140: 45ae ac3e 4ba6 433f 4ca6 babe 741a 57be
00000150: c79c 8bbe 1de9 8b3e 534d 8abf 9b27 a2bb
00000160: 6d81 b03e 1d53 8cbf e03d 5fbf 61ad e13f
00000170: 5415 9dbe b38f 453f 70a9 cfbd 20fe b83e
00000180: 0499 89be 6535 88bf d204 d93e 0b06 27bf
00000190: 9186 75bf 86a5 93be cc42 dabe cabc 3fbf
000001a0: aac4 04bf 3658 b43e cb4a b5bf 6e88 6dbd
000001b0: fb6e a73e 6557 913e cf75 26bf de6c cebe
000001c0: 1ade 53be 0ccf 5dbc 63fa 7a3e 3d8f ca3e
000001d0: 1128 15bf 7fcb 30be b160 b23e b020 2b3e
000001e0: 9037 c83e 2258 29bf ebf9 8bbf 2d2e 1f3f
000001f0: 659a 97bd de12 5d3e e361 b6be 029d f63d
00000200: f51d b6bd ebb7 62be 6d9c 0b3e b26a 8bbe
00000210: 5b23 643e dbc5 863e cb8e 70be cab1 723e
00000220: 00af 413e 2dc7 0b3e d50b 5f3e ccd2 303e
00000230: 2160 d3be 0609 ce3d 2003 f23d 4308 8fbe
00000240: a32c 4bbe 0621 c8bd 9ffa 613e e2d7 3fbe
00000250: c404 2cbe 1788 1dbd a243 9fbe 8c05 2dbe
00000260: eb35 babd 2cd6 903e ade5 393e 3b11 753e
00000270: de09 713e 4479 3a3e 18e6 933d 70d3 9a3e
00000280: b674 823e 0311 94be f439 4a3c 4bdb 9e3e
00000290: 0b11 e0bd c5d3 14bc dd39 c2bd 33f8 64be
000002a0: 6502 9dbe b436 0fbe 9049 23be 59d3 8f3c
000002b0: 9099 123e f302 483d 6a3e 38be 4ead 82be
000002c0: 2acf 7c3e 7d28 81be f89f 323e 86aa 603e
000002d0: 1c42 61be d44f 50be 0e6e f1bd 8706 77bd
000002e0: 9a60 80bd 259f 25be 455d a13e 1735 593e
000002f0: 9bbc 463e b818 723e 5865 aabd 735d aa3e

Network_stack.0.0.gru.weight_hh_l0 f4 [96, 32]
-0.14814018 -0.07346691 -0.028995998 0.06652171 -0.1559949 0.11996004 -0.10219146 0.11361176
-0.03823917 0.05083926 0.18169308 0.13407321 -0.11642391 -0.0447305 0.16867498 -0.113668375
0.024973279 0.22686808 0.0007453343 -0.020972487 -0.0924879 -0.043695495 0.06338324 0.20244646
-0.12055385 -0.15073372 0.14896476 -0.06542596 -0.19189698 -0.053888492 0.06277178 0.21252266
0.19428554 -0.15775836 0.020191139 -0.048152186 0.10794769 -0.14951274 0.0035169232 -0.14352262
0.18159752 0.006616391 0.011927389 -0.03870307 0.03859692 -0.22122075 -0.10593756 -0.021388138
-0.050125223 -0.011847043 0.13558148 0.07776962 0.14285992 -0.032023095 0.11792661 0.085001886
0.017347282 -0.09797726 0.054013424 -0.08542958 -0.15758054 0.1070671 0.068179764 -0.115594275
0.018533524 0.190249 0.01731198 -0.02705241 0.14714931 -0.090381905 -0.16336475 0.032166466
-0.20480387 0.035691068 0.011988468 -0.1387288 -0.13523228 -0.052056268 0.16156487 -0.030612731
0.15469493 0.14941879 -0.07239964 -0.07272977 -0.013621466 -0.10340859 0.12655999 0.0851598
-0.11006585 0.10417371 -0.104726575 -0.16372082 -0.12225537 -0.14210422 -0.033034734 -0.16254808
-0.11135352 -0.19228193 0.13584211 0.3103247 0.08694874 0.12961274 0.20644519 -0.16174327
-0.09436458 -0.035133295 -0.1488879 0.04404512 -0.02606875 0.061976492 -0.0767319 0.21115771
0.028855827 0.054837532 -0.07180156 -0.09153719 -0.0093524745 0.017115388 0.08617702 -0.021619815
-0.07654421 0.029922502 0.049531635 0.13860372 -0.048168365 -0.00053641514 0.06335907 0.0023913435
-0.004176744 0.011147095 -0.10372544 -0.0239292 -0.008971028 0.11328087 -0.17869 -0.08087552
-0.010821602 -0.124643534 0.070895314 -0.1456487 0.00067699957 0.058045566 -0.17567453 -0.13508324
-0.042414136 0.03584204 -0.12739818 -0.110363565 0.08303736 0.095925115 -0.06340425 -0.06862407
0.07910853 0.10975532 -0.12933408 0.06445435 -0.10071663 0.16052222 0.09075874 0.08551673
-0.15490146 0.3536917 0.14997083 -0.24548686 -0.15576877 -0.007464148 -0.20369971 -0.11435157
-0.32823166 -0.085927024 -0.22739974 -0.15940848 0.05381605 -0.2287566 0.18881194 -0.028715257
0.08978757 -0.3304701 0.13125686 -0.084293336 -0.07599329 0.2226652 0.1718036 0.16916314
0.32975927 0.120247915 0.2869064 -0.17501089 -0.24092205 0.18610974 0.19308256 -0.16212231
0.21319796 0.34185588 -0.11828691 0.046243057 0.0010652706 0.025834717 0.045713767 -0.022543184
-0.22041629 -0.012354325 0.06691292 -0.069362506 -0.24855603 -0.311253 -0.012449573 0.13096161
-0.049069956 -0.09074852 -0.12402268 0.011607826 0.08147087 -0.039792653 -0.12980877 0.06506542
-0.08991076 -0.16417103 0.07398458 0.17014465 0.06551686 -0.1416251 0.08539236 -0.10903618
-0.066691086 -0.14246142 0.03385096 -0.23732473 -0.1258674 -0.02481168 -0.26538423 -0.14386745
0.10676854 -0.12558372 -0.14816189 0.1225324 -0.09915241 0.11866916 -0.14785774 -0.077112496
0.0048013283 -0.04508912 0.09636356 -0.12854111 -0.16904183 0.045474283 -0.08219774 0.0070692496
-0.07753349 0.010246758 -0.07900885 0.05185712 -0.030885892 0.16206439 -0.15162027 -0.11474693
00000000: 0fb2 17be d275 96bd 0489 edbc 893c 883d
00000010: 21bd 1fbe 9cad f53d c249 d1bd 48ad e83d
00000020: ada0 1cbd d43c 503d c00d 3a3e 7d4a 093e
00000030: a96f eebd 5437 37bd 22b9 2c3e f7ca e8bd
00000040: c394 cc3c 1b50 683e 8a62 433a 7ece abbc
00000050: 4c6a bdbd 0cfa 32bd 12cf 813d 204e 4f3e
00000060: f0e4 f6bd f159 1abe 388a 183e 0cfe 85bd
00000070: a480 44be 2eba 5cbd 7e8e 803d 8a9f 593e
00000080: caf2 463e 688b 21be e367 a53c 3a3b 45bd
00000090: ae13 dd3d de19 19be 2e7c 663b 98f7 12be
000000a0: b3f4 393e 4fce d83b 186b 433c 1c87 1ebd
000000b0: ce17 1e3d b187 62be cbf5 d8bd 2d36 afbc
000000c0: 1b50 4dbd 1a1a 42bc dfd5 0a3e ae45 9f3d
000000d0: df49 123e a62a 03bd 8283 f13d 7815 ae3d
000000e0: e31b 8e3c 4da8 c8bd 2e3d 5d3d b4f5 aebd
000000f0: cb5c 21be ff45 db3d d5a1 8b3d b1bc ecbd
00000100: 9ed3 973c a2d0 423e dad1 8d3c 049d ddbc
00000110: 4fae 163e 261a b9bd 1749 27be fcc0 033d
00000120: 1bb8 51be cc30 123d 476b 443c ec0e 0ebe
00000130: 557a 0abe f438 55bd 4371 253e 8dc7 fabc
00000140: 5968 1e3e 3d01 193e 4346 94bd 58f3 94bd
00000150: 922c 5fbc e2c7 d3bd f198 013e 4368 ae3d
00000160: 346a e1bd 0759 d53d e37a d6bd 6ea6 27be
00000170: 0661 fabd c583 11be 6e4f 07bd 0173 26be
00000180: 500d e4bd 8ee5 44be 321a 0b3e e1e2 9e3e
00000190: 2e12 b23d 34b9 043e 5e66 533e 07a0 25be
000001a0: 3842 c1bd eee7 0fbd 1276 18be a868 343d
000001b0: 228e d5bc 10db 7d3d 9d25 9dbd ba39 583e
000001c0: 0e63 ec3c 529d 603d b20c 93bd da77 bbbd
000001d0: 1f3b 19bc 9235 8c3c 947d b03d 0a1c b1bc
000001e0: 36c3 9cbd 0920 f53c afe1 4a3d 22ee 0d3e
000001f0: 314c 45bd 369e 0cba 66c2 813d 16b8 1c3b
00000200: 11dd 88bb 4ea2 363c 016e d4bd 2b07 c4bc
00000210: 38fb 12bc cdff e73d 83fa 36be 11a2 a5bd
00000220: 174d 31bc 1c45 ffbd 9031 913d ef24 15be
00000230: ac78 313a 30c1 6d3d 06e4 33be 4353 0abe
00000240: 72ba 2dbd 1acf 123d ab74 02be 4b06 e2bd
00000250: 7e0f aa3d 6374 c43d 16da 81bd c78a 8cbd
00000260: a703 a23d 66c7 e03d 2770 04be a400 843d
00000270: 8544 cebd f05f 243e b8df b93d 6523 af3d
00000280: 7d9e 1ebe 1417 b53e f491 193e e860 7bbe
00000290: d981 1fbe d095 f4bb a896 50be 2831 eabd
000002a0: fb0d a8be 82fa afbd 7adb 68be fa3b 23be
000002b0: 386e 5c3d 2c3f 6abe eb57 413e 423c ebbc
000002c0: 8ce2 b73d 6033 a9be 3368 063e fca1 acbd
000002d0: 5fa2 9bbd 5902 643e 48ed 2f3e 1a39 2d3e
000002e0: 35d6 a83e 8a44 f63d 65e5 923e 0e36 33be
000002f0: 45b4 76be 8d93 3e3e 6fb7 453e 6403 26be
00000300: 9150 5a3e bc07 af3e 6840 f2bd 5c69 3d3d
00000310: 8da0 8b3a 54a3 d33c 5c3e 3b3d 7cac b8bc
00000320: cfb4 61be cb69 4abc a409 893d ee0d 8ebd
00000330: 7985 7ebe 8e5c 9fbe 4bf9 4bbc cd1a 063e
00000340: 94fd 48bd 5cda b9bd 9aff fdbd c02e 3e3c
00000350: 33da a63d 9ffd 22bd 97ec 04be 0541 853d
00000360: 2223 b8bd 731c 28be 3a85 973d 663a 2e3e
00000370: b42d 863d 2c06 11be 31e2 ae3d 5c4e dfbd
00000380: 5695 88bd 68e1 11be 4ea7 0a3d 4105 73be
00000390: 62e3 00be dd41 cbbc 71e0 87be fd51 13be
000003a0: 77a9 da3d 0599 00be c0b7 17be 44f2 fa3d
000003b0: 6b10 cbbd d108 f33d 0568 17be 28ed 9dbd
000003c0: 7654 9d3b 5eaf 38bd 425a c53d 48a0 03be
000003d0: 4d19 2dbe 3e43 3a3d 4a57 a8bd 2aa5 e73b
000003e0: e1c9 9ebd 05e2 273c 64cf a1bd 2268 543d
000003f0: 6904 fdbc 35f4 253e 5842 1bbe 7000 ebbd

Network_stack.0.0.gru.bias_ih_l0 f4 [96]
0.08791932 0.096698135 -0.1704227 0.19012208 0.14493702 0.0051650503 0.018699836 0.06799783
-0.01057743 0.26328883 -0.040456902 -0.032582395 0.109255895 -0.19097066 -0.23908168 -0.092584416
0.16678452 0.0059701903 0.1582399 0.089672655 -0.13218427 0.041299585 0.07866402 -0.029225277
0.10416115 -0.06636599 -0.1253926 0.005548396 0.02494124 -0.035279147 -0.15094505 -0.04187833
0.0055540493 -0.115241654 -0.40992892 -0.09651067 -0.4445508 -0.47962317 -0.8000574 -0.5095672
0.15404095 -0.23188548 -0.24388114 -0.72532934 -0.71053785 -1.2297772 -0.1416905 -0.15886626
-0.3380596 -0.2650451 -0.4260667 -0.74907917 -0.49377525 -0.2601589 0.10451599 -1.313304
-0.2795181 0.06886103 -0.6539937 0.14480045 -0.3680069 -0.47662655 -0.057220027 0.12356183
-0.12162889 0.16392094 -0.034041293 -0.117271736 -0.14097187 0.2889839 0.052200623 -0.19364424
-0.0023257926 -0.06115278 0.010611072 0.18577518 0.13362317 -0.111837626 -0.034207273 0.09512548
-0.09642319 -0.23080438 -0.07793909 -0.1597784 -0.06371751 -0.109562814 0.12681605 0.19542378
0.011366077 0.09736146 0.12733667 -0.2022044 0.102355614 0.12879258 -0.08930883 -0.09608578
00000000: 0b0f b43d ac09 c63d 4a83 2ebe 5daf 423e
00000010: 5f6a 143e 953f a93b 6630 993c 7242 8b3d
00000020: f54c 2dbc cbcd 863e 23b6 25bd 1e75 05bd
00000030: 8ec1 df3d d08d 43be d4d1 74be e69c bdbd
00000040: 90c9 2a3e 96a1 c33b a409 223e 4ca6 b73d
00000050: 505b 07be c129 293d 9a1a a13d d969 efbc
00000060: 7152 d53d e4ea 87bd eb66 00be 52cf b53b
00000070: 9251 cc3c de80 10bd 5791 1abe 9d88 2bbd
00000080: befe b53b d103 ecbd 34e2 d1be 63a7 c5bd
00000090: 2a9c e3be 2b91 f5be 90d0 4cbf ff72 02bf
000000a0: e9bc 1d3e 6373 6dbe fabb 79be 2faf 39bf
000000b0: cfe5 35bf 5769 9dbf 5017 11be d6ad 22be
000000c0: 2616 adbe feb3 87be 6a25 dabe a7c3 3fbf
000000d0: 1cd0 fcbe 8c33 85be 7b0c d63d 581a a8bf
000000e0: ff1c 8fbe 0307 8d3d 226c 27bf 9246 143e
000000f0: 676b bcbe 6508 f4be 8c5f 6abd fc0d fd3d
00000100: 9118 f9bd e4da 273e e26e 0bbd 2a2c f0bd
00000110: ee5a 10be b3f5 933e 52d0 553d ad4a 46be
00000120: 536c 18bb 567b 7abd 10da 2d3c d93b 3e3e
00000130: 83d4 083e 200b e5bd ed1c 0cbd 26d1 c23d
00000140: 8579 c5bd fc57 6cbe 889e 9fbd f39c 23be
00000150: 537e 82bd 7862 e0bd 11dc 013e 2c1d 483e
00000160: c838 3a3c 7265 c73d 8b64 023e ac0e 4fbe
00000170: d29f d13d 34e2 033e 8ce7 b6bd 9fc8 c4bd

Network_stack.0.0.gru.bias_hh_l0 f4 [96]
-0.0077307303 -0.20495583 -0.1458681 0.0041938713 0.025643112 0.102302246 -0.01860993 0.08517283
0.05469809 0.100861214 -0.20977525 0.10035597 0.06557143 0.05238202 -0.047487088 0.060982656
0.08941234 -0.051930673 -0.05737433 0.04888024 0.10648716 0.0810785 0.21541308 -0.20512484
0.09306029 0.0060412777 0.0781971 -0.06458191 0.18951166 -0.0068010357 -0.12984453 0.124539144
-0.10713008 0.033377632 -0.24365138 0.16247825 -0.5621511 -0.42114863 -0.96681356 -0.39076042
0.071989015 -0.3803537 -0.20142516 -0.8887635 -0.88573897 -1.228818 -0.2465151 0.0065423055
-0.3459038 -0.5712235 -0.5498406 -0.77655816 -0.30045864 -0.44370484 0.25616136 -1.3346287
-0.16867033 -0.017392075 -0.8716577 -0.066457346 -0.30080768 -0.40967098 -0.034677938 -0.2079881
-0.0075214976 -0.12377514 0.0040012486 0.19565201 -0.22429891 -0.031977005 0.14168733 0.007146616
-0.017271465 -0.028852433 -0.123307146 -0.060518067 0.2951509 -0.15263194 0.1318348 -0.07146031
-0.18833956 -0.20423402 -0.047485616 -0.16804245 -0.075130284 -0.15897486 -0.07526936 0.029264063
0.15299283 0.0836327 0.23212478 0.021503244 0.15090895 -0.17512348 0.15221533 0.12753119
00000000: 1152 fdbb f1df 51be 725e 15be be6c 893b
00000010: 8111 d23c d783 d13d da73 98bc 186f ae3d
00000020: 1b0b 603d 5390 ce3d 53cf 56be 6e87 cd3d
00000030: 504a 863d 878e 563d d281 42bd f3c8 793d
00000040: d11d b73d 42b5 54bd 5801 6bbd a636 483d
00000050: f115 da3d 7c0c a63d 3f95 5c3e 3f0c 52be
00000060: 6596 be3d e9f5 c53b cd25 a03d 8543 84bd
00000070: 580f 423e 39db debb f7f5 04be 610e ff3d
00000080: 0467 dbbd fcb6 083d bf7f 79be b360 263e
00000090: 22e9 0fbf cba0 d7be 1881 77bf c011 c8be
000000a0: fa6e 933d b8bd c2be 6642 4ebe 0186 63bf
000000b0: cabf 62bf e949 9dbf 746e 7cbe d660 d63b
000000c0: 4e1a b1be b43b 12bf 5bc2 0cbf 84cc 46bf
000000d0: b7d5 99be 482d e3be 9527 833e 1dd5 aabf
000000e0: eab7 2cbe d379 8ebc f624 5fbf ca1a 88bd
000000f0: 7703 9abe 65c0 d1be 740a 0ebd d5fa 54be
00000100: e576 f6bb d27d fdbd e81c 833b 0059 483e
00000110: 9dae 65be 52fa 02bd 7c16 113e 292e ea3b
00000120: e37c 8dbc f05b ecbc 7588 fcbd cbe1 77bd
00000130: 051e 973e 8c4b 1cbe b4ff 063e c859 92bd
00000140: 16dc 40be b922 51be 4780 42bd 5213 2cbe
00000150: e8dd 99bd 4eca 22be d226 9abd 30bb ef3c
00000160: 27aa 1c3e 9f47 ab3d 1eb2 6d3e 9227 b03c
00000170: e087 1a3e 9253 33be 56de 1b3e 8997 023e

Network_stack.0.0.gru.weight_ih_l1 f4 [96, 32]
-0.04498773 0.21980618 -0.18659659 -0.2509974 0.12902842 -0.03234906 0.24330978 -0.0611186
-0.28656664 0.4681576 0.02491215 0.1442396 -0.14884956 -0.25989926 -0.06488969 -0.07974082
0.20693177 -0.05988792 0.35696518 -0.10782283 -0.19061266 0.16561262 0.16415384 0.042425755
0.1835711 -0.01593406 0.16283183 -0.04938588 -0.13141945 0.06300796 -0.13492109 -0.39211592
-0.24086201 0.13612336 -0.12041075 -0.1269739 -0.23960546 0.14071988 0.05356632 0.01615441
-0.19879125 0.24803446 -0.0007465735 0.031597145 -0.14724141 -0.44185677 0.04239616 0.05793833
0.4205238 -0.07355546 0.26114693 -0.042393498 0.020639941 0.32347304 0.30300045 0.077086054
0.2757995 0.12063267 0.24060576 -0.029431954 0.37612075 0.07291274 -0.20970759 -0.31472287
-0.0016914908 0.26060236 -0.21041325 -0.36330733 -0.39585763 0.08576053 0.4027219 -0.14548701
0.01651838 0.11402525 -0.009406787 0.3096618 0.0878834 -0.84657043 -0.12096698 -0.123720154
-0.107354745 -0.41072485 -0.056279115 0.008974476 0.046051506 -0.20245913 -0.050544836 0.7584124
0.4024878 -0.16966315 0.44502124 -0.21522157 0.30877668 -0.17993848 -0.29595754 -0.49177057
0.15596469 -0.1695841 -0.047128808 0.12556398 -0.08773757 -0.15695757 0.34247828 -0.14703551
0.26838052 -0.17975031 -0.007863077 0.09961909 -0.103016615 0.06784792 -0.015573018 -0.15321618
0.097986065 0.0061872876 0.051295433 0.16631466 0.0393293 0.10433206 -0.18690632 0.121854015
-0.16843918 0.0065971585 0.020775378 0.038925216 -0.005014045 -0.26741138 -0.13412504 -0.12721266
-0.08524458 -0.11689289 0.081515215 0.11314349 0.020232543 0.14033231 -0.38909486 -0.02901693
-0.27456012 -0.12371854 -0.06576547 -0.2669439 0.22958723 0.19742711 -0.05603584 0.07636496
0.038430728 0.06424129 0.008393771 -0.31115356 -0.099863425 0.12609237 0.26918548 -0.529135
0.0837189 0.052299842 -0.3553786 -0.16562498 -0.14386407 0.08149679 -0.09637672 0.010099437
-0.03975177 0.015305541 0.2129131 -0.25805292 -0.030914562 0.11152606 -0.16711873 -0.15874204
-0.06778402 0.12818433 0.019454064 -0.14937915 -0.035023645 -0.008145776 0.27897164 -0.104869604
-0.028238354 -0.22791778 0.049290664 -0.16637275 -0.30251324 -0.040665634 -0.018839482 -0.043352626
0.2122888 -0.07411312 -0.14220203 0.008504049 0.0004359256 0.30747002 -0.12348805 -0.024164904
-0.015537421 0.19000597 0.08543379 -0.0865154 0.14757463 0.0593356 0.04472175 -0.11140689
-0.008814857 0.20048828 -0.042765576 -0.10803362 -0.1945833 0.11933466 -0.081693254 0.124328405
-0.08071501 -0.17971411 -0.071816005 -0.010757381 -0.027481785 -0.053233624 -0.0114981085 0.14590897
-0.0024005545 -0.05145762 -0.13800088 -0.15102309 0.043966915 -0.0706718 0.042593155 -0.09303371
0.12416066 -0.047837052 -0.12076791 0.09207409 0.054932427 0.082978785 -0.027148435 -0.1613519
-0.055941153 -0.160801 -0.16930752 0.029854378 0.1973316 0.14046209 0.1469539 -0.12095943
0.13194595 0.037784398 -0.28784996 -0.054764602 -0.19042149 0.1596463 -0.028365893 0.044902664
0.111949585 0.088482164 -0.08611202 0.08036814 0.03899413 0.20040736 -0.03204127 0.022396982
00000000: 0e45 38bd df14 613e 2d13 3fbe bb82 80be
00000010: 0720 043e 7380 04bd 3326 793e 7f57 7abd
00000020: ddb8 92be 5ab2 ef3e 9114 cc3c 8cb3 133e
00000030: 056c 18be 8411 85be e3e4 84bd 284f a3bd
00000040: ece5 533e 094d 75bd 24c4 b63e 37d2 dcbd
00000050: f72f 43be 5b96 293e f217 283e a1c6 2d3d
00000060: 10fa 3b3e 2588 82bc 63bd 263e d948 4abd
00000070: d292 06be 510a 813d c128 0abe 6bc3 c8be
00000080: 88a4 76be ec63 0b3e e999 f6bd 7205 02be
00000090: 225b 75be df18 103e 5c68 5b3d 4156 843c
000000a0: ef8f 4bbe bffc 7d3e b3b5 43ba 026c 013d
000000b0: 74c6 16be 0d3b e2be 99a7 2d3d be50 6d3d
000000c0: e54e d73e 3fa4 96bd 0db5 853e cea4 2dbd
000000d0: 1815 a93c 429e a53e e022 9b3e 4bdf 9d3d
000000e0: 9835 8d3e 430e f73d 5b61 763e 481b f1bc
000000f0: e692 c03e 4653 953d 96bd 56be 5b23 a1be
00000100: 03b5 ddba ac6d 853e 9276 57be 6b03 babe
00000110: daad cabe 37a3 af3d 9131 ce3e 8cfa 14be
00000120: 8e51 873c 1286 e93d ed1e 1abc fe8b 9e3e
00000130: 36fc b33d d7b8 58bf 89bd f7bd fe60 fdbd
00000140: cedc dbbd 874a d2be ee84 66bd ae09 133c
00000150: 81a0 3c3d 7251 4fbe 1a08 4fbd 5127 423f
00000160: e212 ce3e 2dbc 2dbe d3d9 e33e 0b63 5cbe
00000170: fa17 9e3e cb41 38be bf87 97be 5ac9 fbbe
00000180: 35b5 1f3e 74a7 2dbe 230a 41bd d893 003e
00000190: c1af b3bd 7cb9 20be 5059 af3e 7a90 16be
000001a0: 2c69 893e 7710 38be 23d4 00bc 1805 cc3d
000001b0: 60fa d2bd daf3 8a3d f925 7fbc b4e4 1cbe
000001c0: ebac c83d bbbe ca3b 291b 523d 644e 2a3e
000001d0: c317 213d 0cac d53d 5f64 3fbe 998e f93d
000001e0: 527b 2cbe fa2c d83b 2031 aa3c 0c70 1f3d
000001f0: dc4c a4bb 25ea 88be 1358 09be 0944 02be
00000200: b694 aebd 8a65 efbd 73f1 a63d c6b7 e73d
00000210: b8be a53c 46b3 0f3e 7137 c7be eab4 edbc
00000220: 2593 8cbe 2560 fdbd 0cb0 86bd dfac 88be
00000230: ea18 6b3e 552a 4a3e d685 65bd 3b65 9c3d
00000240: 8a69 1d3d f090 833d 0786 093c 854f 9fbe
00000250: 3285 ccbd 5c1e 013e aed2 893e 6475 07bf
00000260: d174 ab3d 5c38 563d 2ff4 b5be 9899 29be
00000270: 1a51 13be cae7 a63d 2861 c5bd 1c78 253c
00000280: c1d2 22bd 18c4 7a3c e405 5a3e 831f 84be
00000290: 8940 fdbc c667 e43d 2c21 2bbe 468d 22be
000002a0: 59d2 8abd c142 033e 215e 9f3c d9f6 18be
000002b0: f474 0fbd dc75 05bc 5fd5 8e3e e0c5 d6bd
000002c0: 1f54 e7bc 4763 69be 02e5 493d 9e5d 2abe
000002d0: 04e3 9abe 0291 26bd 4255 9abc 8692 31bd
000002e0: 3c62 593e 9fc8 97bd 699d 11be 9154 0b3c
000002f0: f28c e439 b66c 9d3e 4ee7 fcbd 7af5 c5bc
00000300: ab90 7ebc ed90 423e e9f7 ae3d fc2e b1bd
00000310: ce1d 173e e309 733d 272e 373d 4c29 e4bd
00000320: 316c 10bc cd4c 4d3e f52a 2fbd bb40 ddbd
00000330: d840 47be bb65 f43d cb4e a7bd e49f fe3d
00000340: e94d a5bd fa06 38be 4514 93bd ba3f 30bc
00000350: 7b21 e1bc 800b 5abd 9062 3cbc 2969 153e
00000360: 9f52 1dbb 3ac5 52bd 1a50 0dbe cca5 1abe
00000370: a716 343d 60bc 90bd 2976 2e3d 7588 bebd
00000380: f247 fe3d c9f0 43bd 2a55 f7bd 5791 bc3d
00000390: d300 613d c8f0 a93d 6566 debc 6f39 25be
000003a0: 8d22 65bd 04a9 24be f35e 2dbe 2b91 f43c
000003b0: 4c11 4a3e 4bd5 0f3e 157b 163e 94b9 f7bd
000003c0: d71c 073e d0c3 1a3d 1261 93be d950 60bd
000003d0: dafd 42be 527a 233e 975f e8bc dbeb 373d
000003e0: d345 e53d 2336 b53d 805b b0bd 0d98 a43d
000003f0: 4fb8 1f3d 9637 4d3e b53d 03bd e079 b73c

Network_stack.0.0.gru.weight_hh_l1 f4 [96, 32]
-0.14024067 -0.08568789 0.18672189 0.06244663 -0.15507394 -0.105815955 0.08017085 -0.29796132
0.010967345 0.3282874 -0.11116347 -0.384791 0.33383256 -0.038995262 -0.3458194 -0.030019294
-0.044175684 -0.0021908802 -0.04003372 -0.1324222 0.1709712 -0.03379314 -0.06404119 0.016916255
0.070560865 0.008737414 -0.003571007 0.029296072 -0.021322384 0.014455473 0.51751536 -0.027734572
-0.16183409 -0.17393897 0.124969035 0.11410671 -0.18763964 -0.2773359 0.20836537 0.24454856
-0.1849351 0.034709 -0.3596739 0.28751373 0.06591669 -0.07339445 0.22595407 -0.29360995
0.072842605 0.34890157 -0.32016027 0.32548612 0.39221507 0.36073068 -0.041274905 0.00522017
0.13481839 0.07363796 0.109832875 0.03666991 0.15458718 0.24194524 -0.062869675 -0.18439314
-0.3014322 -0.388127 0.43154168 0.25385314 -0.17579904 -0.36046606 0.14325063 -0.45968226
-0.07513555 0.20184037 -0.26725513 -0.5213525 0.45304587 0.10568663 -0.6262665 -0.045044575
0.10148739 -0.42540005 0.3253526 0.04398385 -0.27424332 -0.17347075 0.034066807 0.047864422
-0.27521825 -0.46550882 0.011922546 0.19149366 -0.4306508 0.16709222 0.50216943 -0.35795933
0.03674693 0.041666925 -0.35325778 -0.027278118 -0.14253157 0.1828109 -0.023258068 0.010056936
0.27554798 0.10557743 0.120605424 -0.116324544 -0.0436742 -0.27939522 -0.017123453 0.15674694
0.1524387 0.009862748 -0.10908585 -0.09478021 0.119292326 0.046514045 0.05261501 0.1143847
-0.12289453 -0.074334435 0.0184566 -0.290909 0.09408434 -0.19048415 -0.13426471 -0.03790105
0.10620965 0.031780448 0.08209756 -0.1314102 -0.056982324 0.4955881 0.18546265 0.34403172
0.039215907 -0.117749065 -0.19617242 0.3783304 0.06626809 0.09913276 0.208077 -0.31605613
-0.18299113 0.23222703 0.1151249 0.3529373 -0.09787924 0.2139975 0.16613397 0.11633622
-0.047343906 0.45666236 -0.0015289987 -0.14558741 0.48547783 -0.03394359 -0.2730489 -0.03992058
0.31771472 -0.33578566 -0.15545811 -0.16914932 -0.26418757 -0.09543096 0.16852957 0.20396529
-0.35852137 0.08966137 -0.19782107 -0.21890587 -0.085470594 -0.18370005 -0.042316757 -0.029241992
-0.23825003 0.18280268 0.1406519 0.16694567 0.14445648 0.13280499 -0.23518398 -0.16291156
0.24537033 0.25924233 0.25456613 -0.1596974 0.078952156 0.311833 -0.14623947 -0.07877833
0.15526766 -0.09518074 -0.08760095 0.1862949 -0.14334024 0.013630515 0.01619059 -0.1280503
-0.18576251 -0.060676422 -0.046386067 -0.059354056 0.18360524 -0.17387092 0.20012885 0.32420918
0.10956488 0.0785043 0.15594721 -0.026026722 -0.03023326 -0.07416887 0.021645967 0.1327891
-0.064685516 -0.039949857 -0.16855223 0.15844539 -0.13053782 0.13935997 -0.06553555 0.045399647
0.0603293 -0.044812657 0.16506962 0.007422284 -0.029256914 -0.049731046 -0.019181203 0.12453923
-0.035485007 0.15379164 -0.17584601 0.051173363 0.06109049 -0.0050873407 -0.048666764 0.14234912
0.054563943 -0.025453808 0.08409039 0.0153304795 -0.008601731 0.059442963 0.14456037 -0.008534986
-0.13159685 0.16207737 -0.039943866 -0.24907406 0.15872963 0.1368877 0.14548339 -0.13683811
00000000: 409b 0fbe 227d afbd 0634 3f3e 0ac8 7f3d
00000010: b4cb 1ebe 09b6 d8bd 9d30 a43d 638e 98be
00000020: 61b0 333c 4915 a83e aca9 e3bd 5303 c5be
00000030: 1aec aa3e 7fb9 1fbd 3e0f b1be 06eb f5bc
00000040: 90f1 34bd df94 0fbb 66fa 23bd af99 07be
00000050: 1313 2f3e ad6a 0abd 0728 83bd f593 8a3c
00000060: 3782 903d 5f27 0f3c 8e07 6abb 51fe ef3c
00000070: 48ac aebc a6d6 6c3c e37b 043f 9d33 e3bc
00000080: d6b7 25be 0f1d 32be c4ef ff3d c7b0 e93d
00000090: 9b24 40be f9fe 8dbe bb5d 553e f06a 7a3e
000000a0: a05f 3dbe 062b 0e3d 2d27 b8be 0035 933e
000000b0: 54ff 863d d44f 96bd 8160 673e 0b54 96be
000000c0: 812e 953d 3aa3 b23e 0cec a3be 1ea6 a63e
000000d0: 6ad0 c83e b1b1 b83e e00f 29bd f60d ab3b
000000e0: d50d 0a3e 80cf 963d 0ff0 e03d 3033 163d
000000f0: 1a4c 1e3e 7ec0 773e d1c1 80bd 8ed1 3cbe
00000100: 5255 9abe 95b8 c6be 08f3 dc3e 0af9 813e
00000110: aa04 34be 028f b8be 4bb0 123e 795b ebbe
00000120: abe0 99bd 3eaf 4e3e aad5 88be 5c77 05bf
00000130: a1f5 e73e 3b72 d83d 0053 20bf a980 38bd
00000140: 9fd8 cf3d 09ce d9be 9e94 a63e 6928 343d
00000150: 9f69 8cbe 51a2 31be a389 0b3d 7c0d 443d
00000160: 68e9 8cbe 2c57 eebe c856 433c ea16 443e
00000170: 437e dcbe 391a 2b3e 2d8e 003f 7246 b7be
00000180: f383 163d f0aa 2a3d 34de b4be 5c76 dfbc
00000190: ccf3 11be c832 3b3e b487 bebc d9c5 243c
000001a0: a014 8d3e fb38 d83d faff f63d 903b eebd
000001b0: b8e3 32bd e40c 8fbe 7c46 8cbc 4582 203e
000001c0: e418 1c3e 5d97 213c 6768 dfbd 201c c2bd
000001d0: 894f f43d 8385 3e3d d682 573d 8742 ea3d
000001e0: 21b0 fbbd a73c 98bd 4c32 973c 06f2 94be
000001f0: 4aaf c03d 470e 43be b07c 09be 223e 1bbd
00000200: 7284 d93d 372c 023d c422 a83d 6590 06be
00000210: 4c66 69bd b9bd fd3e ece9 3d3e ed24 b03e
00000220: dca0 203d 6c26 f1bd 6ce1 48be 86b4 c13e
00000230: 90b7 873d 1e06 cb3d 2312 553e 1cd2 a1be
00000240: 0762 3bbe eccc 6d3e 9bc6 eb3d 33b4 b43e
00000250: e974 c8bd 2922 5b3e 061f 2a3e af41 ee3d
00000260: afeb 41bd a6cf e93e af68 c8ba de14 15be
00000270: 8d90 f83e 6f08 0bbd 11cd 8bbe c383 23bd
00000280: 81ab a23e 19ec abbe 6930 1fbe 7b35 2dbe
00000290: 9843 87be 4f71 c3bd 0493 2c3e 47dc 503e
000002a0: 1d90 b7be 61a0 b73d 9b91 4abe dc28 60be
000002b0: 350b afbd de1b 3cbe 5654 2dbd e78c efbc
000002c0: d1f7 73be a030 3b3e 0d07 103e cef3 2a3e
000002d0: 66ec 133e 08fe 073e 12d4 70be 4ad2 26be
000002e0: 5c42 7b3e 69bb 843e 7e56 823e b787 23be
000002f0: abb1 a13d 93a8 9f3e cdbf 15be 8856 a1bd
00000300: 7cfe 1e3e 1fee c2bd 2068 b3bd 17c4 3e3e
00000310: c9c7 12be 8652 5f3c 21a2 843c 9e1f 03be
00000320: 8738 3ebe d787 78bd 51ff 3dbd 3d1d 73bd
00000330: 0303 3c3e 380b 32be 94ee 4c3e bffe a53e
00000340: 8d63 e03d ddc6 a03d a0b0 1f3e fe35 d5bc
00000350: beab f7bc d9e5 97bd e252 b13c def9 073e
00000360: d779 84bd 76a2 23bd f598 2cbe 823f 223e
00000370: b5ab 05be 61b4 0e3e 8137 86bd fbf4 393d
00000380: db1b 773d 7a8d 37bd 0308 293e a236 f33b
00000390: 32ac efbc c8b2 4bbd e621 9dbc 6c0e ff3d
000003a0: ba58 11bd 8e7b 1d3e fa10 34be 299b 513d
000003b0: 063a 7a3d b5b3 a6bb cd56 47bd f8c3 113e
000003c0: 717e 5f3d 8184 d0bc 9537 ac3d b12c 7b3c
000003d0: 46ee 0cbc 777a 733d a207 143e 53d6 0bbc
000003e0: 53c1 06be 9cf7 253e 2e9c 23bd 450d 7fbe
000003f0: 058a 223e 4a2c 0c3e 99f9 143e 4a1f 0cbe

Network_stack.0.0.gru.bias_ih_l1 f4 [96]
-0.012328591 0.17234492 0.15129153 0.0938238 0.035233386 0.02371931 -0.13684885 0.13312662
0.04603971 -0.10209436 -0.024182953 -0.030907562 0.07078961 -0.018819558 0.09878123 -0.12439519
0.30729255 -0.08710642 -0.008390574 0.051434543 0.034989282 0.104017615 0.18365243 0.030265396
0.06296787 0.14365384 0.167115 0.030988488 -0.14444901 0.18902166 0.023849748 -0.09019722
-0.9552269 -0.6063076 -1.8551924 -0.81089634 0.06244097 -0.48460424 0.09740166 -0.17483589
-0.0020076726 -0.21848053 0.05007343 -0.10753427 0.45707762 -0.7624969 -0.28775284 0.49667588
-0.20828299 -0.13524337 -0.021540139 -0.55130124 0.19604988 0.03586135 -0.5216522 -0.2894895
-0.51758486 -0.38286743 0.035858423 -0.13682052 -0.06895457 0.100127585 -0.45928314 0.23900169
0.081294 0.012986508 0.17128742 0.13215813 -0.11256626 -0.19822277 0.101984814 -0.15442544
-0.028268589 0.15246275 -0.00015294933 -0.0827657 0.19691135 0.28856984 -0.07258924 -0.0930053
0.14680806 0.16179432 -0.040924877 0.004797033 0.17722495 -0.07037859 0.19120008 0.18229365
-0.11656681 -0.039485887 -0.1041229 0.052535493 -0.08623422 0.005767019 0.22218691 -0.1758468
00000000: dcfd 49bc 307b 303e 2bec 1a3e b126 c03d
00000010: e250 103d 004f c23c 1b22 0cbe 5852 083e
00000020: 2394 3c3d d916 d1bd 541b c6bc db31 fdbc
00000030: 25fa 903d 792b 9abc d04d ca3d e8c2 febd
00000040: 7355 9d3e da64 b2bd 9e78 09bc 07ad 523d
00000050: ec50 0f3d 3007 d53d 620f 3c3e 23ef f73c
00000060: 4cf5 803d fe19 133e 3220 2b3e 92db fd3c
00000070: 71ea 13be e58e 413e 8c60 c33c 52b9 b8bd
00000080: c089 74bf fa36 1bbf f276 edbf e796 4fbf
00000090: 1ac2 7f3d 0c1e f8be 867a c73d 2e08 33be
000000a0: 2893 03bb 5cb9 5fbe cc19 4d3d ed3a dcbd
000000b0: 1406 ea3e ff32 43bf 5754 93be 4d4c fe3e
000000c0: 2348 55be 3d7d 0abe f274 b0bc 1422 0dbf
000000d0: 4dc1 483e 5ae3 123d 008b 05bf f837 94be
000000e0: 7180 04bf 3307 c4be 48e0 123d ae1a 0cbe
000000f0: 0e38 8dbd b10f cd3d 2927 ebbe dcbc 743e
00000100: 787d a63d 5dc5 543c f865 2f3e 7654 073e
00000110: 2489 e6bd e9fa 4abe 6add d03d b421 1ebe
00000120: 8793 e7bc 321f 1c3e 0661 20b9 1081 a9bd
00000130: 21a3 493e 6dbf 933e aba9 94bd 9079 bebd
00000140: da54 163e 69ad 253e d8a0 27bd 6e30 9d3b
00000150: 757a 353e a622 90bd f4c9 433e 30ab 3a3e
00000160: 94ba eebd f4bb 21bd 633e d5bd 752f 573d
00000170: 919b b0bd 43f9 bc3b f784 633e 2f11 34be

Network_stack.0.0.gru.bias_hh_l1 f4 [96]
0.22216079 0.23028362 0.22765951 -0.06431828 0.066212185 0.06685415 -0.105997995 -0.0046086535
0.2353395 0.01276253 0.027348056 -0.08003699 0.15770353 0.20758507 -0.04374555 0.07399264
0.34743834 -0.12670137 -0.03035706 -0.015838286 0.19632728 -0.08945674 0.094010435 0.19004887
0.057971884 -0.083104774 -0.06253633 0.06901591 0.031655084 0.095956914 -0.1267346 -0.0064159897
-0.9824093 -0.55638194 -2.0052855 -0.7589646 0.13279948 -0.59506035 0.033888098 0.08996978
0.068855315 -0.32617608 0.05895959 -0.096481495 0.5452746 -0.52836263 -0.1191586 0.30975047
-0.35387304 0.064204015 0.12404709 -0.5664147 0.22941048 -0.06207949 -0.6081238 -0.008579161
-0.315213 -0.39861378 -0.16930817 -0.09871132 -0.114078596 0.08160821 -0.4874565 0.22898847
-0.092638865 -0.18963663 0.31602272 0.11758879 -0.19960567 -0.21349005 -0.037990686 -0.09225085
0.09967228 -0.022709563 -0.210481 -0.12818526 0.15828739 0.009589344 -0.027074622 -0.19327062
0.17817234 -0.11595907 0.023801642 0.111780226 -0.000115953146 0.13327932 0.054658834 0.17079581
-0.06380826 0.17401871 -0.16193244 0.09394043 0.044657853 0.049961984 0.08842682 0.08007438
00000000: 1e7e 633e 78cf 6b3e 931f 693e 4db9 83bd
00000010: 419a 873d d4ea 883d 7a15 d9bd 3004 97bb
00000020: d6fc 703e ee19 513c 0809 e03c 6fea a3bd
00000030: 097d 213e 2e91 543e 892e 33bd 7489 973d
00000040: 70e3 b13e 01be 01be 5eaf f8bc 4bbf 81bc
00000050: 050a 493e 1835 b7bd 8b88 c03d 2c9c 423e
00000060: ed73 6d3d d632 aabd 0c13 80bd 3758 8d3d
00000070: c3a8 013d 0f85 c43d b7c6 01be 393d d2bb
00000080: 2d7f 7bbf 0c6f 0ebf 9956 00c0 814b 42bf
00000090: 96fc 073e e055 18bf 3fce 0a3d 1342 b83d
000000a0: 0404 8d3d 8d00 a7be 9c7f 713d 1798 c5bd
000000b0: 1e97 0b3f c642 07bf 6d09 f4bd 9d97 9e3e
000000c0: d92e b5be 657d 833d 670c fe3d 8e00 11bf
000000d0: 95ea 6a3e 1047 7ebd 00ae 1bbf 9c8f 0cbc
000000e0: 9963 a1be 1b17 ccbe 1f5f 2dbe 2929 cabd
000000f0: 0aa2 e9bd 3522 a73d e693 f9be f47b 6a3e
00000100: 72b9 bdbd 1b30 42be bbcd a13e 64d2 f03d
00000110: 6e65 4cbe 239d 5abe 1f9c 1bbd 03ee bcbd
00000120: fb20 cc3d 6809 babc 5588 57be ff42 03be
00000130: 1716 223e a01c 1d3c 99cb ddbc bce8 45be
00000140: cf72 363e f37b edbd a9fb c23c 08ed e43d
00000150: df2b f3b8 607a 083e f1e1 5f3d 19e5 2e3e
00000160: e8ad 82bd f631 323e 9ed1 25be d763 c03d
00000170: 27eb 363d f0a4 4c3d 1f19 b53d 09fe a33d

Network_stack.1.0.gru.weight_ih_l0 f4 [96, 2]
-0.2472359 -0.32241753 -0.053950135 -0.27202517 0.05104938 -0.0024235188 -0.36897826 -0.15379731
0.07607511 -0.21118534 -0.21856993 -0.034297742 0.2504571 0.21489647 0.16715035 0.017653711
0.034200355 0.19462362 0.0055174883 -0.09955969 -0.17575586 -0.33759585 0.12841575 -0.38537142
-0.12278175 0.2697159 0.036252372 0.049258478 0.22450298 0.15559582 0.14775075 -0.0825258
-0.33172613 -0.1993819 0.07876173 -0.29373884 -0.12180037 -0.05964018 -0.15628853 0.21222524
0.026165457 -0.3231357 -0.03680864 -0.17669617 -0.046115573 0.0833075 -0.18674454 -0.011648628
-0.12907827 0.062639125 0.06665673 -0.24042104 -0.047441512 0.011548434 0.0091853505 0.08947959
-0.21190745 -0.14701545 0.0018917177 -0.119074486 0.20825058 0.2729146 -0.11678673 -0.40259132
-0.34032995 0.02239056 -0.43365312 -0.6671009 -0.6794136 -0.35296476 0.1296982 -0.14234321
0.12751557 0.20751671 -0.15952513 -0.4829306 0.12784311 -0.099020675 -0.03514365 -0.73941207
0.08151551 0.111057416 -0.3741177 0.037997674 -0.48505783 -0.28111407 -0.44685343 -0.6596236
-0.7107989 -0.57547885 -0.49645707 -0.2953039 -0.4276886 -0.4162736 -0.48424128 -0.26388967
0.04004153 -0.15478435 -0.072382905 -0.17783993 -0.16378014 -0.39534932 -0.5723638 -0.93656564
-0.20806853 0.20626381 -0.12505487 -0.50771236 0.10590099 0.16036293 -0.038876064 -0.83109266
-0.08700886 0.075680405 0.062129486 -0.31120017 -0.24749729 -0.46318808 0.30565363 -0.68268555
-0.7465966 -0.8236627 -0.293524 -0.016021928 0.16292661 0.37536743 -0.23821999 -0.38439152
0.18368304 0.29268333 0.025837697 0.3156735 -0.0735648 -0.20861873 -0.23651768 -0.079590835
0.06199247 -0.20801951 0.22317028 0.1764833 0.076773345 -0.09479852 -0.103944905 0.21715885
-0.011652276 -0.011677995 0.1003087 -0.016096203 0.04617052 -0.31248757 0.04163323 0.31899723
0.09279495 0.3648184 0.05259151 0.19013885 0.09356082 0.1260701 0.086786404 -0.25236696
-0.2259343 -0.18880527 -0.054230522 0.35870805 0.039532296 -0.23398264 0.06861752 0.24493098
-0.04338077 0.22693375 0.13155715 -0.36497727 0.21437943 -0.21109971 0.0001999898 -0.0033665819
0.0011902424 0.0090885945 0.043992873 -0.29621527 -0.10092235 -0.3657739 -0.07294802 0.17516312
-0.08597542 0.30783278 -0.040748276 0.13538477 0.10118501 0.027016101 0.13924512 0.34725237
00000000: 682b 7dbe e913 a5be d1fa 5cbd e246 8bbe
00000010: 2819 513d e6d3 1ebb b8ea bcbe 0b7d 1dbe
00000020: 44cd 9b3d f840 58be ccd0 5fbe ca7b 0cbd
00000030: ea3b 803e d20d 5c3e 7629 2b3e 849e 903c
00000040: ac15 0c3d 6a4b 473e 0ccc b43b f3e5 cbbd
00000050: 58f9 33be 5dd9 acbe 6b7f 033e 674f c5be
00000060: 0075 fbbd 3418 8a3e 5e7d 143d 42c3 493d
00000070: 1ce4 653e 8354 1f3e f94b 173e 4903 a9bd
00000080: 02d8 a9be c52a 4cbe d44d a13d f064 96be
00000090: 7972 f9bd 4349 74bd 1a0a 20be 9351 593e
000000a0: f158 d63c 0b72 a5be a8c4 16bd d7ef 34be
000000b0: afe3 3cbd 1f9d aa3d f639 3fbe e3d9 3ebc
000000c0: 182d 04be f148 803d 5383 883d ef30 76be
000000d0: 0852 42bd a535 3d3c 277e 163c 1341 b73d
000000e0: 44fe 58be 388b 16be 83f3 f73a 53dd f3bd
000000f0: a43f 553e 76bb 8b3e e22d efbd 7320 cebe
00000100: ba3f aebe 686c b73c c807 debe 20c7 2abf
00000110: 0dee 2dbf ccb7 b4be 9bcf 043e 6bc2 11be
00000120: 7193 023e 437f 543e 8e5a 23be ae42 f7be
00000130: 4ee9 023e 5acb cabd caf2 0fbd 1c4a 3dbf
00000140: 9bf1 a63d 1272 e33d 5b8c bfbe 73a3 1b3d
00000150: 8059 f8be 2fee 8fbe f9c9 e4be 18dd 28bf
00000160: ebf6 35bf 9552 13bf 9f2f febe 1332 97be
00000170: 00fa dabe d021 d5be 79ee f7be 8c1c 87be
00000180: 9602 243d ca7f 1ebe 7d3d 94bd ac1b 36be
00000190: fbb5 27be 3a6b cabe 6f86 12bf c4c2 6fbf
000001a0: eb0f 55be d236 533e 620e 00be 70f9 01bf
000001b0: 9ee2 d83d 2e36 243e 823c 1fbd 7dc2 54bf
000001c0: b431 b2bd 54fe 9a3d 7d7b 7e3d a155 9fbe
000001d0: ee6f 7dbe fd26 edbe a27e 9c3e 7bc4 2ebf
000001e0: f420 3fbf 8fdb 52bf c748 96be 6b40 83bc
000001f0: 3cd6 263e 2930 c03e f1ef 73be f7ce c4be
00000200: 6817 3c3e 97da 953e 94a9 d33c f59f a13e
00000210: 24a9 96bd 26a0 55be b131 72be 8500 a3bd
00000220: d1eb 7d3d 1103 55be c086 643e 0ab8 343e
00000230: 583b 9d3d ba25 c2bd 11e1 d4bd e45e 5e3e
00000240: 30e9 3ebc 1055 3fbc a66e cd3d 2fdc 83bc
00000250: 4d1d 3d3d 5ffe 9fbe 9b87 2a3d 9b53 a33e
00000260: 470b be3d 7ac9 ba3e 326a 573d c2b3 423e
00000270: d19c bf3d 8518 013e 12bd b13d 3e36 81be
00000280: 525b 67be 2b56 41be d320 5ebd 95a8 b73e
00000290: 9eec 213d 2599 6fbe 5887 8c3d 30cf 7a3e
000002a0: 09b0 31bd 5261 683e ebb6 063e 4dde babe
000002b0: 4886 5b3e 862a 58be 5ab4 5139 dfa1 5cbb
000002c0: e801 9c3a 54e8 143c df31 343d 87a9 97be
000002d0: 61b0 cebd b746 bbbe c665 95bd f65d 333e
000002e0: e213 b0bd 429c 9d3e aae7 26bd 4ea2 0a3e
000002f0: 163a cf3d df50 dd3c 4696 0e3e 10cb b13e

Network_stack.1.0.gru.weight_hh_l0 f4 [96, 32]
-0.22511438 0.20771198 -0.08860685 0.12651798 -0.32827967 -0.007948786 -0.50643736 0.41738024
-0.40102732 0.24916211 -0.07397261 -0.108735554 0.00812505 -0.0925561 -0.09639523 -0.35873228
0.047587365 0.35238284 0.07500001 0.0017419404 0.20443065 -0.31706384 -0.084119625 0.021705385
-0.03669621 -0.19756295 0.020031445 0.16038936 -0.093807235 -0.048503313 -0.12373237 -0.043759707
-0.19355384 -0.050234824 0.1660144 0.11640925 0.22023137 -0.15596627 0.2079612 -0.09104917
-0.038578838 -0.17120424 0.26983026 -0.3324951 0.041897506 0.10566099 -0.17732006 -0.1395143
0.25090095 -0.14954391 0.007181635 -0.0063960953 -0.09484642 0.0085203955 -0.1464001 0.15609717
0.018344862 0.07340862 -0.10687672 -0.037910122 0.05376956 0.16359559 -0.035973947 0.113044046
0.016919747 -0.16775894 0.05349116 -0.15783936 0.052579172 0.06527758 0.23528466 0.044029392
0.2320965 -0.16273256 0.1526148 -0.16363668 -0.15900669 0.046925806 0.17755182 0.32509875
0.12612271 -0.04931829 -0.14581665 0.046974473 -0.19851975 0.13266851 0.23441625 -0.07829886
-0.061634492 -0.08041549 0.17398608 0.0036309813 0.03877341 -0.1434257 0.10191366 0.12324149
-0.15206784 0.059418358 0.0112451445 0.12601697 -0.30703026 -0.07199926 -0.10671969 0.40762523
-0.08388044 0.08462659 -0.19076575 0.3242275 0.2193635 -0.19598533 -0.07887074 -0.28059053
-0.06594043 0.1950201 -0.14945132 0.03106685 0.08318665 -0.31709322 -0.18425874 0.050814487
0.21951771 -0.1333191 -0.13975836 0.17429493 0.061863687 0.31186795 -0.32804346 -0.021823626
-0.02672408 0.00094086945 0.043641973 0.45329115 -0.13099839 -0.22985364 0.04061225 -0.15725529
-0.06542021 0.21850751 -0.007804038 -0.16362543 0.058826134 0.104483604 -0.01403113 -0.014862864
0.4639903 0.056704964 -0.08238408 0.10968637 0.12851982 0.15881394 -0.28811723 0.03434244
-0.10304471 0.18548131 0.124336764 -0.05817043 0.14982486 -0.02104746 -0.102476425 -0.20770234
-0.18483756 0.047701485 0.10698045 0.2757528 -0.023711815 -0.11742809 -0.34904385 0.09644867
0.08843084 -0.124564745 0.029903496 -0.044416055 0.035134025 0.026826963 -0.023326432 0.094014056
0.23403996 0.21647069 -0.025829647 -0.0108446 0.19279136 0.05867797 -0.24380288 -0.062173396
0.09657855 0.0042224494 0.031612925 -0.033193912 0.15251982 -0.013368567 -0.08157596 -0.15046473
0.22779572 -0.20929456 -0.08015922 0.05543945 -0.07942529 0.053387333 0.06251683 -0.15882745
0.21539934 -0.1671576 0.09154237 0.007118059 -0.05821727 0.19842643 -0.056758236 0.048373606
0.06705815 -0.265028 0.14462492 -0.15580957 -0.0004472011 -0.013947817 0.28811225 -0.010467007
-0.21209897 0.2192748 0.1544998 0.029485682 -0.11944765 0.040074807 0.16946808 0.16578966
0.20563112 -0.45133752 0.052598782 0.3379124 0.07594655 0.11398467 0.057597935 0.12300645
-0.42397496 0.19651197 0.5680874 -0.36236447 0.041302536 0.19179381 0.003525827 0.18711984
-0.15564772 -0.24566136 -0.22831069 0.19638214 -0.28528205 0.15434693 -0.039282635 0.35138187
-0.042895216 0.17687383 -0.15226491 -0.542844 0.34922776 0.29913187 -0.20684285 -0.015691364
00000000: 6284 66be 73b2 543e 8277 b5bd ee8d 013e
00000010: 4614 a8be a03b 02bc e1a5 01bf ddb2 d53e
00000020: 7453 cdbe 5a24 7f3e f47e 97bd bfb0 debd
00000030: ee1e 053c 0d8e bdbd dd6a c5bd c2ab b7be
00000040: f8ea 423d 866b b43e 9b99 993d d251 e43a
00000050: 4556 513e 3156 a2be e946 acbd 7ecf b13c
00000060: c44e 16bd f14d 4abe fc18 a43c 1c3d 243e
00000070: 021e c0bd 69ab 46bd 6667 fdbd 613d 33bd
00000080: fa32 46be 08c3 4dbd aeff 293e f967 ee3d
00000090: 5584 613e 9fb5 1fbe c8f3 543e fd77 babd
000000a0: d804 1ebd 2a50 2fbe 3127 8a3e cc3c aabe
000000b0: b89c 2b3d ca64 d83d 6493 35be d6dc 0ebe
000000c0: 1776 803e 0a22 19be ec53 eb3b 5696 d1bb
000000d0: d73e c2bd 2199 0b3c e8e9 15be f0d7 1f3e
000000e0: f747 963c 4257 963d 2fe2 dabd a547 1bbd
000000f0: 783d 5c3d 9a85 273e 6b59 13bd a383 e73d
00000100: 489b 8a3c 00c9 2bbe 8c19 5b3d a4a0 21be
00000110: 425d 573d 40b0 853d 76ee 703e 2a58 343d
00000120: b4aa 6d3e 5da3 26be 0e47 1c3e 6090 27be
00000130: a6d2 22be 4635 403d 25d0 353e 5873 a63e
00000140: 5026 013e fa01 4abd f650 15be 4e68 403d
00000150: c348 4bbe 41da 073e d00a 703e 275b a0bd
00000160: 7374 7cbd e0b0 a4bd 6829 323e c2f5 6d3b
00000170: ded0 1e3d 30de 12be 1cb8 d03d 0966 fc3d
00000180: acb7 1bbe aa60 733d 8e3d 383c 980a 013e
00000190: 1233 9dbe 5974 93bd da8f dabd 41b4 d03e
000001a0: 82c9 abbd b550 ad3d 1958 43be 2601 a63e
000001b0: d3a0 603e 61b0 48be fc86 a1bd 90a9 8fbe
000001c0: c70b 87bd 59b3 473e c409 19be e87f fe3c
000001d0: c35d aa3d 0b5a a2be 53ae 3cbe da22 503d
000001e0: 40c9 603e cd84 08be d11c 0fbe 5f7a 323e
000001f0: c764 7d3d 28ad 9f3e 50f5 a7be 76c7 b2bc
00000200: 75ec dabc aea4 763a edc1 323d c715 e83e
00000210: 7124 06be c15e 6bbe 0859 263d 8807 21be
00000220: 08fb 85bd 6fc0 5f3e 04b9 ffbb 6d8d 27be
00000230: acf3 703d 80fb d53d d3e2 65bc 5f83 73bc
00000240: 2390 ed3e 7743 683d fcb8 a8bd 3fa3 e03d
00000250: b39a 033e 1fa0 223e 1a84 93be a9aa 0c3d
00000260: 1b09 d3bd d0ee 3d3e 46a4 fe3d 1e44 6ebd
00000270: b06b 193e b96b acbc 29df d1bd ecaf 54be
00000280: 0f46 3dbe a262 433d 9118 db3d 792f 8d3e
00000290: 483f c2bc 237e f0bd e0b5 b2be e186 c53d
000002a0: 3a1b b53d cd1b ffbd 2df8 f43c 9ced 35bd
000002b0: b2e8 0f3d 38c4 db3c 1317 bfbc 718a c03d
000002c0: 2ca8 6f3e 7eaa 5d3e b298 d3bc 8dad 31bc
000002d0: 196b 453e 5058 703d 76a7 79be 88a9 7ebd
000002e0: faca c53d 795c 8a3b 8e7c 013d 57f6 07bd
000002f0: 282e 1c3e d607 5bbc 4c11 a7bd 6d13 1abe
00000300: 4843 693e 5051 56be 842a a4bd 7a14 633d
00000310: baa9 a2bd adac 5a3d d308 803d aaa3 22be
00000320: a591 5c3e 5d2b 2bbe 917a bb3d 9b3e e93b
00000330: 3b75 6ebd 4c30 4b3e 537b 68bd 6723 463d
00000340: c955 893d c0b1 87be 8e18 143e 8b8c 1fbe
00000350: 5176 eab9 6285 64bc 7383 933e cf7d 2bbc
00000360: 7930 59be 9389 603e 3235 1e3e f58b f13c
00000370: f8a0 f4bd 7b25 243d 0a89 2d3e c4c4 293e
00000380: f790 523e b615 e7be d271 573d db02 ad3e
00000390: dd89 9b3d cb70 e93d d0eb 6b3d ceea fb3d
000003a0: 3f13 d9be 6f3a 493e 2d6e 113f d687 b9be
000003b0: d92c 293d 9965 443e 9011 673b 589c 3f3e
000003c0: 1e62 1fbe a78e 7bbe 47ca 69be 6618 493e
000003d0: 7d10 92be 1f0d 1e3e d4e6 20bd 53e8 b33e
000003e0: e5b2 2fbd 6a1e 353e 55eb 1bbe d3f7 0abf
000003f0: fbcd b23e d027 993e 9dce 53be 2d8b 80bc

Network_stack.1.0.gru.bias_ih_l0 f4 [96]
0.0064216447 -0.017634477 -0.00626114 0.14841558 0.04657638 0.03921036 -0.0005733934 0.3279712
-0.03831971 -0.18927976 -0.051360406 0.15130195 0.13138157 0.05477162 -0.037991337 -0.16455041
-0.22363283 0.18519258 -0.053486135 -0.20850633 0.09319182 -0.07357383 0.07729062 -0.0008664578
-0.066397674 0.019397851 0.003734938 0.024894794 -0.090406194 0.1180782 -0.014066266 0.051103912
-0.13368979 -0.51220727 -0.43435833 -0.06255293 -0.19084233 -0.19080682 -0.024297824 -0.40148172
0.004953988 -0.3307308 -0.54112357 -0.61526656 -0.13539459 -0.53491807 -0.24632512 -0.2830489
0.051678564 -0.44487685 -0.047671534 -0.5743833 -0.1532538 -0.033585604 -0.08242008 -0.21071567
-0.18418927 -0.2989217 -0.27722576 0.21084668 -0.23599736 -0.23988418 0.27324814 -0.1645554
-0.016903196 -0.02889901 -0.113497116 0.14876433 0.08316047 0.094096065 0.09866083 0.18904814
0.050591584 0.0074879136 0.09968179 -0.021929098 -0.056598436 0.21202229 -0.060374014 0.05314903
0.11844024 -0.08407988 -0.06920083 0.009244422 -0.18554956 0.08972841 -0.16885561 0.2599142
-0.016058682 0.15232347 -0.059160896 -0.15887679 0.030351235 0.12040362 0.06939573 0.13393429
00000000: a96c d23b 2e76 90bc 402a cdbb 41fa 173e
00000010: e0c6 3e3d 0b9b 203d c84f 16ba d7eb a73e
00000020: 21f5 1cbd 8ed2 41be 4a5f 52bd e6ee 1a3e
00000030: e488 063e 3558 603d ce9c 1bbd e77f 28be
00000040: 0100 65be 20a3 3d3e 4714 5bbd af82 55be
00000050: 5adb be3d e0ad 96bd 8b4a 9e3d 0023 63ba
00000060: 81fb 87bd 3ee8 9e3c ddc5 743b 2bf0 cb3c
00000070: e226 b9bd fcd2 f13d 3276 66bc 5652 513d
00000080: fae5 08be 0420 03bf 3764 debe c01b 80bd
00000090: 2c6c 43be dd62 43be 3b0c c7bc 038f cdbe
000000a0: 1055 a23b 8c55 a9be 1387 0abf 1c82 1dbf
000000b0: e1a4 0abe 64f0 08bf a73c 7cbe c9eb 90be
000000c0: e7ac 533d e6c6 e3be 3a43 43bd c90a 13bf
000000d0: 90ee 1cbe 0f91 09bd dccb a8bd d9c5 57be
000000e0: 1d9c 3cbe 440c 99be 89f0 8dbe 31e8 573e
000000f0: 4ba9 71be 33a4 75be 2ee7 8b3e 3681 28be
00000100: 9278 8abc 9ebd ecbc 2d71 e8bd ad55 183e
00000110: 0950 aa3d 70b5 c03d b00e ca3d d695 413e
00000120: 1f39 4f3d 2c5d f53b f725 cc3d a7a4 b3bc
00000130: c3d3 67bd 5f1c 593e be4a 77bd ccb2 593d
00000140: cc90 f23d 1232 acbd 2ab9 8dbd eb75 173c
00000150: b400 3ebe 87c3 b73d 7ce8 2cbe 7913 853e
00000160: 7f8d 83bc affa 1b3e b252 72bd 99b0 22be
00000170: 27a3 f83c 2c96 f63d 591f 8e3d 1226 093e

Network_stack.1.0.gru.bias_hh_l0 f4 [96]
0.0319173 -0.008958478 -0.078513496 -0.09555278 -0.05503913 0.04214577 0.053706355 0.16428751
0.20289622 0.11534384 0.043589383 0.16591334 0.00032349842 0.09440313 -0.021217346 -0.08753782
0.08821128 0.07915795 -0.27040106 -0.21543436 -0.03980445 0.016026543 -0.112155534 0.24071479
0.09134964 -0.1622797 -0.09381135 -0.058494464 -0.057837103 -0.05310356 -0.06793922 -0.0128222415
-0.19141167 -0.4076088 -0.45293793 -0.26427585 -0.08710313 -0.3627671 0.016067537 -0.46116525
0.0356127 -0.05260704 -0.60302675 -0.40671006 -0.17452176 -0.39470437 -0.2184367 -0.1778022
-0.013279974 -0.23622872 -0.21145391 -0.48017526 -0.23245832 -0.053910207 0.15286656 -0.16149957
-0.25555986 -0.31162262 -0.332045 0.18733256 -0.41310298 -0.17773788 0.3094725 -0.3134728
-0.09128952 -0.08898796 0.2218243 0.0915829 0.053556573 0.08321292 -0.16104825 0.051179074
-0.13621384 0.10817331 0.14382084 -0.17361023 0.11551463 -0.11184577 0.16835023 -0.092090026
-0.06692065 -0.21171357 -0.011274062 0.12937936 -0.17120016 -0.061560836 0.17119317 0.32298493
0.04196587 -0.08322505 0.13947675 0.0014375183 0.07603985 -0.085458115 -0.056242518 -0.19970337
00000000: b7bb 023d 95c6 12bc afcb a0bd 2db1 c3bd
00000010: b670 61bd 0ba1 2c3d 32fb 5b3d fc3a 283e
00000020: 07c4 4f3e 6439 ec3d c88a 323d 30e5 293e
00000030: 399b a939 6e56 c13d 00d0 adbc 0747 b3bd
00000040: 1ea8 b43d 901d a23d 0272 8abe d39a 5cbe
00000050: fe09 23bd 194a 833c cdb1 e5bd f07d 763e
00000060: 8515 bb3d a62c 26be 2a20 c0bd e497 6fbd
00000070: 99e6 6cbd 1e83 59bd b823 8bbd 6114 52bc
00000080: 6c01 44be 1ab2 d0be 7be7 e7be 2a4f 87be
00000090: 2063 b2bd 9cbc b9be 11a0 833c da1d ecbe
000000a0: 9fde 113d 7b7a 57bd f65f 1abf 4d3c d0be
000000b0: d5b5 32be b116 cabe dfad 5fbe c811 36be
000000c0: 4094 59bc f1e5 71be 6087 58be 88d9 f5be
000000d0: 8e09 6ebe f3d0 5cbd 0d89 1c3e 2560 25be
000000e0: bed8 82be 008d 9fbe cd01 aabe 1bd4 3f3e
000000f0: 3c82 d3be eb00 36be 2e73 9e3e 827f a0be
00000100: 00f6 babd 523f b6bd e925 633e d18f bb3d
00000110: 235e 5b3d 896b aa3d d5e9 24be 26a1 513d
00000120: a47b 0bbe f889 dd3d c545 133e e1c6 31be
00000130: ef92 ec3d 650f e5bd 0164 2c3e b299 bcbd
00000140: b20d 89bd 71cb 58be d8b6 38bc 067c 043e
00000150: 184f 2fbe 3727 7cbd 434d 2f3e 485e a53e
00000160: 67e4 2b3d e571 aabd fed2 0e3e 1c6b bc3a
00000170: c8ba 9b3d aa04 afbd 8e5e 66bd 0a7f 4cbe
