models/model_uniform_region_Noise_0-0.3.0.6-0.9_multiple_Agentsddefa2a7.pth (torch, 87474 bytes, 18 tensors)

Network_stack.0.0.gru.weight_ih_l0 f4 [96, 2]
0	0xbd34a70c	-0.04410462
1	0xbdac2a67	-0.08406525
2	0xbe3de350	-0.18543744
3	0xbcc79704	-0.024364002
4	0x3c7dfe2c	0.015502494
5	0x3d3ef849	0.046623502
6	0xbdf949f0	-0.121723056
7	0x3e03c5a6	0.12868366
8	0x3dd2e186	0.102969214
9	0xbdbfed3a	-0.09371419
10	0x3db72db9	0.08944268
11	0xbdcf4577	-0.10120671
12	0x3da08833	0.07838478
13	0x3e1269bf	0.14298151
14	0x3e007d49	0.12547792
15	0xbdda63fd	-0.106636025
16	0xbd09f6a7	-0.03368249
17	0x3db7de3f	0.08977937
18	0x3d962b3c	0.07332465
19	0xbe124f13	-0.14287977
20	0x3d0b1dd4	0.033963993
21	0xbd0f4c8e	-0.034985118
22	0x3b370525	0.002792665
23	0xbd8e86d1	-0.06959308
24	0x3db4767b	0.08811661
25	0xbdeca7f8	-0.11555475
26	0xbd0110f6	-0.031510316
27	0x3d3560ee	0.044281892
28	0xbba07860	-0.0048971623
29	0x3be83c75	0.007087285
30	0x3e25838b	0.16163461
31	0xbdc46971	-0.09590424
32	0xbdfd0bbc	-0.12355754
33	0x3dcc4b79	0.09975333
34	0x3d256293	0.04037721
35	0xbc222c5d	-0.009898272
36	0x3d89858c	0.06714925
37	0x3e09f799	0.13473357
38	0xbd10a01e	-0.03530895
39	0xbd781d67	-0.060574915
40	0x3e296e18	0.16545904
41	0xbd995522	-0.07486941
42	0xbe1ecd99	-0.15508117
43	0x3d9ca626	0.07648878
44	0x3d07778a	0.033072986
45	0xb907d6aa	-0.00012954572
46	0x3d587fb8	0.052856177
47	0x3d759fd0	0.059966862
48	0xbdede70c	-0.11616334
49	0x3cc9c76f	0.02463123
50	0x3e1c5f5e	0.15270755
51	0x3dd733f2	0.10507955
52	0x3e4081df	0.18799542
53	0x3d91f94e	0.07127629
54	0xbd4858e0	-0.048912883
55	0xbdb0b4f5	-0.08628265
56	0xbdd5f890	-0.104478
57	0x3c5688bf	0.013094126
58	0xbdb705b6	-0.08936636
59	0x3cc8f93d	0.024532909
60	0xbcf7993e	-0.030224439
61	0xbe23a313	-0.15980177
62	0x3d0d520b	0.03450207
63	0xbdc0c766	-0.09413032
64	0xbe722385	-0.23646362
65	0x3e0c3a89	0.13694204
66	0x3e070628	0.13185942
67	0xbda243cc	-0.079230875
68	0xbe354121	-0.17700626
69	0xbd93fbe3	-0.07225778
70	0x3d67e747	0.056617048
71	0x3e42aa1a	0.19010201
72	0x3d895a5b	0.06706687
73	0x3e0028b0	0.12515521
74	0xbe2a3984	-0.16623503
75	0xbd545cd3	-0.051846337
76	0xbd026a1a	-0.031839468
77	0x3e2f47f6	0.17117295
78	0xbca38a60	-0.019963443
79	0x3e33f779	0.17574872
80	0xbbeaab02	-0.007161499
81	0xbd4a984c	-0.049461648
82	0x3e11938b	0.1421644
83	0xbe074a85	-0.1321202
84	0xbe5f6933	-0.21817474
85	0xbddc7545	-0.10764555
86	0xbe30fd2d	-0.17284079
87	0x3e294d20	0.16533327
88	0xbeaf4237	-0.34230205
89	0xbe475924	-0.19467598
90	0x3cc550b5	0.024086336
91	0x3e03f75d	0.1288733
92	0xbd7c7ab9	-0.061640475
93	0x3d929e65	0.071591176
94	0x3d1cb94f	0.03826266
95	0x3ce8c2a2	0.02841312
96	0xbd3fa348	-0.046786577
97	0xbdf0f3df	-0.11765265
98	0x3d870d7d	0.065943696
99	0x3dd07224	0.101780206
100	0x3df755b7	0.12076896
101	0x3e1010c7	0.140689
102	0xbd6b3b48	-0.057429582
103	0x3e490e58	0.19634378
104	0xbde71aa6	-0.1128438
105	0xbd98cb98	-0.074607074
106	0xbdd96f2f	-0.1061691
107	0xbde2615d	-0.11053727
108	0x3bb3c451	0.005486049
109	0xbdce1e3a	-0.10064359
110	0x3d050fd5	0.0324858
111	0xbdb37a56	-0.08763568
112	0xbdb0d7ad	-0.08634887
113	0xbd721284	-0.05909969
114	0x3e0e8c33	0.1392067
115	0x3ca65ce1	0.02030796
116	0xbeb08f2a	-0.34484226
117	0xbe4505ac	-0.19240445
118	0x3d3a31ae	0.045457534
119	0xbdb46d7d	-0.08809946
120	0x3cf7c655	0.03024594
121	0x3e20f83f	0.15719698
122	0xbd0eaf0c	-0.034834906
123	0x3c274ae8	0.01021073
124	0xbdfe4d01	-0.12417031
125	0xbda32c91	-0.07967485
126	0x3e162340	0.14661884
127	0xbdd89e98	-0.10577124
128	0xbe207b06	-0.1567193
129	0x3d8b4ad2	0.0680138
130	0xbda1956e	-0.078898296
131	0xbd875216	-0.066074535
132	0xbd0d72b4	-0.034533218
133	0x3e03864f	0.12844203
134	0xbafb44c2	-0.0019170272
135	0xbbed5a4d	-0.0072434307
136	0x3e1b8fc8	0.15191567
137	0xbc1c748f	-0.009549274
138	0xbdec679f	-0.11543202
139	0x3de67c11	0.112541325
140	0x3dd5995b	0.10429641
141	0x3d16fb58	0.036860794
142	0xbd42aa2e	-0.047525577
143	0x3d768b2c	0.06019132
144	0xbe114aa8	-0.14188635
145	0xbd7fe994	-0.062478617
146	0x3bbd2c7d	0.0057731257
147	0xbd8b3c53	-0.06798615
148	0xbe45c983	-0.19315152
149	0x3e0aa551	0.13539626
150	0xbc20077c	-0.009767409
151	0xbd36be25	-0.04461493
152	0xbdeb9166	-0.11502342
153	0x3de0557c	0.10953805
154	0xbe3d16bd	-0.18465705
155	0x3dfbc9ac	0.12294325
156	0xbcf63b6b	-0.03005763
157	0x3ddffac2	0.109365
158	0x3d3b67d2	0.045753308
159	0xbe1689cf	-0.14701007
160	0xbda73ce5	-0.081659116
161	0xbe070118	-0.13184011
162	0xba172caa	-0.00057668483
163	0xbd955504	-0.07291606
164	0x3d28151c	0.041035756
165	0xbd4cb004	-0.04997255
166	0x3cd620e8	0.026138738
167	0xbcf90ce3	-0.030401653
168	0x3e236447	0.15956222
169	0x3b108bc1	0.0022055956
170	0xbdfeb69f	-0.12437176
171	0x3de0e6ff	0.10981559
172	0xbdd9522a	-0.10611375
173	0xbdf28e8e	-0.118435964
174	0x3d8e95f6	0.069621965
175	0x3d84cbbc	0.06484172
176	0x3e229ef5	0.1588095
177	0xbe128c4c	-0.14311332
178	0x3dac17ce	0.08402978
179	0xbdcb4c6b	-0.09926685
180	0xbdee263a	-0.11628385
181	0xbe0c0e9e	-0.13677451
182	0xbcf76c1b	-0.030202916
183	0xbe0686d1	-0.13137366
184	0x3d0055e6	0.03133192
185	0xbdfd4db9	-0.1236834
186	0xbe26b490	-0.16279817
187	0x3dba872a	0.09107812
188	0xbdf52085	-0.11969093
189	0x3e1e69e6	0.15470085
190	0xbd49254a	-0.049107827
191	0xbe220bae	-0.15824768

Network_stack.0.0.gru.weight_hh_l0 f4 [96, 32]
0	0x3db9d5ab	0.09073957
1	0xbd998df0	-0.074977756
2	0xbc6dfda0	-0.014525801
3	0xbd5e0e25	-0.054212708
4	0x3de2d57e	0.11075877
5	0x3dc2bafa	0.09508319
6	0xbc963d6c	-0.018339835
7	0xbd929eb8	-0.071591794
8	0x3e3f04d4	0.18654186
9	0xbd5e0c61	-0.054211024
10	0x3c6c2a26	0.014414346
11	0x3d8783bc	0.06616923
12	0x3dd619ec	0.10454163
13	0xbe498fef	-0.19683813
14	0xbd749441	-0.0597117
15	0x3dd5bdfa	0.10436626
16	0x3e1df375	0.15424903
17	0x3e28acd4	0.16472179
18	0xbe19020e	-0.1494219
19	0x3e3640e1	0.17798187
20	0xbe1dcafc	-0.15409464
21	0xbe1debcc	-0.1542198
22	0xbd32721a	-0.043565847
23	0xbd8866a7	-0.066602044
24	0x3d8a17ef	0.06742846
25	0xbd9c9d0b	-0.07647141
26	0x3e1a5ea5	0.15075167
27	0x3e4a4562	0.1975303
28	0x3e053ca9	0.13011421
29	0x3ce3f329	0.027825909
30	0xbe055106	-0.13019189
31	0x3da6f3d9	0.08151979
32	0x3e267ed2	0.16259316
33	0x3e0aa3d5	0.1353906
34	0x3e0cb5a2	0.13741162
35	0x3dfb1e11	0.12261594
36	0xbe33bf30	-0.17553401
37	0x3e102a5f	0.14078663
38	0x3e1f628d	0.15564938
39	0xbdc9fc79	-0.098626085
40	0x3e1e7f2a	0.15478197
41	0x3e1865be	0.14882562
42	0xbd7889b8	-0.060678214
43	0xbda3aa1d	-0.07991431
44	0xbe0b9a39	-0.1363305
45	0xbd41b573	-0.047292184
46	0x3d89399d	0.06700442
47	0x3e1c10ee	0.15240833
48	0x3e40a235	0.18811877
49	0x3de3752a	0.11106332
50	0xbc800888	-0.015629068
51	0x3d108ed1	0.03529245
52	0x3d9b9c06	0.075981185
53	0x3dadb576	0.084818766
54	0xbd9ee819	-0.07759113
55	0xbe0c1f1b	-0.13683741
56	0xba50175d	-0.0007938052
57	0x3e1ebb3a	0.15501109
58	0x3d8be60b	0.068309866
59	0x3e1580b9	0.14599885
60	0xbd5aecc5	-0.053448457
61	0xbda1456d	-0.0787457
62	0x3dae18d6	0.08500831
63	0xbdff6516	-0.124704525
64	0x3d81ef55	0.06344477
65	0x3dc15b8f	0.094412915
66	0x3e0b687f	0.13614081
67	0xbe31cba7	-0.17362843
68	0xbe18b614	-0.14913207
69	0x3d4705f6	0.04858967
70	0xbcd89570	-0.026438445
71	0xbd7335ce	-0.059377484
72	0xbe2b9d4a	-0.1675922
73	0xbe1ec20a	-0.15503708
74	0xbe3980af	-0.18115495
75	0x3dd443f2	0.10364522
76	0x3e051719	0.12997092
77	0x3dea754c	0.11448154
78	0xbd5f1912	-0.05446727
79	0xbc2f69c5	-0.01070637
80	0x3ddc403e	0.10754441
81	0xbdbd2024	-0.09234646
82	0x3e0c9a84	0.13730818
83	0xbb855ee6	-0.0040701507
84	0x3d7352fa	0.059405304
85	0x3e010619	0.12599982
86	0xbe27a89c	-0.16372913
87	0xbdafcc3a	-0.08583875
88	0xbe15990d	-0.14609165
89	0xbdea5697	-0.11442297
90	0xbb5ae15f	-0.0033398492
91	0x3d8a7592	0.06760706
92	0xbd2b6db1	-0.041852657
93	0x3e04e92f	0.12979577
94	0xbe0e50ba	-0.13897982
95	0xbe03f1dd	-0.12885232
96	0xbe35e76e	-0.17764065
97	0x3e2131c5	0.15741642
98	0x3e28aa4c	0.16471213
99	0xbc9fc296	-0.019501965
100	0xbd90d6de	-0.07072233
101	0x3e0bd328	0.13654768
102	0xbbceee29	-0.006315012
103	0x3cab4337	0.020906074
104	0x3b6ac992	0.0035825712
105	0xbdd62f02	-0.10458185
106	0x3e126864	0.14297634
107	0x3b026e33	0.001990211
108	0x3cd1edab	0.025626024
109	0x3e47d98e	0.19516584
110	0xbd71f597	-0.059072103
111	0x3e2ea2ad	0.17054243
112	0xbcc98645	-0.024600158
113	0xbd622d57	-0.05521902
114	0xbdd8c8b6	-0.105851576
115	0xbd50ee28	-0.051008373
116	0xbd904048	-0.07043511
117	0xbc5d5671	-0.013509379
118	0xbe3a09ea	-0.18167844
119	0xbb2a579a	-0.0025992156
120	0x3d37db58	0.044886917
121	0xbe44f386	-0.19233522
122	0x3cbc3f89	0.022979515
123	0xbd32dd27	-0.04366794
124	0xbe133121	-0.1437421
125	0x3dca23bf	0.09870099
126	0x3c9f300e	0.019432094
127	0xbe276dca	-0.16350475
128	0x3d99a7fa	0.07502742
129	0x3e6d613a	0.2318162
130	0x3e641cbd	0.22276588
131	0xbd41da56	-0.047327362
132	0x3ac72b82	0.0015195461
133	0x3e416928	0.1888777
134	0xbd9ee7a0	-0.07759023
135	0x3c6ac11b	0.0143282665
136	0xbe1265e3	-0.14296679
137	0x3df64eb2	0.12026729
138	0xbdb7c6ca	-0.08973463
139	0xbc166e8a	-0.009181628
140	0x3ea3b493	0.31973705
141	0xbc8624dd	-0.016375
142	0x3cf04d94	0.029333867
143	0x3d6e6ae7	0.05820742
144	0x3e096f21	0.13421299
145	0x3d929f64	0.071593076
146	0x3bb80c8c	0.00561673
147	0xbbbcb937	-0.005759384
148	0xbdc254af	-0.09488808
149	0xbdc82ab0	-0.09773767
150	0xbd473277	-0.04863211
151	0x3e3ada7c	0.18247408
152	0xbe3e5656	-0.18587622
153	0xbd43fb59	-0.047847126
154	0xbb730c29	-0.0037086105
155	0xbe3e5f12	-0.18590954
156	0xbddfcace	-0.10927354
157	0xbc52ec90	-0.012873784
158	0x3c1d51c5	0.009602015
159	0xbdb9cd93	-0.09072413
160	0x3e218a1d	0.15775342
161	0x3dd2421a	0.10266514
162	0xbd730024	-0.059326306
163	0x3db26f85	0.08712677
164	0xbdfc1495	-0.12308613
165	0xbc421d45	-0.011847799
166	0x3c92e6de	0.017932352
167	0x3cc71d2c	0.024305902
168	0xbda4f021	-0.080536135
169	0x3e1291f3	0.14313488
170	0xbdeabb0f	-0.1146146
171	0x3e1dac00	0.15397644
172	0xbe032356	-0.12806448
173	0xbd1d007b	-0.038330536
174	0xbe2fcb21	-0.17167331
175	0x3e1f280e	0.15542623
176	0xbd3e87f2	-0.046516366
177	0x3e2bfb82	0.16795161
178	0xbe02bd34	-0.12767488
179	0x3bbda208	0.005787138
180	0xbd9fef81	-0.078093536
181	0x3d803eb7	0.06261962
182	0x3d9c144d	0.076210596
183	0x3da881be	0.08227871
184	0xbd9938a4	-0.074815065
185	0x3d5a3f23	0.053282868
186	0xbe17983d	-0.14804168
187	0x3c802854	0.01564423
188	0x3e2e4692	0.17019108
189	0x3bc88de7	0.0061204317
190	0xbe16ee68	-0.14739382
191	0xbd8d9985	-0.06914047
192	0x3dae0549	0.08497102
193	0x3e1581fa	0.14600363
194	0xbc9f93e6	-0.019479703
195	0x3daa43c5	0.08313707
196	0x3ce7367a	0.028224219
197	0xbe23ca48	-0.15995133
198	0xbe3ea337	-0.18616949
199	0xbc096318	-0.008385442
200	0xbe02d8e5	-0.12778051
201	0xbdd658ee	-0.10466181
202	0xbd9a6775	-0.07539264
203	0x3db79b7b	0.089652024
204	0x3dfe8669	0.124279805
205	0xbe0473cb	-0.12934797
206	0xbd011e29	-0.031522904
207	0xbad17f15	-0.0015983308
208	0x3d9f1b2b	0.07768854
209	0x3bd20ac1	0.0064099734
210	0x3e1feea9	0.15618385
211	0x3adbbccb	0.0016764639
212	0xbe35295d	-0.1769156
213	0xbdeac80b	-0.114639364
214	0x3e180edf	0.14849423
215	0x3bc4bfdd	0.006004317
216	0xbe2db32d	-0.16962881
217	0xbd998149	-0.07495362
218	0xbdb17911	-0.0866567
219	0x3d1d811d	0.03845321
220	0xbdc641d2	-0.09680523
221	0x3db3c2c1	0.08777381
222	0xbdab4b9a	-0.08364029
223	0x3e2de16d	0.16980524
224	0x3dd7f402	0.10544588
225	0x3a61d6ea	0.00086150935
226	0xbe0c4d08	-0.1370126
227	0x3d4a67c3	0.04941536
228	0xbc2ab52b	-0.01041917
229	0xbd070c6c	-0.03297083
230	0xbdb194a8	-0.08670932
231	0x3e01c0ba	0.12671176
232	0x3d66ca58	0.056345314
233	0xbde0fe14	-0.109859616
234	0xbaf6b88c	-0.001882331
235	0xbdd4559e	-0.10367893
236	0x3e0ca00b	0.13732927
237	0xbdaa1e00	-0.08306503
238	0xbdad8544	-0.08472684
239	0x3c207b59	0.009795033
240	0xbe08c40c	-0.13356036
241	0xbdfe917a	-0.12430091
242	0xbd3e8a84	-0.046518818
243	0xbe255924	-0.16147286
244	0xbe20f040	-0.15716648
245	0xb813aa1b	-3.5205954e-05
246	0x3dcf7304	0.10129359
247	0x3cfda064	0.03096027
248	0xbe1aee40	-0.15129948
249	0xbdaeb23e	-0.08530091
250	0xbdf71ccb	-0.12066039
251	0x3d9e1652	0.07719101
252	0x3e10051a	0.14064446
253	0xbe08e826	-0.13369808
254	0xbce4e055	-0.027939001
255	0xbb0f687b	-0.0021882344

Network_stack.0.0.gru.bias_ih_l0 f4 [96]
0	0xbe07f664	-0.13277584
1	0x3cce1d8b	0.025160572
2	0xbe06784d	-0.13131829
3	0x3d48aa80	0.048990726
4	0x3dacccec	0.08437523
5	0x3d6cce7e	0.057814114
6	0xbe203404	-0.15644842
7	0xbe17dd7b	-0.14830582
8	0xbc65670d	-0.01400162
9	0x3d90d1c5	0.0707126
10	0xbd87ada2	-0.06624915
11	0x3d74e5c8	0.05978945
12	0x3d825e03	0.063655876
13	0x3db30a1e	0.08742164
14	0xbd5f40bc	-0.054505095
15	0x3e23066f	0.15920423
16	0x3dee027f	0.1162157
17	0xbe10a8d7	-0.14126907
18	0xbd8863b5	-0.066596426
19	0xbcb14026	-0.021637034
20	0x3dbb2b75	0.09139148
21	0x3dcf9d98	0.101374805
22	0xbd999627	-0.074993424
23	0xbcc9d068	-0.024635509
24	0x3cf50135	0.029907802
25	0x3df2fe57	0.11864918
26	0x3e1b10af	0.15143083
27	0x3e2dafa2	0.1696153
28	0x3dbacc0c	0.0912095
29	0xbdf04b2c	-0.11733088
30	0xbe1627e9	-0.14663662
31	0xbd177858	-0.036980003
32	0xbd81b802	-0.06333925
33	0x3e20b034	0.15692216
34	0xbd88ecea	-0.06685813
35	0x3ba4854d	0.0050207735
36	0x3d82b758	0.06382626
37	0xbce8bdf5	-0.028410891
38	0x3d0d2195	0.034455854
39	0x3d929528	0.071573555
40	0xbce38221	-0.027772011
41	0x3c8eb5d2	0.017420683
42	0xbe58ea30	-0.21183085
43	0xbd17eb83	-0.037089836
44	0xbe480db4	-0.19536477
45	0x3e1587a7	0.14602529
46	0xbd0028f9	-0.031289075
47	0x3e72d68e	0.23714659
48	0xbe2997fd	-0.16561885
49	0x3e478438	0.19484031
50	0xbd2aa732	-0.041663356
51	0xbe1029dc	-0.14078468
52	0x3e0cfe19	0.13768806
53	0xbdf2d5ef	-0.11857211
54	0xbd0f5805	-0.03499605
55	0x3cae93ee	0.021310773
56	0x3d96d99f	0.07365727
57	0x3d6048d9	0.054756973
58	0xbdb06fae	-0.08615051
59	0x3db90db4	0.09035817
60	0xbdf10b29	-0.11769707
61	0x3dfd07d1	0.123550065
62	0xbd9fcd90	-0.0780288
63	0x3dab16c3	0.08353951
64	0xbe175071	-0.1477678
65	0x3e184cb5	0.14873011
66	0x3d8199eb	0.06328186
67	0xbdff5121	-0.12466646
68	0x3e10c762	0.14138559
69	0x3a03e3a5	0.0005031175
70	0xbbf17ec2	-0.007369847
71	0xbd1d8fa3	-0.03846706
72	0xbdbba629	-0.09162552
73	0x3db59e84	0.08868125
74	0xbe1c9841	-0.15292455
75	0x3d8e953d	0.06962059
76	0xbca49ecb	-0.02009525
77	0x3dd4bea3	0.103879236
78	0x3e09655c	0.13417572
79	0x3d06ee75	0.032942254
80	0xbdbf8882	-0.09352209
81	0xbdf4e686	-0.11958031
82	0x3dfbe2ad	0.12299094
83	0xbdf89230	-0.12137258
84	0x3caef316	0.021356147
85	0x3e2463f0	0.16053748
86	0x3c828533	0.015932655
87	0x3e1ed0c7	0.1550933
88	0xbcce2b29	-0.025167065
89	0xbd0d3e01	-0.03448296
90	0xbdf632e7	-0.120214276
91	0x3d8d527d	0.06900499
92	0xbdbb5a18	-0.091480434
93	0x3dab6cf5	0.08370391
94	0x3e01501d	0.12628217
95	0xbd03b6e5	-0.032156844

Network_stack.0.0.gru.bias_hh_l0 f4 [96]
0	0xbe2d5fe9	-0.16931118
1	0xbd1948b0	-0.037422836
2	0xbde3ca68	-0.1112259
3	0x3b353483	0.0027649708
4	0xbd9fb5e4	-0.07798365
5	0xbd4e1e75	-0.050322015
6	0x3d8e5116	0.0694906
7	0x3e13f291	0.14448
8	0xbdb2c041	-0.08728076
9	0xbe12ef2e	-0.14349052
10	0x3d78c32a	0.060732998
11	0x3e098a2d	0.13431616
12	0xbd446475	-0.047947366
13	0xbd224473	-0.03961606
14	0xbe259aad	-0.16172285
15	0xbce44bca	-0.02786817
16	0xbdb3de44	-0.08782628
17	0xbce11e9a	-0.027480412
18	0x3e02f2a8	0.12787879
19	0x3d759e4d	0.05996542
20	0xbde711af	-0.1128267
21	0x3d9b1091	0.07571519
22	0x3ce2179a	0.027599145
23	0x3dfd2204	0.123600036
24	0x3dcbe4dd	0.099557616
25	0x3d093a50	0.033502877
26	0x3d71d8c1	0.059044603
27	0x3d882517	0.06647699
28	0x3e03fc2a	0.12889162
29	0xbbe0af4b	-0.006856834
30	0xbd8b91bf	-0.06814908
31	0x3c71307b	0.014721031
32	0x3d35899a	0.04432068
33	0xbe0cb142	-0.13739493
34	0xbddf4540	-0.1090188
35	0x3e4e38f9	0.20138921
36	0xbd3c232f	-0.04593199
37	0x3ccc64eb	0.024950465
38	0x3cf3b460	0.029749095
39	0x3bb7b929	0.0056067896
40	0xbe5162e4	-0.2044788
41	0x3de45fdd	0.11151097
42	0xbb5fa48d	-0.003412518
43	0xbdbbcf4d	-0.09170399
44	0xbe8e14d4	-0.27750266
45	0xbded04f6	-0.11573212
46	0xbdf87c08	-0.12133032
47	0x3e32c902	0.17459491
48	0xbe455ab2	-0.19272879
49	0xbbd81c96	-0.0065952046
50	0xbd0a786f	-0.03380626
51	0xbdb014c4	-0.08597711
52	0xbe00c4bd	-0.1257505
53	0x3d1eb095	0.03874262
54	0x3e19e6bb	0.15029423
55	0xbe070aea	-0.13187757
56	0x3c7ca01f	0.015419035
57	0xbbc228c5	-0.0059252703
58	0xbe7c1d62	-0.24620584
59	0xbd476fed	-0.048690725
60	0xbe1465e8	-0.14491999
61	0xbd11718e	-0.035508685
62	0xbdcdbe2f	-0.1004604
63	0x3e087c60	0.13328695
64	0xba11352c	-0.0005539234
65	0xbd20dba0	-0.03927195
66	0x3e16e69b	0.14736407
67	0xbda6941d	-0.08133719
68	0xbe188736	-0.14895329
69	0xbd36fc55	-0.044674236
70	0x3e0406cf	0.12893222
71	0xbcd5bc59	-0.026090788
72	0xbc35c358	-0.011093937
73	0xbc7a319d	-0.015270618
74	0xbe061ded	-0.13097353
75	0x3e0f7b3a	0.14011851
76	0xbdaada3c	-0.08342406
77	0x3d95c34e	0.07312642
78	0xbd5369d5	-0.0516146
79	0x3e0f320a	0.13983932
80	0x3d9ce6e4	0.076612264
81	0x3e36949e	0.1783013
82	0xbe1d126b	-0.15339057
83	0xbc2943cf	-0.010331108
84	0xbe41a4f5	-0.18910582
85	0x3d10fcbd	0.03539728
86	0xbc66a07f	-0.014076351
87	0xbd3a3184	-0.045457378
88	0xbe38c843	-0.18045144
89	0x3d5af87a	0.053459622
90	0xbe2e377f	-0.17013358
91	0x3c2bdbd3	0.010489422
92	0xbd2c48b1	-0.04206151
93	0x3d017800	0.03160858
94	0xbaf9c688	-0.0019056359
95	0xbdd09c9c	-0.10186121

Network_stack.0.0.gru.weight_ih_l1 f4 [96, 32]
0	0x3d6eb8a8	0.05828157
1	0xbcec4233	-0.02884016
2	0xbe23a606	-0.15981302
3	0x3bea489c	0.007149769
4	0xbd4f413f	-0.050599333
5	0x3e050cf7	0.12993227
6	0xbd93d771	-0.072188266
7	0x3d853e86	0.06506066
8	0xbe110ef0	-0.14165854
9	0x3c65e2ff	0.014031171
10	0x3d0b09a0	0.033944726
11	0xbca537f4	-0.020168282
12	0xbe88b58c	-0.2670101
13	0x3e28705e	0.16449115
14	0xbd8384a1	-0.06421781
15	0x3daf4cc8	0.08559567
16	0xbc1de13a	-0.009636218
17	0xbd10f3f1	-0.03538889
18	0xbe0afd45	-0.13573177
19	0xbde08153	-0.10962167
20	0x3dcadd02	0.09905435
21	0xbe1e8479	-0.15480222
22	0xbdddbddd	-0.10827229
23	0x3ce03c53	0.027372515
24	0xbe1288f6	-0.14310059
25	0xbc2de4d2	-0.010613637
26	0x3d97ae03	0.07406237
27	0xbe0fb96b	-0.14035575
28	0xbda3d7d0	-0.08000147
29	0x3cbdecea	0.023184258
30	0x3d016694	0.031591967
31	0xbdb0d6be	-0.08634709
32	0x3e0de16a	0.1385552
33	0xbe20e1d3	-0.15711145
34	0xbd7711ea	-0.06031982
35	0xbc6eb1c0	-0.014568746
36	0xbda758c3	-0.08171227
37	0xbdddcfc7	-0.10830646
38	0xbd5fc3b8	-0.05463001
39	0x3e0e7122	0.13910344
40	0x3e073147	0.13202392
41	0x3cc2c8dd	0.02377742
42	0x3d850770	0.06495559
43	0x3e1a7aaa	0.15085855
44	0x3e47e91e	0.19522521
45	0x3d941f0b	0.072324835
46	0x3d00b1e5	0.031419653
47	0xbdcfa848	-0.10139519
48	0x3df4317f	0.11923503
49	0x3c9dea48	0.019276753
50	0xbc53f99e	-0.012937931
51	0x3e019e6f	0.12658094
52	0xbe0f2ca5	-0.13981874
53	0xbd3706b5	-0.04468413
54	0x3daf3027	0.08554106
55	0xbe0165f7	-0.12636553
56	0x3d46dd25	0.048550744
57	0x3d4ea472	0.050449796
58	0x3e083c5f	0.1330428
59	0xbdaf777d	-0.085677125
60	0x3dbd2ca3	0.092370294
61	0x3c868eb0	0.01642546
62	0xbcfa8b1c	-0.03058391
63	0x3d060722	0.032721646
64	0x3da11115	0.07864586
65	0x3d2f7116	0.042832457
66	0x3d31621a	0.043306448
67	0x3e1faaba	0.15592471
68	0xbd753a14	-0.05986984
69	0x3d8a13d8	0.06742066
70	0xbe0d1b10	-0.13779855
71	0xbcc46415	-0.023973504
72	0x3d5e3637	0.054250922
73	0x3d91abe9	0.071128674
74	0xbd31d3ef	-0.043415006
75	0xbda7f1a1	-0.08200384
76	0x3d9bbfe3	0.07604959
77	0xbd4422f2	-0.04788489
78	0x3e09a963	0.13443522
79	0xbde6c176	-0.112673685
80	0xbc47c0de	-0.012191979
81	0xbd51bbd6	-0.051204525
82	0xbe0b3b91	-0.13596942
83	0x3d3b638d	0.045749236
84	0x3dfdfa7a	0.1240129
85	0x3db751a5	0.08951119
86	0xbdc8f22c	-0.098118156
87	0xbd297c64	-0.041378394
88	0xbe11216f	-0.1417291
89	0xbbf12db2	-0.0073601836
90	0xbd5cbc29	-0.05389038
91	0xbcd6b903	-0.026211267
92	0xbc7c0693	-0.015382427
93	0x3e04db34	0.12974244
94	0x3c9d9d3f	0.01924002
95	0xbe070f97	-0.13189541
96	0x3d97123f	0.07376527
97	0x3e3b4778	0.18288982
98	0x3e3fba90	0.18723512
99	0x3dde5f54	0.10858026
100	0xbd94e87e	-0.07270907
101	0x3dd4edfd	0.10396955
102	0x3da6ef92	0.08151163
103	0xbe2d809d	-0.16943593
104	0x3d184cd0	0.03718263
105	0x3d9f0267	0.0776413
106	0x3cb19b53	0.02168051
107	0x3e06afab	0.1315295
108	0xbd41559c	-0.047200784
109	0x3da7e75e	0.08198427
110	0x3d6dffed	0.058105398
111	0xbd64634c	-0.05575876
112	0xbe05ec93	-0.13078527
113	0xbd8179d7	-0.06322067
114	0x3e365822	0.17807057
115	0x3cb9e63a	0.022692788
116	0xbe44bdd8	-0.19213045
117	0x3cb9f2d3	0.022698795
118	0xbce838cc	-0.028347395
119	0xbda0cd0b	-0.07851609
120	0xbc9fedae	-0.019522514
121	0xbe9a1054	-0.30090582
122	0x3a7640aa	0.0009393791
123	0xbe2ebfd2	-0.17065361
124	0x3cdff958	0.027340576
125	0x3dbe90bd	0.093049504
126	0xbdb7bcc2	-0.089715496
127	0x3ca3bc0e	0.019987132
128	0x3dd90675	0.10596935
129	0x3dc56392	0.09638132
130	0x3d23eaa7	0.040018704
131	0xbe1d3318	-0.15351522
132	0xbe154837	-0.14578329
133	0x3dd41e81	0.10357381
134	0x3dfc997b	0.123339616
135	0x3d36abdc	0.04459749
136	0xbe3e62bf	-0.18592356
137	0x3c936a4b	0.01799502
138	0x3de376f7	0.11106675
139	0xbe216ddb	-0.15764563
140	0x3d5cede1	0.053937797
141	0xbe16285a	-0.1466383
142	0x3dcc7fdb	0.09985324
143	0x3e134e12	0.1438525
144	0x3c4b935b	0.012425269
145	0x3cae6cd4	0.021292128
146	0x3da26ae6	0.079305455
147	0x3d422eae	0.0474078
148	0x3d75f983	0.060052406
149	0x3c7d9634	0.015477706
150	0xbe3b82bf	-0.18311594
151	0xbdbfa2d4	-0.09357229
152	0xbd9cdb49	-0.07659013
153	0xbdb8599c	-0.09001467
154	0x3dbc13ef	0.091834895
155	0x3d44f8f6	0.04808899
156	0x3dd4790e	0.10374652
157	0x3cdc9b1b	0.026929429
158	0xbd3a7582	-0.04552222
159	0xbe27875e	-0.16360232
160	0x3dc16c4a	0.094444826
161	0xbdbd8ac8	-0.09254986
162	0x3dd6a395	0.104804195
163	0xbe110b26	-0.14164409
164	0xbd7e5ca8	-0.062100083
165	0x3e1ef1d5	0.15521939
166	0x3e0a8651	0.135278
167	0x3dddaecd	0.10824356
168	0xbbf081a0	-0.0073396713
169	0x3daa3fe4	0.083129674
170	0x3d84b54b	0.064798914
171	0xbdd52152	-0.10406746
172	0x3e21865a	0.15773907
173	0x3d66f703	0.056387912
174	0xbe2e5799	-0.17025603
175	0x3c84e8e5	0.016224334
176	0x3e1606cf	0.14651035
177	0xbd82bcd1	-0.0638367
178	0xbd6f49e0	-0.058420062
179	0x3d75ddbb	0.06002591
180	0x3e00b2f9	0.12568273
181	0x3c4cda74	0.012503255
182	0xbd82f04e	-0.06393491
183	0x3d42135a	0.047381736
184	0x3e2c8345	0.1684695
185	0xbc816166	-0.015793514
186	0xbc2c196f	-0.010504111
187	0xbd22e44f	-0.039768513
188	0xbc950ff4	-0.018196084
189	0xbd58b3e1	-0.05290592
190	0x3c2a6b5e	0.010401575
191	0x3e35c5eb	0.17751281
192	0x3d1abd20	0.03777802
193	0x3de5c22f	0.11218678
194	0xbe192bd1	-0.14958121
195	0xbc45927d	-0.012058851
196	0xbd2f9858	-0.042869896
197	0x3d8e19d2	0.069385186
198	0xbc99b894	-0.018764772
199	0xbdedeb59	-0.11617155
200	0xbcf7dfaa	-0.030258019
201	0x3d687c96	0.05675944
202	0x3d96d121	0.07364107
203	0xbdc1cd7c	-0.09463021
204	0x3d6a56c5	0.057211656
205	0xbddbb2ab	-0.107274376
206	0x3d5b18f3	0.05349059
207	0xbe061b5d	-0.13096376
208	0xbdb94474	-0.090462595
209	0x3e2e5942	0.17026237
210	0xbe267f66	-0.16259536
211	0x3d90b256	0.07065265
212	0xbc4382aa	-0.011933008
213	0x3d955aaa	0.072926834
214	0x3e361c65	0.17784269
215	0xbd3c8c3c	-0.046032175
216	0xbc7aa224	-0.015297446
217	0xbcdf7c00	-0.027280807
218	0xbcada07b	-0.021194687
219	0xbd8d2551	-0.06891883
220	0xbe1952a7	-0.14972936
221	0x3e2aa92c	0.16666096
222	0x3e02b87a	0.12765685
223	0x3d41e1d1	0.047334496
224	0x3d9ed1cc	0.07754859
225	0xbe0f5a12	-0.13999203
226	0x3e128efe	0.1431236
227	0x3d18b49e	0.037281625
228	0xbdaf05a6	-0.08545999
229	0xbe2d75a5	-0.16939409
230	0x3c784513	0.015153187
231	0xbdf6119f	-0.1201508
232	0xbd3f83c6	-0.04675653
233	0xbe050264	-0.12989193
234	0x3e154035	0.14575274
235	0x3db00732	0.085951224
236	0xbd92ce06	-0.07168202
237	0x3e100cc4	0.1406737
238	0xbdfd47f4	-0.123672396
239	0x3d841057	0.06448429
240	0x3e14732c	0.1449706
241	0x3dbf70d7	0.09347694
242	0x3e150b16	0.1455501
243	0xbad178ce	-0.0015981437
244	0x3cf3ae92	0.029746328
245	0xbe19579f	-0.14974831
246	0xbd13ee46	-0.036115907
247	0xbcdc65f6	-0.026904088
248	0xbcf7df49	-0.030257838
249	0xbc4071e5	-0.011745905
250	0x3db84342	0.089972034
251	0x3d15d1ae	0.03657692
252	0xbe16ebed	-0.14738436
253	0x3d9d6730	0.07685697
254	0xbdb19f9a	-0.0867302
255	0xbe15e67b	-0.14638703

Network_stack.0.0.gru.weight_hh_l1 f4 [96, 32]
0	0x3def0618	0.11671084
1	0x3e069c7b	0.1314563
2	0xbc87d3e4	-0.01658053
3	0x3d2a7d91	0.041623656
4	0xbe11db2c	-0.14243764
5	0x3df18391	0.117926724
6	0x3dca653e	0.09882592
7	0xbe143b4c	-0.14475745
8	0xbd38278d	-0.044959594
9	0x3dc63305	0.096777
10	0x3daa8586	0.08326249
11	0x3d45f958	0.048333496
12	0xbdb53fe6	-0.08850078
13	0xbd87be54	-0.06628099
14	0x3db09361	0.0862186
15	0xbda398d7	-0.07988136
16	0xbdaed228	-0.08536178
17	0xbda51507	-0.08060651
18	0xbde0a718	-0.109693706
19	0x3bbbb543	0.005728395
20	0x3c4f10cc	0.012638282
21	0xbe377987	-0.17917453
22	0xbd016da9	-0.03159872
23	0x3d701dbd	0.05862211
24	0xbdb1dd3a	-0.08684774
25	0x3db5f02f	0.08883702
26	0xbd795cff	-0.060879704
27	0xbdbea76c	-0.09309277
28	0xbd654144	-0.055970445
29	0xbb8a1bfe	-0.0042147627
30	0xbdb73ae5	-0.0894678
31	0xbcf93417	-0.030420346
32	0x3d36650c	0.04452996
33	0x3d402d34	0.04691811
34	0xbd2870f0	-0.04112333
35	0x3d6c6117	0.05770978
36	0xbd55600d	-0.052093554
37	0xbda82e49	-0.08211953
38	0xbd2fcbf1	-0.042919103
39	0xbdaeeb2c	-0.08540949
40	0x3d91c9d0	0.07118571
41	0x3e28eb4a	0.16496006
42	0xbd82b3b6	-0.063819334
43	0x3dfa0048	0.12207085
44	0xbe21ba71	-0.15793778
45	0xbde5cade	-0.112203345
46	0x3da61e93	0.081113
47	0xbe355c5e	-0.17711017
48	0x3b033ed8	0.0020026471
49	0x3d895725	0.067060746
50	0x3c497395	0.012295623
51	0xbe103207	-0.14081584
52	0xbdb24817	-0.08705156
53	0xbb9315c7	-0.00448868
54	0xbe1449c4	-0.14481264
55	0x3e0ad827	0.13559018
56	0x3e0d48ba	0.13797274
57	0x3da7e528	0.08198005
58	0x3c87afe9	0.016563373
59	0x3da420db	0.08014079
60	0xbe1c59ca	-0.15268627
61	0x3dcf5a7d	0.10124681
62	0x3e1eb39f	0.15498208
63	0xbddd11ac	-0.10794386
64	0x3a8a5d3d	0.0010556352
65	0xbd6ee297	-0.05832156
66	0xbe124f26	-0.14288005
67	0xbe032c4e	-0.1280987
68	0xbd57ff1a	-0.05273352
69	0x3dd36ffa	0.10324092
70	0xbc92b8be	-0.017910358
71	0x3e3366b7	0.17519651
72	0xbe08700f	-0.13323997
73	0x3d584201	0.05279732
74	0x3db64340	0.08899546
75	0xbd857883	-0.065171264
76	0x3dd0e112	0.10199179
77	0x3dd387f9	0.10328669
78	0xbdbda7dd	-0.09260533
79	0xbe139d5d	-0.14415498
80	0xbd5936be	-0.05303072
81	0x3e0dc7cf	0.13845752
82	0xbe26122b	-0.16217868
83	0x3d9ef7ee	0.077621326
84	0x3e2dfa48	0.16990006
85	0x3d255f11	0.040373866
86	0x3b8f674e	0.0043763286
87	0xbdc93810	-0.09825146
88	0x3ca1c2c0	0.019746184
89	0x3d939818	0.07206744
90	0x3e015dc1	0.1263342
91	0xbd73e5d4	-0.059545353
92	0xbe197832	-0.14987257
93	0x3e15af4c	0.14617652
94	0xbdecff26	-0.11572103
95	0x3e1c651b	0.15272944
96	0x3dc2269d	0.09480021
97	0x3d7b7880	0.061394215
98	0x3df30abe	0.11867283
99	0x3dac4847	0.08412223
100	0x3e353aa7	0.17698155
101	0xbdb11a7e	-0.08647631
102	0x3e0e56e1	0.13900329
103	0xbd5b950b	-0.053608935
104	0xbdb3afe5	-0.087737836
105	0x3e99d807	0.30047628
106	0xbdb00f61	-0.08596683
107	0xbce283c1	-0.027650716
108	0x3df55b1a	0.11980267
109	0xbd92af73	-0.071623705
110	0xbdc3ef9c	-0.09567186
111	0xbe1fea7b	-0.15616791
112	0xbc9816a5	-0.018565485
113	0x3d9e5736	0.07731478
114	0x3e3cb594	0.18428642
115	0xbcfa106b	-0.030525407
116	0x3e08b3f0	0.1334989
117	0xbe3a390e	-0.18185827
118	0x3d4294af	0.047505077
119	0x3e064996	0.13114008
120	0xbdfdb51f	-0.12388062
121	0x3debe579	0.11518378
122	0x3e09d54e	0.13460276
123	0xbe4eb0dc	-0.20184654
124	0x3e03165b	0.12801497
125	0x3e35a988	0.17740452
126	0x3e198cc7	0.14995109
127	0xbe07bb3a	-0.13255015
128	0xbd7be396	-0.06149634
129	0x3cd8ae00	0.026450157
130	0xbe227517	-0.15864979
131	0x3c1867e6	0.009302115
132	0xbd81139e	-0.0630257
133	0x3ce4c5e9	0.027926402
134	0x3dc3beab	0.095578514
135	0x3db3fa68	0.087879956
136	0x3e0e3f74	0.13891393
137	0xbe0ee370	-0.13953948
138	0x3ddb66f3	0.107129954
139	0xbe1ab1e0	-0.15106916
140	0xbd92758a	-0.07151325
141	0x3d99df9c	0.07513353
142	0x3d8294d3	0.06376042
143	0x3b3aca62	0.0028501977
144	0xbd28c296	-0.041201197
145	0x3d4fc2aa	0.050722755
146	0x3e15880a	0.14602676
147	0xbe048644	-0.12941843
148	0x3de3d3bf	0.11124372
149	0xbd41a40c	-0.047275588
150	0x3d9a4046	0.075317904
151	0x3e2681f1	0.16260506
152	0x3d277b21	0.04088891
153	0x3d88ed7e	0.06685923
154	0xbe02baaf	-0.12766527
155	0x3d32c21d	0.043642152
156	0x3d4fe2a7	0.050753262
157	0x3cbb21b2	0.022843216
158	0xbe317094	-0.17328101
159	0x3d9bdfc4	0.07611039
160	0xbdac6d43	-0.084192775
161	0x3c163c39	0.009169632
162	0x3e3c6deb	0.18401305
163	0x3e2ef2fb	0.17084877
164	0x3de985c0	0.11402464
165	0x3d919c98	0.07109946
166	0xbccad771	-0.024760934
167	0xbc81a696	-0.015826505
168	0x3dea67d6	0.114455864
169	0x3d3c535a	0.045977928
170	0xbc13ff68	-0.009033062
171	0x3a59bbae	0.00083058595
172	0xbd9fa834	-0.07795754
173	0x3d897db9	0.06713433
174	0x3e02320f	0.12714408
175	0xbd3788d0	-0.04480821
176	0xbe08340f	-0.13301109
177	0x3d41cd93	0.04731519
178	0x3e220433	0.15821914
179	0xbe01504e	-0.1262829
180	0x3de91119	0.11380214
181	0xbd91fecb	-0.07128676
182	0x3be9798d	0.0071250857
183	0x3da21356	0.07913844
184	0x3dc2da23	0.095142625
185	0xbda82789	-0.08210666
186	0xbdbb105d	-0.091339804
187	0xbdde0af7	-0.10841935
188	0x3e049225	0.12946375
189	0x3dd4c5bf	0.103892796
190	0xbe018583	-0.12648587
191	0x3d761100	0.060074806
192	0x3dcedab6	0.101003096
193	0xbcf6bed3	-0.030120289
194	0xbda9be72	-0.08288278
195	0x3cb72096	0.022354405
196	0xbdb2f6fc	-0.08738515
197	0x3e3291f2	0.17438486
198	0xbe409559	-0.18806972
199	0x3e0f814b	0.14014165
200	0xbe0bd693	-0.13656072
201	0xbda97816	-0.08274858
202	0xbc165cef	-0.0091774305
203	0x3e1c1eca	0.1524612
204	0x3e2911de	0.16510722
205	0x3e11c0ee	0.14233753
206	0x3df888fa	0.12135501
207	0xbe147d4a	-0.14500919
208	0xbc06bbe4	-0.008223508
209	0xbd88acd0	-0.06673586
210	0x3e1313dd	0.14363046
211	0xbdf77ef7	-0.120847635
212	0xbe151050	-0.14557004
213	0x3e00a262	0.12561944
214	0xbcd39d9f	-0.025831996
215	0x3d8fc23c	0.07019469
216	0xbbfe9b15	-0.007769952
217	0x3e247181	0.16058923
218	0x3db28ac9	0.087178774
219	0xbe165e6b	-0.14684455
220	0x3c2e08f1	0.010622249
221	0xbdd374c6	-0.10325007
222	0x3e03715b	0.1283621
223	0x3e227769	0.15865864
224	0x3cce7b91	0.025205405
225	0xbddd5b96	-0.10808484
226	0x3dba874d	0.09107838
227	0x3d76fd70	0.06030029
228	0x3a51ecdc	0.0008008012
229	0x3deedd1f	0.11663269
230	0x3a3a5423	0.0007107874
231	0xbbb3701d	-0.0054760114
232	0xbcbc1adb	-0.022962024
233	0xbdbcbdc4	-0.092158824
234	0x3ded5080	0.1158762
235	0x3dcbda68	0.09953767
236	0x3c636817	0.013879797
237	0xbd95fb1a	-0.073232844
238	0x3c04e09b	0.008110191
239	0x3dabbae2	0.083852544
240	0x3d687192	0.056748934
241	0xbd9e4e14	-0.07729736
242	0x3c6a03a5	0.0142830955
243	0xbe0576e2	-0.13033631
244	0xbdd72495	-0.10505024
245	0x3e1db9d5	0.1540292
246	0xbdc3c73f	-0.095594876
247	0x3e34c1bf	0.17652033
248	0x3dab0a1e	0.08351539
249	0x3e2e59b8	0.17026412
250	0x3d5eb1f8	0.054368943
251	0x3d12d506	0.035847686
252	0xbe05fbae	-0.1308429
253	0x3d72ba7c	0.059259877
254	0xbda39821	-0.07988001
255	0x3d59483a	0.053047396

Network_stack.0.0.gru.bias_ih_l1 f4 [96]
0	0x3e2fa10a	0.17151275
1	0xbdeec924	-0.11659458
2	0x3e28eac1	0.16495802
3	0x3e36f70b	0.17867677
4	0x3dc92435	0.09821359
5	0xbda61c55	-0.08110873
6	0xbde9ca44	-0.11415532
7	0x3d24169c	0.040060624
8	0xbe25ea13	-0.16202573
9	0x3e505d4c	0.2034809
10	0x3be55392	0.0069984877
11	0x3d82e9a0	0.06392217
12	0x3d876414	0.06610885
13	0xbdec6c11	-0.115440495
14	0xbcce6453	-0.025194323
15	0x3d39a12c	0.04531972
16	0xbdae432c	-0.08508906
17	0x3e3b3803	0.18283086
18	0x3d55f1dc	0.05223261
19	0xbda94430	-0.08264959
20	0xbcaf3574	-0.021387793
21	0x3dcbfed6	0.099607155
22	0x3e0579f8	0.13034809
23	0x3de8a84e	0.113602266
24	0xbb2f9ace	-0.0026795152
25	0xbe0c7fac	-0.13720578
26	0x3e284b92	0.16435078
27	0xbe04d27f	-0.12970923
28	0x3deae96c	0.11470303
29	0xbdbb30a7	-0.09140139
30	0x3d9f73d8	0.07785767
31	0xbe3a3a2f	-0.18186258
32	0xbc00a8e3	-0.007852766
33	0xbdc74131	-0.09729231
34	0x3e01959a	0.12654725
35	0xbe2fd2eb	-0.17170303
36	0xbdf4bce8	-0.119500935
37	0x3de06065	0.10955886
38	0x3de26c45	0.11055807
39	0xbde7bd8f	-0.11315452
40	0x3e2241aa	0.15845361
41	0x3c3f5885	0.01167882
42	0xbe74fc54	-0.2392438
43	0xbcf647e6	-0.03006358
44	0x3d134324	0.035952702
45	0x3d69d9fb	0.057092648
46	0x3e46412e	0.19360802
47	0x3ecd0190	0.40040255
48	0xbd82b8d0	-0.063829064
49	0xbdf09fd2	-0.11749233
50	0xbda85bde	-0.08220647
51	0x3d50e1fd	0.05099677
52	0xbdfd37ed	-0.123641826
53	0xbe36fae2	-0.17869142
54	0x3dd695b1	0.1047777
55	0x3d10e1bf	0.03537154
56	0x3e05cc09	0.13066114
57	0x3d2bf3af	0.04198044
58	0x3deaf194	0.114718586
59	0x3d9f5202	0.077793136
60	0x3de1c51c	0.11023924
61	0xbd54a625	-0.05191626
62	0x3d811f02	0.063047424
63	0x3c85b7fc	0.016323082
64	0xbe266dee	-0.16252872
65	0x3e1e7d69	0.15477528
66	0x3c5f366f	0.013623818
67	0xbe2bb69f	-0.16768883
68	0x3d308e9f	0.043104764
69	0xbde4cc79	-0.111718126
70	0x3d11e585	0.035619278
71	0x3d14497b	0.03620289
72	0xbdd7cda4	-0.1053727
73	0x3bb0afc1	0.0053920452
74	0x3e395528	0.18098891
75	0x3e28a5f7	0.1646956
76	0x3d11084a	0.035408296
77	0xbd0b011b	-0.0339366
78	0x3e04aaa1	0.12955715
79	0x3e1755f2	0.1477888
80	0xbde78345	-0.113043346
81	0x3e2f1b5c	0.1710028
82	0x3d9d5ebd	0.076840855
83	0xbe28786c	-0.16452187
84	0x3dc338ce	0.09532319
85	0xbd907ff6	-0.070556566
86	0x3c250dd7	0.0100741
87	0xbe09d998	-0.13461912
88	0xbc1bb1e8	-0.009502865
89	0xbcc1d579	-0.023661362
90	0x3de117a1	0.10990835
91	0x3d348055	0.0440677
92	0xbdcc1eb7	-0.09966796
93	0x3dcda3c2	0.10041
94	0x3d6f2a15	0.058389742
95	0xbdf76d6d	-0.12081418

Network_stack.0.0.gru.bias_hh_l1 f4 [96]
0	0x3e036330	0.12830806
1	0xbe21c872	-0.1579912
2	0x3c2b8f45	0.01047117
3	0x3c0698ee	0.008215172
4	0xbc2a213b	-0.010383899
5	0xbd2f6f12	-0.042830534
6	0x3e175626	0.14778957
7	0x3bee871f	0.0072792913
8	0xbe0c65e5	-0.13710745
9	0x3dd3dbd3	0.103446625
10	0x3d42c61c	0.047552213
11	0x3e2247b3	0.15847664
12	0x3e026bb0	0.12736392
13	0xbd95dd18	-0.07317561
14	0x3e005068	0.12530673
15	0xbe40ce95	-0.18828805
16	0x3e350c3c	0.17680448
17	0xbd8c873f	-0.06861734
18	0xbd3c6cec	-0.046002313
19	0x3dcafb09	0.099111624
20	0xbe3b5165	-0.18292768
21	0xbe01cde3	-0.12676196
22	0x3d5b18de	0.053490512
23	0x3c85b37b	0.016320935
24	0xbd9f2445	-0.0777059
25	0xbd63b657	-0.055593815
26	0xba42b589	-0.00074275635
27	0x3d8dae5a	0.069180205
28	0x3e2d00d5	0.16894849
29	0xbe132743	-0.14370446
30	0x3d77153c	0.060322985
31	0x3db20277	0.086918764
32	0x3db1ee2b	0.08688005
33	0xbda20b4e	-0.079123124
34	0x3e391824	0.18075615
35	0x3d24ddcd	0.04025059
36	0x3dac5a4e	0.08415662
37	0x3e1b8c24	0.15190178
38	0x3df12b09	0.117757864
39	0x3e2c06aa	0.16799417
40	0xbd135aff	-0.035975453
41	0xbe50809c	-0.2036156
42	0xbdcba07c	-0.09942719
43	0x3da6b7ae	0.08140503
44	0xbc049e0f	-0.008094325
45	0x3da49abf	0.08037328
46	0x3e3d9eb6	0.18517575
47	0x3e9c6440	0.30545235
48	0xbda11154	-0.07864633
49	0xbe2e4f44	-0.17022425
50	0xbdf671b2	-0.120334044
51	0x3ba27b48	0.004958544
52	0x3d8cbcd5	0.06871954
53	0x3d6bf49a	0.057606317
54	0x3e4c8eee	0.19976398
55	0xbe1c97e5	-0.15292318
56	0x3da42c17	0.08016222
57	0xbe0513d5	-0.12995847
58	0x3cf0e814	0.029407538
59	0xbd76cd3c	-0.06025432
60	0xbcc821c0	-0.024430156
61	0xbe3a0702	-0.18166736
62	0x3e4dc92d	0.20096274
63	0xbdb1500f	-0.08657848
64	0x3dd3cf8a	0.10342319
65	0x3d36eed7	0.04466137
66	0xbe1e243d	-0.15443511
67	0xbd8ea062	-0.06964184
68	0x3e3fb149	0.18719973
69	0x3a341727	0.0006869905
70	0x3db27431	0.08713568
71	0xbbf596eb	-0.0074947975
72	0xbe281071	-0.16412522
73	0x3dcfa86e	0.10139547
74	0xbd566138	-0.05233881
75	0xbc490c38	-0.01227098
76	0xbd02d3e3	-0.031940352
77	0x3e134240	0.14380741
78	0xbdf89400	-0.12137604
79	0x3dc4f476	0.0961694
80	0xbe368a29	-0.17826141
81	0x3d8accbc	0.06777331
82	0x3dcf0de4	0.10110071
83	0xbd1432d9	-0.036181305
84	0xbdc13d7d	-0.09435556
85	0xbde0b3e1	-0.10971809
86	0x3e25069d	0.16115804
87	0xbe095a67	-0.13413392
88	0x3b71efed	0.0036916689
89	0xbbed201a	-0.007236493
90	0xbb49ec3f	-0.003081098
91	0xbdce1f83	-0.10064604
92	0xbe1084cb	-0.14113156
93	0x3d83adeb	0.064296566
94	0xbc732950	-0.014841393
95	0xbe0ac79e	-0.1355271

Network_stack.1.0.gru.weight_ih_l0 f4 [96, 2]
0	0x3e19a192	0.1500304
1	0x3e21bffe	0.15795895
2	0xbe23afd9	-0.1598505
3	0x3d2f3ee8	0.0427846
4	0x3c855706	0.016276848
5	0x3d9d8b36	0.07692568
6	0xbd8447e4	-0.064590245
7	0xbe1de5b5	-0.15419658
8	0xbe3b0ea4	-0.18267304
9	0xbd8661f4	-0.06561652
10	0xbde6f66d	-0.11277471
11	0xbe242d68	-0.16032946
12	0xbe263c08	-0.16233838
13	0x3da93e42	0.08263828
14	0xbdfb6749	-0.122755595
15	0x3dfb2970	0.12263763
16	0x3e04c26a	0.12964788
17	0x3e25dd54	0.16197711
18	0x3da8228a	0.08209713
19	0x3e43b4bf	0.19111918
20	0xbda60704	-0.08106807
21	0xbd32cdd6	-0.04365333
22	0xbcc78632	-0.024355981
23	0x3c7edae4	0.015555117
24	0x3d1e4db0	0.038648307
25	0x3e3c5f52	0.18395737
26	0x3c26d8e9	0.010183551
27	0x3db429e2	0.08797051
28	0x3d79ad0f	0.060956057
29	0x3e3e4bdf	0.1858363
30	0x3dad2943	0.08455136
31	0x3df03153	0.11728158
32	0x3e48d7cd	0.19613571
33	0xbe1bdf46	-0.15221891
34	0x3e1a98f2	0.15097407
35	0xbdc851c7	-0.09781223
36	0x3e12c6e0	0.14333677
37	0xbe093fd1	-0.1340325
38	0x3d92942f	0.0715717
39	0x3d180816	0.037117086
40	0xbd1a3ef3	-0.03765769
41	0xbd96df51	-0.07366813
42	0xbd2e2fb1	-0.04252595
43	0x3c9645ac	0.018343769
44	0x3dcd7a53	0.10033097
45	0x3e086537	0.1331986
46	0x3d3ef9c6	0.04662492
47	0x3dcd77d2	0.100326195
48	0xbb69009e	-0.0035553346
49	0x3de38402	0.11109163
50	0xbdcdcff7	-0.10049432
51	0xbe215936	-0.15756688
52	0xbd601c5a	-0.05471454
53	0xbdeb16f1	-0.11478985
54	0xbd1c5dd2	-0.03817541
55	0x3cc2494b	0.02371659
56	0xbe06fc42	-0.13182166
57	0x3e4d767f	0.20064734
58	0xbdaedb8c	-0.08537969
59	0x3cfc28e4	0.030781217
60	0x3def3e97	0.1168186
61	0xbca70442	-0.020387772
62	0xbdb37a92	-0.08763613
63	0xbde5f42e	-0.11228214
64	0xbe5e434c	-0.21705359
65	0x3d5d3d18	0.05401334
66	0x3de2c913	0.11073508
67	0x3c2ef602	0.01067877
68	0x3d8f0f2c	0.06985316
69	0x3d731e4e	0.059355073
70	0xbdcd3470	-0.10019767
71	0xbe41de2a	-0.18932405
72	0xbdd0f0f3	-0.102022074
73	0xbd51dbd4	-0.051235035
74	0x3c7958fe	0.015218971
75	0xbe124471	-0.14283921
76	0xbd2fbc93	-0.042904448
77	0xbf0e98cd	-0.55701905
78	0x3e10975b	0.14120238
79	0xbdd01333	-0.10159912
80	0xbdd46ebf	-0.10372686
81	0xbe114bb7	-0.14189039
82	0xbe28cd98	-0.16484678
83	0x3d8bfd9a	0.0683548
84	0xbc46c396	-0.012131592
85	0xbe864f1f	-0.2623224
86	0xbe84c540	-0.2593174
87	0xbe954515	-0.29154268
88	0xbdd69e69	-0.10479433
89	0xbe4c61c1	-0.19959165
90	0x3e444c46	0.19169721
91	0x3ee398b2	0.44452435
92	0xbcdd675e	-0.027026828
93	0x3e151f59	0.1456274
94	0x3d9fbe6e	0.077999935
95	0xbeb7c219	-0.35890272
96	0x3ddd9327	0.10819083
97	0x3dfa9cd9	0.122369476
98	0x3e1376f7	0.1440085
99	0xbcbf6dc0	-0.023367763
100	0xbe3c3142	-0.18378165
101	0xbbf357e1	-0.0074262475
102	0x3dd7592e	0.105150566
103	0xbc4323d5	-0.0119103985
104	0xbdc39f43	-0.09551861
105	0x3d85eefe	0.06539725
106	0x3e154921	0.14578678
107	0x3d80fa61	0.06297756
108	0xbe18e22a	-0.14930025
109	0x3e1985a9	0.14992394
110	0x3d6d3832	0.05791492
111	0xbdc98837	-0.09840434
112	0x3df85d63	0.12127187
113	0xbc97f542	-0.018549565
114	0x3d8e001a	0.06933613
115	0x3e3d5294	0.18488532
116	0xbe50c643	-0.20388131
117	0x3d9b217c	0.07574746
118	0xbe07b3d3	-0.13252191
119	0xbd811402	-0.06302644
120	0xbd2731a2	-0.040818818
121	0x3d957b09	0.07298858
122	0x3e212154	0.1573537
123	0xbdcf898f	-0.10133659
124	0xbd8ad27d	-0.06778429
125	0xbd16f201	-0.036851887
126	0xbd358330	-0.044314563
127	0xbe9e5da8	-0.3093083
128	0x3dc61ebb	0.0967383
129	0xbd838d4b	-0.06423434
130	0xbcc03529	-0.023462849
131	0xbd8783b6	-0.06616919
132	0x3ba08bcf	0.004899479
133	0x3dcfefae	0.10153137
134	0xbb4c239a	-0.003114915
135	0x3ba39503	0.004992129
136	0xbe382cc9	-0.17985834
137	0x3dc1e07c	0.09466645
138	0x3dcf6cb8	0.10128158
139	0xbdf3520c	-0.118808836
140	0x3d6f7495	0.05846079
141	0xbe240cea	-0.16020551
142	0xbdbb3744	-0.091414005
143	0x3e1cfedc	0.15331596
144	0xbe16bf32	-0.14721373
145	0xbe1d7f45	-0.1538058
146	0xba8f499e	-0.0010931974
147	0x3c0cddce	0.008597804
148	0x3e0477b7	0.12936293
149	0x3df575e5	0.11985377
150	0x3d61a177	0.055085625
151	0xbe3fa78e	-0.18716261
152	0x3e02c148	0.12769043
153	0x3e30dc21	0.17271473
154	0xbd953877	-0.072861604
155	0x3d6abfc4	0.05731179
156	0xbc53447e	-0.012894748
157	0xbd5577ea	-0.052116312
158	0xbd97ccf4	-0.074121386
159	0x3e40767c	0.18795198
160	0x3c2b5960	0.01045832
161	0xbe1115d2	-0.1416848
162	0xbe138e43	-0.14409737
163	0xbd8dd762	-0.06925847
164	0xbe3279dc	-0.17429298
165	0xbd205f97	-0.03915366
166	0xbe0b7ed8	-0.13622606
167	0xbe00c96a	-0.12576833
168	0xbdf59e19	-0.11993045
169	0xbdb7a8f8	-0.08967775
170	0x3e38d76f	0.18050931
171	0x3dbb0f82	0.09133817
172	0x3e0aef4f	0.13567851
173	0x3d66308a	0.056198634
174	0xbe1991c3	-0.1499701
175	0x3c3e41d3	0.011612373
176	0x3e09e0a2	0.13464597
177	0x3dccf5ca	0.10007818
178	0x3d731ac9	0.059351716
179	0xbbaae6dc	-0.005215509
180	0xbe08796e	-0.13327572
181	0x3d4ce869	0.05002633
182	0xbccc95ee	-0.024973836
183	0xbd47da30	-0.048792064
184	0xbc2d10aa	-0.010563055
185	0xbd2467c6	-0.04013803
186	0x3dfd7aae	0.12376915
187	0xbe1b8108	-0.1518594
188	0x3ddfd4dd	0.10929272
189	0x3d2775ee	0.04088395
190	0x3e46814e	0.19385263
191	0xbdd8f7ca	-0.10594137

Network_stack.1.0.gru.weight_hh_l0 f4 [96, 32]
0	0x3e21d628	0.1580435
1	0xbdf27bd5	-0.11840025
2	0xbdffccc0	-0.12490225
3	0x3dc2bc03	0.09508517
4	0x3dfd26e0	0.123609304
5	0xbdd26f8a	-0.10275181
6	0xbdc0d9cc	-0.094165415
7	0xbd9d4e2c	-0.07680926
8	0x3e076add	0.13224359
9	0x3dff7192	0.12472834
10	0x3d35667b	0.044287186
11	0xbcc46909	-0.023975866
12	0x3e03e111	0.12878825
13	0x3db6ac29	0.08919556
14	0x3df69601	0.1204033
15	0x3e415549	0.1888019
16	0xbe161a0a	-0.1465837
17	0xbd9d6c44	-0.07686666
18	0x3d7c6783	0.061622154
19	0xbdc5db99	-0.096610256
20	0x3dedb47d	0.11606691
21	0x3daa485e	0.08314584
22	0xbdefb6f7	-0.1170482
23	0x3d2573c6	0.040393613
24	0xbe066a62	-0.1312652
25	0xbd617116	-0.055039488
26	0x3e0218d2	0.1270478
27	0x3c001291	0.007816927
28	0xbe09dc40	-0.13462925
29	0xbdd5b27e	-0.10434435
30	0x3e2c84eb	0.16847579
31	0xbd2bc942	-0.04193998
32	0x3d89ca12	0.06727995
33	0x3e2cf97c	0.16892046
34	0x3db18af4	0.08669081
35	0x3e04eca7	0.129809
36	0x3d98c9fd	0.07460401
37	0x3d1e472c	0.038642094
38	0xbe261826	-0.1622015
39	0x3e04cf62	0.12969735
40	0x3e42e1c8	0.19031441
41	0xbdd39b8d	-0.10332403
42	0xbdf810f2	-0.12112607
43	0x3e18d272	0.14924029
44	0xbe1cd464	-0.15315396
45	0x3dc280bc	0.094972104
46	0x3e149dbe	0.14513299
47	0x3c1fa883	0.009744766
48	0x3c4a8221	0.012360127
49	0x3e32b95c	0.17453521
50	0x3d4d1f3b	0.05007861
51	0xbd7fd638	-0.062460154
52	0xbe15ac74	-0.14616567
53	0x3e14bd37	0.14525305
54	0x3d58fb64	0.05297412
55	0x3de9ebe7	0.11421948
56	0x3da65ac5	0.08122782
57	0xbbd74141	-0.006569058
58	0xbe3987c9	-0.18118204
59	0x3cf2bb43	0.029630309
60	0x3db98d43	0.09060147
61	0x3ce67f17	0.028136773
62	0x3ce1aab6	0.027547222
63	0xbd6e6223	-0.05819906
64	0x3dd78a41	0.10524417
65	0x3cd0c4ea	0.025484521
66	0xbd77a343	-0.060458433
67	0xbdfa6ddd	-0.12227986
68	0xbda0e3c0	-0.0785594
69	0xbd092f20	-0.033492208
70	0x3dac4336	0.08411257
71	0x3d49f0d1	0.049301926
72	0xbe019d1a	-0.12657586
73	0x3cf2253d	0.029558772
74	0x3dc3829a	0.09546395
75	0xbde6c34f	-0.11267721
76	0x3e052941	0.13004018
77	0x3e2ddb79	0.16978253
78	0x3dcd5082	0.10025121
79	0x3c9cfe1d	0.01916414
80	0xbd10aab2	-0.035319038
81	0x3da09d8c	0.0784255
82	0xbe30fc3f	-0.17283724
83	0xbbf5fa82	-0.0075066695
84	0x3d7bb0b8	0.06144783
85	0xbe05f537	-0.13081823
86	0xbc4b940c	-0.012425434
87	0xbe198ae1	-0.14994384
88	0xbcc3c657	-0.023898287
89	0xbe151481	-0.14558603
90	0x3e081a93	0.13291387
91	0xbe15d7c4	-0.1463309
92	0xbe23aa64	-0.15982968
93	0xbd9097a5	-0.07060174
94	0x3e3a30bd	0.18182655
95	0x3d9382d1	0.072026856
96	0xbe15e316	-0.14637408
97	0xbe384e1e	-0.1799855
98	0x3e2407a7	0.16018544
99	0xbccdb1c0	-0.025109172
100	0x3e2f2129	0.17102493
101	0xbdf815c0	-0.121135235
102	0xbdd3374d	-0.10313282
103	0x3c4cc915	0.012499114
104	0xbe1f514b	-0.15558355
105	0xbe0825e4	-0.13295704
106	0x3d70805f	0.058716174
107	0xbdf75a32	-0.1207775
108	0x3c518759	0.012788617
109	0xbdb3f699	-0.08787269
110	0x3a9dd009	0.0012040149
111	0x3c38c787	0.01127804
112	0x3e38471a	0.17995873
113	0x3e0ac25c	0.13550705
114	0x3dcb7dc7	0.099360995
115	0xbe1563cb	-0.14588849
116	0x3dc98291	0.09839357
117	0xbe37f11d	-0.17963071
118	0xbbece0f4	-0.007228965
119	0xbddf9fe3	-0.10919168
120	0x3dd1dfa3	0.102477334
121	0x3b4183b0	0.0029527955
122	0xbdb882b8	-0.090093076
123	0x3bf89e02	0.0075871954
124	0xbe0873c9	-0.13325419
125	0x3df0631f	0.11737656
126	0xbda8aedf	-0.08236479
127	0xbdc4f5e3	-0.09617212
128	0xbdd2b85f	-0.10289072
129	0x3dbcafdf	0.09213232
130	0x3e1d6d8a	0.15373817
131	0xbe30df77	-0.17272745
132	0xbd8a35e3	-0.06748559
133	0x3dc00f0d	0.09377871
134	0x3e3a19c1	0.18173887
135	0xbd36c752	-0.04462368
136	0x3d73d593	0.059529852
137	0xbde6b9c7	-0.11265903
138	0xbe340528	-0.17580092
139	0xbe0dee6e	-0.13860485
140	0xbd118b42	-0.035533197
141	0xbe205014	-0.15655547
142	0x3df40aa6	0.119160935
143	0x3d60986c	0.05483286
144	0xbd4ec80e	-0.050483756
145	0x3dec9da5	0.11553506
146	0xbcfdb97e	-0.030972239
147	0xbcf5bd6a	-0.029997546
148	0x3dfdaa49	0.12385995
149	0x3dcc9ba8	0.099906266
150	0xbbdf8b15	-0.006822
151	0xbd1e8f72	-0.03871102
152	0xbe013f6d	-0.12621851
153	0x3c9a1a93	0.0188115
154	0x3e35d98b	0.17758767
155	0xbdaaa761	-0.08332706
156	0x3e255c8f	0.1614859
157	0x3dea9dc1	0.114558704
158	0xbe030521	-0.12794925
159	0x3d611099	0.05494747
160	0xbda149d7	-0.07875412
161	0x3de79408	0.113075316
162	0xbbc8da0e	-0.00612951
163	0xbe1aafe7	-0.15106164
164	0xbd316c86	-0.043316387
165	0x3d4a4b27	0.049388077
166	0x3d1ac736	0.03778764
167	0xbd879563	-0.0662029
168	0x3bf6a611	0.007527121
169	0xbbfcde78	-0.00771695
170	0x3d608267	0.05481186
171	0x3dc641c5	0.09680513
172	0x3e21ee50	0.15813565
173	0x3ce09645	0.027415404
174	0x3d37d8d7	0.04488453
175	0x3cbad2b1	0.022805544
176	0x3e0eb3df	0.13935803
177	0x3de494d3	0.111611985
178	0xba3b5f77	-0.0007147709
179	0x3dd8f4e4	0.10593584
180	0x3e28717b	0.1644954
181	0xbda02065	-0.07818679
182	0xbd485b0b	-0.04891495
183	0x3de3488f	0.11097824
184	0xbcae9ec4	-0.02131594
185	0xbe0035e1	-0.12520553
186	0x3e0fb8bb	0.14035313
187	0x3d164b23	0.03669275
188	0x3e030136	0.1279343
189	0x3d9d754d	0.07688389
190	0xbd1ea511	-0.03873164
191	0xbdfabad7	-0.12242668
192	0x3cb19f07	0.021682275
193	0x3e13d333	0.14436035
194	0xbdb76cf6	-0.089563295
195	0xbd1eb94b	-0.038750928
196	0x3da8be1b	0.08239385
197	0x3dc68a6c	0.096943706
198	0x3dfaaeb1	0.12240351
199	0xbe30d5df	-0.17269085
200	0xbd8eedde	-0.06978963
201	0xbd258b30	-0.040415943
202	0x3d849ca9	0.06475193
203	0xbe09458d	-0.13405438
204	0x3e0de9b0	0.13858676
205	0x3cd02410	0.025407821
206	0xbe08a1b1	-0.1334293
207	0xbdd6281f	-0.10456871
208	0xbc6ae34d	-0.014336419
209	0x3d9bb6f4	0.07603255
210	0xbd890f83	-0.06692412
211	0xbdedc82d	-0.11610446
212	0xbc0fa136	-0.008766463
213	0xbe4bd9ed	-0.19907351
214	0xbe05c4f1	-0.13063408
215	0x3d890e15	0.06692139
216	0xbe77de1c	-0.24205822
217	0x3dc0012b	0.09375223
218	0x3dbb6999	0.091510005
219	0x3e1978b7	0.14987455
220	0xbe0f7da9	-0.1401278
221	0x3e216012	0.15759304
222	0xbe3ab43a	-0.18232813
223	0x3c39024c	0.0112920515
224	0xbda957e2	-0.082687154
225	0x3d8a9a67	0.06767731
226	0xbe02c2eb	-0.12769668
227	0xbdf6c4fc	-0.120492905
228	0xbd841819	-0.06449909
229	0xbdeff048	-0.11715752
230	0xbe08dfdd	-0.13366647
231	0x3e2396d3	0.15975504
232	0xbd46ce4e	-0.04853659
233	0xbe1c42f1	-0.15259911
234	0xbd79a22e	-0.060945682
235	0x3dddf4e8	0.10837728
236	0x3dee6a4c	0.11641368
237	0xbb922ef6	-0.0044611646
238	0x3dbfa8b4	0.093583494
239	0xbd04b5be	-0.032399885
240	0x3df67ef8	0.12035936
241	0x3e18ab61	0.14909126
242	0xbcd7d1e8	-0.026345208
243	0xbe0af8fa	-0.1357154
244	0xbdae7fdd	-0.08520482
245	0x3de03585	0.10947708
246	0xbe1b6ea8	-0.15178931
247	0x3dc83ae2	0.09776856
248	0xbdbacee4	-0.091214925
249	0x3da8ea73	0.08247843
250	0x3de3784e	0.11106931
251	0x3e0cd526	0.13753185
252	0xbd511c34	-0.051052287
253	0xbe007f45	-0.1254855
254	0x3b5f326b	0.003405715
255	0xbd88b5b0	-0.06675279

Network_stack.1.0.gru.bias_ih_l0 f4 [96]
0	0x3e120b2a	0.14262071
1	0xbd23a3ca	-0.039951123
2	0x3d2ddd6b	0.04244749
3	0xbd86409d	-0.06555293
4	0xbe1ab4b5	-0.15107997
5	0xbc09175a	-0.008367384
6	0xbe1fd630	-0.1560905
7	0xbe0ebcca	-0.13939205
8	0x3a6a99ca	0.0008949308
9	0x3cb3cb75	0.021947602
10	0xbdb5bd52	-0.088740006
11	0xbd99649b	-0.07489892
12	0xbde48136	-0.111574575
13	0x3dd54523	0.104135774
14	0x3e0f5456	0.13997015
15	0x3cc1ef32	0.023673628
16	0x3da0daee	0.078542575
17	0x3d7ffa85	0.062494773
18	0xbdad0055	-0.08447329
19	0xbd4bd156	-0.049760185
20	0x3d8437aa	0.064559296
21	0xbe1c1fd6	-0.1524652
22	0xbe33b996	-0.17551264
23	0xbe193583	-0.1496182
24	0x3dbb729f	0.091527216
25	0x3e03a68e	0.12856504
26	0x3cef45f5	0.029208163
27	0x3e23bd91	0.15990283
28	0x3dcc6b4d	0.099814035
29	0x3dd6ff62	0.10497929
30	0x3e133c46	0.14378461
31	0x3d0a92e8	0.033831507
32	0xbb3d7b62	-0.0028912653
33	0x3db670a7	0.089082055
34	0xbe1bdf15	-0.15221818
35	0x3cc37e1e	0.023863848
36	0xbd0528c2	-0.032509573
37	0xbcbb4d8b	-0.022864124
38	0xbe53fff7	-0.20703112
39	0xbe5d7664	-0.21627194
40	0xbe032d0a	-0.1281015
41	0x3cc31324	0.023812838
42	0xbd0b7888	-0.034050494
43	0xbe8780d0	-0.26465464
44	0xbd4f24e2	-0.050572284
45	0x3e0dc2cf	0.13843845
46	0xbd85547d	-0.065102555
47	0xbe373be5	-0.17893942
48	0xbdf5d309	-0.120031424
49	0xbd828163	-0.06372335
50	0xbd91b01f	-0.071136706
51	0x3ded6fe1	0.11593605
52	0xbd9728a0	-0.073807955
53	0xbcefb230	-0.029259771
54	0xbc58ee8e	-0.01324047
55	0x3e417659	0.18892802
56	0x3dd91238	0.10599178
57	0xbcea6e5c	-0.028617077
58	0x3d9f5d85	0.07781509
59	0xbe603b78	-0.21897686
60	0x3e3ce275	0.18445762
61	0x3de2305b	0.11044379
62	0xbdcbf64c	-0.09959087
63	0xbd8e10f3	-0.069368266
64	0x3e2bdbe8	0.16783106
65	0x3d5e2c93	0.054241728
66	0xbd7f4823	-0.062324654
67	0xbd08598f	-0.033288535
68	0xbdd172cc	-0.10226974
69	0xbd16ac23	-0.036785256
70	0x3d12199b	0.03566895
71	0x3e121913	0.14267378
72	0x3df274b9	0.11838669
73	0xbd95e37b	-0.07318779
74	0xbe180daa	-0.14848962
75	0x3cdd56f1	0.027018996
76	0x3e3bf4a2	0.18355039
77	0x3e28e975	0.16495307
78	0x3e17a7b7	0.14810072
79	0x3cf39ba6	0.029737305
80	0xbd0d8ae6	-0.034556292
81	0x3d8982a1	0.067143686
82	0x3db4c292	0.08826174
83	0x3dcc24e3	0.09967973
84	0xbe14dc03	-0.14537053
85	0xbe156fe7	-0.14593469
86	0xbda1bf39	-0.07897801
87	0xbe2e5a65	-0.1702667
88	0xbe45df78	-0.19323528
89	0x3e12b2fd	0.14326091
90	0xbe2132cb	-0.15742032
91	0x3e04b055	0.1295789
92	0x3e2d1685	0.16903122
93	0xbe27de7c	-0.16393465
94	0xbdfb17b3	-0.1226038
95	0xbd433ac2	-0.047663458
