models/model_uniform_region_0-0.3.0.6-0.9_multiple_Agents2ae12203.pth (torch, 87266 bytes, 18 tensors)

Network_stack.0.0.gru.weight_ih_l0 f4 [96, 2]
000000 0e d1 54 be f5 fd 2e 3e 0d b0 5b be b8 00 0b 3e
       -0.20782873 0.17089064 -0.21453877 0.13574493
000010 5f 12 02 3d 66 d3 0e 3b dd 72 e8 3c 5f 53 2e 3e
       0.0317558 0.0021793484 0.028375084 0.17023991
000020 0d 46 cf bd ce 7a 45 3d 13 e9 da bd bd 04 c7 3d
       -0.10120783 0.04821282 -0.10688987 0.09717701
000030 08 2e 28 be f2 65 1b be 3d 43 2a bd 6b 45 f9 bc
       -0.1642381 -0.15175608 -0.04156803 -0.030428609
000040 62 99 87 bd 0b 73 1d bc ca 38 ef 3d 03 62 2a 3d
       -0.06621052 -0.009609948 0.116807535 0.041597378
000050 f9 0b e1 bd e1 bc a0 bd 6d 3f 1c 3e 56 9e 92 bb
       -0.10988612 -0.07848526 0.1525857 -0.0044744415
000060 82 fb bb bc db 69 a6 bc ac c1 23 be 56 46 b7 3c
       -0.022947077 -0.020314148 -0.15991849 0.022372406
000070 bb fa b3 bd 26 88 9d bd dd bc bf bd c2 8b 13 3e
       -0.087880574 -0.07691984 -0.09362195 0.14408782
000080 05 a8 94 3d 5a 8e 65 3d 88 c7 c2 3d 31 3c 5d bd
       0.0725861 0.05604396 0.09510714 -0.05401248
000090 85 fc 5d 3d 80 a1 46 3d 29 01 a2 3c 55 46 bf 3d
       0.0541959 0.048493862 0.019775944 0.09339587
0000a0 3d 1c e8 3d 73 f5 0a bd fb ef a8 bc 25 f9 15 be
       0.11333511 -0.033925485 -0.020622244 -0.14645822
0000b0 a9 b7 a2 3b 22 ed c7 bd 5a f8 8d 3d e7 f1 0a 3e
       0.0049657417 -0.09762026 0.06932135 0.13568841
0000c0 95 e9 15 3e 03 13 bd bd d2 a7 77 bc 98 3d 33 3e
       0.14639886 -0.09232142 -0.015115695 0.17503965
0000d0 f2 06 0a bc 28 30 38 3d 7f d7 22 3d ba 41 f4 bd
       -0.008424507 0.0449678 0.039756294 -0.11926599
0000e0 48 85 58 3d de 51 2a be d2 bc de bd c0 b0 0a bd
       0.052861482 -0.16632792 -0.10875858 -0.03385997
0000f0 cc 79 1f 3d ba 6e 88 bd a6 09 5b 3e 7a 0a e6 3b
       0.038934514 -0.066617444 0.213904 0.007020292
000100 88 44 8e be c2 15 c3 3d 14 f8 2a bc 50 45 d3 bc
       -0.2778666 0.09525634 -0.010435123 -0.025789887
000110 9f 6a 92 3c e0 a1 c9 bc b9 77 ee bd 54 f3 07 bd
       0.017873107 -0.02461332 -0.11643929 -0.03319104
000120 e1 0b 14 bd 56 91 a4 3d 8f e3 56 3e ba a4 da bd
       -0.03614414 0.08035533 0.20985244 -0.1067595
000130 ae e7 91 3c fb ba 51 bc 22 84 cc 3d b4 c3 3e 3e
       0.017810669 -0.012800927 0.0998614 0.18629342
000140 40 dc b1 bd 97 f4 1e bc aa fd dd bd de ab 95 bd
       -0.086845875 -0.009701869 -0.10839398 -0.07308172
000150 54 d2 a7 ba 6f 89 09 3e 9d 18 05 3e 38 85 6e 3d
       -0.0012803772 0.13431333 0.1299767 0.058232516
000160 33 97 db 3b 51 ec 98 3d 03 09 4d bd 3e be ab 3d
       0.006701374 0.07466949 -0.050057422 0.08385895
000170 ef e7 27 3c 8b f7 0a be 3c 10 da bd 4f 52 ff bb
       0.010248168 -0.13570993 -0.10647628 -0.0077917944
000180 26 ce 1f 3d 3e d5 5b 3e ac 4f 70 3d bd b7 ec 3d
       0.039014958 0.21468064 0.05866973 0.11558483
000190 ac a0 3c be 45 b0 50 3d 3a aa 1d be 93 2a 67 be
       -0.18420666 0.050949354 -0.15396968 -0.22574835
0001a0 16 87 af be 9c 2d 00 3c 71 76 44 3e 49 b1 c9 3d
       -0.3428275 0.007823374 0.19185807 0.098482676
0001b0 c5 0d 1a 3e dd c2 ca bd c7 24 3d be 2c 8c 87 bd
       0.15044315 -0.099004485 -0.1847106 -0.066185325
0001c0 c9 32 0c be 50 0e 70 be 17 29 79 3e e0 a0 d9 bc
       -0.13691248 -0.2344296 0.24332081 -0.026565969
0001d0 7b 59 aa 3d a9 f5 31 bc 6f e0 99 3d 8d db 2f 3e
       0.08317848 -0.010861793 0.075135104 0.17173596
0001e0 9e ea f0 3c 82 7e 76 bd 76 c0 b8 3d eb 08 61 be
       0.02940875 -0.06017924 0.09021084 -0.21976058
0001f0 82 c5 58 bd de 5d 53 be 98 18 03 be 78 70 3c be
       -0.052922733 -0.20641276 -0.1280235 -0.18402278
000200 25 41 3b 3e 48 0a 30 3d 29 a3 36 be 5b 73 a5 3c
       0.1828657 0.042978555 -0.17835678 0.020196607
000210 5e 04 c7 3d d3 04 f3 3d 2b ab 28 be b2 11 cc bd
       0.0971763 0.118661545 -0.16471545 -0.099643126
000220 71 88 4d 3d fe 57 a2 3d 9b a8 ae 3d 52 74 22 3e
       0.05017895 0.079269394 0.08528253 0.15864685
000230 9f 0f fa 3d 02 5a e2 bd ec f2 90 bd 4b 85 88 bd
       0.12210011 -0.11052324 -0.07077584 -0.066660486
000240 4c 48 37 be b5 c7 1a 3e 5c a6 ab 3d 91 77 aa bc
       -0.17898673 0.15115245 0.0838134 -0.020808967
000250 e3 a4 43 be 87 de 2e 3d 53 19 48 bc 8a c2 e5 bd
       -0.19105868 0.042692687 -0.012213069 -0.11218746
000260 76 5a c7 3d 60 95 d5 3d 4a d7 0a 3d 1a a5 1f bd
       0.09734051 0.10428882 0.033896722 -0.038975812
000270 2e 69 54 be 13 d5 80 3c 2b 92 88 bc 69 dc 04 bd
       -0.20743248 0.015726602 -0.01667126 -0.032436762
000280 29 86 dd 3c 89 38 c1 3d 07 3e a3 bd 38 9a b3 bd
       0.027041512 0.09434611 -0.07970815 -0.08769649
000290 39 50 28 3c 23 5a 06 bd 4f e5 3a be 5c d6 1d bd
       0.010273033 -0.032800805 -0.18251537 -0.038534507
0002a0 b2 21 22 3e 53 1c de bd aa ec a7 bd d3 2a 0d 3e
       0.15833166 -0.10845246 -0.08199437 0.13785867
0002b0 03 81 d3 bd bf c4 3d bd 79 61 08 bd 69 22 e4 bd
       -0.103273414 -0.04633021 -0.033296082 -0.11139376
0002c0 69 52 52 bc 60 ba 22 3d 65 a9 8c bd 88 a9 00 be
       -0.012837031 0.039728522 -0.06868247 -0.12564671
0002d0 76 0d 82 3d 84 a8 fc bb 44 66 50 bd d4 e9 d3 3d
       0.06350224 -0.0077105183 -0.050878778 0.103473336
0002e0 dd 4a ad 3d f6 a9 22 3d 6e 37 3f be 7e 40 85 bc
       0.08461545 0.03971287 -0.18673488 -0.016266104
0002f0 2b ee dd 3d 9a 00 0b 3d 8a aa 41 3e 6d 0a 86 bd
       0.108364426 0.03393612 0.18912712 -0.06544957

Network_stack.0.0.gru.weight_hh_l0 f4 [96, 32]
000000 3a 3a 88 bd 2c b1 0b 3e 6d af 8f bd bb c8 d3 bd
       -0.06651731 0.13641804 -0.07015882 -0.10341021
000010 de c6 6f bd 82 70 1d 3e d5 49 a0 3d 14 ec 45 bc
       -0.058539264 0.1537495 0.07826582 -0.012080211
000020 3d 79 9c 3d 8b 12 fd 3c 3d 66 bf 3b 44 85 41 be
       0.07640312 0.030892631 0.005841045 -0.18898493
000030 a7 20 bb 3d 1a 5d 05 bd a4 d0 d1 3d fe 0d 8f 3d
       0.09137087 -0.03255949 0.10244873 0.06985091
000040 2c ec c8 3d c8 7c c7 3c dc da 5b bd ae 8b 22 3d
       0.09810671 0.024351493 -0.053675517 0.03968399
000050 49 ee 8c 3d 51 1a 0f be 28 db 8d 3d c2 4f 80 bc
       0.06881387 -0.13974883 0.06926566 -0.015663031
000060 ca 72 48 3d e7 d8 73 3d e2 7b a0 3d 3c 09 1d 3e
       0.048937596 0.059533026 0.07836129 0.15335554
000070 91 1e 82 bd 9f f0 26 3e 72 0d 87 3d b4 3f c1 3d
       -0.06353486 0.16302727 0.06594361 0.094359785
000080 a5 74 29 be 92 63 c9 bd 55 b3 0d 3c f7 77 90 bb
       -0.16548403 -0.09833445 0.008648713 -0.004408832
000090 dc 86 09 3e 63 f7 af bd b6 8c 39 be ff 33 dc bd
       0.13430351 -0.08592107 -0.18120083 -0.10752105
0000a0 30 7b fa bc 81 c3 23 be 83 25 36 bc 40 6d f7 3d
       -0.030576319 -0.15992548 -0.011117342 0.12081385
0000b0 ac 2e 0e 3b c5 e3 dd bd b6 76 57 3b 97 3c f8 bd
       0.00216953 -0.10834459 0.0032877154 -0.121209316
0000c0 90 fb 3d bd 7a 64 00 bd 9a 59 29 3e c4 99 d3 bd
       -0.046382487 -0.031345822 0.16538087 -0.10332063
0000d0 85 ea e7 3d 0d 57 33 3e 65 1a 6e 3d aa da fa 3c
       0.11324028 0.17513676 0.05813064 0.030621845
0000e0 99 53 19 be cd 11 b1 bd 74 bf ba bd ed e9 74 bb
       -0.14973296 -0.08645973 -0.09118548 -0.0037370876
0000f0 98 9c cf 3d 4e b4 f5 bd 2f 68 ce 3c 26 75 4b 3d
       0.1013729 -0.11997281 0.025196163 0.04967227
000100 a4 e7 23 bd c2 d1 e0 bc 2b d7 59 3e f9 1f 65 bb
       -0.04001583 -0.02744377 0.21273486 -0.0034961684
000110 81 67 1a be 4e 1e 15 be a8 ec 72 3d 36 b6 7c 3d
       -0.15078546 -0.14562342 0.059307724 0.061697207
000120 34 39 15 be 13 4d 28 3d bb 92 51 3d ab 24 62 3e
       -0.14572603 0.04108913 0.051165324 0.220843
000130 d0 4d 99 bd 85 3d 4c be ca 0d 40 3e be 9c 00 3d
       -0.07485545 -0.19945343 0.1875526 0.03139948
000140 6d 4c e8 3c f5 dd 51 3c 85 e1 75 bb 21 55 24 bd
       0.028356755 0.012809266 -0.0037518453 -0.040120248
000150 d7 45 01 be 8d b8 52 bc 2a 9d 1f 3e 43 94 5d 3e
       -0.12624298 -0.012861383 0.15587297 0.21638589
000160 42 c0 2e 3d b4 b4 a2 3d 24 64 e3 3d 4f f9 58 3e
       0.04266382 0.07944623 0.11103085 0.21188854
000170 2f 21 a4 bd 13 b3 27 3e 60 85 a9 3d b5 1e fe bb
       -0.08014142 0.16376905 0.082773924 -0.0077551254
000180 ca 39 0a 3e 06 8d 02 3d 5a aa 9e 3d f3 67 0c bc
       0.13498607 0.03187277 0.07747336 -0.008569705
000190 48 99 12 be 12 fe 0e 3e b8 5f 02 bd da c5 cf 3b
       -0.14316285 0.13964108 -0.031829566 0.0063407244
0001a0 39 2e 4f 3d a2 37 c6 3c 54 83 00 3e 22 d7 29 be
       0.05058119 0.02419645 0.12550098 -0.16585973
0001b0 d6 03 2e 3e 5d 70 95 bd c5 66 37 be 1e 5f a0 bd
       0.16993651 -0.07296822 -0.17910297 -0.07830642
0001c0 0f fa 36 bc e3 e3 cd bd 8a 6f c8 3d 01 eb 3b 3d
       -0.011168017 -0.100532316 0.097868994 0.045878414
0001d0 b7 d0 ab 3c d6 48 b7 3d 35 b6 09 3d 26 3a 4e be
       0.020973546 0.08949439 0.03362103 -0.2013937
0001e0 8d 6c e5 bd e6 75 e8 3c 85 db dc 3d cc 6d 12 3e
       -0.11202345 0.02837653 0.107840575 0.14299697
0001f0 48 00 28 bd ab be 4b be 54 17 cb bd 9a 2f f4 3d
       -0.041015893 -0.19896953 -0.09916559 0.11923142
000200 4b 5c 1c be bf d3 27 3e 2d f9 27 3e 52 37 36 3e
       -0.15269582 0.16389368 0.16403647 0.1779454
000210 f1 6d a9 bd 16 0e 73 bc f1 3c be bd f9 16 4f 3c
       -0.08272923 -0.014834901 -0.092889674 0.012639754
000220 85 26 a7 3d 5d d2 c9 3d 77 93 d6 bd 8d f8 34 3e
       0.08161644 0.09854577 -0.104773454 0.1767294
000230 91 79 0e 3e 4a 9b f4 bd de 79 fc bd 60 ef d4 3d
       0.13913561 -0.119436815 -0.12327932 0.1039722
000240 1b 5c 35 3d 32 cd 2c 3d 2c a2 06 be 69 eb e4 bd
       0.04427729 0.042187877 -0.13147801 -0.111777134
000250 5f 37 0a 3e a4 1b 2a 3e f4 73 26 3e 91 7e 0a be
       0.13497685 0.16612107 0.1625517 -0.13524844
000260 1f 77 06 be 94 f6 e3 bd 5c 90 20 be 66 71 2c be
       -0.13131379 -0.111310154 -0.15680069 -0.16840133
000270 04 22 29 be e1 3e fd 3b 97 42 85 3d 5e 0f 0c 3e
       -0.16516882 0.007728443 0.06506842 0.13677737
000280 98 11 6e 3c 69 f0 c1 3d 45 fe 0c 3e c3 b7 04 bc
       0.014530562 0.09469683 0.13768871 -0.008100453
000290 90 9d 45 3d 92 05 09 3e 2d cd f5 3d 41 c4 55 3e
       0.048245966 0.13381031 0.12002025 0.20875646
0002a0 87 e9 0e 3e 59 3d ac 3d ba 12 fa bb e4 f3 06 3e
       0.13956271 0.08410139 -0.007631627 0.13178974
0002b0 c4 29 89 3c 1f 20 90 bb 1d 72 12 be 19 42 e6 bd
       0.016743548 -0.0043983604 -0.14301343 -0.11243076
0002c0 70 dc d5 3c 52 5a 23 be 26 15 ed bc 41 45 35 bd
       0.02610609 -0.15952423 -0.028940748 -0.0442555
0002d0 35 6a 39 bd df 61 fc bd b1 ed 92 3d a5 73 72 bd
       -0.045267303 -0.12323355 0.07174242 -0.05919232
0002e0 f6 19 fd 3d 33 02 12 be 7e 20 84 3c fb 15 cd 3d
       0.12358467 -0.14258651 0.016128775 0.10013958
0002f0 cd 3d da bd a0 03 88 bd 85 2c 17 be 57 11 29 bc
       -0.10656319 -0.066413164 -0.14763077 -0.010319076
000300 f7 91 68 bd 86 69 2a 3b a0 71 28 3e 9d 8e 1d 3e
       -0.056779828 0.0026002838 0.16449594 0.15386434
000310 45 64 12 be c8 58 df bc 04 5d 21 3d 37 0c 3a 3e
       -0.14296062 -0.027264014 0.039395347 0.18168722
000320 0e cc 5c bd 27 15 8a 3d 12 d0 d6 bd 37 a1 08 3e
       -0.05390554 0.06742316 -0.10488905 0.13342749
000330 7c 3e f5 3c 43 31 de 3d 6b fe 84 bc 89 24 f3 bc
       0.029937021 0.1084924 -0.016234597 -0.029680507
000340 16 f8 d4 3c 6d 4d d1 bb d2 dc 87 3d aa 25 21 be
       0.025997203 -0.0063874037 0.06633915 -0.15737024
000350 b5 4a d3 bd 9c a0 35 be bc ef d6 3d 15 83 88 bc
       -0.103169836 -0.17737049 0.104949445 -0.016664067
000360 0a 97 08 be f8 7d ef bd 37 ba 00 3e 93 fa 8c bd
       -0.13338867 -0.116939485 0.12571035 -0.06883731
000370 21 d6 af 3d c7 c8 32 3d 7d 35 10 3e 65 2b 09 3e
       0.08585764 0.043648507 0.14082904 0.1339546
000380 c2 f2 e1 3d ff 37 1d 3e 37 be 1a 3e 89 4e 13 be
       0.110326305 0.15353392 0.15111624 -0.14385428
000390 5d db bd bd fd 67 2e bc f5 62 3e bb ee 68 bc bc
       -0.09270356 -0.01064491 -0.0029050682 -0.022999253
0003a0 8f ed dd bd 83 3b 10 bd ff ce f5 bd 7b 6c 3e be
       -0.10836326 -0.035213005 -0.12002372 -0.1859607
0003b0 78 96 05 be 96 9b 26 3e 28 48 c8 3d 78 53 75 bc
       -0.1304568 0.16270289 0.09779388 -0.014973514
0003c0 1b ab b5 bc 60 78 1e 3e 16 cc dc 3d 57 db 50 be
       -0.022176316 0.15475607 0.10781114 -0.20396172
0003d0 4a 30 fd bd 74 a0 1b 3e 92 23 28 be f0 13 e8 bd
       -0.12362726 0.15197927 -0.16419819 -0.11331928
0003e0 c0 2f 72 3d 00 f8 23 bd ac a2 30 3e 5b 8d ad 3d
       0.05912757 -0.040031433 0.17249554 0.08474227
0003f0 17 9e 17 3e 7c f8 ad bd fe 25 4c 3d da 10 49 3e
       0.148064 -0.0849466 0.04984092 0.19635335

Network_stack.0.0.gru.bias_ih_l0 f4 [96]
000000 2c 17 9b 3d ba c5 9d bd fd 6e c7 3d 02 ca 1e 3e
       0.07572779 -0.07703729 0.09737966 0.15506747
000010 81 3f 92 bd 15 28 08 bd e7 da 29 3e da 2d ae 3d
       -0.07141019 -0.03324135 0.16587411 0.08504839
000020 9a ae a7 3d e1 ba 95 3d c5 5d 92 bd d1 f6 15 3e
       0.081875995 0.07311035 -0.07146791 0.14644934
000030 1f 1c 00 3a b7 5a 91 bd 92 f1 e2 3c 6b 8e 9f 3d
       0.0004887003 -0.070973806 0.02770308 0.07790836
000040 99 56 c5 3d a7 5a 3d 3b 06 fe 51 bd d3 ae 18 3e
       0.09635658 0.0028893144 -0.051267646 0.1491044
000050 41 39 20 3d 39 aa 57 3c 3c 25 40 bb e1 65 31 be
       0.0391171 0.013163143 -0.0029319068 -0.1732402
000060 96 5a 6c 3d 33 0d 06 3e cc d1 cd 3d e3 a0 28 be
       0.057703577 0.13090973 0.10049781 -0.16467623
000070 e2 6f ba bd 75 e5 9a 3d bf 76 2e be e2 ad 14 3e
       -0.09103371 0.07563297 -0.17037486 0.14519456
000080 fc 0e 4f be 12 30 63 3d 03 a4 4b 3e 11 64 47 3b
       -0.2022056 0.055465765 0.19886784 0.0030424634
000090 65 57 00 3d be a3 5f 3e 71 e5 3c 3e 55 7f 81 bd
       0.031333346 0.21839806 0.184469 -0.06323115
0000a0 47 d8 36 be 65 30 c3 bd e8 73 f7 bc 3c e4 37 3e
       -0.17855941 -0.09530715 -0.030206636 0.17958158
0000b0 a5 7d e5 3d 84 8e 07 be 4b 31 b4 bd ae e9 1b bd
       0.112056054 -0.13237959 -0.087984644 -0.03806465
0000c0 18 09 39 bd 2a 7c 09 3e e4 45 3a be 42 68 93 be
       -0.045174688 0.13426271 -0.18190724 -0.2879048
0000d0 8c db 68 be e6 bb 7c 3d 41 7b 39 3e fb ce 2d be
       -0.2274 0.06170263 0.18113424 -0.16973488
0000e0 9e c4 1f bc 3b a2 47 bc 52 5d 35 3e 49 6b d1 3c
       -0.009751467 -0.012184675 0.1771138 0.025563853
0000f0 c7 09 86 be fa 9f 27 3d 94 f0 21 be 82 5c a5 be
       -0.26179335 0.04092405 -0.1581443 -0.3229714
000100 f0 28 2c bd 0d b2 05 3e 98 a1 1c be 1f d6 c7 bd
       -0.04203123 0.13056202 -0.15296018 -0.09757637
000110 ef cf 5d 3d 5d 8d 3b 3b 0d 08 19 be d5 04 b5 bb
       0.05415338 0.0028618195 -0.14944477 -0.0055242577
000120 fa b9 fa 3c 2f 2b 22 be 3a 30 01 3e 81 63 60 bd
       0.030606259 -0.15836786 0.12616053 -0.054782394
000130 69 97 b1 bc 6c d5 37 bd cc 89 21 bd ad b2 c4 3c
       -0.021678643 -0.04488127 -0.039438054 0.02401098
000140 f6 c8 61 bc 7a e3 ba 3d c9 8d a0 3d 96 dc af bc
       -0.013780823 0.09125419 0.07839543 -0.021467488
000150 b1 b5 33 bd 9e 22 83 3d e0 6a a1 3d fa 29 f1 3d
       -0.043874446 0.06403087 0.07881713 0.117755845
000160 cc f7 09 be 63 87 77 bd b2 cc 41 be 58 50 fc bd
       -0.13473433 -0.06043185 -0.18925741 -0.12320012
000170 2a ba ff bd b9 a5 24 bd e6 20 a5 3b 96 b8 ce bd
       -0.1248668 -0.040197108 0.005039322 -0.10093801

Network_stack.0.0.gru.bias_hh_l0 f4 [96]
000000 78 ea ad 3d a8 31 1a 3e 05 bb ed bd 16 6e da bd
       0.08491987 0.15058005 -0.11607937 -0.106655285
000010 5c 26 b5 bc 5a ab e3 bd 90 71 02 3e 82 72 ac 3d
       -0.022113018 -0.11116667 0.12738633 0.08420278
000020 20 0d 28 be d3 75 c7 bd 89 04 f7 bd 0b bc 2b bd
       -0.16411257 -0.0973927 -0.12061412 -0.04192738
000030 bb fb eb bd e5 47 bc 3d 07 a5 81 3d c0 25 76 3c
       -0.11522623 0.091934 0.063303046 0.015023649
000040 e3 42 1e be 36 eb fc bd bf b7 1a 3e f7 f1 e2 3d
       -0.15455203 -0.123495504 0.15109156 0.110813074
000050 c0 c7 f3 bc 1b 57 e9 3d 3d d4 0c 3e b6 ea 4b bd
       -0.029758334 0.11393567 0.13752837 -0.049784385
000060 f8 0a 3c 3e 42 1e 02 3e 97 f9 a8 3c 6b b6 de 3d
       0.18363559 0.12706855 0.020626826 0.10874637
000070 40 af 50 3d 2d 05 e5 3d 32 96 11 3e 28 2c 07 3e
       0.05094838 0.11182628 0.14217451 0.13200438
000080 1c 06 7c be a0 f4 fc 3d d0 07 b8 3d c1 b7 36 be
       -0.24611706 0.12351346 0.08985865 -0.17843534
000090 e2 29 e8 bc c5 07 28 3d de 12 a4 bd 6e 44 13 3e
       -0.028340284 0.041023035 -0.08011411 0.14381573
0000a0 89 c8 72 be f4 e8 5f 3c f4 16 52 3d 24 db 8c bd
       -0.2370931 0.01366638 0.05129142 -0.06877735
0000b0 79 16 db bc 02 f5 3d 3e a8 c1 91 bd b6 9a de 3d
       -0.026744114 0.18550494 -0.07117015 0.108693525
0000c0 a6 74 2a 3e 57 b9 e7 3d a5 65 84 bd 50 59 d6 bd
       0.1664606 0.11314648 -0.064647 -0.10466254
0000d0 42 0e b8 bc 40 d4 18 be 1d ca f2 bc b1 78 54 be
       -0.022467736 -0.14924717 -0.02963739 -0.20749165
0000e0 7d a0 f8 3d 99 41 c9 3d f4 a7 91 3d 37 90 e6 3d
       0.12139986 0.09826965 0.07112113 0.112579755
0000f0 b5 96 d4 bd ef be 16 3d a8 ac f5 bd 75 5d 5c be
       -0.103803076 0.036803182 -0.11995822 -0.21520026
000100 f8 86 3e be 22 fb 09 3e 71 fc a0 3d 60 3d bc 3d
       -0.18606174 0.13474706 0.078606494 0.09191394
000110 eb be f8 bd 2a e4 98 bd 0b 99 8c bd 90 ba 9b 3d
       -0.1214579 -0.07465394 -0.06865128 0.07603943
000120 f7 cc b8 3c 8f e1 fa 3d b1 97 0f 3e 7e f9 41 bc
       0.022558672 0.12250053 0.1402271 -0.011839269
000130 a6 40 07 3e 64 f4 e8 3c f5 c2 bf 3d 1a be 0f be
       0.13208255 0.028436847 0.09363357 -0.14037362
000140 7b b5 a6 bb 60 dd f4 3d 1f c7 be bd 03 17 85 bd
       -0.005087552 0.119562864 -0.09315323 -0.0649853
000150 39 7c e9 3d e1 37 fb 3d 0a 28 cc bd 7e 89 19 be
       0.11400647 0.122665174 -0.09968574 -0.14993855
000160 74 a4 19 b9 61 ea 80 3d 89 3a 2b be c6 2b 1c be
       -0.0001465248 0.06294704 -0.16721548 -0.15251073
000170 82 55 0d 3e 85 f9 d1 bd 2e 35 7f 3d ce 09 ec 3d
       0.1380215 -0.1025267 0.062306575 0.115253076

Network_stack.0.0.gru.weight_ih_l1 f4 [96, 32]
000000 f8 19 31 bd 1e 33 7b bb 18 a4 b7 3d 76 2e e4 bd
       -0.043237656 -0.0038330029 0.08966845 -0.11141674
000010 fc 1b 7f bd c4 31 09 bd 2a 7e 47 bd 45 b9 b2 3d
       -0.062282547 -0.033494726 -0.048704304 0.087267436
000020 05 d6 2f be 45 02 17 3e ea 36 c3 3d 56 97 27 3e
       -0.17171486 0.1474696 0.095319584 0.16366324
000030 82 f5 f5 bc 40 d4 12 3e ba 78 24 3d d4 52 fc bd
       -0.030024294 0.1433878 0.040154196 -0.12320486
000040 d7 32 a6 3b 6c 8c 88 3d 8d c3 95 3b 22 e9 3b be
       0.0050719786 0.06667408 0.0045704306 -0.18350652
000050 e7 86 d7 bd a3 c1 20 3d 6d 6d 4b 3d b0 fd 31 3d
       -0.105237775 0.039247166 0.049664903 0.043454826
000060 e6 fd d4 3d 3c 51 aa 3d be 73 34 be 1f 68 cf bc
       0.1039999 0.083162755 -0.17622277 -0.025318203
000070 12 ee c5 bc fb 42 16 3d b9 bb 32 3e 1f 23 20 be
       -0.024161372 0.03668497 0.17454423 -0.15638398
000080 f1 c9 9b bd 15 b7 de 3d 4c dd 33 bd 58 82 f9 3d
       -0.07606877 0.10874764 -0.043912217 0.12183064
000090 e1 78 73 bd fc 12 31 be 6b 61 32 3e 9d 5c d9 3d
       -0.05944145 -0.17292398 0.17419975 0.10613368
0000a0 2e 70 f5 ba 33 fb 0a 3e 56 f7 b7 bd 42 94 d9 bd
       -0.0018725449 0.13572387 -0.089827225 -0.10623981
0000b0 57 ec 3b 3d 81 6e 37 be 07 5f ca 3c ed 03 04 be
       0.045879688 -0.17913248 0.024703516 -0.12892123
0000c0 70 f0 de bd a3 d1 c2 3d b5 86 11 3e 6a 99 a2 3d
       -0.108857036 0.09512641 0.14211543 0.07939418
0000d0 31 46 bc bd 85 6c b9 3d 38 7d 64 bc 86 c2 8b 3c
       -0.091930754 0.090539016 -0.01394587 0.01706053
0000e0 ea 8f 30 3e f8 c2 08 be ab a1 c8 3b 95 c9 e6 bd
       0.17242399 -0.13355625 0.006122788 -0.112689175
0000f0 1f ee 0f 3e e0 77 e5 bd 45 c7 f4 bd ae b6 e3 3a
       0.1405568 -0.11204505 -0.1195207 0.0017373168
000100 7a 68 e4 bd dc 1f 33 3e 44 8d 9f bd a8 0d 40 bd
       -0.1115274 0.17492622 -0.07790616 -0.046888024
000110 2e bc a6 3d c6 43 fa bd b5 a8 d0 3d 4f d2 44 bc
       0.08141361 -0.12219958 0.10188428 -0.012013032
000120 93 0d da bd 8a 39 db bd c1 f0 82 bd 26 38 98 3d
       -0.1064712 -0.10704334 -0.063935764 0.074325845
000130 a4 f4 91 3d 22 e5 3c 3c f1 16 07 3e 24 e1 b7 bd
       0.071267396 0.011529239 0.13192345 -0.08978489
000140 b1 36 1b 3e 92 e3 04 be 72 6b f9 bd ce df 2d 3e
       0.15157582 -0.12977436 -0.12178697 0.16979906
000150 8f b2 11 3e e4 a0 1a 3e e4 7f 32 3d 70 dd 03 3e
       0.14228271 0.15100437 0.043578997 0.1287744
000160 12 0c 8c 3d 3d c9 9f bd d0 6a 17 be 18 0c 51 3b
       0.0683824 -0.07802055 -0.1478684 0.0031898078
000170 61 8c 04 be 51 bb c5 3d 62 cd 10 bd 6d 80 b8 bd
       -0.12944175 0.096548684 -0.03535212 -0.0900887
000180 de f8 10 be 1f e4 fe 3c 9e c3 5c 3d ab 07 e4 3d
       -0.14157435 0.031114636 0.053897493 0.11134275
000190 41 6d 88 bd 52 d9 f5 bd bb e8 00 3e 5e f0 be bd
       -0.066614635 -0.12004341 0.1258878 -0.0932319
0001a0 0e 9d a0 bd 68 36 0d be 10 f8 cb bd fe ba e6 bd
       -0.07842456 -0.13790286 -0.099594235 -0.11266135
0001b0 ea 7f e9 bd fe f0 aa 3d 2b b1 d2 3d fa 8e d6 3d
       -0.11401351 0.08346747 0.10287698 0.10476489
0001c0 ba 5d df 3d 3d c9 2e 3e 64 47 3a 3d 44 16 14 3d
       0.10906549 0.17068954 0.04547824 0.036154047
0001d0 28 f8 c5 bd 8d 48 02 3d 30 56 f3 bc f3 7f 18 be
       -0.09666473 0.03180747 -0.029704183 -0.14892559
0001e0 35 1a 9c 3d 3c 7a 0b be 95 6a 41 be ad c9 21 be
       0.07622186 -0.13620847 -0.18888314 -0.1579959
0001f0 85 c9 08 be 3b 31 35 3e 5a 7f 88 3d bd 1c 8c bd
       -0.13358124 0.17694561 0.066649154 -0.06841419
000200 d3 73 82 3d ba 93 77 bd 61 1c 97 3d bf b8 1a be
       0.06369748 -0.060443617 0.0737846 -0.15109538
000210 9c 6a 04 3e a0 ad d0 3c 9a 7f f2 3d 6d b3 f0 3d
       0.12931293 0.025473416 0.11840744 0.11752973
000220 53 e9 e3 bd 70 9d ed 3d df 5a 9f 3d f7 c6 bb 3d
       -0.111284874 0.116022944 0.07781004 0.09168809
000230 9c 29 09 be 70 7b b1 bd 48 5d 35 3e d4 fc 9e bd
       -0.13394779 -0.08666122 0.17711365 -0.07763067
000240 64 a8 0d 3c 89 74 07 be e1 96 d5 bd 4b 8c 1f 3d
       0.0086461045 -0.13228048 -0.104291685 0.038952153
000250 59 dd bf 3d 06 e6 2b 3e 11 cc 88 bd 34 fd 13 bd
       0.093683906 0.16786966 -0.066795476 -0.036130145
000260 90 ee 85 3d 62 90 c5 3d f0 86 04 bd 5c 40 e6 3d
       0.06539643 0.096466795 -0.03235525 0.11242744
000270 c5 f4 93 bd 1e d4 2c 3a 13 8d 04 be b0 ce ab 3d
       -0.072244205 0.0006592887 -0.1294444 0.08389032
000280 b3 80 be 3d 91 f3 c4 bd 9d aa c1 bc c5 ae bb bb
       0.09301891 -0.09616769 -0.023640925 -0.0057276213
000290 5f 3b 05 be 41 0d b8 bd 6d 73 dd bd e0 b6 ce 3d
       -0.1301093 -0.08986903 -0.10813031 0.100934744
0002a0 c4 5c 11 3e ee 77 c9 bd f7 df c8 bd 4d 8f 18 be
       0.14195544 -0.09837328 -0.09808343 -0.14898415
0002b0 48 62 2b be eb a6 55 bd 4f 4f dc 3d 91 cc 23 be
       -0.1673671 -0.05216114 0.107573144 -0.15996005
0002c0 f6 f7 21 be 0c 3d 04 be 3d 85 ed bb 07 15 94 3d
       -0.15817246 -0.12913913 -0.0072485493 0.07230573
0002d0 2e 62 00 be 03 c2 18 bd 98 41 86 bd ec e1 de 3d
       -0.12537453 -0.0372944 -0.0655548 0.10882935
0002e0 85 48 f9 3d 24 ff 38 bd b4 c3 fb bc e3 61 aa bd
       0.12172035 -0.045165196 -0.030732967 -0.08319452
0002f0 90 7f 0d bd cf 27 25 be 3f bb fd bd 0d e7 ce 3d
       -0.03454548 -0.16128467 -0.1238923 0.10102663
000300 99 6f 05 bd 41 14 e0 bd d6 72 e5 3b 75 8d 5d 3d
       -0.03257713 -0.10941363 0.007002215 0.054089982
000310 b0 f9 49 ba 0b a0 29 bd 57 db f9 3c d8 47 42 3d
       -0.0007704748 -0.041412394 0.030500097 0.047431797
000320 76 51 40 3e 85 2a 16 be 23 45 2c be a0 ee c4 3d
       0.18781075 -0.14664657 -0.16823249 0.096158266
000330 27 b1 ef 3d ae 71 08 be ba 76 b5 3d d2 d2 12 3e
       0.11703711 -0.13324615 0.08860536 0.14338234
000340 ec f0 e1 3b eb fa f1 bc 16 8a f1 bd e2 90 a2 bd
       0.006895175 -0.029538592 -0.11793916 -0.079377905
000350 e3 1a 77 3d 85 3e ba bd 99 22 68 bd 0c 77 3b bd
       0.060328376 -0.09093956 -0.05667362 -0.04576783
000360 59 81 72 3c 6f d0 af 3d f7 a1 a7 3d 82 8c 12 3e
       0.014801347 0.085846774 0.08185189 0.14311412
000370 85 06 86 bd 88 0b 18 bd fe b2 43 3d bf 50 c0 bc
       -0.06544212 -0.037120372 0.047778122 -0.023476003
000380 a1 89 41 bd a3 5a da bc 07 a8 e0 3d dc 3c da bd
       -0.047250394 -0.026654547 0.10969549 -0.10656139
000390 cb 7b 29 3d d5 56 c7 3d 59 f7 3b 3d b3 76 cb 3d
       0.041377824 0.09733359 0.045890186 0.099347495
0003a0 c6 e6 94 3d 1e 9b 01 3e e9 9a 4b 3b e5 e1 7d bd
       0.07270579 0.12656829 0.0031067675 -0.061983008
0003b0 80 26 26 3e 17 06 df 3d b0 ae 24 3e 55 a9 12 be
       0.16225624 0.108898334 0.16082263 -0.14322408
0003c0 70 75 91 bd e2 89 22 3e 1f 89 16 3e d9 38 0a 3e
       -0.071024776 0.1587291 0.14700745 0.13498248
0003d0 9c e9 7e bd 27 04 08 bc 74 96 09 3e 3b 7f f8 bd
       -0.062234506 -0.008301771 0.134363 -0.12133642
0003e0 1e 84 e1 3d f5 6e ba bb 97 06 20 be d9 7b 15 be
       0.110115275 -0.0056894966 -0.15627514 -0.14598025
0003f0 19 4c 9f 3d 7c 8c 2f be bb 25 81 3d 51 e0 8c 3b
       0.07778186 -0.17143434 0.06306025 0.0042992015

Network_stack.0.0.gru.weight_hh_l1 f4 [96, 32]
000000 ba 9b e8 3d 05 66 9f 3d 4e fe 6b bc 89 b3 e9 bd
       0.113578275 0.077831306 -0.014403893 -0.11411197
000010 73 0d 92 bd 1f be a5 3d 99 5f 85 bd 86 b2 d1 bd
       -0.071314715 0.08092903 -0.065123744 -0.10239129
000020 1f 71 34 3e 9f d9 48 3d b6 36 ba bd 95 6d 2b be
       0.17621277 0.049035665 -0.090924665 -0.16741021
000030 19 ca cb bc c6 00 a0 bd 39 34 53 3d d7 25 10 3e
       -0.024876641 -0.078126475 0.051563475 0.14076935
000040 b1 28 11 be 49 cd 2c be 40 81 eb bd 8e 97 cf 3b
       -0.14175679 -0.16875185 -0.11499262 0.0063352054
000050 cf 17 ea bd 2e 14 15 3d 46 75 50 3d ad cd ba 3d
       -0.114303224 0.036396198 0.05089309 0.09121261
000060 ca 0c 2d 3e 2b c7 83 3d 4b eb 1c 3e a6 3a 7a bd
       0.1689941 0.06434473 0.15324132 -0.061091088
000070 f5 9e d2 bc 96 aa 18 be 87 b0 12 be 65 75 d0 bd
       -0.025710562 -0.14908823 -0.14325152 -0.10178641
000080 e8 7a bf 3d cf 8e 93 3d 9c b2 6b 3d 8f a0 10 be
       0.093496144 0.07204973 0.057543382 -0.14123748
000090 3b 98 1a 3e 32 d0 1e bd f6 21 00 be 04 c5 07 be
       0.15097134 -0.03877277 -0.12512955 -0.13258749
0000a0 60 02 32 bc c3 d3 dc 3d e8 21 55 3c 64 c6 fc 3d
       -0.010864824 0.10782578 0.013008572 0.123425275
0000b0 fc 72 bc 3d d5 55 14 be 8a 2d 2d be 63 76 7c 3d
       0.09201619 -0.14485867 -0.16911903 0.06163634
0000c0 06 9b 78 3d ca e3 ff 3d e0 dd 79 3d ce 34 fb bd
       0.060694717 0.12494619 0.061002612 -0.12265931
0000d0 58 8d 44 3e 4f dd 06 3c 08 17 cd 3d 02 94 c6 bd
       0.19194543 0.008231475 0.100141585 -0.09696199
0000e0 6a 41 81 bd ae 5a 59 3d 39 10 8e 3a fa 2d 0f bb
       -0.06311305 0.053064995 0.0010838575 -0.0021847473
0000f0 50 b0 25 bd 70 27 1f 3e ee e8 cc bd 67 77 20 3e
       -0.040451348 0.15542388 -0.10005365 0.15670548
000100 a8 f0 80 3c f9 55 bf 3d 1d 75 02 be 6b df 02 3d
       0.015739754 0.0934257 -0.12739988 0.03195135
000110 3d f0 fd 3d 0a 0d 01 be 3a 08 7d 3d f4 a1 03 3d
       0.123993374 -0.1260263 0.061775424 0.032136872
000120 82 84 ae 3d aa 4a 5d 3e 5e 74 60 b9 de 77 27 bd
       0.085213676 0.21610513 -0.00021405655 -0.0408858
000130 4b 7e 24 3c da 50 07 be f9 31 dc 3d 2b db 0b be
       0.010039876 -0.13214436 0.10751719 -0.13657825
000140 75 5d ae 3d ec c6 f8 bd 27 90 8e bd 14 dd 05 bc
       0.08513919 -0.12147316 -0.06961089 -0.008170385
000150 cb b5 bb 3d b5 bd 9f 3d 0c ed f9 bd 91 1f ee bd
       0.09165534 0.077998556 -0.12203416 -0.116271146
000160 a4 2a 89 3d 6e 4d d1 bd bf ef 4e 3b c4 80 b8 3d
       0.06697586 -0.10219847 0.0031576005 0.09008935
000170 d4 f2 10 3e 06 c7 bb bd eb 04 8f bd 97 10 09 3e
       0.14155132 -0.0916882 -0.0698336 0.13385235
000180 c8 f2 8c 3c 7e c7 43 bd e1 7f 6e bd 43 c8 75 bd
       0.01720561 -0.047797672 -0.058227424 -0.060005438
000190 66 78 dc 3d fe cd 96 bd b5 89 09 bd 7b 4e 20 be
       0.10765152 -0.07363509 -0.033578593 -0.15654938
0001a0 75 a5 f5 bc 24 98 ae bd b9 c6 45 bd 5e e4 cf bd
       -0.029986123 -0.08525112 -0.04828522 -0.101509795
0001b0 0b 3d 10 3e 63 1b d0 bc c2 85 3c 3d 92 12 e8 bd
       0.14085786 -0.025403684 0.046026 -0.11331667
0001c0 bd 4a 46 3d c4 c5 2c be 6e 8a 0e be 4f b6 0a 3e
       0.04841112 -0.16872317 -0.13919994 0.13546108
0001d0 c8 f1 bf 3b 63 a5 b4 3d c0 f5 c7 bd 17 77 36 3e
       0.00585768 0.088206075 -0.0976367 0.17818867
0001e0 c1 80 3f 3e 55 b3 0c be bd 4f 97 bd ce 80 11 3d
       0.1870146 -0.13740285 -0.07388256 0.03552323
0001f0 36 a4 8c bd e9 41 b9 bd 9e ed 2b be e3 9d 76 3d
       -0.06867258 -0.090457745 -0.16789863 0.060209166
000200 d4 7f 06 3c b4 7d 16 3b 48 7c 1e 3d 0d a5 14 be
       0.008209188 0.0022963108 0.038692743 -0.14516087
000210 fe 9d 34 be 2c 1e 0c be 67 b4 01 be 0c b7 5d bd
       -0.17638394 -0.13683385 -0.12666474 -0.054129645
000220 a3 cd 16 3e 17 05 99 bd 30 84 df 3c bf 05 ac 3d
       0.14726882 -0.07471674 0.027284712 0.083995335
000230 13 30 21 be 17 6e a2 bd f5 52 b9 bd c4 12 b2 3d
       -0.15740995 -0.07931154 -0.09049026 0.086949855
000240 9e fe 2c 3e 64 18 ce bd 7d 14 58 3d 36 2e 71 3c
       0.16894004 -0.10063246 0.052753914 0.01472049
000250 39 8c 9d 3c 9e 15 89 3c f4 00 0d bc 99 3e bb 3d
       0.019231902 0.01673394 -0.008606184 0.09142799
000260 e3 2e 02 be 54 9b 92 3d 73 0f 8b 3d 55 e3 68 3d
       -0.12713198 0.07158533 0.06790056 0.056857426
000270 d6 7d 35 bd 8d 1c f0 3c d8 3e 7f 3b 21 1b 0f 3c
       -0.04430946 0.02931049 0.003894737 0.008734495
000280 44 7b e8 bc 0f ee 8c 3d 2b df 37 bb ba ce 69 bd
       -0.02837909 0.068813436 -0.0028056602 -0.057081915
000290 73 d7 95 bd a8 68 36 3e 18 1c 49 be c6 72 e5 bd
       -0.07316484 0.1781336 -0.19639623 -0.11203532
0002a0 ed 4c 12 be 3e cf 59 bd 70 b8 18 bb 61 3b d3 bd
       -0.14287157 -0.053176157 -0.0023303293 -0.1031406
0002b0 e2 30 34 3e 17 d0 c5 3b a8 33 0f bd b4 bf 33 3e
       0.17596772 0.006036769 -0.034961373 0.17553598
0002c0 fb 28 3c 3c 64 17 33 be 90 f5 e0 3d 0f 2f ad 3d
       0.01148438 -0.17489392 0.10984337 0.08456241
0002d0 e6 8e ae 3d b9 28 ad 3d 0f be f1 3d 5d a9 b9 bd
       0.085233495 0.08455033 0.11803829 -0.090655066
0002e0 73 75 33 3e 4d 30 9f bd 00 a2 75 bd 76 28 1b 3d
       0.17525272 -0.077728845 -0.05996895 0.037880383
0002f0 a4 9a 18 be 89 74 22 bd a5 81 01 3e 7b 7c b3 bd
       -0.1490274 -0.039661918 0.12647112 -0.08763977
000300 38 24 69 bc fa 4a 44 be bd f7 a5 3d 20 32 fb bd
       -0.014229827 -0.19169226 0.08103893 -0.1226542
000310 53 0f c0 3d 5c ce e0 bd 1e 95 d4 3d c5 17 51 bd
       0.09377923 -0.1097686 0.10380004 -0.05104806
000320 a7 f4 17 3e 0e 66 b4 3c 60 bd d2 bd c2 ba 17 be
       0.14839421 0.02202132 -0.10290027 -0.14817336
000330 e4 ae 56 bd d3 16 2a 3d 88 eb ad bd fa 79 17 bd
       -0.052412882 0.041525673 -0.0849219 -0.03698156
000340 61 c3 10 bd 71 20 cf 3d 0e 88 26 be f9 11 08 be
       -0.035342578 0.101136096 -0.16262838 -0.13288106
000350 b4 78 a2 bd 0a ff 04 be 67 7c 48 bd f7 e3 3a be
       -0.079331785 -0.12987915 -0.048946764 -0.18251024
000360 cb 6c 0f be 00 33 8f 3d fc 1e 05 3e ef 21 32 bd
       -0.14006345 0.06992149 0.13000101 -0.043489393
000370 36 52 83 bc d9 d4 13 3d 5c 07 40 3d c6 e6 b0 3d
       -0.016030412 0.03609166 0.04688202 0.086377665
000380 7e 0f 6d bd bf 76 fd 3c c1 70 72 bd 53 22 ff bd
       -0.057876103 0.030940412 -0.05918956 -0.12457719
000390 a2 cd cf bd 73 05 24 be ad 4e 78 bd 0e 27 32 be
       -0.10146643 -0.16017704 -0.060621906 -0.1739771
0003a0 af d2 e3 3c 8e 8b 47 bd 99 3d 14 3e e3 e7 07 3e
       0.027810423 -0.048717074 0.14476623 0.13272052
0003b0 bf e1 d6 3d 9d 88 95 3d d9 1a 48 bc 11 64 0f 3e
       0.104922764 0.073014475 -0.012213432 0.14003016
0003c0 85 07 0a be 4b 72 cf 3d 43 48 ce bc 38 1d 1a be
       -0.13479431 0.101292215 -0.025180941 -0.15050209
0003d0 75 45 17 bd e3 49 6a 3d 1d 71 d4 3d c7 b3 35 bc
       -0.036931474 0.05719937 0.10373137 -0.011090226
0003e0 3d 9a ba 3d b1 37 83 3d ce 91 dc bd f5 d9 e8 bd
       0.0911145 0.06407107 -0.107699975 -0.11369697
0003f0 38 aa 19 3d 55 4b 2b be c1 f9 14 3e a5 b2 bb 3d
       0.03751585 -0.16727956 0.14548399 0.09164933

Network_stack.0.0.gru.bias_ih_l1 f4 [96]
000000 4e c0 43 bc 76 84 22 3e 52 71 3e 3d a9 b2 46 3e
       -0.0119477045 0.15870842 0.04649479 0.19404091
000010 03 cf a1 3d 46 fc 29 3d 2c ce 19 be 14 c4 1b be
       0.079008125 0.041500352 -0.15020055 -0.15211517
000020 c7 14 ef 3c 96 67 3d bd 67 c9 20 be 8c 7f 1c 3a
       0.029184712 -0.046241365 -0.15701829 0.00059699337
000030 ae bd fb 3d e6 83 f4 bd 43 c3 1d 3e dd a7 aa 3d
       0.12292038 -0.1193922 0.15406518 0.08332799
000040 b7 c7 f0 bc ee b8 b7 3d 32 c5 84 3d 7d 7b 21 be
       -0.029392106 0.089708194 0.064829245 -0.15769763
000050 c5 8e f5 3d 77 36 79 bd 3c 90 42 3d 07 5f 14 3e
       0.11990122 -0.060842957 0.047500834 0.14489375
000060 84 ea d4 bd 58 30 95 bd ab 5b 10 be 6e 6a 8f bd
       -0.10396293 -0.072846115 -0.14097469 -0.07002722
000070 3f d5 34 be 92 3a 18 be 27 33 e3 bd 75 77 6e bd
       -0.17659472 -0.14866093 -0.11093741 -0.05821939
000080 2d b7 90 bd 84 96 ff 3d 6f 3f 8b 3e 60 3f 6f 3e
       -0.07066188 0.124798805 0.27196833 0.2336402
000090 62 dc 85 bd 41 04 b2 3d 55 d2 3c 3d c8 f4 50 be
       -0.06536175 0.086922176 0.046099026 -0.20405877
0000a0 47 bd 29 3e 07 f9 dc bd a6 83 a0 3d 43 9d 2d 3c
       0.1657611 -0.10789686 0.0783761 0.010596576
0000b0 10 0b b6 bc d4 76 9c 3d 69 e8 fe bc 07 94 81 be
       -0.022222072 0.07639852 -0.031116681 -0.25308248
0000c0 81 0c f5 bd e3 a7 a9 bc 00 a0 07 3d 86 8d 1d 3e
       -0.119652756 -0.020709937 0.033111572 0.15386018
0000d0 29 c7 13 3e 47 21 11 be 73 b0 d0 3c 19 c1 a9 bd
       0.14431442 -0.1417285 0.025474763 -0.082887836
0000e0 74 4c 48 bd 9f 3a 17 be b9 2f 38 3d 8f 43 e9 bd
       -0.048901036 -0.14768456 0.044967387 -0.11389839
0000f0 ca 15 45 3d 4f 2d 1a 3d ce 31 5d 3e 17 b9 1a be
       0.048116483 0.037640866 0.2160103 -0.15109669
000100 24 fe 49 3d da 1f 89 bc aa ff c5 bc 50 f7 e0 bd
       0.049314633 -0.01673882 -0.024169762 -0.10984671
000110 40 37 20 be 72 2e 37 bd fb a9 07 be bf a1 70 bc
       -0.15646076 -0.044722028 -0.13248436 -0.014687001
000120 dc bc 8a bd 02 86 da bc 9a 65 2a bd 00 93 03 be
       -0.06774303 -0.026675228 -0.0416008 -0.12849045
000130 59 0f f3 3d 43 06 b3 bd 03 a8 22 be b9 7b 8f 3c
       0.11868162 -0.08741429 -0.15884404 0.01751505
000140 00 d1 08 3e 84 1b f3 bd c0 37 19 3e cf d3 39 bd
       0.13360977 -0.118704826 0.14962673 -0.045368012
000150 80 78 12 3d 1b df 1b 3e 5f af 36 be c6 7d 38 3e
       0.03575945 0.15221827 -0.17840336 0.18016729
000160 6b c8 05 3e 2a ae 90 bd 88 61 22 3e c9 00 0b be
       0.13064735 -0.07064469 0.15857518 -0.13574518
000170 81 ba dd 3c 86 de a6 bd d0 1c 73 3c 63 6d d3 bd
       0.027066471 -0.08147912 0.014838412 -0.10323598

Network_stack.0.0.gru.bias_hh_l1 f4 [96]
000000 6b 19 73 3d d4 91 5b 3b f5 d0 c4 bc 95 1e 2a 3d
       0.059350412 0.0033503668 -0.02402542 0.04153307
000010 bd 85 06 3d b3 60 e0 bd 10 3c 37 be 6a eb f4 bd
       0.032842387 -0.10955944 -0.17894006 -0.11958964
000020 eb 8c 17 bc c1 41 42 3e 69 17 a5 bd f8 07 11 bd
       -0.009249906 0.18970396 -0.08061106 -0.03540799
000030 85 45 c3 bc 6b 59 1c 3e a3 13 ce 3d 51 e7 6e 3d
       -0.02383686 0.15268485 0.10062339 0.05832607
000040 52 9c 7b 3b 9c 48 88 bd e5 e4 41 be 0d f1 85 3d
       0.0038392735 -0.06654474 -0.18934973 0.065401174
000050 44 71 5c 3d ee e7 cd bd e4 b5 7d 3d c8 5a f8 3c
       0.053818956 -0.10054003 0.061941043 0.030316725
000060 c2 a2 9b 3a 63 89 07 be 31 79 e9 bd 2f d9 03 3e
       0.0011874067 -0.13236003 -0.114000686 0.12875818
000070 8e 68 80 bd 07 f9 b7 bd 82 95 02 3d ad 43 c7 bd
       -0.06269942 -0.08983045 0.031880863 -0.09729705
000080 93 2a 27 3e ce f6 3e 3e e4 65 18 3e 45 9d 7d 3c
       0.16324835 0.18648836 0.14882618 0.0154793905
000090 d3 ba 2f be ad 3d bf bd 47 2c 96 3d 05 bd 2d bd
       -0.17161112 -0.093379356 0.07332664 -0.04241659
0000a0 ad d6 96 3e 21 bf fd bd b4 60 44 be 7d 9e 0b bd
       0.2946066 -0.123899706 -0.19177514 -0.034086693
0000b0 81 4e 06 be e8 d8 8b 3e 8c 69 c4 3c c6 00 2a be
       -0.13115884 0.27313924 0.02397611 -0.16601858
0000c0 69 2c 25 3e 42 e7 22 bc 18 60 48 be 8c 9e e1 3d
       0.16130222 -0.0099428315 -0.19567907 0.110165685
0000d0 29 ef 76 3d e5 ae 67 bd 5a 17 b4 bd 0b ee 1d 3d
       0.060286675 -0.056563277 -0.087935165 0.038557094
0000e0 d8 f0 53 3d 7b f9 91 3d 68 28 e0 bc 52 06 01 bc
       0.05174336 0.07127663 -0.027363017 -0.007875042
0000f0 64 c3 2b bd d4 5b 85 bc d2 b6 5c bc 16 46 9e be
       -0.041934386 -0.016279139 -0.013471322 -0.30912846
000100 09 5e d9 bd 06 37 49 3c e9 14 42 be d0 3d 49 3e
       -0.10613639 0.012281185 -0.18953289 0.19652486
000110 92 8f 13 be 60 59 32 bd 4d bc 7f bd fc 21 50 bd
       -0.14410236 -0.043542266 -0.062435437 -0.05081366
000120 a7 f6 28 3c 5b a5 d4 3d 77 7e 2c 3d f1 75 2f 3e
       0.010312713 0.103831016 0.042112794 0.17134835
000130 c5 91 3c bd 96 d5 32 be 45 36 07 be d8 9d b8 3d
       -0.046037454 -0.17464289 -0.13204296 0.09014481
000140 ee fe ef bd da da d2 bc b2 cf ed 3d c6 dc ac bd
       -0.11718546 -0.025739122 0.1161188 -0.08440547
000150 2d 39 f3 bd 01 b9 0f 3e fe 20 c7 3d 74 c7 32 3e
       -0.1187614 0.14035417 0.0972309 0.17458898
000160 a3 12 00 bc a9 36 3b 3d 0b e4 f6 3d 82 20 93 3d
       -0.007816943 0.045706425 0.120552145 0.07183935
000170 90 02 7b 3d ef 95 2d be c2 f5 0c bd f5 7a 02 be
       0.06128174 -0.16951726 -0.03441406 -0.12742217

Network_stack.1.0.gru.weight_ih_l0 f4 [96, 2]
000000 08 3b 26 be ce a4 e9 3d 48 27 a0 3d b0 c6 4b 3e
       -0.16233456 0.11408387 0.07819992 0.19900012
000010 4e d4 82 3d 98 dc ff bd 3b 73 e2 3d 12 12 62 bd
       0.0638815 -0.12493247 0.11057135 -0.055193014
000020 a7 ad 65 bd c4 4a 40 3c 51 95 9b bc 6d 87 40 be
       -0.05607381 0.0117365755 -0.018992098 -0.18801661
000030 c8 d1 02 3e 17 1d e7 bd 6a a5 12 be 8a 54 64 bd
       0.12775338 -0.11284845 -0.14320913 -0.055744685
000040 cb 52 21 be 8b f7 51 be 7d 3a 3a 3e 11 17 79 be
       -0.1575424 -0.20504586 0.18186374 -0.24325205
000050 ee 34 13 be 6e bf d0 3d 3f dc 44 be 25 9b 27 be
       -0.1437566 0.10192762 -0.19224642 -0.16367777
000060 31 7a ed 3d 39 a4 ca bd 67 4b 79 bb 4d 0b b7 bd
       0.11595572 -0.09894604 -0.0038039328 -0.08937702
000070 5d ae 1b be 6d 55 b1 3c bc 82 4d 3d 28 e5 3a 3e
       -0.15203233 0.02164718 0.050173506 0.18251479
000080 e2 25 25 3e 75 b5 a8 bd 0d 1b 0a 3e c6 7b c6 3e
       0.16127732 -0.08237735 0.13486882 0.38766307
000090 18 50 d9 3b 35 cb ff bd 61 1d 0b 3d 8f ea 5d 3e
       0.0066318624 -0.124899305 0.033963565 0.21671508
0000a0 e7 ab 14 bd b5 f1 b7 3d 22 28 44 be 82 f0 90 3d
       -0.03629675 0.08981649 -0.19155934 0.07077123
0000b0 26 23 bd bc 12 6f b8 bd b7 00 45 be af a1 4e 3d
       -0.02308805 -0.0900556 -0.19238554 0.050447162
0000c0 4b d7 5c 3c d2 79 ce 3b 00 6b 81 3d b5 c0 16 be
       0.013479064 0.006301143 0.06319237 -0.1472195
0000d0 e4 1f 6e bd e4 18 4f bd 2f d9 e9 3c ab 87 a8 3d
       -0.058135882 -0.050560847 0.028545944 0.082290016
0000e0 1e 43 fb bd bd eb 57 be 1f ad 88 3d c3 e7 ea bd
       -0.12268661 -0.21086021 0.06673645 -0.11469986
0000f0 f7 f2 d4 3d 1c 3d 43 3e 4c 0f a3 bc 5c b7 26 bd
       0.10397904 0.1906628 -0.019904755 -0.04070221
000100 3c 94 5f bd b5 34 1a 3e 01 e8 86 be 90 00 92 be
       -0.054584727 0.15059169 -0.2634888 -0.28516054
000110 5f 04 cb be 62 b0 ce be ac 5f 86 be cd 84 56 be
       -0.39651772 -0.40368944 -0.26244867 -0.20949097
000120 c7 70 f8 be 98 de 31 3d 1b 68 81 be 84 35 3b 3d
       -0.48523542 0.043425173 -0.2527474 0.045705333
000130 ef 90 02 3e 2d 1f c2 bd 42 15 28 bd 08 c1 a0 bd
       0.127506 -0.094786026 -0.041035898 -0.07849318
000140 b5 c1 ce bd 8b d5 cb be b6 b0 42 be 55 d4 5e 3c
       -0.100955404 -0.39811358 -0.19012722 0.013600429
000150 ca 3f b0 bd a8 fd 40 be 70 32 78 be 78 b8 33 be
       -0.08605917 -0.18846762 -0.2423799 -0.17550838
000160 64 d4 b1 be 01 29 89 be f4 3f 54 3e 48 e0 2a 3e
       -0.34732354 -0.26789096 0.20727521 0.16687119
000170 b5 38 d9 bd 53 51 64 be 47 c0 99 be a8 6e 2d be
       -0.10606519 -0.22296648 -0.30029508 -0.16936743
000180 10 e1 9a be a6 77 00 be 5e 34 cb be b7 9f b8 be
       -0.30249834 -0.12545642 -0.3968839 -0.36059353
000190 38 3c d8 be b5 d1 28 be 4f a7 83 be af c6 b4 be
       -0.42233443 -0.16486247 -0.25713584 -0.35307834
0001a0 f2 f0 7d be e7 93 c5 3c c8 b8 2c 3d 4e be 78 bd
       -0.24798945 0.024118377 0.04216841 -0.060728364
0001b0 96 e8 94 3c f6 93 38 3d bd d2 3c 3e 01 df 50 be
       0.018177312 0.04506298 0.18439765 -0.20397569
0001c0 0c 48 7e be 87 8e 94 be bb 33 d6 be 66 27 4d be
       -0.24832171 -0.2901499 -0.41836342 -0.2003456
0001d0 5e ff e9 bd 22 89 44 be 07 da 00 be a5 80 f0 bd
       -0.114256606 -0.19192937 -0.12583171 -0.11743287
0001e0 0f eb b9 be 92 55 b5 be 64 88 21 be 04 4e 8e be
       -0.36312148 -0.35416847 -0.15774685 -0.27793896
0001f0 c3 fd 71 be ec e0 e1 bd 1a 37 93 be 48 dd b6 be
       -0.23631959 -0.110292286 -0.28752977 -0.357157
000200 c0 2f bb bd 4a 57 34 3d 68 33 5e bd 31 93 f4 bd
       -0.09139967 0.044028558 -0.054248244 -0.11942137
000210 c7 0e ff bd 1c 82 65 be e9 3d 7d 3d 2a 59 26 be
       -0.124539904 -0.22412914 0.06182662 -0.16244951
000220 08 ec 3b bd 6c 07 0d 3e 96 18 2e bc 7f ba 92 bd
       -0.045879394 0.13772362 -0.010625979 -0.071644776
000230 19 9a 09 3e 9d de 32 bc 00 ab f5 bc d0 e6 4e 3e
       0.1343769 -0.010917333 -0.029988766 0.20205235
000240 46 e5 b4 bc f4 97 02 be ae ba 91 bd 6c d9 64 be
       -0.022081982 -0.12753278 -0.071156844 -0.22348565
000250 53 94 a0 3d c4 1a 85 3d 5a e3 6e bd b8 ad c7 3d
       0.078407906 0.06499246 -0.058322288 0.09749931
000260 39 2a 9d bd 7c 20 4e 3e f8 24 05 be 3f 30 c2 bb
       -0.07674069 0.2012958 -0.13002384 -0.0059261615
000270 e0 ea 49 3c 1b d1 eb bd 87 71 06 3d d1 69 d2 bc
       0.012324065 -0.11514493 0.03282311 -0.025685223
000280 08 1a 07 bc 5a 20 60 bd 20 cb a6 3c 18 01 c1 bd
       -0.008245952 -0.054718353 0.02036053 -0.09424037
000290 4d b0 46 3c ac 6e 08 3e d5 65 5d 3d fc 88 2a 3e
       0.012126994 0.13323468 0.054052193 0.16653818
0002a0 42 31 ae 3d 88 3e 20 bd 6f db e8 bd 3a 1e cd 3d
       0.08505489 -0.039122134 -0.11369979 0.10015531
0002b0 b4 b7 c4 3b 1c 20 95 3d 36 26 d0 3d ac 6d b5 3d
       0.0060033444 0.07281515 0.10163538 0.08858809
0002c0 2e 40 99 3c f4 1c 16 3e 77 2d 45 bd 1f 80 34 3e
       0.018707361 0.14659482 -0.04813906 0.17627
0002d0 5c d3 dd 3d 45 e8 2c be b4 ba 10 be 84 0f 21 3e
       0.10831329 -0.16885479 -0.14133722 0.15728575
0002e0 08 cc 2d 3d 8b 96 4b be 18 d0 2f 3d 99 05 29 be
       0.042430907 -0.19881646 0.042923063 -0.16506042
0002f0 0c 0c 91 3d 4a 58 ab 3c 4c cd ca bd 7e 82 c6 bd
       0.07082376 0.020916123 -0.099024385 -0.09692858

Network_stack.1.0.gru.weight_hh_l0 f4 [96, 32]
000000 2e 13 6b 3d 04 54 02 3e 8b 85 62 bd 57 38 c0 bc
       0.057391338 0.12727362 -0.055303138 -0.023464365
000010 f9 ca 69 3d 47 60 84 bd 45 fa 68 3d 0e f2 53 be
       0.057078335 -0.06463676 0.0568793 -0.20697805
000020 1d 5c 5a 3e 64 5b 61 3c 08 82 2c be 0b 70 ae bd
       0.21324201 0.013754699 -0.16846478 -0.08517464
000030 37 78 b6 bd e3 5c 0c bc d7 55 d4 3c 15 34 4c 3e
       -0.08909648 -0.008567068 0.025919838 0.19941743
000040 6c 76 4f bc 4a ca 67 3e 7d 03 19 bd 63 dc 4f be
       -0.012662511 0.22635761 -0.037356842 -0.20298915
000050 84 e7 15 3e a3 0a e4 bd 47 41 a6 3d 45 b7 80 3d
       0.14639097 -0.11134841 0.081179194 0.06284956
000060 69 b7 8e bd 46 ca 20 3c 75 92 b5 bc 85 06 d9 3d
       -0.069685765 0.009813851 -0.022164563 0.105969466
000070 5a a1 c8 bc 03 a3 8d 3d 2b ee de 3d 96 2f e5 bc
       -0.024491 0.06915858 0.10885271 -0.027976792
000080 27 1a 02 be 3d 35 99 bd 5c 3b 99 3a 2e 42 22 be
       -0.12705289 -0.074808575 0.0011690664 -0.15845558
000090 2e 3f b6 3d 80 f9 e8 bd 4a 57 83 3d f6 50 bf 3d
       0.08898769 -0.11375713 0.064131334 0.09341614
0000a0 cf 71 6e 3d 09 aa 0e be 5d cc 15 3e c5 49 d5 3d
       0.058214005 -0.13932051 0.1462874 0.10414461
0000b0 ca 4b d8 bd fa 5e ba bd 3e 12 aa 3d c8 f0 75 bc
       -0.105613306 -0.091001466 0.08304261 -0.01501102
0000c0 12 b7 32 bd 15 b5 3b 3d 3d c9 54 bd c7 03 65 bc
       -0.04363162 0.04582699 -0.05194973 -0.013977951
0000d0 55 77 f1 bd d7 81 05 3d f6 38 50 be 02 c2 22 3e
       -0.11790339 0.032594528 -0.20334229 0.1589432
0000e0 4a 77 17 bd 01 e0 84 3c 4f c3 83 be 8b 55 69 bd
       -0.036978997 0.016220095 -0.25734946 -0.056966346
0000f0 b3 26 5b be ec 81 36 3e 56 b3 2e be 04 ba a6 3d
       -0.21401481 0.17822999 -0.17060599 0.081409484
000100 27 88 bb 3d 49 6a 16 be 38 d2 36 be c2 7c d9 3d
       0.091568284 -0.14688982 -0.1785363 0.10619499
000110 ad 5b d9 3d ec 55 ad bc 99 29 5d bc fa b2 f6 bd
       0.10613189 -0.021159135 -0.013498687 -0.12045856
000120 7d b4 9d bd 7a f9 4c 3b 74 b8 62 bd a8 1b ea 3c
       -0.07700441 0.003127663 -0.05535169 0.02857764
000130 c0 64 7a bb 09 6c b7 bd 9e 1f 88 3d 71 a2 3c be
       -0.0038207024 -0.08956153 0.066466555 -0.18421341
000140 7b ad de bc 42 9c 24 3e e5 19 9b bd 9a 52 0a be
       -0.027182331 0.16075233 -0.07573298 -0.13508072
000150 af 6a 22 3e a3 01 ca bd 91 36 b8 3d 97 c7 b1 3d
       0.15861009 -0.098635934 0.08994783 0.08680647
000160 bb ee 04 3d 47 26 03 3e f3 da a2 3d d4 d4 f6 bd
       0.032454234 0.1280757 0.079519175 -0.120523125
000170 4d ee 27 3d 2a d3 41 be 3b 1d 30 3d 46 81 a5 bb
       0.040998746 -0.18928209 0.042996626 -0.005050811
000180 86 4b 78 3c 5c 24 af 3d 92 6c 12 be 28 6a 32 bd
       0.015154725 0.08551857 -0.14299229 -0.04355827
000190 fb 5c bd 3d 18 b6 32 be 61 1a 91 bd c5 c6 cc bd
       0.0924625 -0.17452276 -0.070851095 -0.0999885
0001a0 b2 d0 23 be d8 61 52 be 08 6a 1a 3e bb c7 86 bd
       -0.1599758 -0.20545137 0.1507951 -0.06581064
0001b0 18 31 8b 3b f9 8a 1c be b2 04 1f bd 8a 00 11 3e
       0.004247796 -0.15287389 -0.038822837 0.14160362
0001c0 a4 71 88 3d fb 80 15 3e 49 a5 25 3e e4 32 04 bd
       0.066623 0.14599983 0.16176333 -0.032275096
0001d0 63 ea d1 3c 20 a1 fe bd 6b e5 f0 bc d8 6a c2 3d
       0.02562446 -0.12433076 -0.02940627 0.09493035
0001e0 95 32 c6 bd cc 3d 69 ba 1b d1 e6 3d 4e 66 06 3e
       -0.096776165 -0.0008897453 0.112703525 0.13124964
0001f0 f5 3e 0a be f8 6c 2d 3d 58 1a b2 3c 17 76 aa 3d
       -0.13500579 0.04234025 0.021741077 0.08323305
000200 e5 34 1e be 4a 92 d2 bc 61 66 f1 bd c5 41 f3 bd
       -0.15449865 -0.025704522 -0.11787105 -0.11877779
000210 b8 bf 3e 3e fe 8a 22 be 03 6b 79 bd a0 da 25 bd
       0.18627822 -0.15873334 -0.06089307 -0.0404917
000220 ff db f9 3d 94 4e 24 be 18 f5 12 3d 48 8f 9b bd
       0.12200164 -0.160456 0.03587827 -0.07595688
000230 17 6a 59 3d 38 9a 39 3e d9 77 8f 3d 65 6a eb bd
       0.05307969 0.18125236 0.07005281 -0.114949025
000240 71 2a 1a be 9f f3 47 3d 0e 02 02 3d 68 8f dc bd
       -0.15055253 0.04881632 0.03174024 -0.1076954
000250 39 ef 4f 3a 31 1d 6b 3c 30 b2 9a 3d 11 de c5 bd
       0.00079320703 0.0143502215 0.07553518 -0.096614964
000260 4b 10 b6 3d 27 3b b4 3d e8 18 2c 3d e8 be d7 3c
       0.088898264 0.08800345 0.04201594 0.026336148
000270 7e 7d d4 bd 75 0c 6b bd 27 d6 06 bd e9 c0 ec 3d
       -0.10375498 -0.057384927 -0.032919075 0.11560232
000280 0e 05 ed bd 35 2b ae bd ed bf 94 3d f0 2b 39 3e
       -0.1157323 -0.08504335 0.072631694 0.18083167
000290 ec dc 61 3c 90 a6 06 3e 38 2e 19 3e 3a 4a e0 3d
       0.013785582 0.13149476 0.14959037 0.109516576
0002a0 ae 78 79 3d 73 97 9c 3d f5 72 14 bd c3 92 b8 bd
       0.060906105 0.07646074 -0.036242444 -0.090123676
0002b0 0e 0b 43 3d 61 66 36 bd 2b fd 13 be d8 79 b5 bc
       0.047617964 -0.04453123 -0.14452045 -0.022152826
0002c0 9b 8b a2 bd 9e 5b 60 be 7d a8 7a bd b7 3f a4 3d
       -0.07936784 -0.21909949 -0.06119584 0.08019965
0002d0 19 44 d1 bd 85 5a 1b be 34 75 89 3b c8 a5 1f 3e
       -0.10218067 -0.15171249 0.00419488 0.15590584
0002e0 01 ff e6 bc 4d b6 1f be 44 db 17 3e be 36 b1 3b
       -0.028197767 -0.15596886 0.14829737 0.005408137
0002f0 1a 62 e1 3d 2c e4 13 3e a7 dd ce 3d 83 f3 00 3e
       0.110050395 0.1444251 0.101008706 0.12592892
000300 e6 1f d5 bc bf e1 ba bd 61 03 1d bd d6 d2 10 be
       -0.026016187 -0.09125089 -0.0383333 -0.14142928
000310 5f a1 a4 bd 25 16 0d 3e 2b 0b 87 3d 04 d1 64 bd
       -0.080385916 0.13777979 0.06593927 -0.055863395
000320 f2 a9 19 be ae e3 f5 3d 3d 2d fd 3d 93 23 24 3e
       -0.15006235 0.12006317 0.12362144 0.16029195
000330 9e a6 3b 3d e3 00 97 bd 16 0d 33 be a5 aa b2 3d
       0.045813195 -0.07373216 -0.1748546 0.08723954
000340 f5 51 15 bd 4d 8f e9 3c a0 29 22 3e d8 c1 1b 3d
       -0.036455113 0.028510714 0.15836191 0.03802666
000350 9a e8 be 3d 53 e7 f0 bd 41 38 b8 bd a2 63 00 3e
       0.09321709 -0.117628716 -0.089951046 0.12538007
000360 7d c6 14 3e e0 63 29 be 7f b9 fa 3d a5 8b 59 3c
       0.14528842 -0.16542006 0.12242412 0.013277923
000370 15 a1 42 be c8 31 c0 bd bc 87 a2 bd b3 3c 0f be
       -0.1900676 -0.09384495 -0.079360455 -0.13987999
000380 a3 1e a0 bd 6a 0b 8b 3d 6a 16 b3 3d 2d 68 81 bd
       -0.078183435 0.067892864 0.087445095 -0.06318698
000390 14 5f 8a 3d 6b ef a6 3d ce c3 23 bd c8 06 7b 3d
       0.06756416 0.08151134 -0.039981656 0.061285764
0003a0 0b 48 de 3d a2 04 28 be d1 f9 be 3d f5 96 76 bd
       0.10853585 -0.16408017 0.093249924 -0.060202558
0003b0 f2 01 53 bd 58 12 bc 3d 20 78 fa bd 06 08 0b be
       -0.051515527 0.09183186 -0.12229943 -0.1357728
0003c0 db fb 3d 3e 8e 8f 78 3e 1f e0 1b 3e 75 0a cb 3c
       0.18553106 0.24273512 0.15222214 0.02478526
0003d0 c7 f5 7b bd 61 2a 38 bc 40 9a 1e 3e e5 0e e9 bd
       -0.06151369 -0.011240573 0.15488529 -0.11379794
0003e0 50 89 05 3e db 03 cd bd 39 e1 1f be 79 fa 3d bd
       0.13040662 -0.10010501 -0.1561326 -0.046381447
0003f0 04 0c a7 3d 4e a9 01 3e ba e7 a5 3d 93 17 e9 3d
       0.08156589 0.12662241 0.08100839 0.113814496
