models/model_uniform_region_0-0.3.0.6-0.9_multiple_Agents89da0ea9.pth (torch, 87266 bytes, 18 tensors)

Network_stack.0.0.gru.weight_ih_l0 f4 [96, 2]
00000000: a02c e23d 6eb6 383d 876b 44be 432a a93d
00000010: 19e7 e13d fed0 03bd 4435 c7bd cb3d 123d
00000020: 3228 d5bd 8ba7 d73d 919b 5abe f793 463e
00000030: 5cbd ab3d 6a91 d7bd 2d1a 3ebe 01a6 f33d
00000040: 993a 9bbd 5eda ea3b f25d 39bd a034 fcbd
00000050: 3c00 41bd 1c4d 233e 094f 0b3d 359a eabd
00000060: 4f09 0dbe c5d8 673d cae6 f4bd 2325 8e3d
00000070: 1fff 89ba fc8e cc3d 0632 d7bc 000e 1ebe
00000080: bd02 e5bc 7162 f3bd d4ca 3fbe 5ea7 2ebe
00000090: 628e b43c 3bbc 3d3e 2bb9 55bd fbed 38bd
000000a0: c5ad 81bd 5b7f 92bd 74b1 e63c f7fe e5bd
000000b0: 2804 babd 8646 cb3d f040 ae3d 87f1 41bb
000000c0: f857 dc3d b536 a63d 0866 81bd afca 11be
000000d0: d212 5a3e 5040 0cbd b98f 663e 7909 ea3d
000000e0: b2d4 44bd 9c35 2f3e 38c5 29be 7ff0 a2bd
000000f0: 99ab 85bd 5c79 c7bc a71a 853d b95c 1b3d
00000100: d060 c0bd f1b3 26be aaa5 d53c 1898 96bd
00000110: cd93 963e f523 ac3d 4a61 b33e dc80 753e
00000120: 75a5 a7bc 798c 333e e249 79be 37ac 12be
00000130: d0e4 6b3c d80d 87bd 6afc f43d b764 073e
00000140: e535 c3bd 15b4 a43d bba8 8c3d 1777 1f3d
00000150: 5977 e6bd 771d 083e adce 8abd 73eb 1abe
00000160: 43c1 693d 78d2 c63c 1de0 353d 6e51 323e
00000170: 6259 81be 1a68 f8bd f5b3 1f3e 5979 a13b
00000180: 9c1f 543e c737 9e3e a360 2e3e 0a0a 103e
00000190: 545a 203e b3e8 3d3b 8de7 39bd 2f84 773c
000001a0: 7dcd 2d3e d78e 78bc 799d 4dbd 9491 d53d
000001b0: 1cb9 0f3e f846 cb3e 95e4 1abe 6687 12be
000001c0: 6ff3 42bd 2ee3 103e 16ff ab3e 91c4 d53d
000001d0: 55a2 9dbd 9714 963d 7e92 0b3e 535c 123e
000001e0: 0c0e 96bd af3b 983c 68db ac3e d244 403e
000001f0: df58 903d 5a2d 30be 0525 2cbe 7430 9d3d
00000200: b214 e9bd 1061 cdbd 9b89 213e 2451 f7bd
00000210: 9932 97bd 1152 9e3d 0d26 8b3d 3a9d 1c3e
00000220: 61f8 3e3d e267 e8bc f218 febd c970 b3bd
00000230: 8122 c3bd cbaa c43c 09e8 e9bd 6715 673d
00000240: 5175 2abe 597c 063e fa68 e13d 919e 6b3c
00000250: 237a 46be e94e 96bd 8eb5 433e a056 b23d
00000260: b52c ecba f5d8 2fbe cc51 f03d b80c e5bd
00000270: abf4 7a3d 6f98 323e a8d1 a1bd dfb8 5d3d
00000280: c753 d03d bfc1 abbd b0e3 d83d 9824 ecbd
00000290: 7dd8 96ba 4958 6dbd e9c5 133e 2124 703d
000002a0: efc9 6d3d a420 cd3d 66bc f5bd 7bea 1a3e
000002b0: 081e 89bd 30f1 bfbd c953 86bd 775e e3bd
000002c0: 0335 293e dd42 eabd 8005 1a3e fd72 cc3d
000002d0: 8988 41be aefa bbbd fbce 2abe 39c0 17bd
000002e0: bea7 5cbd df31 843d a3e0 953d ffe9 26be
000002f0: a75c 21bc b6d0 133e fc37 593e 7cbe 0e3d
0.11043668 0.045095854 -0.19181643 0.08260014 0.110304065 -0.032181732 -0.097269565 0.03570346
-0.10408057 0.10530003 -0.21348406 0.19392382 0.08385727 -0.105257824 -0.18564673 0.11896897
-0.07579536 0.0071671447 -0.04525561 -0.12314725 -0.047119364 0.15947384 0.03401092 -0.11455194
-0.13773082 0.056603212 -0.11958082 0.06940677 -0.0010528303 0.099882096 -0.02626897 -0.15435028
-0.027955407 -0.118840106 -0.18729717 -0.17056033 0.02204055 0.18528835 -0.052178543 -0.04514883
-0.06331972 -0.071531974 0.028160788 -0.11230271 -0.09082824 0.09925561 0.085084796 -0.0029593424
0.10758966 0.08115903 -0.06318289 -0.14237474 0.21296242 -0.03424102 0.22515763 0.11427588
-0.048054405 0.17110294 -0.16579139 -0.07956027 -0.0652687 -0.02434986 0.06499224 0.037930224
-0.093934655 -0.1627958 0.026079971 -0.07353228 0.29409638 0.08405296 0.35035163 0.23974937
-0.020464638 0.17534055 -0.2434459 -0.14323507 0.014397815 -0.06594437 0.11962207 0.13222013
-0.09531764 0.080421604 0.0686812 0.038931932 -0.112532325 0.1329249 -0.067777015 -0.15128879
0.057069074 0.024270281 0.044403184 0.17413875 -0.25263506 -0.12129231 0.15595992 0.004927796
0.20715183 0.3090193 0.17029051 0.1406633 0.15659457 0.002897781 -0.04538684 0.015107199
0.16972919 -0.015170774 -0.050199006 0.104281574 0.14035457 0.39702582 -0.1512626 -0.14309463
-0.047595438 0.14149162 0.33593053 0.10437883 -0.07696978 0.07328146 0.13630101 0.14293031
-0.07326898 0.018583147 0.33761144 0.18776253 0.07048201 -0.172048 -0.16810997 0.07675257
-0.113809004 -0.10028279 0.15775149 -0.12076023 -0.073826976 0.07730497 0.06794367 0.15294352
0.04662359 -0.028369848 -0.12407102 -0.087617464 -0.095280655 0.024007222 -0.1142121 0.056416895
-0.16646315 0.13133372 0.11006351 0.014381067 -0.19382529 -0.0733927 0.19112226 0.08707929
-0.0018018695 -0.17172606 0.117343515 -0.111840665 0.06126849 0.17440961 -0.07901317 0.054131385
0.10172229 -0.083865635 0.10590303 -0.11530417 -0.001150861 -0.057945523 0.14430965 0.058628205
0.058053907 0.10015991 -0.11998825 0.1512851 -0.06695181 -0.09372175 -0.065589495 -0.11102002
0.16524129 -0.114385344 0.1504116 0.0998287 -0.1889974 -0.09178673 -0.1668052 -0.037048552
-0.05387091 0.06454825 0.07318237 -0.163002 -0.00984875 0.14435086 0.21212763 0.03484963

Network_stack.0.0.gru.weight_hh_l0 f4 [96, 32]
00000000: 817e a7bd 594e d1bb 2068 db3b 9c2a 2cbe
00000010: 7880 f0bd f050 463c f831 023d 76fe 263e
00000020: 8072 b73d f459 2e3d 1406 dc3d 55ca 803c
00000030: cdb8 8d3d 6cac f5bd 813c 453d e9c3 a8bc
00000040: 3199 38be 13ce 193e d162 febd c6fd b03d
00000050: 44c4 393d e61c fa3d 157a 8c3d cad6 0b3d
00000060: 8d3c 183e 3293 56be 3746 e4bd 986b 2e3d
00000070: 6df2 f3bd 6903 f73d 59ac 883d b9bd 13be
00000080: 1e59 2f3e 0785 073d 2c4d a1bc a9a0 24be
00000090: b128 2bbe d201 a5bd bb58 f7bd fe85 39bd
000000a0: bd60 cdbc c870 f03b 039e 583e 5e0e 6ebe
000000b0: fb3f 26be 7010 d7bd b8a2 97bb 25bc 9e3c
000000c0: 6d3e f0bd 5ae2 173d 8b02 e63d 11cb f6bc
000000d0: 7b3e 96bc a021 4e3e 9a92 8abd 83e9 2a3d
000000e0: 8167 95bc 6eb2 81bd e4ed 97bc c4fb 38bd
000000f0: 172d e8bd 68f0 12be cfb8 00bc 4b0a 10be
00000100: a983 5cbd 3cb1 b9bd 09e1 1abe e11a 963d
00000110: 1292 173e e859 1f3e 3644 fa3d 0031 bebd
00000120: 4fc6 4abc b24b 113e 95d7 46bb bfa2 86bd
00000130: 0a04 2c3d c52d d8bd 0c6f 653b 6e2f a53c
00000140: b0b2 773d 227b f83d 8b2d 193e f44a eb3d
00000150: aeb0 0b3e 910a 883d 6ad4 c13d cc56 e5bd
00000160: 219d 533c 0772 afbb 12e6 bd3d a042 253d
00000170: 3686 493e 170a bbbd 6dd8 10bd a3fa 3a3a
00000180: 9d07 0dbe f55f f6bd 1aa7 3ebd 309d 183e
00000190: d4ed dc3c 39e8 123e 3d77 21be b127 933d
000001a0: 0b2f 1c3e d1a7 9c3d cfca ac3d 1540 3fbe
000001b0: 7926 613e 5412 d5bd 1e15 94be 7e6d 87bd
000001c0: bcc6 06be e39b b43c b33f 703d d089 31be
000001d0: 2166 c4bd d39a 283e 015d 083e 0450 083c
000001e0: e168 32be e2dd 2bbe 575d b2bd 78d6 b7bd
000001f0: bfa4 b9bd fe17 dcbd 00d5 efbd 9efa 80bd
00000200: 2541 52bd 26c8 04be 6a48 cb3d f2c5 dfbc
00000210: 67fc d1bb b131 1dbe e2a4 57be f7c3 0cbe
00000220: b896 85bd e680 d73d 4c52 a0bd 1a69 143d
00000230: 1306 033e 7424 993c c10f 0dbe 1090 8cbd
00000240: 5fb4 e8bd a764 27bd 54a3 8bb8 3a31 b83d
00000250: 3a33 6f3d 789f 16be 0f67 7b3d e906 78bd
00000260: e0d4 23be 7b8e 363e 63c4 04bd 72e2 2bbe
00000270: 4f81 b53c 18f4 df3d bb60 fabd 8c7e 253d
00000280: 25fa d13d 36b3 28be 0e9c 54be e66f 66bd
00000290: 6837 8bbd 37a6 94bd 8da8 583d 646e 453e
000002a0: 04c7 b13d ee12 723b 2ac3 ea3b e6a9 37be
000002b0: fabd 84bc aa58 fb3d c638 a63d 2e6d 5bbd
000002c0: c4d0 243e 1641 1cbe 7309 56be b4b8 a13d
000002d0: 7cdc 043e c919 963d dc20 5bbe 0086 b3bd
000002e0: 4c5a 03bd 6312 353e a442 1abe cb45 bebd
000002f0: 3d30 7f3d 39c8 493d 4714 fcbc 55b1 f6bd
00000300: 2052 0a3e 97d4 7cbd a4a4 c6bd a744 41be
00000310: b63d 9e3d 1ed3 8abd cb4b 0b3e d29d 1ebd
00000320: deeb 123e 0a01 553d ad52 f6bd 50a7 72be
00000330: 4d48 34be 9377 b8bc 4f7f d83d 77ef 82bd
00000340: 0f03 5cbd d086 19be 6c4f 09bd 4b4b 093e
00000350: 1dfb 27be 4e5b e2bd 6919 a2bd a700 13be
00000360: 3a73 77bd b138 ae3d 9060 393e 1d05 0dbe
00000370: fbbc fc3d d3f6 7d3d 4fe4 b33d 6378 3dbe
00000380: dcea 993d 82c2 5ebd 526d 07be 3ee3 ed3c
00000390: a6b9 48bd 4b72 0c3c 42ca 62bd c2ae 3c3e
000003a0: a588 cf3d a725 70bd cf5f cb3d 5a28 10be
000003b0: 0fd4 8bbd 07bf c23d e090 233e 2afa 433d
000003c0: ce37 633b ae6f 1b3e 371a c23d df90 803d
000003d0: 61ce 49be a5bb 2b3e c2a5 2abe 62f6 3b3d
000003e0: 49eb bc3a 06fc 5cbd 9472 2abe 8690 28be
000003f0: 0483 1ebb bf62 a83c 567c e3bd 6419 3abe
-0.081784256 -0.0063875136 0.0066957623 -0.16813129 -0.117432535 0.012104258 0.031785935 0.16308007
0.08957386 0.042566255 0.10743347 0.01572148 0.069200136 -0.119957775 0.048153404 -0.02060123
-0.18027188 0.15020017 -0.124211915 0.086421534 0.04535319 0.12212543 0.06859223 0.034140386
0.14866848 -0.20954588 -0.11146205 0.04258308 -0.119114734 0.12061197 0.06673498 -0.14427842
0.1712384 0.03308585 -0.019690119 -0.16076912 -0.16714741 -0.08056988 -0.12077471 -0.0452938
-0.025070542 0.0073376633 0.21154027 -0.23247668 -0.16235344 -0.10501182 -0.004627552 0.019376824
-0.11730657 0.0370811 0.11230954 -0.030126126 -0.01834034 0.20130014 -0.06766243 0.0417266
-0.018237831 -0.06332861 -0.018546052 -0.045161977 -0.11336725 -0.1434952 -0.007856562 -0.14066426
-0.0538365 -0.09067008 -0.15124907 0.073293455 0.14801815 0.1556164 0.122200415 -0.0928669
-0.012376382 0.14189032 -0.00303409 -0.0657401 0.04199604 -0.10555605 0.0035008816 0.020164218
0.060473144 0.12132861 0.1495878 0.114889055 0.13641617 0.066426404 0.09464343 -0.11198196
0.01291588 -0.0053541693 0.09272398 0.04034674 0.19680104 -0.09132784 -0.03536265 0.00071326847
-0.13772435 -0.12030021 -0.04654608 0.14903712 0.026968874 0.14346398 -0.15768142 0.07185305
0.1525232 0.07649196 0.0843712 -0.18676789 0.21987332 -0.104038864 -0.2892236 -0.06612681
-0.13161749 0.022046989 0.0586545 -0.17337728 -0.09589792 0.16465311 0.13316728 0.008319858
-0.1742282 -0.1678386 -0.087092094 -0.089764535 -0.09064626 -0.10746764 -0.117105484 -0.062978014
-0.051331658 -0.12966976 0.09925921 -0.027316067 -0.0064082625 -0.15350987 -0.21058992 -0.1374663
-0.06522888 0.10522632 -0.07828197 0.036233045 0.12795286 0.01869414 -0.13775541 -0.06863415
-0.11362528 -0.040867474 -6.658459e-05 0.08993764 0.058398463 -0.1470927 0.06137758 -0.060553465
-0.15999174 0.1782779 -0.03241385 -0.16785601 0.022156386 0.10935229 -0.12225481 0.040403888
0.102527894 -0.16474614 -0.20762655 -0.05625906 -0.06797677 -0.072582655 0.052895118 0.19280392
0.08680537 0.0036937553 0.0071643787 -0.17935905 -0.01620387 0.12272771 0.081162974 -0.05357092
0.16095263 -0.15259203 -0.20902042 0.078965575 0.12974733 0.07329137 -0.21399254 -0.08765793
-0.032068536 0.17682795 -0.15064484 -0.09290656 0.062301863 0.049263213 -0.030771388 -0.12045542
0.1350789 -0.06172618 -0.096993715 -0.18873845 0.07726614 -0.06778549 0.13603131 -0.038724728
0.14347789 0.052002944 -0.12027488 -0.23696637 -0.17605706 -0.022517955 0.10571157 -0.063933305
-0.053713854 -0.14992833 -0.03352301 0.13407628 -0.16404386 -0.11052571 -0.07915003 -0.14355718
-0.060412623 0.08506907 0.18103242 -0.13771482 0.12340733 0.062002968 0.08783781 -0.18502955
0.07515499 -0.054384716 -0.13225296 0.029039022 -0.049005173 0.008572171 -0.05536867 0.1842604
0.10133485 -0.058629658 0.099303834 -0.14077893 -0.06827556 0.09509092 0.15973234 0.047845997
0.0034670713 0.15179321 0.09477656 0.06277632 -0.19707634 0.167708 -0.16664794 0.045889266
0.0014413382 -0.053951286 -0.1664527 -0.16461381 -0.0024186978 0.020554898 -0.111076996 -0.18173748

Network_stack.0.0.gru.bias_ih_l0 f4 [96]
00000000: edff 66bc 232f 06bd e85e d83d 9e99 bb3c
00000010: 49f4 ee3c e560 4e3e 7424 debd 2da0 4c3d
00000020: fc56 f1bd ecaf d1bc 7b35 09be 0c59 debc
00000030: bee1 d43d 86e8 21bb c336 40be e005 43be
00000040: 8992 81bd 66c7 e8ba 3e5a 6e3c e771 efbc
00000050: 5177 7cbd 9577 a0bc e0f9 c9bc ae83 55bd
00000060: ac8c 73bd 22c4 d23d 6581 04be 3e53 293e
00000070: 4357 0c3e 3204 9d3d 81f0 10be ecd2 ac3c
00000080: c9d3 283d 690d e5bb 6f40 883e d163 723d
00000090: e8ee 533e 98ca 8a3d 76a7 0ebe 52f2 7c3d
000000a0: e080 e039 323a 493e 3b0a 4e3e eda0 36be
000000b0: bbb6 1fbe a531 1e3e 698d 85be cfe0 a43e
000000c0: bb0a 213e a608 e03d bd34 293d a19a 203e
000000d0: 5666 debc fc9c 2a3e 4dae c43d 9b0a 1a3d
000000e0: dfc6 893d b656 4f3e 7fca 243e 59a3 973e
000000f0: b26c 23be 9e7b a23d b01d d6bc 3a2e 8ebd
00000100: 1947 1c3e 27c3 0fbe 7c0d e2bc a6f8 e53d
00000110: 9613 0bbe e9bd f5bc 5c91 a9bd 2588 a9bc
00000120: c8fe 69bd e58d 053e c47d 473c 182f b3bd
00000130: 5724 1c3e b175 8f3d fd94 b1bd c8e0 6cbd
00000140: 5423 b83d dd7f b7bd 06ae 3abd 4eb0 103e
00000150: c376 2dbe c424 d8bc 4375 7bbd e3a8 f33c
00000160: d2e7 fc3c 865d 5a3d c37f 14bd 057d 07be
00000170: dbfc c1bb 1a64 a33d 3cda aa3d eb95 42bd
-0.014099103 -0.032759797 0.10564977 0.022900399 0.029169219 0.2015415 -0.10846797 0.049957443
-0.11784169 -0.025596581 -0.13399307 -0.02714207 0.103946194 -0.0024705245 -0.1877089 -0.1904521
-0.063267775 -0.0017759621 0.014547883 -0.029229118 -0.061637226 -0.019588271 -0.024655282 -0.052127533
-0.059460327 0.102913156 -0.12939985 0.1653566 0.13705163 0.07666816 -0.14154245 0.02109667
0.0412176 -0.006990124 0.2661166 0.059177224 0.20696604 0.06776923 -0.13931069 0.061754532
0.0004282063 0.19651106 0.2012109 -0.17834826 -0.1559705 0.15448625 -0.2608445 0.32202765
0.1572675 0.109391496 0.04131006 0.15683986 -0.027148407 0.16661447 0.09603558 0.03760777
0.06727385 0.20247921 0.16092871 0.29616812 -0.15959433 0.07933734 -0.026137203 -0.06942411
0.15261497 -0.14039288 -0.02759432 0.112290666 -0.1358169 -0.029997783 -0.08279678 -0.020694802
-0.057127744 0.1304241 0.012175981 -0.08749217 0.15248238 0.0700487 -0.086709954 -0.057831556
0.08991113 -0.08959935 -0.045576118 0.14129755 -0.16939835 -0.026384719 -0.061391126 0.029743617
0.03087226 0.053311847 -0.036254656 -0.13231285 -0.0059200353 0.07978077 0.08342406 -0.047506254

Network_stack.0.0.gru.bias_hh_l0 f4 [96]
00000000: 47b4 e5bd 290b 2e3e d0c8 0c3e dadc f8ba
00000010: 8ee0 50bd 56ca febd 5515 833d 0bcb babc
00000020: fd9c bbbd aaa2 33be 232e 0d3e 7a10 593d
00000030: 48f9 48bd 7823 2abd dab0 5e3d dad6 3c3d
00000040: d707 3a3e cfe0 813d ac7d c13d f531 e2bd
00000050: 4c8e 123c 95aa f33c cc8b e7bd d5dd e93d
00000060: d61b 73bc 2a1e 8d3d f4c8 b5bc fff7 fe3b
00000070: e153 253b 8caf 90bd 5254 e63d a479 d7bd
00000080: a7e0 0f3d 92e9 febd 9ce2 283d 2f12 d53d
00000090: b23b ad3d aa79 e7bd 4c94 19bd 764b 003c
000000a0: 9412 113e 1c67 8b3e b930 323e 2370 64be
000000b0: 345d e1bd 48db 213e db60 b8bd 0fbf 843d
000000c0: dba5 923e 48c3 bc3c 66b3 383d 36e0 833c
000000d0: 25e2 a23d 60c9 893d 096f bb3e 9609 0bbd
000000e0: 5223 283e 15c4 1c3d 4d07 323e fb06 493c
000000f0: 0e1e e73d 7d5b 743e aecd e93d 2904 21bd
00000100: e200 14bd 06c5 adbd 310e 1dbe 3522 093d
00000110: 0253 323e 454d 1d3e 0001 d9bd ab29 453e
00000120: 2aee b53d f3a3 013e df99 123c abf7 85bd
00000130: 925c 8bbd fe59 cd3d 667c 633d 5eea 2c3e
00000140: 002b 133e 9765 d9bd 5f87 223d 3690 073e
00000150: 2248 5f3b 335f 8f3d 2e90 2fbd c548 d53d
00000160: 95f2 cabd 4e08 0f3e 28e6 2f3d 6f1a cbbd
00000170: 3b89 8ebd 9ab8 e13d f9a8 ed3d 5b3e c3bc
-0.11216026 0.16996445 0.13748479 -0.0018986717 -0.050995402 -0.12440936 0.06400553 -0.022801897
-0.091608025 -0.1754252 0.13787131 0.05299423 -0.049065858 -0.041537732 0.054367878 0.046103336
0.18167053 0.06341707 0.09447798 -0.11044685 0.008945059 0.029744426 -0.11305961 0.11419264
-0.01483818 0.06890519 -0.022190548 0.0077810283 0.0025226998 -0.07064733 0.112465516 -0.10521248
0.035126355 -0.12446894 0.041231737 0.10403859 0.084586516 -0.113025025 -0.037494943 0.007830491
0.14167243 0.27227104 0.17401399 -0.22308402 -0.11004105 0.15806305 -0.09002849 0.06481754
0.28642163 0.023042336 0.045092963 0.016098123 0.0795329 0.06727862 0.3660815 -0.03394469
0.16419724 0.038272936 0.17385598 0.012269731 0.11285029 0.23863025 0.114161834 -0.039310608
-0.036133654 -0.08484845 -0.15337445 0.033479888 0.17414477 0.15361507 -0.10595894 0.19254176
0.08883317 0.12660198 0.008947819 -0.065413795 -0.06804766 0.1002693 0.055538557 0.16886279
0.14371872 -0.1061508 0.03967988 0.13238606 0.0034070094 0.0700058 -0.04286211 0.1041427
-0.0990955 0.13968012 0.042944103 -0.09917151 -0.069597684 0.11021538 0.116044946 -0.023833444

Network_stack.0.0.gru.weight_ih_l1 f4 [96, 32]
00000000: 2105 243c 6986 833c ff45 91bd de28 cb3d
00000010: 8896 bebd 2b7c 9fbd 1bac d3bc 8f3d 9cbd
00000020: 6695 d7bd 1a4e 9abd 2aba 723d 7976 b13c
00000030: 1680 0f3d 6a52 9c3d e8c0 f4bd c06f 79bd
00000040: 31fd 7abc 78a4 27be 7200 c53d f283 c4bd
00000050: c5b0 643d d052 8d3d 5fa5 1bbe 5b28 b1bc
00000060: fbe8 d6bd ac4f 033d 08a4 e9bd f9a2 9c3d
00000070: 4c28 4dbd 7e2f 293e a5b5 ee3c ca59 133c
00000080: 9230 80bc 546b aabd 322f 213e f391 6a3c
00000090: 3c8a ab3d 6093 61be d45f ecbd 4a61 513d
000000a0: e781 f4bd 4341 433e 2f8e 523d 71aa 783e
000000b0: 8092 29be 37da 233d da80 5cbd e314 e9bd
000000c0: 63d9 b13d ed0c 17be b0c8 333d a475 293d
000000d0: f800 fc3d a1aa 913d cf4c 0ebe 635a 443d
000000e0: bd1e fd3d 34ee 14be e3ec 6ebd 76a3 37be
000000f0: cde6 94bc 434f 99bc c323 d53d f089 91bb
00000100: b552 033e c902 85bd 0ac2 f1bd dd17 b0bd
00000110: 3006 383e 47b8 c43d dac2 b4bd 189e 853d
00000120: 7508 ecbd c45b b23c 1bba 30bd b74b a13d
00000130: c66d 3abd 998a fb3d f5bb dfbc e574 c0bd
00000140: 853d 05be f628 2e3e 3a90 21bd bc17 aebd
00000150: e3c4 e8bd e03b 913d 6ab6 a3bd df9d b0bc
00000160: 66c6 473e 2c2d 14be 47e0 603d 87af a5bd
00000170: 623c 64bd 4986 93bd 76b0 0a3e 53dd 143e
00000180: 1981 59be 4fcd 0e3e 91bf 333e 7da7 c83c
00000190: 2c13 93bc 9f2e ccbc 6701 763c 1be3 0abe
000001a0: 8dcd b6bc 3d73 dc3d 1f2e f63d 7b64 df3c
000001b0: f9a2 1d3e e2d4 3bbe 573b 2ebe 0e59 f0bc
000001c0: 7128 6abe 942e 433e c247 52bd bc32 1abe
000001d0: b534 69be 9413 b23d 33b3 393d 8d62 5a39
000001e0: 4efd 113e d8d7 50bd 1c06 023e 5286 d93d
000001f0: db19 6f3d e801 20be b267 6bbb 96c5 72be
00000200: 293c 91bd 685a e3bd 6111 9d3d 7597 1ebe
00000210: 9346 dfbc 9cd9 c03c 6307 34be c3cc a63d
00000220: d6e7 41bd 1783 c0bd 9f31 17bd 1f6b 0f3d
00000230: deba cebb 4d25 d53d 31cb 0c3e eb17 043d
00000240: 848d 9ebd 213f 3c3c 2955 213e 9190 0b3e
00000250: 3b5a 763d 6c78 333c 05ff b0bd ddd0 aabd
00000260: e178 d03d 0747 d43b 3841 18bd bb3e 5cbd
00000270: 6bff f03d 95c2 f2bd 44de 05be 8a03 fbbb
00000280: 8f0f 113e bf1a b0b9 e25e eabd d930 03be
00000290: 555b 1e3c b055 55bd afe5 423c 9896 f53d
000002a0: 77e9 213e c874 2abd 59c6 b0bc 61bc 57be
000002b0: b682 a1bc 66ba 3c3e d97c be3c 86a3 1a3e
000002c0: 83ef 7e3d e862 afbd c4af 133e c644 60bd
000002d0: a34f acbd 2c6a 363e 9b7e 0f3e 0a4d c13d
000002e0: e916 14be ed80 18be 74b4 d9bd e60e 153d
000002f0: 4be7 153e 24e0 6f3d 3c31 283e 503c 1cbe
00000300: f564 353d ffaf fd3d 4a55 22be 5dc2 083e
00000310: 9841 0e3e 6704 90bc 6595 ff3d 9749 e93d
00000320: c669 f03c 05d5 75bd d43b 2cbe 96b8 733e
00000330: 04fc e1bd 085b 003e 228f 4ebe 0c32 d73c
00000340: d522 da3c d9fe 1a3e 3042 20be 084f 1d3e
00000350: ed8d 143e 6f37 83bc 4db7 8abd 5d18 21bd
00000360: 5af0 473d 5681 d93d 5636 8abd 243d 45be
00000370: 4dd0 15be e2b9 ba38 7019 f5bc b523 f3bc
00000380: f2bc 043e 4f67 05be 024b dcbd d4ec 5abe
00000390: fbe7 b6bd 16ad ac3b 5a61 583e babd 1a3e
000003a0: 5912 123e 29d7 e6bc 9d3c 213e bca3 6cbe
000003b0: 0fcb 263e 9fa6 9d3d 7991 803d 2745 38bd
000003c0: 37fd 23be f57c 38bc a099 f23d 1076 07be
000003d0: 403e 1dbe 0bc3 abbd 6c42 ad3d e6ec fc3b
000003e0: 4065 4dbb c442 ea3b 7650 b6bd ee76 203e
000003f0: 864f e9bd 8996 58be 7496 37be b9f4 b4bd
0.010010988 0.016055303 -0.07093429 0.09919904 -0.09306055 -0.07787355 -0.025838902 -0.07628929
-0.10526542 -0.07534428 0.05925957 0.021662937 0.03503426 0.07632907 -0.119508564 -0.06089759
-0.015319155 -0.16371334 0.096192256 -0.09595479 0.055832643 0.06900561 -0.15199803 -0.021625688
-0.10493656 0.032058403 -0.114082396 0.07648272 -0.05008726 0.16522023 0.02913935 0.008993575
-0.01564816 -0.083212525 0.1574066 0.014317024 0.083759755 -0.22028875 -0.11541715 0.051118173
-0.119388394 0.19067864 0.051405128 0.24283768 -0.16559792 0.040003028 -0.05383382 -0.11380937
0.08684041 -0.14751025 0.043892562 0.041371956 0.12304872 0.07112623 -0.13896488 0.047937762
0.123593785 -0.14543992 -0.05833138 -0.17933449 -0.01817646 -0.018714553 0.10407212 -0.0044414923
0.12824519 -0.06494672 -0.11804588 -0.085983016 0.1797111 0.096054606 -0.088262275 0.065242946
-0.115250506 0.021772273 -0.043146234 0.078757696 -0.045514844 0.12282295 -0.027311305 -0.09397296
-0.13011749 0.17007813 -0.039444186 -0.08500621 -0.11365678 0.070914984 -0.07993777 -0.021559654
0.19509277 -0.14470357 0.054901388 -0.0809012 -0.055721648 -0.07203347 0.13543877 0.14537553
-0.21240653 0.13945507 0.17553546 0.024493927 -0.017953478 -0.024924574 0.015014983 -0.13563196
-0.022314811 0.107641675 0.12020516 0.027269593 0.153942 -0.18342927 -0.17014824 -0.02933934
-0.2286699 0.19060737 -0.051337965 -0.15058416 -0.22774012 0.086951405 0.045336913 0.00020826813
0.14256784 -0.050987095 0.12697643 0.10621323 0.058374267 -0.15625727 -0.0035919962 -0.23708186
-0.07091553 -0.11101228 0.076693304 -0.15487464 -0.027255332 0.023541264 -0.17580943 0.08144524
-0.047340237 -0.094000034 -0.036912557 0.035014268 -0.0063088974 0.10407505 0.13749386 0.032249372
-0.07741836 0.0114896605 0.15755142 0.13629366 0.060144644 0.010954004 -0.08642391 -0.08340619
0.10179306 0.0064781937 -0.037171572 -0.053770762 0.11767467 -0.1185352 -0.13073069 -0.007660334
0.14166091 -0.00033589263 -0.11443879 -0.12811603 0.00966533 -0.05208367 0.011895581 0.11991614
0.15811716 -0.041615278 -0.021578955 -0.21067955 -0.019715648 0.1843048 0.023252891 0.15101442
0.062240135 -0.08563787 0.14422518 -0.054753087 -0.08413627 0.17813939 0.1401314 0.09438522
-0.14461865 -0.14892931 -0.10630122 0.03639116 0.14639013 0.058563367 0.16425031 -0.15257382
0.044285733 0.12387084 -0.15852848 0.13355394 0.1389221 -0.017580224 0.124796666 0.11390989
0.029347312 -0.060017604 -0.16819698 0.23800883 -0.11034396 0.12534726 -0.20171788 0.026268981
0.026627937 0.15136279 -0.15650249 0.1536218 0.14507265 -0.016017644 -0.06773243 -0.039329875
0.0488132 0.10620372 -0.06748645 -0.19261605 -0.14630242 8.9037945e-05 -0.029919356 -0.029680112
0.12962702 -0.1302769 -0.10756494 -0.21379405 -0.089309655 0.005269657 0.21130887 0.15111437
0.14264812 -0.028178768 0.15745778 -0.23109335 0.16288398 0.07697796 0.06277747 -0.044987824
-0.16014563 -0.011260261 0.11845708 -0.13228631 -0.15355778 -0.08386811 0.084599346 0.00771867
-0.0031340867 0.0071490724 -0.089020655 0.15670368 -0.11392121 -0.21151175 -0.17928487 -0.0883574

Network_stack.0.0.gru.weight_hh_l1 f4 [96, 32]
00000000: 4abd 86bc 8237 823c f0a0 233d 9241 423e
00000010: 8dad 2fbe cd38 003e 5d02 063e 974d 9b3c
00000020: 8c8a 323e 2884 603d 46d5 61bd 0a7c 393e
00000030: 4ef5 193c f20b 08be 3c7d e63d 1495 37be
00000040: 569c 24bb e43f 84bd d1ba 603e 14e4 edbd
00000050: 3ab6 4c3e 7a6d de3b aad3 6bbd 87d7 f3bb
00000060: a90a a0bd 5703 e63d 6779 2dbe 03c6 cabd
00000070: d45e a7bd 03f9 c6bd af38 523e a836 06be
00000080: 8fcc 283d 3482 2c3e 93b7 9abd 8475 333e
00000090: 6e68 b3bc 657a d63d 329f 2d3d 4b62 ae3d
000000a0: 9c05 b83c 073c b3bd f5f4 363d 7e7b b3bd
000000b0: b5a0 403e f411 4abd d557 3ebd 5d79 023d
000000c0: 1fb7 283c 3cea 133e 0ff9 bd3d 64ce 8a3d
000000d0: cfe0 1f3c 88c9 b9bd cb05 2dbe d1ed 323d
000000e0: 7c12 ca3d 1207 d53b f189 263e 0df0 9abc
000000f0: 0d41 923d 46e5 cc3d 61fb 89bd 8d4f d03d
00000100: 06bb 19bc d0ec 1d3e 5fc0 a53b 5580 bdbd
00000110: e5bb d8bc 7109 bcbd 9bb9 2ebe d887 753d
00000120: f332 6ebd 4897 3ebd 59ea 43be 13fd e33d
00000130: 17f3 913d 772d ce3d bcfb a93b c207 0a3e
00000140: f474 993d e0a9 53bd 4bf8 6cbd 5296 b5bc
00000150: f56b 82bd 9dc3 abbc 37d9 95bd cc42 16bd
00000160: 5df5 b43d 5b27 1bbe 3245 3d3e ba10 48be
00000170: 16eb 2fbe 3168 9d3d 40c0 393e 33a6 bcbd
00000180: 4edb 5ebe 6405 3bbe 92ed b13a 8097 12be
00000190: 15fb 013d 80ee 5abd 07b4 273d cbfe 3e3e
000001a0: d77d 5ebc 51c4 79bd 0a0b 263c 7cce 9fbc
000001b0: 294f 33be 3a41 5dbe 33db 33be 62ac 403e
000001c0: 69ef 8b3d 4999 49be 7e68 85bd 164e 70bd
000001d0: 5515 263d 3ff1 2bbe 1a7a 1a3e a4f1 1e3e
000001e0: d1fc babd 1e7f 693e fa0f 273e 1285 113e
000001f0: c3cd 49bd fe1a 2cbe e355 8d3d 99b1 393c
00000200: ddb1 463d 99ff f13c 558b 6e3d 015e e03d
00000210: 382e 053e 7c6a 983d 55dc c23d bd98 2fbe
00000220: 6366 043d c914 c53d e058 12bd ff13 8bbc
00000230: ee79 a4bc b67c 283d 3eb7 33bd 11fe 103e
00000240: 4916 2d3e 0de6 293c 914b 3ebe 1208 11be
00000250: fd02 39bd 4047 46bd c918 ecbd 3aaf f73b
00000260: 6e7e 11be e106 893d d4c4 6ebe e6e8 45bd
00000270: 5602 81bd 51f1 b43c 59e8 293d 1c42 393e
00000280: 979c e8bd ad69 bc3d a3d6 f43c f6a7 393e
00000290: 3157 3a3d 9206 57bc 9e91 7d3d 9f50 2b3e
000002a0: ae5d 4e3c 3654 0dbe 13e5 b1bd 5ed0 af3d
000002b0: 32af 23bd 8618 653d 5460 87bd 68fd ce3d
000002c0: 78b2 2b3c de67 d23c 61a0 fbbd 3c9e d8bc
000002d0: 002c 26be 3ee8 d83d 8d3e 0a3e 97cd 5b39
000002e0: a220 933d 8484 c3bd 3fd0 c33d f9be b9bc
000002f0: 13f7 f3bd 4695 cabd 1579 c5bd 298b 043d
00000300: d22f 02bb d264 b4bd 4003 163e 4965 9bbd
00000310: 6954 f13d 3947 a6bd 795d bfbd 28e8 41be
00000320: f58e d93d 3983 ffbd f09b 093c c74f da3d
00000330: 0bd5 c4bd f225 2cbd 2ab8 073e 1c90 e43d
00000340: 2404 223e dae7 033d fa85 993d 33e4 5fbb
00000350: 859b 28bd 02f7 e63d b67a 7d3d 0029 58bd
00000360: 0402 fbbd 330e 3fbd c8a2 89bd 5da9 24bd
00000370: b4e6 eb3c c4fa 113e 6ce6 97bc c34f fbbd
00000380: 5fbe 4c3e a3a1 de3d 4a3d 3cbd 94e7 2b3c
00000390: a99d 253e 74b4 a13c 8d43 003e c4e4 38bb
000003a0: 5493 0ebe f46e fa3d 5e0d ecbd f14c d3bd
000003b0: 17e4 1ebe 2e1e 36bb ea3e 00be 139e 7d3e
000003c0: ea60 2cbd 4c3a 43bc 933e 32bd 38be 06be
000003d0: 6d6f 4a3c 3d59 983d 7b65 a93d 244d 0b3e
000003e0: 3cd2 553d 66a5 9cbd eced 74bd 1d4f fb3d
000003f0: 0652 10be 101a 27be 95c7 523e 67dd 063d
-0.016447682 0.015895609 0.039948404 0.18970326 -0.17156048 0.12521668 0.13086839 0.018957896
0.17435664 0.054813534 -0.055135034 0.18113723 0.009396864 -0.13285807 0.11254355 -0.17927963
-0.0025117598 -0.06457499 0.21946265 -0.11615768 0.19991389 0.006787953 -0.057574905 -0.0074414643
-0.07814533 0.11231106 -0.16940843 -0.09901049 -0.08172384 -0.09715464 0.20529436 -0.13106787
0.041210707 0.16846544 -0.07554545 0.17525297 -0.021900382 0.10472564 0.04238815 0.08514842
0.022463612 -0.08751684 0.044667203 -0.08763789 0.18811305 -0.049333528 -0.046470482 0.031854022
0.010297566 0.14444822 0.0927602 0.06777647 0.009758188 -0.09071642 -0.16896741 0.04368383
0.09866807 0.006501087 0.16263558 -0.018913293 0.07141314 0.10004668 -0.067374 0.10171423
-0.009382969 0.15422368 0.005058333 -0.09252993 -0.026456783 -0.09181488 -0.1706299 0.059944004
-0.058154058 -0.04653099 -0.19132365 0.111322545 0.07126444 0.100672655 0.00518748 0.13479522
0.0749301 -0.051675677 -0.057853978 -0.022166405 -0.063682474 -0.0209673 -0.07316821 -0.036684796
0.08835862 -0.15151732 0.18483427 -0.1953763 -0.17179522 0.076858886 0.18139744 -0.092113875
-0.21763346 -0.18263775 0.001357483 -0.14315605 0.03173359 -0.053450108 0.04094317 0.18651883
-0.013579807 -0.060978238 0.010134468 -0.01950764 -0.17510666 -0.21606913 -0.17564087 0.18815759
0.06832773 -0.1968738 -0.06514071 -0.05866822 0.040547688 -0.16791247 0.1508564 0.15521866
-0.09130252 0.22802398 0.16314688 0.14210919 -0.049268495 -0.16807172 0.06901147 0.0113338465
0.048509467 0.029540824 0.058238346 0.1095543 0.13005912 0.07442185 0.09514681 -0.17148109
0.032324206 0.09623105 -0.03572929 -0.016977308 -0.020077672 0.04113456 -0.043875925 0.14159419
0.16903032 0.01036979 -0.18583514 -0.14163235 -0.045168865 -0.048407793 -0.11528165 0.0075587304
-0.14208385 0.06690765 -0.23317271 -0.048317812 -0.06299274 0.022087725 0.04148135 0.18091625
-0.11357992 0.091998436 0.029887503 0.18130478 0.04549331 -0.013124125 0.06190645 0.16729973
0.012595577 -0.13801655 -0.086862706 0.08584665 -0.039962 0.05593159 -0.0661017 0.10106927
0.010479562 0.025684293 -0.12286449 -0.02644264 -0.16227722 0.10591172 0.13500424 0.00020962056
0.071839586 -0.0954676 0.09561204 -0.02267407 -0.1191236 -0.09891753 -0.09642235 0.032359276
-0.001986493 -0.088082924 0.14649677 -0.07587678 0.11783678 -0.081190534 -0.09344 -0.18936217
0.1062297 -0.124762006 0.008398995 0.106597476 -0.09610947 -0.042028375 0.13253847 0.11160299
0.15821892 0.032203533 0.07496257 -0.0034163117 -0.04116394 0.11277582 0.061884604 -0.052773476
-0.12256244 -0.0466444 -0.06720501 -0.04020058 0.028796531 0.14255816 -0.01854249 -0.12271073
0.19994496 0.108706735 -0.045956887 0.010492224 0.16173424 0.019739367 0.12525769 -0.0028212527
-0.13923389 0.12228194 -0.11525987 -0.1031741 -0.15516697 -0.0027788985 -0.12524 0.24767332
-0.042084612 -0.0119157545 -0.043516707 -0.131585 0.012355668 0.07438896 0.08271309 0.13603646
0.05220245 -0.07648735 -0.059797212 0.12270949 -0.1409379 -0.16318536 0.20583947 0.03292599

Network_stack.0.0.gru.bias_ih_l1 f4 [96]
00000000: 0ceb 21ba 0058 59bd 2051 0cbe 0d19 f23d
00000010: a9b6 ad3d e6f1 cb3c 63ef 32be d87b a93c
00000020: 817c 773d 5756 fcbd 7d23 dc3d 6996 22be
00000030: 6a98 2cbe 8693 20bc 23c9 173e a1a6 353e
00000040: 8cb2 48bc b964 41bd cf01 bebc cfa2 96bd
00000050: 09dc 633d 96d3 89bc 0bfe e1bd 6703 fb3c
00000060: 3172 a9bd d6c4 7bbd a27d 0cbe 511e b7bd
00000070: 3fea 1abe e41e 0f3e 48ba c03d e0cf 9c3c
00000080: 8fbf 8bbe 17c1 8b3d 5754 8e3d 54dc e33d
00000090: f153 8c3c 21d3 27be 1250 253e bc3c 883e
000000a0: 0441 e23d c1b0 38bd 4e15 de3c cce8 23bd
000000b0: d16f 0b3e 4c17 183e 86b6 4e3d 368f 723e
000000c0: 6510 ac3c c6b2 183e 6153 f1bb 8aef 72bd
000000d0: 3c4c d83d 65e4 103e 1f80 c5bb 277a 00be
000000e0: 7484 453d b4bf 263e bf1e 623e 3063 203e
000000f0: b860 4dbd e4d0 4e3e bd3e 023d ad7c d4bd
00000100: 6156 193d b43f 793d a522 193e 25db a03d
00000110: 8433 f5bc 626d 1c3e fa8d 2abe 4aa2 f8bd
00000120: 8ad2 b43d 5b65 023e 05d6 193e a856 adbc
00000130: 13f5 713d c47a ca3c a33e 39bd 9e5d 013d
00000140: e4ab 80bd b41d 303e fa41 c83c be78 3b3d
00000150: ced7 af3d 2693 ffbc bbea 2dbc e0b9 12be
00000160: e6fc 03be 7f62 323e a18c 45bc 95d7 ac3b
00000170: 946a 80bd 7674 a0bc 4155 e03c 0dbd 253e
-0.00061766873 -0.05306244 -0.13702822 0.11821184 0.08482105 0.02489562 -0.17474131 0.020688936
0.06042147 -0.123211555 0.10748956 -0.1587769 -0.16855016 -0.009800797 0.14822821 0.17739345
-0.0122496 -0.047215197 -0.023194222 -0.07355272 0.055629764 -0.016824525 -0.11034783 0.03064127
-0.082737334 -0.061467014 -0.137198 -0.08941329 -0.1512842 0.13976628 0.0941053 0.019142091
-0.27294585 0.06823938 0.0694968 0.11126009 0.01712987 -0.16389133 0.16143826 0.26608837
0.11047557 -0.04509044 0.027109768 -0.040016934 0.13616873 0.14852637 0.050467037 0.23687443
0.021003911 0.14911947 -0.007364676 -0.059310474 0.105614156 0.14149626 -0.006027236 -0.12546597
0.04822202 0.16284066 0.22082041 0.15662837 -0.050141066 0.20196873 0.031798113 -0.103753425
0.037435893 0.060851768 0.14954622 0.078542985 -0.029931791 0.15276101 -0.16655722 -0.12140329
0.0882922 0.12733977 0.15023048 -0.021159485 0.05907161 0.024716742 -0.04522575 0.03158342
-0.062827855 0.17198831 0.024445523 0.045769446 0.08586083 -0.031198096 -0.010615046 -0.14328718
-0.12889442 0.17420386 -0.012057454 0.005274723 -0.06270328 -0.019586783 0.027384402 0.16185398

Network_stack.0.0.gru.bias_hh_l1 f4 [96]
00000000: 2cd8 913c bd27 d4bd 33c2 fe3d 35f0 3fbe
00000010: bfad c73d 7ab1 95bd 45d7 8bbd 79d5 60be
00000020: c6ca 003e 7d4c db3c bdd2 243e 274c 33be
00000030: fdd9 c1bd 79d1 b93d ab0a 71bd 43c4 2b3e
00000040: 0789 b3bd c783 d53d 12f6 9cbd 4a2c 4e3d
00000050: d7c7 f0bd 3260 bbbd 3697 5f3c 8a64 90bd
00000060: 5f8b e2bd ab33 fdbc d319 8d3d 4a60 8b3c
00000070: 2f48 a6bd fee5 273e 6533 26be bbd1 703d
00000080: b710 9cbe 3b90 00bd feae 0fbe c936 4d3d
00000090: 53fe eb3c e1cf 52be 82e4 973e 4e3a b33e
000000a0: bcba d3bd 6f77 333e 9864 0c3e aeb8 b33c
000000b0: 9feb c5bd c441 843e 89ce 0a3e db48 bf3d
000000c0: 00e8 003e e99d 6f3c 3f93 cb3d 5b68 b3bd
000000d0: 622b 8fbd 788e 843d c854 ff3d f39e 5abe
000000e0: 2643 6a3e 8cb4 ae3c 614d bb3d 74bb 6d3c
000000f0: 34b5 f93b 7d27 a63e 0978 a33e 04f8 16bd
00000100: 1469 263c 1f08 c83c f9ce 89bd 3302 e9bb
00000110: 3afa f2bd 14e7 c4bd fe5f b5bc 250f 07bd
00000120: e151 033d 7c06 463d 86b7 8f3d bd90 07be
00000130: ee2a 293e 4bbf 06bd d167 2abe 4e3d 38be
00000140: 1c7b 3c3e 926a fcbc 6a95 1abe 3ba7 a43d
00000150: 1a4a 043d a22f 353e afd7 953c 7c9f 61bc
00000160: 6e0f a1bd 2000 8dbc f44d 27bd 13fb 453e
00000170: 4e68 d13d 8261 25be e85c 9f3b 41da 1f3c
0.017803274 -0.10359142 0.12439384 -0.18743975 0.09749936 -0.073092416 -0.06828169 -0.21956433
0.12577352 0.02676987 0.16096015 -0.17509519 -0.09465406 0.09073157 -0.058848064 0.16774087
-0.0876637 0.10425525 -0.07664122 0.050335206 -0.117568664 -0.09149207 0.013646891 -0.07050426
-0.11061739 -0.030908426 0.06889691 0.017013688 -0.08119237 0.16396329 -0.16230543 0.058793765
-0.30481502 -0.03138755 -0.14031598 0.050101075 0.028807795 -0.20587112 0.29666525 0.3500542
-0.10338351 0.17526029 0.13710248 0.021938648 -0.09664082 0.25831425 0.1355535 0.09340068
0.12588501 0.014625051 0.09940194 -0.087601386 -0.069906965 0.06472486 0.124673426 -0.21349697
0.22877178 0.021326326 0.09145618 0.014510024 0.007620478 0.32452002 0.31927517 -0.03685762
0.0101568885 0.024417935 -0.0672893 -0.007110858 -0.11864133 -0.09614387 -0.0221405 -0.032973427
0.032060508 0.048346028 0.07017426 -0.13238807 0.16520283 -0.032897275 -0.16641165 -0.17992136
0.18406337 -0.030812535 -0.1509606 0.08039709 0.03229723 0.17693952 0.018291323 -0.013770934
-0.07864271 -0.017211974 -0.040845826 0.19334058 0.10224973 -0.16150478 0.00486337 0.009756626

Network_stack.1.0.gru.weight_ih_l0 f4 [96, 2]
00000000: a29c a33d d303 ab3d 54ef 013e c4e7 153e
00000010: 159e 55bd 9281 e93d 2255 ef3c 9fa8 8bbd
00000020: 7ef1 26be cddf 283e 9175 e4bd 9e6e dd3c
00000030: 2ba4 923d 6517 a3bc 567d 223e 601c f0bc
00000040: c1ff 15be 093c c33b 5632 2bbe cd5b 383e
00000050: d82c 84bd dd94 e43d 0fb4 e73d 5f41 2a3e
00000060: 5794 693d 55f4 d2bd ada2 483d b608 2f3e
00000070: 2c73 89bd db48 c03d 66bf 01bd 3626 9e3d
00000080: d0e3 423e 1c4b e23d 1bd5 2c3e 5577 d43d
00000090: ac6d 02bd 7577 8f3b cddf bdbd 055f 963d
000000a0: 6d38 babd ba9b 78bb 7a77 b93d eac9 153e
000000b0: 87c8 08be b75a 35bd 2483 79bd 9c5e a13d
000000c0: fa2b 31be 8867 113e 25d6 dd3d 3bad 9cbd
000000d0: 9b06 e93d 33f3 983c 9dd1 2e3d 4dc0 e73d
000000e0: e2d5 aa3d 19f0 d63b 0b35 733d 901c dbbc
000000f0: 3d8b ffbd 88f3 213e c6a6 3fbe 61bb d6bd
00000100: ff1b 1dbe b451 0abe 5ed6 7cbe 8b23 3cbe
00000110: 97f1 923d b587 eabd f4c9 b63b 98d1 813e
00000120: 3f8b 223d 5324 493e 073c 7cbe 462a 75be
00000130: 65a5 99be a215 91bd df14 f83d 6466 b53d
00000140: 53e6 1a3d 6256 fcbd 8162 a3be 8fc2 68be
00000150: 5da5 4abd af0d 70be c65a 9d3c 83e2 6dbe
00000160: e46d 893c 5213 13be 3c4f afbe 204e e63a
00000170: 99ce 943d 4511 d5bc a08a f2ba a93a a2bd
00000180: fe8f 58be 9b09 81bc 0771 0bbe ea44 fbbd
00000190: 6ae9 4bbe c234 81be 0813 343e a9a0 84bc
000001a0: c2ae ebbd f5da db3d a8b9 ad3d 34d1 a73b
000001b0: 5568 7bbe e172 5ebe c2ca 0fbe 842a 903d
000001c0: 5d73 f23d 4d19 643e 1efe af3d 2175 d0bd
000001d0: 6e44 993d ad07 0a3e 4ab1 453d 3305 bebd
000001e0: 4c48 10be e5fb 6a3c ebd6 693d 1e9e 043d
000001f0: 83d0 273e 0eb1 6c3e 2a5e 83be 8c28 1a3e
00000200: 844a afbd 924b dabc c302 10bd 504f df3d
00000210: c48c 7dbd 4cbc 2fbe 1b5e c9bc 9140 173e
00000220: 41d9 0abe 57fb 093d 69fe 823b 2217 d9bd
00000230: 0e9a 0abe a43a 343e 6d02 cbbd 08bf 2bbd
00000240: cae6 1c3e ac47 263e f858 cbbd 4756 53be
00000250: 3d06 8bbd 7f38 dbbd 95cf b13d 678a b13d
00000260: 17a2 63bd 76b0 e13d 1e5c 003d 84f1 453c
00000270: 514c 013e b23c 1dbe 76d1 b9bd 083d 143e
00000280: dfbe 26bd e19b 4ebe 0074 4c3e edfb 05bd
00000290: b802 26be 45b4 3ebe c1e0 7cbd f784 0b3e
000002a0: 4441 4e3d 26f2 7e3d caeb 0bbe 8eda ef3d
000002b0: be9d 833d 8c44 183e cf98 d13d 97c4 8dbd
000002c0: 155d 10be 2c9b b33d 6352 0b3e 5a57 79bd
000002d0: 8bd0 943d b9f6 84bd 1377 cc3d 561a 87bc
000002e0: b1d4 5dbd c970 0d3e 4510 f7bd 5a12 7e3c
000002f0: 1fe5 6a3d a733 30bd a0ab 4b3d d0cb a33d
0.0798886 0.08350339 0.12688953 0.14639193 -0.052152712 0.11401667 0.0292154 -0.06819271
-0.1630306 0.16491623 -0.111552365 0.027030285 0.07160219 -0.019908616 0.15868124 -0.029310405
-0.14648344 0.0059580845 -0.1671842 0.18003769 -0.06453866 0.11161206 0.1131364 0.166265
0.057026234 -0.10300509 0.048983265 0.17093167 -0.067114204 0.09388896 -0.031676672 0.07722132
0.19032216 0.11049482 0.16878168 0.10374323 -0.031842873 0.004378254 -0.09271202 0.07342342
-0.090927936 -0.0037934617 0.090559915 0.14627805 -0.13357745 -0.044275966 -0.06091608 0.078793734
-0.17301932 0.1419965 0.108318605 -0.076502286 0.11378213 0.018670654 0.04268037 0.11315975
0.08341576 0.0065593836 0.059376758 -0.026747018 -0.124777295 0.15815556 -0.18715963 -0.104849584
-0.15342711 -0.1350773 -0.2469115 -0.18372934 0.07174986 -0.11451665 0.005578274 0.2535522
0.039683577 0.19642763 -0.24632274 -0.23941907 -0.30009 -0.07084204 0.12113356 0.0885742
0.03781731 -0.12321164 -0.3191109 -0.22730468 -0.04947411 -0.2344272 0.019208323 -0.23230939
0.016776033 -0.14362839 -0.3424014 0.001757089 0.07265968 -0.026009211 -0.0018504448 -0.07921345
-0.21148679 -0.01575165 -0.13617335 -0.12269004 -0.19913259 -0.25235564 0.17585385 -0.01618989
-0.11507942 0.10735122 0.08482677 0.0051213745 -0.24551518 -0.2172351 -0.1404219 0.07039359
0.1183841 0.22275276 0.08593391 -0.101785906 0.07483755 0.1347949 0.04826478 -0.092783354
-0.14090079 0.014342283 0.057089727 0.032377355 0.16388135 0.23114416 -0.2565778 0.1505453
-0.085591346 -0.026647363 -0.035158884 0.109037995 -0.061901823 -0.17161673 -0.024581006 0.14770724
-0.13559438 0.033686962 0.003997613 -0.10600115 -0.1353533 0.17600495 -0.09912572 -0.04193023
0.15322414 0.16238278 -0.09929079 -0.20638381 -0.06788299 -0.10704135 0.08682171 0.08668976
-0.055574503 0.110199854 0.03133785 0.012081508 0.12626769 -0.15355185 -0.09073155 0.14476407
-0.040709373 -0.2017665 0.19966125 -0.03271096 -0.16211975 -0.18623455 -0.06173778 0.13624941
0.05035521 0.06224265 -0.13664165 0.11711608 0.06426571 0.14869899 0.10234224 -0.06922262
-0.14098008 0.08769831 0.13605647 -0.06087432 0.07266339 -0.06492371 0.09983649 -0.01649205
-0.054157916 0.13812555 -0.1206365 0.015507305 0.057347413 -0.04301801 0.04972422 0.079978585

Network_stack.1.0.gru.weight_hh_l0 f4 [96, 32]
00000000: 7323 f63d d1ec 1e3e 94dc 8dbd 3f2b b43c
00000010: f7fc e3bb 589a a23a 8ddb 01bc b383 113e
00000020: 2584 e3b9 0e6b 9f3d 6ec4 babc 245a b338
00000030: d2f5 f53d ea68 07be f13f 5bbe 103c 55bc
00000040: 58f9 9dbd 0716 c2bd a606 f73d 6487 2dbd
00000050: 6f7c a63d bb16 3c3e ab21 013e 387c 043e
00000060: 0a10 75bc b951 053e b200 b3bd a613 b1bd
00000070: c234 d6bd d554 c53d 33e7 fe3d 2ed4 51bd
00000080: ba36 163e 7507 bd3d 07e9 b63a 03be 513e
00000090: 2582 153e be3e 993d d7cb 603c a617 00be
000000a0: e0af e73b 60d2 7bbd 5679 0dbe 8f3d 2e3e
000000b0: 5937 f13d a28d 5cbd c4d7 da3d 2b90 aebd
000000c0: 288d 8dbe 8342 bd3d 1e92 043d 96e6 30bd
000000d0: 253d 06be f74d 293e 6bd0 1cbe 170e eebd
000000e0: ec34 af3d 7555 8abd 197e 18bd 6948 273e
000000f0: 6b50 ae3c a6b8 ce3d 15a4 83bd aee0 dc3d
00000100: 53f7 163e 1df8 41be bad6 0cbe b49c 14bd
00000110: b4d6 bb3c 26b0 98bd 2eeb 7dbd 665a fb3c
00000120: aea6 163e 8ba4 d53c 99a9 233d 9f84 16bd
00000130: 757b 89bd f5c5 13be be31 103e c60e 27be
00000140: 635a 043e 2271 e1bb dbb3 2a3a 7b53 06be
00000150: 117a 423b fadb 533d a7f4 c8bd 0777 a0bc
00000160: 1b34 fa3c 63c1 243e c9f9 66bd 2878 10bd
00000170: 818a 0dbe 57c7 00be 8cbd bbbd 0676 003e
00000180: 77a9 79bd 422d 76bd 6644 493d 0aa6 0fbe
00000190: f162 8cbd bdb3 aebd b1ff ab3d 4ec1 913d
000001a0: 0327 b0bd f9e9 853d 17aa 2d3d b498 d33d
000001b0: 9d5b 423e 5904 3c3e 76f7 ecbd a797 aa3d
000001c0: 48b3 f4bc a850 5a3d 0bf6 ab3d 90f0 1ebe
000001d0: 8ea3 0c3e a738 ddbc 602e 1b3d 871b a0bd
000001e0: 4436 113e fab6 b8bc c305 e9bd e1a9 b6be
000001f0: 3042 583e 9bec 2e3e 5e70 823d 8ff7 b23d
00000200: c60d 1a3e cf93 09bd 000d 003e 51ca fabd
00000210: 2ea9 d5bd a6f4 8cbb 2eb9 c63a 537c b4bd
00000220: e88c a5bd 4f24 f0bd 950e f7bd eb7c 133e
00000230: f183 ccbc d889 24be 0c37 e7bd 55b7 cbbd
00000240: e655 903d bdef 2dbe cc8e ccbd a114 493d
00000250: d62d 763d 0836 f23d 3a79 84bd 847e 9f3d
00000260: 043a d03d 0e91 943c 2f8f e4ba 289a c73d
00000270: 4e9a 8bbc 8a30 4e3e 9eb7 0cbe 3d7a 7d3d
00000280: 9566 1dbe 8b12 74bd bee8 f5bb 4e4b 54be
00000290: 6c66 62bd 8be3 273d 81cc cd3d 0fe7 ebbd
000002a0: c0b2 f0bd d028 0a3e 09ef 873e 443f 99bd
000002b0: 1fce e03d e962 563e 94cd 4e3e 4257 333e
000002c0: 9321 003e d30c d1bd e942 7a3d 096f 5c3c
000002d0: c467 19be a585 4abe 9ff0 36be a42b 1a3e
000002e0: d067 313d 7d31 1bbd 1349 0e3d ce15 4abd
000002f0: 2613 18bd 7bc9 b2bd 9a60 233c 20b4 b43d
00000300: 4f13 0ebe 0992 883d a2ea ed3d 58a4 03bc
00000310: 9ffc 2f3d b39f 51bc acdf 0fbe cad1 2dbd
00000320: f30b ec3d dd45 e53d 37f7 0fbe b613 833d
00000330: 2c7e 50bc 0d1e e8bb 68eb 373d c9c6 6f3b
00000340: 750d 88be 6534 d9bd 0fab b73d e21c 3c3e
00000350: 31f3 5ebd 8d91 3c3e b3fd 833d 48a5 9cbd
00000360: 2e1b 9c3d 4f9d f9bd 9639 0a3c 5c4d 96bc
00000370: 45f4 7a3d dd37 ffbc 76f7 413d 67de a23d
00000380: 870b 8c3d c805 183e 59fa 983c 5f54 d43c
00000390: 601d bc3d 1421 94bd 5283 f8bd bf3f 2abd
000003a0: e679 88bd ccb9 283e 60b7 2cbd 147c dc3d
000003b0: d17c 73bd a493 bebc 10c0 8cbc 6218 3a3d
000003c0: d4f7 e73d d79a c23d 3809 2e3e 478b ff3d
000003d0: b72e 183e 8dc0 0bbe 9360 84bd 749f 22bc
000003e0: 1c09 04be a408 7e3d b53d a5bd b7a1 8c3d
000003f0: 015d 8b3c 493e a2bc d7f0 95bd d68d 273e
0.1201848 0.15520026 -0.069268376 0.021993278 -0.006957646 0.0012405617 -0.00792588 0.14210396
-0.0004339527 0.07784091 -0.022798743 8.552175e-05 0.12009777 -0.13223615 -0.2141111 -0.013014808
-0.07713574 -0.09476858 0.12061815 -0.042365447 0.081292026 0.18368046 0.126105 0.1293801
-0.014957437 0.13019456 -0.08740367 -0.08646326 -0.104592815 0.09635321 0.124464415 -0.05122774
0.14669314 0.09229938 0.0013954946 0.2048264 0.14600427 0.0748267 0.013720474 -0.12509021
0.0070705265 -0.061479926 -0.13815817 0.1701567 0.11778135 -0.05384601 0.10685685 -0.085235916
-0.27646756 0.09241202 0.03236591 -0.043188654 -0.13109262 0.16533647 -0.1531388 -0.11623781
0.08555016 -0.06754581 -0.03722963 0.16336216 0.02127858 0.10093813 -0.064277805 0.10785042
0.14742784 -0.18942304 -0.13753787 -0.036282256 0.022929527 -0.07455473 -0.061991863 0.030682754
0.14712021 0.026079437 0.039956663 -0.03674757 -0.06713001 -0.14430983 0.14081475 -0.1631423
0.12925105 -0.0068799416 0.0006511786 -0.13117783 0.0029674808 0.051723458 -0.09812289 -0.019588007
0.030542424 0.16089396 -0.056390557 -0.03527084 -0.13822366 -0.12576042 -0.091670126 0.12545022
-0.06095263 -0.060101755 0.049137495 -0.14028183 -0.06854809 -0.08530376 0.08398379 0.07116948
-0.08601191 0.06538767 0.04239854 0.1033186 0.1898026 0.18361033 -0.11570637 0.08329707
-0.029870644 0.053299576 0.08396538 -0.15521455 0.13734266 -0.027004553 0.037886024 -0.078177504
0.14180857 -0.022548188 -0.11378052 -0.35676482 0.21118999 0.17082445 0.063690886 0.08738624
0.15044317 -0.033588227 0.12504959 -0.1224562 -0.10432659 -0.0043016253 0.0015161389 -0.088127755
-0.08083516 -0.11725675 -0.12063328 0.14403121 -0.024965258 -0.16068208 -0.11289796 -0.09947077
0.07047634 -0.16985984 -0.09988174 0.04909194 0.060102306 0.11826712 -0.06468435 0.07787803
0.101673156 0.018135574 -0.0017437692 0.097462 -0.017041352 0.20135704 -0.1374192 0.061884154
-0.15371163 -0.059587996 -0.0075045517 -0.20731851 -0.05527346 0.040988486 0.10048772 -0.1151868
-0.11752844 0.13492131 0.26549557 -0.0748277 0.109768145 0.20936169 0.2019561 0.17513755
0.12512808 -0.10207524 0.061098967 0.013454207 -0.1498099 -0.19777544 -0.17865227 0.1505571
0.043311894 -0.037888993 0.034737658 -0.0493372 -0.037127636 -0.087298356 0.009971762 0.088234186
-0.13874553 0.06668479 0.11617018 -0.008034788 0.042965528 -0.012794423 -0.14050168 -0.0424364
0.11525717 0.11194966 -0.14059149 0.06400244 -0.012725394 -0.0070836605 0.044902235 0.003658699
-0.26572767 -0.106056966 0.08968174 0.18370393 -0.054431144 0.18414898 0.06444874 -0.076487124
0.076223716 -0.12188207 0.008436581 -0.018347435 0.06126811 -0.031154567 0.047355138 0.07952576
0.06838136 0.14845955 0.018674063 0.025919138 0.0918529 -0.07232872 -0.12134422 -0.0415647
-0.06663875 0.16477126 -0.042167068 0.107658535 -0.059445206 -0.02326376 -0.017181426 0.04543341
0.11326566 0.095021896 0.16995704 0.12477737 0.1486157 -0.13647671 -0.064637326 -0.009925712
-0.128941 0.06201996 -0.0806841 0.06866782 0.017012121 -0.01980509 -0.07321327 0.163627

Network_stack.1.0.gru.bias_ih_l0 f4 [96]
00000000: df09 a03d 1ff4 273e dd1f 3dbd 4589 7bbc
00000010: 0179 17be db2e 893d 2a1a 27bd a2bf ee3d
00000020: 84fa 1b3c 09c5 d73c 784a b6bd a737 8d3d
00000030: 20e2 32be 7dd4 9fbd 775d c13d a3af 0a3e
00000040: c0de e13c 6566 193e c4cb a43d 3e34 f0bc
00000050: d974 183e 4daa c6bd c372 483d 2834 13be
00000060: 8621 96ba c860 933d 661f 233d 3dbd fabd
00000070: 5108 0ebe 70a8 08be 7dba efbd f586 28be
00000080: 0d3b 13be 537a 42be b12d 353b 4c7e b13d
00000090: 6135 07be 2ee0 07be 4f9a e5bc 428d ffbb
000000a0: 15de 1d3c 0b69 62be 5e0e f5bd 9eef 80be
000000b0: bda3 0b3e d7b1 09bd 2faf f3bc fb93 1bbe
000000c0: c4ec 89bd c7bd 6abe bd8c 6bbe 83ce 923b
000000d0: cf62 3b3e d64e 773e a3bc 75bc 8822 8c3d
000000e0: c01a 6c3e 2f77 673e 32ee a33e 921a 1e3e
000000f0: 3f55 d93d 6e27 bf3c f56c f43d 0696 e33d
00000100: ef0c f83d 1215 6d3d edf6 1b3e d8d2 f5bd
00000110: 705a 05be 4846 b6bd 1a63 493d 6f0b d43d
00000120: f119 303e b91f d33d d5ae 93bd 04c4 c53d
00000130: 2e08 c43d 6ea4 fb3d 0135 9e3d 2db5 0b3e
00000140: ad76 183e 5715 193e 1811 593c 7387 11be
00000150: 8604 b6bd 3bba 8dbd 41df 0ebe 38b3 c8bb
00000160: c13c 7dbd b537 60bd 21b2 0b3e 3432 86bd
00000170: cdf8 12bd 2644 843d eed6 0b3e a8fd e33c
0.07814383 0.16401719 -0.046172965 -0.015352552 -0.14792253 0.0669839 -0.040796436 0.11657645
0.009520177 0.02633907 -0.089009225 0.068953805 -0.17469072 -0.07804201 0.09441655 0.13543563
0.027572036 0.14980467 0.08046678 -0.029321786 0.14888324 -0.09700451 0.04893757 -0.14375365
-0.0011454083 0.07196194 0.039824866 -0.122431256 -0.1387036 -0.13345504 -0.11705492 -0.16457732
-0.14377995 -0.18991975 0.0027645642 0.08666667 -0.13203956 -0.13269112 -0.028027682 -0.0077988217
0.009635468 -0.22110383 -0.11965631 -0.25182813 0.1363668 -0.033616867 -0.02974662 -0.15193169
-0.067346126 -0.22923957 -0.23002906 0.0044801845 0.18299411 0.24151167 -0.014998588 0.06842524
0.2305708 0.22604059 0.32017666 0.15439823 0.106119625 0.023334231 0.119348444 0.11112599
0.12111842 0.057881422 0.15230913 -0.12003106 -0.1302278 -0.08900124 0.049166776 0.10353743
0.17197396 0.10308785 -0.07211081 0.09656528 0.09571873 0.12287222 0.077249534 0.13643332
0.14889021 0.14949547 0.013248704 -0.14211826 -0.088875815 -0.06920286 -0.13952352 -0.00612488
-0.061825518 -0.054740626 0.1364217 -0.06552544 -0.035881806 0.06458311 0.13656208 0.027830914

Network_stack.1.0.gru.bias_hh_l0 f4 [96]
00000000: 50e6 213e 9c60 eebb e8ab 3cbe 495b 253d
00000010: 3362 ccbd a9e3 4dbd 5574 f53d dec5 8dbd
00000020: fe46 233e 3215 9d3d c293 203e b39d 203e
00000030: a94d 363c 48d2 323e d343 19be 7b3f 253e
00000040: 6ee9 97bd 9593 2c3e d499 123e 1b03 1bbd
00000050: 1040 623d 087d 453d da45 d5bd 5a29 3e3d
00000060: 44a9 c7bc d85f c6bd e556 1bbe e45a 57bd
00000070: 903f 853d e6ec 283e 971c d03d e371 a83d
00000080: 50e0 ba3d 53d8 37be 2a54 dfbd 4301 543c
00000090: f956 6cbb 3e2b e2bd 7a5e 3a3c f4b2 9b3c
000000a0: ed2c 653c 844d 89be 7153 9fbe 8ae7 5ebe
000000b0: b195 1b3e 1143 1dbe f332 023e b6b5 97bd
000000c0: c717 0e3e 84dc d93c 3787 67be bed6 e03d
000000d0: 951a 333d 1078 57bc 5e97 76be e44d 313d
000000e0: 1b95 103e 62e1 993c a9da cc3d 7114 013e
000000f0: 316f d83d 0aea 02be 2098 55bd d4a4 ec3d
00000100: e214 07bd 1540 ba3d c44a 8a3d ed1c 8ebd
00000110: 47e5 303d 6efb 0d3e e3fc 0f3e e0ed 433d
00000120: 08bf 3b3d 110c 06be 3f42 023e 2e6a a43c
00000130: 77b5 223e 71ff 313e ad1e aabc 6866 b33d
00000140: a24e aabd bb4f c23c 2809 a83d 7655 26bd
00000150: d8ff 16be d1ac 563d f4e5 0bbe 018e 30be
00000160: c065 6dbd 9d6a 923d 02bb 26be 1cbb 893c
00000170: 6a87 64bd 96e9 dcbd d1e0 353d 7b45 09be
0.15810513 -0.0072747003 -0.18424952 0.04037026 -0.099796675 -0.05026594 0.11985079 -0.06922506
0.1594505 0.07670058 0.15681365 0.15685157 0.011126914 0.17463028 -0.14967279 0.16137497
-0.0741757 0.16853173 0.14316493 -0.03784476 0.055236876 0.048214942 -0.10413714 0.046426155
-0.024372704 -0.096862495 -0.15169866 -0.052576914 0.06506264 0.1649662 0.10161703 0.08224847
0.091248155 -0.17953615 -0.10904725 0.012939754 -0.0036062582 -0.11043404 0.011375064 0.01900623
0.013987762 -0.26816952 -0.31118348 -0.21768013 0.15193821 -0.15357615 0.12714748 -0.074077055
0.13876258 0.026594408 -0.22610174 0.10978459 0.043726522 -0.013151184 -0.2408118 0.043287173
0.14119379 0.018784229 0.100026436 0.12605454 0.10568083 -0.12784591 -0.05214703 0.11554876
-0.0329789 0.09094254 0.06752542 -0.06939111 0.043187406 0.13865444 0.14061312 0.047834277
0.04583648 -0.1309054 0.12720583 0.020070162 0.15889536 0.173826 -0.02076658 0.08759767
-0.08315779 0.02371966 0.082048714 -0.040608846 -0.14746034 0.052410904 -0.13661939 -0.1724167
-0.057958364 0.07149241 -0.16282275 0.016812854 -0.055793203 -0.107867405 0.044403855 -0.13405411
