models/model_uniform_region_0-0.3.0.6-0.9_multiple_Agents213281ef.pth (torch, 342818 bytes, 68 tensors)

Network_stack.0.0.gru.weight_ih_l0 f4 [96, 2]
000000 64 1a 69 3e 04 c3 03 be dd 41 81 3e 4a bb 3b 3e
       0.22763973 -0.12867361 0.25245562 0.18333164
000010 8a 65 01 3e b0 58 81 bd 60 cd c8 bd f5 3e 29 3c
       0.1263639 -0.06315744 -0.09804797 0.0103299515
000020 a9 8b 98 3e c6 34 7c be 00 64 a2 bd 5a 77 24 3e
       0.29794052 -0.24629506 -0.0792923 0.16061154
000030 b9 c2 a4 3b 09 d8 44 be f4 5c e8 3d 7f 6c 9c 3c
       0.0050280956 -0.19223036 0.113458544 0.019094704
000040 e7 b5 49 be 3f 83 9f bd 97 b2 ae 3e 08 0b 6d 3c
       -0.19698296 -0.07788705 0.34120628 0.014467962
000050 a4 f7 af 3e 53 5a a9 bd 1f 5d 18 bd eb 55 2e 3e
       0.34368622 -0.08269181 -0.037198182 0.17024963
000060 5e af 19 3e 43 2c e8 bd d6 4c ba 3d 38 78 08 be
       0.15008304 -0.11336567 0.090966865 -0.1332711
000070 76 5e 7f 3b fd 92 f7 bd 43 2d ae 3d 5b 0a 39 3e
       0.0038966215 -0.12088583 0.08504727 0.18070357
000080 e8 9c 2e be 1d 70 8e 3d 3a 37 03 3e a9 9d 22 be
       -0.17052042 0.06954978 0.12814036 -0.15880455
000090 e2 0a 90 3e dc 0e f5 3d 21 74 b4 3d fc 3d fe bc
       0.28133303 0.11965725 0.08811212 -0.031035416
0000a0 c6 3b be 3d 7a 37 65 bd 3f bc 77 bd bd d0 08 be
       0.09288745 -0.05596111 -0.06048226 -0.13360877
0000b0 88 5c 48 3d fd 56 30 be 31 99 9c 3d 51 26 ad bc
       0.04891637 -0.17220683 0.076464064 -0.021136435
0000c0 d0 76 83 3e 5f a7 21 3d 76 95 54 3e ee 05 8c 3d
       0.25676584 0.03946626 0.2076014 0.068370685
0000d0 8d 31 96 3d fb 83 6d 3d 04 fb 28 3e 85 d3 0b 3d
       0.0733367 0.057987195 0.16502005 0.034137268
0000e0 0f 66 11 be 9a 94 32 3e be fc 9f 3d a7 bb 2e be
       -0.14199089 0.174395 0.078118786 -0.17063771
0000f0 c0 4b aa bd fa b3 06 be 29 d4 3f be 8a d8 53 3e
       -0.083152294 -0.13154593 -0.18733276 0.20688072
000100 0f 42 a2 be 33 8f 4a 3e 20 b8 24 be 3c a1 4b 3e
       -0.31691024 0.19781189 -0.16085863 0.19885725
000110 ac 92 0d bf 36 d2 7a bd a1 f3 bf 3e c0 e9 b5 3d
       -0.5530193 -0.06123563 0.37490562 0.08882475
000120 21 c5 62 bf b0 b6 7d bf ae 48 f0 be 8b 8e 63 be
       -0.88582045 -0.99106884 -0.4693045 -0.22222345
000130 b1 99 29 bf ad 9a fd be 0d 15 15 bf 87 60 65 be
       -0.6625014 -0.4953207 -0.58235246 -0.22400104
000140 0d 9b e8 3c 11 e1 52 3e e0 8f 14 bf 02 c2 02 be
       0.028394246 0.20593669 -0.58032036 -0.1276932
000150 5f a6 b3 3e 01 14 52 bd e3 6e 0c be 4e 40 3c be
       0.3508787 -0.05128861 -0.13714175 -0.18383905
000160 62 41 af be 65 43 2a be 05 5a d3 be 3f d9 0c bf
       -0.3422957 -0.16627271 -0.41279617 -0.5501899
000170 20 04 2b be 59 e1 6e be 23 23 9a bd e3 a0 3e bd
       -0.16700792 -0.23328151 -0.07526233 -0.046540152
000180 75 88 1f be fd 93 c5 be 4e 06 75 3e 21 80 a8 3e
       -0.15579398 -0.3858947 0.23928186 0.32910255
000190 1d 0b f4 be cf e2 5c 3c f9 4c a5 be e8 d7 c1 be
       -0.4766473 0.01348181 -0.32285288 -0.37860036
0001a0 50 af 1d 3d 1d ea c1 3d 9b 5c e7 3e 66 b8 79 3c
       0.03849727 0.09468482 0.4518784 0.015241718
0001b0 60 40 1a be f5 20 50 be b8 39 82 3e 30 d8 a2 3b
       -0.1506362 -0.20325072 0.2543466 0.004969619
0001c0 e7 80 cf 3d f3 21 d5 3c f1 7a e5 3e 75 72 71 3e
       0.10132008 0.026017165 0.4482036 0.23578818
0001d0 b5 ef bf bd c7 d3 65 3d a5 b7 8d bf cb 89 19 bf
       -0.09371892 0.05611017 -1.1071669 -0.5997588
0001e0 de fb 76 bf 71 3b af be 6c 84 2c bb 11 4f ba 3d
       -0.9647807 -0.34225038 -0.0026324047 0.09097112
0001f0 2a 37 9e bf 0a 65 34 be c7 e4 26 bf 76 fd cf be
       -1.2360585 -0.17616668 -0.65192837 -0.40623063
000200 be 90 8f bd 4f 0d d7 3b 65 06 71 3d 00 df b5 3d
       -0.07010029 0.006562866 0.05884399 0.088804245
000210 14 d8 90 3e ae 9b 0b 3e 79 99 56 bd 23 65 d0 3d
       0.28289855 0.13633606 -0.052392457 0.1017554
000220 ff e7 e2 be 49 be 2b 3e 19 c3 4d be 17 2d 1f be
       -0.44317624 0.16771807 -0.20093955 -0.15544544
000230 d5 da 78 3e 86 1c 51 3e 0f 39 83 3e fe 48 4a 3e
       0.24302228 0.20421037 0.2562947 0.19754407
000240 7e 22 48 3e 1b 30 33 be 5a 96 b1 bd 53 60 5b bc
       0.19544408 -0.1749882 -0.086712554 -0.013389665
000250 ad 60 47 3e 76 b6 a8 bd 89 fd 01 3e 18 d8 cd 3d
       0.19470473 -0.08237927 0.12694372 0.10050982
000260 28 f9 5f 3e 1a 33 36 be 00 5d a4 be c5 ac 10 3e
       0.2187239 -0.17792931 -0.32102203 0.14128406
000270 90 d4 1b be a9 29 8a bd 3a 5b 13 be 80 5d c8 3c
       -0.15217805 -0.06746227 -0.14390269 0.024458647
000280 2d 71 b0 3e b3 c8 55 be 38 78 29 be b4 e5 0f bd
       0.34461346 -0.20877342 -0.16549766 -0.03513117
000290 f8 79 da 3e 43 d8 0e be 22 e6 0a be f7 a8 24 be
       0.4267118 -0.13949685 -0.13564351 -0.1608008
0002a0 fc 75 40 3d ea 96 e0 ba f9 e6 80 bd b2 24 17 be
       0.04698752 -0.001713482 -0.062940545 -0.14760092
0002b0 2b f3 fa bc 1c 11 03 be 18 fc 89 be 89 80 53 3e
       -0.03063353 -0.12799495 -0.26950145 0.20654501
0002c0 be eb 0c be 56 f6 0c 3d 78 90 93 be f3 a0 b0 3d
       -0.13761804 0.03441461 -0.28821158 0.086244486
0002d0 29 09 e4 bd df fe 91 3e 9e 45 a3 be 88 3d 4d 3a
       -0.1113456 0.28514764 -0.3188905 0.0007829298
0002e0 52 a8 3c bd 41 60 59 3e 94 bc 67 be f5 c2 68 3e
       -0.04605896 0.21228124 -0.2263053 0.2273062
0002f0 42 8b 51 3e 37 cf 10 3e 84 90 a7 be 94 cb 3a be
       0.20463279 0.14141546 -0.32727444 -0.18241721

Network_stack.0.0.gru.weight_hh_l0 f4 [96, 32]
000000 4f 70 0c 3e fa 24 aa bd 7d 1f be bd 3c 3e 44 be
       0.13714717 -0.08307834 -0.0928335 -0.19164366
000010 91 84 0b be 13 d4 57 bd 91 f3 83 bd 0b 23 fd bc
       -0.13624789 -0.052692484 -0.06442941 -0.030900499
000020 8b a2 78 bd 7b 7f 35 3e 63 00 4b 3d 4a 07 d7 3d
       -0.060701888 0.17724411 0.049560916 0.10499437
000030 ef 7e ab bd 5f 19 3a 3e c2 80 09 3e 8d 94 43 be
       -0.0837382 0.18173741 0.13428023 -0.19099636
000040 1d 55 5f 3e 2a 9a 1c bc ef 5e 53 bd 56 57 87 3d
       0.21809812 -0.00955824 -0.051604208 0.06608455
000050 12 d6 5a 3e d1 49 82 bd 0e 18 70 3d e6 52 86 3d
       0.21370724 -0.063617356 0.05861669 0.0655878
000060 f4 27 51 3d e3 46 81 bd 02 83 12 bf db 64 a2 bd
       0.051063493 -0.06312349 -0.5723115 -0.07929393
000070 f4 26 9a 3d 7b d5 77 be 8e bc 95 bc 8a 78 ac bd
       0.07526961 -0.2420253 -0.018278386 -0.084214285
000080 9c 5e 8a bb cf 24 ba 3d 77 b5 32 3c 72 36 f4 3c
       -0.004222704 0.09089052 0.010907522 0.029811118
000090 18 61 fb 3d 63 ac ad 3d c3 fa 65 3c 1a 3b 2d 3c
       0.122743785 0.08480146 0.014036837 0.010573173
0000a0 f2 e1 49 bd 9a e0 b5 3d e5 ba 9c bd ed 8a 2f 3e
       -0.049287744 0.0888073 -0.07652835 0.1714284
0000b0 b4 09 f9 bd c1 34 59 bd 04 a9 72 3c d9 70 ff bd
       -0.12160054 -0.053028826 0.014810804 -0.12472696
0000c0 1b f0 14 3e 8d 72 e1 3d 7b 84 b4 bc 9f 4d b0 3d
       0.14544718 0.11008177 -0.022035828 0.08608555
0000d0 7b df ce bc e7 a0 28 bd 4f 44 10 be bf 3f 03 be
       -0.025253048 -0.041169073 -0.14088558 -0.12817286
0000e0 d2 e4 23 3d 8b 3e 83 bd 5c fb ee bd a6 dc 4a bd
       0.040013142 -0.064084135 -0.11669037 -0.049526833
0000f0 35 43 03 3d c4 a7 f9 3d c9 6e 9f 3c de 74 3b be
       0.032046515 0.12190202 0.019462006 -0.183063
000100 56 47 44 be f2 75 fc 3d 59 f5 fc bd 5f e8 3a bd
       -0.19167838 0.12327184 -0.12351484 -0.045631763
000110 6d ac 02 3e c3 98 15 be a4 db 0d 3e 84 20 07 be
       0.12761088 -0.14609055 0.13853317 -0.13195997
000120 16 27 43 3e e1 5a 6e 3e 01 bb 38 3d b4 57 34 be
       0.19057879 0.23276855 0.045100216 -0.17611581
000130 3f 25 d9 bd 27 89 d9 bd a5 cf 88 bd e9 98 6e bd
       -0.10602807 -0.10621863 -0.0668023 -0.058251295
000140 cd ac 10 3e a1 4c 89 3d 09 f2 31 3e cd 58 c4 bd
       0.14128418 0.06704069 0.17377485 -0.0958725
000150 33 71 05 3e 0b 58 e2 3d ae 97 54 bd 28 9e 08 3d
       0.13031463 0.11051949 -0.051902466 0.033353955
000160 0a 3c 71 3b 30 9f a3 3c c2 21 31 3e ca a6 7b bd
       0.0036809468 0.019973367 0.17298034 -0.06143836
000170 22 4b c8 3d 88 66 12 3e 73 6e 29 be bb ab 97 bb
       0.097799554 0.14296925 -0.1654604 -0.004628626
000180 76 bc 66 bd f8 9e 79 bc e0 11 68 be b6 b8 95 3e
       -0.056332074 -0.015235655 -0.22663069 0.29242486
000190 47 22 bb 3e 8f 74 45 bd 0e a4 be bd 28 89 9b 3d
       0.3654959 -0.048206862 -0.09308635 0.0759452
0001a0 e2 1c ef bd f5 29 6b bd cb 6b b7 bd 43 13 9f bd
       -0.11675431 -0.05741306 -0.08956107 -0.07767346
0001b0 3a a1 91 bd 84 4b 62 3e 7f ec 02 bc aa 79 12 bd
       -0.0711083 0.2209912 -0.007990955 -0.03576056
0001c0 0d 03 64 be 5f 65 64 3e dc 7e 21 be c4 c7 7c 3e
       -0.22266789 0.22304295 -0.1577105 0.2468558
0001d0 18 fd 36 bd e8 9f c5 bd 3a 68 64 3d 0a 9d de bc
       -0.044674963 -0.0964964 0.05576346 -0.027174491
0001e0 71 c2 13 be 49 9c 95 3d 21 b6 37 3e 7b 45 b5 3d
       -0.14429642 0.073052 0.1794057 0.08851143
0001f0 ce e2 08 3e 25 fa 9b 3e e7 5a 3b 3e 91 41 63 3e
       0.13367769 0.30464283 0.18296395 0.2219298
000200 c0 bb 90 be 7c 54 51 bd 43 92 89 be c4 4d 11 3e
       -0.28268242 -0.05110596 -0.268694 0.14189821
000210 d4 23 0b be 94 95 7b be 3e c6 8e bd 13 d8 7b 3d
       -0.13587886 -0.24568778 -0.069714054 0.06148536
000220 f5 b9 2f 3e ce 3e 7b 3d bb f9 f1 bd bc 60 38 be
       0.1716078 0.061339192 -0.118152104 -0.18005651
000230 ed 09 a5 bd 70 92 1a 3e 6d 40 a7 3d 00 f1 0f be
       -0.08058534 0.15094924 0.08166585 -0.14056778
000240 db 64 bf bd b3 3b 3f 3d 26 ed bf 3d 37 de 96 3d
       -0.093454085 0.046687793 0.09371404 0.07366603
000250 51 a3 42 3c 7a a1 5c bd e3 18 9c 3e da 6c 83 bd
       0.011879758 -0.053864934 0.30487737 -0.06417246
000260 5b fd 5c be be ec 6e 3e 8e d0 b3 bd ce ed 35 3c
       -0.21581022 0.23332497 -0.08780013 0.01110406
000270 ad 84 a9 3c 10 7f 7b ba 7a df c0 bd 76 0c 26 3e
       0.020693148 -0.0009593824 -0.09417625 0.16215691
000280 ad c1 b3 bc 5f 91 a5 bc e1 44 b5 3d 59 fc 41 3d
       -0.021942938 -0.02021092 0.08851028 0.047359798
000290 ac b5 e0 bc 85 2e 26 be 7c 3c bd bd 95 2a d5 bc
       -0.027430378 -0.16228683 -0.09240052 -0.026021281
0002a0 76 1e 96 bc 0d 07 3d 3d 51 ec 70 bd ee ba 1d be
       -0.018325072 0.046149302 -0.05881912 -0.1540334
0002b0 37 f4 25 be 47 d0 64 3e a5 a0 13 be 38 50 15 3e
       -0.16206442 0.22345077 -0.1441675 0.14581382
0002c0 31 52 08 be ea 1a e5 3d f1 2a 38 3e af af 5f 3e
       -0.13312604 0.11186774 0.17985131 0.21844362
0002d0 de f8 50 3c 81 01 1c be 25 3b a6 bd 9e 60 bf bd
       0.012754647 -0.15234949 -0.0811675 -0.093446
0002e0 6d e7 88 3c 84 0a 17 3e 37 e1 15 3e fb a4 4a 3d
       0.016711915 0.14750105 0.14636694 0.049473744
0002f0 16 5a 8b bd b2 97 5d 3b b1 65 a4 3d b5 42 3b 3e
       -0.06804292 0.0033812341 0.080272086 0.18287165
000300 b7 29 4d be 92 da 1a 3e 71 d4 78 3d a1 dc cb bd
       -0.20035444 0.1512244 0.060749475 -0.09954191
000310 76 98 cf 3c 4f 51 d5 bd 77 6c 51 bd de a9 13 3e
       0.025341254 -0.10415899 -0.05112883 0.14420268
000320 5e 6c e0 bd f6 39 df 3a 3a 07 a1 bd 93 f3 88 bd
       -0.109581694 0.0017030824 -0.078627065 -0.06687083
000330 45 6a 53 3d 3a 59 1f be 7c bc 2a 3d 28 1f 0c 3e
       0.05161502 -0.15561381 0.04168366 0.1368376
000340 b2 4a 10 3e 8c c1 ff bd 76 b9 55 3d 20 71 0b bd
       0.14090994 -0.12488088 0.052178822 -0.03404343
000350 37 8d df bd 08 49 13 3e 00 4c 51 3e a5 8a 12 bd
       -0.109156065 0.14383328 0.20439148 -0.035776753
000360 e9 92 9b bd d8 36 1f be 60 df 08 39 25 46 1a 3e
       -0.0759638 -0.15548265 0.00013053184 0.1506582
000370 85 6b 24 3e f5 71 10 3e 35 36 17 3d 15 7e a2 bd
       0.1605664 0.14105971 0.03691693 -0.079342045
000380 d7 dd e1 bd 26 81 60 3d 7f b8 fc 3c 9d 4b 04 3e
       -0.11028641 0.054810666 0.030849693 0.12919469
000390 ec f4 94 3c e4 07 af 3c 69 88 3b 3e e7 e4 4d 3e
       0.018183194 0.021366067 0.18313755 0.2010685
0003a0 55 f0 25 3e 61 d6 ca bc a3 95 27 3e 9a ff df 3c
       0.1620496 -0.024760427 0.16365676 0.02734356
0003b0 c9 3f 52 be 8c a7 27 3e 3d 5b f7 bd aa b1 5a bd
       -0.20532145 0.16372508 -0.12077949 -0.05339209
0003c0 67 cd a7 3c 45 41 b4 3c 30 37 12 3e 43 3f 4a bd
       0.020483686 0.02200378 0.14278865 -0.049376737
0003d0 e5 8b 17 3e af ea 16 be b1 8d bd bd 4e 1b 34 3d
       0.1479946 -0.14737962 -0.09255541 0.043971352
0003e0 c8 b5 2f be 26 85 9c bd 18 d3 1f 3e bf 12 2a 3e
       -0.17159188 -0.076425835 0.1560787 0.16608714
0003f0 ab 04 99 bd ae c7 49 3d b0 c5 3b be 85 4d 46 3d
       -0.074715935 0.049262695 -0.1833713 0.048413772

Network_stack.0.0.gru.bias_ih_l0 f4 [96]
000000 94 35 c0 bd 0d 43 19 3e 40 d7 fb bd d7 15 89 3c
       -0.09385219 0.14966984 -0.12296915 0.016734047
000010 03 8d 2d bd ef 19 9f 3d 2f 7f b6 3d 1f 34 ef 3d
       -0.042370807 0.07768618 0.08910977 0.11679863
000020 53 84 e3 bd 75 d6 fe 3d a1 3d 20 be c3 e5 b2 3c
       -0.11109223 0.12443248 -0.1564851 0.021838075
000030 9a e5 c6 bd 74 c4 ee bc 58 61 d9 3c bd fe 31 bc
       -0.09711762 -0.02914641 0.026535675 -0.010863957
000040 14 08 f6 bd e9 b0 00 3c 93 78 df 3c 6a 75 16 be
       -0.120132595 0.007854679 0.027279174 -0.14693227
000050 e2 30 09 be 07 ff ee 3c 11 47 0b be 68 4b f1 3d
       -0.13397554 0.02917434 -0.13601328 0.11781961
000060 c0 e1 d2 bd e9 65 0c 3e 7d 48 24 3e 4f 2e 4b be
       -0.10296965 0.1371075 0.16043277 -0.19841884
000070 b6 23 2d 3e d3 5b c9 3d 91 9c 38 bd 10 42 1f 3c
       0.16908154 0.09831967 -0.04507119 0.00972034
000080 c4 1d 09 bf ac e5 c9 bd 25 d4 7b be de f0 c1 3d
       -0.53561044 -0.098582596 -0.24592645 0.0946977
000090 2c 8c 57 bf 4e 13 98 be 9a 67 97 be 79 92 04 bf
       -0.8419826 -0.29702228 -0.2957123 -0.51786
0000a0 51 1b 42 be 8b fb 17 bf 9d 1a 29 be 64 5b 07 be
       -0.18955733 -0.593682 -0.16514058 -0.13218457
0000b0 ed e3 b4 bd c4 44 04 bf e3 66 d5 bc 4f 0b e3 bd
       -0.08832536 -0.5166743 -0.026050037 -0.11086141
0000c0 eb 6d 2e be 9c c8 b7 3e d9 ee 02 bf 83 02 dd be
       -0.17034118 0.3589524 -0.511457 -0.4316598
0000d0 0f a4 b5 bc 45 03 86 bd 40 79 d2 be dd 6c 04 3e
       -0.022172956 -0.06543592 -0.4110813 0.12932153
0000e0 2e f9 9b bd 86 a4 9d 3e 1b 31 15 be 8a cf 24 bf
       -0.07615887 0.30789584 -0.14569513 -0.6437918
0000f0 60 86 b3 be d1 52 1a be 02 1e 07 bf 56 73 8a be
       -0.35063457 -0.15070654 -0.52780163 -0.2704112
000100 f3 30 ff 3d e4 b6 c2 3d cd 35 3e 3d f5 d5 54 bd
       0.12460508 0.0950754 0.046438027 -0.051961858
000110 32 e5 55 3d b1 80 07 3e 1a a5 6c 3b 85 4b 18 be
       0.05222053 0.13232686 0.003610915 -0.14872558
000120 34 79 02 3c e3 d7 af bd f6 38 b8 bd 89 b9 b8 3d
       0.007963467 -0.08586099 -0.089952394 0.09019763
000130 6c 4d 52 3d c8 bd 6f 3c 7a 28 04 3e 94 44 b0 3c
       0.051343367 0.01463265 0.12906066 0.021517076
000140 61 22 3e 3d ce 67 46 bd 0e 72 f8 bd 99 c0 93 bd
       0.046419505 -0.04843884 -0.12131129 -0.072144695
000150 51 16 5a bd 83 ce 9c 3d cf 00 90 bd c8 a7 1a be
       -0.05324394 0.076565765 -0.07031404 -0.15103066
000160 63 96 18 3e 75 86 1b be 81 c1 ab 3b 8e c2 84 3c
       0.14901118 -0.1518801 0.0052415733 0.016206052
000170 42 80 cc bd 6d b7 dc 3d f2 7c c0 3d 63 42 d3 bd
       -0.09985401 0.10777173 0.093988314 -0.10315397

Network_stack.0.0.gru.bias_hh_l0 f4 [96]
000000 94 7d 86 bd c3 0a 05 3e 8a fd 52 be 61 81 8d be
       -0.06566921 0.12992387 -0.2060453 -0.2763777
000010 c6 48 61 3c 07 70 9e 3d c1 82 4a be 5d 69 c3 3b
       0.013750261 0.07736211 -0.19776441 0.005963488
000020 3c f3 f5 bc 2f a8 4b 3d 5e 06 da 3d 50 ac 18 be
       -0.03002321 0.04972094 0.10645746 -0.14909482
000030 65 0e 29 bc 68 c8 cd bd 87 cf 37 be 76 01 19 be
       -0.010318373 -0.1004799 -0.17950259 -0.14941964
000040 35 34 0c 3e 05 ee 3d 3d b5 fc b2 3d 3a 0f 84 3d
       0.1369179 0.04636957 0.08739606 0.06448217
000050 a8 81 eb bd af 2a a6 bd 15 04 bc 3d 74 5e f3 bd
       -0.11499339 -0.0811361 0.09180466 -0.1188325
000060 38 0a 31 be af bd 07 3d 1a 7a fd 3d e8 5a 0d be
       -0.17289054 0.03313988 0.12376805 -0.13804209
000070 3e 29 26 be f1 e1 06 be ad da 37 3e e1 6d 8d 3e
       -0.1622667 -0.13172127 0.17954512 0.27622893
000080 09 76 3d bf fc c9 7b be cf ef a6 be 97 5c 92 3e
       -0.7400823 -0.2458877 -0.32604834 0.28586265
000090 29 ad 09 bf 5a d4 3a be 3e 0a 6f be 7f 85 0d bf
       -0.53779846 -0.18245068 -0.23343751 -0.55281824
0000a0 5b 49 68 be dd 80 ab be fa 0c a8 3d 79 57 e7 3c
       -0.22684233 -0.33496752 0.082056 0.028239952
0000b0 06 1e 98 bb 0e 0e cc be f5 53 1f 3d e7 0a b2 be
       -0.004642251 -0.39854473 0.038898427 -0.34773943
0000c0 9c 00 9f be fb af 04 3e f5 4b 2f bf ca ea 7b be
       -0.31055152 0.12957756 -0.68475276 -0.24601284
0000d0 27 7c 33 bd 86 3f f0 bd 59 85 96 be c6 82 9a 3e
       -0.043819573 -0.11730866 -0.2939861 0.30177897
0000e0 c5 5c 61 bb fc fa a4 3e 48 2a 67 bd 86 eb 6d bf
       -0.003438757 0.32222736 -0.056436807 -0.92937505
0000f0 5e b3 02 bf 2b 0e 67 bd 22 fa 11 bf 86 99 c9 be
       -0.5105494 -0.056409996 -0.570223 -0.39374942
000100 9c 6e 07 3d 97 65 c0 3d af cc b6 3d 84 b6 f5 bc
       0.03306447 0.09394377 0.08925759 -0.029994257
000110 b1 3b 58 bd 2e 5d 15 be 80 5d 09 be e1 00 8d 3d
       -0.0527913 -0.14586326 -0.13414574 0.06884933
000120 73 3b 03 bd 72 a8 96 3c 54 e6 c1 3d f8 90 86 3d
       -0.032039117 0.018390868 0.0946776 0.06570619
000130 20 5a ae 3d bf ea a1 bb b6 40 b9 bd 3b 3b ba 3d
       0.08513284 -0.004941314 -0.09045546 0.090933286
000140 46 61 20 be 0d af cc bd d1 4e 87 3c a6 21 11 bd
       -0.15662107 -0.09994326 0.016517075 -0.03543248
000150 18 4a 5e bd b2 51 cd 3d b6 98 b5 bd 5b 8b 66 bd
       -0.05426988 0.10025348 -0.08867018 -0.056285243
000160 2b f5 08 be 82 8b ac bd d3 4a 19 be 5c e2 13 bd
       -0.13374774 -0.084250465 -0.1496995 -0.036104545
000170 e7 df 54 3d 02 b0 09 bd 87 ad c5 bd 9a df aa 3c
       0.051971342 -0.03361512 -0.09652238 0.020858575

Network_stack.0.0.gru.weight_ih_l1 f4 [96, 32]
000000 12 18 04 3d 1c 0d 92 bd 59 ed 80 bc 9e 29 73 3d
       0.032249518 -0.07131407 -0.015738176 0.05936586
000010 32 d0 65 bc fc b2 cf 3d 33 e7 88 bd 1d 6f 5e 3e
       -0.014026688 0.101415604 -0.06684723 0.21722074
000020 32 1b 9d bd 92 88 6d 3d 32 62 02 3d 20 6f 01 3e
       -0.07671203 0.05799157 0.031831928 0.12640047
000030 2c b8 01 be ae 90 98 3d fe 73 94 3d fd 28 1e 3e
       -0.12667912 0.074494705 0.07248686 0.15445323
000040 dc db 51 3e 23 32 9e bc c5 7e 31 bd 65 d9 21 be
       0.20494026 -0.019311016 -0.043333787 -0.15805586
000050 dd 1e 8f 3c 96 14 0b be 25 ec ac bc 56 db 30 3d
       0.017470771 -0.13582072 -0.021108696 0.043177925
000060 51 53 2c bc ad a9 1b 3e 47 4f 3e 3e 10 71 c2 ba
       -0.010517911 0.15201445 0.1858493 -0.0014834721
000070 81 9e 30 3e 39 38 0c bc 1a 91 46 3e 24 0a 03 3e
       0.17247964 -0.008558326 0.1939129 0.12796837
000080 07 93 07 bd 2c a6 f5 bc ec 16 bd bd f7 a0 f7 bc
       -0.0330992 -0.029986463 -0.092328876 -0.030228121
000090 74 31 94 be 2d 03 f7 3c 03 60 12 bd af 29 3f 3e
       -0.2894398 0.030152882 -0.035736095 0.18668245
0000a0 5f 15 1e be 46 11 75 be c3 59 b2 bd fa 36 68 bd
       -0.1543784 -0.2393237 -0.08708527 -0.056693055
0000b0 66 ae c9 3d c1 be 95 be 4f 13 cc 3d 7e 62 97 3d
       0.09847717 -0.29247096 0.0996462 0.07391833
0000c0 e4 cb c0 3d cc 48 12 3e f1 6f 69 3d fe 79 f6 bd
       0.09413889 0.14285582 0.05699152 -0.12034987
0000d0 ce b4 c8 3d eb 6c 47 3e 9f ac 37 be 78 4c f8 3d
       0.09800111 0.19475143 -0.17936943 0.1212396
0000e0 93 a8 11 be 8e 87 62 ba d7 83 24 be ea 9f 8f bd
       -0.14224462 -0.0008641415 -0.16065918 -0.07012923
0000f0 e8 24 bc 3c 05 1e f4 3d 67 79 66 bd 0f b1 24 be
       0.022966817 0.11919788 -0.056268122 -0.16083167
000100 7c 6b 02 3e 3d bd 2a bd 8d 47 3d 3c 47 62 ca 3d
       0.12736315 -0.041684378 0.011552704 0.09882026
000110 29 e7 4d 3e 5a 5f 10 3d 76 e3 e4 bc 69 93 98 bd
       0.20107712 0.035247184 -0.027940493 -0.07449991
000120 d3 6b 2f be 2c 35 0d 3e b1 a2 74 be 67 6a fa 3d
       -0.17130975 0.13789815 -0.23890187 0.12227326
000130 bc 7d 90 be 60 4b 82 3e 38 07 2d 3e 3b 36 91 3e
       -0.28220928 0.25448132 0.16897285 0.28361687
000140 19 3e af be c2 2a 65 3e b0 1b 1e bf 2d 4e 3d 3e
       -0.34227064 0.22379592 -0.61761 0.18486853
000150 71 c7 02 be fa 81 22 be 58 cd 25 3e 00 99 03 3d
       -0.12771393 -0.15869895 0.16191614 0.032128334
000160 d3 b2 e6 3d 30 0f 8d 3e 59 53 32 3e 0b 92 a3 3e
       0.11264577 0.2755065 0.17414607 0.3194736
000170 62 63 71 ba 11 8f 6e 3e 95 1b 31 be 52 fe 07 3e
       -0.00092082296 0.23296763 -0.17295678 0.13280609
000180 2d 2e 14 be 42 c0 f3 3d e9 9d b5 bc d0 26 92 bd
       -0.1447074 0.11901905 -0.022170024 -0.07136309
000190 92 33 c1 be ed 38 2e be 59 1a c5 3d 16 ac 35 3e
       -0.37734658 -0.17013903 0.09624166 0.17741427
0001a0 76 1c 44 bd ec 52 87 be 80 0c 10 3e 60 9e 1b bc
       -0.047878705 -0.26430452 0.14067268 -0.009498209
0001b0 79 31 08 3e 33 5f 91 be b9 d1 09 3e fd 7a b0 3c
       0.13300122 -0.28392944 0.13458909 0.02154302
0001c0 d4 92 aa 3e e8 d9 3e 3d ed d7 ec bc 06 73 05 3e
       0.33315146 0.04659453 -0.028911555 0.13032159
0001d0 33 4b dc 3d 48 f5 24 be dc ab 71 bd 15 96 27 bc
       0.107565306 -0.16109192 -0.05900179 -0.010228653
0001e0 b6 3e df bb 66 b8 b7 bd c6 73 cf 3c 33 a6 94 be
       -0.0068128956 -0.08970718 0.02532376 -0.2903305
0001f0 70 77 d0 3c 7a 00 08 bd c9 a9 8a 3e 34 c5 3b be
       0.025447577 -0.03320358 0.2708266 -0.18336946
000200 ce 86 b2 3c 54 32 34 3e 1e 49 b0 bd 45 c4 0f 3d
       0.021792796 0.17597324 -0.08607696 0.035099287
000210 af 8f c9 bd c6 96 ee bd b6 48 ac 3d 05 1c 07 be
       -0.098418586 -0.116498515 0.08412306 -0.13194282
000220 0c a0 1c 3e c7 7c 0a bd d5 64 2c 3d f9 18 0a be
       0.15295428 -0.033810403 0.04208835 -0.13486089
000230 9c b9 56 3e 5e 38 ca 3d 43 2a 2c bd aa 41 42 3d
       0.20969242 0.098740324 -0.04203249 0.047425903
000240 d4 e4 c6 bd b0 05 07 3c 54 27 94 3a a2 86 5d 3d
       -0.09711614 0.008241102 0.0011303225 0.054083474
000250 b0 3d c3 bc bb f0 c8 3d 6d 6a 2a be 7e 7c ad 3d
       -0.023833126 0.09811541 -0.1664216 0.084710106
000260 34 f7 c8 bd 87 bc e0 3b c8 31 75 be a6 94 f7 bc
       -0.09812775 0.0068584117 -0.23944771 -0.030222248
000270 ac b0 75 3d e1 85 07 be 28 1b 55 bd 43 63 12 3d
       0.05998294 -0.13234664 -0.05202785 0.035739195
000280 70 46 0b 3e cd 53 d3 bd 86 fb 84 bd 93 04 ce 3d
       0.13601089 -0.10318718 -0.06493287 0.10059466
000290 aa d9 78 bd d6 94 d8 3d db d2 0f bc df d8 2d 3c
       -0.060754456 0.10575263 -0.008778299 0.010610788
0002a0 e2 d0 ae bd 7d 84 9b bd 3b f9 ea bd 0a bc ab bd
       -0.08535935 -0.075936295 -0.11473318 -0.08385475
0002b0 7f 94 14 3e 53 86 a7 bb ba 7e 5f 3e dc 43 e4 bd
       0.14509772 -0.0051124482 0.21825686 -0.11145756
0002c0 d4 bc ac 3c 20 fd 3d bd f6 7c c5 bd 1a 83 ed 3d
       0.021086134 -0.046383977 -0.09642975 0.11597271
0002d0 da ca cc 3d 7f b7 bf 3d 71 fd 62 bd ae e1 24 3e
       0.09999628 0.09361171 -0.05541748 0.16101715
0002e0 0b d5 56 bd 6d e1 f4 3d df 1f e0 bc d3 f8 d2 bb
       -0.052449267 0.11957059 -0.027358947 -0.0064383536
0002f0 77 cc 7c bd 43 e8 04 be 0f aa fc bd 1b e5 aa 3d
       -0.06171843 -0.12979226 -0.123371236 0.0834448
000300 0b cb d6 bd 1e 37 f7 bb 53 eb 53 3e e5 1a 3f bc
       -0.10487946 -0.0075444123 0.20695238 -0.011664127
000310 dc b5 bc be c6 4b 1b bd ca 13 58 bc da fc 0a 3e
       -0.36857498 -0.03791406 -0.013188312 0.13573018
000320 e2 d0 ba 3d 48 28 7e be 41 86 7a 3e 65 35 60 3c
       0.091218725 -0.24820054 0.24465276 0.013684605
000330 77 8f 81 bc a8 e3 91 be 28 3b be bd 87 40 85 be
       -0.01581548 -0.28494 -0.09288627 -0.26025793
000340 9a f4 1e 3e 45 cb 26 3c d1 29 cc 3d 74 ac 40 be
       0.15522996 0.010180299 0.09968913 -0.18815786
000350 01 ca a5 3d c6 ee 97 3d ec f6 54 3d 72 26 b9 3d
       0.0809517 0.07418589 0.051993296 0.09040536
000360 cc 89 a9 3d 79 e9 03 3e b3 f1 b8 be c5 00 81 be
       0.08278236 0.12882032 -0.36121902 -0.251959
000370 93 75 52 be 29 6c c1 bd 30 bd 98 3e 51 78 0a bc
       -0.20552664 -0.09444458 0.2983184 -0.008451537
000380 02 36 f4 bc df 97 e5 bc e0 48 9b 3d 30 23 ee 3d
       -0.02981091 -0.02802652 0.07582259 0.11627805
000390 21 28 7c 3d 95 9e c1 bc c6 24 3e 3e 35 90 94 bc
       0.061561707 -0.023635188 0.18568715 -0.01813517
0003a0 c7 dd cb bd 05 b8 c5 3d 2f 9c 1a bc 2a ec e4 3d
       -0.0995441 0.096542396 -0.009436651 0.11177857
0003b0 dd 4b 52 be 0e bc c3 bd 84 4e e4 3d 08 a6 16 3e
       -0.20536752 -0.09557353 0.11147788 0.14711773
0003c0 16 75 bb bd fb 0e b2 bd 1f 7e c6 bd 57 04 25 bd
       -0.09153192 -0.086942635 -0.096920244 -0.040287342
0003d0 cc 5f 98 bc 6f 9d ce 3c 46 01 2c 3e 3f ff e4 bd
       -0.018600367 0.025221555 0.16797361 -0.11181497
0003e0 54 2f c2 3c 2b 9a 39 3e 71 f3 e1 3d 46 36 f9 bd
       0.023704208 0.18125217 0.11032761 -0.12168555
0003f0 37 17 5b bd 12 be 98 bd 6c 0e 2a 3a d0 b7 c3 3c
       -0.053488936 -0.07458128 0.00064871344 0.02389136

Network_stack.0.0.gru.weight_hh_l1 f4 [96, 32]
000000 cb cf d6 bd fe d5 bd 3d 17 c6 04 be c3 b1 a5 3d
       -0.10488852 0.092693314 -0.1296619 0.08090546
000010 9c 90 06 be e8 8d ad bd 20 2d e6 bd 0b 48 26 be
       -0.13141102 -0.08474332 -0.11239076 -0.1623842
000020 9f 2f 88 bd a5 1a a0 bc 28 2c b0 bd fc 68 42 3e
       -0.06649708 -0.019543955 -0.08602172 0.18985361
000030 de ed 58 bd 8b f7 02 be aa 42 8c 3b 97 a3 f6 bc
       -0.052961223 -0.12789743 0.004280408 -0.030107303
000040 ab 8d 18 be 86 6e 48 be 50 a5 78 bd ef 3b 33 3e
       -0.14897792 -0.19573411 -0.06070453 0.17503332
000050 29 d2 ef bc 11 a5 0f be 45 9e d4 bc f3 1a eb 3d
       -0.029275017 -0.14027812 -0.025954375 0.114797495
000060 d2 a0 98 bc b8 90 86 3d 93 e3 81 3d 9b af 0d bd
       -0.018631373 0.06570572 0.063422345 -0.0345913
000070 f7 33 47 be 0a c5 21 be a9 c0 fc bd 75 75 1f bd
       -0.19453417 -0.1579782 -0.123414345 -0.038930375
000080 86 15 c9 3c 1e ef 5f bd bf 5c a4 3e 82 2a c6 bd
       0.024546396 -0.0546714 0.3210201 -0.096760765
000090 95 8f 36 bd d5 d7 84 3c d0 58 f9 bc 22 af db bd
       -0.044570524 0.016216198 -0.030437857 -0.10726763
0000a0 d1 a6 21 bd 97 fb 09 3e 6b f8 9f 3d 1c 09 c4 3d
       -0.03946573 0.1347488 0.07811054 0.0957205
0000b0 00 b7 4d 3d 33 69 02 3d f4 0d 00 3e a1 27 0f 3e
       0.05022335 0.031838607 0.12505323 0.13979961
0000c0 31 e8 90 3d 73 6a 43 3c 3b 80 da 3c 79 32 1f 3e
       0.07075537 0.011927235 0.026672473 0.15546598
0000d0 43 2d d4 3d cb 46 45 be 93 ba 64 bd 83 b0 00 be
       0.103601955 -0.19265287 -0.055841994 -0.12567334
0000e0 5a 82 00 3d 9e f6 2d be 79 75 2e bd 13 28 fb 3d
       0.031374313 -0.16988608 -0.0425925 0.12263503
0000f0 d5 9d ee 3d 41 27 32 bd 56 5d ba bd 61 83 1e 3e
       0.11651198 -0.043494467 -0.09099834 0.15479805
000100 3a bd 35 3d 18 80 05 3e 0f 8c 73 3e 92 d4 b0 3e
       0.044369914 0.13037145 0.23783897 0.34537178
000110 4a 3f 2a bd 67 cd 61 3e b4 24 5a 3c b1 35 86 be
       -0.041564263 0.22051011 0.013314415 -0.26212838
000120 b1 6d d1 3d c9 20 d6 bd 62 34 3f bd 61 df be bd
       0.10226 -0.10455472 -0.046680816 -0.0931995
000130 2d 16 a5 3d 5d d6 4e be 46 01 e6 3d e2 59 26 be
       0.0806087 -0.2019896 0.11230712 -0.16245225
000140 bc 11 6e be 5f 9b b4 bd 1f fa 16 be 9a aa 5b bd
       -0.23248953 -0.08818697 -0.14743851 -0.053629495
000150 11 b4 24 3e f1 53 bf bd 0e 6f b4 3d c2 b9 12 be
       0.16084315 -0.093421824 0.088102445 -0.14328673
000160 aa 6f 00 3e 2e 25 84 be ca 46 60 be fe 12 d4 3d
       0.12542596 -0.25809616 -0.21902004 0.10355185
000170 07 b4 00 3e 64 0c a1 3d 84 a7 e4 bd 35 cc 4d 3d
       0.12568675 0.078636914 -0.111647636 0.050243575
000180 e6 98 41 3d 76 a0 4b 3e 40 5b 79 3e 8a 79 5e bd
       0.047264956 0.1988543 0.24351215 -0.054315127
000190 3e 32 8f 3d 02 53 03 3d 45 12 e5 3d 2d 52 b7 3d
       0.06992005 0.032061584 0.11185125 0.08951221
0001a0 af fc 8b bd 28 e8 af 3c e7 de ab 3d f2 75 0d 3b
       -0.06835305 0.021473005 0.083921246 0.0021585193
0001b0 59 54 a2 3e 0a 21 3c bd af 33 2c 3e ad 3b 12 be
       0.31704977 -0.045929946 0.1681659 -0.14280577
0001c0 1e 18 58 3e db 79 15 be d0 a9 b5 be 43 7b 94 be
       0.2110295 -0.14597265 -0.3548112 -0.2900029
0001d0 fc 3c 21 3d 08 81 4a 3e eb ce f0 bd 98 17 3f bd
       0.0393648 0.19775784 -0.117582165 -0.04665336
0001e0 6d 88 07 3c 19 73 a6 bc ee 40 9a bd aa fc 5d 3e
       0.008272273 -0.020318555 -0.075319156 0.21678415
0001f0 3f 33 f7 bd 24 3c ab 3d d7 cf c5 3c c3 48 89 bd
       -0.12070321 0.0836108 0.024146957 -0.06703331
000200 26 da 0f 3a 8a ce 03 3d 72 aa ec bc 42 62 80 bd
       0.0005487524 0.032179393 -0.028889868 -0.06268741
000210 e8 60 1f be 16 ca b9 bd 93 59 92 3d 72 30 a0 3d
       -0.1556431 -0.09071748 0.07145991 0.0782174
000220 be ef 5e 3d 65 6d be bd c4 f2 b5 3d 93 2d 2e 3e
       0.054427855 -0.09298209 0.088841945 0.17009573
000230 18 85 cb 3c a9 49 2f be 8c 2d 11 b9 10 3b 26 be
       0.024843737 -0.17117943 -0.00013845245 -0.16233468
000240 c2 3a 1c 3e bf 35 04 be 66 70 27 3d 05 56 fa bd
       0.1525679 -0.12911128 0.040878676 -0.12223438
000250 4d 06 43 3e 55 07 14 3e be 3c 53 3c 2f 7f 0d 3d
       0.19045372 0.14455922 0.0128929 0.03454512
000260 20 2e a8 3c 83 5c f6 3d 54 6d e9 bd 18 5b 2f 3d
       0.020529807 0.12029364 -0.11397806 0.042811483
000270 ab 9a 00 3d e2 92 6e 3d 87 c8 1a be 73 2f f8 bb
       0.031397503 0.058245547 -0.15115558 -0.0075740158
000280 78 22 72 bd c8 d3 56 bd 84 9e 4c be 4f f5 76 bb
       -0.059114903 -0.052448064 -0.19982344 -0.0037682836
000290 ed eb 23 bd 58 dc 88 bb 8e 56 7b be a6 ef 18 3e
       -0.04001992 -0.0041766576 -0.24544737 0.14935169
0002a0 7c 0f 27 bd 2e 81 2f bb 13 1b 32 3d b1 aa da bc
       -0.04078625 -0.0026779878 0.04348285 -0.02669272
0002b0 a1 50 45 be 9d 6e 79 3d 93 56 d3 bd 2e 55 81 bd
       -0.19269039 0.060896505 -0.10319247 -0.06315075
0002c0 4f a1 79 bd cf 8a 17 3e f5 45 0c 3d 58 6e 53 bd
       -0.06094485 0.14799045 0.034246404 -0.051618904
0002d0 a7 7d 6e bd c5 38 93 bd 6b 31 dd 3d c2 76 21 be
       -0.0582253 -0.07188562 0.10800441 -0.15767959
0002e0 a1 ff 03 3e 08 3f 43 bc ff a9 c6 bb c9 db 6a 3c
       0.12890483 -0.011916883 -0.0060627456 0.014334627
0002f0 07 61 e3 bd a8 58 54 bc 4a 49 e4 bd fe 04 11 bc
       -0.11102491 -0.01296059 -0.11146791 -0.008851288
000300 5d 40 55 3e f3 01 23 be cc 04 86 3e fe ef 39 be
       0.20825334 -0.15918712 0.26175535 -0.18157956
000310 65 83 95 bd 94 29 7b bd 85 20 fb bd c3 b8 40 3e
       -0.07300452 -0.06131895 -0.12262062 0.18820481
000320 80 70 dd 3d e9 3a 99 3c 98 06 2d be 24 a4 64 3d
       0.10812473 0.018704848 -0.16897047 0.0558206
000330 d8 67 39 3e 8d 30 b4 bd d2 c2 df 3d 14 e1 a4 bd
       0.1810602 -0.08798323 0.10925831 -0.08050743
000340 8a 81 ad bd 7e d7 95 3d da 57 6e be a8 e5 76 3d
       -0.08471973 0.073164925 -0.232757 0.06027761
000350 cc 15 26 3e 88 24 cd 3d e2 2a 31 3d 81 78 80 bd
       0.16219252 0.100167334 0.043253787 -0.06272984
000360 82 99 cc bd 7c 99 d8 bd 07 5f c7 bd 3c 16 66 3d
       -0.09990217 -0.1057615 -0.09734922 0.056173548
000370 2f df 36 be 9e b3 51 3d 7f 40 2a 3e 80 3c e9 bd
       -0.17858575 0.051196687 0.16626166 -0.113884926
000380 7e 80 5a 3d 6d cb 22 3d c8 be fa bc 31 88 86 3e
       0.053345196 0.039744783 -0.03060855 0.2627578
000390 f2 0b 29 bd a8 9b ed 3d f4 01 21 be 24 8d 5d bd
       -0.041271158 0.11601955 -0.15723401 -0.05408968
0003a0 ca 20 0a be de 5d 9f 3e c1 36 79 3d 21 bd 15 3e
       -0.1348907 0.31126302 0.060843233 0.14622928
0003b0 66 9f cc 3d 5c 05 18 be 8c 4e f7 3d df eb 3c be
       0.0999134 -0.14845794 0.120755285 -0.18449353
0003c0 68 1d 6f bd 48 f3 5e 3d 71 17 30 3e 0f 52 46 bc
       -0.058377653 0.05443123 0.17196442 -0.012104525
0003d0 1a 5d 9b 3d 3c 2f 2f bd fd a6 b6 bb 61 eb 98 3d
       0.07586117 -0.042769656 -0.005574106 0.0746677
0003e0 6b 74 db bb 55 71 17 be f8 2b 26 3d f6 db 1e 3e
       -0.0066972277 -0.14789326 0.040569276 0.15513596
0003f0 8a 69 1b bd e2 ff c4 3c 8b bc 22 3e 22 d1 03 3e
       -0.037942447 0.024047796 0.15892236 0.12872747

Network_stack.0.0.gru.bias_ih_l1 f4 [96]
000000 b8 b3 0a be 15 31 8b bb 0b 7c ef bd f7 1b 60 3d
       -0.1354512 -0.0042477944 -0.11693581 0.05471417
000010 8b 8b 19 bd f8 45 15 be 3f f7 72 bd 4a 55 1a be
       -0.037486594 -0.14577472 -0.059317823 -0.15071598
000020 23 19 8d 3a c0 11 b0 3e 57 66 1a bd bd 93 22 bd
       0.0010764938 0.34388542 -0.037695255 -0.039691675
000030 54 23 39 3a 53 8d 2e bd 91 54 01 3e 73 00 29 be
       0.0007062454 -0.042615246 0.12629916 -0.16504078
000040 e3 a1 60 3d 30 b1 4c 3d de cd 02 3e cd 05 14 be
       0.054841887 0.049973667 0.12773845 -0.14455338
000050 56 d9 e0 bb 60 a9 06 be 55 c1 47 bd 87 f4 e7 bd
       -0.006861846 -0.13150549 -0.04876836 -0.11325937
000060 85 48 d0 bd 72 59 f6 3d 32 04 96 3d 63 41 10 be
       -0.10170082 0.12028779 0.07325019 -0.14087443
000070 bf 10 a5 bd 7e ab 03 be 1b ca 1f be 74 bb e9 3d
       -0.08059835 -0.12858388 -0.15604441 0.11412707
000080 61 99 e0 bb 29 ee 88 3e be b2 01 bf 27 91 0e be
       -0.0068542217 0.26744202 -0.50663364 -0.13922559
000090 55 d1 2b bf 08 2b 9f 3e 5a 6b 11 bf 69 fd 27 3e
       -0.6711629 0.31087518 -0.5680443 0.16405262
0000a0 9c fe e3 3d 6d 83 97 3d 87 15 8f 3d 48 cc b6 bb
       0.11132547 0.07398114 0.06986528 -0.0055785514
0000b0 c5 85 3a bf 0b de 4b be 02 b2 cd bd da de 54 3e
       -0.72860366 -0.19908921 -0.10043718 0.20788136
0000c0 1d 89 38 3e 00 0f de 3d 06 d6 8e 3a a5 72 2f be
       0.18021055 0.10842705 0.0010897524 -0.17133577
0000d0 c3 99 f2 be dd b0 fa be b2 3a 67 3c 47 13 f4 be
       -0.47382936 -0.4896306 0.014113115 -0.47670957
0000e0 01 22 70 3d f8 f7 12 bd 67 35 53 be 22 59 2a be
       0.05862618 -0.035881013 -0.2062584 -0.16635564
0000f0 c0 30 9c be 55 f9 77 be 56 1b 6d be 30 d7 aa be
       -0.30505943 -0.24216206 -0.23154959 -0.333673
000100 c6 de 19 3e 46 97 bf bd 2c 16 fb bd a2 a5 77 3d
       0.15026388 -0.09355025 -0.12260088 0.060460694
000110 87 df b6 bd 05 12 e6 bc e7 86 e1 bd c6 3e 7c bc
       -0.08929353 -0.028084764 -0.11012059 -0.015395826
000120 a4 a7 f2 3c 52 05 2c 3e 1d 4d 0b 3e 8e 8c ad 3d
       0.029620953 0.16798905 0.13603635 0.08474074
000130 82 2b 40 3d 54 60 10 3e 06 53 02 3d 34 21 50 3d
       0.046916492 0.14099246 0.03181746 0.050812915
000140 d4 b2 80 bd 70 5f 97 bc f3 4f 4a bd e6 a2 49 bc
       -0.06284109 -0.018478125 -0.04939265 -0.012306904
000150 18 d5 43 3d 0c b8 9c bd 6f 20 e2 3d 84 fb 70 bd
       0.047810644 -0.07652292 0.110413425 -0.058833614
000160 df 91 db 3d 1c 2c f9 bd b6 90 2d 3e 04 a1 d3 bd
       0.10721182 -0.12166616 0.16949734 -0.10333446
000170 2f a4 a0 3d 42 18 ff 3d bc 42 a8 bd 6b db 01 3d
       0.078438155 0.12455799 -0.082158536 0.031703394

Network_stack.0.0.gru.bias_hh_l1 f4 [96]
000000 f6 87 09 be c2 e2 02 bd 48 dd 0a be cb ab d7 3b
       -0.13430771 -0.031954534 -0.13560975 0.0065817586
000010 32 49 f7 bd e3 77 79 3b 55 64 16 be c8 3f 02 3e
       -0.12074508 0.0038065843 -0.14686711 0.12719643
000020 f3 48 e9 bd 04 dc 81 3d 73 56 e3 3d 0b 73 14 3e
       -0.11390867 0.06340793 0.11100473 0.1449701
000030 8c db 32 3e ac 6a 6a be de fa d5 3d 18 50 ab bd
       0.17466563 -0.22892255 0.1044824 -0.08364886
000040 cd 7c 67 3e 90 bd 0b be e4 e6 2a 3e 49 cc 26 3e
       0.22606201 -0.13646531 0.1668964 0.16288866
000050 11 b7 99 bd b6 e7 f5 bd 19 fd c3 3d 61 e4 16 be
       -0.0750562 -0.12007086 0.09569759 -0.14735557
000060 ff 6d 86 bd 14 74 97 3d e6 38 ee 3d dc cd 68 bd
       -0.06563949 0.07395187 0.11631946 -0.056836948
000070 3a 04 45 3c 78 1c 1c 3e 84 f3 33 3d 8c 59 bd 3d
       0.0120249335 0.15245235 0.043933406 0.09245595
000080 f4 8a 47 be 37 ba c4 3c 64 ee 0d bf 0b 87 08 be
       -0.194866 0.024014575 -0.5544188 -0.13332765
000090 93 73 23 bf 67 98 3c 3e 1b ed 1e bf f9 d0 03 be
       -0.6384823 0.18417512 -0.62080544 -0.12872685
0000a0 2c c3 cc bd 2f ab 9f 3d f3 f6 ec bd ab 78 0e 3c
       -0.099981636 0.077963226 -0.11570539 0.008695762
0000b0 c9 af 6b bf e4 18 63 bd 60 23 9e bd 74 1f 47 3c
       -0.920651 -0.05544366 -0.07721591 0.012153495
0000c0 95 3a 0e 3e 36 6c d9 bc 61 1e 85 be 4f 73 06 3e
       0.13889535 -0.026540857 -0.2599974 0.13129924
0000d0 31 1b 86 be 17 47 97 be a7 5f 1a be 8a 7e 50 be
       -0.2619262 -0.29546425 -0.15075551 -0.20360771
0000e0 c9 01 35 bd b1 9c 98 be 4f 4d d5 bd ac 75 3f be
       -0.044191156 -0.29807046 -0.10415136 -0.18697232
0000f0 00 1b 9e be 09 aa 5e be 6d ae 3d bd 12 f7 58 be
       -0.30879974 -0.21744551 -0.046308924 -0.21188
000100 c1 1b ef bd 64 02 41 be e3 e9 9c bd f2 11 1c 3e
       -0.116752155 -0.18848568 -0.07661798 0.1524122
000110 8b 77 b8 3c ce 9a b6 bd a3 96 a9 3d 88 70 30 be
       0.02251794 -0.089162454 0.08280685 -0.17230427
000120 35 f6 1b 3d bc 24 b0 bb ff 63 35 3d 83 b1 3d 3d
       0.0380766 -0.005375473 0.044284817 0.046311866
000130 2e 05 08 bd bc 91 64 bd b8 a2 13 be 25 c0 93 3d
       -0.033208065 -0.055803046 -0.14417541 0.07214383
000140 ff 2d c2 bd ed 39 29 3c c0 16 eb 3d 89 ad ed bc
       -0.09481429 0.010328752 0.114789486 -0.029013412
000150 83 e7 1a be aa c4 c6 bd 37 06 11 3e 69 c1 20 be
       -0.15127377 -0.097054794 0.14162527 -0.1569878
000160 52 da c4 3d db ec 13 3e 59 c3 20 3e 3c 0b 4d bd
       0.09611954 0.14445822 0.15699519 -0.050059542
000170 83 9e f2 bd 3c ab 66 3c f2 b8 05 be 53 b2 88 bd
       -0.1184664 0.014078911 -0.13058832 -0.06674638

Network_stack.0.1.gru.weight_ih_l0 f4 [96, 2]
000000 24 d4 02 be 75 c0 44 3e 74 a1 c2 3d b6 5b b2 bd
       -0.12776238 0.19214042 0.09503451 -0.08708899
000010 34 71 09 be 73 2e 77 be 4c 8e a7 bb c5 ad 0f 3e
       -0.1342209 -0.24138813 -0.0051133987 0.14031132
000020 c4 f6 1b 3e a8 18 f4 3d 66 e8 1e bd 96 71 9c bd
       0.15230852 0.11918765 -0.03879585 -0.07638852
000030 47 6d 81 3d d2 b4 86 bc 41 0e 0e bd d4 df e5 bd
       0.06319671 -0.016443644 -0.034681562 -0.112243325
000040 7d 75 a2 3d 4f cf 87 3c e3 ba 81 3c b3 5d 20 3e
       0.07932565 0.016578345 0.015836185 0.15660743
000050 f7 d3 b4 3d 73 21 da 3c 58 0f 07 be 13 60 03 bd
       0.088294916 0.026627278 -0.13189447 -0.032074045
000060 86 85 d3 3d f8 98 4e bd 68 d6 71 3d f2 42 8f bc
       0.10328202 -0.05043885 0.059042364 -0.017487977
000070 e6 2d ad 3d 39 28 56 be 72 d5 b8 bd 8e 95 57 3c
       0.0845602 -0.20913781 -0.090250865 0.013158215
000080 cd 34 24 be 18 3d f8 3d 1c 15 d5 3d 72 cb 14 bd
       -0.16035767 0.12121028 0.10404417 -0.036326833
000090 fb 36 da bc 62 5d 0b bb 17 29 2d be fd 85 cd bd
       -0.026637545 -0.0021265377 -0.16910206 -0.10035322
0000a0 b1 5f 87 3c bf 28 4a 3d 0c 07 fb bd 9f f3 31 3e
       0.016525121 0.049355265 -0.122572035 0.1737809
0000b0 85 bc 40 3d 02 0a 98 bd 08 1f 03 be 47 14 83 3d
       0.047054786 -0.07423784 -0.12804806 0.06400352
0000c0 8b f7 08 3e cc 61 7e 3d d7 4a dd 3d 0c 09 ec bd
       0.1337568 0.062104985 0.1080529 -0.11525163
0000d0 de 18 b3 3d 08 55 e3 bd 36 2f 58 bd 4b 6b bb 3d
       0.087449774 -0.11100203 -0.0527794 0.09151324
0000e0 31 d2 31 be 49 80 13 3e 37 e8 e7 bd eb 5f 06 3d
       -0.17365338 0.14404406 -0.11323588 0.03280632
0000f0 ff 07 04 bd d3 70 f7 bd bb 62 2a be c4 55 7b 3d
       -0.03223419 -0.120820664 -0.16639225 0.06136109
000100 10 9e db bd c0 f0 95 bd f8 15 04 be af 5c 81 be
       -0.107235074 -0.0732131 -0.12899005 -0.25266024
000110 ef 3e 91 be 9a 8d ad bd eb 84 30 bd 6a 47 b0 bd
       -0.28368327 -0.08474274 -0.04309551 -0.08607371
000120 97 83 f2 3d 4b 5b 55 3e e8 7c 87 3e b6 37 f4 3c
       0.11841505 0.20835607 0.26462483 0.029811721
000130 9f 02 ab 3d ab 03 56 3e 1e 5b 8e 3d 77 a3 a5 3e
       0.08350109 0.20899837 0.06950973 0.32351276
000140 94 40 e1 bd fb 89 d9 bd ac ef 53 be a5 85 44 be
       -0.109986454 -0.10622021 -0.20696896 -0.19191606
000150 2a 72 5e be 93 3a 5b be db a4 7e be 2c dc fd bd
       -0.21723238 -0.21409063 -0.24867575 -0.1239551
000160 ed 54 1c be 06 58 15 bd 43 9e 13 be d3 82 32 be
       -0.15266772 -0.0364609 -0.14415841 -0.17432718
000170 8c 33 c7 bc 85 82 f6 3d 01 37 06 bd 59 2b 08 bd
       -0.024316572 0.120366134 -0.0327673 -0.033244465
000180 a5 af d1 3e dd 17 34 3e 9a e6 18 3e df 03 bd 3e
       0.4095432 0.17587228 0.14931718 0.36917016
000190 e0 78 6d 3d 2f b7 e6 3d 26 c0 74 3c 01 22 a1 3d
       0.057976604 0.11265408 0.01493839 0.07867814
0001a0 91 59 ec bc 19 d1 6e bb d1 e9 61 be ac 6f db bd
       -0.028851302 -0.003644055 -0.2206185 -0.10714659
0001b0 de 77 f5 bb fe 13 51 be e3 20 83 be 4d 99 80 be
       -0.007491096 -0.20417783 -0.25611028 -0.2511696
0001c0 96 2e 05 3e a4 87 a9 3d 7f e6 17 3c 74 c7 2e 3e
       0.13006052 0.082778245 0.009271263 0.17068273
0001d0 66 2b 3f bc 75 0b 45 be 81 c0 08 be b0 6a a9 be
       -0.011668062 -0.19242652 -0.13354684 -0.3308921
0001e0 f8 24 fd 3b 59 c4 8a bd 75 a0 01 3e 84 f7 06 be
       0.0077253543 -0.067757316 0.12658866 -0.13180357
0001f0 fd c6 4c be ac 0d 85 3c b2 d1 6a 3d 98 4b 8d 3d
       -0.19997783 0.01624187 0.057328887 0.06899184
000200 e6 f9 a3 bd 72 7f 1a bd cc 25 19 be 01 4d 1b bd
       -0.08006649 -0.037719198 -0.14955825 -0.037915234
000210 57 c8 45 3e fb 9e ce bd 87 9a bc bd cc 35 86 bd
       0.19314705 -0.10088917 -0.09209161 -0.0655323
000220 fa fc fa bd db 06 52 bc a0 ae c0 bc df a3 62 bd
       -0.12255283 -0.012819017 -0.023520768 -0.05533206
000230 8f d5 9a bb 1e 56 70 3c 62 0a 9a 3d 88 94 fe 3d
       -0.004725165 0.014668969 0.075215116 0.12430674
000240 19 fa 1f be 2a a9 bc 3c 6a c6 82 3d 1a 3b 8e 3d
       -0.15622748 0.023029882 0.06385501 0.069448665
000250 97 50 ef 3d 3f 19 47 bd 69 15 4f bd d4 eb 02 3e
       0.11685293 -0.04860806 -0.050557528 0.12785274
000260 e6 52 44 3d c8 25 4a bd a2 08 08 3e d5 9e 02 3e
       0.04793062 -0.049352437 0.13284543 0.12755902
000270 5c 95 f6 3d 42 21 e7 3d 1b dd a8 3d 1d 4f c3 bd
       0.12040207 0.1128564 0.082452975 -0.09536574
000280 15 5f 20 3e 3c bb 0b 3d c9 a3 d0 bd 8b 47 c7 3d
       0.15661271 0.034114107 -0.101874895 0.097304426
000290 ec 6c b5 bc 18 35 f3 bd 03 82 39 3c c7 29 70 3d
       -0.022146665 -0.11875361 0.011322501 0.058633592
0002a0 a8 fd 0a be 27 99 f1 3d 8a a5 aa 3d 01 dc 77 3d
       -0.13573325 0.117967896 0.08332355 0.060512546
0002b0 73 43 d1 bd 80 b6 3e 3d 02 56 13 be 32 12 dd bb
       -0.10217943 0.046560764 -0.14388278 -0.006746554
0002c0 49 42 10 3e 56 0e e6 3d da e9 17 bd 83 50 bd bd
       0.14087786 0.11233203 -0.037088253 -0.09243872
0002d0 fe 7e c7 bd 3b a1 9b 3d d4 5e d9 3d 3a 9d 27 ba
       -0.09741019 0.07599112 0.1061379 -0.0006393973
0002e0 31 d3 17 3e e4 bd a6 bd b3 6a 8e 3d 89 9d 1d 3e
       0.14826657 -0.081416875 0.06953945 0.15392126
0002f0 15 4b bb bd 90 d4 30 3d f4 24 f1 3d a2 79 bb bc
       -0.0914518 0.043171465 0.117746264 -0.022885147

Network_stack.0.1.gru.weight_hh_l0 f4 [96, 32]
000000 18 3b f4 bc d6 48 5b 3d c5 50 2f be cb 10 c5 bd
       -0.029813334 0.05353626 -0.17120655 -0.09622344
000010 0c c9 c6 bd 58 5e df 3c de 46 fe bb 35 1c 7c 3d
       -0.097063154 0.027266666 -0.007759913 0.061550338
000020 e0 ea 36 be 49 40 c1 3b 7e 58 4a bd 33 70 11 3d
       -0.17863035 0.005897556 -0.0494008 0.035507392
000030 af 1e 18 3e b3 38 6a bd b8 33 b8 3d 84 b1 22 3e
       0.14855455 -0.05718298 0.089942396 0.1588803
000040 35 74 c9 3d a3 95 0a 3e bd 97 ea 3d fa 10 31 be
       0.09836618 0.13533644 0.11454723 -0.17291632
000050 e5 49 c3 bd 2b d9 54 3d 8a af 0c be db 9e 06 be
       -0.09535579 0.05196492 -0.13738838 -0.13146536
000060 9a a7 14 3e 2a 81 9b 3d b7 94 0f be d0 af bd 3d
       0.1451706 0.075929955 -0.14021574 0.09262049
000070 a8 02 36 be 64 56 09 3e f9 d2 a8 3d 73 3b bc bd
       -0.17774451 0.13411862 0.08243365 -0.091910265
000080 3e 3c 09 3e 1d 3c 02 3e cd 10 0f 3e 2c b6 01 be
       0.13401887 0.12718244 0.13971253 -0.1266715
000090 a3 49 0a 3e fa 3c 1c bc 7e 57 73 bd 5e 89 51 3c
       0.13504653 -0.009536022 -0.05940961 0.012789099
0000a0 da 4d 83 ba 37 51 1c be 9b 65 ff 3c e9 24 78 3a
       -0.0010017708 -0.15265356 0.031176379 0.0009465949
0000b0 fd 23 00 be 98 b3 31 3e 22 c8 15 3e 67 85 b6 3d
       -0.12513728 0.17353666 0.14627126 0.08912163
0000c0 30 26 38 bd 3f 35 04 3e 04 65 9d 3c a7 56 b1 bc
       -0.044958293 0.12910937 0.019213207 -0.021647764
0000d0 22 ff c1 bd aa 35 fb 3d ce 39 2b 3d 0d a6 d7 3d
       -0.09472491 0.12266095 0.041803174 0.105297185
0000e0 90 c6 dd 3c 0d 4b 07 be c0 5e 69 3d 9a a5 02 be
       0.027072221 -0.13212223 0.056975126 -0.12758484
0000f0 17 20 c0 3d a7 7b ab 3d e4 37 13 3e 2a e8 d9 3d
       0.09381121 0.08373194 0.1437679 0.10639985
000100 b0 74 81 3e 0f 17 80 3e 95 33 33 3e 0d ce 86 3b
       0.25284338 0.25017592 0.17500146 0.0041139186
000110 5e 63 70 bb 22 48 18 bc 1b bc 62 3c ea 6f 5a be
       -0.0036680321 -0.009294542 0.013838793 -0.21331754
000120 be 16 4a bd 5a ba 14 be ff 1d 2d 3d 16 39 38 be
       -0.049338095 -0.14524212 0.042264935 -0.17990527
000130 57 9a ce 3d 73 fc f1 bd b2 88 9d 3d cd 07 f9 3c
       0.10088032 -0.11815729 0.07692088 0.030399228
000140 97 a2 2a be b5 5b 73 3e 30 d7 84 3d 4e f3 99 bd
       -0.16663586 0.23765452 0.06486356 -0.0751711
000150 ba 87 a9 3d 5b 43 0a bd a0 ac 1b be e7 86 53 3e
       0.08277841 -0.03375564 -0.1520257 0.2065693
000160 8c 9d 29 be 0a 12 81 3e fe 24 27 3e 56 dd b7 bd
       -0.16564006 0.25209075 0.16322705 -0.08977763
000170 95 56 5c bd 62 5d 22 be 09 ff eb 3b 30 08 83 3d
       -0.05379351 -0.15855935 0.0072020334 0.06398046
000180 22 d7 c5 3c fe 5a aa bd 5f c9 2e bc 23 c0 61 bc
       0.024150435 -0.08318137 -0.010668128 -0.013778719
000190 df 55 d6 3d 91 3c 3d be 84 8f 8d 3d 20 89 36 be
       0.10465597 -0.18480136 0.06912139 -0.17825747
0001a0 35 19 d8 3d 2c 32 17 3b 4a 73 a5 3d 9c 69 90 3d
       0.10551683 0.0023070676 0.0807863 0.070513934
0001b0 7d b4 69 bd 6b 0d 05 3d bb 63 1d be 1a 1f bf bd
       -0.057056893 0.0324835 -0.15370075 -0.09332104
0001c0 7f ef da bd 4b bf 0e be a2 98 9d 3c e0 41 92 3d
       -0.106902115 -0.1394016 0.01923782 0.07141471
0001d0 24 12 3a 3d 9e 63 9c bd 81 9a ea bd 8c 58 8f bd
       0.045427456 -0.07636188 -0.114552505 -0.06999311
0001e0 d0 ac 01 be 27 68 c9 3d 63 78 0c be 19 3d b1 bb
       -0.12663579 0.098343186 -0.13717799 -0.0054088947
0001f0 f9 d3 ff 3d ff af c0 3d 52 1f cc 3c 49 be 45 3c
       0.124916025 0.094085686 0.024917278 0.012069293
000200 dc b6 40 3d 6c 9f 94 3d ac 08 b6 bd 34 16 21 be
       0.04704939 0.0725697 -0.08888373 -0.15731126
000210 31 c9 23 be e0 3b b6 3d 0c 7e 8b bd 21 7b d2 3d
       -0.15994717 0.08898139 -0.06811151 0.10277391
000220 7b 11 02 be 9b 98 a4 3c 4d 39 70 bd 43 f2 e6 3c
       -0.12701981 0.0200923 -0.058648396 0.028191691
000230 a8 ad 0d 3e a1 54 80 3c 7b ea 39 3d c4 10 6c bd
       0.13835776 0.015665354 0.045389634 -0.057633176
000240 46 fa de bd 91 f0 d8 3d b3 e3 0a be 02 f0 26 be
       -0.108875796 0.105927594 -0.13563423 -0.16302493
000250 46 f1 b8 bb 5e cb c8 bd 6e 0b 26 3e d8 0a 1c 3e
       -0.0056439964 -0.09804414 0.16215298 0.15238512
000260 49 7d c5 3d 04 09 23 3d 0a e8 fc bd ee 12 cd bd
       0.09643037 0.03980352 -0.123489454 -0.10013376
000270 a9 c8 e9 3d a8 c8 e2 3b 4f 44 0c be 6e 75 6a 3d
       0.11415226 0.0069208927 -0.13697933 0.057240896
000280 bb 4b 88 bd 7c 46 9b bd 3f 0a 93 3d c9 89 7a bc
       -0.066550694 -0.07581803 0.07179689 -0.01529164
000290 dc b7 79 bc f2 af d9 bd 08 fd e7 bd ec f2 12 be
       -0.015241589 -0.10629262 -0.11327559 -0.1435048
0002a0 48 26 20 be 35 e2 98 bc 40 ff 84 bd ee 42 d0 bd
       -0.15639603 -0.018662551 -0.064939976 -0.10169016
0002b0 7a a4 21 be e5 68 13 3d 78 ab 31 be ee 40 c9 3c
       -0.15785399 0.035988707 -0.17350566 0.024567094
0002c0 9f 36 0d 3e bd b2 56 3d 3e c0 1b 3e ce 3a 63 bd
       0.13790368 0.05241655 0.15210053 -0.055476002
0002d0 c3 c2 fa bd 2f 06 1a be 0e 36 c3 3b ef 71 55 bd
       -0.12244179 -0.15041421 0.0059573716 -0.05211061
0002e0 b0 79 9a bd f8 e6 de 3d e3 d4 22 bd 8b 4c 15 be
       -0.07542741 0.108838975 -0.039753806 -0.1457998
0002f0 7c 38 15 bd 1a e2 e4 bd 19 e1 2f be 22 31 38 3a
       -0.03643082 -0.11175938 -0.17175712 0.00070263643
000300 80 64 12 be c6 4d 3f bc dc 4c 22 3c e7 70 fe bc
       -0.1429615 -0.0116762575 0.00990602 -0.031059695
000310 ce 35 0f 3e ae 53 5e bc cc f5 0e 3e fc ae b3 bd
       0.13985369 -0.0135697555 0.13960952 -0.0877361
000320 59 93 7d bd 70 c8 6f 3d 07 85 28 be c7 12 03 be
       -0.0619081 0.05854076 -0.16456996 -0.12800132
000330 d0 ba f4 3d 78 80 62 bb 3e fc 25 be 23 72 04 be
       0.11949694 -0.0034561437 -0.16209504 -0.12934165
000340 29 a4 a5 bd 3c 77 37 3e 36 cb 64 3d 59 7a fd bd
       -0.08087952 0.17916578 0.05585786 -0.123768516
000350 01 7b 20 3d b1 f4 a8 3d 02 55 2b be 80 60 1c be
       0.039179806 0.08249796 -0.16731647 -0.15271187
000360 a5 10 a1 bd df 6b cc 3c dd 13 c9 bd 14 e0 91 bd
       -0.07864503 0.02495378 -0.09818242 -0.07122818
000370 8b 9c bb bc 9b 35 27 be bf 3b 09 3e 87 fc f4 3d
       -0.022901794 -0.16329043 0.13401698 0.11962228
000380 26 a3 88 bd 13 08 20 3e d7 e8 0e 3e da 03 7d bd
       -0.06671743 0.1562808 0.13956009 -0.06177125
000390 b9 94 0d 3e fe 62 4c bd 3c e7 78 3d bd 09 a5 3d
       0.13826264 -0.049899094 0.060767397 0.08058498
0003a0 ac c0 f2 3d 8b e7 ad 3d 86 80 14 3d 1b 73 1c be
       0.118531555 0.08491429 0.036255382 -0.15278284
0003b0 fb b4 99 bd 51 46 13 3e 06 12 33 3e 17 ba 37 3e
       -0.075052224 0.14382292 0.17487344 0.17942081
0003c0 89 12 a4 3c 37 97 2a be 01 6a 10 bd c8 52 be bb
       0.02002837 -0.16659246 -0.035257343 -0.005808208
0003d0 90 e0 21 bc e7 69 1e be fc 2c d3 3d 74 ad 1d be
       -0.0098802 -0.15470086 0.103113145 -0.15398198
0003e0 fd 85 31 3d 2b dc 81 3b 97 7a 8e bc 14 33 62 3e
       0.04334067 0.0039630136 -0.01739244 0.22089797
0003f0 53 ea c8 3c 75 f9 08 be 2b 4b 13 be 3d 09 34 be
       0.024525797 -0.1337641 -0.14384143 -0.17581649
