models/model_uniform_region_0-0.3.0.6-0.9_multiple_Agents19da233e.pth (torch, 675014 bytes, 132 tensors)

Network_stack.0.0.gru.weight_ih_l0 f4 [96, 1]
00000000: b435 a23d 1dfe 21be ce5f f4bc b1b2 453d
00000010: e5eb e9bd 2f8d afbd dd06 05bd e0bc e53d
00000020: 948f 743d 99a7 af3d e840 55bd 71aa 743d
00000030: b95a 0c3e 80bb 04be 7da9 363e 88b5 ebbd
00000040: 7d29 3cbd 3ab0 5dbb 6875 f33d 2660 4bbe
00000050: c1a0 c9bc 320c d53d c66b 9ebe b7c8 8fbd
00000060: 845e 4c3d d6f1 d0bd f61e 053e ef05 eebd
00000070: f1f4 143e aaf6 8e3c a266 cc3d cdb6 ae3d
00000080: 650d 9cbe 2799 af3d 4b20 1ebe 62be 46be
00000090: 9f63 21bf 0721 9f3d 7402 3bbe 687f ffbe
000000a0: 9b6c 85be dbd0 7f3d 56e6 e4be 0354 ea3c
000000b0: 37c6 34bf 7392 eebd 2a7b 8c3d 25dc 0ebe
000000c0: e669 e9bd e4f6 b7be 90e3 2f3f 9238 00bf
000000d0: 2e97 bc3d 1923 28be cd69 37bf 8b12 12bf
000000e0: 970a 2ebf ec78 533e 3bcc 04bf f857 33be
000000f0: 8e34 d93d 507a 4cbc 602c 33be 047b 0c3e
00000100: d770 e53d 1ba6 5b3d cf83 143e 594d bf3d
00000110: c8fb 0abe a1d5 1fbc e68d 913d ba72 49be
00000120: 24a2 083e 7664 653d c3ad 82be 6aa6 4bbd
00000130: aa5e 553e 3f44 5c3e e0b4 e8bd 6849 9cba
00000140: 0dcb 12be bb93 8dbd 2888 a3bd 1241 413e
00000150: 5064 2ebd 4a1b 95bc b9fd 593e 8158 66be
00000160: 9adc 0c3e c506 f93c 6e43 1c3e 334f 7b3b
00000170: e27f 45bd d55d 5c3c addf 1a3e d81a c1bc
0.07920399 -0.15819593 -0.02983084 0.048266117 -0.114219464 -0.085718505 -0.03247725 0.11217666
0.05970724 0.085768886 -0.052063853 0.059732858 0.13706483 -0.1296215 0.17838092 -0.11509234
-0.045938004 -0.0033826963 0.11887628 -0.19860896 -0.024612786 0.10402717 -0.309416 -0.07020705
0.049894825 -0.102023765 0.13000092 -0.116222255 0.14546563 0.017451603 0.09980513 0.0853096
-0.3047897 0.08574133 -0.15442006 -0.19408563 -0.63042635 0.07769971 -0.18262655 -0.4990189
-0.26059422 0.06245504 -0.44706982 0.028604513 -0.7061495 -0.11649027 0.06859429 -0.13951166
-0.11397152 -0.3593055 0.6870661 -0.5008632 0.09208523 -0.16419639 -0.71645814 -0.57059544
-0.6798491 0.20651597 -0.5187413 -0.17514026 0.10605727 -0.012480333 -0.17497396 0.13718802
0.11203163 0.053625207 0.14503406 0.09340925 -0.1357261 -0.009755523 0.07107143 -0.19672671
0.13343102 0.05600401 -0.25523195 -0.04971925 0.20836893 0.21510409 -0.11362624 -0.0011923732
-0.1433527 -0.06912943 -0.07984954 0.18872479 -0.042576134 -0.018201489 0.21288194 -0.22494699
0.13756028 0.030398736 0.15260097 0.0038346767 -0.04821766 0.013450106 0.15124388 -0.02357237

Network_stack.0.0.gru.weight_hh_l0 f4 [96, 32]
00000000: 6fb7 233e 683d e63c c84b d23d 84aa 6c3c
00000010: e6f8 123e 147e 703c 71ed fe3c a378 7e3d
00000020: da69 63bd 0aa5 18bd 41f8 0abe d3f0 1b3e
00000030: c44a 0bbd 6201 17be 8096 0c3e 1918 bd3d
00000040: 398d 44bb 40ca d2bd 5467 4bbe 1d99 a1bd
00000050: 3443 e33c 13ea 03be a84a 01bd 7781 7c3d
00000060: 6e58 26bd 7ee8 d4bc a346 8abc c99e b4bc
00000070: 5104 8bbd 7e71 333e 9db9 2dbd bcbb 32be
00000080: ca9f dabd 0699 01be 60a2 80bc b844 e73d
00000090: e459 a13d 18fb a4bd f4e2 8fbd bbe3 4a3e
000000a0: 960d aebc 479a db3d c83c bebd 8c47 e73c
000000b0: a9d3 16be db38 543e e2c8 173d 6936 f43c
000000c0: 8421 cd3c e9e8 b43d 760a 5ebe e590 6dbd
000000d0: c073 50bc 271b 8b3d d352 303d 9e9c 633d
000000e0: 997f 833c 441f 8f3d fb2c acbd 9247 493e
000000f0: b46e c43d 3ac1 14be 9b0c 0fbe d0b4 2dbe
00000100: 544e c83d f70a 02be e938 2e3d ae04 36bc
00000110: dbaa a1bd 316a 063e 0cef 08be 6479 b23d
00000120: 72f0 e83d 6385 b3bd bdde 48bd 9154 c33d
00000130: 99da db3c 11d6 96bd 2f05 c43d 5503 e13d
00000140: e3fc 42be ed51 d8bc 0a13 9abe eb9c 2c3e
00000150: 1dd0 09be 0fe1 e53d 4e9a 2a3e 3a40 0cbd
00000160: d6bb a2bc ba53 f93c 2287 8e3d 4ab2 eb3c
00000170: d12c ef3c b286 763c 4791 113e d4d9 f9bd
00000180: cd1c 263e 7750 153e 140a 443e a911 16bd
00000190: 549b 863d d280 16be cf2b 8ebd 38c9 c43d
000001a0: 9605 59bd f2af b83d 9c7e 62bc 85af 243e
000001b0: ecf1 2c3e 3de1 20be 5936 29bd cbed b93c
000001c0: f8f1 19be abc4 02bd cdcb 06be 6e1a 51bd
000001d0: faa2 fdbc 7b99 cd3c 2fa7 92bd 26c6 b13a
000001e0: 32d3 4fbd 5e29 2e3d 12a8 0c3c 5477 933d
000001f0: f14a ddbc 6e02 05be 6e99 ecbd 4858 efbd
00000200: a583 0fbd 8c82 513d d17e 173e 648f c2bd
00000210: 2f43 7ebd 7faf 9cbc 0f90 b8bd 7d17 dc3b
00000220: af05 d7bd f930 ea3d 0fa0 bbbd 7115 ecbd
00000230: 811c b23b 3641 0e3e 39b8 b23c 9594 20be
00000240: 64ea 8d3d 71d6 abbd d475 6fbd 567d 893d
00000250: d77d 94bd 2c0d 7ebd 4187 453e da09 36be
00000260: 7f1b 67be a3bc a3bd 89fb c73b f7ae 1a3e
00000270: 37cf 083e dbd2 17be 9178 b33d 9c0d d8bd
00000280: 099c a3bb 0a55 153e ea25 d1bd c898 d2bd
00000290: e320 283e f0d7 cdbd 089d dfbc 14fd ffbd
000002a0: 4f24 48bc e684 013e e8bd c13d 4672 373d
000002b0: 8558 393c c90c b43d b12a 57bd 0d28 dcbc
000002c0: 72bc 3a3e 02e9 d1bc 1da0 9bbd bc76 98bc
000002d0: 0121 213e eec8 173e 1daa 833c 6e05 f9bb
000002e0: c1a4 bf3d 7417 ed3c bc18 e63d 6a3f fe3c
000002f0: 7a77 ab3d 0935 173e 1e62 03be 0786 f33d
00000300: 0f8e c23d e9d3 32be d4dc 163e 7e24 c63d
00000310: 1eb4 f7bd cb15 ff38 99c7 0f3e adba 1c3e
00000320: 8a9a ccbd 77a3 36be 87de c4bd f08d 963d
00000330: 9a53 0c3d e120 25bd a61c 4cbd 9d52 0c3e
00000340: 2fbf 233d 19b6 923d e1b1 48be dc19 0ebe
00000350: 6423 c9bd 6d19 15be 8f71 f2bd 9b6a 093e
00000360: 4e5b 283e 400a 073e fc99 483d 781e f13d
00000370: 53fd 0f3d dbdf 8c3d 5e78 93bd 889b 153e
00000380: 9362 b2bd cd53 b53d 6d37 24be 0b65 cb3d
00000390: baee 61bd ece0 083e 850e 94bc b1b8 ba3c
000003a0: 499d 2a3e 1940 2ebe d5e8 353e 85e6 453e
000003b0: 1517 c1bd 1780 273d f69b f9bd c6cc c4bd
000003c0: d8dc 083e c66b bdbd 204b 28be c54a 83bd
000003d0: 691f ff3d 0eee babc 5d67 a03c 9387 f0bd
000003e0: ddda 1abd 8126 f2bc c1ea a3bd f643 dcbd
000003f0: 25e6 d4bd 7699 d4bd 189a b13c 7fca 18be
0.15987943 0.028105453 0.102683604 0.014444951 0.1435276 0.014678497 0.03111908 0.062126767
-0.05552087 -0.03726677 -0.13571264 0.15228586 -0.03400685 -0.14746621 0.13729286 0.09233112
-0.0029991402 -0.102924824 -0.19863635 -0.07890532 0.027742006 -0.12882261 -0.03156534 0.061646905
-0.040611677 -0.025989767 -0.016879385 -0.02204837 -0.06787933 0.17523763 -0.042413343 -0.17454427
-0.106750086 -0.1265603 -0.015702426 0.11292404 0.078784734 -0.08055705 -0.0702571 0.19813435
-0.021246713 0.107227854 -0.09288937 0.028232358 -0.1472918 0.20724814 0.03705681 0.029811101
0.025040396 0.088334866 -0.21683678 -0.05799951 -0.012722909 0.06792288 0.043047737 0.055569284
0.016052054 0.06988385 -0.08407017 0.19656208 0.095914274 -0.14526835 -0.13969652 -0.16963506
0.09780565 -0.12699495 0.042534743 -0.011109514 -0.07893916 0.13126446 -0.13372439 0.0871456
0.11373986 -0.08765676 -0.049040545 0.09537614 0.026837634 -0.07365049 0.09571301 0.10986964
-0.19041781 -0.026406253 -0.3009265 0.16856734 -0.13458295 0.11224567 0.16660425 -0.03424094
-0.019864958 0.030435432 0.06959368 0.028771538 0.029196175 0.015046762 0.14215575 -0.121997505
0.16221924 0.14581476 0.1914447 -0.036637936 0.06572595 -0.14697579 -0.069419496 0.09608692
-0.052983843 0.09017934 -0.013824131 0.1608258 0.16889161 -0.15710922 -0.041311596 0.022696396
-0.1503371 -0.03192584 -0.13163681 -0.051050596 -0.030961502 0.0250976 -0.07160794 0.0013563081
-0.05073852 0.04251992 0.008584993 0.072004944 -0.027013274 -0.12989208 -0.11552702 -0.1168676
-0.035037655 0.05114989 0.1479447 -0.09500006 -0.06207579 -0.019126652 -0.09011852 0.006716667
-0.10499131 0.11435122 -0.09161388 -0.11527527 0.005435527 0.13892063 0.02181636 -0.1568168
0.06929472 -0.08390511 -0.05846198 0.06713359 -0.072505645 -0.06202428 0.19289877 -0.17777196
-0.22569083 -0.07994964 0.0061029834 0.15105806 0.13360296 -0.14826529 0.087632306 -0.10549471
-0.004992966 0.14583221 -0.1021231 -0.10283047 0.16418795 -0.100509524 -0.027296558 -0.12499443
-0.012215688 0.12648353 0.0946005 0.044786714 0.011312609 0.08791501 -0.052530948 -0.026874566
0.18235949 -0.025623802 -0.075988986 -0.018611304 0.15735246 0.14822742 0.016072327 -0.007599524
0.09357596 0.028941847 0.112351865 0.031036098 0.08372398 0.14766325 -0.12830397 0.11890798
0.09499752 -0.1746365 0.14732677 0.09674929 -0.120949015 0.00012163407 0.14040984 0.15305586
-0.099904135 -0.17835794 -0.09612756 0.07351291 0.034259416 -0.04031456 -0.04983201 0.1370339
0.03997725 0.071636386 -0.19599105 -0.13877052 -0.09821203 -0.1456048 -0.11838066 0.13419573
0.1644108 0.13187504 0.048974976 0.117733896 0.0351537 0.068786345 -0.072006926 0.14610112
-0.08710208 0.08853874 -0.16036768 0.09931382 -0.055159308 0.13367051 -0.01807333 0.022793146
0.16661562 -0.17016639 0.177646 0.19326217 -0.09428231 0.04089364 -0.1218795 -0.0960937
0.13365495 -0.09249072 -0.16434908 -0.064107455 0.12457163 -0.022818591 0.019580537 -0.11744609
-0.03780638 -0.029559376 -0.0800376 -0.1075515 -0.10395459 -0.10380833 0.021679923 -0.14920996

Network_stack.0.0.gru.bias_ih_l0 f4 [96]
00000000: 00a2 09be c828 0abe 8c1d 133d ac91 cbbd
00000010: b044 973d 30cd 6b3c 5ed3 85bd 8d0d da3c
00000020: bdec 933d 9489 633d 38c1 f23d 4995 a03d
00000030: 2294 ca3d 9443 d63d b8a0 9e3c eb78 e5bc
00000040: d46b 953d 7e74 c3bc cd9c 413e 71ae 673e
00000050: 1235 c0bb f47e 873d 9db6 93bd 81b1 d9bd
00000060: e4f5 f13d f376 05be c098 babd c161 83bd
00000070: 742a 9a3e d810 f53d 5bb9 ec3d b965 ddbd
00000080: e3c3 4fbc 471c 0abe b6fc 42be 66fb 08be
00000090: ceec 48bf 86c7 2abe 56cb 633e 7180 13be
000000a0: f7da 35bf b0bd 43be af7b adbe fb60 e6be
000000b0: 1524 f2be 6af4 28bf 203d 60bc ff06 c93d
000000c0: 0c03 4abd 4e6e 38be 5532 89bd 3079 bebe
000000d0: 7a49 f7be da14 4ebe b1ab 44bf 1e8c 5fbf
000000e0: bc32 12bf 666b 6d3d 77ef ccbe 608c acbe
000000f0: 4bdc c6be 9cec 16bf ce58 eb3c 2336 d13d
00000100: 0cba b73d 0f80 98bd f1c2 e43d e37a a73c
00000110: f3b5 813d cb6b 323e 2f1d 043e f020 d7bc
00000120: 6c88 26be 9d95 fb3d 14f6 f1bd d9d0 04be
00000130: b021 cbbd ac90 37be 0fda 063e a5d1 c03d
00000140: 28cc 07bd e121 16be b993 a03c 369e d03c
00000150: 003b 993d 0f2c a4bd ec14 373b f068 f93d
00000160: e420 f0bd 38fb bcbd 9228 c1bd 9253 69bd
00000170: 3ba0 fdbd ad4f 053e 1ecc 333e 4d6b 963d
-0.13440704 -0.1349212 0.03591685 -0.09939894 0.07386148 0.014392182 -0.06534456 0.02661779
0.072228886 0.055551127 0.1185326 0.07840974 0.09891535 0.10462108 0.019363746 -0.02801176
0.07295957 -0.023859259 0.18907471 0.22625138 -0.0058657015 0.06616011 -0.07212565 -0.10629559
0.11814478 -0.13033657 -0.09111166 -0.064151295 0.30110514 0.11966103 0.11558791 -0.10810418
-0.01268098 -0.1348735 -0.19041714 -0.13377151 -0.78486335 -0.16677675 0.22245535 -0.14404465
-0.7103724 -0.19115329 -0.33883426 -0.44995865 -0.47293153 -0.65997946 -0.013686448 0.098157875
-0.049319312 -0.18010828 -0.06699053 -0.37201834 -0.48298246 -0.20125142 -0.7682448 -0.87323177
-0.57108665 0.05796375 -0.40026447 -0.33700848 -0.38839945 -0.5895479 0.028728869 0.10215404
0.089710325 -0.074463 0.111699946 0.02044434 0.06333532 0.17423932 0.12901758 -0.026260823
-0.16262978 0.12284396 -0.11814514 -0.12970294 -0.09918535 -0.17926282 0.1316912 0.094149865
-0.033153683 -0.14661361 0.01960169 0.025466066 0.074819565 -0.08016216 0.0027936054 0.12178218
-0.117250234 -0.09227604 -0.09431566 -0.056964464 -0.12384077 0.13018675 0.17558333 0.07344685

Network_stack.0.0.gru.bias_hh_l0 f4 [96]
00000000: 482f 1b3e 08e4 8fbd 6b79 163c 915b 27be
00000010: 9c0c 9f3d 224b 89bd 205a 2fbd 3396 bfbd
00000020: 4182 01be 6cef 5c3d 12eb 643c 99af 9b3d
00000030: eaa4 24be 7926 ee3c cf7f 5ebc 42fc f6bd
00000040: ca26 2c3e 0410 ffbc b994 0b3e 2e90 c03d
00000050: ffd8 a5bd e129 07be fb76 1f3e 2ce8 b73c
00000060: bc9a e4bd 74b3 fa3d 5de1 53bd 327b 94bb
00000070: 4806 773e f8a2 d8bd 9fd3 da3d 7732 203d
00000080: efa1 333d 4f43 97be 0345 e63d 9a3d 0fbe
00000090: 5f57 11bf 6cbb e93d ca28 803e 34e0 2dbe
000000a0: d5fa 24bf be3a 843b c4ad e2bd 6325 f5be
000000b0: c738 c3be a66d 04bf ec8d 803d 602e 4b3e
000000c0: 0d06 97be 0556 9dbe 0501 3ebe 164d d9be
000000d0: 0e57 80be 15ce fcbd 5481 47bf 50ed 3ebf
000000e0: 32dc 3abf 1c01 a03d c660 0abf 8048 54be
000000f0: f8b5 dfbe 124f 8ebe 7de1 a8bd adc9 e83c
00000100: 139d d1bc fe51 6e3c 851b a63c 0029 aebd
00000110: f7ad b1bc e368 2ebd 27a1 643d fd04 75bd
00000120: 819d ce3d ddf5 81bc 09bb 503d 0233 103b
00000130: 3ba1 183d e14a 00be 9eda 693d a298 18be
00000140: adea 24be f31e d9bd e682 1c3e 3a81 b4bd
00000150: 6baa 853d 2b8f 3abe 6655 55be 3579 823d
00000160: 0279 503d 0025 a33d f15c 8e3c 6364 48bd
00000170: d9ac d8bd a083 c1bd f84b 2dbe 5c0d 7b3d
0.15154755 -0.070259154 0.009184222 -0.16343524 0.07766077 -0.067037836 -0.04281056 -0.0935482
-0.12647344 0.053939268 0.013972061 0.07601852 -0.16078535 0.02907108 -0.013580277 -0.12059833
0.16811672 -0.031135567 0.13630952 0.094025 -0.08098029 -0.1319957 0.15572731 0.022449575
-0.11162326 0.12241259 -0.051728595 -0.0045312876 0.2412349 -0.10577959 0.10684895 0.039110627
0.043855604 -0.2954354 0.11243632 -0.13988343 -0.5677394 0.11412701 0.2503112 -0.16980058
-0.6444524 0.004035323 -0.110682994 -0.47880086 -0.38129255 -0.5172981 0.062770694 0.1984191
-0.29496804 -0.3072969 -0.18555076 -0.42441624 -0.25066417 -0.123439945 -0.77931714 -0.7458086
-0.7299224 0.078127116 -0.54053915 -0.20730782 -0.4369352 -0.277947 -0.082461335 0.028416479
-0.025587594 0.014545916 0.020276794 -0.08503914 -0.021689398 -0.042580497 0.05581775 -0.05981921
0.10088635 -0.015864307 0.05095962 0.002200306 0.037263136 -0.12528564 0.057093255 -0.14901975
-0.16105147 -0.10601606 0.15284309 -0.088137105 0.06526645 -0.18218677 -0.20833358 0.06370775
0.050896652 0.079660416 0.017378302 -0.04892386 -0.10579843 -0.094489336 -0.16923511 0.061292037

Network_stack.0.0.gru.weight_ih_l1 f4 [96, 32]
00000000: 4514 c43b dd84 633e a9c6 1f3e b0dc 503e
00000010: 3a6d 283d d9df 02be 6000 91bd d264 42bd
00000020: 318a e73c a842 11be af7f 1dbd d3d9 c6bd
00000030: c591 633d 39b2 8bbd 199e a33d a58e 16be
00000040: 9bfa 1d3d b837 fa3d b744 423e ea4c b93d
00000050: 013d 1b3e d003 9ebd 9942 f43d 6390 ecbd
00000060: b544 04bb a3f5 77bd 9d26 1bbe 06dc 08bd
00000070: 64c9 e83d 11f4 13be 8818 d33d d6d9 273e
00000080: d2de 093e 2500 963d 6de5 bebd e57c 343c
00000090: 1dae 493d a0a9 1cbd 24c6 d33d 33c7 ce3d
000000a0: 2016 55be 31b0 3c3d d844 1f3d ee0d 03be
000000b0: e9e4 afbd b4d5 84bd cc10 a03d 99e7 93bd
000000c0: 8709 0b3e 5613 5e3d 18d0 6a3d 4b20 06bd
000000d0: 4dd3 8a3c 6f78 26be 85a1 94bd cce1 063c
000000e0: 78f7 da3d 96c0 09be 05dc 6d3c 985a d73d
000000f0: c3ac f7bd 3370 c0bc 1cae 19be da17 df3c
00000100: 54ca cc3b 8aa2 d83d 87b6 a6bd b537 e83d
00000110: ee21 cd3c b2ee 2b3e 0b97 aebb 3e41 dd3a
00000120: 07f6 c93d 39e9 913d 4796 083e f068 bb3d
00000130: 9770 d8bc 3812 0abe f8c5 063e c7db 0d3e
00000140: b7f2 9d3d 984f 1ebe 3485 563d 3413 023e
00000150: 4de3 80bc 436c 10bc 261a a4bd e42b babd
00000160: 82ff 82be deb1 093d e327 babd 7500 cd3d
00000170: 797a 1abe f2c9 523c ed4b 573d 328b 2bbd
00000180: afad 06bd ec66 eebd 0fd2 4fbd 1362 413e
00000190: 62f8 23be 94ca f3bd 1b52 1abc 116d b5bd
000001a0: a79d ef3d e760 5f3d 6e88 24be 9cd8 37be
000001b0: b493 f63d 7810 17be 51dd 053e 8f5e 3f3e
000001c0: 0adb 52be 740d 2ebc 9939 a2bc fec8 073d
000001d0: 95ea 973d 9710 43be a371 bcbd 2e44 513d
000001e0: 9d12 83be da22 c7bd c52c 48be 27bb 85be
000001f0: 3d39 31be e10c b23e aae1 143e d5ee 21be
00000200: 23ed 093e 2086 913d 6d23 a1bc f511 26be
00000210: a962 69bc 4e7a d33d 289f 073d 74f2 efbd
00000220: 7baf cfbd 1a71 57bc 7b52 453d 58a9 c13d
00000230: e0e9 c03d 7418 bdbd dea7 223e 8fe5 c7bd
00000240: ac6a 3c3d 884d 19be 75f0 4dbe 33a2 343e
00000250: b0cc 513d c2e7 edbd ac48 b23c 5162 3dbd
00000260: 8c7e 31be eba4 c83a df67 63be e7ab 3ebe
00000270: 3f70 cc3c d3fa 203d da8d 1cbe 4f77 c2bd
00000280: 8cca 75bd ebc6 da3c fb59 0d3e 0195 36be
00000290: 938d 1e3e b5fc cc3d 7ee2 753d 1e0f 9fbc
000002a0: 408d 9fbd 912d 013d 47cc 1ebe 791c c13d
000002b0: 0cc8 413e 2cf2 3abb db50 9fbd 0473 963d
000002c0: bd6d 573c 8f96 12bd 70ba 1ebe d66e 033d
000002d0: 56f1 743d f453 79bd b852 00bd 8d5a 17be
000002e0: 333d 053e 1b4b b13d bfcd 463d 35dc 393e
000002f0: b286 403e 0cc2 273e 6dd0 16bd 411c 91bd
00000300: b69c 833d 332e 21bd a751 80bc 4098 c7bd
00000310: 9a26 87bd 8479 2e3d ae38 d0bd a08e 293d
00000320: 336f ed3d 5d6a 053e fc67 20be 67d5 af3c
00000330: 1292 aebc 8bcc 483a 7097 0ebc 2d2b 9cbc
00000340: a483 3cbd 7a8a 66bd 780f d8bd f45a 223d
00000350: f06f 69bd 1c73 36be d8c8 b1bd 8744 babd
00000360: c5d4 da3c b1fc 1a3e edf5 cd3c fe96 f33d
00000370: ce7a 0bbe 9dbc 463e bb87 253d 1d5a 17bc
00000380: b908 e2bc b51c 1d3e 832b 02bd bfe1 9c3c
00000390: 807e 083e dfb8 ec3d 09b3 99bc 9e05 82bd
000003a0: 47b0 31bb 26d2 123d 2a13 05be 8a9e 153e
000003b0: 2c1e 463e 7a66 ce3c 6198 ed3c 9578 993d
000003c0: e252 143e dc66 df3d b174 afbd a94b de3d
000003d0: 4a5e f23d 8b13 a93d 5872 73bd e8e5 483d
000003e0: a0e2 033e 0812 0fbe f1e0 633d 1f6c e7bd
000003f0: 23f8 4b3d 6f4f 19be ed16 053e 6e2f 85bd
0.0059838616 0.22218652 0.15603127 0.20396686 0.04111979 -0.12780704 -0.0708015 -0.04745943
0.028264137 -0.14185584 -0.038451847 -0.097095154 0.05555894 -0.06821103 0.07989139 -0.14702852
0.038569074 0.12217659 0.18971525 0.09047873 0.1515999 -0.07715571 0.11926765 -0.11550977
-0.0020182554 -0.06053699 -0.15151449 -0.033412956 0.11366537 -0.14448573 0.10307413 0.16391692
0.13463905 0.07324246 -0.09321103 0.011016105 0.049238313 -0.038247705 0.10340527 0.10096588
-0.20809221 0.046066467 0.038884014 -0.12798283 -0.08588583 -0.06486073 0.07815704 -0.07221908
0.13577853 0.05421766 0.05732736 -0.03274564 0.01694646 -0.1625688 -0.0725737 0.008232545
0.10691732 -0.13452372 0.014517789 0.10515326 -0.120934986 -0.023491 -0.15007824 0.027233053
0.0062497053 0.10577877 -0.08140283 0.1133875 0.025040593 0.16790274 -0.0053280643 0.0016880406
0.09861379 0.07124562 0.13338576 0.091508746 -0.026420875 -0.13483512 0.13161457 0.1385337
0.0771231 -0.1546005 0.052373126 0.12702638 -0.015733385 -0.008814874 -0.080128 -0.09090403
-0.25585562 0.033616893 -0.09089639 0.10009853 -0.15085782 0.01286553 0.052562643 -0.041880794
-0.03288048 -0.116407245 -0.050737437 0.18885069 -0.1601272 -0.11903873 -0.0094189895 -0.088586934
0.11699992 0.054535773 -0.16067669 -0.17953724 0.12039891 -0.14752376 0.13072707 0.18688415
-0.2059137 -0.010623325 -0.019802855 0.033150665 0.0741779 -0.19049297 -0.09201362 0.05109041
-0.25600138 -0.09723444 -0.19548328 -0.26119348 -0.17306991 0.3477545 0.14539209 -0.15813763
0.13469367 0.071056604 -0.019670213 -0.16217788 -0.014244714 0.10326062 0.033110768 -0.11716166
-0.10140892 -0.013149524 0.048174363 0.09456128 0.09419608 -0.0923318 0.15884349 -0.09760582
0.046000168 -0.14970982 -0.20111258 0.17639999 0.051220596 -0.1161647 0.021763168 -0.04623634
-0.1733343 0.0015307938 -0.22207592 -0.18620263 0.024955867 0.039301705 -0.15288487 -0.094954126
-0.060007617 0.02670618 0.13803856 -0.17830278 0.15483694 0.100091375 0.060030453 -0.019416388
-0.07790613 0.031537596 -0.15507613 0.09429259 0.18923968 -0.0028525693 -0.07779094 0.07346156
0.013148722 -0.035788115 -0.15500808 0.032088123 0.05980047 -0.06087108 -0.031328887 -0.14780636
0.13011627 0.08656903 0.04853606 0.18150409 0.18801382 0.16382617 -0.036819864 -0.07085467
0.064263746 -0.0393507 -0.015663935 -0.09745836 -0.065991595 0.042596355 -0.10167061 0.041395783
0.11593475 0.13028856 -0.15664667 0.021464063 -0.021309886 0.0007659874 -0.008703098 -0.019063557
-0.04602398 -0.056284405 -0.105498254 0.03963752 -0.056991518 -0.17817348 -0.08680886 -0.09095102
0.026712785 0.15135457 0.02514168 0.11894034 -0.13621065 0.19407888 0.040412646 -0.009237793
-0.02759205 0.15342982 -0.031779777 0.019150613 0.13329506 0.11558699 -0.018762128 -0.06348728
-0.0027113126 0.035844944 -0.12995592 0.14611259 0.19347447 0.025195349 0.029003324 0.07493702
0.14484742 0.10908291 -0.08567179 0.10854275 0.118343905 0.08255681 -0.05943522 0.04904738
0.1287942 -0.13971722 0.055634443 -0.11299919 0.04979719 -0.14971708 0.12997027 -0.06503187

Network_stack.0.0.gru.weight_hh_l1 f4 [96, 32]
00000000: 1109 d53d 2faf 2e3e 5125 3abe ee3f 243d
00000010: 3f06 523d 7d8f 36bd 2389 f33c acde 28be
00000020: 8a42 4f3e 0ce3 42be 7581 4f3e 340f 8a3d
00000030: 7090 bdbd fe9c f0bd c90f c73d a585 103e
00000040: b772 d6bd 96f3 bb3d bd61 1e3e d4ab 20bd
00000050: 761c 0cbd 4985 cabc e925 e63d a76c 143e
00000060: 6b8d 8dbd 58ca 0a3d 4051 13be e0f2 f0bc
00000070: 8699 10bc e16a bc3c 45c8 1ebe 9941 993d
00000080: fe27 aa3c f500 f73d 0ebc 36be 887d d4bd
00000090: f521 823d fc74 e1bd d31e e1bc 5960 193e
000000a0: dfbd 84bd f322 30be 2197 bdbd f17a 28be
000000b0: 4581 1b3e fb2c 1d3c acff 81bd 62f7 27be
000000c0: 90b3 a0bd 37bd 353e a2d9 1bbe 2d9d dc3b
000000d0: bf51 c0bc fa67 38be 792c aabd c3f7 21bd
000000e0: c01f 1cbe 2bea 67bb 75fa 1f3e 7b21 123e
000000f0: 35e9 27be fc92 c6bc 913c 2a3e 7109 763d
00000100: 2e7a 983c e43f 80bd 0d5c b33d 9eda a53b
00000110: bf5c 9dbd 3e3e 513d 224a 083e d394 c43d
00000120: 7a1f f13d 2745 28be c221 9ebd 0a26 9dbd
00000130: a32f ce3c 36be 1c3e c23c 4c3d 7b92 9abc
00000140: fde3 403d 305e c0bc 9b61 a33c a261 573d
00000150: ddc2 53bc bdab 0cbc 28f9 85bd 30a7 c2bd
00000160: b3e4 243e 9af9 823d 1bc5 263e dbec c13d
00000170: 80a7 d8bd 8889 413e 28fe 3a3c 0a1e 1ebe
00000180: c0b0 abbd 3dee fb3d dcf3 dfbd 9531 91be
00000190: 2072 79be ee70 0c3e 6559 203e cfe3 0e3e
000001a0: db71 873d 6a97 98be 214e 753e 4024 0abd
000001b0: 18fd 97be 68f5 bc3d e4bb fa3d 9203 83be
000001c0: 01b2 1dbe afd4 3d3c cb6d d4bd 25d9 f93d
000001d0: f170 0bbe 56d6 88bc 3392 b33d e8ce 74be
000001e0: 52e1 9a3e 72c5 0e3e fec2 b63d ace2 c6be
000001f0: 0e19 25bd 0fa9 99bd 7236 bdbe e689 a6bc
00000200: d24b a5bd 233e 86bd 9124 873d bd8a 1cbd
00000210: 0fe5 843d ddfe 793d ec24 0e3e 94e5 adbb
00000220: a5c0 533c 9de9 84be f238 4a3e e903 043c
00000230: e48a 6a3c 131f e0bd 5671 bd3d 18dc f6bd
00000240: 2f1a 22be bb92 b13d 5b08 2a3e bdb9 43be
00000250: 6370 babd d08e cf3d 8f39 ba3d 0f7f d73c
00000260: f9ca 9a3d 289d 593e ca6a 863d 6580 23be
00000270: 4077 0dbb 8117 ccbd 0bab 9dba 7c9a 30bc
00000280: c08e bfbd c1b5 cc3c 6546 efbd f933 e5bb
00000290: 0593 873d c1d9 c7bb d631 13be 2350 3e3e
000002a0: af4d 853d 8e57 b03d 7d87 823d 9cea febd
000002b0: d7c1 1abe fe54 f33d 1551 c0bd eec9 ba3d
000002c0: 83a9 7ebc 9bc7 ea3a e722 00be 3288 2fba
000002d0: 9cc0 093e 491b 34bb 1568 01be 92d4 f7bd
000002e0: 3a6f 2f3d 55de febc 6d0f a93d 1270 36bd
000002f0: 1c7b d33b 2138 c83c f5a0 37bd 891d e33d
00000300: f865 ebbd a9f7 283d 8072 a43d b2a3 2a3e
00000310: c000 9e3d 2b1d 21be 18bf 33bd 6d38 c1bd
00000320: 1b36 03bd bef6 c73c 2cff 84bd 76ee 08be
00000330: 8cab e1bd 7453 fc3d 2ea6 1f3e e782 e9bc
00000340: af28 b43d aa6e 85bd 69b8 12bd 29b8 8cbd
00000350: ec23 d1bc def4 2fbe fb59 c23c 0a1e 3abe
00000360: 92df b1bd 34b2 183c f1c1 6e3c 75b5 43be
00000370: fbd8 ee3c 7171 6f3d 07da eebd ecae ac3d
00000380: 59d6 d3bd 9fe3 1ebe a14f 91bd 5377 1abe
00000390: 02c7 883d 1de9 133e 0d4d 493d 0935 25bc
000003a0: c331 363e 4816 49be 1358 62bc f392 e0bd
000003b0: d00d aebc 4e4a 0bbe 86b7 613d f939 87bd
000003c0: 3f33 ac3c 2244 1abe 70b3 0fbe 33b7 5dbd
000003d0: 889d ba3d 131b 0bbe 46ce 613d 3342 633d
000003e0: 0348 2bbe 35c7 033d 970f ec3c ff2c eb3b
000003f0: f6a4 643c 788a 66bd 6c54 2cbe 07d7 1cbd
0.1040212 0.17059015 -0.18178298 0.04010003 0.051275488 -0.044570435 0.029728478 -0.16491193
0.20240226 -0.19031924 0.20264228 0.06741181 -0.09256065 -0.11748694 0.09719808 0.14113481
-0.10471099 0.0917732 0.15466972 -0.039226368 -0.03420683 -0.024721758 0.112376995 0.14494573
-0.06911739 0.033884376 -0.14386463 -0.029412687 -0.008825665 0.023000183 -0.15506084 0.07483215
0.020771023 0.120607294 -0.17845175 -0.10375506 0.06354133 -0.11008641 -0.027480518 0.1497816
-0.064815275 -0.17200832 -0.09257341 -0.16453148 0.15186031 0.009593244 -0.06347594 -0.16402963
-0.07846749 0.17747961 -0.15219739 0.006732604 -0.02347648 -0.18008414 -0.08309264 -0.039542925
-0.15246487 -0.0035387378 0.15622886 0.14270584 -0.16397555 -0.02424001 0.16624667 0.060067598
0.018612947 -0.06262186 0.08757792 0.0050614616 -0.076837055 0.05108475 0.1330953 0.095986985
0.11773582 -0.1643263 -0.077212825 -0.07673271 0.0251692 0.15306935 0.04986263 -0.018868675
0.047092427 -0.023482412 0.019944003 0.052583344 -0.012924877 -0.0085858675 -0.065416634 -0.09504545
0.16102867 0.06395264 0.16286127 0.09469005 -0.10578823 0.1890012 0.011413135 -0.15441146
-0.08383322 0.123013 -0.10935184 -0.2835814 -0.24359941 0.13714954 0.15659101 0.1395409
0.06613513 -0.2980302 0.23955585 -0.033725977 -0.29685283 0.09226495 0.122428685 -0.2558866
-0.15399934 0.011586352 -0.10372504 0.1219962 -0.13617302 -0.016703766 0.0876812 -0.23907053
0.3025003 0.13942507 0.089239106 -0.38844812 -0.040307097 -0.075029485 -0.369556 -0.020329427
-0.08071102 -0.065548204 0.06598771 -0.03821825 0.06489002 0.061034072 0.13881272 -0.005306909
0.012924348 -0.25959483 0.19748285 0.008057573 0.014315341 -0.10943427 0.09250133 -0.12053698
-0.15830301 0.08670565 0.1660475 -0.19113822 -0.09103467 0.10134661 0.0909301 0.026305703
0.07558245 0.21251357 0.06563337 -0.15966947 -0.002158597 -0.099654205 -0.0012029124 -0.010779019
-0.09353399 0.02498901 -0.116833486 -0.006994721 0.066198386 -0.0060989563 -0.1437448 0.18585257
0.065089576 0.0861045 0.063734986 -0.12447092 -0.15113007 0.11881445 -0.09390465 0.09120546
-0.015543344 0.001791227 -0.12513314 -0.0006696015 0.13452381 -0.0027482084 -0.1263736 -0.121010914
0.042830683 -0.031111876 0.08254895 -0.044540472 0.0064538848 0.024440827 -0.044831235 0.11089618
-0.11494058 0.041251812 0.08029652 0.16664007 0.07714987 -0.15733783 -0.043883413 -0.094345905
-0.03203402 0.024409648 -0.06493983 -0.13372216 -0.11019048 0.12320605 0.15590736 -0.028504802
0.08796822 -0.06515248 -0.0358204 -0.06871063 -0.025529824 -0.17183253 0.023724547 -0.18175521
-0.08685221 0.009319831 0.014572606 -0.19112189 0.029156199 0.058457796 -0.11662679 0.08431801
-0.10343618 -0.15516518 -0.07095266 -0.15084581 0.06678583 0.14444394 0.049145747 -0.010083445
0.1779242 -0.19637406 -0.013814944 -0.10965528 -0.02124682 -0.13602564 0.055106662 -0.06602854
0.02102053 -0.15065053 -0.14033294 -0.05412979 0.09112078 -0.13584547 0.05512836 0.055483054
-0.16726689 0.0321724 0.028816028 0.007176995 0.013955345 -0.056284398 -0.1682908 -0.038291004

Network_stack.0.0.gru.bias_ih_l1 f4 [96]
00000000: 02b1 58bd f570 aa3c 7222 f43d 3344 79bd
00000010: 5573 193e e0c6 f93d 949f 053e 04b9 273e
00000020: 00c5 c9bc d600 14bd 36a4 023e f6db be3d
00000030: 1977 193e 59d6 14bd 8f77 413d 2276 c3bd
00000040: c768 af3d 3738 103e bcb9 15be 919a 1dbe
00000050: 3480 c13d acba 8cbd 8ac9 193e b21b 263e
00000060: a6ed 9bbd 27fe 4a3e 7a7c 353d 90d6 033e
00000070: 4889 143e 83c5 23be 38aa ef3d b5a4 21be
00000080: ffc5 e6be 5434 fbbd 729e bebe a24b 67bf
00000090: 6ae1 82be 87b8 21be ca64 313e 9df6 08bc
000000a0: 3002 b63d d3e6 2dbf b0bb 02bd 47cb 103d
000000b0: 3e71 b8bd 80c8 b7bd 850c 9fbe ad28 b4be
000000c0: a212 82be 0d9f 4fbf f125 1c3d b03d 0fbe
000000d0: d83e 163e d577 d5be 2809 8a3e abc6 06be
000000e0: 3b92 5cbf 2d4c 2b3e b5b1 f1bd f7db 74be
000000f0: 0211 60be b911 f3be e407 bebe 311f a9be
00000100: 4fd6 0abe aba1 5d3c 5c4c 873b ecf4 da3d
00000110: a303 603d 1cef 2ebe 7f57 26be 3a73 9e3d
00000120: e3b0 373c aba2 9abd 5f83 d9bc d43a 36be
00000130: 3052 8bbc bffa d73d 1aea 9cbd 4ecb 283d
00000140: c7d3 1f3e 7c87 013e d769 81bd fec2 fb3c
00000150: 2062 303e a16e f6bc ebd9 afbd e998 a5bd
00000160: d161 98bc a741 02bc 0a35 57bc 816c 0abe
00000170: 9cff f93c 4ce3 313e 284f c1bc 8884 f53d
-0.052903183 0.020805815 0.119206324 -0.060856055 0.14985402 0.121961355 0.13049155 0.16379172
-0.02463007 -0.03613361 0.12757954 0.09319298 0.14986838 -0.03633723 0.04723316 -0.095440164
0.085649066 0.14083944 -0.14621633 -0.15390994 0.09448281 -0.06871542 0.15018287 0.16221502
-0.07613687 0.19823514 0.044308163 0.12874818 0.14505494 -0.15993313 0.117023885 -0.15785487
-0.45072934 -0.1226584 -0.3723026 -0.9034978 -0.25562602 -0.15793048 0.17323604 -0.008359578
0.08887136 -0.67930335 -0.031917274 0.03535011 -0.09005974 -0.08973789 -0.3106424 -0.35187283
-0.2540484 -0.8110207 0.03812212 -0.13988376 0.1467241 -0.41692987 0.2696011 -0.13161723
-0.8616063 0.16728278 -0.11801473 -0.23912035 -0.21881488 -0.4747446 -0.37115395 -0.3303161
-0.13558315 0.013527314 0.004128976 0.106912464 0.05469097 -0.170834 -0.16244315 0.077368215
0.011211607 -0.07550558 -0.0265519 -0.17795879 -0.017006963 0.10545873 -0.07661839 0.04120951
0.1560813 0.1264934 -0.063190155 0.030732628 0.17224932 -0.030082049 -0.085864864 -0.08085806
-0.01860133 -0.007950223 -0.013135204 -0.13517953 0.030517392 0.17371863 -0.023597315 0.11988169

Network_stack.0.0.gru.bias_hh_l1 f4 [96]
00000000: 0554 203e 54a5 a53d 6ac2 693d b7c6 f83c
00000010: c16a cd3d 6823 ef3d e385 253d 08bd 48bd
00000020: 60a3 083e dd1b 273e 0592 903b e1e8 26bd
00000030: 2bf0 18bd 073f b8bc 7713 0bbd 01ee c4bc
00000040: ef06 a13d fa54 0e3e 60ed 2bbe b64c 89bd
00000050: f6cb fd3d 4067 11be a93f eebd d6f4 3e3e
00000060: fd9a 643e 2d9d 44bd d2ad 143d 2d01 02be
00000070: 4dad 863d 6564 2abe 746f 8dbd 070b bebd
00000080: 3fa7 f1be 8dce 13be e56c 6fbe c294 70bf
00000090: e6c9 febd 6e74 e3be 94fc 0c3e ebd9 cebc
000000a0: 7c6c 533d 24e4 17bf 169d c9bd 3b9e 4abe
000000b0: bd62 cdbe 9dcc f4ba 0c36 16bf 331c f2bd
000000c0: 9ddd 60be e314 59bf 0a12 66be b6dc 0f3e
000000d0: d110 debc 46de 8cbe 9342 38bd 1234 6ebe
000000e0: 1ffd 28bf 6df1 053e 0eea f53d 3965 b5be
000000f0: 51e4 afbe a778 19bf c3af c3be d67c fabe
00000100: 5149 88bd 58c8 193e 74ee 3d3e eb9f 143d
00000110: 7e92 873d fdca ad3a 31fe 80bd 4408 183e
00000120: b1fd 96bd f3aa 193e d284 34be 7c91 273e
00000130: 31eb 17be 2d96 623c e72e 86bd 599b 3bbe
00000140: e4f6 d3bd 7772 233e f295 063e 4342 003e
00000150: 8e9d 273d 269d 493d 4028 3abe 7a1e 083d
00000160: 230f 6a3c 945d 483d 9bd5 e63d 971c 103e
00000170: 86dd cdbc 19b2 f9bc b5ba 5c3d b818 15be
0.15657051 0.080881745 0.057070173 0.030368192 0.10030127 0.11676675 0.040410887 -0.0490084
0.13343573 0.16319223 0.004411938 -0.040749434 -0.037338417 -0.022490991 -0.03395411 -0.02403927
0.078626506 0.13899603 -0.1678977 -0.067040846 0.12392418 -0.14199543 -0.11633236 0.18648085
0.22324748 -0.048001457 0.03629858 -0.12695761 0.06576023 -0.1663986 -0.069060236 -0.09279447
-0.4719791 -0.14434262 -0.23381384 -0.93976986 -0.12440853 -0.44424766 0.13768226 -0.025250396
0.05161713 -0.5933249 -0.09844415 -0.19786923 -0.40114394 -0.0018676702 -0.5867622 -0.11821785
-0.21959539 -0.84797496 -0.22467819 0.14049038 -0.027107628 -0.2751333 -0.044985365 -0.23262051
-0.6601123 0.13080378 0.12007533 -0.3542879 -0.3435388 -0.59949726 -0.38220033 -0.48923367
-0.06654609 0.15017831 0.18547994 0.036285322 0.06619738 0.0013259348 -0.06298483 0.14846903
-0.073726065 0.15006618 -0.17628792 0.16364092 -0.14835812 0.01382975 -0.06551915 -0.18320979
-0.10349825 0.15961634 0.13143137 0.12525277 0.04092174 0.049222134 -0.18179417 0.03323219
0.014285835 0.048917368 0.11271211 0.14073406 -0.025130045 -0.030480431 0.053888995 -0.1456021

Network_stack.0.1.gru.weight_ih_l0 f4 [96, 1]
00000000: 1d25 d43d 5396 163e fd60 9d3d 14c9 1d3e
00000010: 9acd aa3d 7939 1e3e 5061 3d3d 2451 c03d
00000020: 7d2a f53d 67b7 c3bc 348b d4bd 6331 013e
00000030: 5ed1 e2bd f00a 333e 565c 1e3d 872d 09be
00000040: fac6 003e 7074 e0bc 5e81 793d c79b bdbd
00000050: d285 473e 2ca3 97bd 1e9c 0dbe 0b8a eebd
00000060: 64b8 7bbd a50f 0cbe 9406 c23d 13b1 1d3e
00000070: fffb dd3d 9fa8 b93c 4a6a c83d 8409 cabd
00000080: 410e 8c3e ef19 c4be 612d e33d 1599 8cbd
00000090: 383b e83c edce 1bbd 8019 adbc 9763 013e
000000a0: d2d2 8b3c 2647 76bd ae2c 953c c498 7abe
000000b0: 765f 9dbd f50f 20bd 1d64 4c3e 32a7 8e3c
000000c0: 672c f43d 5a51 c83c d75c d8bd 4293 5a3e
000000d0: 2dfd 98be fdfa 523e 0ed9 883e 4f23 40bd
000000e0: c9cd 42bd 1bda db3d e21b 7c3d 5bfe 25be
000000f0: a19d 303d afe8 9abe 472d 71be d042 403d
00000100: 720e 263e ede0 2e3d f16f 13be dd71 ae3c
00000110: 828a 3cbe b4ad 163d 1fac c9bd a04e 21be
00000120: b899 d5bd b16a f2bd 1af8 ad3d 2fe6 2c3e
00000130: 657c a5bd 55c9 c23d d133 11be 4a97 d8bd
00000140: bdd5 1fbe d93c b0bc a62f 123e aefc 9dbd
00000150: 9b8f 153e 5667 ce3d bb71 3bbd d24d 093e
00000160: 3f05 233d 99db c03d 192e f6bd 2b57 38be
00000170: 5465 003e 6183 05bd 5c58 213e 657f ed3d
0.10358641 0.14705782 0.07684515 0.15408736 0.08339997 0.15451612 0.046235383 0.09390476
0.119709946 -0.023891164 -0.103781134 0.12616496 -0.1107509 0.17484641 0.038662277 -0.13396274
0.12575904 -0.027399272 0.06091439 -0.09258228 0.19484642 -0.074041694 -0.13829085 -0.11647423
-0.061455145 -0.13677843 0.09473911 0.1539958 0.1083908 0.022663413 0.09785898 -0.09865096
0.27354625 -0.38301036 0.1109264 -0.068651356 0.02834855 -0.038039137 -0.021130323 0.12635647
0.0170683 -0.060126446 0.018209781 -0.24472338 -0.07684223 -0.039077718 0.19960065 0.01741371
0.119225316 0.024452854 -0.10564583 0.21345237 -0.29880658 0.20603557 0.267281 -0.046908673
-0.047559533 0.1073496 0.06155003 -0.1621031 0.043119077 -0.30255648 -0.23552428 0.046938717
0.16216448 0.042694975 -0.14398171 0.021294529 -0.18412212 0.03678675 -0.098472826 -0.1575265
-0.1042971 -0.11836756 0.08494587 0.16884683 -0.08080367 0.09511057 -0.14179923 -0.10575731
-0.15608878 -0.02151339 0.14275989 -0.077142105 0.14605562 0.100783035 -0.04576276 0.13408592
0.039799925 0.09416885 -0.12020511 -0.18002002 0.12538654 -0.032595996 0.15756363 0.11596564

Network_stack.0.1.gru.weight_hh_l0 f4 [96, 32]
00000000: 3a1c bebc 6b47 cf3d e8f4 30bd df0a ca3d
00000010: 581b ef3c 0a08 ca3c 2449 1a3d 3c33 2dbc
00000020: 2310 823d a4d6 4bbe 97b6 14bd e2ec 233e
00000030: 9745 d53b 4241 5d3d ceff 123d 7b33 703d
00000040: 1e03 8bbd 5921 e1bd daa4 17be 10ab 0bbe
00000050: bf06 cd3d 1151 0e3d 7b7f 95bb 3d5b c23c
00000060: 6306 15be 920c edbd 6cc3 513d bffa 8bbd
00000070: 6f3f d83d 6cd9 a4bd 0a72 97bd 08ab d63c
00000080: 90cd 2abe 258c 61bc a738 bb3d 2699 bb3d
00000090: d37a 333e d7b4 063e d659 e83d 561a 7ebd
000000a0: 42d9 9abd ad96 d6bd 66f2 0c3d 225d e9bd
000000b0: cb4b 2d3e f83a 073e 18e8 73bd fc68 a83d
000000c0: bdf8 6dbd f337 2dbd cdda f63c 5859 f2bc
000000d0: b5a7 923c fb50 403c 15f7 9dbd f33a 22bd
000000e0: e920 5dbd e97e 263e bc83 423b 4623 17be
000000f0: f647 9fbc 9201 94bb 9fff 183e 5f26 803d
00000100: ccf0 2d3e ea05 1c3e a20f aebb f1b6 1e3e
00000110: 57b7 4b3d 0837 4d3c 0af8 c9bd bd1e 33be
00000120: 3521 203e 4ade 84bd eaf7 033d 0eb7 d3bc
00000130: 0a23 e1bd 1fc7 b03d 7f4b 92bc 913c 57bc
00000140: e064 c83d ffe3 1ebd 0312 093e 48b6 40bd
00000150: 456b e2bd 322e 463e 99d9 fa3d 0513 40bd
00000160: 565a 9e3c 436a b73d 9476 04be 1e4e 643c
00000170: b3b5 c8bd 29ef e4bd b2a1 dc3d 343b 463e
00000180: 81fa 32be 38bf 88bd 835a a33d 7d4b b53d
00000190: e822 d9bc 4fe3 06bd cc88 21bc 11d0 19be
000001a0: 3658 28be 313a 9c3c f096 e3bd 39bb fe3c
000001b0: fa9f e83d 0034 8bbc 0828 a4bc 1034 81bb
000001c0: 477b 9c3d 8991 053e b2b5 09be 8fcd 0f3e
000001d0: 9647 093e e3db 27be 1385 09be d3e9 703d
000001e0: 6327 12be 9099 59bd b80d 48bd d8a3 763d
000001f0: eceb dbbd 30d7 15bd c4be f73d b911 953d
00000200: 53ee e6bd 14e4 253d 433d a43c 0ec6 e53d
00000210: 3fb0 273d dd74 793b 50df 1a3e 4603 b3bd
00000220: 3c41 183e e879 d8bd 8fdd f9bd bcb4 363e
00000230: 71a6 1ebe b0d9 cf3d 5317 933c 3141 cdbd
00000240: 5789 30bc f66a 0dbe cb07 64bd ed60 e93d
00000250: e907 333e 1491 c3bd e279 ec3d 21b5 023d
00000260: 22c0 00be 8bcd 8f3d 4e5e c4bd c386 1dbe
00000270: 83d8 34be e9ae dabd 4e06 373e ad7d eb3d
00000280: acc3 963d 20f1 2d3e 04d1 b43d eaa7 13be
00000290: ee15 1d3e a3d4 0c3e d4c1 b1bc 7bb5 31be
000002a0: 75a6 0d3e 0443 02be f7c6 9cbd f53a a23b
000002b0: ed55 c33d 6138 213e 558c 78bd 52e1 26bd
000002c0: 8f5e 14be 1874 56bd 5844 bebd 461f 1bbe
000002d0: 1602 7c3c ec5a 403e 615c bd3c 72bd 22be
000002e0: 4a2e 033e 6995 323e 58ab 283e 9d9f 30bd
000002f0: 740c dfbd ce2b 303c a7e8 c43d 144c e1bd
00000300: 5d73 91bc a40f fd3d cc79 15be 6f09 133e
00000310: 4ddd 223e 2042 573c ac3f 6e3d 645a 24be
00000320: 1647 3a3d c5b0 8c3d 0c39 fdbd 3db2 843d
00000330: 84ab 32bc ce6b ac3d 82f0 ae3d 4d03 c0bc
00000340: d5f8 8a3d 39f8 f73d 6811 07be 12a3 dabd
00000350: a19b 373d d39f 583d a87d bcbd 7d04 13bc
00000360: ac53 ca3d ab55 653c 2fc3 df3d 890d debc
00000370: 32df 003e a538 6bbd d20e 943d c441 9dbd
00000380: 243e f23d 2388 55be 1af8 e43d 9898 54bd
00000390: 4881 473e 30f4 9e3d 5d26 1f3d 4ce4 c23d
000003a0: 9e02 253a 148a 1c3e b582 61bd 3075 30bc
000003b0: 651f 84bd 3806 023b 20a3 86bd 5857 8dbd
000003c0: 9c2b cc3d fe6a d8bc 1839 86bd 06ed 753d
000003d0: 9bd6 6fbc f950 b8bd f45c 6e3d a599 193e
000003e0: 3eba e339 ffda 15be 877c 203e 58bf f53d
000003f0: 295a ccbd a0eb db3d 74d3 2cbe 3bb1 0dbe
-0.023206819 0.10121044 -0.04320231 0.09865355 0.029187843 0.024662036 0.03766741 -0.010571297
0.06350734 -0.19906098 -0.036306944 0.16008332 0.00650854 0.054017313 0.035888486 0.058642846
-0.06787704 -0.10992689 -0.1480898 -0.13639474 0.10011052 0.03474528 -0.004562316 0.023725146
-0.14553218 -0.11574663 0.05121176 -0.068349354 0.10558974 -0.080492824 -0.07394798 0.0262046
-0.16679978 -0.013766323 0.09141665 0.0916007 0.17527322 0.13154922 0.1134526 -0.062036835
-0.0756097 -0.10477958 0.034410857 -0.11394717 0.16923444 0.13206089 -0.059547514 0.08223149
-0.058098543 -0.042289685 0.03013363 -0.029583618 0.017902235 0.011738057 -0.07713143 -0.039607
-0.053986464 0.1625935 0.002968057 -0.1475955 -0.019443493 -0.0045167888 0.14941262 0.06257319
0.16986388 0.15236631 -0.005311922 0.15499474 0.049735393 0.0125253275 -0.09861763 -0.17492194
0.15637667 -0.06487711 0.03221885 -0.025844123 -0.10993011 0.08631729 -0.017858265 -0.013136999
0.097848654 -0.038791653 0.13385777 -0.047048837 -0.11055616 0.1935356 0.12248535 -0.04689314
0.019330185 0.08955815 -0.12935859 0.01393464 -0.098002814 -0.11178429 0.107730284 0.19358522
-0.17478372 -0.06677097 0.07976248 0.08852289 -0.026505902 -0.032931622 -0.009859275 -0.15020777
-0.164399 0.019070717 -0.111127734 0.031095134 0.11358638 -0.016992569 -0.02003862 -0.003942974
0.07640701 0.13043799 -0.13448218 0.14043258 0.13406214 -0.16392474 -0.1342967 0.058816742
-0.14272837 -0.053124964 -0.04884121 0.060214847 -0.10738358 -0.036582172 0.120969325 0.07278771
-0.112759255 0.040500715 0.020048743 0.112194166 0.040939566 0.003806404 0.1512425 -0.08740859
0.14868635 -0.10570127 -0.12200462 0.17842382 -0.1549318 0.101489425 0.017955458 -0.100222
-0.010774932 -0.13810334 -0.055671494 0.1139544 0.17483486 -0.09549156 0.11546685 0.03191102
-0.12573293 0.07021626 -0.095883 -0.15383439 -0.17660718 -0.10677893 0.17873499 0.1149858
0.0736154 0.16986513 0.08828929 -0.14419523 0.15340397 0.1375299 -0.02169887 -0.17354386
0.1383303 -0.12720877 -0.07655137 0.004950876 0.095378734 0.15744163 -0.060680706 -0.040742226
-0.14489196 -0.05235681 -0.09290379 -0.15148649 0.015381357 0.18784684 0.023115339 -0.1589258
0.12810627 0.17439808 0.16471612 -0.04312097 -0.10891047 0.010752631 0.096146874 -0.11000839
-0.017755205 0.12356499 -0.14597243 0.14359067 0.15904732 0.013138324 0.05816619 -0.16050106
0.04547795 0.068696536 -0.123643965 0.06479309 -0.01090515 0.084189996 0.08541967 -0.023439074
0.06785742 0.121078916 -0.13190234 -0.106756344 0.044826154 0.052886795 -0.092036545 -0.008973238
0.098792404 0.013997476 0.109259 -0.027106063 0.12585142 -0.057427067 0.07229389 -0.076785594
0.11828259 -0.20852713 0.11180134 -0.051903337 0.1948291 0.07761419 0.038854945 0.095162004
0.00062946405 0.15287048 -0.055056293 -0.010770127 -0.064513005 0.0019840132 -0.065740824 -0.06901425
0.09969255 -0.026418205 -0.065538585 0.060040496 -0.014638568 -0.08999819 0.058194116 0.15000017
0.00043435575 -0.14634322 0.15672503 0.119993865 -0.09978134 0.10738301 -0.16877538 -0.1383714

Network_stack.0.1.gru.bias_ih_l0 f4 [96]
00000000: 4550 27be 748a e8bb 547e 1dbe 5be9 cdbd
00000010: 9097 1f3e 4194 793d c6a8 143d 97fb b1bd
00000020: 9542 6e39 ff12 10be 3433 a7bc 4bba 0b3c
00000030: 374c f33d dc56 1ebd 3191 febd 5df2 dc3d
00000040: 4d94 083e 00f3 f3bd 23c6 1a3e c55b 64bc
00000050: 66e6 9cbd 021e 9d3d 630e 07be 74b8 46bd
00000060: 8956 943d abd9 dd3d b9df c73a 6c5e e8bd
00000070: bfdb 023e 8e41 263e fa75 273e 2b5e 803d
00000080: d64a 323e ba47 6a3d 3992 463e f397 e93d
00000090: c9a8 353e 6ac8 20be f669 dc3c bc8e 0e3e
000000a0: f6fe 29be 3f8a f13d d1f0 09bd a514 df3d
000000b0: 548d 0e3e 30f5 ee3d 0092 b2bd 6915 32bc
000000c0: 96af 9dbd d560 16bd 9d98 4cbd 5b56 e53d
000000d0: 6fa9 14be a8e0 fbbd ed68 303e 9d14 00be
000000e0: 7d8f 23bd fb7c d63c dee2 b33d 1935 483e
000000f0: d0ae cc3d a64d a03d 0a50 4fbe 82d7 8c3c
00000100: 1efc 203e c188 e23c d706 2dbe 7fe9 533d
00000110: 579a 02be 1183 6b3d f6b0 b0bd 3f3d aebd
00000120: 0663 1fbe e832 683d a1c9 213c 5197 7c3c
00000130: 0259 ee3d 336f fa3b e775 6fbd 4a21 11bd
00000140: b1d5 3abd 2eeb 9fbd de27 2cbe 2977 663c
00000150: 116d 0cbe f138 0dbd 808e 1cbe 1f6e 333e
00000160: 8b22 debd ac96 37be eedc 83bd 8db7 993c
00000170: 89bc 29bd 8ae0 8dbd 3653 15be 9f85 04bd
-0.16339214 -0.007096583 -0.15380222 -0.10054275 0.1558516 0.0609324 0.036293767 -0.08690565
0.00022722252 -0.14069746 -0.020410158 0.008528302 0.11879771 -0.038657054 -0.12430037 0.107884146
0.13337822 -0.11911583 0.15114646 -0.013937895 -0.076611325 0.07671739 -0.13189082 -0.048515752
0.07243068 0.108325325 0.001524917 -0.113461345 0.12779139 0.16235945 0.16353598 0.06267961
0.1741136 0.05719731 0.19391717 0.11405935 0.17740168 -0.15701452 0.026905995 0.13921636
-0.16601166 0.117939465 -0.033676926 0.108926095 0.139211 0.116678596 -0.087192535 -0.010869362
-0.07699506 -0.03671344 -0.04995023 0.111981116 -0.14517759 -0.12298709 0.17227526 -0.12507863
-0.039931763 0.026182642 0.08783506 0.19551505 0.0999428 0.0782731 -0.20245376 0.017192606
0.15721175 0.0276531 -0.1689714 0.05173635 -0.12754188 0.05749804 -0.086275026 -0.085077755
-0.15565118 0.056689173 0.009874732 0.015416936 0.11638071 0.0076426505 -0.05846205 -0.035432138
-0.04561395 -0.07808529 -0.16812083 0.014066496 -0.1371348 -0.03447813 -0.15288734 0.17522477
-0.10846432 -0.1792857 -0.06438623 0.018764282 -0.041439567 -0.06927593 -0.14582524 -0.032353994

Network_stack.0.1.gru.bias_hh_l0 f4 [96]
00000000: 7ca6 f93d a779 cf3d d4ef 95bd 09eb 923d
00000010: 8412 953d d9ec cd3c 1b48 f83d 4f7e 193d
00000020: 85be 573c 455e 24be 2a32 df3d c22a 0e3e
00000030: d76c 91bd 84d2 9bbc 4e61 8bbd 8882 44bd
00000040: 8590 e13c 000b 9dbd d040 7b3d 6b1a 073e
00000050: 5cfa 49bd 4296 51bc 978e 053e 29de 213e
00000060: f5c3 c83d 28ed 003e 633d 17be f81d 1d3e
00000070: fbe6 20be a7bd 83bd eaea 2c3e f086 cabc
00000080: c09c ca3b c50f cb3d ebe2 b1bc 93cd d1bd
00000090: a9eb 143d 831c 10be bbaf 09be 4e63 f13b
000000a0: e8a6 003e b4a6 b53d 3d57 473e 4781 933d
000000b0: 8408 a33e aced 89bd 03a2 71bd 4934 d63d
000000c0: c8fe c8bd 5a02 1b3e 9205 093e 070f 25bd
000000d0: 7698 083e 9507 b8bc 2e5a 903d 7dca afbc
000000e0: eb48 ddbd c680 0fbe 8b93 053d 64b1 283d
000000f0: 13c1 86bd dcfa 49bc 0a17 3abe 9e97 23be
00000100: 1efa 9f3d 205b 25be d308 a23d 7cd9 dcbd
00000110: b6c8 bf3d bb72 113e acc6 d8bd 9c54 4dbc
00000120: 284e 20be 1f4c bbbd ed0e 2cbe 7581 23be
00000130: 7e1e 29be d8bc 163e 4c99 75bd cc82 03be
00000140: 5d06 acbc e4c7 573d 8941 423c c77a 77bd
00000150: b1c2 03be f948 ecbd 5b30 41be a82e 8c3d
00000160: 6d2c bcbb 032b dfbd bb7d 1abe 1a82 1b3e
00000170: e864 f9bd bd74 3ebd 006d adbd 5dce 61bb
0.121899575 0.10130625 -0.07321134 0.07173736 0.07278922 0.025137352 0.12123128 0.037473973
0.013167982 -0.16051586 0.1089824 0.13883498 -0.07100838 -0.01902128 -0.06805669 -0.047976047
0.027534733 -0.07668114 0.061341107 0.13193671 -0.049311027 -0.012792172 0.13042675 0.15807404
0.09803001 0.12590468 -0.14769511 0.15343463 -0.15713112 -0.06432658 0.16886488 -0.024722546
0.006183237 0.09915117 -0.021714648 -0.10244288 0.036357556 -0.14073376 -0.13445942 0.0073665744
0.1256367 0.08869687 0.19466873 0.07202392 0.31842434 -0.067347854 -0.058992397 0.10459191
-0.09814221 0.15137616 0.13381031 -0.040297534 0.13339409 -0.022464553 0.070484504 -0.021458859
-0.108049236 -0.14013967 0.03261141 0.041184798 -0.06579795 -0.012327876 -0.18172851 -0.15975806
0.07811378 -0.16148043 0.07911839 -0.10783669 0.093644544 0.14203922 -0.10584769 -0.0125323795
-0.15654814 -0.09145378 -0.16802569 -0.15967353 -0.16515538 0.14720476 -0.05996065 -0.12842864
-0.020999128 0.052680865 0.011856445 -0.060419824 -0.12867238 -0.11537356 -0.18866102 0.068448365
-0.0057426007 -0.10896876 -0.15087025 0.15186349 -0.121774495 -0.04649805 -0.08468056 -0.0034455277

Network_stack.0.1.gru.weight_ih_l1 f4 [96, 32]
00000000: 3ba2 14be 4574 c73d 5f25 9dbd f815 7cbd
00000010: 225a 42bd 925c 033e fc08 cc3d 1972 b8b8
00000020: d9c8 683d ab9e 663d daa4 37bd 28e0 8bbc
00000030: 2ecb c33d 9d94 1bbe 1cdf d23c e893 5e3d
00000040: cb72 b0bd d45e 0dbe ed4b 153d c63f bcbd
00000050: 156e a43d 4da3 073d f040 80bb ef26 68bc
00000060: 7f33 093c 3639 e1bd cd13 d03d 8bef 2fbe
00000070: 9d4f 0d3e e850 d03d 0150 c03d 8980 a63d
00000080: e54a debd 5111 303e 7ee0 843d 29e2 413e
00000090: 20d1 003d 90e2 fc3d 4d35 53bd 65db de3d
000000a0: 8755 a93d 61e8 bb3c 5319 88bd 2054 983d
000000b0: 2f7b 8fbd b18f 24be aca1 203e 551d bc3d
000000c0: 191e 233e a160 06bd 7297 0cbe b0e6 a2bd
000000d0: 64e0 babd c08c 0abe 28d4 2d3d ffcc 153e
000000e0: cd08 c4bd 93e7 433d a0cd cc3d 7c4c 7f3d
000000f0: 716d ed3d 05d0 a2bd e1e3 f9bd 32a6 533d
00000100: 03c5 20be 6439 fcbd 8c6b 22be aa0a 023e
00000110: fc26 f73d 118e 153e 2bf5 08ba e426 30be
00000120: 0c35 e9bc 3317 693b c679 eb3d 4f67 30be
00000130: 902c e83d 0036 6a3c 96f1 0f3a 661b aebd
00000140: c092 28be 78be 4bbd c200 1abe dd49 b4bc
00000150: d15b 2f3e 0b04 41bd ac57 bcbd fc55 c5bc
00000160: c57e 5f3d 0e23 743d 5268 883d f1c1 b73d
00000170: 50d0 9b3d 9de1 8bbd e3f0 28bd 9862 25be
00000180: 205c 21bd aea3 f93d 719a 8e3d 83d3 d0bd
00000190: 5de7 1ebe 020a 39bc a801 143e 988b ba3d
000001a0: 5fda 633d 878f a03d fc7f 5e3c 930d 543d
000001b0: b2f7 a83b 9300 183d ad06 d8bd 6b76 c73d
000001c0: 642e 373e 6211 68bd 0bee 8f3c 9daf 13bc
000001d0: a981 893d 2881 f5bd fe44 6b3d f70f 18be
000001e0: 22e5 b93c 0d64 b13d 4aa8 b1ba 54b6 8dbd
000001f0: 59b9 f4bb b344 1abe 4c24 27be 1fd5 9e3d
00000200: bfe7 163e c96c 063e ebec 44bd a040 2abe
00000210: 1759 ce3d b022 e73d 4e83 e5bd 8f8a 833d
00000220: d270 21bd 63ca 0a3e db4a 08be 7738 6a3d
00000230: af24 7bbd 89a7 543d f063 10be cb03 193e
00000240: b59f 253e 7d32 afbd 27e9 f7bd 3a24 0fbe
00000250: 84e7 9f3d 9b3e 1dbe c6de 413e e161 593d
00000260: c644 57be bb96 12be ac9a 1bbe 7edd cd3d
00000270: 022c bd3d 4e7f 5bbc 9d74 a03d 47e4 f4bb
00000280: 8a46 8b3d 3bb8 6b3e a801 7f3d 78b9 943d
00000290: 73f5 1dbd 07aa 233e 3ff5 1f3e 9d9b 2bbe
000002a0: be1f 24be 1fa4 debd 617a 143d 257e f73d
000002b0: 1656 e4bd ac95 15be c106 373d 9414 17bd
000002c0: f1d1 0c3e 014e 01bd b502 813d b13d 07be
000002d0: 1354 163e 4b4d 703e 5eb2 7f3d 751b 363c
000002e0: 6da4 2abc d3dd f23b 2ff5 1d3e 5be9 a4be
000002f0: e7ee 6f3e 7b59 093d 9ec9 503d 5802 353d
00000300: f762 e0bd 8ff2 24be f5e2 21be fadc edbb
00000310: c933 d8bd 28e4 cdbd 6925 393d 1399 0a3e
00000320: 7a97 22be 5b47 2cbd e446 c43d 1ecb 0a3e
00000330: c4e4 803d 15df ae3c d4f6 ba3b e8de 2b3e
00000340: c93d aebd dc00 6dbd e931 bebd 9947 aabd
00000350: cf0a c23d 7793 763d 7e73 5ebd 175d c0bd
00000360: 5399 b13d 9d7f fdbd 4c78 edbd 84de 773d
00000370: 34e5 04bc b3d9 e73d 84e3 3d3c 8c3a 08bd
00000380: 72f3 013e 3010 e43d 262f c9bc 6f52 9dbd
00000390: b43d 1f3e 0069 b4bc 23e9 a3bd 8ca1 cebd
000003a0: 1d68 1d3e c0d8 1b3e 04fd 623d f415 07bd
000003b0: 8b95 1ebe 8387 b7bd d672 993d d87c e7bd
000003c0: e55d 573d 0127 f23c 2651 febc a501 223e
000003d0: 3938 1e3e 8096 d1bd 80bf ed3d e913 993c
000003e0: ea93 a8bd a837 20be ea03 0fbe 1d11 c5bd
000003f0: ef77 1b3e 3e29 293e 5b94 ed3d 1ade a7bd
-0.14515011 0.097389735 -0.076731436 -0.06154439 -0.04744924 0.12828282 0.09962651 -8.795056e-05
0.05683217 0.05630366 -0.04483495 -0.01707466 0.09560238 -0.1519341 0.025741152 0.054340273
-0.08615645 -0.13805705 0.03644936 -0.09191851 0.08028809 0.03311472 -0.003913991 -0.014169439
0.008374094 -0.1099724 0.10160027 -0.17181222 0.13799901 0.10171682 0.093902595 0.08129985
-0.10854129 0.17194106 0.06488131 0.1893393 0.031449437 0.12347901 -0.051564503 0.1088169
0.08268266 0.022937955 -0.06645455 0.074379206 -0.07005917 -0.16070439 0.15686673 0.09185282
0.1592945 -0.032806996 -0.13729647 -0.079541564 -0.0912483 -0.13530254 0.042438656 0.14628981
-0.09571991 0.04782827 0.10000157 0.0623288 0.1159314 -0.07949833 -0.122016676 0.051672168
-0.15700154 -0.12315634 -0.15861338 0.1269938 0.120679826 0.14604975 -0.0005224521 -0.17202336
-0.028467678 0.0035566806 0.11497836 -0.17226909 0.113366246 0.014295101 0.0005491016 -0.085013196
-0.1646223 -0.049742192 -0.15039352 -0.022007877 0.17124869 -0.047122996 -0.091964096 -0.024088852
0.054564256 0.059603743 0.066605225 0.08972538 0.07608092 -0.06830142 -0.041245352 -0.16150892
-0.039394498 0.121894225 0.06963051 -0.10196593 -0.15517946 -0.01129389 0.14453757 0.09108657
0.055628177 0.07839876 0.013580319 0.051770758 0.0051564807 0.037109923 -0.10548148 0.09739383
0.1788879 -0.056657203 0.017569562 -0.009014037 0.06714184 -0.11987525 0.057438843 -0.1484984
0.022692267 0.08661661 -0.0013554182 -0.06919542 -0.007468384 -0.15065269 -0.1632244 0.077554934
0.14736842 0.13127436 -0.048077505 -0.16626215 0.10075586 0.11285913 -0.11206685 0.06422912
-0.039414234 0.13553767 -0.13309805 0.057182755 -0.06131428 0.051917586 -0.14100623 0.14942853
0.16174205 -0.08554552 -0.12105017 -0.13978663 0.0780783 -0.15355913 0.18932638 0.05307186
-0.21022329 -0.14315312 -0.15195721 0.10052012 0.092369094 -0.013397051 0.07834742 -0.007473502
0.06800564 0.23019497 0.06225744 0.07261938 -0.038564157 0.15982829 0.15620898 -0.1675858
-0.16027734 -0.10871147 0.036249522 0.12084607 -0.11149232 -0.14607877 0.044684175 -0.03688486
0.13751961 -0.03156853 0.062993445 -0.13207127 0.1468051 0.23466985 0.062425964 0.011114945
-0.010415179 0.0074116974 0.15425561 -0.32209286 0.23430978 0.0335326 0.050973527 0.04419169
-0.10956376 -0.16108154 -0.15809233 -0.0072590085 -0.10556752 -0.10053283 0.045201693 0.13534956
-0.15878096 -0.042060237 0.09583834 0.13554046 0.062936336 0.021346608 0.0057056937 0.1678425
-0.08507878 -0.057862148 -0.09286863 -0.083144374 0.09474718 0.060199227 -0.05430936 -0.093927555
0.086718224 -0.12377856 -0.115952104 0.06051494 -0.008111287 0.1132082 0.0115898885 -0.03325896
0.12690523 0.111359 -0.024558615 -0.076817386 0.15550882 -0.022022724 -0.08003452 -0.10089406
0.15371747 0.15219402 0.055417076 -0.03297992 -0.15486734 -0.08961394 0.07492606 -0.11303109
0.05257978 0.029559614 -0.031044554 0.1582094 0.15451135 -0.10233784 0.11608791 0.018686252
-0.08231337 -0.15646231 -0.13966337 -0.09622405 0.1518247 0.16519639 0.11600562 -0.081966594
