models/model_uniform_region_0-0.3.0.6-0.9_multiple_Agents597ff91c.pth (torch, 87266 bytes, 18 tensors)

Network_stack.0.0.gru.weight_ih_l0 f4 [96, 2]
0	0x3d625269	0.055254374
1	0xbcfed8aa	-0.031109173
2	0x3e061a4d	0.1309597
3	0x3dda47e1	0.10658241
4	0xbdcd7334	-0.10031739
5	0xbdb3fcc1	-0.08788443
6	0x3ba79314	0.0051139686
7	0x3d2b7c96	0.04186686
8	0x3d582afa	0.05277536
9	0x3dfc2879	0.12312407
10	0xba761026	-0.00093865616
11	0xbe2f8711	-0.17141367
12	0x3ddca8e8	0.10774404
13	0x3d9364dd	0.071969725
14	0x3d454ff1	0.04817194
15	0x3e11f924	0.14255196
16	0xbd6845d3	-0.056707215
17	0x3e2d9a99	0.16953506
18	0x3db6ed38	0.08931965
19	0xbd649be1	-0.05581272
20	0x3d2c49fa	0.042062737
21	0xbda43a1f	-0.08018898
22	0x3e2c53ef	0.16828893
23	0x3e2496b3	0.16073112
24	0xbe1b5981	-0.15170862
25	0x3d6cd2b4	0.05781813
26	0xbbf95f92	-0.00761027
27	0x3e398061	0.18115379
28	0xbdc806e5	-0.0976694
29	0xbc188f45	-0.009311502
30	0xbdb085f0	-0.086192966
31	0x3d59154b	0.052998822
32	0x3dbaf26f	0.09128272
33	0x3de0c658	0.10975331
34	0x3b06c268	0.0020562652
35	0xbda644bc	-0.08118579
36	0xbc8fe027	-0.017562939
37	0xbda307fb	-0.079605065
38	0xbdbf2db5	-0.0933489
39	0x3dbfdd8c	0.093684286
40	0xbbe623d3	-0.0070233135
41	0xbdc385e9	-0.09547026
42	0x3c974eab	0.018470129
43	0xbbe2905b	-0.006914181
44	0xbe353751	-0.17696883
45	0x3e1ff9f9	0.15622701
46	0xbe1fed3f	-0.15617846
47	0x3da12c9a	0.07869835
48	0xbe32c9cb	-0.1745979
49	0x3e21a363	0.15784983
50	0xbdf40ff6	-0.11917107
51	0xbd38e02e	-0.04513567
52	0xbc6c02c9	-0.014404961
53	0x3cdd3082	0.02700067
54	0x3dffbd88	0.12487322
55	0xbd07a307	-0.03311446
56	0x3ea68edf	0.32530877
57	0xbd4b07ef	-0.049568113
58	0xbe0395ea	-0.12850156
59	0xbe0976bb	-0.13424198
60	0x3d8abe37	0.06774562
61	0xbbe011d9	-0.006838065
62	0x3dfb2bf7	0.12264245
63	0x3dadab22	0.084799066
64	0x3d328b1a	0.04358969
65	0xbe7e63f3	-0.24842815
66	0x3daebad4	0.085317284
67	0xbdc2b710	-0.09507573
68	0x3deaa662	0.11457516
69	0xbcc03fb2	-0.023467872
70	0xbce76601	-0.028246881
71	0xbe824aa2	-0.25447565
72	0x3e291c3d	0.16514678
73	0xbcff8465	-0.03119106
74	0x3e1a2bdd	0.15055795
75	0xbd4449e1	-0.04792202
76	0x3dea6d98	0.114466846
77	0x3e1b97cf	0.15194629
78	0x3dd87a34	0.105701834
79	0x3b77a9f7	0.0037790516
80	0x3bbc4219	0.005745184
81	0x3dda9ad9	0.10674066
82	0xbe0f5558	-0.139974
83	0x3e28c380	0.16480827
84	0x3dac336f	0.08408248
85	0xbe7e571e	-0.2483792
86	0x3d514f20	0.05110085
87	0xbb090a5d	-0.0020910718
88	0xbe29355a	-0.16524258
89	0xbd02f32e	-0.031970195
90	0x3df865fb	0.12128826
91	0x3da1bcce	0.0789734
92	0xbd64c1bd	-0.055848826
93	0x3cfd3f64	0.030914016
94	0xbdead5e2	-0.11466576
95	0xbe9fc8d3	-0.31207904
96	0x3e3036bb	0.17208378
97	0x3b9acde5	0.0047242516
98	0xbc924184	-0.017853506
99	0x3aaec1c9	0.0013332899
100	0xbe488c13	-0.19584684
101	0xbd85196a	-0.06498988
102	0xbe254bbb	-0.1614217
103	0xbd8907bb	-0.066909276
104	0xbbfd02c7	-0.0077212784
105	0xbbe29abd	-0.006915419
106	0x3e4e983b	0.20175259
107	0xbe3d408d	-0.18481655
108	0x3e57a3ae	0.21058533
109	0xbd51f468	-0.051258475
110	0xbe3e21ae	-0.18567535
111	0xbe64f338	-0.22358406
112	0xbe521d5d	-0.20519014
113	0xbc334833	-0.010942507
114	0x3e075f09	0.13219847
115	0x3db2bff6	0.0872802
116	0x3e1b4960	0.15164709
117	0x3d3a48b9	0.04547951
118	0x3d925887	0.071457915
119	0x3e01dd50	0.1268208
120	0xbeefe64d	-0.46855393
121	0xbdd11bac	-0.10210356
122	0xbe199279	-0.14997281
123	0x3d1bd04d	0.038040448
124	0x3e0d4ee7	0.1379963
125	0x3d6be755	0.057593662
126	0x3de27003	0.11056521
127	0x3ef21fb8	0.47289824
128	0x3dbdda08	0.09270102
129	0x3e392e5a	0.18084088
130	0xbc4b0e4a	-0.0123935435
131	0x3cd1b723	0.025600022
132	0xbcba7f15	-0.022765676
133	0xbdb72507	-0.08942609
134	0x3d6fd063	0.058548342
135	0x3d2217f1	0.039573614
136	0x3d88348e	0.06650649
137	0x3e4a3414	0.19746429
138	0x3d53c3fd	0.05170058
139	0xbd369129	-0.04457203
140	0xbe38ea13	-0.18058042
141	0x3d7e0661	0.062017802
142	0x3d202a0c	0.0391026
143	0xbdd2dd95	-0.1029617
144	0xbe7b73d8	-0.2455591
145	0xbc0653c5	-0.008198683
146	0xbe736b47	-0.23771392
147	0xbe1699d0	-0.14707112
148	0x3e266d4f	0.16252635
149	0xbdd7df42	-0.1054063
150	0x3c82673a	0.015918363
151	0x3d25888a	0.040413417
152	0xbd620056	-0.0551761
153	0x3d1c6322	0.038180478
154	0xbdf7c1a8	-0.12097484
155	0x3d2a143b	0.0415232
156	0xbe5d4312	-0.21607617
157	0xbe249b9a	-0.16074982
158	0x3e22c1f6	0.15894303
159	0xbde48f5c	-0.11160156
160	0x3d3a343b	0.045459967
161	0xbdbef845	-0.093246974
162	0x3e15f06f	0.146425
163	0x3e1d4eef	0.15362142
164	0x3e33a4ed	0.17543383
165	0xbd13938c	-0.036029384
166	0x3d889d57	0.06670635
167	0x3d3ae2f9	0.045626614
168	0xbe1cf9d8	-0.15329683
169	0xbd0eb9c3	-0.034845125
170	0xbe227a88	-0.15867054
171	0x3e3ae74f	0.182523
172	0xbd31ff80	-0.043456554
173	0xbd807519	-0.062723346
174	0xbd8b6f25	-0.068083085
175	0xbd94b8ac	-0.07261786
176	0x3e04a34f	0.12952922
177	0x3de20900	0.11036873
178	0xbdd2e157	-0.102968864
179	0xbe3229d0	-0.17398763
180	0x3dd11138	0.10208362
181	0x3d9fd07f	0.07803439
182	0x3d73fb79	0.059565995
183	0xbd6fc397	-0.05853614
184	0xbe5e2fda	-0.21697941
185	0xbd132809	-0.035926852
186	0xbe68da06	-0.2273942
187	0xbe0e1666	-0.13875732
188	0x3d3b56a1	0.045736913
189	0x3d276181	0.04086447
190	0x3d8d5a5a	0.06901999
191	0x3b9fcbfa	0.004876611

Network_stack.0.0.gru.weight_hh_l0 f4 [96, 32]
0	0x3e0c3149	0.13690676
1	0x3e180ddb	0.14849035
2	0x3bfc26a0	0.007695034
3	0x3c8c04ec	0.01709219
4	0xbe132978	-0.14371288
5	0xbe1f803a	-0.15576258
6	0x3df156d7	0.117841415
7	0x3c636fb7	0.013881615
8	0x3de4970b	0.11161622
9	0x3e3b4305	0.18287285
10	0x3db7715d	0.08957169
11	0x3cf535fb	0.029932966
12	0xbdcf972b	-0.10136255
13	0xbdecb563	-0.11558034
14	0xbd946e1f	-0.072475664
15	0xbe26c158	-0.16284692
16	0xbe0f032e	-0.13966057
17	0x3db02a89	0.08601863
18	0x3e15278f	0.14565872
19	0x3d1e83f0	0.038700044
20	0x3df281b7	0.118411474
21	0x3da174e6	0.07883625
22	0xbd80c1eb	-0.06286987
23	0xbe080f7c	-0.13287157
24	0xbde01148	-0.10940796
25	0x3e040a1b	0.1289448
26	0x3e1143a3	0.14185958
27	0x3d89afe3	0.06723001
28	0x3db7bf7c	0.089720696
29	0xbd7c94d8	-0.061665386
30	0xbe1d0020	-0.15332079
31	0x3cd55f5c	0.026046447
32	0x3da11f37	0.07867282
33	0x3d925447	0.07144981
34	0xbd304d3d	-0.04304241
35	0xbd8c72cc	-0.06857833
36	0x3e0f4580	0.13991356
37	0x3d42d275	0.04756399
38	0x3e2688d4	0.16263133
39	0xbd0a3a18	-0.03374681
40	0xbe0086c0	-0.12551403
41	0x3e06eda4	0.1317659
42	0x3ce2d584	0.027689703
43	0xbb139184	-0.0022517154
44	0x3e23cc31	0.15995862
45	0x3d7cc369	0.061709795
46	0x3da65420	0.08121514
47	0xbe422a1f	-0.1896138
48	0x3d53ee7e	0.051741116
49	0xbe056e5a	-0.13030377
50	0xbcdd2337	-0.02699433
51	0x3e0ae4a8	0.13563788
52	0xbe07c38b	-0.13258187
53	0x3de0435f	0.1095035
54	0x3d27d37b	0.040973168
55	0x3e167606	0.1469346
56	0x3c9c2e29	0.01906498
57	0xbcb05ee0	-0.021529615
58	0xbe02109f	-0.12701653
59	0xbdcd72e4	-0.10031679
60	0xba6784fb	-0.00088317663
61	0xbdbbe5a1	-0.091746576
62	0xbe07b21d	-0.13251539
63	0xbcd528be	-0.026020404
64	0xbe071e90	-0.13195252
65	0xbd9de363	-0.07709386
66	0x3db0a9f1	0.08626164
67	0xbe12c349	-0.14332308
68	0x3dcf0224	0.1010783
69	0x3e1a8854	0.15091068
70	0xbdbdc285	-0.09265617
71	0xbdff6088	-0.12469584
72	0x3d2b2e3a	0.041792132
73	0x3e4533a9	0.19257988
74	0x3d874e41	0.066067226
75	0xbdf7b8f5	-0.12095825
76	0xbe0971c2	-0.13422301
77	0x3d35906b	0.04432718
78	0xbe0bad7c	-0.13640398
79	0x3d321be6	0.043483637
80	0x3d8cdb47	0.06877761
81	0xbd5811b4	-0.052751258
82	0x3c82a2bd	0.01594674
83	0xbdd10776	-0.10206501
84	0x3d7def8a	0.06199602
85	0x3d17070b	0.03687195
86	0xbd629227	-0.055315163
87	0x3d1f5e71	0.038908426
88	0xbe394764	-0.1809364
89	0x3dcdf339	0.10056157
90	0x3e1115b5	0.14168437
91	0xbd4f7c5a	-0.0506557
92	0x3e2771a6	0.16351947
93	0x3dc262bf	0.094914906
94	0xbd646685	-0.055761833
95	0x3d55f2d4	0.052233532
96	0xbdb7991f	-0.089647524
97	0xbd703229	-0.058641586
98	0x3db350b6	0.08755629
99	0xbdb21583	-0.08695509
100	0xbdcfe477	-0.10150998
101	0x3e416f02	0.18890002
102	0xbdaca562	-0.08429982
103	0x3e123a6c	0.14280099
104	0x3db3c258	0.087773025
105	0x3d7e6214	0.062105253
106	0xbdb6ee8c	-0.08932218
107	0xbd6a1a29	-0.057153855
108	0x3ddcff3f	0.10790872
109	0x3e1571d6	0.14594206
110	0xbe28717c	-0.16449541
111	0x3dfa3e96	0.122189686
112	0x3e0d41f1	0.13794686
113	0x3d12115d	0.03566109
114	0x3b14a85a	0.0022683353
115	0x3d7678f4	0.060173944
116	0x3dee14da	0.11625071
117	0x3d71db71	0.059047166
118	0x3e0736e0	0.13204527
119	0xbbc03531	-0.005865716
120	0xbd92a282	-0.07159902
121	0x3dd9ae58	0.106289566
122	0x3daf34e6	0.085550115
123	0xbab0c2e7	-0.001348582
124	0x3c55f3b8	0.013058595
125	0xbd8040a6	-0.06262331
126	0xbd1ce3c9	-0.03830317
127	0xbc8f81fb	-0.017518034
128	0xbd805f14	-0.06268135
129	0xbd140c46	-0.036144517
130	0xbd013758	-0.03154692
131	0x3c10bd29	0.008834162
132	0x3cebef14	0.028800525
133	0xbe100200	-0.14063263
134	0xbd3ff5ba	-0.046865202
135	0xbe16d19f	-0.14728402
136	0x3d64efaf	0.055892643
137	0xbd934a43	-0.07191899
138	0x3de32c7f	0.11092471
139	0x3e0be028	0.13659728
140	0xbbbdc928	-0.005791802
141	0xbdf61372	-0.12015428
142	0x3d3656c9	0.04451636
143	0xbe0080b6	-0.125491
144	0x3dbe29a9	0.0928529
145	0x3e1a8809	0.15090956
146	0x3e261866	0.16220245
147	0x3d3c4047	0.045959737
148	0x3ca1384b	0.019680163
149	0xbdbac09c	-0.091187686
150	0xbddcc2ea	-0.107793644
151	0xbe0dc222	-0.13843587
152	0x3dafbe38	0.08581203
153	0x3e3b31de	0.18280742
154	0x3d808dbd	0.062770344
155	0x3cf408f1	0.02978942
156	0x3e1bcec2	0.1521559
157	0xbd918fe1	-0.07107521
158	0x3e1bbc10	0.15208459
159	0x3daeaeab	0.08529409
160	0x3dbf7854	0.09349123
161	0x3d8498ae	0.06474434
162	0x3e04a999	0.12955321
163	0xbbf06d29	-0.0073372317
164	0x3cc054b3	0.023477888
165	0x3d3cd121	0.04609788
166	0x3e2d7721	0.16939975
167	0xbe34b965	-0.17648847
168	0x3c596eea	0.013271073
169	0x3be5c359	0.0070118126
170	0xbe0e282c	-0.13882512
171	0x3dadc935	0.08485643
172	0x3ca96688	0.020678774
173	0xbd554260	-0.052065253
174	0x3e270c34	0.16313249
175	0xbd60b25d	-0.0548576
176	0x3dc07450	0.09397185
177	0xbe0c4127	-0.13696729
178	0xbe3b0026	-0.18261775
179	0x3da0b0d5	0.07846228
180	0xbe11ff5b	-0.14257567
181	0x3d87254d	0.065989114
182	0x3d74806f	0.059692796
183	0xba228633	-0.0006199807
184	0x3c131b3f	0.008978664
185	0xbdc2dce9	-0.095147915
186	0xbdbb9c2b	-0.09160646
187	0x3e290627	0.16506253
188	0xbda35d39	-0.07976765
189	0x3df7ab99	0.120932765
190	0xbe463878	-0.19357479
191	0x3e1d2ae8	0.15348399
192	0x3d9e010f	0.07715046
193	0xbe1f7870	-0.15573287
194	0x3c8febef	0.017568557
195	0x3dd76541	0.105173595
196	0x3d923e50	0.071407914
197	0xbdca7d9b	-0.098872386
198	0xbdc734e3	-0.09726884
199	0xbe275bc0	-0.16343594
200	0xbce14f86	-0.02750374
201	0xbd8e2c37	-0.06942027
202	0xbcf052c3	-0.029336339
203	0xbe3c50da	-0.18390217
204	0xbdb8b271	-0.0901841
205	0xbc7dc169	-0.015488007
206	0x3e281628	0.16414702
207	0xbd375744	-0.044760957
208	0x3dfc4f27	0.123197846
209	0xbe279e68	-0.16369021
210	0xbd68ac69	-0.05680505
211	0xbc77aff8	-0.015117638
212	0x3d2c897d	0.042123307
213	0x3cf0bc26	0.029386591
214	0xbd8213c6	-0.06351428
215	0x3cb1c224	0.021699019
216	0x3e303054	0.17205936
217	0x3d378ab2	0.044810005
218	0xbe2509c4	-0.16117007
219	0x3bce3818	0.006293308
220	0xbe117e2d	-0.14208288
221	0x3e4817fb	0.19540398
222	0x3e163009	0.14666761
223	0xbe0a5b8a	-0.13511482
224	0xbd9b6609	-0.07587821
225	0x3e117b53	0.142072
226	0xbd3e3c28	-0.04644409
227	0xbe079d01	-0.13243486
228	0x3deb9231	0.11502493
229	0x3e0c45f1	0.13698556
230	0x3dbd286e	0.09236227
231	0xbe3cfe47	-0.18456374
232	0x3e13e983	0.14444546
233	0x3e3782f0	0.17921042
234	0x3cf1414c	0.029450081
235	0xbe405439	-0.18782128
236	0xbdcc1655	-0.09965197
237	0x3de32303	0.11090662
238	0x3e39ba7e	0.18137547
239	0x3daacaa3	0.08339431
240	0x3e19ea75	0.15030845
241	0xbe23745e	-0.1596236
242	0x3e11abd6	0.14225706
243	0xbb69a31c	-0.00356502
244	0x3da02105	0.07818798
245	0xbdf07f60	-0.11743045
246	0xbe11fe47	-0.14257155
247	0xbe062f2e	-0.13103935
248	0xbda5cd22	-0.080957666
249	0x3d732560	0.059361815
250	0x3bd482d0	0.0064853206
251	0xbdab8abf	-0.08376073
252	0xbd5de644	-0.054174677
253	0x3e17608e	0.14782926
254	0xbd98290c	-0.07429704
255	0xbe3813ab	-0.17976253

Network_stack.0.0.gru.bias_ih_l0 f4 [96]
0	0x3e225240	0.15851688
1	0x3dca13ca	0.09867056
2	0xbd281aaa	-0.041041054
3	0xbd81fb16	-0.06346719
4	0x3cf4903a	0.029853929
5	0xbd5f3d53	-0.054501843
6	0xbc9f875b	-0.019473722
7	0xbd2fbd7c	-0.042905316
8	0xbd17a761	-0.03702486
9	0x3e0ede22	0.13951924
10	0x3d96711d	0.073457934
11	0x3cad41f2	0.02114961
12	0xbd8b8d93	-0.068141125
13	0xbcadffee	-0.0212402
14	0xbe0554d1	-0.13020636
15	0x3e0250c5	0.12726124
16	0x3d6729d1	0.056436364
17	0x3e3d7083	0.18499951
18	0x3d42f253	0.04759438
19	0xbe1ca2d7	-0.15296493
20	0x3e066c97	0.13127361
21	0xbdef8470	-0.11695182
22	0xbce96df4	-0.028494813
23	0x3dd15c0a	0.10222633
24	0x3d763ac7	0.06011465
25	0xbe1101ae	-0.14160797
26	0x3c5d3d1e	0.013503341
27	0xbd71ab33	-0.05900116
28	0xbde1cae6	-0.11025028
29	0x3e4ab549	0.19795717
30	0xbdc44700	-0.09583855
31	0xbda85173	-0.0821866
32	0xbe2bdb90	-0.16782975
33	0x3db62d89	0.08895404
34	0xbe14e4f3	-0.14540462
35	0xbd6a6ef4	-0.05723472
36	0x3c77814e	0.015106512
37	0x3da21d5f	0.07915758
38	0xbd120314	-0.035647467
39	0x3e36ecd2	0.17863777
40	0x3e36b1ac	0.17841214
41	0x3dac2d56	0.08407085
42	0xbde4238e	-0.11139594
43	0xbe267dc2	-0.1625891
44	0xbe90b2a1	-0.28261283
45	0x3d3d0f1e	0.046156995
46	0x3e16325c	0.14667648
47	0xbe54641e	-0.20741317
48	0xbdaf8ca9	-0.08571751
49	0x3e4f6810	0.2025454
50	0xbd4c888c	-0.04993491
51	0xbcee4428	-0.029085234
52	0xbdee28fb	-0.1162891
53	0xbeb07006	-0.34460467
54	0xbd2931e9	-0.041307364
55	0x3d0ee9e1	0.034891013
56	0xbea2a93d	-0.31769744
57	0x3e16755e	0.1469321
58	0xbd75c217	-0.05999955
59	0x3df49a42	0.11943485
60	0x3eaa5f1a	0.33275682
61	0xbe03a1f7	-0.12854753
62	0xbd79ea6b	-0.061014574
63	0x3e861a63	0.26192006
64	0xbd9b26e5	-0.07575778
65	0x3d6fe77c	0.05857037
66	0x3e069818	0.13143957
67	0xbe2c56c6	-0.16829976
68	0x3db45c5c	0.08806679
69	0x3c4c1945	0.012457197
70	0xbe0e8443	-0.13917641
71	0xb9859fad	-0.00025486705
72	0x3d8a5a93	0.06755557
73	0x3e0a982b	0.1353461
74	0x3d91773e	0.07102822
75	0x3e02fb16	0.12791094
76	0x3e08cfd6	0.13360533
77	0xbe1205db	-0.14260046
78	0x3dd61e0f	0.10454952
79	0xbdc42071	-0.095765
80	0xbd59cbdd	-0.053172935
81	0x3d8148d2	0.063127175
82	0x3d62f7ef	0.05541223
83	0xbca305f3	-0.019900298
84	0x3e2056b8	0.1565808
85	0x3ced9328	0.029000834
86	0xbe16a305	-0.14710625
87	0x3d6f01d1	0.05835134
88	0xbe01a118	-0.12659109
89	0x3d30c852	0.04315979
90	0x3dff4441	0.1246419
91	0x3dd60bef	0.10451495
92	0x3dee0793	0.116225384
93	0x3d9a8822	0.075454965
94	0xbda43a98	-0.08018988
95	0x3afe04e5	0.0019380121

Network_stack.0.0.gru.bias_hh_l0 f4 [96]
0	0x3e0d73d1	0.13813712
1	0x3e29b785	0.16573913
2	0x3ce8acb3	0.028402662
3	0xbe124274	-0.14283162
4	0xbdf4cbcd	-0.119529344
5	0x3d88a18b	0.06671437
6	0x3e0944d4	0.13405162
7	0x3d24dec3	0.040251505
8	0xbd960f65	-0.07327155
9	0xbd8c8358	-0.06860989
10	0x3e1efa33	0.15525131
11	0x3d096bf2	0.03355021
12	0x3d9e7145	0.07736448
13	0xbcbaa378	-0.022783026
14	0x393e5e6e	0.0001815499
15	0xbc402218	-0.011726879
16	0xbd9064af	-0.07050454
17	0xbe172107	-0.14758693
18	0xbc0e66da	-0.008691514
19	0xbe156098	-0.14587629
20	0x3dd679d6	0.10472457
21	0xbccc3d7d	-0.024931664
22	0x3e421795	0.18954308
23	0xbd01227f	-0.03152704
24	0x3dd1c38c	0.10242376
25	0x3d934408	0.0719071
26	0x3d196d7d	0.03745793
27	0x3bbe55f2	0.0058085853
28	0x3e25d7c2	0.16195586
29	0x3dfecb69	0.12441141
30	0xbd1b5c85	-0.03793003
31	0x3d09d4d5	0.033650238
32	0xbddfd4d1	-0.109292634
33	0xbe181fd3	-0.1485589
34	0xbde8b7ee	-0.11363207
35	0xbd6d4b14	-0.05793293
36	0xbe8adebb	-0.27123055
37	0x3d850ec7	0.06496959
38	0x3d76d557	0.06026205
39	0x3da2a0b0	0.07940805
40	0xbd9bfd1c	-0.07616636
41	0x3e3cc396	0.18433985
42	0x3d8aa848	0.06770378
43	0xbe1f3e04	-0.15551001
44	0xbe76cf37	-0.24102484
45	0xbe4de833	-0.20108108
46	0xbce67b75	-0.02813504
47	0xbea2cd6e	-0.31797355
48	0xbeacb3b9	-0.33730868
49	0x3d8343a0	0.06409383
50	0x3de31b8d	0.11089239
51	0xbd684f8a	-0.05671648
52	0x3dad8ced	0.08474145
53	0xbe8faaeb	-0.28060088
54	0xbd73a068	-0.059479147
55	0xbe5460a7	-0.20739995
56	0xbded3cdc	-0.11583874
57	0x3e5fdf72	0.21862581
58	0xbdb23c1d	-0.08702872
59	0xbd63a3fb	-0.055576306
60	0x3e9cf3ca	0.30654746
61	0x3e089a38	0.1334008
62	0xbc82b136	-0.015953641
63	0x3ee12c4c	0.43979108
64	0x3dd48320	0.103765726
65	0xbde50388	-0.11182314
66	0x3e1ac653	0.15114717
67	0xbd8dfb30	-0.06932676
68	0xbda6be67	-0.08141785
69	0x3e1754b1	0.14778401
70	0x3cfbef6f	0.03075382
71	0x3d9f116c	0.07766995
72	0xbc793ee1	-0.015212745
73	0xbd0b784e	-0.03405028
74	0x3e38643c	0.18006986
75	0xbd80afd1	-0.06283534
76	0xbca1a9d9	-0.01973431
77	0xbe1291ad	-0.14313383
78	0xbe0e342f	-0.13887094
79	0x3e08ddd0	0.13365865
80	0xbd24b5a4	-0.04021229
81	0x3b117e7c	0.0022200635
82	0xbd0d4714	-0.034491614
83	0xbdf27beb	-0.11840042
84	0x3dfd2bd0	0.12361872
85	0x3e376e16	0.17913088
86	0xbe473d44	-0.19456965
87	0x3e2e6a4a	0.17032734
88	0x3bb184e0	0.0054174513
89	0x3d883df2	0.0665244
90	0xbe06c926	-0.1316267
91	0x3da868dc	0.08223125
92	0xbd562580	-0.052281857
93	0x3c83fab8	0.016110763
94	0x3d31fbb9	0.043452952
95	0x3e288768	0.16457903

Network_stack.0.0.gru.weight_ih_l1 f4 [96, 32]
0	0x3e0b09bd	0.13577934
1	0x3d704e7e	0.058668606
2	0x3d8e24f3	0.06940641
3	0x3db6416b	0.08899196
4	0xbb088bc3	-0.0020835258
5	0xbdd32848	-0.103104174
6	0x3d04ffec	0.03247063
7	0xbc8ee64d	-0.0174438
8	0xbccf7814	-0.025325812
9	0x3e1497a0	0.14510965
10	0x3be2c2da	0.006920201
11	0xbe10c78c	-0.14138621
12	0x3d525d7e	0.051358692
13	0xbdaafa44	-0.08348516
14	0xbd9652f4	-0.07340041
15	0xbdb16c99	-0.086632915
16	0xbd10fe7d	-0.03539895
17	0xbc529f26	-0.012855327
18	0xbe2593c6	-0.16169652
19	0xbd0d53c6	-0.03450372
20	0xbddc87c6	-0.10768084
21	0x3e020720	0.1269803
22	0xbdea0c4d	-0.114281274
23	0xbded6ba2	-0.11592795
24	0xbb6a2a3a	-0.0035730735
25	0xbd96077c	-0.07325646
26	0x3decd3a3	0.11563804
27	0x3de00acd	0.1093956
28	0xbe215451	-0.1575482
29	0x3c832d2b	0.016012749
30	0x3cc2bf31	0.023772808
31	0xbe33c6d1	-0.17556311
32	0xbc048a7e	-0.00808966
33	0x3de75dfd	0.11297224
34	0xbda9b871	-0.082871325
35	0x3d9261b1	0.071475394
36	0x3c9a675b	0.018848112
37	0x3e154744	0.14577967
38	0xbdae7a98	-0.08519477
39	0xbd9b0302	-0.07568933
40	0xbc8834bb	-0.016626706
41	0x3dddb92e	0.10826336
42	0xbe0ffb93	-0.14060812
43	0x3c98bb34	0.018643953
44	0x3e177b00	0.14793015
45	0x3e15aac2	0.1461592
46	0xbe390f97	-0.18072353
47	0xbe29a69f	-0.16567467
48	0xbd285282	-0.04109431
49	0x3daa7d91	0.08324731
50	0xbd7f86e6	-0.06238451
51	0xbd3eac3f	-0.046550985
52	0xbc7bd895	-0.015371461
53	0x3bf2e832	0.0074129337
54	0xbe13e38b	-0.1444227
55	0x3d74b934	0.059746936
56	0x3dee9beb	0.11650833
57	0xbd8132de	-0.0630853
58	0x3d6166c7	0.055029657
59	0x3c86641d	0.01640516
60	0x3dafb023	0.08578517
61	0xbd85a8b0	-0.06526315
62	0x3d956cb4	0.07296124
63	0x3dff4664	0.12464598
64	0x3d217853	0.03942139
65	0xbe4c776b	-0.1996743
66	0x3d355a54	0.044275597
67	0x3da98e65	0.08279113
68	0xbcc3ef8c	-0.023917936
69	0xbe00995c	-0.12558502
70	0xbc7b59fc	-0.015341278
71	0x3d5638fb	0.052300435
72	0x3d934fa4	0.071929246
73	0xbd99150b	-0.07474717
74	0xbc14219a	-0.009041214
75	0x3c6fff64	0.014648292
76	0x3db3ee34	0.08785668
77	0x3d26e86d	0.040749002
78	0xbdf6824e	-0.120365724
79	0xbdb2f684	-0.087384254
80	0xbe3c9e0c	-0.18419665
81	0x3e2839e5	0.16428335
82	0x3e153a67	0.1457306
83	0xbdce5d64	-0.100764066
84	0x3e349267	0.17633973
85	0x3db5464c	0.08851299
86	0xbe0372c4	-0.12836748
87	0xbe0d09ae	-0.13773224
88	0x3cf4f1b9	0.029900419
89	0xbe13cda2	-0.14433911
90	0x3e25ad6b	0.16179435
91	0xbb4108b8	-0.002945466
92	0x3ce9d11e	0.028542098
93	0x3c53ac94	0.012919564
94	0xbd8344f3	-0.064096354
95	0x3e22fa88	0.15915883
96	0x3cf43b75	0.029813508
97	0xbe372aee	-0.1788747
98	0xbd98bff0	-0.07458484
99	0x3df4cb88	0.11952883
100	0xbd50f263	-0.051012408
101	0x3d1c4435	0.038150985
102	0xbdae6de8	-0.08517057
103	0x3e0246b1	0.12722279
104	0xbd91dc2d	-0.07122073
105	0x3e33192b	0.1749007
106	0xbcab0113	-0.020874536
107	0x3c229883	0.009924057
108	0x3d96d9be	0.0736575
109	0xbd5dc92d	-0.054146934
110	0xbd15687a	-0.03647659
111	0xbe16545b	-0.14680617
112	0x3e179c63	0.1480575
113	0x3b67c651	0.0035366009
114	0x3acc28af	0.001557609
115	0x3c750e40	0.014957011
116	0x3dd34d42	0.1031747
117	0x3c4779ed	0.012175065
118	0xbd078cd5	-0.033093292
119	0xbe0a4052	-0.13501099
120	0xbdd7848d	-0.10523329
121	0x3d4b7eff	0.04968166
122	0x3dd23e30	0.102657676
123	0x3d39ac5f	0.0453304
124	0x3e33db6c	0.17564172
125	0xbd891422	-0.06693293
126	0xbd2dd028	-0.04243484
127	0x3de9498e	0.113909826
128	0x3db914ac	0.09037146
129	0xbdc6ddf3	-0.09710302
130	0x3dfd8ffe	0.1238098
131	0xbd7fe2a7	-0.062472012
132	0xbd954fcd	-0.072906114
133	0xbd288210	-0.041139662
134	0x3e07a165	0.13245161
135	0xbd723616	-0.05913361
136	0xbc8dc495	-0.017305652
137	0xbcf64dec	-0.030066453
138	0xbd6979a5	-0.057000775
139	0x3d974a73	0.07387247
140	0x3d2da083	0.042389404
141	0xbd3ae702	-0.045630462
142	0xbdb0db48	-0.086355746
143	0xbd60f77d	-0.054923523
144	0x3d14e9a5	0.036355633
145	0x3d857328	0.06516105
146	0xbe4b9a0f	-0.19882987
147	0x3d8545c4	0.06507447
148	0x3df93521	0.12168337
149	0x3e172c7e	0.14763066
150	0xbde814d1	-0.113320954
151	0x3de5c9d9	0.1122014
152	0xbe3ff47b	-0.18745606
153	0x3dedbfc2	0.116088405
154	0xbb9c37d5	-0.004767398
155	0x3dd51caa	0.10405858
156	0xbe04c540	-0.1296587
157	0xbd5a06c8	-0.053229123
158	0xbd34ddd0	-0.04415685
159	0xbe062365	-0.1309944
160	0xbdaf5d7e	-0.08562754
161	0x3de5530b	0.1119748
162	0x3d9dcb25	0.07704762
163	0x3dddd2fe	0.10831259
164	0xbd309688	-0.043112308
165	0x3cdc4e12	0.026892696
166	0xbda9549a	-0.082680896
167	0x3dc7769c	0.0973942
168	0xbd362e95	-0.044478018
169	0x3db6c1dc	0.089236945
170	0x3e01216a	0.12610403
171	0x3d0355bb	0.03206418
172	0xbd95c2b1	-0.07312525
173	0xbdb964a0	-0.09052396
174	0xbcc460b7	-0.023971898
175	0xbda63871	-0.08116234
176	0xbdb5086b	-0.08839496
177	0xbe149895	-0.1451133
178	0xbc48bb92	-0.0122517515
179	0x3b73c3b5	0.0037195508
180	0x3da206d3	0.07911458
181	0xbda7627f	-0.081730835
182	0x3e3a7d67	0.182119
183	0xbe428278	-0.18995082
184	0x3dbdf764	0.09275702
185	0xbdb49049	-0.08816583
186	0xbe2cfe6f	-0.16893934
187	0xbd806ac3	-0.06270363
188	0xbdc78d00	-0.097436905
189	0x3d0b9e0a	0.034086265
190	0x3d4d5868	0.05013314
191	0xbc9af6d7	-0.01891653
192	0x3d323872	0.04351086
193	0xbe35a119	-0.17737235
194	0xbd6c7aec	-0.057734415
195	0xbe06c3ad	-0.13160582
196	0x3e2630fb	0.16229622
197	0x3e1a4c36	0.15068135
198	0xbe1c6b6c	-0.15275353
199	0x3d8d5ea5	0.06902818
200	0xbe2c7f45	-0.16845424
201	0xbd032c1f	-0.0320245
202	0xbd80b5cd	-0.06284676
203	0x3dc539a8	0.09630138
204	0xbdcb1f82	-0.09918119
205	0x3d8b621f	0.068058245
206	0x3d1138ae	0.035454445
207	0xbe21f0b3	-0.15814476
208	0xbe010933	-0.12601165
209	0x3e38c8d0	0.18045354
210	0x3e5270a0	0.20550776
211	0x3d079965	0.033105273
212	0x3d68a721	0.05680001
213	0xbd4b495c	-0.049630508
214	0x3d886182	0.06659223
215	0x3e2a829e	0.16651389
216	0xbe189657	-0.149011
217	0x3ceb9753	0.02875868
218	0x3e1b503e	0.15167329
219	0x3de71419	0.1128313
220	0x3d63e9a8	0.055642754
221	0xbcf968be	-0.030445453
222	0xbe5884c0	-0.2114439
223	0x3c3105e0	0.010804623
224	0xbd469567	-0.048482325
225	0xbe225872	-0.15854052
226	0x3dd8a2ae	0.10577904
227	0x3e205cf8	0.15660465
228	0x3da23461	0.07920147
229	0xbcc1820e	-0.023621585
230	0xbd94761b	-0.07249089
231	0xbe216fec	-0.15765351
232	0x3d02d483	0.03194095
233	0x3db73c96	0.08947103
234	0x3dae0ecd	0.08498917
235	0xbe28fd84	-0.16502959
236	0x3da37b11	0.079824574
237	0x3e11c9d8	0.14237154
238	0x3cac8914	0.021061458
239	0x3dbf7692	0.09348787
240	0x3cbc5645	0.022990355
241	0x3df5c3c9	0.12000234
242	0xbcea5453	-0.028604662
243	0xbc987804	-0.018611915
244	0x3df06972	0.11738862
245	0xbe04e0fd	-0.12976451
246	0x3d52eb74	0.051494077
247	0xbc4b70dc	-0.0124170445
248	0xbe2c1440	-0.168046
249	0x3e08595d	0.1331534
250	0xbd1ce34d	-0.03830271
251	0x3d5f1c0b	0.054470103
252	0x3d8bc83f	0.06825303
253	0xbc95eead	-0.018302286
254	0x3c9771a4	0.018486805
255	0x3db2851d	0.087167956

Network_stack.0.0.gru.weight_hh_l1 f4 [96, 32]
0	0x3dbf9361	0.09354282
1	0xbdb43944	-0.08799985
2	0xbc817350	-0.015802056
3	0xbd91bba6	-0.07115869
4	0xbdad5a3d	-0.08464477
5	0xbbc24a61	-0.005929277
6	0x3b3ac9f4	0.002850172
7	0x3db39cb6	0.087701246
8	0x3dc0da87	0.09416681
9	0x3c1816a0	0.009282738
10	0x3d9475ab	0.07249006
11	0xbdc53c1d	-0.09630606
12	0xbdd18940	-0.102312565
13	0xbd40ed0d	-0.04710107
14	0xbd7ee7d1	-0.062232796
15	0x3daf893a	0.08571096
16	0xbda3af60	-0.079924345
17	0x3d9bb7ab	0.07603391
18	0x3c4da60a	0.012551794
19	0xbd86bc22	-0.06578852
20	0xbe03956d	-0.1284997
21	0x3deb0fb9	0.11477608
22	0xbd3a416d	-0.04547255
23	0x3c9e7538	0.019343004
24	0xbd782512	-0.060582228
25	0xbdcd6d52	-0.10030617
26	0xbdc01547	-0.09379058
27	0x3de2077a	0.11036582
28	0x3e3954e4	0.1809879
29	0x3d5f5240	0.0545218
30	0xbcfc18bf	-0.030773519
31	0x3e2173ae	0.15766785
32	0x3e32f950	0.17477918
33	0x3d4e66e5	0.050391097
34	0xbe348b7b	-0.17631333
35	0x3d844849	0.064591
36	0x3ddf1927	0.10893469
37	0xbdf707d4	-0.1206204
38	0x3df29704	0.1184521
39	0xbe3568d5	-0.17715771
40	0x3d049668	0.03237
41	0xbe250e1b	-0.16118662
42	0xbe40c7df	-0.18826245
43	0xbd9a5cec	-0.07537255
44	0xbe1a52e7	-0.15070687
45	0xbe1f63eb	-0.1556546
46	0xbdb2b17b	-0.08725258
47	0x3e1f2384	0.15540892
48	0xbd5f599e	-0.054528825
49	0xbe0ff75e	-0.14059207
50	0x3d119aa0	0.035547853
51	0x3dbbb15d	0.09164689
52	0x3dfd7168	0.12375146
53	0x3b4a05ee	0.0030826288
54	0x3c600c09	0.013674744
55	0x3e022845	0.12710674
56	0x3d033cf5	0.032040555
57	0x3d1c392f	0.038140472
58	0xbcef5e99	-0.029219912
59	0xbde0ca9e	-0.10976146
60	0xbe3b5469	-0.18293919
61	0xbe42493f	-0.18973254
62	0x3e256e95	0.16155465
63	0xbd6709d0	-0.056405842
64	0xbdd94693	-0.10609164
65	0x3d29960d	0.041402865
66	0xbe1db055	-0.15399297
67	0x3dff590c	0.12468156
68	0x3d729640	0.05922532
69	0xbd4d1a54	-0.050073937
70	0x3d23526d	0.03987353
71	0x3d05804b	0.032593053
72	0x3e0d5a8b	0.1380407
73	0xbd42b347	-0.047534253
74	0xbe29acb3	-0.16569786
75	0xbd8dbbcc	-0.06920585
76	0x3de22ae8	0.1104334
77	0xbd17a979	-0.037026856
78	0xbdce723d	-0.10080383
79	0xbd7382d7	-0.05945095
80	0xbe1b3e07	-0.1516038
81	0xbd94be0f	-0.07262813
82	0x3cd181c2	0.025574569
83	0xbe021a39	-0.12705316
84	0xbdc774c8	-0.09739071
85	0x3d644e72	0.055738874
86	0xbca1c2bc	-0.019746177
87	0xbe1c7f72	-0.15282992
88	0xbcf73416	-0.030176204
89	0x3dabafe8	0.08383161
90	0x3e3493c5	0.17634495
91	0xbd8a0fbe	-0.06741284
92	0x3d884252	0.066532746
93	0x3e15e63b	0.14638607
94	0x3bba8ff8	0.005693432
95	0xbb78a40a	-0.0037939572
96	0x3e004b72	0.1252878
97	0xbceb2bf1	-0.028707476
98	0x3e063b33	0.1310852
99	0x3e2d6939	0.1693467
100	0x3e12ba2c	0.14328831
101	0x3de001ce	0.10937844
102	0x3e4f5d0b	0.20250337
103	0xbe1d0c49	-0.15336718
104	0xbdde54f7	-0.108560495
105	0x3da99ca6	0.082818314
106	0xbe071f96	-0.13195643
107	0x3c0b3f5f	0.008498996
108	0xbdddb90d	-0.10826311
109	0x3d92ca02	0.07167436
110	0xbd29a87d	-0.04142045
111	0xbe131a55	-0.14365514
112	0x3e17d7e7	0.14828454
113	0x3dddc1a7	0.10827952
114	0xbda4bee6	-0.080442235
115	0x3d691d44	0.056912675
116	0x3d51ec75	0.051250894
117	0x3e4e2077	0.20129572
118	0xbcf7345f	-0.03017634
119	0x3d8ef863	0.0698097
120	0x3e2e1c1b	0.17002909
121	0x3da327bf	0.07966565
122	0x3d0bb33d	0.03410648
123	0x3e1ac86e	0.1511552
124	0x3e1790cf	0.14801334
125	0x3de3fe6f	0.11132514
126	0x3d956e3c	0.07296416
127	0xbe02edaa	-0.12785974
128	0x3e461860	0.19345236
129	0x3c214e0e	0.00984527
130	0x3dd3633b	0.10321661
131	0x3e0ab475	0.13545401
132	0x3d9ca14c	0.076479524
133	0xbdd1680c	-0.102249235
134	0x3d3942b7	0.04522964
135	0xbcc9a6cf	-0.024615673
136	0x3e26e4fb	0.16298287
137	0xbe351d1d	-0.17686887
138	0xbdb6540e	-0.08902751
139	0xbe1955b0	-0.14974093
140	0xbe18bc70	-0.14915633
141	0x3e16db9c	0.14732212
142	0x3de07fa0	0.109618425
143	0x3c875751	0.016521128
144	0xbe1cd95b	-0.1531729
145	0xbcbcba85	-0.023038158
146	0xbc9e5209	-0.019326227
147	0xbe04b29e	-0.12958762
148	0xbcce9eea	-0.02522226
149	0x3e1b9274	0.15192586
150	0xbcc24da7	-0.023718668
151	0xbd586a2e	-0.052835636
152	0xbdb9bec9	-0.090695925
153	0xbe3edaf6	-0.18638214
154	0x3d5a540d	0.053302813
155	0x3cbffd46	0.0234362
156	0x3dacb39d	0.08432696
157	0xbe45c517	-0.19313465
158	0x3ce40de7	0.02783866
159	0xbd610657	-0.054937687
160	0xbd6ce588	-0.057836086
161	0x3da12fe2	0.07870461
162	0x3e2e7845	0.17038067
163	0xbdcdf1d3	-0.1005589
164	0x3dbf5264	0.09341887
165	0x3dd7f86f	0.10545432
166	0x3d11127f	0.03541803
167	0xbdc663f3	-0.096870326
168	0x3df03092	0.11728014
169	0xbb71228f	-0.003679428
170	0xbdeb235d	-0.114813544
171	0x3deedc7f	0.1166315
172	0x3c07c78e	0.008287324
173	0x3beb327d	0.0071776495
174	0xbdbaa734	-0.09113923
175	0xbe29980b	-0.16561906
176	0xbd97f9d0	-0.07420695
177	0x3c2d6123	0.010582241
178	0x3d10cb70	0.035350263
179	0x3d5788fa	0.052620865
180	0x3df6e90b	0.12056168
181	0x3e258107	0.16162501
182	0xbe0a5280	-0.13508034
183	0x3df90450	0.12159026
184	0x3ddae044	0.106873065
185	0xbd4ae898	-0.049538225
186	0xbd57b985	-0.05266716
187	0x3dca57fb	0.09880062
188	0x3dd92bd2	0.10604061
189	0x3df40964	0.119158536
190	0x3cbb51a6	0.022866081
191	0xbd6f1823	-0.058372628
192	0x3d67fa02	0.05663491
193	0xbd806551	-0.062693246
194	0x3cfc6684	0.030810602
195	0xbdd40ac2	-0.103536144
196	0x3d6bc69d	0.05756246
197	0x3dd69818	0.10478228
198	0x3d586286	0.052828334
199	0x3d727350	0.059192
200	0xbcf4e571	-0.029894562
201	0x3e072bac	0.13200253
202	0xbe2e873e	-0.17043778
203	0xbdb7f442	-0.08982135
204	0x3d6b23a9	0.057407055
205	0x3caa8f21	0.020820202
206	0x3e1c7507	0.15279017
207	0xbdf03699	-0.11729164
208	0xbccc3916	-0.024929564
209	0xbd886ee7	-0.06661778
210	0xbd49d01d	-0.049270738
211	0xbddb0266	-0.10693817
212	0xbcc4b20d	-0.024010682
213	0xbe42ed36	-0.19035801
214	0x3d9e6d48	0.077356875
215	0xbe486623	-0.19570212
216	0xbda50058	-0.08056706
217	0xbe2349c8	-0.15946114
218	0xbdb78ed3	-0.089627884
219	0xbd8f81a2	-0.07007147
220	0xbdf30fab	-0.11868223
221	0x3e508d3c	0.20366377
222	0x3af23765	0.0018479644
223	0xbe1db576	-0.15401253
224	0x3e0b74f4	0.13618833
225	0x3dc6fdf4	0.097164065
226	0xbbbdc13a	-0.0057908567
227	0xbdea9688	-0.11454493
228	0x3d4a4a27	0.049387123
229	0xbdf87448	-0.12131554
230	0xbdd5af45	-0.10433821
231	0x3d97e0a8	0.07415897
232	0x3ddd223e	0.10797547
233	0xbd6b1c4b	-0.05740003
234	0xbdefa043	-0.11700489
235	0xbe0771de	-0.1322703
236	0xbe0b96d3	-0.13631754
237	0xbd2c7746	-0.042105936
238	0xbb280a68	-0.0025640968
239	0x3e11e925	0.14249094
240	0xbddd49ee	-0.108051166
241	0x3daf4e03	0.085598014
242	0xbd3221bc	-0.043489203
243	0x3e10949d	0.14119191
244	0x3d434cda	0.047680713
245	0xbe02f1ea	-0.12787595
246	0xbdb3f51d	-0.08786986
247	0x3e06d072	0.13165453
248	0x3e081394	0.13288718
249	0x3e2a0e49	0.16607012
250	0xbe0399b1	-0.12851597
251	0x3d38aef0	0.04508871
252	0x3d4ffe40	0.05077958
253	0xbd91770f	-0.07102787
254	0xbd2b4d00	-0.04182148
255	0x3e0908c6	0.13382253

Network_stack.0.0.gru.bias_ih_l1 f4 [96]
0	0xbd2f7866	-0.04283943
1	0x3e173b92	0.14768818
2	0xbac2f0d4	-0.0014872798
3	0xbd8c1c52	-0.06841339
4	0xbdb9b525	-0.09067754
5	0x3c52f7c5	0.012876456
6	0xbdf28f93	-0.11843791
7	0xbd85c48b	-0.06531628
8	0xbdeff106	-0.117158934
9	0x3dd1c69a	0.10242958
10	0xbe043ec1	-0.12914564
11	0x3c843f46	0.016143452
12	0xbd2a65b9	-0.041600917
13	0x3d939396	0.07205884
14	0xbd3e42ad	-0.046450306
15	0xbe2b47f5	-0.16726668
16	0xbb2e3159	-0.0026579706
17	0xbdd20248	-0.10254341
18	0xbe10bfa1	-0.141356
19	0x3e0c2055	0.13684209
20	0x3a3fb18e	0.00073125295
21	0x3c9b8e02	0.018988613
22	0x3dc4bfa3	0.09606864
23	0x3d6752a4	0.056475297
24	0xbc0690e1	-0.008213253
25	0xbe026128	-0.12732375
26	0xbd9fec26	-0.078087136
27	0x3d068f88	0.032851726
28	0x3e1bb7f3	0.1520689
29	0xbc65aa98	-0.0140177235
30	0x3dbb4924	0.0914481
31	0xbbd75bb0	-0.0065722093
32	0xbc391343	-0.011296096
33	0x3cdc7fa0	0.026916325
34	0x3da9167c	0.08256242
35	0xbd410738	-0.047126025
36	0xbe6d4214	-0.23169738
37	0xbde05d90	-0.10955346
38	0xbe666bba	-0.22502032
39	0x3dcf4b40	0.10121775
40	0xbe86f35d	-0.26357546
41	0xbdc51fc7	-0.09625202
42	0xbe20c967	-0.15701829
43	0xbd1862b5	-0.03720351
44	0x3de022f4	0.10944167
45	0x3ebabc9d	0.36472026
46	0x3d66649d	0.056248296
47	0xbcb6e7ee	-0.02232739
48	0x3de07a8f	0.10960876
49	0x3dffc819	0.124893375
50	0xbdcb5aae	-0.09929405
51	0xbf516874	-0.8180001
52	0x3cc63fce	0.024200346
53	0xbd495e82	-0.049162395
54	0xbccd2b1a	-0.025044966
55	0xbdedfced	-0.116205074
56	0xbd32bcf0	-0.043637216
57	0xbd424f34	-0.047438815
58	0x3cc6ed73	0.024283146
59	0xbe990eb4	-0.2989403
60	0xbc9831db	-0.01857846
61	0x3c89e891	0.01683453
62	0xbe8eb4ee	-0.27872413
63	0x3e2cbff8	0.16870105
64	0x3db9da07	0.090747885
65	0xbd5fefbd	-0.05467199
66	0xbe1e4f90	-0.15460038
67	0xbdd38af1	-0.10329235
68	0x3d6dbb09	0.0580397
69	0xbd4a32e9	-0.049364958
70	0x3e1cd6df	0.15316342
71	0xbe332414	-0.17494231
72	0x3e3e0c39	0.1855935
73	0xbe1ccfd6	-0.15313658
74	0xbdd91826	-0.10600309
75	0xbdf1f509	-0.11814315
76	0x3de41afe	0.11137961
77	0xbca9669e	-0.020678815
78	0xbded07e4	-0.11573771
79	0x3d7d523a	0.061845995
80	0x3e08b9a7	0.13352071
81	0x3d320bf2	0.043468423
82	0x3cd1fcc1	0.025633218
83	0xbca04eb4	-0.019568779
84	0xbe4cf0f2	-0.20013788
85	0xbddc5879	-0.10759062
86	0x3dc1e3d1	0.09467281
87	0xbdfc6e98	-0.123257816
88	0x3da5e6e1	0.08100677
89	0xbca70c46	-0.020391595
90	0xbd3866cd	-0.045019913
91	0x3e162c89	0.14665426
92	0xbca710e0	-0.020393789
93	0xbdc49420	-0.09598565
94	0xbd7ec95f	-0.06220376
95	0xbdc0b39e	-0.09409259

Network_stack.0.0.gru.bias_hh_l1 f4 [96]
0	0xbe16251e	-0.14662597
1	0xbd870bec	-0.06594071
2	0x3e2f2b5a	0.17106381
3	0x3d9447af	0.07240235
4	0x3e4e2cf8	0.20134342
5	0x3d281ee3	0.04104508
6	0x3d9ef5ef	0.07761752
7	0xbe306b16	-0.1722835
8	0xbddc5e59	-0.10760183
9	0xbe299e92	-0.16564396
10	0xbe09cd3a	-0.13457194
11	0xbc6f9228	-0.014622249
12	0xbd631d01	-0.055447582
13	0x3c6c4385	0.014420395
14	0x3d69049c	0.05688916
15	0x3decf8f4	0.115709215
16	0x3e1b3447	0.15156661
17	0xbcbdd7e7	-0.02317424
18	0xbe26ea6d	-0.16300364
19	0x3ea5a94e	0.32355732
20	0x3d16648a	0.036716975
21	0x3d777bb5	0.06042071
22	0x3c9fc901	0.019505026
23	0xbdfa3dbe	-0.12218808
24	0xbb0d124b	-0.0021525796
25	0x3d96ccc2	0.07363273
26	0xbd0f63c8	-0.03500727
27	0xbe1ffd0b	-0.15623872
28	0x3e0cabdd	0.13737436
29	0x3e0f4137	0.13989721
30	0xbdc4e42e	-0.09613834
31	0xbcca4efa	-0.024695862
32	0xbde1c742	-0.110243335
33	0xbe296484	-0.1654225
34	0xbe38b6a6	-0.18038425
35	0xbdf3f4e3	-0.11911943
36	0xbeba6b31	-0.36409906
37	0x3bb81e81	0.0056188707
38	0x3d329263	0.043596637
39	0xbbf2f856	-0.007414858
40	0xbe8eb52b	-0.27872595
41	0x3d901ddd	0.07036946
42	0xbe336c04	-0.17521673
43	0x3c3d1f01	0.011543036
44	0xbd2963e2	-0.04135502
45	0x3df03cf2	0.117303744
46	0xbd078c89	-0.03309301
47	0xbe8d27f5	-0.27569547
48	0xbd03433e	-0.03204655
49	0x3d38d943	0.045129072
50	0x3c123895	0.008924623
51	0xbf680144	-0.9062693
52	0x3c0eece9	0.008723476
53	0xbe3b83c7	-0.18311988
54	0xbd1d3a0a	-0.03838543
55	0xbde95830	-0.113937736
56	0xbe5288e6	-0.20560035
57	0xbc1ae1b3	-0.009453225
58	0xbde0430b	-0.109502874
59	0xbe87fb63	-0.2655898
60	0xbe319723	-0.1734281
61	0x3e9e6968	0.30939794
62	0xbea9530e	-0.33071178
63	0x3e400bd6	0.18754515
64	0x3d70917a	0.058732487
65	0xbd64219a	-0.055696107
66	0xbde7df74	-0.11321917
67	0x3e18d8e4	0.14926487
68	0x3e30a973	0.1725214
69	0x3e194242	0.14966682
70	0x3defc7b3	0.117080115
71	0x3d8d2b89	0.06893069
72	0xbcc967d3	-0.02458564
73	0xbe10ebba	-0.14152423
74	0x3d1823ac	0.037143394
75	0xbcf74671	-0.030184956
76	0x3d74cd27	0.05976596
77	0xbd54ad77	-0.05192324
78	0x3d7686c0	0.0601871
79	0xbc57f6b9	-0.013181382
80	0x3d195f60	0.037444472
81	0x3e1c7895	0.15280373
82	0x3d98cbca	0.07460745
83	0x3dcb9367	0.09940224
84	0xbd0f358f	-0.034963187
85	0x3e2e61b9	0.17029466
86	0xbd89131b	-0.06693097
87	0x3c6a4e44	0.014300887
88	0xbddf5711	-0.109052785
89	0x3d8e4372	0.06946458
90	0x3c91de8f	0.01780632
91	0xbd97fc87	-0.07421213
92	0x3e316ceb	0.17326705
93	0x3debfaf3	0.11522474
94	0xbc52c4ab	-0.012864272
95	0x3cb559fd	0.022137636

Network_stack.1.0.gru.weight_ih_l0 f4 [96, 2]
0	0x3d058d39	0.032605384
1	0x3df3dad2	0.11906971
2	0xbdb387e5	-0.08766154
3	0xbd3ada56	-0.045618378
4	0x3d264a38	0.040598124
5	0xbe1ed6c5	-0.15511616
6	0x3e37b802	0.17941287
7	0xbdaedc11	-0.08538068
8	0x3d7477fa	0.05968473
9	0xbd57d753	-0.052695584
10	0x3d63671e	0.055518262
11	0xbde588bb	-0.1120772
12	0xbd7464e2	-0.05966652
13	0x3d1d5f6c	0.03842108
14	0xbe4d273d	-0.200345
15	0x39f457f3	0.00046604834
16	0x3cb61f5b	0.022231748
17	0x3dcb4235	0.09924737
18	0x3db18b21	0.08669115
19	0x3d7c1a44	0.061548486
20	0xbe12ed2a	-0.14348283
21	0x3e3d6400	0.18495178
22	0xbddebc85	-0.10875801
23	0xbe16fe5b	-0.14745466
24	0x3e0dd3b9	0.13850297
25	0xbca9a13c	-0.020706765
26	0xbcb67c07	-0.022275938
27	0x3d85af9c	0.065276355
28	0xbe02028c	-0.12696284
29	0xbe501e47	-0.2032405
30	0xbe1acd9b	-0.15117495
31	0x3da0b146	0.07846312
32	0x3daa40dd	0.08313153
33	0x3e7d8863	0.24759059
34	0xbc8a40ad	-0.016876543
35	0x3e1f305e	0.15545794
36	0x3e232e4f	0.15935634
37	0x3d04625a	0.032320358
38	0xbe3ea00c	-0.1861574
39	0x3e099708	0.1343652
40	0xbe1ce0f0	-0.15320182
41	0xbe51ca13	-0.20487241
42	0xbd89c66a	-0.067272976
43	0x3e037f84	0.12841612
44	0xbe0063b7	-0.12538038
45	0x3e8696bd	0.2628688
46	0xbe1a0823	-0.15042166
47	0xbddd2ead	-0.10799918
48	0x3d0d48f0	0.034493387
49	0xbdfb28b0	-0.1226362
50	0xbdeab313	-0.11459937
51	0x3e58f7f4	0.21188337
52	0x3e156e08	0.14592755
53	0x3c93dfea	0.018051106
54	0x3c6a9d18	0.014319681
55	0xbadd3c70	-0.0016878974
56	0x3e2908b7	0.1650723
57	0xbd313f90	-0.04327351
58	0x3da31dcb	0.07964667
59	0x3e3a274c	0.18179053
60	0xbd916bbf	-0.07100629
61	0xbc2abc36	-0.01042085
62	0xbe2b9e24	-0.16759545
63	0xbd83df4b	-0.06439074
64	0x3e245c37	0.16050802
65	0x3d2c3844	0.042045847
66	0x3d5650d7	0.05232319
67	0x3e3d552a	0.18489519
68	0x3dca6b86	0.0988379
69	0x3e0007aa	0.12502924
70	0xbdaabb52	-0.0833651
71	0x3e6a202e	0.22863838
72	0x3d7db811	0.061943118
73	0x3e24b495	0.16084512
74	0xbe5accc2	-0.21367171
75	0x3d720782	0.05908919
76	0xbe95662f	-0.29179522
77	0x3d204a6d	0.039133478
78	0xbd89c920	-0.06727815
79	0x3d2e3e41	0.04253984
80	0xbe9ec885	-0.3101236
81	0xbd2c2a2c	-0.042032406
82	0xbe180be7	-0.1484829
83	0xbe03360d	-0.12813587
84	0x3ecd1b96	0.4006011
85	0x3eedbd7f	0.46433637
86	0x3afc7ef1	0.0019263906
87	0xbe45255d	-0.19252534
88	0x3d6fe70d	0.058569957
89	0x3ef79df3	0.48362693
90	0x3d3380e4	0.04382409
91	0xbe54b18a	-0.20770851
92	0x3ca72f9d	0.020408446
93	0x3e1f0eec	0.15533036
94	0xbf4a013f	-0.7890815
95	0xbd9356aa	-0.07194264
96	0xbee31591	-0.4435239
97	0x3d0183f0	0.031619966
98	0xbe79aa2e	-0.24381325
99	0xbdb1a876	-0.086747095
100	0xbe39ec99	-0.18156661
101	0x3ceb01c3	0.028687363
102	0xbdb5054d	-0.08838902
103	0x3c6b1f09	0.014350661
104	0xbf10982b	-0.5648219
105	0xbe56254f	-0.2091267
106	0x3cf3d6d9	0.029765533
107	0x3e576ca3	0.21037535
108	0xbef3788b	-0.47552904
109	0xbf17351a	-0.590654
110	0xbe3838ad	-0.1799037
111	0xbf27c752	-0.65538514
112	0x3d904ca5	0.07045869
113	0x3f134a0a	0.5753485
114	0xbe15c7f0	-0.14627051
115	0xbe7ed4f0	-0.24885917
116	0xbddccd1e	-0.107813105
117	0x3db79353	0.08963647
118	0x3e6dd92d	0.23227377
119	0x3f3efeb4	0.74607396
120	0xbc3958ad	-0.011312646
121	0x3d43362f	0.047659095
122	0x3d7216b8	0.059103698
123	0x3e3dd399	0.1853775
124	0xbf2d1af8	-0.67619276
125	0xbe87eb49	-0.26546696
126	0xbe3a7654	-0.18209201
127	0xbe89712b	-0.26844153
128	0x3dc53869	0.096299
129	0x3e4d8200	0.20069122
130	0x3d5bd717	0.053671923
131	0x3d1ceea3	0.03831352
132	0x3da28e04	0.079372436
133	0x3d9474fe	0.07248877
134	0x3e3cd28d	0.18439694
135	0x3e2e94fa	0.17049018
136	0x3d02ec65	0.031963725
137	0xbc5004cb	-0.012696455
138	0xbce9033b	-0.028443923
139	0x3e05cd95	0.13066705
140	0x3ddfb1eb	0.10922607
141	0xbe7b1c23	-0.24522452
142	0xbe0108c1	-0.12600996
143	0x3da41181	0.08011151
144	0x3d48fe66	0.04907074
145	0xbe105f51	-0.1409886
146	0x3d4b5718	0.049643606
147	0x3dd5639b	0.10419389
148	0xbdcd2447	-0.10016685
149	0xbb3091ea	-0.002694244
150	0x39b967df	0.0003536334
151	0x3e7c9965	0.2466789
152	0xbdfd2932	-0.12361373
153	0x3d9931eb	0.07480224
154	0xbdbb9cc3	-0.09160759
155	0xbdd2920b	-0.10281762
156	0x3c217d01	0.009856463
157	0x3df145c3	0.11780884
158	0x3e11fe83	0.14257245
159	0xbe453d4d	-0.19261666
160	0xba2085f9	-0.0006123479
161	0x3e2e0a4b	0.16996114
162	0x3e0babaf	0.13639711
163	0xbe036d86	-0.12834749
164	0xbad46b7a	-0.0016206347
165	0xbd2a156a	-0.04152433
166	0xbd831a81	-0.064015396
167	0x3e3d3349	0.18476595
168	0xbe11336b	-0.1417977
169	0x3e74bb19	0.23899497
170	0x3c603add	0.013685909
171	0xbdeca71d	-0.11555312
172	0xbdb0b5fc	-0.08628461
173	0x3e6f0ed7	0.23345505
174	0x3e1830c1	0.14862348
175	0x3d8bbb47	0.0682283
176	0x3de417d3	0.111373566
177	0xbe1ace3c	-0.15117735
178	0x3a787a80	0.0009478703
179	0x3e669ffc	0.22521967
180	0x3d88a66d	0.06672368
181	0x3db2cd68	0.087305844
182	0x3dcb72f5	0.09934036
183	0x3d9e97ff	0.07743835
184	0xbd0fe9b9	-0.035135005
185	0x3dc436aa	0.09580739
186	0xbe231c41	-0.15928747
187	0x3e43221c	0.1905598
188	0x3e4ca790	0.19985795
189	0x3e2c8e11	0.16851069
190	0x3d8503e8	0.06494886
191	0x3e5ca4d7	0.21547256

Network_stack.1.0.gru.weight_hh_l0 f4 [96, 32]
0	0x3dcb0cc4	0.09914544
1	0x3ce4d64f	0.027934222
2	0xbd59c54e	-0.05316668
3	0x3d1b926c	0.037981436
4	0xbd834ee4	-0.064115316
5	0xbc729341	-0.014805616
6	0x3ddffb42	0.109365955
7	0xbe32a09c	-0.1744408
8	0x3dd626f4	0.104566485
9	0x3e9dcf06	0.3082201
10	0x3e55f48a	0.20894065
11	0x3e2ebd55	0.17064412
12	0xbd568834	-0.052375987
13	0xbeabf6b5	-0.3358666
14	0x3dc5722d	0.09640918
15	0x3d0cfe42	0.034422167
16	0xbd2b4774	-0.04181619
17	0xbe895f7f	-0.2683067
18	0x3e2d45ae	0.16921112
19	0x3eaff904	0.3436967
20	0xbe9b232b	-0.3030027
21	0x3e5bf110	0.21478677
22	0x3e8b03a8	0.27151227
23	0x3df6eb33	0.120565794
24	0x3eb374b6	0.3504998
25	0x3db9d819	0.090744205
26	0x3e2cb3cf	0.16865467
27	0x3e5fd841	0.21859838
28	0x3dfd7b53	0.12377038
29	0x3dd57fcb	0.10424765
30	0xbe0a6e08	-0.13518536
31	0x3ea70ac6	0.32625407
32	0x3c954268	0.018220142
33	0x3e2d775b	0.16940062
34	0x3e02f5be	0.12789056
35	0x3d6c75ec	0.057729647
36	0x3db3799c	0.087634295
37	0xbe3bb92d	-0.18332358
38	0xbd21628e	-0.03940063
39	0xbacba7b4	-0.001553765
40	0x3d2994ee	0.041401796
41	0xbddc1cbd	-0.10747669
42	0xbe22ee06	-0.15911111
43	0xbc82d5dc	-0.015971117
44	0xbcb548cf	-0.022129444
45	0xbc8e2bf0	-0.017354935
46	0xbe0e4f8d	-0.13897534
47	0x3e08777b	0.13326828
48	0xbda9f1c5	-0.08298067
49	0xbcf292bc	-0.029610984
50	0xbda63942	-0.0811639
51	0xbde73239	-0.11288876
52	0xbcb67215	-0.022271195
53	0x3e1e87cb	0.15481488
54	0xbe29e20a	-0.16590133
55	0x3db1b1ae	0.08676468
56	0x3cc991cc	0.024605654
57	0x3d1a9d13	0.037747454
58	0x3d0d70ff	0.03453159
59	0x3d764ea0	0.060133576
60	0x3d9fa9f1	0.077960856
61	0xbdbd87a6	-0.092543885
62	0xbe028810	-0.12747216
63	0x3e064dc8	0.13115609
64	0x3c3a6cbd	0.011378464
65	0x3c8c410e	0.017120864
66	0xbba0f81f	-0.004912391
67	0x3d6b548f	0.05745369
68	0xbd99ecac	-0.07515845
69	0xbde071d3	-0.1095921
70	0xbc19bc9f	-0.00938335
71	0xbd30f38e	-0.04320102
72	0x3d62f142	0.055405863
73	0x3c558d6d	0.013034207
74	0xbd755926	-0.05989947
75	0xbc5a4f5f	-0.013324588
76	0xbded0313	-0.11572852
77	0x3ddebb30	0.10875547
78	0xbddebd54	-0.10875955
79	0x3d696956	0.05698522
80	0xbdaaeeec	-0.08346352
81	0x3d450105	0.048096675
82	0xbcea721f	-0.02861887
83	0x3e249564	0.16072613
84	0x3de4cbc2	0.11171676
85	0xbe0a3e61	-0.13500358
86	0x3d987bad	0.07445464
87	0x3e135f3c	0.14391798
88	0xbdb74df6	-0.08950417
89	0x3e37a1bf	0.17932795
90	0xbd20dc65	-0.039272685
91	0xbe0e2a37	-0.13883291
92	0xbe1f3e40	-0.1555109
93	0x3dc2b9d3	0.095080994
94	0x3ba6ecab	0.005094131
95	0xbd87faae	-0.0663961
96	0x3d84d427	0.06485777
97	0x3e366595	0.17812188
98	0x3dd09656	0.10184924
99	0x3e2aa864	0.16665798
100	0xbd94fb55	-0.072745
101	0x3e18e742	0.14931968
102	0x3e35c13e	0.17749497
103	0xbd25064a	-0.0402892
104	0x3b8b1d5d	0.0042454437
105	0x3e0a77b2	0.13522223
106	0xbd9169e8	-0.07100278
107	0x3e4b292d	0.19839926
108	0x3de43781	0.11143399
109	0x3d5d4db8	0.054029197
110	0x3e434077	0.1906756
111	0xbdf97903	-0.12181284
112	0xbd1e7caf	-0.038693126
113	0xbe609058	-0.21930063
114	0x3d2c7475	0.04210325
115	0x3def83e6	0.116950795
116	0x3dd9f0aa	0.10641606
117	0x3e419611	0.18904902
118	0x3db8cddd	0.0902364
119	0xbd77765c	-0.06041561
120	0x3d916102	0.07098581
121	0x3d03a4a4	0.032139435
122	0x3dcc391c	0.0997183
123	0xbd08f094	-0.03343256
124	0x3e094179	0.13403882
125	0x3dcd743c	0.100319356
126	0x3d4eb453	0.05046494
127	0x3de7e057	0.11322086
128	0xbe25318e	-0.16132185
129	0xbe08b826	-0.13351497
130	0x3e2b379d	0.16720434
131	0xbdd0e9b5	-0.10200826
132	0x3d14271d	0.036170114
133	0xbe055554	-0.13020831
134	0xbd49897b	-0.049203377
135	0xbdaa0b14	-0.08302894
136	0x3e2281f2	0.15869883
137	0x3de00f30	0.10940397
138	0xbd32df65	-0.043670077
139	0xbdb675b8	-0.08909172
140	0x3d93d7d3	0.072188996
141	0xbcd81948	-0.026379243
142	0xbdeb5fe9	-0.11492903
143	0xbd13ae3d	-0.03605484
144	0xbe1b80d3	-0.15185861
145	0x3e4f8619	0.20265998
146	0xbd091034	-0.033462718
147	0x3dce285b	0.10066291
148	0x3d43e886	0.047829174
149	0x3d6cbcd6	0.057797275
150	0x3dcc4635	0.099743284
151	0xbe36ed78	-0.17864025
152	0xbe073eaf	-0.13207506
153	0xbde6b454	-0.112648636
154	0xbdf8c03c	-0.12146041
155	0xbbca8e26	-0.006181496
156	0xbe24b6d0	-0.16085362
157	0xbe39c128	-0.1814009
158	0x3cf9c716	0.03049044
159	0xbe2993a4	-0.16560227
160	0xbe48268c	-0.19545954
161	0x3dc83c95	0.0977718
162	0x3dac7cee	0.08422266
163	0x3d9b97fc	0.07597348
164	0x3d388dab	0.04505698
165	0x3db809db	0.08986255
166	0xbdfbcca1	-0.12294889
167	0xbe3dba60	-0.18528128
168	0x3e316ceb	0.17326705
169	0x3db2d729	0.08732445
170	0xbe086b95	-0.1332229
171	0x3dab1350	0.08353293
172	0x3ca32474	0.019914843
173	0xbd8d1095	-0.068879284
174	0xbdfb4d41	-0.122705944
175	0x3e44f9cd	0.19235916
176	0xbe5cc858	-0.215608
177	0x3e2cf0f0	0.16888785
178	0x3c1de0d3	0.009636122
179	0xbdaf90df	-0.08572554
180	0xbe470322	-0.19434789
181	0xbe0cd7b2	-0.13754156
182	0xbe7adf41	-0.24499227
183	0xbe19e350	-0.15028119
184	0x3dd68345	0.104742564
185	0xbd9e594e	-0.07731877
186	0x3dd734da	0.105081275
187	0x3e16e0e5	0.14734228
188	0xbdda1884	-0.10649207
189	0xbe1291b3	-0.14313392
190	0x3d698bd5	0.05701812
191	0x3de950d0	0.11392367
192	0x3d3dc20c	0.046327636
193	0x3c60a8e9	0.013712146
194	0xbd3d23d8	-0.04617676
195	0xbe4c52ff	-0.19953535
196	0xbddd3257	-0.10800617
197	0x3de2d9c1	0.110766895
198	0x3e23e7a7	0.16006337
199	0x3bc845ab	0.0061118207
200	0x3e118e1b	0.14214365
201	0x3dd6d884	0.10490516
202	0xbcce177c	-0.025157683
203	0xbc3b5287	-0.01143325
204	0x3dbe9d68	0.093073666
205	0xbd25df41	-0.040496115
206	0xbdc8308e	-0.09774886
207	0xbd5498a0	-0.051903367
208	0xbd7919e7	-0.060815718
209	0x3e21421b	0.15747873
210	0xbdbfce7e	-0.09365557
211	0xbdadd0ae	-0.08487068
212	0xbe63a6a5	-0.22231539
213	0x3e015b0e	0.12632391
214	0xbe014f5c	-0.1262793
215	0xbe25f0fd	-0.16205211
216	0x3e190eef	0.14947103
217	0xbd8b06e5	-0.067884244
218	0xbd97d692	-0.07413973
219	0xbe32d5e4	-0.17464405
220	0xbd9beda8	-0.07613689
221	0xbd656058	-0.056000084
222	0x3cf55b96	0.029950898
223	0xbe1acff6	-0.15118393
224	0xbd78f8d8	-0.06078419
225	0x3dfdb7b1	0.12388552
226	0x3c84f22b	0.016228756
227	0xbdd615b9	-0.10453362
228	0xbdc7e5ef	-0.09760653
229	0xbd762ca8	-0.06010118
230	0xbe2deb19	-0.16984214
231	0x3d1fe78e	0.039039187
232	0xbe0c7cfe	-0.13719556
233	0xbd1c6e7d	-0.038191307
234	0x3d75e2fa	0.060030915
235	0xbdc2f8ef	-0.095201366
236	0xbdb1a224	-0.08673504
237	0x3c1ae427	0.00945381
238	0x3e1cb9a4	0.15305191
239	0xbe585d9b	-0.21129458
240	0xbdda8c6b	-0.10671314
241	0x3db789a5	0.089618005
242	0xbe253383	-0.16132931
243	0x3e0cfe00	0.13768768
244	0x3e306e36	0.17229542
245	0x3c2acc49	0.010424682
246	0xbd78c8a2	-0.060738213
247	0xbdabfa42	-0.08397342
248	0x3d410b7b	0.04713009
249	0x3ca855d4	0.020548739
250	0xbd81a287	-0.06329828
251	0x3cd4c0f4	0.025970913
252	0xbe0b873c	-0.13625807
253	0xbda61abb	-0.08110567
254	0x3e12858f	0.14308761
255	0xbd981917	-0.074266605

Network_stack.1.0.gru.bias_ih_l0 f4 [96]
0	0x3ea46aed	0.32112828
1	0x3e126c65	0.14299162
2	0xbdecdfcc	-0.11566123
3	0xbc97adbf	-0.018515466
4	0xbe29d610	-0.16585565
5	0xbbbbbe49	-0.005729471
6	0x3e3be00f	0.1834719
7	0xbe12f9b7	-0.14353071
8	0xbd25a812	-0.040443487
9	0xbdc7f8e5	-0.0976427
10	0x3de6864e	0.11256085
11	0xbc358e52	-0.011081295
12	0x3d727e6a	0.05920259
13	0xbdcee66b	-0.101025425
14	0x3da4afde	0.080413565
15	0xbded09ff	-0.11574172
16	0xbe03cf9a	-0.12872162
17	0x3c496a1f	0.012293368
18	0xbe028b9f	-0.12748574
19	0xbe0cd764	-0.1375404
20	0xbd95fa14	-0.07323089
21	0x3c761f14	0.015022058
22	0xbe141b38	-0.14463508
23	0xbdac1c93	-0.084038876
24	0x3e26349c	0.16231006
25	0xbd762cc9	-0.060101304
26	0x3d2f6835	0.04282399
27	0x3d60dbd7	0.054897156
28	0x3e1a3487	0.150591
29	0x3d8d3dca	0.06896551
30	0x39690865	0.00022223739
31	0x3d32820c	0.043581054
32	0x3e4183fc	0.18898004
33	0x3dcfe0fb	0.101503335
34	0xbe007f06	-0.12548456
35	0x3db12d7c	0.086512536
36	0x3e423495	0.18965371
37	0x3de6289a	0.11238213
38	0xbe499d43	-0.19688897
39	0xbdd66203	-0.10467913
40	0xbc87ad5b	-0.016562155
41	0x3d025d0b	0.031827014
42	0x3de4735a	0.11154814
43	0xbde2c121	-0.11071993
44	0xbe3c95da	-0.18416539
45	0xbc61ac87	-0.013774044
46	0x3cb96c5b	0.022634676
47	0xbefd83a2	-0.4951449
48	0xbdc9e39e	-0.09857868
49	0xbc043530	-0.0080693215
50	0x3c66b877	0.014082066
51	0x3e47c965	0.1951042
52	0xbe815c90	-0.25265932
53	0xbb315d78	-0.0027063768
54	0xbec05a3e	-0.3756885
55	0xbe04639e	-0.12928626
56	0xbe3196ff	-0.17342757
57	0xbe48a2f5	-0.19593413
58	0x3dca960e	0.09891902
59	0xbe2617bb	-0.1621999
60	0x3c2b5c55	0.010459025
61	0x3e6ee361	0.23328926
62	0xbece7275	-0.403217
63	0xbe0c9b8c	-0.13731211
64	0xbdf20175	-0.11816684
65	0x3e4b289c	0.1983971
66	0xbdc73581	-0.09727002
67	0xbe1f2b08	-0.15543759
68	0xbe15d0c7	-0.14630423
69	0x3c6bcb65	0.014391755
70	0x3df90018	0.12158221
71	0xbe1aae8b	-0.15105645
72	0x3dda4979	0.10658545
73	0x3ddbca66	0.10731964
74	0x3ded774d	0.115950204
75	0x3d914314	0.07092872
76	0xbd36128e	-0.04445129
77	0x3db9350b	0.0904332
78	0x3daab397	0.08335035
79	0x3e0d287f	0.1378498
80	0xbe2e69e1	-0.17032577
81	0xbe234f1a	-0.15948144
82	0xbdcb908f	-0.09939682
83	0x3db41fa0	0.087950945
84	0xbddece9e	-0.10879253
85	0x3e2707c3	0.16311555
86	0xbd80214a	-0.062563494
87	0xbd49d057	-0.049270954
88	0x3e52da43	0.20591073
89	0x3d3f383c	0.04668449
90	0xbd11867b	-0.03552864
91	0x3d340a75	0.043955285
92	0xbe034764	-0.12820202
93	0xbe0161da	-0.12634984
94	0xbe313d91	-0.17308642
95	0x3dc4c3ed	0.096076824
