models/model_uniform_region_0-0.3.0.6-0.9_multiple_Agents94986cf4.pth (torch, 87266 bytes, 18 tensors)

Network_stack.0.0.gru.weight_ih_l0 f4 [96, 2]
00000000: 3cba 513e f939 2fbe 7ae4 1f3e 7883 b9bc
00000010: 2f2c 873e 697e 76be 71ac 8d3c 619a 0dbe
00000020: 30bd 733e 5bf3 b5bd a0c3 053d 5d28 cb3d
00000030: ebde 4d3d 4fdb 3d3e 5aee 7cbb 1ace e93d
00000040: 57bc 75bd 22b2 27bd a173 103d 7eda 05be
00000050: 46ef babd badd f8bc b3f2 14be d09e 093e
00000060: 9fa6 823d 47c2 24bd fd12 febd b681 5bbe
00000070: f8c8 1c3e cc00 d2bd 9d04 793d ea24 243d
00000080: 1f48 903c 73a1 f13d 493d 1a3e cb8e 29bb
00000090: e728 af3d bae0 063d a060 9c3e 8f7f 8fbe
000000a0: d18d 1fbe f4ed 123e 614f 653e b173 d13b
000000b0: 58d2 c8ba ca6d 75bd 6821 a4bc ad62 733c
000000c0: 2b7d db3d c6c0 ac3d d6ed 11be 7fbc 9d3d
000000d0: 75f6 afbc 88b7 63be 931a dc3e 9365 a6bc
000000e0: 90da 7abd 5528 25be 44fc 55bc b215 e13c
000000f0: 2660 97bd 7c3d d0bc 9500 8fbc 40a3 ce3b
00000100: 66b8 f3be cd5f 6abe 3ee5 0b3d e368 eb3c
00000110: 069e 003e 9683 63ba 4768 afbd 9783 2bbf
00000120: d8f2 9cbe e95b 15bf 85bb fcbc 49f5 95bd
00000130: 58b4 5abe 0b0c b0bd fcdd 4c3e 9fa1 a23d
00000140: f16e fe3d 412c b23c d392 6c3e 64ec 333e
00000150: ecb0 f6bb 0e36 53be 963a 3b3e adae 47be
00000160: 7933 84be 4e50 d4be c335 2f3e 32f8 31be
00000170: 7f6c 693d 8dfa dfbc 4dbd 90bd b539 17bd
00000180: 7eee ffbd ac63 babe 3e3a 493d 184f f1bc
00000190: d219 9e3d b812 1abe 0655 ccbe 87fd 3fbf
000001a0: 1c21 553e d30d 04be b664 943e 3d77 54bc
000001b0: bb33 a33e 089b 15be a237 d83d a8f1 b7bd
000001c0: c8ea 8ebd 8242 f5be e679 363e 0b35 bf3d
000001d0: 8845 e7bc 75f7 09bf 7aef bebe 07ea 31bf
000001e0: 8c28 6abd 5e99 4abe fe79 a3bd c48b 97bd
000001f0: b551 5bbe dcc1 aa3d 6653 e13b dab7 98be
00000200: 9cbe 92bd 6a0f 173e c99f 8b3d 2292 ea3d
00000210: d7f2 f23d a427 f9bb 9cd4 8e3d b918 85bc
00000220: bdbe 933e 8a8a ad3b 1675 98bd b7b6 0e3e
00000230: 0b8d 383e bc51 cb3d a547 7b3c c5bf aa3d
00000240: 4831 90bc 1176 34bd f7b4 c2bd b59a 41bd
00000250: b903 843d 15f7 833c 1176 a33d 03e9 a13c
00000260: 1628 453e 0169 efbd ca75 103e 8d93 1e3e
00000270: c6de 083e 06be 823d 4614 4abe 838c f2bd
00000280: 2a4d e93c ee12 dbbd 0f6f ea3d 58a1 13bd
00000290: 4646 8d3d a727 11be 6827 603e 0f32 9fbd
000002a0: f296 f5bc 8b30 ba3c 0d06 d0bd 57ae 97bd
000002b0: d820 40bd 10e0 243d fcba 153e 9d34 d03d
000002c0: 7f8f 733e 2aac 1dbe 7f8d 09bd aca6 973b
000002d0: 91c5 403e 2ed9 86be ab69 4ebe fbac f73d
000002e0: a7fc 01be 3d24 313e b540 a13d 3634 87bd
000002f0: cc44 1ebc f390 0f3e 5e0e 01be fffa 7b3d
0.20481199 -0.17111959 0.156145 -0.022645697 0.26400897 -0.24071659 0.01729414 -0.13828422
0.23802638 -0.08884307 0.032657266 0.09919808 0.05026142 0.18540691 -0.0038594217 0.11416264
-0.059994068 -0.040941365 0.035266522 -0.1307163 -0.09127669 -0.030379165 -0.14545707 0.13439488
0.06379437 -0.04022434 -0.124059655 -0.214362 0.15311038 -0.10254058 0.060795415 0.040074266
0.017612515 0.11798372 0.15062441 -0.0025872465 0.085527234 0.03292916 0.3054247 -0.28027007
-0.15581442 0.14348584 0.22393562 0.0063919653 -0.0015321476 -0.059919156 -0.02003546 0.014855069
0.10717233 0.08435206 -0.14250883 0.077019684 -0.021479825 -0.2223798 0.42989025 -0.020312106
-0.061243594 -0.16128667 -0.013060633 0.027476165 -0.07391386 -0.025419943 -0.017456332 0.006306082
-0.47601622 -0.22888108 0.03415417 0.028736537 0.12560281 -0.00086789706 -0.08564811 -0.66997665
-0.30654025 -0.5834337 -0.030851135 -0.07322175 -0.21357858 -0.08596047 0.20006555 0.07940983
0.12423504 0.021749618 0.23102884 0.17570645 -0.007528415 -0.20626089 0.18284068 -0.19500227
-0.2582052 -0.41467518 0.17110352 -0.17379835 0.056988236 -0.027341152 -0.07067356 -0.036920268
-0.12496661 -0.3640417 0.04912781 -0.02945666 0.077197686 -0.15046203 -0.39908618 -0.7499623
0.20813411 -0.12895899 0.28983086 -0.012967882 0.31875405 -0.14609921 0.10557486 -0.08981639
-0.06978375 -0.47902304 0.17819938 0.09336289 -0.028231397 -0.53893214 -0.3729208 -0.6949772
-0.057167575 -0.19785067 -0.079822525 -0.07399705 -0.21417888 0.08337757 0.006876397 -0.29827768
-0.07165262 0.14751974 0.06817586 0.11453654 0.11862724 -0.0076036025 0.06974146 -0.01624714
0.2885646 0.005296056 -0.07444207 0.13936888 0.18022554 0.09927699 0.015336906 0.083373584
-0.017601624 -0.04405791 -0.095071726 -0.04726668 0.064460225 0.016109029 0.07981504 0.019764429
0.19253573 -0.1168995 0.14107433 0.15485974 0.13366231 0.063839 -0.19734296 -0.11843207
0.028479178 -0.1069697 0.11446964 -0.03604254 0.06898169 -0.14175282 0.21890032 -0.0777322
-0.029979203 0.022728225 -0.10157404 -0.074062996 -0.046906322 0.040252745 0.1462211 0.10166285
0.23785208 -0.15397707 -0.033582207 0.004628023 0.18825366 -0.2633757 -0.20157497 0.1209354
-0.12694035 0.1729898 0.0787367 -0.06601755 -0.009659957 0.14020137 -0.12603137 0.061518665

Network_stack.0.0.gru.weight_hh_l0 f4 [96, 32]
00000000: 4538 81be 6ff4 2d3e fbb7 5dbd 6ee4 2f3e
00000010: 0f85 0dbd 7694 43be dc1f 58bd d066 293c
00000020: 86e3 d13d 4977 ca3d 3068 4ebe 2f02 9dbb
00000030: 3408 a73e c2df 35bd feca 2e3e 4a9c f2bc
00000040: 6787 c03d 5c61 973d 332e d33d 8340 5b3e
00000050: abfa 3a3e fd24 773d 4861 113e f279 48bd
00000060: 9a4f 693e 1f3f 78bc 46cb 0f3e d9d8 e9be
00000070: 7661 403d c4e8 373e e2a9 05be e927 8dbe
00000080: 397a f6bc 5a38 e6bb a3f2 843d b109 11be
00000090: ac70 5ebe f96b cd3d c7da c1bc 3163 4b3d
000000a0: ef22 05bc 85bc 47bd ce5b ddbc 96f6 1b3e
000000b0: 3ef6 e33d 3f17 eabd 2d4d dc3d bfbf 1ebe
000000c0: 2ef8 bc3d be4b ecbd 1580 37bd 1223 123d
000000d0: 179d 973d 6d3b 043e 9c58 103d ccec 043e
000000e0: 64bf af3d d2f7 87bd 1633 e83d 1c59 123d
000000f0: c468 813d ae24 453d 9abf f73d 5348 493d
00000100: 4510 22be d361 f23d fa79 d33d a4b5 443e
00000110: 4823 933e c78d 4fbd 0ecd 16bd 45f9 c03d
00000120: 2b00 8fbd f275 f6bd e2c1 4e3c 5725 a0bc
00000130: 83f7 c43d 2672 b6bb db6c 0b3e 666d 283d
00000140: b248 4f3d 0d42 a5bd ae51 dbbb a3dc de3e
00000150: 335d 243e 8c93 aa3b 16a0 17bd fc9f a03d
00000160: ff4f 823e 99ab 013e b07c a43e cb57 b5be
00000170: cd88 e7bb 3da4 0abe e3ae 733d 00be f9bd
00000180: 5322 d3bd 3651 15be 492d c23d 7075 103d
00000190: 098e 4d3e f489 dfbc 8714 4f3d f9a6 073b
000001a0: 6402 8bbc 9ed5 05bd d6cf 943d 6aae d13d
000001b0: df92 8c3d 5235 8cbc ef3c 133c f60c ffbd
000001c0: 0567 53bc 8a8e 7cbd 772d 2d3d b01d a4bd
000001d0: b487 07be 6da0 e4bd 6085 173e 7e0f de3d
000001e0: fff7 ab3c a08e 1dbc e600 d73c 3dc1 2b3c
000001f0: 3b41 1c3d 14e1 a5bd 8fb4 93bc 4aa4 02bd
00000200: 3d85 83be 5a2d 60bd aa8a b0bc 8909 4c3e
00000210: 08ea 413e 9909 d73d da60 21bd 3d14 353c
00000220: 2e4c 18bb 8d35 183c fa8b 433e 7f65 15be
00000230: e513 153e ca48 04bb 4e58 97bd 49a6 e8bd
00000240: deaa 113b a184 a8bb 34c9 fbbc c1b2 d53e
00000250: b3f5 52be f9d4 33be fea3 163e f61f 713e
00000260: 433a 363e 2003 29bd c64f 2f3e e529 a8be
00000270: 29ec 2bbd 2806 2f3e bfad 8e3d 404c 29be
00000280: e53a b4bc d629 633b 5c37 d43d fc3a c1bd
00000290: c0fd 2bbd c3a3 ad3b b178 93bc d859 b3bd
000002a0: 25dc b0bd b7f0 b8bc 57a3 96bd b1bd cfbd
000002b0: a5fa b13d 8d08 1bbd c423 37bc f62a 2fbe
000002c0: dfed 47bd 5467 69bd c286 163e a8e7 d43d
000002d0: 8386 153e 7852 28bd e0a1 1dbe f74e a13d
000002e0: 9aa6 8d3d 1b15 af3c 3274 a8bd 3459 583e
000002f0: bc90 403e 17f3 f5bc be47 b13d b1c6 623d
00000300: 0653 c13c c88a e83d 0a5c 04bd 13ac b63d
00000310: b5ea 1dbe 6d34 c9bd b133 043d 9df0 cf3d
00000320: 3299 9bbd 4984 21bd 8efa 1dbe f3fb 3cbd
00000330: b3b9 debd b687 1e3e f47a 0bbe bae6 01be
00000340: 2c23 e0bd e136 2d3e 7ab7 1d3d 9885 0fbe
00000350: 2e74 f13d de37 453d bc1c ec3d 0612 9bbd
00000360: 0b5a ab3d c905 0a3d 24f8 0cbe ebd7 373e
00000370: 3e76 383e 460f 34be a12c 0d3e 9b3b 363e
00000380: 6a5f 05bc 8a50 a6bc 80a4 fb3d 3139 ccbd
00000390: 7972 15be f229 cd3d bcc9 a53c 801c f73d
000003a0: 5acb 94bc d1b9 83bd 5e1b 203d 5691 21be
000003b0: 54e8 f5bd 634a b63d 8d60 f7bc b4ca d93c
000003c0: ca06 8cbd 65e8 273c d37e 1bbd d061 123e
000003d0: fbbb 86bd c00a 373d 2d47 143e 7c7e 613d
000003e0: faab 22be 8ef8 16bd 30f1 eb3c 82ab 65bc
000003f0: 4334 34be 68d2 a2bd c052 1c3e 0866 d0bd
-0.25238243 0.16987775 -0.054130536 0.17176983 -0.034550723 -0.19099602 -0.05276476 0.010339454
0.10248475 0.09886033 -0.20156932 -0.00479152 0.32623446 -0.044402845 0.17069623 -0.02961554
0.09400826 0.07391617 0.10311546 0.21411328 0.18259685 0.06033801 0.14197266 -0.04894442
0.22784272 -0.015151768 0.14042386 -0.45673254 0.046967946 0.17959887 -0.13053086 -0.27569512
-0.030087577 -0.0070257606 0.06491592 -0.14163853 -0.21722668 0.1003036 -0.023663891 0.049655143
-0.008126005 -0.04876377 -0.027021315 0.15230784 0.11130951 -0.11430215 0.107569076 -0.15502833
0.09227024 -0.11537884 -0.044799883 0.035677977 0.074030094 0.12913294 0.035240754 0.12980956
0.08581427 -0.06639065 0.11337869 0.035729513 0.063188106 0.048130684 0.12097092 0.04914124
-0.15826519 0.11835065 0.103259996 0.19209915 0.28737855 -0.05067232 -0.03681665 0.094225444
-0.06982454 -0.12034215 0.012619467 -0.019549055 0.096175216 -0.005567807 0.13615744 0.041119955
0.050606437 -0.08069239 -0.0066930866 0.43527707 0.16051178 0.0052055772 -0.037017904 0.078430146
0.25451657 0.12663116 0.3212638 -0.35418543 -0.0070658685 -0.13539214 0.059492957 -0.12194443
-0.10309281 -0.14581761 0.09481294 0.035268247 0.20073713 -0.02728746 0.050556686 0.0020698889
-0.016968913 -0.032674424 0.07266204 0.10238345 0.06863951 -0.017115269 0.008986696 -0.12453644
-0.01290298 -0.061659373 0.042279687 -0.08013475 -0.1323536 -0.11163411 0.14796972 0.10842799
0.020992277 -0.009616524 0.026245546 0.010483083 0.038148146 -0.08099571 -0.018030433 -0.03189496
-0.2568759 -0.05473075 -0.021550495 0.19925512 0.18936932 0.104998775 -0.039399005 0.011052188
-0.0023238766 0.009290111 0.19096366 -0.14589499 0.1455837 -0.0020184987 -0.0738989 -0.113598414
0.002222709 -0.0051427637 -0.03073559 0.4173794 -0.2060154 -0.17561711 0.14710996 0.23547348
0.17795663 -0.041262746 0.17120275 -0.32844463 -0.041973267 0.17092192 0.06966733 -0.16532993
-0.02200074 0.0034662387 0.103621215 -0.094350785 -0.04199004 0.005299063 -0.018001886 -0.08757371
-0.08635739 -0.02257572 -0.07355373 -0.10143603 0.08690385 -0.03784995 -0.011177961 -0.17106232
-0.048810836 -0.056983307 0.14699844 0.103957474 0.14602093 -0.041094273 -0.15393782 0.078763895
0.06916542 0.021372369 -0.082252875 0.21127778 0.18805212 -0.03002314 0.08656262 0.05536527
0.023599159 0.113545954 -0.032314338 0.08919539 -0.15421565 -0.098244525 0.03227586 0.10153315
-0.07597579 -0.039432798 -0.1542761 -0.046138715 -0.10875263 0.15481457 -0.13621122 -0.12685671
-0.109442085 0.16915466 0.038505055 -0.14015806 0.11789738 0.048148982 0.11528918 -0.07571797
0.08366784 0.033696923 -0.13766533 0.1795346 0.18013856 -0.17583951 0.13786556 0.17796175
-0.008140424 -0.020302076 0.12287235 -0.09971846 -0.14594449 0.10017766 0.020237796 0.12065983
-0.018163372 -0.06431926 0.0390886 -0.15778098 -0.12007204 0.08900907 -0.030197406 0.026585914
-0.068372324 0.010248278 -0.037962746 0.14295125 -0.06578823 0.044687986 0.14480276 0.055052266
-0.15885916 -0.036858134 0.02880153 -0.014017941 -0.17598061 -0.07950288 0.15265942 -0.10175711

Network_stack.0.0.gru.bias_ih_l0 f4 [96]
00000000: 9dc2 10be 9380 07be e6c2 cf3d 8dd7 683d
00000010: 8f76 843d 371a 2e3e de94 15bc 6da3 23be
00000020: 1f90 9dbc f703 dc3d d008 2f3e a23a 56bd
00000030: b02d 3d3e 3658 fd3b ee4b b6bc 4345 b33d
00000040: f22d 93bd c4e1 85bd 8e0a e83d a85b 29be
00000050: 60e7 e3bd 4fab a3bb da75 03bd 2f69 183e
00000060: b1a3 963d ca5e 133e 6d53 c3bd 7dee 493d
00000070: 8d1d b33d 8f7a ab3d 3b81 38bd e8c2 c9bd
00000080: 777f bb3e f959 783d 8fe3 a03d d759 0dbf
00000090: 17f9 e9be f0b3 e8bd e3c7 bb3d 0a27 9ebd
000000a0: 5364 e43d 6535 3bbd 26a9 53be 5bf9 8fbe
000000b0: 310c a9bd 0bba 9abd f54f c23d 526f 0e3e
000000c0: e1a1 a4be 12c7 4e3d 561b 343d d767 3ebf
000000d0: ba29 bf3c 33c3 01bb 20dd efbe 02cd eb3d
000000e0: cb8d 35bf be1c 3ebe 883d f6be f72d 00bf
000000f0: bfa3 94be df32 25be a96c 31bd d540 7c3d
00000100: eb03 793d 12df cbbc 2af0 f63d 5a98 13be
00000110: f788 d6bd 98bc 34be 0bb8 bd3d 9884 c43c
00000120: 55b8 c1bd 6d4f 89bd 2c91 35be 0b5f 90bd
00000130: 017f 51bd f15c b03d 1b34 ad3d 22a3 f0bc
00000140: 1345 21be dbfd 383e b579 363e ac47 a6bd
00000150: 9e37 2e3e 9efe 15be b38d fbbd 26c8 fa3d
00000160: 75bd c3bd c655 f1bb 26f8 2cbe bc81 a03d
00000170: 7bdc 423e 03f3 a0bd 0cfe 14be 1450 41bd
-0.14136739 -0.13232641 0.10144596 0.05684619 0.06467926 0.17002188 -0.009129731 -0.1598031
-0.019233761 0.10742944 0.17093205 -0.05230201 0.1847446 0.007731463 -0.022253003 0.08753445
-0.07186498 -0.06537202 0.11330138 -0.1653887 -0.11128116 -0.004994787 -0.032094814 0.14883874
0.073554404 0.14391628 -0.095373966 0.049299706 0.08745871 0.083729856 -0.04504512 -0.098516285
0.36620685 0.06063268 0.07855903 -0.5521521 -0.45697853 -0.11362445 0.09168985 -0.0772229
0.11151948 -0.045705218 -0.20669994 -0.2811993 -0.082542785 -0.07555016 0.09487907 0.13909653
-0.32154754 0.050482817 0.043971382 -0.743772 0.023335326 -0.0019800186 -0.46848392 0.115137115
-0.70919484 -0.18565652 -0.4809382 -0.50070137 -0.29031178 -0.16132687 -0.043316517 0.061585266
0.060794752 -0.024886642 0.120575264 -0.14413586 -0.10475343 -0.17650068 0.09263619 0.023989007
-0.09458987 -0.067046024 -0.1773116 -0.07049378 -0.05114651 0.08611477 0.08457204 -0.029374663
-0.15749006 0.18065588 0.17819865 -0.08119139 0.17013404 -0.1464791 -0.12282886 0.122452065
-0.095576204 -0.0073649613 -0.16891536 0.07837245 0.19029419 -0.07858851 -0.14550036 -0.04719551

Network_stack.0.0.gru.bias_hh_l0 f4 [96]
00000000: c5b9 3d3e 6096 3e3c c798 19be b490 b0bd
00000010: 1cd3 9b3d e63e febd b438 37bd f685 2b3e
00000020: df0c 883d 26bf 9a3c 9453 d23c d7a1 893c
00000030: 8b96 2abd 3743 cebc 8ebb 893d b3b9 5a3e
00000040: 3785 97bd bb9f 26bc c4b3 54bd c563 f33d
00000050: b739 ac39 db72 3fbe 006f 323e 30b7 463c
00000060: fbd9 89bd 95da ffbd 4e33 25be 192f 85bd
00000070: 52a6 223d 2ad9 373d a164 b9bd 8050 cdbd
00000080: cf67 2d3e 7bc5 6abe 1f6d 343d 6e58 01bf
00000090: bbc5 8ebe c662 a53b 9be2 263e 1565 933d
000000a0: 3e75 acbd a5da 20be da6e 73be 80dc 50bd
000000b0: 4e70 25be b545 ed3d cda4 433d 96b4 563e
000000c0: 80a4 6ebe c1d3 b03d 89c1 abbc 6e95 ffbe
000000d0: 44fc 4dbd 4e23 72be 5e34 17bf dc21 363e
000000e0: 5183 1dbf 1f6c 96be 79be 2ebf a5d0 b7be
000000f0: 4699 99be 092f 8bbe 7aa3 73bd d56f 9f3d
00000100: dd57 3ebe 06fa 443e 2512 adbd 86b2 f63d
00000110: 1774 1ebd 4bf9 a8bd f976 b7bc ce47 dcbb
00000120: 15aa b73d d981 23bd cc3b 12be c1fa 13be
00000130: 0873 233e 7d32 f9bd ae15 3dbe 1fbf cc3d
00000140: 791d ca3d 7f36 dabd 5b93 d93d a011 b43d
00000150: ae6e 103e 0e28 963d ba48 3bbe 345e 23be
00000160: c97d 4c3c 2f5b 0a3e 9efe cb3d 9d79 f6bd
00000170: 7ba6 95bc a9c8 d73d 947f e43d 5842 a2bd
0.18527897 0.011632532 -0.14999686 -0.0862135 0.07608625 -0.12414341 -0.04473181 0.16750321
0.0664308 0.018889975 0.025674619 0.016800804 -0.041647475 -0.025178535 0.06725226 0.21359901
-0.073984556 -0.010169919 -0.05192925 0.11884264 0.00032849397 -0.18696158 0.17425156 0.012128636
-0.067310296 -0.12492863 -0.16132852 -0.06503124 0.039709397 0.04488484 -0.090523966 -0.1002512
0.16934131 -0.22926895 0.04404938 -0.5052556 -0.2788523 0.005047175 0.1629738 0.07197014
-0.084208 -0.15708406 -0.23772755 -0.050991535 -0.16156122 0.11585561 0.04776459 0.20967326
-0.2330494 0.08634139 -0.020966308 -0.49918693 -0.050289407 -0.2364628 -0.5906428 0.17786354
-0.615285 -0.29379365 -0.6825939 -0.3590137 -0.2999975 -0.27184322 -0.059482075 0.07785002
-0.18588205 0.19236001 -0.084507264 0.120457694 -0.03868493 -0.08250674 -0.022395598 -0.006722427
0.089679874 -0.039918754 -0.14280623 -0.14451124 0.1596185 -0.12167833 -0.18465301 0.09997391
0.09868903 -0.106549256 0.10623809 0.08792424 0.14104721 0.073318586 -0.18289462 -0.15953904
0.012481161 0.13511346 0.09960674 -0.12034915 -0.01826786 0.1053632 0.11157146 -0.0792281

Network_stack.0.0.gru.weight_ih_l1 f4 [96, 32]
00000000: 109c 2c3e 5034 35bd 7da4 d1bd 1a7c 0abe
00000010: 7740 043e f6aa f9bd 414d 8c3d 1336 283d
00000020: 771c 323d ffd0 933d 1332 b3bd b1b0 033e
00000030: 56ec dcbd e139 0ebe a555 0bbd adb3 db3d
00000040: fd9e 303e 7b2a 24bd b419 0abe 24f4 d4bd
00000050: 406f ab3d 8642 003d 3eab abbc 038c af3d
00000060: 7d18 c33d af31 273d b132 eebb 304c 063e
00000070: 2363 2ebd 4659 c3bd a70c 223e 7e3f e6bd
00000080: 3374 023e 6cb3 8a3d fd8f 563d ff36 213d
00000090: 1706 7fbe 574b df3d 52b5 043e c7d7 4bbd
000000a0: 3ff3 10be 16fb 77bd 5a81 153d 49b9 33bd
000000b0: 5c43 d53d 5bb5 c03d 3157 bcbd 4ab2 c73c
000000c0: 776a 083e bbea 0b3e 3fac 3d3d 928b 17be
000000d0: 33ee dfbd 94a9 933d 74ba e1bd 04fc 153e
000000e0: e9bd 39be 04fe 5b3d 3605 983d d564 803d
000000f0: 4e8d 4e3e a0a1 1ebe 52a9 0c3e 11bb b63d
00000100: d323 43bd 5629 51bc 204d 253e 3536 efbc
00000110: 7c0a 433e 7938 5a3d f698 29be 925b 4e3d
00000120: c292 283e 50d6 603c 6262 253d fac9 353d
00000130: 4a06 23be 393e 28be c5c0 7ebd c6e2 22be
00000140: 9250 8dbd c414 32bc 0c87 763d 6e6d febd
00000150: 05c7 c2bd c5df 7bbd 5180 ebbd bc22 b2bc
00000160: 8282 d3bd 3a74 5f3c c11d dfbd 7bde c03a
00000170: d199 f93c 9477 3dbb dc78 38bc 252c e0bc
00000180: b4f5 803d b7dd f43c 27bf 783d bf68 57bd
00000190: a770 ee3d 067b 163e 1b89 113e 3e5b 0cbe
000001a0: 414c bbbd 05ca 3ebe 5a1c fabd b2d2 523d
000001b0: 2d82 30bd a247 273d 72d0 973c ecf4 ef3b
000001c0: 8b0e 0dbe 18e1 c0bd 2069 cabc e03b b5bc
000001d0: d380 12be b9c9 09bd 10c2 253e 49b0 cd3d
000001e0: ac9b 29be ecb2 90bd 4842 d23d 6009 9b3c
000001f0: 183c 463e 3da4 0bbe 54d0 a7bb 59f5 33be
00000200: e713 03be 4326 6e3d e9ba 623d 8a43 143e
00000210: c378 d9bd 3942 1d3d 368d ae3d 1518 34be
00000220: 0b7a e23d cd2e a73d 0baf a23d 082b e83d
00000230: 9e1a 03be 1aa8 db3d c439 13be 54d4 06bb
00000240: c104 a83d bc66 e4bd 0b71 953c bd55 e7bd
00000250: 8abd 4e3d 20ee febd 8285 6bbd ea88 593c
00000260: e09b 4fbd 9b16 193b 36ed 00be 98be ddbd
00000270: 4361 503d d618 143d 9588 83bc eb8d edbd
00000280: a1a6 243e b6e1 14be 7d93 73bd 9225 08be
00000290: 8bf5 ddba c0ae 2a3e 5756 08be 9c33 043e
000002a0: 980a 05be 25e8 2e3d e14f dfbd e93f 16be
000002b0: 15d4 14be 078d 883d 2c6d 48be b87a f03d
000002c0: 168e 5ebd 7b44 1cbe 487b fbbc 72b3 49bc
000002d0: 179b 8a3c 589c f13b 3583 1a3e abc1 2bbe
000002e0: 166f 6ebd 3cf9 92bd 145a 4dbd b3f2 6d3e
000002f0: 25e4 78bd 556b 243d ef75 e83d 9ccb 503d
00000300: 5141 e5bd 261a 033e e177 473e 5213 3a3d
00000310: 2562 e9bd bf7d 933d c57e 56bc c013 eb3d
00000320: 5ae6 acbd 9bcb 143e eee8 d33c 8467 133e
00000330: 56b0 483e 11c2 3d3e 8313 de3d f741 5ebe
00000340: 0f10 ac3d d4c1 173c b885 fcbd bc06 063e
00000350: d52a 0e3e 811c 4dbe e73b 09be 74b7 ad3d
00000360: 7c11 1bbe 82a6 b9bd 6095 0fbe fe4e a43d
00000370: 18ca 1c3d 2291 f3bd 7526 9bbd 4bf1 14bd
00000380: 67e1 9ebc c2b7 323e 0d19 4abc bd55 a0bd
00000390: dab4 243d f61a 68bd cf5c 17be 8f49 1ebe
000003a0: a47a 903c b4a8 10be 28a1 db3d 4f62 343d
000003b0: 26d6 213e 0c25 0c3d 6889 08be 0595 143e
000003c0: ab0f aabd 39af ed3d 4990 b1bd 922b 4dbd
000003d0: d837 f2bd 3ab6 5dbd e00c 0b3e 633e 9dbc
000003e0: 288b 0dbe 3fcd afbd 3d8a 40be 04e0 1f3c
000003f0: d9c9 cebd c355 41be 2bdb d63c 843e ebbb
0.16856408 -0.044239342 -0.10236452 -0.13523903 0.12915216 -0.12190811 0.068506725 0.041067194
0.043484177 0.07217597 -0.08749785 0.12860371 -0.10787265 -0.13889267 -0.034017224 0.1072763
0.17248149 -0.040079575 -0.13486367 -0.10398129 0.08370829 0.03131344 -0.020955678 0.08571627
0.09526155 0.040818866 -0.0072692265 0.13115 -0.042575013 -0.09538512 0.15825139 -0.11242579
0.12739639 0.06772503 0.05238341 0.03935909 -0.24904667 0.10903042 0.12959793 -0.04976633
-0.14155291 -0.06054219 0.036500312 -0.043877874 0.104132384 0.09409591 -0.09196318 0.024377007
0.13321863 0.13663761 0.046306845 -0.14799336 -0.10934105 0.07210079 -0.11021891 0.14646918
-0.18138851 0.053709045 0.07422869 0.06269232 0.20171091 -0.15491343 0.13736466 0.08922399
-0.047641587 -0.012766203 0.16142702 -0.029200653 0.19046968 0.053276513 -0.16562256 0.050380297
0.16462234 0.013722971 0.04037703 0.044382073 -0.15920368 -0.16429986 -0.062195558 -0.1590682
-0.06900133 -0.010869209 0.060187384 -0.12423216 -0.09510616 -0.0614927 -0.11499084 -0.021745078
-0.10327627 0.01363855 -0.10894347 0.0014714742 0.030468853 -0.0028910385 -0.011259284 -0.0273648
0.06296864 0.029890878 0.060729172 -0.052590128 0.116425805 0.14695367 0.14212458 -0.13706681
-0.09145404 -0.18631752 -0.12212439 0.051470466 -0.043092895 0.0408398 0.018532012 0.007322898
-0.13775079 -0.09417933 -0.02470833 -0.022123277 -0.14306955 -0.033639643 0.1618731 0.10043389
-0.1656329 -0.07065377 0.102665484 0.018925369 0.19358861 -0.1363687 -0.00512127 -0.17574061
-0.12800561 0.058141958 0.055354033 0.14478889 -0.106187366 0.038393233 0.085230276 -0.17587312
0.11058434 0.081632234 0.07943543 0.113363326 -0.12803122 0.10725422 -0.14377505 -0.0020573335
0.08204032 -0.111524075 0.01824238 -0.1129565 0.050473727 -0.124477625 -0.05750037 0.013277272
-0.050685763 0.0023359421 -0.12590489 -0.108273685 0.050874006 0.036156498 -0.016056338 -0.11599334
0.16079189 -0.14539227 -0.059466828 -0.13295582 -0.001693414 0.16668224 -0.13314186 0.12910312
-0.12992322 0.04270186 -0.109039076 -0.14672817 -0.14534028 0.06667524 -0.19572896 0.11742157
-0.054334722 -0.15260498 -0.030698434 -0.0123108495 0.016919656 0.007373374 0.15089114 -0.16773097
-0.05821141 -0.07176444 -0.050134733 0.23237114 -0.06076445 0.040141422 0.11350619 0.050975427
-0.11194099 0.12802944 0.19479324 0.04542858 -0.11395673 0.072017185 -0.013091748 0.114783764
-0.084423736 0.14530794 0.025867905 0.14394957 0.19598517 0.18531062 0.10843565 -0.21704851
0.084015004 0.009262521 -0.12330192 0.13088506 0.13883527 -0.20030405 -0.13401757 0.084822565
-0.15143389 -0.09064962 -0.14021826 0.08022879 0.03827867 -0.11892916 -0.075756945 -0.036362927
-0.01939459 0.1745291 -0.012335074 -0.07828853 0.040211536 -0.056666337 -0.14781497 -0.15457748
0.017636605 -0.14126855 0.107240975 0.044039067 0.15804347 0.03421502 -0.13333666 0.14509971
-0.0830377 0.11605687 -0.08670098 -0.05009038 -0.118270576 -0.054128863 0.1357913 -0.019194787
-0.13822615 -0.085840695 -0.18802734 0.009757999 -0.10097093 -0.18880372 0.026227554 -0.0071790833

Network_stack.0.0.gru.weight_hh_l1 f4 [96, 32]
00000000: cba6 b73d ff27 0a3e ede5 963d b657 953d
00000010: 51f6 3fbd 51c2 8dbd 4c4f a0bd 1f29 81bd
00000020: 106e c2bd 5937 c8bd f8e5 ea3d 7870 bc3d
00000030: 6303 1cbe 4cac 8dbc 05e8 283e ff2c acbd
00000040: ae5e 993d 0739 24be dacb 1b3e 2f27 a1bc
00000050: 8a6d 313e abb5 1abe 91fa 7e3c 062b 32be
00000060: 446e 2e3d adfc 243d bab1 5a3d 6ce9 dabd
00000070: 775b 0abd dff2 dabc 2194 123d 2c58 9fbd
00000080: dba3 3a3d 23c1 943d 4b19 093e c19c 1fbe
00000090: 771b 24bd fd56 563d ca0e b33d 9fc5 e33c
000000a0: 16e1 89bb 8dc6 19be d8f5 42be 2b1b 513d
000000b0: b98c 16bd 9aef e83c 9cb7 14be f5d8 d7bd
000000c0: 549d 4c3e ab7c 2cbe cdbf 3bbe f07e 153d
000000d0: 7d6d ab3c bf4a 4e3d 52b8 313e cc75 33bd
000000e0: e205 e1bd 2f70 17be 1b63 dbbd e5c0 4e3e
000000f0: ff28 ee3d 4dad 813d 5bde abbd 500f a9bd
00000100: 40d4 2b3d e709 923c ab00 d1bd 7981 21be
00000110: 4dd1 163e db84 87bd b248 a73d 779d 22be
00000120: 066b a4bd 44e4 c53c 428d 973d 2ef5 52bd
00000130: e98f 2ebe e0dd 14be 22b1 13be 3cb3 833d
00000140: e2fd 013e 8305 28be a912 6f3c 8cde 233e
00000150: 5eeb c8bb 30b0 02be 9281 1fbe 53c2 6fbd
00000160: 6565 223e 18fa 773d 6287 edbd 24af a03d
00000170: d9ca febd f1c2 1e3e 5d64 fb3d fbe6 363e
00000180: 0a0c b53d afca 16be cb88 92bd e0cc 513c
00000190: 0c3a 7e3d 903e dc3d c819 423e 88cf 2f3c
000001a0: 5550 f9bd 93ca 23bd 12a5 25be 6656 163e
000001b0: 7a1d 873b 46ca b53a 6e1e 643c e42b 973d
000001c0: 3ff1 a5bd a1b9 b5bc 2e6f 9f3d e00b 163e
000001d0: aa92 3abc 3d2f 72bd 1201 0b3e 30e7 2abc
000001e0: 84d0 083e f820 2b3e ffca 883c 73a8 babd
000001f0: 70da d93d 2b7c e2bd b23c e23c 53e0 813d
00000200: 819d 813d ef2f d6bd 0fc7 3dbd 0476 b1bd
00000210: 2b38 743d 8ee9 4b3d 2812 2f3e 067f 113e
00000220: 97ff 40be 4100 333e 3749 ef3d 077f 0d3d
00000230: dc02 b5bd 7f07 023e 5a94 efbd 244d b93d
00000240: 7eef ed3d 0594 183e 7d68 94bc 24cb b6bb
00000250: 2fc5 00be 3a35 4abe 6943 d3bd 0250 2ebe
00000260: 7a87 183e 328d 513c 5dc1 2a3e 173a 84bd
00000270: 83e8 803d c8b5 913d 5dfd 08be 0c31 0abd
00000280: 5277 023e 7750 93bd a384 183e 1a7c 1ebc
00000290: 0fbe 10be aadb f53c dfc7 703d 4e04 ca3d
000002a0: 0b45 babd bcab 46bd 24b0 733d 5d9c 723d
000002b0: 8c23 e63c 368b d7bd 005d c0bc 6d9e 0c3e
000002c0: ea48 3cbe 6f2a b43d 5158 ff3d cefa 0fbe
000002d0: 2bc5 1fbe cdd3 1e3e 22a7 b73d 6ad6 1bbe
000002e0: 7071 00bd 6c4e 123d 62d5 c2bd b464 643e
000002f0: 52ae c5bd e0c3 153d b712 bdbd b029 da3d
00000300: dfee 18be 8f7d 34be 7e6c 21bd b8cd 77bd
00000310: fcac 01be 8bcc dc3d 3a91 033e 247b 3e3c
00000320: bfb0 9ebd 2a30 1d3e 177c e5bd c844 ce3d
00000330: e3f5 1c3e 752c 093e 1ab3 c6bc e9c0 24be
00000340: 2e57 bcbb 8a7b 3ebe 114e cebd c1ee 08bc
00000350: 6488 90bd a60d f3bd 8c2e 0ebe 9427 943d
00000360: c569 82bd 443e babd 9359 593d d31e 3cbb
00000370: 4ef3 203e 3757 a6bd b06d e83d e94e 03bd
00000380: 5210 9cbd dc9d a93d d0ad 28be 9e2c 06be
00000390: d316 243e 0292 dbbd 2277 1bbe 310b c43d
000003a0: 0c4a 08be 790e 1fbe 8c9a 4fbd d275 eebd
000003b0: 40f8 13be b69b acbd 01ba 103d 29f2 00be
000003c0: ac4f fd3d 57bf a23b 14c8 27be c946 a4bd
000003d0: 271e 5dbd 76cb 0bbd bc26 263e 9a37 ebbd
000003e0: 98c2 70bd 3fa9 eabd 38c5 3c3d b4b1 693d
000003f0: 5e3f 1abe f417 213e 7cc0 27be a517 d23d
0.0896736 0.1349182 0.073680736 0.0729212 -0.046865765 -0.069218285 -0.07827625 -0.06306671
-0.09493649 -0.09776182 0.11469644 0.09201139 -0.15235667 -0.017294072 0.16494758 -0.0840702
0.07488762 -0.16037379 0.15214482 -0.019672005 0.17326942 -0.15108363 0.015562669 -0.17399225
0.042585626 0.040280033 0.05339215 -0.10689053 -0.033778634 -0.026727138 0.035785798 -0.07780489
0.04556642 0.072634004 0.13388555 -0.1558714 -0.040065255 0.052329052 0.08743055 0.027804194
-0.0042077405 -0.15017147 -0.19039094 0.0510513 -0.036755297 0.028434563 -0.14523166 -0.10539428
0.19981891 -0.16844432 -0.18334885 0.03649801 0.020926232 0.050364252 0.17355469 -0.04381351
-0.1098745 -0.14788888 -0.10712262 0.20190771 0.11628913 0.063318826 -0.0839202 -0.08254874
0.041950464 0.017826987 -0.102052055 -0.15772046 0.1472828 -0.06617137 0.081681624 -0.1588038
-0.080282256 0.024156697 0.0739999 -0.051503353 -0.17047085 -0.14537764 -0.1442304 0.064306706
0.12694505 -0.16408353 0.014591851 0.16002864 -0.0061315736 -0.12762523 -0.15576771 -0.05853493
0.15858991 0.060541242 -0.11598088 0.078459054 -0.12441034 0.15504052 0.12275002 0.1786155
0.08840187 -0.14725755 -0.071549974 0.012805194 0.062067077 0.1075412 0.18955147 0.010730632
-0.12173525 -0.03998811 -0.1617625 0.14681396 0.004123387 0.0013869486 0.013923271 0.07381418
-0.08102655 -0.022183241 0.07784878 0.14652967 -0.0113875065 -0.05912708 0.13574627 -0.010431096
0.13360792 0.16711795 0.016698359 -0.091141604 0.10637367 -0.110588394 0.027616832 0.063416146
0.063288696 -0.10458361 -0.046332415 -0.08665088 0.05962388 0.049783282 0.1709677 0.14208612
-0.188475 0.17480566 0.116838865 0.03454497 -0.08838436 0.12698172 -0.11698218 0.090479165
0.11617945 0.14900215 -0.01811623 -0.0055784155 -0.1257522 -0.19746867 -0.10315592 -0.17022708
0.1489543 0.012790011 0.16675325 -0.06456392 0.06294348 0.0711475 -0.133779 -0.03373818
0.1274083 -0.07193082 0.14894347 -0.009673143 -0.14135002 0.03001197 0.058784362 0.09864102
-0.090952 -0.048503622 0.059494153 0.05923115 0.028093122 -0.10524599 -0.023481846 0.1373231
-0.1838719 0.08797156 0.12468017 -0.14060518 -0.15602557 0.15510483 0.08967425 -0.15218511
-0.031358182 0.03571932 -0.09513356 0.2230404 -0.096523896 0.036563754 -0.09232085 0.106524825
-0.14934872 -0.17626022 -0.039410107 -0.060498923 -0.12663645 0.10781201 0.12848368 0.011626039
-0.077485554 0.15350404 -0.11205309 0.10071713 0.15328173 0.13395865 -0.024255324 -0.16089214
-0.0057476973 -0.18601814 -0.10073484 -0.008357705 -0.070572644 -0.118678376 -0.13884944 0.072341114
-0.0636783 -0.090939075 0.05306394 -0.0028704896 0.15717813 -0.08122104 0.11349046 -0.032057676
-0.076203 0.082820624 -0.16472554 -0.13102958 0.16024332 -0.10721208 -0.15182164 0.09572447
-0.13309497 -0.15532865 -0.050684497 -0.11643566 -0.14450169 -0.08428137 0.035333637 -0.12592377
0.12368712 0.004966657 -0.16384917 -0.08021314 -0.053983834 -0.034129582 0.16225713 -0.114852145
-0.05877933 -0.114580624 0.04608652 0.057054237 -0.15063235 0.15731794 -0.1638202 0.10258416

Network_stack.0.0.gru.bias_ih_l1 f4 [96]
00000000: 3f54 103e 745c a53c 860f bd3d f867 053d
00000010: c4e5 52be 7b0f d2bd 8a21 1cbc b544 dbbc
00000020: 7580 0abe 865a 0abe 035e 313e 2750 0abe
00000030: 7c92 b93d 86ce ea3c a4f5 27be 25a2 0a3e
00000040: 4c9c 43be 6e5c c03d 49dd 6c3d bc27 b53d
00000050: 3173 f23d 7cc7 553b 5ddf 8e3d dd48 32be
00000060: bb59 1d3e f16d 053e e74f 953d f8ce 99bd
00000070: 4d3c 05be d838 c43d 4eb8 0b3e c79e 15be
00000080: 8bdc efbd b0d6 42be 0e9c 5b3e de6b b8bd
00000090: 3646 23be 8cd7 28bd a1c3 d33c f10e bbbd
000000a0: 1ff3 05be 69e3 da3d f813 c53d f84c d23d
000000b0: 2400 b4bc 04e4 41bd adac 4bbe 1b46 e43c
000000c0: 788e 97bd 2ffc 453d c691 3ebe dd09 0ebe
000000d0: 2c15 813d 55e3 afbd c95c 10be 83b3 91be
000000e0: 520f 843d bdfe 723e e711 773e a85d 04bf
000000f0: 2126 303d c449 f3bd db2f 51bd 176a eebd
00000100: 0b2c 473d 0460 00be b04d c9bd a185 d5bd
00000110: 8a8e 55bc f8c3 15be a1da 16be d3ed a3bd
00000120: b698 243e fcd1 b8bd 89b1 723d 004b 8e3d
00000130: 7c5e 39be 66f1 dcbd bc53 8ebd a82f b03d
00000140: dde3 68bd 1079 fabd 78b6 253c 84fa 43be
00000150: 5e73 58bd 0e26 4b3e b1d1 9b3d 02d0 3f3e
00000160: aff7 5dbd 2d97 1d3e 9050 4a3d cfb3 f93d
00000170: 93af babd 47c6 56bd 9930 2dbe f279 8abd
0.14094637 0.020185687 0.092314765 0.032569855 -0.20595461 -0.10256859 -0.009529481 -0.02676616
-0.13525565 -0.13511094 0.17321019 -0.13507138 0.09061143 0.028662931 -0.16402298 0.13538416
-0.19102591 0.093926296 0.05782822 0.08845469 0.11838377 0.0032620123 0.06976197 -0.17410608
0.1536626 0.1303022 0.07290631 -0.07510179 -0.13011284 0.095811546 0.13644525 -0.1461135
-0.11711987 -0.1902721 0.21446249 -0.09004949 -0.15944752 -0.041221187 0.02585012 -0.09133709
-0.13081025 0.10687906 0.09622949 0.10268587 -0.021972723 -0.047336593 -0.1989009 0.02786546
-0.07400221 0.048336204 -0.18610296 -0.1387095 0.06302866 -0.08588282 -0.14097895 -0.2845727
0.064482346 0.23729987 0.24127923 -0.5170541 0.043005113 -0.11879304 -0.05107103 -0.11641329
0.048625987 -0.12536627 -0.09829271 -0.10425878 -0.013034472 -0.14625537 -0.14731838 -0.08004346
0.1607388 -0.09024426 0.059251342 0.06947899 -0.18102449 -0.107882306 -0.06949565 0.0860284
-0.056857932 -0.12230122 0.010114305 -0.19138533 -0.052844398 0.19838735 0.07608355 0.18731692
-0.054191288 0.153897 0.049393237 0.12192499 -0.091155194 -0.052435186 -0.1691307 -0.067615405

Network_stack.0.0.gru.bias_hh_l1 f4 [96]
00000000: 1b35 89bd 59a0 4dbd eeba 16be de57 3bbc
00000010: ad86 ebbd 1ffd 6abc 9f58 3e3d 5f6a eebc
00000020: d90c eb3d 07ad 10bc d9ed 273e 17cb 7c3d
00000030: 5116 09be cebc 683d 50af 53be d23d 1abe
00000040: e0a4 94bd 3ea7 3b3d ced6 2cbe b41f ee3b
00000050: 214a 943d 2b22 633d 96bd 513e 3c25 e6bd
00000060: 40b1 483c bdc6 333e eaa9 7abd 96c5 a63d
00000070: 3810 8ebb 72c1 c13b fb46 0dbe 1bc2 03b9
00000080: 56d9 f63d ee33 97bd 2e33 d4bd ab7f 3dbe
00000090: b3b3 17be 2b9e a83d c9ab d83d 8fac 9dbd
000000a0: 9308 aabd d675 a23c 1037 91bd c6f5 febd
000000b0: 5a01 e2bd 625f 46be 3557 ecbd 212e 6b3d
000000c0: 8581 31bd bf16 c1bd 1c40 cdbd aea4 953d
000000d0: b670 27be 798f 28be 9872 d1bd 768f 9ebe
000000e0: 823a b0bd e35c 613d cda4 4e3e 5fc5 19bf
000000f0: a5a4 56be e2b7 e2bc e3f7 bb3d 883d 13be
00000100: edcc 32bd 5aa5 11be f687 b9bd 157e a1bd
00000110: efa2 f8bc b8e5 1bbe 5478 433e 599b d0bd
00000120: 7250 15be 4c16 53bd f489 0ebe b1c9 f4bc
00000130: f53f 9d3d e45a 08bc 4db6 b1bd bd1e ebbb
00000140: 3270 953d 2c3e 06be 642d da3c 8510 013e
00000150: 7bdc c7bd b91d 6a3c 1d0d df3d 36d2 d7bd
00000160: e8ef d7bd 63df 01be 96eb b9bc 110d 8fbc
00000170: ad45 06be 3962 f3bd fa0c 2bbe a3a8 7fbc
-0.06699582 -0.050201748 -0.14719746 -0.011434523 -0.11500297 -0.014342575 0.046471234 -0.029103456
0.1147706 -0.008830315 0.16399325 0.06171712 -0.1338742 0.056820683 -0.20672345 -0.15062645
-0.0725801 0.04581379 -0.16878816 0.007266963 0.072407015 0.055452507 0.20482478 -0.11237571
0.012249291 0.17556281 -0.0611972 0.08143155 -0.0043354295 0.005912953 -0.13796608 -0.00012565443
0.12053172 -0.07382952 -0.10361324 -0.18505733 -0.14814644 0.08233293 0.105796404 -0.076989286
-0.08302417 0.01983158 -0.070905805 -0.12449221 -0.11035414 -0.19372323 -0.11540071 0.05741704
-0.04333641 -0.094281666 -0.100219935 0.07306801 -0.1635159 -0.1646098 -0.10226935 -0.30968827
-0.086049095 0.055020224 0.20180054 -0.6006679 -0.20961244 -0.027675573 0.0917814 -0.14378941
-0.043652464 -0.14223233 -0.090591356 -0.07885376 -0.03035113 -0.1522435 0.1908887 -0.1018588
-0.14581469 -0.051534936 -0.13919812 -0.02988133 0.076782145 -0.008322451 -0.08677349 -0.007175295
0.0729679 -0.13109654 0.026632972 0.12603958 -0.0975885 0.014289313 0.10891173 -0.105381414
-0.10543805 -0.12682872 -0.022695344 -0.017462285 -0.13112517 -0.11883969 -0.16704169 -0.015604171

Network_stack.1.0.gru.weight_ih_l0 f4 [96, 2]
00000000: ed31 6ebd 9517 06be f768 00be b230 02be
00000010: 830a 99be 1b05 87bd 9c65 8a3c 3bf8 d13d
00000020: 1c3e 9cbd ae1a 583e 9a5c 163e dc66 193e
00000030: 1fa5 c63d b0bb e83d bee9 613d de45 8c3d
00000040: ab41 db3d a469 1a3e 4cd8 413e 88bc 613e
00000050: 08cf 9e3d 82af 503e a7de fc3b 4505 293d
00000060: beab 0d3e fcf1 a43d 66ec 013e 7ed7 5abe
00000070: fda1 cd3d ee2a 5d3d 7b5b 21bd ced0 53bc
00000080: 76eb 673d 5ce8 1b3d f9ad e53d 5559 6f3e
00000090: c053 f33d fca7 b63d 3361 69bd cb5f 353d
000000a0: 95b7 723d 120c 8e3d eee5 71bd dfdf 563e
000000b0: f39d 773d 7415 3bbd a60d b03d 9a74 b53d
000000c0: 7cd9 033d 6668 15be 8c7a fabd 8ac0 d1bd
000000d0: 011d bc3d 8f20 4a3e 200d 173e 5de2 52bd
000000e0: 75d8 8d3d 3b33 4ebb 11ee d9bd 6efa 11bd
000000f0: 3d1c 1b3d 2984 6dbd 1820 06be 023b 083e
00000100: be72 d6be f8c3 5abe b30f 93be c6d0 9abd
00000110: 2a5b 35bf 1c03 8dbe 5998 34be 952f b0bd
00000120: 1cb3 8fbe a711 a4bd e859 8e3d 7a63 833e
00000130: 0b03 c7bd 7a52 a63e d411 02be c9a2 e6bd
00000140: 4475 8b3e 0116 083d 0651 483e 5e14 a2bd
00000150: dea1 debd 8087 943e bcd7 07be 3352 c2bd
00000160: a39a 55be b9aa bf3d 4f20 da3d ed4f 6d3d
00000170: 85c7 4cbe 9d99 ab3b 0bc3 6cbe 1b41 89be
00000180: 09a9 5dbc 3480 14be accd 833e 2ec5 c83e
00000190: 2429 66be 6b30 403e 199e c1be 611f abbe
000001a0: 36db b93b 99c6 d4bc 4ba4 333e 9813 e7bd
000001b0: 09d4 6bbe ef69 76bd 0870 45be 0976 99be
000001c0: c26e 4b3e 902a 90be d72b ca3b 8c7a bd3d
000001d0: 660f d0be 7c5d efbd 5498 debd 451d 693d
000001e0: a908 9fbe fe34 303e 1f12 b4be 5b54 74be
000001f0: 2828 61be 1bb1 21be c310 9cbe b982 0fbe
00000200: c569 75bd 2d58 0f3e 47f6 28be 9237 1e3e
00000210: 8081 efbc 8127 9bbd f805 223e af9e 2bbd
00000220: 0640 ebbd f9ee aa3d 89a9 093e 3f6e 453e
00000230: 25aa 913e 6311 893c e71a 07bc 5a53 08bd
00000240: 3765 b0bd 2c81 953c 5111 ce3c 2bb6 423e
00000250: ed7d e13d 15bb 3c3e 0dd0 b3bd 4249 b6bc
00000260: d05f 54be 7ce4 a93d ac89 e0bd 4314 1e3e
00000270: c72c 2d3d a9df 9f3d 82f9 9f3d 744c 873d
00000280: 8cc5 963d b95d 2ebe cdfb 16be e3ba cd3a
00000290: 1146 ac3d fa4b d9bd 6c72 14be 4cd1 62bc
000002a0: bcb1 183e 7d90 843d df6b 33be 80cb 4ebe
000002b0: c2c5 63bd 6bf8 803c 45eb e0bd a5a5 29be
000002c0: 56e7 4abd d410 0dbe 21d3 68bd e81e 35be
000002d0: 8b59 663c 98f4 323e fd72 623d 8157 11be
000002e0: 6a5a 953d 4579 413d 8cf7 183d 3c15 ef3d
000002f0: 7b72 1c3e 6ef8 b3bb 24db 2a3e 774e 21be
-0.05815308 -0.13094933 -0.12540041 -0.12713888 -0.29890832 -0.06592771 0.016894154 0.10252424
-0.07629034 0.21103927 0.14683762 0.14980644 0.09699463 0.113639235 0.055154555 0.068492636
0.107058845 0.15079361 0.18930167 0.22044575 0.07754332 0.20379451 0.007716972 0.04126479
0.13835046 0.08053967 0.12687835 -0.21371266 0.100406624 0.05399602 -0.039393883 -0.012928201
0.056621037 0.038063392 0.11214823 0.23373921 0.118812084 0.08918759 -0.056977462 0.04428081
0.05925711 0.06935896 -0.05905717 0.20983838 0.060453366 -0.045674756 0.08596353 0.088601306
0.03218983 -0.14590606 -0.12230405 -0.10241802 0.091852196 0.19738983 0.147511 -0.051485408
0.069260515 -0.0031463641 -0.10641111 -0.03563922 0.037868727 -0.057987366 -0.1309818 0.1330376
-0.41884416 -0.21363819 -0.28722915 -0.075593516 -0.7084223 -0.27541435 -0.17636241 -0.086028256
-0.28066337 -0.080111794 0.06950742 0.25661832 -0.09717377 0.324848 -0.12702113 -0.112615176
0.27237904 0.03322411 0.19562158 -0.07914041 -0.108707175 0.29009628 -0.1326589 -0.094883345
-0.2085977 0.09358735 0.106506936 0.05793755 -0.19997986 0.005236818 -0.23121278 -0.26807484
-0.013529071 -0.1450203 0.25742853 0.39212936 -0.22476631 0.1876847 -0.3781593 -0.33422378
0.005671884 -0.025973605 0.17543142 -0.11283034 -0.23030104 -0.06015962 -0.19281018 -0.29972866
0.1986647 -0.28157473 0.006169777 0.092518896 -0.40636748 -0.116877526 -0.10868898 0.05691268
-0.31061295 0.17207715 -0.35170075 -0.23860304 -0.21987975 -0.15790217 -0.30481538 -0.1401471
-0.059915323 0.1399848 -0.16500197 0.15450886 -0.029236555 -0.07575894 0.1582259 -0.04189938
-0.11486821 0.08346362 0.13443579 0.19280337 0.28450122 0.016731923 -0.00824616 -0.033282615
-0.08613055 0.01825007 0.025154741 0.19014804 0.110103466 0.18430741 -0.08779917 -0.022251729
-0.20739675 0.08295533 -0.10963759 0.15437417 0.04227903 0.07806332 0.07811262 0.06606379
0.07361898 -0.1702794 -0.14744492 0.0015695955 0.084118016 -0.106101945 -0.14496773 -0.013843846
0.1491155 0.064728715 -0.17521618 -0.20194817 -0.05560852 0.015743455 -0.10982374 -0.16567095
-0.049537025 -0.1377595 -0.056841973 -0.17687571 0.014059435 0.17476118 0.055285443 -0.14193536
0.07292636 0.047234792 0.037345454 0.11673972 0.15278046 -0.0054922616 0.16685158 -0.15752588

Network_stack.1.0.gru.weight_hh_l0 f4 [96, 32]
00000000: 33eb c03d ec17 fabd 4ce0 de3c 899d f43d
00000010: 8c67 773d a954 89bc 7f95 9a3d abfc e33c
00000020: 8937 3dbd a662 19be e148 6d3d 9235 363e
00000030: cc4f 1cbe 90de 1ebd 3d0e 50bd 2540 80bd
00000040: 3b29 f7bd 383e 62bd 955b b3bd 58d8 05be
00000050: 3e0b 22be 085b 103e e46c 1f3b 5bdb 0ebe
00000060: 97f1 92bd eeec b3bd 1b1c 13be fef6 a83d
00000070: 0d02 19be 65ec aa3b 462d 32be 3454 253d
00000080: 6bd5 453d 43cb 8d3d a4de fdbd 9df7 093e
00000090: 996a ea3d 384d fcbd a492 113e 6f00 29be
000000a0: 6b98 41bd 38d7 a4bd 068e 2b3e 588f 983d
000000b0: 0500 3cbc a844 90bc 7113 81bc 2953 903c
000000c0: f8f6 2d3e 6523 2dbe b6cc 143d 6ab9 a43d
000000d0: 0981 4a3d 34c0 f13d f2ed 66bc eaeb 073e
000000e0: c627 dcb9 6f23 ae3b e0d2 12be d383 d2bd
000000f0: f309 08be 940f 9b3b 67c0 18bc c6df bdbd
00000100: 738c 8e3d 1ade 073e 6878 41bc 8214 ed3d
00000110: b305 cdbd e6d0 a73d af54 2cbd e29e 80bd
00000120: d819 c13d 5ad6 9cbd 8dd4 e63d 07fd 70bd
00000130: 6cb3 3e3e 752b 19bd ccbb 18bd 202b 58be
00000140: e123 cf3d f3fd c3bd 50f7 0ebe e1ed 5f3d
00000150: a2e1 32be 55b3 c4bd 8d52 683e e0e3 8b3d
00000160: 2ed7 0e3c 61ef a33d d776 643d 9c36 413c
00000170: e1e5 47be ddd7 08be c3e8 c0ba 1b4b 12be
00000180: 338e c1bd 2503 f0bd 2314 cbbd efe0 353e
00000190: 8f85 5e3d 0820 c53c 473a 633e 47c1 f6bd
000001a0: 9e21 823d 3fa2 17be e971 933c d44e 013e
000001b0: 90e9 81bd 7885 143e bd16 b6bd 2715 b83d
000001c0: 66d1 d23d 8dc1 a93b 54bf 6abc 4194 7f3d
000001d0: 0f7f 15be 9508 de3c 23cc 3f3d 8bdc c9bd
000001e0: 10a6 de3d 3654 88be 37fe 653c d586 ab3b
000001f0: 6b0b 153e 4627 88bd 5675 923d 251c e93d
00000200: 5bd0 cb3d 897d 24be b23c e93d c280 c4bc
00000210: f5a0 11be 58ce d73c a1c9 5d3e e82a 433e
00000220: 992e bd3c 4cf6 283d 5b77 e3bd 44d5 1c3e
00000230: 830b 62bc b0ae febb e019 c43d 3960 903d
00000240: fbb6 ce3d 10d0 18bb e07e 9c3c bd87 b7bd
00000250: 7bd2 393e 11d1 053d 3786 133e 04aa 20be
00000260: 0ad7 04be 2717 c2bc df02 a03b cd98 083e
00000270: bffe d1bd f616 963d bc52 c2bc b03e d3bd
00000280: f545 4f3d 3aaa 843c ff2f 1f3e 5989 263a
00000290: 7dfc 073e 4b26 5ebd 7070 2d3d cda4 ca3d
000002a0: f2a4 1d3d 98d4 e73d dd1e 7d3d e9d1 d0bd
000002b0: e66a 9abd 280c 413e 894f 8e3d 8855 1c3e
000002c0: 9cc1 0d3c fb98 aa3d 7829 ac3d cfc7 f6bd
000002d0: 5a50 1dbd 80bd 223c 9385 c13c bd6d f73d
000002e0: 982d 6f3d b59f a93d 276a 07be 70eb 1c3d
000002f0: 6271 cebd 0268 30be deff 3e3d 29b3 01be
00000300: 1d8d 31be 1ae1 db3d 6601 84bc dd3c b2bd
00000310: bb9f e73b 8a06 53bd 92ed 0f3e ebad 733d
00000320: 789d eebd 4a0e 7abd 8830 49bc fcb8 813d
00000330: 95a2 2f3c facd ef3d df9f 3dbd 87bd 1e3e
00000340: 3a63 443e 20c6 3fbe 5c2b 05be 6f22 0d3c
00000350: 2eaa 283e f8be 7f3d 6a42 4dbe c9ff 9fbd
00000360: 7ab8 b83d d75c 4bbe c294 67bd 3836 f5bd
00000370: 52a9 3f3e 40af 97bc c75f d23d 2d65 343e
00000380: 1776 c3ba e42c fa3d d77b c73c afe1 243e
00000390: 57ac fabd 3791 093e 7b5a 27be f701 9a3d
000003a0: 14d3 a03d 5b41 1c3d 6f09 8f3d 0626 e93d
000003b0: fb25 7b3d 13b7 b5bd 40f7 4ebe c894 f8bd
000003c0: fb25 e4bd 934f 4f3d 9c3b 51bb 0dac 0c3e
000003d0: 05aa 5ebb 7f59 653e 7eb6 8fbd b8e7 d33d
000003e0: 8616 293e ed0c 1dbd e8a4 6ebe 8caf 21be
000003f0: cabf 97bd 1816 063e 0886 073d 2e35 b4bd
0.09419861 -0.12211594 0.027206562 0.1194411 0.060401484 -0.016764002 0.07548045 0.027830442
-0.04619554 -0.14979038 0.05793083 0.17793873 -0.15264815 -0.03878647 -0.05079483 -0.062622346
-0.12068411 -0.055235118 -0.08757702 -0.1307081 -0.15824601 0.14097226 0.0024326378 -0.13950865
-0.07174986 -0.08785425 -0.1436619 0.08250235 -0.14942189 0.0052161687 -0.17400083 0.040363505
0.048299234 0.06923535 -0.12395981 0.13473363 0.11446113 -0.12319416 0.14216095 -0.16504072
-0.047264498 -0.08048862 0.16753396 0.07449216 -0.011474614 -0.017610863 -0.01575634 0.017617779
0.16988742 -0.16908033 0.03632804 0.080431774 0.049439464 0.11804238 -0.0140948165 0.13273588
-0.00041991303 0.0053142826 -0.14338255 -0.1027905 -0.13285045 0.0047320817 -0.009323216 -0.09271197
0.06960382 0.13268319 -0.011808492 0.11576177 -0.10010853 0.08194141 -0.042072948 -0.062803045
0.094287574 -0.07658072 0.112710096 -0.058835056 0.18623132 -0.03739496 -0.037288472 -0.21110201
0.10114265 -0.09569921 -0.1396153 0.05467022 -0.17468885 -0.09604517 0.2268774 0.06830573
0.008718295 0.08004642 0.055777397 0.011792805 -0.19521286 -0.13363595 -0.0014717806 -0.14286463
-0.094509505 -0.1171935 -0.0991595 0.17761587 0.05432659 0.024063125 0.221902 -0.120485835
0.06354068 -0.14807986 0.017998653 0.12627727 -0.06343377 0.1450404 -0.08891056 0.089884095
0.10293846 0.0051805438 -0.014327843 0.062397245 -0.1459925 0.027103702 0.04682554 -0.09856518
0.10871518 -0.26626748 0.01403766 0.005234579 0.14555137 -0.06648116 0.07151286 0.11382321
0.0995185 -0.16063513 0.1138853 -0.023987178 -0.14221556 0.02634351 0.21658947 0.19059336
0.023093509 0.041250512 -0.111067496 0.1531573 -0.01379669 -0.007772289 0.09575248 0.07049603
0.100934945 -0.0023317374 0.019103467 -0.08961437 0.18146698 0.032670084 0.14406668 -0.15689856
-0.12972656 -0.02369268 0.0048831548 0.13339539 -0.10253667 0.07328598 -0.023721091 -0.10314691
0.050603826 0.016194452 0.15545653 0.0006352864 0.1327991 -0.054235738 0.042343557 0.098947145
0.038487382 0.11319846 0.06179701 -0.10196287 -0.075399205 0.18852293 0.06948764 0.15267003
0.008652117 0.0832996 0.08406347 -0.12049829 -0.038406707 0.009932876 0.023623263 0.12081478
0.05839309 0.08282415 -0.13224088 0.03831047 -0.1008022 -0.17227176 0.046630733 -0.12666
-0.17338987 0.10736294 -0.016113948 -0.08703015 0.007068602 -0.051519908 0.1405547 0.059492033
-0.116511285 -0.061048783 -0.012279637 0.06334111 0.010719915 0.11709209 -0.046295043 0.15501986
0.19178477 -0.18727922 -0.13004822 0.008614167 0.16471168 0.06243798 -0.20044866 -0.07812459
0.09019561 -0.19859634 -0.05653835 -0.11973232 0.18716934 -0.018516183 0.10272174 0.1761672
-0.0014912513 0.122155935 0.024351044 0.16101716 -0.122399025 0.13434301 -0.1634311 0.07519906
0.0785276 0.038148265 0.06984221 0.113842055 0.061315518 -0.08872809 -0.20211506 -0.12137753
-0.11140057 0.050612997 -0.00319264 0.13737507 -0.0033975851 0.22397421 -0.070172295 0.10346931
0.16512498 -0.038342405 -0.23305094 -0.15789622 -0.07409628 0.13094366 0.033086807 -0.08799206

Network_stack.1.0.gru.bias_ih_l0 f4 [96]
00000000: 9b91 003e 09d5 f6bd de2b 2abd b7ac 0e3e
00000010: f88e 053e bb6e 1d3b 8dfd dbbd aad4 1f3d
00000020: 0d5a 433e 9287 5cbd 0423 343e 51d8 c83d
00000030: 9c21 69bc 3308 b73d 8140 eabd a075 343e
00000040: 6c46 2bbd 4157 503d fa86 403e e3d1 1fbe
00000050: e1c2 bebd e086 e7bc 6499 dabd a955 c8bd
00000060: c6ad 63bd 547f cbbd 880e 303e 737e 383d
00000070: fb91 b53d 7036 b93c e04b 06be 64ac 1fbe
00000080: 4607 c0be 7a3a 75be 0e66 26bf 698b 9fbe
00000090: 57ef 98be 558e 743d 263c 2b3d dc4a 23be
000000a0: 7315 e33d d84b 083e f5b2 38be 68bb 9ebe
000000b0: 65a5 22bf c913 003d 51dd d3bd 0fa5 bdbe
000000c0: bfa0 36bd d262 4f3e 22fe 26bd 4cbb a6be
000000d0: 03bf a13d 39d6 553e c760 b1be 2677 b0be
000000e0: e9fd 323e 35c6 d8b9 677b 14bd 1f59 e7bd
000000f0: ec8c 6bbe bf39 9abe f1ae 85be 94bb 9fbe
00000100: 27d7 68bd a644 0abe bf4a 923d a727 333e
00000110: 5ef7 ebbd fb15 1d3b 40dc b13b 6851 303d
00000120: a9dd 0b3e c4aa a3bd 21d6 a23c 8335 143e
00000130: 0029 31be 1371 a13d 812b a63c 91b8 883d
00000140: ca63 1b3e 55cb 1dbe 3fc2 4fbe b979 e83d
00000150: 1d18 c53b fc76 ef3d 6b21 9fbd f713 413e
00000160: cefc 973d fef1 f6bd dd2d 1fbe 9b99 493e
00000170: db81 323e 9308 06be 14b8 0b3e 8aac 023d
0.12555544 -0.12052352 -0.04154574 0.13933073 0.1304282 0.00240223 -0.1074172 0.03902117
0.1907732 -0.053840227 0.17591482 0.09806884 -0.0142292045 0.08937111 -0.114380844 0.17622995
-0.041815206 0.05086446 0.1880149 -0.15607409 -0.09314514 -0.028262556 -0.10673788 -0.097819634
-0.055585645 -0.09936395 0.17193043 0.045042466 0.08865734 0.022608966 -0.13114882 -0.15593106
-0.3750555 -0.23948088 -0.64999473 -0.3116105 -0.29870102 0.05970605 0.04180541 -0.15946525
0.110880755 0.13310182 -0.18037017 -0.31002355 -0.6353362 0.03126887 -0.10344947 -0.37039992
-0.044586893 0.2025254 -0.040769704 -0.3256477 0.07897761 0.208825 -0.34644148 -0.34465903
0.17479672 -0.00041346406 -0.0362505 -0.112962954 -0.23002976 -0.30122182 -0.26110032 -0.31197798
-0.05684581 -0.1350275 0.07143163 0.17495595 -0.11521791 0.00239694 0.005427867 0.043046385
0.13658775 -0.07991555 0.019877495 0.14473538 -0.17300797 0.07882895 0.020284416 0.06675828
0.15174785 -0.15409596 -0.20288943 0.11351342 0.0060148374 0.11692616 -0.07770046 0.18855272
0.074212655 -0.12057875 -0.15544839 0.19687502 0.17432348 -0.13089208 0.13644439 0.031902827

Network_stack.1.0.gru.bias_hh_l0 f4 [96]
00000000: c51d 003e 653d febc cf84 083e 1762 21be
00000010: 049f 153e a17d 44bd d4a3 323c 61d9 0abe
00000020: 6548 b83d 05ad 203e 761c c93d 20f6 15be
00000030: 5192 37bd d7c0 56bc 8fcc b33d da56 353e
00000040: c464 2b3d 2cf1 3ebc d030 863e bb3f cf3d
00000050: afb8 db3d 1ae6 cabd 5507 cdbc a8dd 06be
00000060: 3dc7 d9bd b368 1a3e ca41 24be 27a1 1e3e
00000070: 1c31 8ebc 51d6 483e ac37 5b3c a01e 14be
00000080: be89 16be dad4 c3be 0d75 38bf 92bd 9fbe
00000090: 5ccc 1abe 756f 7d3e 74f4 7fbe ef10 adbe
000000a0: eafd 043e 1587 dabd 6972 3cbd d330 28be
000000b0: dcc2 a5be f9dc f4bd af5b 72be 6b1d 86be
000000c0: 525d 3fbe f2c4 7c3e 822d 9dbe 5c50 94be
000000d0: a941 cc3c fdbf 3b3e 4593 d6be b9a3 17bd
000000e0: ba18 843e 49e6 683e 4e4d 1dbe eb06 8bbd
000000f0: 37da 9cbe f36b c7be d552 88be 3565 b0bd
00000100: fa58 d1bd e953 48be c928 f43b 5e17 a5bc
00000110: 199a 4e3d 83ff e23d 90e0 2b3e c29c 813c
00000120: fc36 04be c0c7 69bd f967 123e c636 47ba
00000130: cd9e ad3c 3965 01be 0199 3dbe 0005 063d
00000140: 69a0 a5bd 186b 83bd 7658 73bd ad93 e33c
00000150: 7557 07bc 550d 48bd 0dc5 e43c 10b6 a7bc
00000160: 48fd ffbd 2597 0e3e 6c2b d3b9 1fcf 833d
00000170: f93d 4f3e fa7c 2abe a67d 643d f114 4abd
0.12511356 -0.031035135 0.13331912 -0.15760075 0.14611441 -0.04797137 0.0109033175 -0.13559486
0.08998183 0.15691002 0.098198816 -0.1464467 -0.044817273 -0.0131075 0.08779251 0.17708912
0.041844144 -0.01165418 0.26209116 0.101195775 0.10728585 -0.0990717 -0.02502791 -0.13170493
-0.10633705 0.15079002 -0.16040722 0.15491162 -0.017357402 0.19613005 0.013379972 -0.14464808
-0.14700982 -0.3824833 -0.72053605 -0.31199318 -0.1511702 0.24749549 -0.24995595 -0.33801982
0.12987486 -0.10670296 -0.046007548 -0.16424875 -0.32375228 -0.1195621 -0.23667787 -0.2619432
-0.18687943 0.24684504 -0.30698782 -0.2896756 0.024933653 0.18334956 -0.41909233 -0.037021372
0.25800115 0.22744097 -0.1536152 -0.06788429 -0.30635235 -0.38949546 -0.26625696 -0.08613054
-0.10222049 -0.19563259 0.007451151 -0.020152744 0.050439928 0.11083891 0.16784883 0.015821818
-0.129116 -0.057075262 0.14297475 -0.00075994094 0.021193886 -0.1263627 -0.18515398 0.032719612
-0.080872364 -0.06416911 -0.059410535 0.027780378 -0.0082605975 -0.04884084 0.027925992 -0.020472556
-0.124994814 0.13924845 -0.00040277408 0.064359896 0.20238484 -0.16649237 0.05578389 -0.049336378
