models/model_uniform_region_0-0.3.0.6-0.9_multiple_Agentsdf2acbf7.pth (torch, 87266 bytes, 18 tensors)

Network_stack.0.0.gru.weight_ih_l0 f4 [96, 2]
-0.068966635 -0.10159994 -0.21160184 0.10324001 0.039351158 0.082718246 0.06808279 0.011787704
-0.09791799 -0.097397946 0.046754785 -0.10601102 0.13665438 0.12721157 0.07801171 -0.09785435
-0.11480004 0.02411678 -0.03587114 0.21793701 0.19496101 -0.10438611 0.1325597 -0.10302417
0.020276498 -0.14160629 0.04727878 0.013578436 -0.113717735 -0.028505754 0.13419716 -0.13167785
0.1419706 -0.076267 0.07636355 0.09090826 -0.209737 -0.09590423 0.06689091 -0.05339504
-0.15655118 -0.15357772 0.023169756 0.19146734 -0.14505817 0.058211572 0.098132916 -0.08070308
0.12933013 0.18721569 -0.13785662 -0.18028647 0.0052512526 0.15131153 0.031377826 0.0014167897
0.04684977 0.058625646 -0.11411867 -0.17305045 -0.2282956 0.12649289 0.10140865 -0.052332036
0.16957827 0.0030418383 0.19040696 -0.08797093 -0.09493362 -0.004725156 -0.51570034 -0.79182863
0.20643713 0.08583525 -0.46367478 -0.30133846 -0.16519624 0.1264243 0.021544797 0.21563306
0.11841058 -0.031360004 0.103861585 -0.19176349 -0.023856595 0.039962597 0.4058745 0.34817624
0.25642702 -0.16770238 0.12802355 0.06576687 0.08892083 0.15555388 0.0130958585 0.07134449
-0.54302853 -0.38746685 0.17938922 -0.07679462 0.21083081 -0.04835314 0.090512365 0.17549583
-0.0054396684 0.106861934 0.38339734 0.24523473 -0.12067769 -0.25362512 -0.36965328 -0.2829894
0.031004915 0.14499815 -0.14873628 -0.26844144 0.17971335 -0.15339777 0.08457432 0.17799577
0.47194535 0.5022777 0.29086447 0.16681336 -0.21892641 -0.3194884 0.13174893 0.31975052
0.16860645 0.14618506 0.14430149 0.0052390886 0.08537346 -0.10886836 0.29887593 -0.029538797
-0.13092755 -0.10265375 0.026226649 0.038460504 -0.078956455 0.00086116866 0.012614919 -0.06702465
0.10880073 0.009815529 0.10472944 -0.065706335 -0.06994387 0.1160948 -0.10350374 -0.071372665
-0.038249966 0.0076953834 -0.14840232 -0.11941877 -0.19738093 0.11901402 -0.13029943 -0.15083063
0.2936786 0.05154381 -0.10752441 -0.16091383 0.2084305 0.21599638 -0.09763241 0.114140205
0.12530462 -0.0075372 0.02830726 0.14382449 0.12896177 -0.14474306 0.34826976 -0.05335257
0.098943815 0.10948239 -0.03290826 0.13349485 0.08142733 -0.15158515 -0.13307516 -0.10430283
-0.1528523 0.12220469 0.15883194 0.11345835 -0.38545743 -0.12610427 -0.10468236 0.09374476
00000000: 613e 8dbd a113 d0bd 27ae 58be 806f d33d
00000010: ae2e 213d 2f68 a93d fd6e 8b3d 3721 413c
00000020: 3a89 c8bd 9378 c7bd f281 3f3d 4e1c d9bd
00000030: 20ef 0b3e c043 023e 9ac4 9f3d dd67 c8bd
00000040: 491c ebbd 8e90 c53c 9eed 12bd e12a 5f3e
00000050: dca3 473e 63c8 d5bd bbbd 073e 56fe d2bd
00000060: e61a a63c 3d01 11be 65a7 413d 1778 5e3c
00000070: d8e4 e8bd e684 e9bc fb6a 093e 8fd6 06be
00000080: be60 113e df31 9cbd 7e64 9c3d 1c2e ba3d
00000090: 4cc5 56be 7069 c4bd 1afe 883d c2b4 5abd
000000a0: f44e 20be 7a43 1dbe 80ce bd3c 0410 443e
000000b0: 218a 14be 426f 6e3d e9f9 c83d a847 a5bd
000000c0: 1e6f 043e 78b5 3f3e 492a 0dbe 049d 38be
000000d0: b312 ac3b 69f1 1a3e 0986 003d 93b3 b93a
000000e0: 8be5 3f3d 7221 703d 0db7 e9bd 2334 31be
000000f0: 52c6 69be 5a87 013e 57af cf3d 1e5a 56bd
00000100: eda5 2d3e 9459 473b 0bfa 423e 1a2a b4bd
00000110: 8f6c c2bd 7bd5 9abb f004 04bf 48b5 4abf
00000120: 4164 533e 64ca af3d c866 edbe 0949 9abe
00000130: 3429 29be 5f75 013e b77e b03c eace 5c3e
00000140: 3f81 f23d 5973 00bd 62b5 d43d a65d 44be
00000150: e86e c3bc d2af 233d c8ce cf3e 2844 b23e
00000160: 674a 833e 2cba 2bbe 9b18 033e c8b0 863d
00000170: 201c b63d 8449 1f3e 0390 563c 0f1d 923d
00000180: eb03 0bbf 0e62 c6be cfb1 373e 7f46 9dbd
00000190: 08e4 573e f10d 46bd 8c5e b93d 2eb5 333e
000001a0: 3f3f b2bb 6eda da3d a84c c43e d01e 7b3e
000001b0: dd25 f7bd 27db 81be 3243 bdbe fde3 90be
000001c0: 05fe fd3c 657a 143e 534e 18be 2871 89be
000001d0: c706 383e 4e14 1dbe 4d35 ad3d 8644 363e
000001e0: d2a2 f13e 4595 003f 30ec 943e 1fd1 2a3e
000001f0: 3f2e 60be fc93 a3be 31e9 063e 57b6 a33e
00000200: 2ba7 2c3e 89b1 153e c5c3 133e a9ac ab3b
00000210: 48d8 ae3d 60f6 debd 4406 993e 59fb f1bc
00000220: df11 06be 213c d2bd 45d9 d63c c388 1d3d
00000230: ecb3 a1bd 0dc0 613a ceae 4e3c 3844 89bd
00000240: ebd2 de3d 50d1 203c 637c d63d 0b91 86bd
00000250: bb3e 8fbd 1cc3 ed3d c5f9 d3bd d52b 92bd
00000260: ffab 1cbd 8e29 fc3b c7f6 17be d491 f4bd
00000270: 3a1e 4abe 9fbd f33d 376d 05be 5873 1abe
00000280: 0b5d 963e 9a1f 533d c235 dcbd 98c6 24be
00000290: ce6e 553e 282e 5d3e 80f3 c7bd 57c2 e93d
000002a0: db4f 003e 9efa f6bb a0e4 e73c ba46 133e
000002b0: 8e0e 043e 8637 14be 6a50 b23e 3988 5abd
000002c0: 0ea3 ca3d 4e38 e03d d0ca 06bd e0b2 083e
000002d0: 5fc3 a63d 2339 1bbe db44 08be b99c d5bd
000002e0: 5085 1cbe 7446 fa3d d7a4 223e da5c e83d
000002f0: ad5a c5be 7a21 01be b563 d6bd 41fd bf3d

Network_stack.0.0.gru.weight_hh_l0 f4 [96, 32]
-0.023949828 0.15417749 -0.200114 -0.11003139 -0.09546172 0.08191281 0.08552174 -0.16314867
0.04394269 0.024952993 0.015759896 0.0661666 0.22101259 0.05614413 -0.14594784 -0.06269886
0.005599315 -0.08815089 0.089511596 -0.22896868 -0.020682145 0.13507581 0.013602542 -0.047126412
0.024221405 0.0050741723 0.105476 0.06715305 -0.12317812 -0.07729965 0.04477191 0.06833
0.0991029 0.037786175 -0.07422974 -0.16296798 0.14585352 0.11829388 -0.14760233 0.13744734
-0.18957375 0.17068958 -0.011664784 -0.0029986023 0.1010889 0.15801461 -0.0019395329 0.14196584
-0.17452583 0.098433755 -0.10946636 -0.20495573 0.01802703 -0.16624269 -0.07096735 0.07586888
-0.10919662 0.049877327 -0.022354243 0.076144725 0.08495637 0.1363718 -0.13155963 0.039770424
0.14014846 0.21605353 -0.05212063 0.16407669 -0.12566485 -0.08287713 -0.072910435 0.011641638
0.16920455 -0.0735758 -0.047762763 -0.053346064 -0.15070142 0.01678212 -0.059234988 -0.11480569
-0.14098011 -0.06972603 -0.115338355 0.12157787 -0.1583923 0.14986545 -0.06496348 -0.12780751
0.0054557887 0.12915374 -0.09129847 -0.009604221 0.1161396 0.0269399 0.19275764 -0.05230347
0.19526158 0.21207649 -0.15741919 0.36459595 -0.20537767 -0.25105938 -0.04268949 -0.025886562
0.00044524553 -0.07876338 0.15166564 -0.0036737656 0.0740175 -0.09386363 -0.037958756 0.07247675
0.03968559 -0.11648667 0.20326415 -0.047454488 0.05931278 0.15737803 0.06979894 0.13750562
0.056179166 0.050940167 0.0051432755 -0.024893515 -0.06927066 -0.04649011 0.1443111 -0.08986144
0.076470576 0.07407174 -0.13654381 -0.063409485 0.13102162 0.043261323 0.088439375 0.003576964
0.07000021 -0.111633874 -0.028489403 0.2125791 -0.04550008 -0.12428411 0.10268073 0.113321014
0.14167057 0.02770491 -0.2643458 -0.16867389 0.05234636 -0.026023153 -0.02327094 -0.05478893
-0.12713644 0.14144629 -0.11149162 0.11647314 -0.06642139 -0.17006236 0.04939539 0.065187514
-0.01372965 0.08487844 0.19490108 0.19342709 -0.09017907 0.04523735 0.08129382 -0.13160096
-0.04724245 -0.010926626 0.10862704 0.12762193 0.112456664 -0.05014022 -0.0644659 0.066015445
-0.14434928 0.114222825 -0.0113287885 0.0734058 -0.09803751 0.11537567 0.16387458 -0.016091932
0.17601822 0.10943784 -0.022074608 -0.19001134 -0.004227812 -0.08085701 -0.10786431 0.15670522
-0.025108648 -0.14765038 0.17744717 0.111589015 0.16857621 -0.12135493 -0.05059953 0.10668806
-0.019599972 0.07884411 -0.26351264 -0.051673796 -0.25175613 0.08448576 -0.18808298 0.1577402
-0.09453483 -0.021264238 -0.16376127 -0.06910689 -0.15945871 -0.039235547 -0.12232708 0.11823501
-0.19277024 -0.07723877 0.025629567 -0.10875171 -0.112313576 0.037434474 -0.110919006 -0.14049049
-0.012919125 0.020315247 0.05562786 -0.097447656 0.13656445 0.14192693 -0.14169157 -0.11008895
0.090777025 -0.05375127 -0.02542541 -0.17482108 0.07415475 -0.13225166 0.18037157 0.09234927
0.07603463 -0.060260955 0.10948988 0.18358462 0.05993331 0.18147022 -0.1453994 -0.0054696016
-0.13731694 0.013338793 -0.084244534 -0.06938625 0.014203211 -0.07420144 0.048352033 0.07776051
00000000: 6e32 c4bc b4e0 1d3e afea 4cbe 2358 e1bd
00000010: 6f81 c3bd e7c1 a73d 0626 af3d 7210 27be
00000020: 40fd 333d 386a cc3c e61a 813c 5b82 873d
00000030: 2051 623e 63f7 653d 5a73 15be 4368 80bd
00000040: 757a b73b 7488 b4bd db51 b73d c476 6abe
00000050: 9a6d a9bc 5051 0a3e 32dd 5e3c a007 41bd
00000060: f86b c63c 3e45 a63b cd03 d83d 8a87 893d
00000070: cf44 fcbd 474f 9ebd c062 373d 99f0 8b3d
00000080: 76f6 ca3d adc5 1a3d c305 98bd 14e1 26be
00000090: a05a 153e 1044 f23d 1125 17be ffbe 0c3e
000000a0: 9f1f 42be 40c9 2e3e a61d 3fbc 3384 44bb
000000b0: b207 cf3d 95ce 213e ed37 feba 7e5f 113e
000000c0: e6b6 32be a397 c93d e62f e0bd eadf 51be
000000d0: 6cad 933c 863b 2abe 5457 91bd 2561 9b3d
000000e0: 7aa2 dfbd 2b4c 4c3d 3f20 b7bc c4f1 9b3d
000000f0: 9bfd ad3d 0da5 0b3e 91b7 06be 50e6 223d
00000100: 1483 0f3e 233d 5d3e 717c 55bd b803 283e
00000110: 49ae 00be 7cbb a9bd 1152 95bd 92bc 3e3c
00000120: f543 2d3e e9ae 96bd e3a2 43bd 6781 5abd
00000130: 7951 1abe a87a 893c 63a0 72bd 3f1f ebbd
00000140: 175d 10be 85cc 8ebd 8436 ecbd d1fd f83d
00000150: 9731 22be 5476 193e 930b 85bd f9df 02be
00000160: 79c6 b23b e140 043e b1fa babd 065b 1dbc
00000170: 99da ed3d 11b1 dc3c 4262 453e 2a3c 56bd
00000180: a7f2 473e 942a 593e 7f32 21be 52ac ba3e
00000190: 864e 52be db8a 80be 2ddb 2ebd 0e10 d4bc
000001a0: d86f e939 b24e a1bd 3d4e 1b3e 8fc3 70bb
000001b0: 7d96 973d 933b c0bd a47a 1bbd b16e 943d
000001c0: 5b8d 223d 9090 eebd 7a24 503e a35f 42bd
000001d0: f5f1 723d b527 213e bff2 8e3d 46ce 0c3e
000001e0: 201c 663d a3a6 503d ec88 a83b 7ced cbbc
000001f0: c7dd 8dbd 6a6c 3ebd 4ac6 133e 4609 b8bd
00000200: 9b9c 9c3d edb2 973d 24d2 0bbe d5dc 81bd
00000210: 882a 063e c932 313d b41f b53d 7f6b 6a3b
00000220: 455c 8f3d 4da0 e4bd 9c62 e9bc 56ae 593e
00000230: 4b5e 3abd ab88 febd 464a d23d d914 e83d
00000240: 1712 113e 68f5 e23c 5558 87be d9b8 2cbe
00000250: 2369 563d 822e d5bc b3a2 bebc 5b6a 60bd
00000260: 0e30 02be 4cd7 103e b855 e4bd 7889 ee3d
00000270: f007 88bd d424 2ebe d252 4a3d 0881 853d
00000280: 53f2 60bc bfd4 ad3d 2694 473e c011 463e
00000290: ceaf b8bd cd4a 393d 607d a63d 67c2 06be
000002a0: 4d81 41bd 9705 33bc db77 de3d 53af 023e
000002b0: ae4f e63d d55f 4dbd b306 84bd 1b33 873d
000002c0: 4cd0 13be a8ed e93d 629c 39bc c855 963d
000002d0: e4c7 c8bd 144a ec3d bdce 273e 3ad3 83bc
000002e0: 1f3e 343e f220 e03d cfd5 b4bc 5592 42be
000002f0: 7589 8abb 5c98 a5bd f7e7 dcbd 5577 203e
00000300: a7b0 cdbc a931 17be b6b4 353e c888 e43d
00000310: 3e9f 2c3e ef88 f8bd 7441 4fbd 457f da3d
00000320: 1f90 a0bc 0579 a13d 21eb 86be e7a7 53bd
00000330: 2ee6 80be df06 ad3d d398 40be a686 213e
00000340: 7a9b c1bd 5732 aebc 09b1 27be ea87 8dbd
00000350: 2549 23be 74b5 20bd 9f86 fabd 3225 f23d
00000360: 9065 45be 5c2f 9ebd 19f5 d13c 37b9 debd
00000370: a904 e6bd e454 193d 8129 e3bd bddc 0fbe
00000380: bdaa 53bc 296c a63c 0ada 633d a392 c7bd
00000390: 8dd7 0b3e 4b55 113e 9817 11be 5176 e1bd
000003a0: 4ee9 b93d 4b2a 5cbd f348 d0bc 4c04 33be
000003b0: 72de 973d fb6c 07be 53b3 383e 9d21 bd3d
000003c0: 0bb8 9b3d 31d4 76bd 3b3c e03d 9bfd 3b3e
000003d0: a17c 753d 54d3 393e 95e3 14be 583a b3bb
000003e0: d09c 0cbe f48a 5a3c 6688 acbd 611a 8ebd
000003f0: 96b4 683c edf6 97bd c80c 463d e740 9f3d

Network_stack.0.0.gru.bias_ih_l0 f4 [96]
-0.20824973 0.044549838 0.025867648 -0.23738687 0.08675705 0.101521775 0.16770826 0.012639739
0.15464991 0.1446134 0.1203971 0.13265699 -0.14349554 0.075338006 -0.08459399 -0.10619959
0.0064485213 -0.052398086 -0.03172465 -0.16940705 0.023697935 -0.023661846 -0.075520955 0.17716
-0.02305758 -0.039068226 0.061595384 -0.032413114 0.06930892 0.07925119 0.14271986 0.08264281
0.07177534 -0.102129124 -0.089104354 -0.6638203 -0.11246339 -0.15558708 0.2193516 0.25286058
-0.09299756 0.12913431 0.34850577 0.23937967 0.14787443 -0.04142947 -0.06115542 -0.12952232
-0.2601713 0.18812539 -0.10182356 -0.07328837 0.101200975 0.10005062 -0.11497 -0.6739812
-0.22693689 0.0957369 0.27063954 -0.040326912 -0.04601823 0.051130775 -0.33118808 0.57349384
-0.09593759 -0.0068484824 0.105573066 -0.030034596 0.16757414 0.05638079 0.015468158 -0.04852212
-0.11673072 -0.12132487 -0.06473632 0.093937725 -0.01559851 0.0532858 0.02728084 -0.033446185
0.12775305 0.012340292 -0.14216973 0.11691652 0.06955264 -0.123633556 0.08582124 -0.0068574226
-0.05021527 -0.18997699 0.049641438 -0.020108303 0.07878323 -0.026940549 -0.09691614 -0.0001637793
00000000: 6b3f 55be e479 363d 64e8 d33c 8b15 73be
00000010: aead b13d a6ea cf3d b7bb 2b3e e816 4f3c
00000020: 8c5c 1e3e 8915 143e c192 f63d 3cd7 073e
00000030: 7ff0 12be d04a 9a3d 9d3f adbd 2c7f d9bd
00000040: 1e4e d33b 609f 56bd b5f1 01bd 0b79 2dbe
00000050: 2c22 c23c 7dd6 c1bc bbaa 9abd 6e69 353e
00000060: 40e3 bcbc 0106 20bd 714b 7c3d 9dc3 04bd
00000070: d6f1 8d3d 734e a23d 2825 123e a240 a93d
00000080: f3fe 923d 1329 d1bd 587c b6bd 21f0 29bf
00000090: 3553 e6bd 3852 1fbe b59d 603e f176 813e
000000a0: 8175 bebd c93b 043e 596f b23e f21f 753e
000000b0: 656c 173e f3b1 29bd 1b7e 7abd 80a1 04be
000000c0: 2c35 85be f1a3 403e df88 d0bd 3718 96bd
000000d0: 7542 cf3d 57e7 cc3d 6475 ebbd 088a 2cbf
000000e0: 2562 68be b511 c43d 4491 8a3e d52d 25bd
000000f0: 9d7d 3cbd 816e 513d 7c91 a9be 7ed0 123f
00000100: ed7a c4bd 3c69 e0bb b136 d83d 1d0b f6bc
00000110: 8e98 2b3e 8bef 663d 286e 7d3c 21bf 46bd
00000120: 8410 efbd 2c79 f8bd 7a94 84bd 6c62 c03d
00000130: e590 7fbc 3642 5a3d 117c df3c defe 08bd
00000140: b2d1 023e f02e 4a3c f194 11be ee71 ef3d
00000150: 9d71 8e3d 9733 fdbd 0cc3 af3d 3bb4 e0bb
00000160: 87ae 4dbd 5489 42be d254 4b3d 2bba a4bc
00000170: 1a59 a13d 6db2 dcbc f87b c6bd 2cbc 2bb9

Network_stack.0.0.gru.bias_hh_l0 f4 [96]
-0.014366852 -0.061890405 -0.086774625 0.069732666 -0.09389284 0.07461481 0.06371422 0.17275023
-0.1486716 -0.070854366 0.0007214302 -0.07089738 -0.11258116 0.0412537 0.07999512 -0.09876418
0.02181273 0.074606515 -0.009289204 -0.19407584 -0.07236794 0.21853447 -0.19402128 0.117278084
-0.04850938 -0.13864523 0.13813336 0.018907348 0.07928362 -0.091076314 0.16834737 0.17386
0.09989857 -0.016678719 0.1071044 -0.5856024 0.13888511 -0.06367444 0.1278067 0.2258884
-0.22166368 -0.15630434 0.4237948 0.022388466 0.25216958 0.012080846 -0.10540142 -0.058318473
-0.42500547 0.17945448 -0.20602515 -0.06970129 0.1452388 0.20178302 0.02447096 -0.37170407
-0.041754216 0.23289256 0.44852012 0.15202373 0.15093024 -0.029690564 -0.26002076 0.7171286
0.04362682 -0.1255983 0.07129855 0.00704627 0.16429697 0.049715627 0.050104994 0.109309
-0.092784554 0.064059325 -0.0529029 -0.0538558 -0.07617736 -0.0077555366 0.009055111 -0.032274432
0.008090648 -0.029066384 -0.14150888 -0.069260105 -0.04908865 -0.12631892 0.10224427 0.15225488
0.017662048 -0.026237689 0.0930434 0.0088218935 -0.089034885 -0.027872864 0.18224476 -0.097540274
00000000: f262 6bbc cb80 7dbd e5b6 b1bd 00d0 8e3d
00000010: e44a c0bd a6cf 983d 9a7c 823d 70e5 303e
00000020: 5e3d 18be 181c 91bd 5c1e 3d3a a532 91bd
00000030: f490 e6bd a4f9 283d 7bd4 a33d e044 cabd
00000040: 9cb0 b23c 4dcb 983d bf31 18bc d1bb 46be
00000050: a435 94bd 80c7 5f3e 84ad 46be 7e2f f03d
00000060: c6b1 46bd 04f9 0dbe d572 0d3e 95e3 9a3c
00000070: 735f a23d 3886 babd 4163 2c3e 5b08 323e
00000080: 9f97 cc3d cfa1 88bc 8d59 db3d 0aea 15bf
00000090: e637 0e3e bf67 82bd c2df 023e 4a4f 673e
000000a0: cefb 62be 3f0e 20be a2fb d83e 0468 b73c
000000b0: 5f1c 813e beee 453c b3dc d7bd 5adf 6ebd
000000c0: 519a d9be eac2 373e 42f8 52be 8dbf 8ebd
000000d0: 7bb9 143e 35a0 4e3e 5377 c83c ff4f bebe
000000e0: 7806 2bbd 637b 6e3e 6ea4 e53e 1cac 1b3e
000000f0: 758d 1a3e a039 f3bc 7121 85be bd95 373f
00000100: 09b2 323d d79c 00be f904 923d 66e4 e63b
00000110: 773d 283e 9da2 4b3d e53a 4d3d 66dd df3d
00000120: d405 bebd 8931 833d b6b0 58bd e697 5cbd
00000130: e002 9cbd 2822 febb e35b 143c 3232 04bd
00000140: a38e 043c a01c eebc b4e7 10be 3ed8 8dbd
00000150: 2e11 49bd bf59 01be 7265 d13d b4e8 1b3e
00000160: 00b0 903c 6cf0 d6bc 8a8d be3d b489 103c
00000170: ec57 b6bd a255 e4bc 5f9e 3a3e 32c3 c7bd

Network_stack.0.0.gru.weight_ih_l1 f4 [96, 32]
-0.085467815 0.06575654 -0.016763594 0.16496155 0.004618704 -0.08689696 -0.0069882325 -0.0115292175
-0.012653663 0.14782122 0.0010912801 0.020912321 0.015942605 0.04493885 0.13237461 0.10853891
-0.15852682 0.017591132 -0.0881122 -0.030910034 0.04700532 0.046734195 -0.043345567 0.098227076
0.084183894 0.20036647 0.10734034 -0.1304886 -0.16806136 -0.08037855 0.13797347 0.043983508
-0.056750067 -0.18423153 -0.13080707 0.077879496 0.08611482 0.05678645 -0.038921747 0.102837704
-0.1995582 -0.0017813062 -0.07450653 -0.023652071 0.070169136 0.0475734 0.1442843 0.1645457
-0.14789619 0.1628384 -0.117187984 -0.021864029 -0.05671719 -0.13300794 -0.1602567 0.009886226
0.088615686 0.20197996 0.023349836 0.18013014 0.06128364 -0.20831002 0.16233706 0.08173809
0.12445047 0.055722196 0.020019416 -0.07121477 0.11736105 0.07003045 -0.16397697 0.09991963
0.09969853 -0.07515221 0.13222 -0.023258666 0.045181833 0.21505079 -0.15551801 0.1624301
0.09281256 0.14781362 -0.110968955 -0.07652576 -0.15030989 -0.051415313 0.03881337 -0.1315176
-0.05516941 -0.0005510001 -0.12726746 -0.0505111 0.008308325 -0.080789246 0.20008339 -0.07664833
-0.17371042 -0.006617902 -0.11796093 0.0816562 0.03219915 -0.13889815 0.029466758 0.13813783
-0.181266 -0.12854369 -0.1546711 -0.037814144 0.17093624 0.059229136 0.10685542 0.19133128
-0.18373226 -0.11817775 -0.067090586 0.02352989 0.0069150925 -0.0021749237 -0.08172145 -0.11258395
-0.11410806 0.13328929 -0.010215263 0.1508111 -0.09329743 -0.13835855 -0.12841882 0.15357873
0.057096805 -0.12879547 0.12753783 0.1571514 -0.00767636 -0.054584045 0.14289674 0.035273112
0.08103747 0.16329248 0.07061613 0.02623073 -0.0940098 0.16067488 -0.019867312 -0.22155742
-0.07343597 -0.16749251 -0.004460897 0.18928078 0.07711456 0.19490066 0.07964249 0.1275517
-0.054392762 0.0045722406 -0.078319125 -0.08251288 0.0054965196 -0.16725326 -0.13260144 0.21937665
0.09118606 0.038501777 -0.13282274 -0.22536448 0.12326698 0.12019742 -0.103727855 -0.004828757
0.0074226395 -0.06574319 0.18614584 -0.09498162 0.022813123 0.13577019 0.09315224 0.008041809
-0.044475086 -0.09299746 0.042711444 -0.1819461 -0.114965364 0.18776305 -0.040153783 -0.09734015
0.061006762 -0.06440097 0.07376107 0.1152998 0.16811502 -0.1589628 0.19114183 0.13961513
0.07988287 -0.10520587 0.08077906 -0.1747379 -0.2324144 0.05409636 0.085429594 -0.009128858
-0.08955143 0.21387435 0.15209378 -0.030781072 0.044632256 0.109911546 0.015272644 -0.075734764
-0.16187482 0.12232749 0.026223045 -0.021059575 0.021909919 0.11320054 -0.049922463 -0.1925979
0.11664691 -0.027478708 0.04546169 0.110011496 0.0071342504 0.08464112 0.18485987 -0.03247268
-0.0551879 -0.04556989 -0.019122379 0.3890864 0.08181247 -0.15774134 -0.18102582 -0.18172811
0.07992306 -0.13574077 0.12282174 0.030761959 -0.11157771 -0.044416204 -0.2095443 -0.09783692
0.040608488 -0.16251801 0.09437308 0.103781775 -0.16539846 0.14637524 0.00081344804 0.044678416
-0.04521563 0.1297421 0.1009614 -0.016113518 -0.03416651 -0.0072456333 -0.052286685 0.14072578
00000000: c009 afbd 5dab 863d ce53 89bc aeeb 283e
00000010: 7f58 973b 09f7 b1bd 8bfd e4bb 0be5 3cbc
00000020: 4f51 4fbc 725e 173e 4909 8f3a 5150 ab3c
00000030: 119a 823c cd11 383d 368d 073e a649 de3d
00000040: db54 22be 471b 903c 2b74 b4bd 0a37 fdbc
00000050: a788 403d 5b6c 3f3d 1f8b 31bd 472b c93d
00000060: 9b68 ac3d de2c 4d3e 41d5 db3d ce9e 05be
00000070: 4718 2cbe 829d a4bd eb48 0d3e 0d28 343d
00000080: c272 68bd 31a7 3cbe 4af2 05be 497f 9f3d
00000090: f75c b03d e998 683d 696c 1fbd 939c d23d
000000a0: fc58 4cbe b87a e9ba e196 98bd fdc1 c1bc
000000b0: d6b4 8f3d 53dc 423d 43bf 133e ab7e 283e
000000c0: 1972 17be 1cbf 263e 4100 f0bd 311c b3bc
000000d0: 4950 68bd 3c33 08be 551a 24be d6f9 213c
000000e0: 247c b53d d6d3 4e3e 2848 bf3c 0974 383e
000000f0: 8e04 7b3d 394f 55be b03b 263e 4d66 a73d
00000100: e3df fe3d f53c 643d c2ff a33c 0dd9 91bd
00000110: fd5a f03d 206c 8f3d 94e9 27be aaa2 cc3d
00000120: be2e cc3d 67e9 99bd ae64 073e f588 bebc
00000130: 9610 393d 4636 5c3e 1d40 1fbe 1354 263e
00000140: 8314 be3d 745c 173e b143 e3bd 8ab9 9cbd
00000150: d6ea 19be dd98 52bd c5fa 1e3d 8dac 06be
00000160: 52f9 61bd fe70 10ba 6752 02be bae4 4ebd
00000170: a41f 083c d574 a5bd a9e2 4c3e cdf9 9cbd
00000180: 25e1 31be fcda d8bb 8095 f1bd 5e3b a73d
00000190: 42e3 033d 513b 0ebe 4564 f13c 0174 0d3e
000001a0: cb9d 39be f5a0 03be 1a62 1ebe 01e3 1abd
000001b0: e909 2f3e 409a 723d 04d7 da3d 59ec 433e
000001c0: 4f24 3cbe 2d07 f2bd ca66 89bd c2c1 c03c
000001d0: 0098 e23b 2a89 0ebb 935d a7bd 6a92 e6bd
000001e0: 7db1 e9bd fd7c 083e eb5d 27bc 3a6e 1a3e
000001f0: b912 bfbd ddad 0dbe 3980 03be be43 1d3e
00000200: 57de 693d f6e2 03be 4799 023e 4cec 203e
00000210: fa89 fbbb 8593 5fbd 8653 123e 8a7a 103d
00000220: f9f6 a53d 2536 273e 319f 903d d4e1 d63c
00000230: 3688 c0bd f587 243e c6c0 a2bc f3df 62be
00000240: 9965 96bd 2883 2bbe b72c 92bb d2d2 413e
00000250: 3dee 9d3d 0a94 473e 9a1b a33d ea9c 023e
00000260: f2ca 5ebd bcd2 953b c765 a0bd 83fc a8bd
00000270: 261c b43b 7044 2bbe acc8 07be 46a4 603e
00000280: c2bf ba3d 0ab4 1d3d af02 08be f2c5 66be
00000290: 6673 fc3d 112a f63d 456f d4bd 8d3a 9ebb
000002a0: 9d39 f33b 5ea4 86bd 049d 3e3e b985 c2bd
000002b0: 96e2 ba3c 5707 0b3e 9ac6 be3d cbc1 033c
000002c0: 822b 36bd 7475 bebd 32f2 2e3d 1450 3abe
000002d0: f672 ebbd f544 403e 4b78 24bd 465a c7bd
000002e0: 3ae2 793d a8e4 83bd 0b10 973d 4d22 ec3d
000002f0: 5826 2c3e 25c7 22be afba 433e 45f7 0e3e
00000300: a199 a33d 2d76 d7bd 7e6f a53d 7eee 32be
00000310: 0afe 6dbe 2594 5d3d b6f5 ae3d 3591 15bc
00000320: bd66 b7bd e101 5b3e 79be 1b3e 9628 fcbc
00000330: 50d0 363d 4e19 e13d 1d3a 7a3c d41a 9bbd
00000340: 83c2 25be d686 fa3d b6d1 d63c 2185 acbc
00000350: 6e7c b33c afd5 e73d 7f7b 4cbd 6238 45be
00000360: 93e4 ee3d 071b e1bc 0936 3a3d b54d e13d
00000370: 6ec6 e93b 5358 ad3d e84b 3d3e 1302 05bd
00000380: b50c 62bd 7ea7 3abd 89a6 9cbc 5536 c73e
00000390: 4c8d a73d f286 21be d55e 39be ef16 3abe
000003a0: b4ae a33d a1ff 0abe f789 fb3d 8100 fc3c
000003b0: db82 e4bd c4ed 35bd c892 56be b95e c8bd
000003c0: 1655 263d 1f6b 26be ac46 c13d 8a8b d43d
000003d0: 375e 29be 64e3 153e 933d 553a b700 373d
000003e0: 0634 39bd 1ddb 043e dac4 ce3d 7f00 84bc
000003f0: 2ff2 0bbd c76c edbb 902a 56bd 6b1a 103e

Network_stack.0.0.gru.weight_hh_l1 f4 [96, 32]
-0.032478712 -0.0632969 -0.074770555 0.21387617 0.0755931 0.031844594 0.16107038 0.03228312
0.13916953 0.11182184 0.059315525 0.09115806 0.12936223 0.07811947 0.09010048 -0.070717536
0.019643141 0.14743872 0.13138501 0.019880924 0.08431005 -0.20659074 0.041857388 0.160004
0.077783756 -0.1040256 0.07474786 -0.12093202 0.08891018 0.14026508 -0.14740133 0.07951264
-0.12365427 0.13843326 0.07090753 0.02810412 -0.100182354 0.20257315 -0.0013962446 -0.08654595
0.13422282 -0.1446961 -0.06538137 -0.07533449 0.14633532 0.007686614 -0.15075886 0.0643714
0.12824059 0.067639336 -0.16526444 -0.14875473 -0.18808028 0.09115238 0.04359913 0.06668986
0.08139385 -0.13573179 0.19997019 -0.008101802 0.06724215 0.1030437 -0.0765969 -0.09785226
-0.21042632 0.09001292 -0.043131158 0.020936707 -0.13598788 -0.050890367 0.18942317 -0.0032126755
0.08521342 -0.19073007 -0.105550334 -0.05188689 0.005836036 -0.17489317 0.039400414 -0.0069984137
-0.027091587 0.11357948 0.0020894106 0.083800666 0.019880252 -0.010658512 0.09745875 0.109111294
0.06732656 0.061049595 0.2355653 0.06287948 -0.016275708 -0.049522128 -0.11886572 0.21985029
-0.102277145 0.09513184 0.036465157 -0.058563687 -0.054549165 0.0009650689 -0.055961575 0.03176035
0.01574832 -0.04309853 -0.15223908 -0.027477598 -0.026639756 -0.1016041 0.15492666 -0.017897736
0.13570532 -0.14807053 -0.19165167 -0.15250918 0.04651166 0.027505971 0.19507793 -0.040155422
-0.03879916 0.09230231 0.0082793785 0.14420027 0.12894209 -0.039168365 0.109407425 -0.027124062
0.06432187 -0.11235155 -0.12545961 0.004165089 -0.3719649 -0.025041124 -0.102915816 0.34122238
-0.24141735 0.2883616 -0.32853368 0.02366355 0.0640502 0.056730952 0.16834164 0.13747013
-0.13444057 -0.02873654 0.16134264 0.051570557 -0.03130867 0.17795566 -0.037925526 -0.14758639
-0.12652884 0.02686046 -0.14587289 -0.0022539252 0.045297194 -0.011604822 0.08255073 -0.017489387
0.06053169 0.11485725 0.11389966 0.12759988 -0.38478738 -0.0818 0.104654655 0.17593673
0.12679735 -0.09484827 -0.08830475 -0.039552595 0.21288745 0.12536195 -0.030346785 0.019209806
-0.11148137 0.15734854 -0.028671851 -0.14728606 -0.105959885 -0.078848265 0.19633843 -0.11791433
0.13057053 0.101706855 0.043197393 -0.1465169 0.14253311 -0.012371134 0.13847281 0.03379229
0.035294347 -0.14479005 0.05211866 -0.03866288 -0.051237088 0.10129672 -0.018170238 -0.0994288
0.21935716 -0.12747405 -0.09611709 0.01550403 0.062927194 -0.16803387 0.008753457 -0.014544629
-0.17760736 0.13033551 -0.12908617 -0.018173013 -0.17709191 0.057171144 0.098125264 0.104098715
-0.0505379 0.0056455806 -0.0733843 -0.14579538 -0.16536486 0.15111642 0.037516065 0.12798066
-0.15907727 0.04904381 -0.028166344 -0.011579798 -0.19492033 0.1816943 -0.003058692 -0.07184088
-0.11130715 0.08956688 0.0006965929 0.1676279 0.047188688 0.046043023 0.010995932 -0.06783787
-0.17621338 -0.04409222 -0.028008908 -0.046605952 0.0013074859 -0.09502352 -0.01960079 -0.05770366
-0.035459172 -0.16558151 -0.18814279 -0.12533505 -0.011534381 0.0001663461 -0.14165929 -0.039581846
00000000: 6608 05bd cea1 81bd 4e21 99bd 5b02 5b3e
00000010: 8ed0 9a3d 7a6f 023d a2ef 243e 4e3b 043d
00000020: 7582 0e3e d902 e53d d6f4 723d 14b1 ba3d
00000030: 8877 043e 1afd 9f3d 9a86 b83d 5bd4 90bd
00000040: a7ea a03c 2dfa 163e cb89 063e 52dd a23c
00000050: bfaa ac3d 868c 53be a772 2b3d 17d8 233e
00000060: 174d 9f3d 600b d5bd 6815 993d 35ab f7bd
00000070: 8a16 b63d a6a1 0f3e 60f0 16be 86d7 a23d
00000080: 733e fdbd 73c1 0d3e f837 913d 9d3a e63c
00000090: 682c cdbd 566f 4f3e 3202 b7ba 013f b1bd
000000a0: b571 093e 372b 14be abe6 85bd f848 9abd
000000b0: edd8 153e fedf fb3b 8860 1abe 27d5 833d
000000c0: 8051 033e 7e86 8a3d 153b 29be 2953 18be
000000d0: 1e98 40be 19ae ba3d 0095 323d b194 883d
000000e0: d2b1 a63d 46fd 0abe fcc4 4c3e 6cbd 04bc
000000f0: 41b6 893d 9308 d33d d6de 9cbd c466 c8bd
00000100: ff79 57be b258 b83d 4caa 30bd 7583 ab3c
00000110: 6840 0bbe 6b72 50bd 26f8 413e c08b 52bb
00000120: 6084 ae3d be4e 43be c62a d8bd 5987 54bd
00000130: 383c bf3b 3217 33be 5462 213d f352 e5bb
00000140: 2def ddbc 5c9c e83d 7eee 083b af9f ab3d
00000150: e9db a23c 0aa1 2ebc 7498 c73d be75 df3d
00000160: 82e2 893d 240f 7a3d 0838 713e f5c6 803d
00000170: a254 85bc b7d7 4abd df6f f3bd 6f20 613e
00000180: ae76 d1bd 7bd4 c23d 7d5c 153d 7ae0 6fbd
00000190: f26e 5fbd adfc 7c3a f737 65bd 2417 023d
000001a0: 9f02 813c 1688 30bd 90e4 1bbe b318 e1bc
000001b0: 9e3b dabc cf15 d0bd 18a5 1e3e 469e 92bc
000001c0: 56f6 0a3e cd9f 17be 5640 44be 5e2b 1cbe
000001d0: 0383 3e3d 3454 e13c 82c2 473e 037a 24bd
000001e0: deeb 1ebd fe08 bd3d 3ba6 073c 3ca9 133e
000001f0: 6509 043e 026f 20bd 0011 e03d 4833 debc
00000200: 2fbb 833d 9218 e6bd 7c78 00be 4d7b 883b
00000210: 2f72 bebe 0b23 cdbc 87c5 d2bd b3b4 ae3e
00000220: 1c36 77be 22a4 933e 9135 a8be 10da c13c
00000230: c02c 833d b75e 683d c061 2c3e f8c4 0c3e
00000240: caaa 09be e468 ebbc 0137 253e a63b 533d
00000250: 853d 00bd 023a 363e cc57 1bbd e320 17be
00000260: c790 01be 780a dc3c b45f 15be 97b6 13bb
00000270: 8d89 393d 2722 3ebc 5b10 a93d e745 8fbc
00000280: 14f0 773d 473a eb3d 3a44 e93d 8ba9 023e
00000290: da02 c5be c286 a7bd 2e55 d63d c228 343e
000002a0: 2ad7 013e cf3f c2bd 1fd9 b4bd e701 22bd
000002b0: 2bff 593e e25e 003e d299 f8bc e25d 9d3c
000002c0: 5850 e4bd fa1f 213e 3be1 eabc 28d2 16be
000002d0: 7f01 d9bd 337b a1bd f10c 493e 117d f1bd
000002e0: 48b4 053e af4b d03d c0ef 303d 8708 16be
000002f0: 33f4 113e 4cb0 4abc d1cb 0d3e c969 0a3d
00000300: ce90 103d d843 14be 607a 553d f85c 1ebd
00000310: fbdd 51bd a874 cf3d c0d9 94bc 54a1 cbbd
00000320: 2a9f 603e 8f88 02be 09d9 c4bd 9d04 7e3c
00000330: f9df 803d 1211 2cbe a96a 0f3c 984c 6ebc
00000340: b4de 35be ac76 053e 2a2f 04be 92df 94bc
00000350: 9557 35be 4a2c 6a3d e6f5 c83d b531 d53d
00000360: d400 4fbd 90fe b83b 824a 96bd 624b 15be
00000370: 6855 29be 43be 1a3e 72aa 193d 5d0d 033e
00000380: 27e5 22be 2ae2 483d 1bbd e6bc 31b9 3dbc
00000390: 3299 47be 120e 3a3e 5674 48bb 5021 93bd
000003a0: 01f5 e3bd d76e b73d 8f9b 363a a6a6 2b3e
000003b0: ed48 413d 9c97 3c3d 4828 343c 95ee 8abd
000003c0: 4871 34be 0b9a 34bd f072 e5bc e2e5 3ebd
000003d0: f25f ab3a b19b c2bd d691 a0bc ac5a 6cbd
000003e0: a33d 11bd 338e 29be 81a8 40be d557 00be
000003f0: b3fa 3cbc 316d 2e39 220f 11be 9320 22bd

Network_stack.0.0.gru.bias_ih_l1 f4 [96]
0.019589372 -0.15082985 0.055921428 0.056770414 -0.10248178 -0.11814929 -0.0013487267 -0.03056661
0.04747294 0.035091303 0.10995677 -0.06621742 0.07718865 -0.11320571 0.021726081 0.019470612
0.0968042 0.016949138 -0.15699184 0.16777913 -0.074281335 -0.13127516 0.2101901 0.12045523
0.13804375 0.08338459 -0.110884845 -0.093153015 0.04617978 -0.16183522 -0.11196163 0.075417705
-0.069671825 0.0046905135 -0.0016107109 -0.07106543 0.0366376 -0.16708419 -0.07132547 -0.25263557
0.22931542 -0.052119035 -0.025239741 -0.047757894 0.17242695 -0.09494201 -0.436732 0.02321196
-0.057141036 -0.22040994 -0.15205152 -0.11767617 -0.26336527 -0.57871836 -0.29327613 0.18094538
-0.10240873 0.057486806 0.1565028 0.08116635 -0.36990672 -0.05767582 -0.14789692 0.08660131
0.1454616 -0.16041712 0.09230197 -0.011607014 0.104147926 -0.050939735 0.029866723 -0.062319215
-0.034663387 0.12431593 -0.05629996 -0.06932803 0.008544517 0.18252765 0.1405842 0.16960199
-0.021628555 0.072938435 -0.031184884 0.12721702 0.05835084 -0.029647246 -0.15326075 -0.13551827
0.00487575 -0.19006625 -0.12562291 0.15016069 -0.17006285 0.038408667 -0.10264653 -0.061009448
00000000: e479 a03c 2473 1abe de0d 653d 1888 683d
00000010: f8e1 d1bd 41f8 f1bd c2c7 b0ba d466 fabc
00000020: fc72 423d e6bb 0f3d 0431 e13d 009d 87bd
00000030: 1515 9e3d 65d8 e7bd e5fa b13c d580 9f3c
00000040: 4841 c63d ebd8 8a3c 78c2 20be 4bce 2b3e
00000050: d020 98bd ff6c 06be 133c 573e 3bb1 f63d
00000060: 575b 0d3e 8ac5 aa3d 9817 e3bd 02c7 bebd
00000070: 0227 3d3d 22b8 25be 244c e5bd 9974 9a3d
00000080: 1ab0 8ebd e1b2 993b 7d1e d3ba c18a 91bd
00000090: 4f11 163d 1e18 2bbe 1713 92bd 7359 81be
000000a0: a9d1 6a3e c57a 55bd 93c3 cebc c89d 43bd
000000b0: b190 303e f570 c2bd 569b dfbe 0227 be3c
000000c0: b80c 6abd 25b3 61be 65b3 1bbe 3400 f1bd
000000d0: d0d7 86be e326 14bf 4a28 96be bf49 393e
000000e0: abbb d1bd 4977 6b3d 4542 203e 8b3a a63d
000000f0: 6a64 bdbe 7b3d 6cbd 4a72 17be 075c b13d
00000100: e3f3 143e 6344 24be d108 bd3d 582b 3ebc
00000110: 824b d53d 2fa6 50bd 0fab f43c 6f42 7fbd
00000120: 32fb 0dbd 5a99 fe3d c99a 66bd dbfb 8dbd
00000130: 4dfe 0b3c 87e8 3a3e 4ef5 0f3e 25ac 2d3e
00000140: 5e2e b1bc bf60 953d 7177 ffbc 2e45 023e
00000150: 4a01 6f3d c8de f2bc 63f0 1cbe 4dc5 0abe
00000160: c1c4 9f3b baa0 42be 4ba3 00be b9c3 193e
00000170: f524 2ebe 6852 1d3d 5838 d2bd 0be5 79bd

Network_stack.0.0.gru.bias_hh_l1 f4 [96]
-0.077924795 0.1278003 -0.014256095 0.113897696 0.06588561 0.07123588 -0.054817263 -0.04969698
0.057132952 0.12211532 -0.009075069 -0.22937694 -0.19052081 -0.1563128 -0.031790122 -0.108394
0.095037386 0.17293847 -0.12370417 0.035521 -0.10991672 0.14229336 -0.043081604 0.045863815
-0.08046724 0.15259112 -0.115058474 -0.019435761 0.18411346 0.06320142 -0.11662565 0.050255124
0.109837435 0.087441616 -0.2509092 -0.020629885 -0.11435009 -0.14265905 -0.14142159 -0.54964143
-0.09133149 0.12335458 0.027856534 0.072608 0.13147019 -0.047268942 -0.42056906 0.15267523
-0.1390788 -0.06710038 0.038459472 0.12642364 -0.021083198 -0.6582779 0.022095202 0.16981731
-0.05802988 0.077675454 0.27871034 -0.13239607 -0.40560055 0.1963851 0.05146934 0.18696722
0.055754304 -0.12650497 -0.00060394127 -0.017639834 0.10105746 0.025526574 -0.1150567 0.05516772
0.11543936 -0.05475088 0.11482542 0.028684027 -0.052281383 -0.10155492 -0.09023579 0.12928629
-0.12092078 -0.14086463 -0.09757458 0.050325435 0.15067501 -0.019822672 -0.01561719 -0.045173835
0.051494747 -0.16876109 -0.010220415 0.11207974 -0.05685989 -0.1358022 0.041521527 -0.056748893
00000000: 0997 9fbd 15de 023e 6592 69bc 3243 e93d
00000010: 09ef 863d 1ee4 913d 1188 60bd 0f8f 4bbd
00000020: 3e04 6a3d 9917 fa3d 99af 14bc cae1 6abe
00000030: e317 43be 7610 20be 5c36 02bd acfd ddbd
00000040: f6a2 c23d c816 313e 9d58 fdbd 787e 113d
00000050: 041c e1bd 5ab5 113e 5676 30bd b2db 3b3d
00000060: 02cc a4bd d940 1c3e c7a3 ebbd bf37 9fbc
00000070: 3d88 3c3e bf6f 813d 6ed9 eebd 51d8 4d3d
00000080: 73f2 e03d 9714 b33d 2c77 80be 0100 a9bc
00000090: 6130 eabd 3715 12be d2d0 10be 4db5 0cbf
000000a0: 010c bbbd 53a1 fc3d 6333 e43c 81b3 943d
000000b0: 1fa0 063e 149d 41bd d454 d7be e556 1c3e
000000c0: ac6a 0ebe ed6b 89bd ae87 1d3d 3375 013e
000000d0: acb6 acbc e784 28bf ff00 b53c 97e4 2d3e
000000e0: bdb0 6dbd 4f14 9f3d 1fb3 8e3e d692 07be
000000f0: e0aa cfbe 2d19 493e 84d1 523d 5674 3f3e
00000100: a05e 643d 858a 01be d051 1eba 6a81 90bc
00000110: 37f7 ce3d 1b1d d13c d9a2 ebbd 8cf7 613d
00000120: 796b ec3d 7542 60bd 9729 eb3d c4fa ea3c
00000130: 0125 56bd 07fc cfbd 8bcd b8bd a063 043e
00000140: 50a5 f7bd d13e 10be 2ed5 c7bd 0b22 4e3d
00000150: 8d4a 1a3e 2863 a2bc 3edf 7fbc 3308 39bd
00000160: 28ec 523d b5cf 2cbe 8773 27bc 108a e53d
00000170: ebe5 68bd bb0f 0bbe 7a12 2a3d 8771 68bd

Network_stack.1.0.gru.weight_ih_l0 f4 [96, 2]
-0.044854283 0.050772056 0.046809305 -0.18523559 -0.14749861 -0.051513847 -0.17804667 -0.08572003
0.16859962 0.12398622 0.11559751 -0.042620238 0.03447944 0.02992371 0.03918284 0.0206314
-0.0735006 0.10808309 -0.037213042 0.0432559 0.07420959 0.073677674 0.069101594 -0.052709714
-0.15908037 -0.09470955 -0.11355031 0.06298769 0.115949675 0.010246316 -0.225196 -0.1703707
-0.06421731 0.010544449 0.07365054 0.1303493 -0.16913638 0.07029822 -0.076155 -0.012616046
0.016875712 -0.006898167 -0.069501944 0.0042313416 -0.03898026 -0.033938374 0.059876557 -0.16966541
-0.010869172 0.1112323 -0.122651294 -0.23594096 -0.023864035 -0.10264098 -0.14974697 -0.110279314
-0.033916436 0.15400597 -0.12494891 0.06448211 -0.14720665 0.013062911 -0.13491546 0.04520201
-0.26242325 -0.18265516 -0.046147507 -0.08730232 0.007384016 -0.23500305 0.24634887 0.08122815
0.07140959 0.09788147 -0.2194314 -0.17525941 -0.3064265 -0.24239245 0.105230324 -0.021314207
0.02442307 0.07284397 -0.11456107 -0.14209655 -0.49057153 -0.7951587 -0.08196934 -0.11433889
0.06435419 0.15016444 0.10517149 -0.10148099 -0.026386745 0.117852435 -0.15219226 0.0139631685
-0.16852318 -0.082382455 -0.05093487 -0.00906598 -0.14808862 0.11338011 0.13321674 -0.16984932
-0.11114036 0.24531147 0.03524353 0.13183282 0.035842754 0.5715214 0.08151197 -0.13650893
-0.0293005 -0.2130554 -0.1131518 -0.14527008 -0.091841176 -0.15975484 -0.2435307 -0.34629396
0.033728797 0.11576613 0.08982117 0.13656208 0.1082383 -0.124714576 0.10833094 0.024712596
-0.10802034 -0.1689421 0.021322442 0.15201724 0.022647478 -0.096573554 -0.0468262 0.071978785
0.13205321 0.04656085 0.074821725 0.11847052 0.10129963 0.16623127 0.17914303 0.11994601
-0.09664312 0.0579027 0.1526238 -0.19321953 -0.018503329 -0.24117348 -0.13367288 0.14721237
-0.058697782 0.13975956 -0.0773667 -0.14455524 0.14640379 -0.06666551 0.104307085 -0.098545626
0.14119835 0.09185466 -0.1479571 -0.07279027 0.20033586 0.14267725 0.0066279764 -0.10515082
0.05530379 0.028163975 -0.051656507 -0.0074494183 0.121257976 -0.09458194 -0.050629742 -0.07317797
-0.08016738 -0.099844545 -0.13200398 -0.19331466 -0.2288792 0.065555714 -0.12808454 -0.14058317
-0.04618643 0.045628667 0.011758888 0.10085984 0.12273996 -0.13533528 -0.17934674 -0.02604715
00000000: 20b9 37bd 5cf6 4f3d 1dbb 3f3d 66ae 3dbe
00000010: e009 17be 2f00 53bd de51 36be fc8d afbd
00000020: 61a5 2c3e 7dec fd3d 63be ec3d 8f92 2ebd
00000030: 503a 0d3d 9122 f53c 307e 203d 2f03 a93c
00000040: 7c87 96bd ab5a dd3d b46c 18bd 192d 313d
00000050: 33fb 973d 52e4 963d 2385 8d3d 24e6 57bd
00000060: f7e5 22be 15f7 c1bd 118d e8bd b1ff 803d
00000070: 0677 ed3d 2ae0 273c c899 66be a875 2ebe
00000080: 5d84 83bd a0c2 2c3c 18d6 963d 497a 053e
00000090: 1632 2dbe 83f8 8f3d 27f7 9bbd 88b3 4ebc
000000a0: ef3e 8a3c 050a e2bb 0957 8ebd 11a7 8a3b
000000b0: c4a9 1fbd f702 0bbd 1f41 753d c5bc 2dbe
000000c0: 9d14 32bc c3cd e33d 9a30 fbbd 829a 71be
000000d0: 827e c3bc 6f35 d2bd 4557 19be 1fda e1bd
000000e0: f6eb 0abd beb3 1d3e 37e5 ffbd 320f 843d
000000f0: 57bd 16be d205 563c 4727 0abe be25 393d
00000100: 575c 86be f409 3bbe 2b05 3dbd 8fcb b2bd
00000110: 9ef5 f13b a4a4 70be e142 7c3e f25a a63d
00000120: 313f 923d 1576 c83d a0b2 60be 3477 33be
00000130: efe3 9cbe ba35 78be ff82 d73d 229b aebc
00000140: e412 c83c 382f 953d ff9e eabd c281 11be
00000150: 312c fbbe 858f 4bbf 8bdf a7bd 822a eabd
00000160: 21cc 833d b5c4 193e 2664 d73d 44d5 cfbd
00000170: 0429 d8bc 9e5c f13d 4ad8 1bbe c6c5 643c
00000180: 5791 2cbe 22b8 a8bd 15a1 50bd 7a89 14bc
00000190: 8ba4 17be d533 e83d f869 083e fbec 2dbe
000001a0: 8f9d e3bd ee32 7b3e 855b 103d 2fff 063e
000001b0: dacf 123d 3a4f 123f bfef a63d ffc8 0bbe
000001c0: 9a07 f0bc 322b 5abe 22bc e7bd aec1 14be
000001d0: 3a17 bcbd c696 23be 1d60 79be 714d b1be
000001e0: 3527 0a3d cb16 ed3d 29f4 b73d eed6 0b3e
000001f0: 0bac dd3d 5b6a ffbd 9ddc dd3d 1272 ca3c
00000200: c539 ddbd 28ff 2cbe 67ac ae3c 68aa 1b3e
00000210: 3487 b93c 5bc8 c5bd d4cc 3fbd 9d69 933d
00000220: f538 073e 97b6 3e3d 223c 993d aca0 f23d
00000230: 2e76 cf3d 8838 2a3e 4571 373e 41a6 f53d
00000240: d4ec c5bd 622b 6d3d 6a49 1c3e 57db 45be
00000250: 4b94 97bc 2ef6 76be 8be1 08be d7be 163e
00000260: 166d 70bd 211d 0f3e 6f72 9ebd 4a06 14be
00000270: e0ea 153e ed87 88bd f49e d53d 4ad2 c9bd
00000280: 4d96 103e 4c1e bc3d 1182 17be 1113 95bd
00000290: d824 4d3e fc19 123e 7f2f d93b 5059 d7bd
000002a0: 3a86 623d 23b8 e63c c695 53bd 401a f4bb
000002b0: 1a56 f83d 2db4 c1bd 2261 4fbd 55de 95bd
000002c0: cc2e a4bd 4c7b ccbd 0d2c 07be 47f4 45be
000002d0: 4f5f 6abe 1342 863d 9828 03be 09f5 0fbe
000002e0: fb2d 3dbd 20e5 3a3d 5aa8 403c 9b8f ce3d
000002f0: 175f fb3d 5595 0abe aca6 37be d560 d5bc

Network_stack.1.0.gru.weight_hh_l0 f4 [96, 32]
-0.12817644 -0.071241565 -0.1757603 -0.05986897 -0.09349342 -0.05515283 0.016507864 -0.038899757
-0.010004227 0.13596578 -0.20503058 -0.19731604 0.22460206 0.101926245 -0.037154533 -0.12251619
0.08057853 0.189843 -0.03258326 -0.031331744 0.090455204 -0.04617662 0.06180505 -0.07962904
0.17801613 0.056535766 0.03792366 0.12728222 -0.14463769 0.043518685 0.12768397 -0.118468456
0.087197796 0.022995252 0.022093618 -0.13830383 -0.17372088 -0.14121091 -0.07765956 -0.043774456
-0.047011394 -0.0076508406 0.117306866 0.090007015 0.041136693 -0.06980185 0.1518602 0.17132874
-0.113942906 -0.075618714 -0.14857502 -0.0933247 0.0036317715 -0.014177738 0.08243348 0.08137941
0.0570494 -0.085761294 -0.16153806 -0.1531088 -0.12788777 -0.09767446 -0.06543095 0.12022414
-0.09535746 -0.124578334 -0.044845536 0.0046878955 -0.08937874 -0.052461263 0.008722149 0.04293422
-0.11461886 -0.03768329 -0.11611076 0.08309291 0.088250704 -0.13588712 -0.15564418 -0.1123776
0.12661825 0.20172033 0.1059937 0.04679015 0.007560883 -0.14746666 -0.09384071 0.062096305
0.1818031 -0.008624451 -0.03704838 -0.078996524 0.019370744 0.014847416 -0.054057773 0.12945357
-0.1015245 0.037036914 0.102274045 -0.029326929 -0.18039057 0.1729642 -0.18922834 0.06055902
-0.18950945 -0.022815397 -0.035683718 0.13910931 0.120361984 -0.061473187 -0.12271463 0.036734305
-0.11741348 0.11473847 0.0032415276 -0.072257616 0.11958914 -0.13258228 -0.041223712 0.06387497
0.17570868 0.19542168 -0.043840338 0.12004547 -0.1232213 0.048287917 0.064352416 -0.06267134
0.064414166 0.014340718 0.0037372175 0.052259203 0.129976 0.10483793 0.013512616 0.11033969
0.24384323 -0.11624975 -0.114263 -0.0032200986 -0.285736 -0.14651515 0.14833432 0.07947122
-0.06395512 0.031594977 -0.10174094 -0.00686221 -0.16467148 -0.11755996 0.04250972 -0.11633107
-0.21280679 -0.16771902 0.014335253 -0.17460017 -0.089482054 0.2019682 -0.1799704 0.103616916
0.09298882 0.011154321 -0.009222324 0.13729097 -0.17524803 0.1891241 0.045295145 -0.1291268
0.021206804 0.099474214 0.08886284 0.09367011 -0.014161801 -0.011103785 0.090339765 -0.0581358
0.0793074 -0.018279364 -0.18013065 0.12873094 0.19343981 -0.056295488 -0.17571588 0.078825034
0.17449956 0.05904857 -0.2162884 0.0039447015 -0.035562888 -0.05809496 0.0031717161 -0.063167214
-0.1192503 -0.08018428 0.16881204 0.07223983 0.14255074 0.17585656 0.082405165 0.10902976
-0.1541809 -0.011067202 0.18419063 -0.2480156 0.07828729 0.10783909 -0.039760765 0.07071136
-0.109788544 0.04476016 0.080532946 0.16671425 -0.0050925813 0.1306616 0.13675578 -0.04732356
-0.0766602 0.04850529 -0.22135992 0.027679821 -0.13885048 -0.10181905 0.15494284 -0.047026705
0.017982002 -0.039551485 0.02442298 0.03646694 0.10790584 -0.10452276 0.13651842 -0.02645963
-0.1372696 0.118854575 -0.1290867 -0.1107874 0.016544959 0.017793428 -0.07618514 -0.144831
0.023867767 0.08484128 -0.05735361 0.08704572 0.019854823 0.19550924 0.0015268966 -0.089432366
0.13743791 -0.06562567 0.104747266 -0.08195446 -0.06814048 0.017321771 -0.03217516 -0.0031618334
00000000: af40 03be 19e7 91bd 82fa 33be 2a39 75bd
00000010: 7a79 bfbd efe7 61bd 803b 873c 5a55 1fbd
00000020: c5e8 23bc 9d3a 0b3e 89f3 51be 370d 4abe
00000030: 15fe 653e b5be d03d 5a2f 18bd c5e9 fabd
00000040: 5b06 a53d 3466 423e 0676 05bd b755 00bd
00000050: 9440 b93d b223 3dbd 4b27 7d3d 8d14 a3bd
00000060: dc49 363e 0c92 673d d755 1b3d 4556 023e
00000070: e71b 14be a640 323d 96bf 023e 979f f2bd
00000080: c294 b23d 8a60 bc3c adfd b43c 859f 0dbe
00000090: e3e3 31be 9899 10be fa0b 9fbd d84c 33bd
000000a0: 058f 40bd e7b3 fabb 953e f03d 9955 b83d
000000b0: f37e 283d 46f4 8ebd 3e81 1b3e cd70 2f3e
000000c0: e65a e9bd fcdd 9abd 0d24 18be 0521 bfbd
000000d0: 0403 6e3b be49 68bc e2d2 a83d 40aa a63d
000000e0: a2ac 693d 9ea3 afbd 3c6a 25be 8ec8 1cbe
000000f0: 03f5 02be 8c09 c8bd a900 86bd 1338 f63d
00000100: c64a c3bd ed22 ffbd f4af 37bd eb9c 993b
00000110: 330c b7bd 9fe1 56bd 58e7 0e3c cbdb 2f3d
00000120: 4bbd eabd cb59 1abd 7acb edbd 9e2c aa3d
00000130: c9bc b43d fe25 0bbe 3061 1fbe 3a26 e6bd
00000140: 37a8 013e c68f 4e3e 3a13 d93d 07a7 3f3d
00000150: 49c1 f73b 8001 17be 8f2f c0bd b258 7e3d
00000160: 982a 3a3e 924d 0dbc 0bc0 17bd eec8 a1bd
00000170: 65af 9e3c 9442 733c af6b 5dbd 7a8f 043e
00000180: 14ec cfbd 05b4 173d 0e75 d13d 073f f0bc
00000190: 4eb8 38be 871d 313e 13c5 41be bc0c 783d
000001a0: c40e 42be 5be7 babc 1729 12bd ac72 0e3e
000001b0: 5880 f63d 4fcb 7bbd cf51 fbbd b676 163d
000001c0: 7b76 f0bd 01fc ea3d cf6f 543b cdfb 93bd
000001d0: 27eb f43d a6c3 07be 32da 28bd e1d0 823d
000001e0: faec 333e 9f1c 483e ed91 33bd 66da f53d
000001f0: 735b fcbd 8dc9 453d 33cb 833d d559 80bd
00000200: 93eb 833d 55f5 6a3c 1bec 743b bf0d 563d
00000210: 6e18 053e 45b5 d63d 0564 5d3c c7f9 e13d
00000220: 0ab2 793e 5914 eebd b802 eabd 4a08 53bb
00000230: fd4b 92be 1108 16be f4e4 173e cfc1 a23d
00000240: e7fa 82bd bc69 013d 8e5d d0bd 64dc e0bb
00000250: a49f 28be 47c3 f0bd ac1e 2e3d fc3e eebd
00000260: 06ea 59be 89be 2bbe 69de 6a3c 63ca 32be
00000270: 5e42 b7bd c0d0 4e3e 294a 38be 1b35 d43d
00000280: ec70 be3d 9dc0 363c 3b19 17bc 0196 0c3e
00000290: 3874 33be c0a9 413e 6787 393d d139 04be
000002a0: e4b9 ad3c 23b9 cb3d b8fd b53d 1dd6 bf3d
000002b0: e606 68bc a6ec 35bc 0e04 b93d ce1f 6ebd
000002c0: eb6b a23d 9bbe 95bc 2b74 38be 0bd2 033e
000002d0: 1615 463e 1996 66bd ddee 33be 056f a13d
000002e0: 03b0 323e eadc 713d b57a 5dbe 8e42 813b
000002f0: 64aa 11bd fbf4 6dbd 91dc 4f3b d05d 81bd
00000300: 8039 f4bd a837 a4bd 10dd 2c3e 7af2 933d
00000310: d2f8 113e be13 343e 0ac4 a83d ff4a df3d
00000320: 99e1 1dbe 3653 35bc 789c 3c3e cdf7 7dbe
00000330: 1655 a03d beda dc3d 2fdc 22bd 1ed1 903d
00000340: d1d8 e0bd 6e56 373d 75ee a43d 24b7 2a3e
00000350: abdf a6bb 28cc 053e b509 0c3e 59d6 41bd
00000360: 0600 9dbd 7cad 463d 2dac 62be cbc0 e23c
00000370: d22e 0ebe 8286 d0bd 56a9 1e3e 139f 40bd
00000380: fe4e 933c bd00 22bd b412 c83c 5c5e 153d
00000390: bdfd dc3d 0710 d6bd 7ccb 0b3e dec1 d8bc
000003a0: 6790 0cbe 076a f33d 4e2f 04be 81e4 e2bd
000003b0: 4b89 873c 86c3 913c f406 9cbd 944e 14be
000003c0: 5686 c33c 44c1 ad3d 9eeb 6abd 0745 b23d
000003d0: 95a6 a23c 9333 483e 2622 c83a 5128 b7bd
000003e0: 86bc 0c3e c066 86bd bc85 d63d bdd7 a7bd
000003f0: 3c8d 8bbd 63e6 8d3c 1aca 03bd c336 4fbb

Network_stack.1.0.gru.bias_ih_l0 f4 [96]
0.13420776 0.06664535 0.04346913 0.06786084 -0.012963454 -0.1301084 0.09014162 0.11848477
-0.14063457 -0.21484344 -0.032753702 0.14155881 0.12722343 0.11241711 -0.15868299 -0.06809369
-0.057738982 0.006345246 -0.1432111 0.19049898 0.024440842 -0.080861665 0.022665855 -0.070852034
0.083887525 -0.24029803 0.10612784 -0.09486603 0.059370447 0.2273513 0.1967842 0.025117228
-0.42986977 -0.011499516 -0.1731233 0.048093688 0.22665277 -0.30789098 -0.48711658 -0.043419506
0.04741648 -0.057627257 -0.5287813 -0.29510266 -0.22030455 -0.17225526 0.016961826 -0.15598573
-0.15863544 0.026504625 0.12612377 0.19277263 0.1390631 0.016218169 0.103668354 -0.15931804
-0.16002606 -0.19909972 0.077616245 -0.23937118 -0.17219724 0.11818662 0.25483513 0.11596054
0.15292229 0.12364182 0.0150933815 -0.1218268 0.023967173 -0.07714585 -0.020390114 0.15342502
0.07495835 -0.09578588 -0.013347928 0.056796253 -0.18703382 0.07307311 0.13739565 0.18891175
0.030186802 -0.15068656 0.20038243 -0.12855081 -0.13167146 -0.019763257 0.04206013 0.18564506
0.08375953 -0.00909562 0.02821824 0.008153942 -0.008728424 0.087329924 -0.063924 0.046023775
00000000: c26d 093e 5b7d 883d b00c 323d a0fa 8a3d
00000010: ab64 54bc 233b 05be 2b9c b83d 25a8 f23d
00000020: 8202 10be ebff 5bbe bf28 06bd cbf4 103e
00000030: dc46 023e f13a e63d cb7d 22be b474 8bbd
00000040: b67f 6cbd c8eb cf3b eea5 12be 2a12 433e
00000050: 2938 c83c cd9a a5bd bead b93c df1a 91bd
00000060: 39cd ab3d b010 76be 8e59 d93d 1f49 c2bd
00000070: 6d2e 733d c7ce 683e cc81 493e a5c2 cd3c
00000080: e417 dcbe 7768 3cbc 3c47 31be e3fd 443d
00000090: aa17 683e e3a3 9dbe 5867 f9be a7d8 31bd
000000a0: c837 423d 8f0a 6cbd 365e 07bf b217 97be
000000b0: 8497 61be af63 30be 87f3 8a3c b9ba 1fbe
000000c0: 5471 22be 3a20 d93c 9726 013e 3066 453e
000000d0: 8f66 0e3e f7db 843c 1350 d43d 4524 23be
000000e0: dfdd 23be cce0 4bbe 44f5 9e3d b81d 75be
000000f0: 7954 30be d40b f23d c079 823e b87c ed3d
00000100: a997 1c3e ec37 fd3d 3b4a 773c 5480 f9bd
00000110: ce56 c43c a5fe 9dbd 2b09 a7bc 731b 1d3e
00000120: c383 993d 632b c4bd 45b1 5abc 30a3 683d
00000130: cb85 3fbe 5ba7 953d 72b1 0c3e 1572 413e
00000140: 504a f73c 944d 1abe 0d31 4d3e d3a2 03be
00000150: e2d4 06be 8ee6 a1bc 3e47 2c3d bd19 3e3e
00000160: 1e8a ab3d cc05 15bc f029 e73c 1d98 053c
00000170: aa01 0fbc 08da b23d 96ea 82bd 6d83 3c3d

Network_stack.1.0.gru.bias_hh_l0 f4 [96]
-0.12517734 0.19832449 -0.106968276 -0.10169192 -0.025612745 -0.18683015 -0.20346762 0.04626489
0.08749694 -0.010404662 -0.17964901 -0.11390493 0.13206862 -0.17007847 -0.13518308 -0.051556848
0.06182921 -0.018483546 -0.19456446 0.13020578 0.17706977 0.12824385 0.10922783 -0.17940019
-0.11729535 0.09034659 0.10772143 -0.024248017 0.048669998 0.16472149 -0.05045826 -0.13091926
-0.37601432 -0.20168284 -0.13739377 0.033971623 0.18409911 -0.20938517 -0.3259277 0.055911366
0.22673687 -0.17211576 -0.39337477 -0.124266215 0.037111267 -0.004375595 -0.032386165 -0.13653037
-0.1529102 -0.041858386 -0.07128592 0.35427478 0.09828136 -0.027470574 0.08796566 -0.0029615653
0.04926702 -0.2774631 -0.05940039 -0.32972386 0.024344053 0.30776903 0.28691107 -0.020574367
-0.03549094 -0.01633494 -0.08838204 -0.049593102 -0.03862203 0.006020066 -0.033247933 0.17614162
0.057020046 -0.011317517 0.033594087 -0.13795218 -0.0528516 -0.11216098 -0.03654369 -0.10332236
0.0073446063 -0.04614887 -0.06411574 -0.09023406 0.1311661 0.12630224 0.04248978 -0.09276812
-0.07651983 -0.073890686 -0.010949208 0.0019825024 0.09840426 -0.042970464 -0.15486556 0.09913906
00000000: 7d2e 00be 9315 4b3e 2f12 dbbd da43 d0bd
00000010: d2d1 d1bc 6750 3fbe d159 50be 4180 3d3d
00000020: 9831 b33d 5178 2abc e9f5 37be fd46 e9bd
00000030: ff3c 073e 0d29 2ebe 6f6d 0abe 462d 53bd
00000040: a040 7d3d ce6a 97bc e83b 47be aa54 053e
00000050: c751 353e 5b52 033e d7b2 df3d afb4 37be
00000060: 8b38 f0bd a207 b93d 0e9d dc3d c7a3 c6bc
00000070: 315a 473d c0ac 283e 52ad 4ebd b30f 06be
00000080: f384 c0be f285 4ebe f4b0 0cbe d425 0b3d
00000090: 7a84 3c3e 1169 56be ffdf a6be 5103 653d
000000a0: b62d 683e 1d3f 30be 6b68 c9be 497f febd
000000b0: fc01 183d 2761 8fbb 5ba7 04bd 9ece 0bbe
000000c0: 7e94 1cbe b373 2bbd 5afe 91bd 8163 b53e
000000d0: bd47 c93d f809 e1bc 5727 b43d d216 42bb
000000e0: 37cc 493d a50f 8ebe d34d 73bd 91d1 a8be
000000f0: 2e6d c73c e793 9d3e 02e6 923e 938b a8bc
00000100: f35e 11bd dad0 85bc a501 b5bd 2322 4bbd
00000110: 2232 1ebd f943 c53b fc2e 08bd 785e 343e
00000120: da8d 693d 1b6d 39bc f499 093d 5643 0dbe
00000130: eb7a 58bd a8b4 e5bd d6ae 15bd ac9a d3bd
00000140: 06ab f03b 9906 3dbd 1d4f 83bd a3cc b8bd
00000150: 6850 063e 6055 013e c309 2e3d 36fd bdbd
00000160: 6eb6 9cbd 0054 97bd 4f64 33bc dfec 013b
00000170: 2c88 c93d cc01 30bd 1495 1ebe 6b09 cb3d
