models/model_uniform_region_0-0.3.0.6-0.9_multiple_Agentsbea959af.pth (torch, 675014 bytes, 132 tensors)

Network_stack.0.0.gru.weight_ih_l0 f4 [96, 1]
0	0xbe2865eb	-0.16445129
1	0xbcced073	-0.02524588
2	0xbd9636b1	-0.0733465
3	0xbe02a451	-0.12757994
4	0x3d2d103f	0.04225182
5	0xbc6489cc	-0.013948869
6	0xbd5f6f16	-0.0545493
7	0x3d43b237	0.04777738
8	0xbdac9902	-0.084276214
9	0xbc3a0fbc	-0.01135629
10	0xbd6b8d65	-0.05750789
11	0x3db62936	0.08894579
12	0x3c671f73	0.014106619
13	0x3ce621e2	0.028092328
14	0x3c91cdc1	0.017798306
15	0x3e17a2f5	0.14808257
16	0xbd9946f4	-0.07484236
17	0xbe5055ef	-0.20345281
18	0x3db7183c	0.08940169
19	0xbde334aa	-0.11094029
20	0x3da02252	0.07819046
21	0x3e39a828	0.18130553
22	0xbe25f22c	-0.16205662
23	0x3e122008	0.14270031
24	0xbce5fcaf	-0.02807459
25	0xbd52eafb	-0.051493626
26	0x3e64a5f2	0.22328928
27	0x3cf26f02	0.029593948
28	0x3e2468b1	0.16055562
29	0xbdd16002	-0.1022339
30	0x3debfdde	0.11523031
31	0xbe263bd6	-0.16233763
32	0xbf458b31	-0.77165514
33	0xbe9dac8f	-0.30795714
34	0xbed20962	-0.41022784
35	0xbe6c2d08	-0.23064053
36	0xbefeddc5	-0.49778572
37	0xbedddd16	-0.43332738
38	0xbe00e397	-0.12586819
39	0x3e92d717	0.28679726
40	0xbe627c18	-0.2211765
41	0xbc8b8733	-0.017032241
42	0xbf33f638	-0.70297575
43	0xbddbf648	-0.10740334
44	0x3d959f1a	0.07305737
45	0x3dfe3dbe	0.1241412
46	0xbe68e8e1	-0.22745086
47	0xbeb0a427	-0.34500238
48	0xbe333c10	-0.17503381
49	0xbefc8862	-0.49322802
50	0x39cbbbee	0.00038859196
51	0xbf04eafe	-0.5192107
52	0xbeec1377	-0.461086
53	0xbec61098	-0.38684535
54	0xbda4cd37	-0.08046954
55	0x3e8e693e	0.27814668
56	0xbec2c11a	-0.3803795
57	0x3ddc3723	0.10752704
58	0xbe92d62d	-0.28679028
59	0xbdc4146b	-0.09574207
60	0xbf2184dc	-0.6309335
61	0xbdebc0f4	-0.11511412
62	0x3f2633f6	0.64923036
63	0xbf051499	-0.51984555
64	0xbe6aa8f7	-0.22916017
65	0x3e0a5b8c	0.13511485
66	0x3e598424	0.21241814
67	0xbd571e38	-0.052519053
68	0x3e1e131e	0.1543698
69	0xbe1c8eff	-0.15288924
70	0xbe0f4fdd	-0.13995309
71	0x3d5b8605	0.053594608
72	0x3d270793	0.040778708
73	0xbdabd609	-0.08390433
74	0x3e3853e3	0.1800075
75	0xbe2f8c5a	-0.17143384
76	0x3dfb757f	0.1227827
77	0xbc9e9905	-0.019360075
78	0x3e4cb466	0.19990692
79	0xbe0e9912	-0.13925579
80	0xbe3a9a70	-0.18222976
81	0x3e6bd20f	0.2302935
82	0x3c98d75f	0.018657384
83	0xbe8db7c3	-0.27679262
84	0x3e3504cf	0.17677616
85	0xbc01c333	-0.007920074
86	0xbe13ef3c	-0.1444673
87	0xbd881028	-0.066437066
88	0x3e4b3fe5	0.19848593
89	0x3e153ba5	0.14573534
90	0x3e5478a6	0.20749149
91	0x3e0bf172	0.13666323
92	0xbe87332a	-0.26406223
93	0x3c0b43d3	0.008500057
94	0x3d1806c5	0.03711583
95	0xbe87edf5	-0.26548734

Network_stack.0.0.gru.weight_hh_l0 f4 [96, 32]
0	0x3e04928b	0.12946527
1	0x3e2b0bd6	0.16703734
2	0xbe313641	-0.17305852
3	0x3e38a50b	0.18031709
4	0xbd2b4601	-0.041814808
5	0x3d9663d2	0.07343258
6	0xbd0fdd18	-0.03512296
7	0x3e149ec3	0.14513688
8	0x3e11c462	0.1423507
9	0xbdd4e673	-0.10395517
10	0xbdb14367	-0.08655434
11	0xbd2bb039	-0.041916106
12	0x3d441dfa	0.04788015
13	0xbdb8f12e	-0.090303764
14	0x3d83f60d	0.06443415
15	0x3e0998dd	0.13437219
16	0x3df150e1	0.117830046
17	0xbe2dafc7	-0.16961585
18	0xbe0aa502	-0.13539508
19	0x3df88a99	0.121358104
20	0x3cb43c34	0.022001363
21	0xbde8f1d3	-0.11374249
22	0xbe02344f	-0.12715267
23	0xbdb3c7a5	-0.087783135
24	0x3e0c5c30	0.13707042
25	0xbdbf6e94	-0.09347263
26	0x3dca3cc5	0.09874872
27	0x3d139bad	0.036037136
28	0xbc9c5fe7	-0.019088699
29	0xbe045863	-0.12924342
30	0x3ce2bed2	0.02767888
31	0x3ae73c7a	0.0017641925
32	0xbe3df3ae	-0.18549988
33	0x3e060cba	0.13090792
34	0xbdb4ce7d	-0.08828447
35	0x3e1aabe0	0.15104628
36	0x3df52e06	0.11971669
37	0xbdf645cf	-0.12025034
38	0xbe2916fa	-0.16512671
39	0xbda21ada	-0.07915278
40	0xbdbdc79f	-0.0926659
41	0x3c39d8f6	0.011343231
42	0xbddac274	-0.1068162
43	0x3d073567	0.033009913
44	0x3e38a127	0.18030225
45	0xbe0969a7	-0.1341921
46	0x3cb05552	0.021525059
47	0xbe1d93a3	-0.1538835
48	0xbe4cf1d0	-0.20014119
49	0xbaff9f29	-0.001950239
50	0xbd4516ab	-0.04811732
51	0xbe4aabc0	-0.1979208
52	0x3cc8c515	0.024508039
53	0xbc4e9a4c	-0.012610029
54	0x3c6ff2ab	0.014645259
55	0xbd5fdc04	-0.054653183
56	0x3e52a824	0.20571953
57	0x3cce5467	0.02518673
58	0x3dc5d026	0.09658842
59	0x3d978b7f	0.07399654
60	0x3e156742	0.14590171
61	0xbd94449d	-0.072396494
62	0xbddac06d	-0.106812336
63	0xbd6491d8	-0.05580315
64	0xbe2abf9b	-0.16674654
65	0x3e1108f4	0.14163572
66	0xbe614753	-0.21999864
67	0x3d0dabe0	0.03458774
68	0xbe1925df	-0.14955853
69	0xbe60e39f	-0.2196183
70	0x3d6fda9b	0.058558088
71	0x3c818c30	0.015813917
72	0x3d6ebb70	0.058284223
73	0xbc64934a	-0.013951132
74	0x3e1a4a61	0.15067436
75	0xbcc99a1a	-0.024609614
76	0xbe206537	-0.1566361
77	0xbce7b613	-0.028285062
78	0xbd85a8a3	-0.065263055
79	0x3daa2119	0.08307094
80	0x3d9d28c6	0.076737925
81	0xbbfde482	-0.0077481875
82	0x3e805131	0.25061944
83	0x3a37ede7	0.0007016346
84	0xbe89ce79	-0.2691534
85	0x3e644ead	0.22295637
86	0x3e0737dc	0.13204902
87	0x3e8643dc	0.26223648
88	0x3def4b2d	0.116842605
89	0xbe24c082	-0.16089061
90	0xbe08f134	-0.13373262
91	0xbddf4606	-0.10902028
92	0x3d3f5e4a	0.04672078
93	0x3e451dcc	0.19249648
94	0xbd4b438c	-0.049624965
95	0xbda77652	-0.08176865
96	0xbe0bbed1	-0.1364701
97	0xbdd95ea0	-0.106137514
98	0x3d54903b	0.05189536
99	0x3cce5881	0.025188686
100	0xbd964b67	-0.073386006
101	0xbbac02f1	-0.005249374
102	0x3dba3628	0.09092361
103	0x3d8943f0	0.06702411
104	0x3df458f9	0.11931033
105	0xbe1b7901	-0.15182878
106	0x3de29173	0.110628985
107	0x3dc94357	0.09827297
108	0x3de3fbf1	0.111320384
109	0x3da64737	0.08119052
110	0x3d8afc04	0.067863494
111	0xbd06e89e	-0.032936685
112	0x3d9c2d23	0.07625797
113	0x3e0ca8bb	0.1373624
114	0xbcd6d58c	-0.026224874
115	0xbd1c9d83	-0.038236152
116	0xbd07980f	-0.033104
117	0xbe373183	-0.17889981
118	0x3de004c7	0.10938411
119	0xbd976c42	-0.073936954
120	0x3dd1153a	0.10209127
121	0xbe19251e	-0.14955565
122	0x3d6a0b2e	0.057139568
123	0x3e12de36	0.14342579
124	0x3e07c431	0.13258435
125	0x3e08051f	0.13283204
126	0xbe020cee	-0.12700245
127	0x3d3946a9	0.045233402
128	0xbba62e9e	-0.005071475
129	0xbde5c93c	-0.11220023
130	0x3e12b2d3	0.14326029
131	0xbe04b5c7	-0.12959968
132	0xbe08e141	-0.13367178
133	0x3d5a4b72	0.053294607
134	0x3df1f9cc	0.11815223
135	0xbe0eb26b	-0.13935249
136	0x3d5beb4f	0.053691205
137	0x3d54f1e7	0.05198851
138	0x3dc25278	0.09488386
139	0xbdedcce6	-0.11611347
140	0x3cbd2b27	0.023091866
141	0xbd986aec	-0.07442269
142	0xbdeb9add	-0.11504147
143	0x3d215861	0.039390925
144	0xbe0ff4c5	-0.14058216
145	0x3e08eb83	0.1337109
146	0x3c79f6c4	0.015256587
147	0x3d845bbe	0.06462811
148	0xbd40c600	-0.047063828
149	0x3d54dcc9	0.05196837
150	0x3e06a2bb	0.13148014
151	0xbe1fdeb4	-0.15612298
152	0xbb44430d	-0.0029947192
153	0xbd91ec11	-0.07125104
154	0x3d7803d8	0.06055054
155	0xbd8a990a	-0.06767471
156	0xbdaf266c	-0.0855225
157	0x3dff9b23	0.12480762
158	0x3e086d3c	0.1332292
159	0x3e147b7f	0.14500235
160	0xbd7c8f9b	-0.06166039
161	0xbc3a8cbf	-0.011386096
162	0xbe09ae98	-0.13445508
163	0x3d06c43b	0.032901984
164	0x3e3902ea	0.18067518
165	0xbc2461f2	-0.010033118
166	0xbd3560e2	-0.044281848
167	0x3e1d088a	0.15335289
168	0x3d5f30e9	0.054490004
169	0xbdeb56fb	-0.114911996
170	0xbda379eb	-0.079822384
171	0xbbfee03c	-0.0077781957
172	0x3e03c26f	0.1286714
173	0x3dda44fa	0.106576875
174	0xbc631226	-0.013859307
175	0xbdad8aaa	-0.08473714
176	0xbda5191c	-0.0806143
177	0x3ce61f90	0.028091222
178	0xbc72eb08	-0.014826544
179	0x3b3d9f04	0.0028933892
180	0xbd951f56	-0.072813675
181	0xbd4bebb2	-0.049785323
182	0x3e10999c	0.14121097
183	0xbcbc45af	-0.022982446
184	0x3de095ed	0.10966096
185	0xbcd7c268	-0.026337817
186	0x3d29f901	0.041497234
187	0xbd86dd9f	-0.065852396
188	0xbddbc6cb	-0.10731276
189	0x3dd4d2e2	0.10391785
190	0xbdaebe8a	-0.08532436
191	0xbdac87ee	-0.08424364
192	0xbe2d79c1	-0.16940977
193	0xbdae1005	-0.08499149
194	0xbdc78ad8	-0.09743279
195	0xbe10d1fb	-0.14142601
196	0xbe222d2b	-0.15837543
197	0xbc30d56c	-0.010793071
198	0x3e1d6479	0.15370359
199	0xbe17a474	-0.14808828
200	0x3de385b1	0.11109484
201	0xbde2bb20	-0.110708475
202	0x3dd6dab4	0.10490933
203	0xbd50fe09	-0.051023517
204	0xbe23b26b	-0.1598603
205	0xbd9b23d7	-0.07575195
206	0x3d5d912a	0.054093517
207	0x3e1a36a7	0.1505991
208	0xbe07d0c8	-0.13263237
209	0xbdd1fdb2	-0.10253467
210	0x3de1baf1	0.11021984
211	0x3dfd6e59	0.12374563
212	0x3df0eb90	0.1176368
213	0xbd7287ec	-0.059211656
214	0xbdb411b6	-0.087924406
215	0xbe0bedec	-0.13664979
216	0x3d87d824	0.066330224
217	0xbd8f4d5a	-0.069971755
218	0x3e0356f2	0.12826136
219	0xbd89ec22	-0.06734492
220	0x3dc18269	0.09448702
221	0xbe33421a	-0.17505684
222	0x3d0a441c	0.03375636
223	0xbdb4552a	-0.08805306
224	0xbe25d368	-0.16193926
225	0x3d4c41d5	0.04986747
226	0xbdf41b2b	-0.119192444
227	0x3d49ba8b	0.049250167
228	0x3e30dd63	0.17271952
229	0x3d3ce4eb	0.04611675
230	0xbcf0faa5	-0.029416392
231	0xbc9cee75	-0.019156674
232	0x3dabef29	0.083952256
233	0xbdd543ee	-0.10413347
234	0xbdff89fe	-0.12477492
235	0xbc8f1202	-0.017464641
236	0x3e159de5	0.14611013
237	0xbde93433	-0.11386909
238	0x3dcd28a3	0.100175165
239	0xbe3a693d	-0.18204208
240	0x3b2179c7	0.0024639235
241	0xbe1a609f	-0.1507592
242	0x3e23e67a	0.16005889
243	0x3cac8101	0.021057608
244	0xbdfc447f	-0.12317752
245	0x3d1e23f0	0.03860849
246	0x3d11a1da	0.035554744
247	0x3c01dde8	0.007926442
248	0xbd95fe33	-0.07323875
249	0xbd8dd44a	-0.069252566
250	0xbda16f8c	-0.07882604
251	0x3d9cd46f	0.07657706
252	0xbe3f44a3	-0.18678527
253	0xbd5523b8	-0.052036017
254	0x3c9c586b	0.01908513
255	0x3c52739e	0.012844948

Network_stack.0.0.gru.bias_ih_l0 f4 [96]
0	0xbdc988ff	-0.09840583
1	0x3dfe60af	0.12420785
2	0xbe33045e	-0.17482135
3	0xbd62ed64	-0.055402175
4	0x3df9f5a3	0.122050546
5	0x3e5a6994	0.21329337
6	0xbe2d635b	-0.16932432
7	0x3e1d6ac5	0.1537276
8	0xbe08a658	-0.13344705
9	0x3d2493e0	0.040180087
10	0xbe186150	-0.14880872
11	0xbe10e40f	-0.14149497
12	0x3e66bb0e	0.22532293
13	0xbc944981	-0.018101456
14	0xbd051a74	-0.03249593
15	0x3e3bea15	0.18351014
16	0xbdf19f89	-0.11798007
17	0x3e281fbe	0.16418359
18	0xbdb0585b	-0.086106025
19	0xbe120002	-0.14257815
20	0xbcc3fb85	-0.023923645
21	0xbcef4654	-0.02920834
22	0x3cfb23f2	0.030656788
23	0x3df23cf2	0.11828031
24	0x3be16dcf	0.0068795453
25	0x3d3774f7	0.04478928
26	0x3e413821	0.18869068
27	0x3db69d9c	0.0891678
28	0x3dd17ae2	0.10228516
29	0xbe238291	-0.15967776
30	0xbc8651d3	-0.016396439
31	0xbe6f1d6d	-0.23351069
32	0xbf7884df	-0.97077745
33	0xbf25cb30	-0.64763165
34	0xbebd6e2e	-0.36998123
35	0xbdd0f163	-0.10202291
36	0xbed77717	-0.42083046
37	0xbf2d4345	-0.6768077
38	0x3e1ad3d5	0.1511987
39	0xbe755e88	-0.23961842
40	0xbec12451	-0.3772302
41	0xbe1fb876	-0.1559771
42	0xbf9aa272	-1.2080824
43	0xbe51e462	-0.20497277
44	0x3e1c071e	0.1523709
45	0xbd8bc323	-0.06824329
46	0xbeadbd15	-0.3393332
47	0xbf0d9e28	-0.5531945
48	0xbe8dd507	-0.2770159
49	0xbf7046e9	-0.938582
50	0x3a96cc7d	0.0011505034
51	0xbf123ab6	-0.57120836
52	0x3c6a1db6	0.01428931
53	0x3d6d5d11	0.057950083
54	0xbec74a1a	-0.38923723
55	0xbdccd48f	-0.1000148
56	0xbf65493c	-0.8956487
57	0xbd8b8a71	-0.06813515
58	0xbe453c1d	-0.19261213
59	0x3c76d16c	0.0150645785
60	0xbe4b6be9	-0.19865383
61	0xbdeca03a	-0.11553998
62	0xbe264593	-0.16237478
63	0xbf4917c8	-0.7855191
64	0x3e31e5a3	0.17372756
65	0xbe339aca	-0.17539516
66	0xbd27825b	-0.0408958
67	0xbe1c02e8	-0.15235484
68	0x3d1a3a26	0.03765311
69	0x3e10b891	0.14132906
70	0xbdba9556	-0.09110515
71	0x3e54f8a0	0.20797968
72	0xbbc0e190	-0.005886264
73	0xbe3eabc6	-0.18620214
74	0xbe3c9bf0	-0.1841886
75	0xbde824d4	-0.113351494
76	0x3e1d09c3	0.15335755
77	0xbe2675d4	-0.16255885
78	0xbda72b1f	-0.081625216
79	0x3d86342a	0.06552918
80	0x3e4c18c1	0.19931318
81	0xbd9f381f	-0.07774376
82	0xbdccf8f3	-0.10008421
83	0x3e194431	0.14967419
84	0x3dc812b9	0.09769196
85	0xbd4a2a4b	-0.04935674
86	0xbb342615	-0.002748852
87	0xbde188e1	-0.11012436
88	0xbe19d20e	-0.15021536
89	0x3df490ee	0.11941706
90	0x3df33e5b	0.11877128
91	0x3e040599	0.1289276
92	0x3a8261a8	0.0009947317
93	0xbe3aa032	-0.18225172
94	0xbe2fa8fe	-0.17154309
95	0x3e38a0f9	0.18030156

Network_stack.0.0.gru.bias_hh_l0 f4 [96]
0	0xbe010812	-0.12600735
1	0x3dcde490	0.100533605
2	0xbd59d571	-0.05318207
3	0xbe0dd1ba	-0.13849536
4	0x3df1031f	0.117681734
5	0xbbf08314	-0.0073398445
6	0xbd81ca73	-0.06337442
7	0x3dd17712	0.10227789
8	0x3dd59c9d	0.10430262
9	0xbd0b911f	-0.034073945
10	0xbe3f5934	-0.18686372
11	0xbde6f18a	-0.11276539
12	0x3d63db18	0.055628866
13	0x3d0a460c	0.03375821
14	0xbe2ef07a	-0.17083922
15	0x3e3f5059	0.18682994
16	0x3dff246d	0.124581195
17	0x3e057120	0.13031435
18	0x3c9d9d14	0.01923994
19	0xba357abb	-0.00069228903
20	0xbc32a846	-0.010904377
21	0x3d5d0237	0.05395719
22	0x3d983e75	0.07433788
23	0xbd61a1f3	-0.055086087
24	0xbda5b720	-0.08091569
25	0xbcf75c85	-0.030195484
26	0x3dccbb60	0.099966764
27	0x3e0c692f	0.13712
28	0xbdb52690	-0.08845246
29	0xbe2db45b	-0.16963331
30	0xbdf6abee	-0.12044512
31	0xbe6b6ccf	-0.22990726
32	0xbf32af68	-0.697989
33	0xbf61bfa2	-0.88183033
34	0xbe7d383c	-0.24728483
35	0xbd42f392	-0.047595568
36	0xbeab421d	-0.33448878
37	0xbf275409	-0.653626
38	0xbc65e2f2	-0.014031159
39	0xbe659206	-0.22418985
40	0xbece9adf	-0.40352532
41	0xbe41287f	-0.18863104
42	0xbfaf56ba	-1.3698342
43	0xbe915571	-0.283855
44	0xbe04f8ae	-0.12985489
45	0x3d369f53	0.044585537
46	0xbe8ea0a5	-0.27856937
47	0xbf239475	-0.638984
48	0xbea9f9b3	-0.33198318
49	0xbf1b8a75	-0.60758144
50	0x3e2202ef	0.15821432
51	0xbeaa184c	-0.33221662
52	0xbe277b61	-0.16355659
53	0x3e117a11	0.14206721
54	0xbe9b9199	-0.3038452
55	0xbe95d32a	-0.29262668
56	0xbf70317a	-0.93825495
57	0xbe2f0f71	-0.17095734
58	0xbce5d5a2	-0.02805597
59	0x3e2815a9	0.16414513
60	0xbea9bf12	-0.33153588
61	0xbe9102fe	-0.28322595
62	0xbecaaff5	-0.3958737
63	0xbf4995da	-0.7874428
64	0x3e2d5d1b	0.16930048
65	0x3daf0acd	0.08546982
66	0xbd5b9744	-0.053611055
67	0x3e194cdf	0.1497073
68	0xbde07358	-0.109595
69	0x3e0dfa37	0.1386498
70	0xbd6bcf0a	-0.057570495
71	0x3d10f7e3	0.035392653
72	0xbdf27d14	-0.11840263
73	0xbe2744ad	-0.16334791
74	0x3d0f5047	0.034988668
75	0xbd4aaa78	-0.049478978
76	0xbe065c00	-0.13121033
77	0x3e2940f6	0.16528687
78	0x3db0d266	0.0863388
79	0x3d62189a	0.055199243
80	0x3df478fe	0.1193714
81	0xbe406438	-0.1878823
82	0xbd2929f3	-0.04129977
83	0x3db0cd81	0.08632947
84	0x3e105db8	0.14098251
85	0xbcdcf32f	-0.026971428
86	0xbe1ba572	-0.15199831
87	0x3deeae7e	0.116543755
88	0xbd0a4876	-0.03376051
89	0xbdb34094	-0.08752552
90	0x3be61f13	0.0070227473
91	0x3d5e6a8d	0.054300833
92	0xbc9cb660	-0.019129932
93	0xbd2855e9	-0.041097555
94	0xbe0305bf	-0.1279516
95	0xbcc0c962	-0.023533527

Network_stack.0.0.gru.weight_ih_l1 f4 [96, 32]
0	0xbd611d27	-0.054959442
1	0xbd97dea4	-0.07415512
2	0x3dada2b8	0.08478302
3	0x3c96339c	0.018335156
4	0xbcb1be7c	-0.021697275
5	0x3d22d5fa	0.039754845
6	0x3cd20b79	0.025640236
7	0x3c486c7e	0.012232898
8	0x3d2bc595	0.041936476
9	0x3d8191aa	0.06326611
10	0xbde5597d	-0.11198709
11	0xbe1e3af3	-0.15452175
12	0x3dc16883	0.09443762
13	0xbd0df0d3	-0.034653496
14	0x3decbf31	0.11559904
15	0xbd3ca60d	-0.046056796
16	0xbd621e51	-0.055204693
17	0x3d28bf2c	0.04119794
18	0x3d6cdd11	0.057828013
19	0xbddab793	-0.10679545
20	0xbdfb4e7d	-0.1227083
21	0xbde04aa1	-0.10951734
22	0x3d0f3c9e	0.03496992
23	0x3e22e255	0.15906651
24	0xbdddf227	-0.108372025
25	0x3dcbea9c	0.099568576
26	0xbe173265	-0.14765318
27	0xbdaf1505	-0.08548931
28	0xbe1565e5	-0.14589651
29	0x3e02c95f	0.1277213
30	0x3e30dd34	0.17271882
31	0xbdb06019	-0.08612079
32	0xbdee97dd	-0.11650059
33	0xbe15894a	-0.14603153
34	0xbda23f9f	-0.07922291
35	0xbdbe38d4	-0.09288183
36	0x3c79c23f	0.015244066
37	0xbdd09912	-0.10185446
38	0xbdb4b4d4	-0.08823553
39	0x3d5df5d6	0.054189526
40	0xbcc80b7f	-0.024419544
41	0xbe36d300	-0.17853928
42	0x3d8813aa	0.066443756
43	0x3c5ae5b4	0.01336043
44	0xbdbf5216	-0.093418285
45	0x3e14cbdf	0.14530896
46	0xbd128d9f	-0.03577959
47	0x3e1aa5a5	0.15102251
48	0xbca25987	-0.01981808
49	0x3e0049c1	0.12528135
50	0x3d82e651	0.063915856
51	0xbe160f4c	-0.14654273
52	0xbd01e6ab	-0.031714123
53	0x3d3d47eb	0.046211164
54	0x3c5ac908	0.013353594
55	0x3cf00424	0.02929885
56	0xbb615b31	-0.003438663
57	0x3c2e877b	0.010652418
58	0x3c0b2687	0.008493072
59	0xbe007b81	-0.12547113
60	0xbc162212	-0.009163396
61	0xbb28c1ba	-0.0025750236
62	0xbe061cf4	-0.13096982
63	0xbd14861f	-0.03626072
64	0xbd9e2f19	-0.07723827
65	0xbb166cb6	-0.002295298
66	0xbd98b245	-0.07455877
67	0xbc999eca	-0.018752474
68	0xbe8018af	-0.25018832
69	0xbdf948d7	-0.12172096
70	0xbda0a8df	-0.078447096
71	0x3dc5755d	0.09641526
72	0xbe455dac	-0.19274014
73	0x3dd93a9e	0.106068835
74	0x3e2daf7a	0.1696147
75	0x3c93c95a	0.018040348
76	0xbe47fd80	-0.19530296
77	0xbcee4d93	-0.029089725
78	0xbe32e648	-0.17470658
79	0xbdcc3a47	-0.09972053
80	0xbcde57fd	-0.027141565
81	0xbd862ab6	-0.06551115
82	0xbe12250b	-0.14271943
83	0x3cd987dd	0.026554042
84	0x3d0ec8ae	0.03485935
85	0x3e39fd53	0.18163042
86	0x3e2f12f3	0.17097072
87	0x3d2c486b	0.04206125
88	0x3db6340e	0.088966474
89	0x3b3e08e6	0.0028997003
90	0xbd5062ab	-0.050875347
91	0xbc498af8	-0.012301199
92	0x3dee2dca	0.11629827
93	0x3e310155	0.17285664
94	0x3dac602e	0.08416782
95	0x3cebd4db	0.02878802
96	0xbdee7f0c	-0.11645326
97	0xbe228d96	-0.15874323
98	0x3b2dee76	0.002653984
99	0x3c87e8c6	0.016590487
100	0x3d1748a1	0.0369345
101	0x3ca27899	0.019832896
102	0x3dc1c904	0.09462169
103	0xbe0a9f75	-0.1353739
104	0xbe3a9fb4	-0.18224984
105	0x3ca454dc	0.020059995
106	0x3e0cfeda	0.13769093
107	0xbe2ee1c0	-0.17078304
108	0x3daebc06	0.085319564
109	0xbe0096bd	-0.12557502
110	0x3dbb273c	0.09138343
111	0xbd5b9f73	-0.05361886
112	0x3d02a730	0.031897724
113	0x3e27084d	0.1631176
114	0x3c9f346f	0.019434182
115	0x3c70e03b	0.014701898
116	0x3e344fa4	0.17608505
117	0x3e08c6dc	0.13357109
118	0xbdc54df7	-0.09634011
119	0xbbdea7ad	-0.006794891
120	0x3c802479	0.015642392
121	0xbe1562d8	-0.14588487
122	0xbdb9f024	-0.09079006
123	0xbd997789	-0.07493503
124	0x3d17c93c	0.037057146
125	0x3cdcae11	0.02693847
126	0xbe2b8bcc	-0.16752547
127	0xbde067d7	-0.10957306
128	0x3e8f1b3f	0.27950475
129	0xbe1258ef	-0.14291738
130	0xbca21df1	-0.019789668
131	0xbe81b84d	-0.25335923
132	0xbe94b0f0	-0.29041243
133	0x3e4c9f5a	0.19982663
134	0xbdaa5d15	-0.08318535
135	0x3e1b4070	0.151613
136	0xbe87aa65	-0.26497188
137	0x3db4e312	0.08832373
138	0xbede62e4	-0.43434823
139	0x3d928964	0.071551114
140	0xbe0b4582	-0.13600734
141	0x3cb661ee	0.022263493
142	0xbc6367b6	-0.013879707
143	0x3e07995d	0.13242097
144	0x3da89694	0.082318455
145	0xbf10a68f	-0.5650415
146	0xbdaf1f30	-0.085508704
147	0x3eb1a0cc	0.3469299
148	0xbd5ef6d4	-0.054434612
149	0xbe75ccae	-0.2400386
150	0xbda0279f	-0.07820057
151	0xbc9423a0	-0.018083394
152	0xbf40bbc0	-0.75286484
153	0x3e3c47d5	0.18386777
154	0x3d663626	0.056203984
155	0x3db27fef	0.08715808
156	0x3defc381	0.11707211
157	0xbe3fd0a0	-0.18731928
158	0x3c38d0f5	0.011280288
159	0x3f112f5e	0.567129
160	0xbe54590d	-0.20737095
161	0xbd18d694	-0.037314013
162	0x3e47c3d0	0.1950829
163	0xbd9e8d67	-0.07741814
164	0xbcb85a77	-0.022504074
165	0xbe0a64bf	-0.13514994
166	0x3dd84e5d	0.105618216
167	0x3cf8aaf1	0.030354949
168	0xbda9e7ce	-0.08296166
169	0x3de1fa92	0.110341206
170	0xbcb26b3a	-0.021779645
171	0x3dae333b	0.08505865
172	0x3dcc1cd1	0.09966434
173	0xbd9667a0	-0.07343984
174	0x3d885d19	0.06658382
175	0x3da2d943	0.07951596
176	0xbdb89846	-0.09013419
177	0x3e4cb942	0.19992545
178	0x3d21e5f9	0.03952596
179	0x3d70dbc4	0.058803335
180	0x3e0e3559	0.13887538
181	0x3dfcaf02	0.123380676
182	0xbdc6f627	-0.097149186
183	0x3e114127	0.1418501
184	0x3d732488	0.05936101
185	0xbdc5c40f	-0.09656536
186	0xb9db6976	-0.0004184951
187	0xbd99258a	-0.07477863
188	0xbca50c36	-0.020147424
189	0xbd9c9bbb	-0.07646891
190	0xbcf74f8a	-0.030189294
191	0x3de0b4fe	0.109720215
192	0xbdbc4cf9	-0.09194369
193	0x3d73430b	0.05939011
194	0xbdea12e1	-0.11429382
195	0x3e0c074a	0.13674656
196	0x3e0e2dec	0.13884705
197	0xbe1208c4	-0.14261156
198	0x3c65ae74	0.014018644
199	0x3d1468f4	0.036232904
200	0xbe27230a	-0.1632196
201	0xbe18e440	-0.1493082
202	0xbcf7b01e	-0.030235346
203	0xbd597dce	-0.053098492
204	0xbcc511e3	-0.02405638
205	0x3db2d594	0.08732143
206	0xbd8e7eff	-0.06957816
207	0x3d06aefa	0.032881714
208	0x3da3c730	0.079969764
209	0x3ca06239	0.019578086
210	0xbc9652cc	-0.018350028
211	0xbbac37af	-0.0052556614
212	0xbd8ca1e2	-0.06866814
213	0xbd85a539	-0.06525654
214	0x3e055433	0.130204
215	0x3d8dce53	0.06924119
216	0xbe3d289c	-0.18472522
217	0xbd8d2089	-0.06890971
218	0xbdef6af3	-0.11690321
219	0x3dbe7819	0.093002506
220	0xbdd579eb	-0.10423645
221	0xbe017c69	-0.12645115
222	0x3e04dc1e	0.12974593
223	0xbdae1f95	-0.085021175
224	0xbd59a96f	-0.0531401
225	0xbe240041	-0.16015722
226	0xbcd0e5eb	-0.025500258
227	0x3e04824d	0.12940331
228	0xbba7a4d0	-0.0051160827
229	0x3d748df3	0.059705686
230	0x3db153ca	0.086585596
231	0xbd9b0ebe	-0.07571171
232	0x3dcea338	0.10089725
233	0x3ccdd83a	0.025127519
234	0x3e1d7186	0.15375337
235	0xbe2b142e	-0.16706917
236	0x3e25b4ec	0.16182297
237	0xbd0bcd32	-0.034131236
238	0xbe05fed6	-0.13085493
239	0x3decc7db	0.11561557
240	0xbda95e59	-0.082699485
241	0xbdc52858	-0.096268356
242	0x3e1e13f4	0.15437299
243	0xbd97f6e1	-0.07420135
244	0xbddb41f8	-0.10705942
245	0xbd4806f9	-0.048834775
246	0x3cc287c1	0.023746373
247	0xbd2865e6	-0.041112803
248	0x3e3bbf84	0.18334776
249	0x3d8d65db	0.06904193
250	0xbd8ac1d5	-0.06775252
251	0xbcfbce54	-0.030738033
252	0xbe38591e	-0.18002746
253	0xbd318bec	-0.04334633
254	0x3d8afdcb	0.067866884
255	0xbd30c417	-0.043155756

Network_stack.0.0.gru.weight_hh_l1 f4 [96, 32]
0	0x3e10897f	0.1411495
1	0x3e22daca	0.15903774
2	0x3e1fc2ff	0.15601729
3	0x3db3080c	0.08741769
4	0x3d83308e	0.064057454
5	0xbc8d6c1f	-0.01726347
6	0xbe34bd92	-0.1765044
7	0xbd2ffecc	-0.042967603
8	0x3e364d65	0.17802961
9	0x3e164b51	0.14677168
10	0xbb9eefa6	-0.0048503457
11	0xbdc0db98	-0.09416884
12	0xbc6d6d1c	-0.014491346
13	0xbdd9a2b5	-0.10626737
14	0xbd036f0a	-0.032088317
15	0xbe2527cb	-0.16128461
16	0xbdb6887b	-0.0891275
17	0x3dea59ba	0.11442895
18	0xbbec67bc	-0.0072145145
19	0x3d854161	0.06506611
20	0xbdc7f619	-0.09763736
21	0x3dd2558b	0.10270222
22	0xbe08c7a2	-0.13357404
23	0x3e1c761d	0.15279432
24	0x3cfbf5f1	0.030756922
25	0x3db3e0a2	0.0878308
26	0xbe270c33	-0.16313247
27	0x3dc8ad06	0.097986266
28	0xbd80e0e2	-0.06292893
29	0xbe22d09c	-0.1589989
30	0xbd7deda5	-0.061994214
31	0x3db6bacd	0.08922348
32	0xbbda44de	-0.0066610416
33	0x3d851e3d	0.06499908
34	0xbdd5f4d9	-0.104470916
35	0x3e23b7dd	0.15988107
36	0xbd8729ea	-0.06599791
37	0xbd6b9bf2	-0.057521768
38	0x3dfee27f	0.124455445
39	0xbd40964f	-0.047018345
40	0xbe0bffc6	-0.13671789
41	0x3e0672c2	0.13129714
42	0xbe0852db	-0.13312857
43	0x3dad0833	0.084488295
44	0x3e1b8ea7	0.15191136
45	0xbded6150	-0.115908265
46	0x3e5d198b	0.21591775
47	0xbdaa0f8f	-0.08303749
48	0x3dff7c21	0.124748476
49	0x3c253189	0.010082611
50	0xbdaad5db	-0.08341571
51	0x3db4b70a	0.088239744
52	0x3e53d86b	0.20688026
53	0xbc300791	-0.0107439915
54	0xbe290223	-0.16504721
55	0x3d5e72bb	0.054308634
56	0x3df01120	0.11722016
57	0xbd80c63c	-0.0628781
58	0xbdd74994	-0.10512081
59	0xbd82c925	-0.063860215
60	0xbdec471b	-0.11537
61	0xbe2c68eb	-0.16836898
62	0x3bfc16e0	0.0076931566
63	0x3e005709	0.12533201
64	0x3b8230c8	0.0039731003
65	0x3dc21292	0.09476198
66	0xbe77c6cc	-0.24196929
67	0x3d8763c1	0.066108234
68	0x3da542f7	0.08069413
69	0xbe279329	-0.16364731
70	0x3e456891	0.1927817
71	0x3e28bd4d	0.16478463
72	0x3d351530	0.04420966
73	0x3d7f45fb	0.062322598
74	0xbde3a15c	-0.11114761
75	0xbda7a92d	-0.081865646
76	0xbe1cbdb7	-0.15306745
77	0x3da919d5	0.0825688
78	0xbdd4fad6	-0.10399406
79	0xbe09fafe	-0.13474652
80	0xbdb5bd13	-0.08873954
81	0xbc729f17	-0.014808438
82	0x3e26a068	0.16272128
83	0xbe6afb00	-0.22947311
84	0xbcd30da9	-0.02576335
85	0xbdaec2c6	-0.08533244
86	0x3e1134eb	0.14180343
87	0x3e4e0fdd	0.20123239
88	0x3d9b2c87	0.07576852
89	0x3dbef865	0.09324721
90	0x3e60ecaf	0.21965288
91	0x3e09c289	0.13453116
92	0xbe104b2b	-0.14091174
93	0x3deafe78	0.11474317
94	0x3d5c6bfb	0.053813916
95	0xbc39f14d	-0.0113490345
96	0x3d32b51f	0.04362976
97	0xbe2fa167	-0.17151414
98	0x3d5c453d	0.05377697
99	0x3e17ece6	0.14836463
100	0x3e1bd958	0.15219629
101	0x3e169df6	0.14708695
102	0x3de6d243	0.11270573
103	0x3c26241c	0.010140445
104	0xbcc289c6	-0.023747336
105	0xbde9c7db	-0.114150725
106	0xbe1bf7f9	-0.15231313
107	0xbd8aa9c3	-0.06770661
108	0x3db5f46e	0.08884512
109	0x3daae329	0.083441086
110	0x3e002860	0.12515402
111	0x3d9e07f4	0.07716361
112	0xbdd35127	-0.10318213
113	0x3d8f0caf	0.06984841
114	0xbce3209b	-0.027725508
115	0xbdad0445	-0.0844808
116	0x3e32e60c	0.17470568
117	0xbdf86ad5	-0.121297516
118	0x3e141599	0.14461364
119	0x3e0fa2a9	0.14026894
120	0x3e2e18ce	0.1700165
121	0xbdf79641	-0.120892055
122	0xbe35e739	-0.17763986
123	0xbd0a3325	-0.03374018
124	0xbdf92251	-0.121647485
125	0xbe2e2a5c	-0.17008346
126	0x3ce7cd92	0.028296266
127	0x3c90e4e8	0.017687276
128	0x3e208dc7	0.15679084
129	0xbe46142c	-0.19343632
130	0x3d100bd6	0.035167538
131	0xbcd006bc	-0.025393836
132	0xbdbdcb2c	-0.092672676
133	0x3d46dbf9	0.048549626
134	0x3dbfac09	0.09358985
135	0xbe43c017	-0.19116245
136	0xbe05861d	-0.13039441
137	0xbe4decea	-0.20109907
138	0xbde97cb5	-0.11400739
139	0x3eadab4d	0.33919755
140	0x3dcad4ab	0.099038444
141	0x3be66588	0.0070311464
142	0x3dd7d180	0.10538006
143	0xbda5adaf	-0.08089768
144	0x3e646bc9	0.22306742
145	0xbe2cf4f1	-0.16890313
146	0x3e769842	0.24081519
147	0xbe23298e	-0.1593382
148	0x3e7588d9	0.23977984
149	0x3d96c4fc	0.073617905
150	0x3e3b9ea9	0.18322243
151	0xbd339125	-0.043839592
152	0x3e1a9eb6	0.15099606
153	0xbe3fac06	-0.18717965
154	0xbd84f366	-0.06491737
155	0xbc732809	-0.014841088
156	0x3e310394	0.17286521
157	0xbe6cc52a	-0.23122087
158	0x3d1d1443	0.0383494
159	0x3d6c0e3b	0.05763076
160	0xbd8f1403	-0.06986239
161	0x3e0da47c	0.13832277
162	0x3e4f937d	0.20271106
163	0x3e182db5	0.14861186
164	0xbe17c2cc	-0.14820403
165	0x3d35537b	0.044269066
166	0x3e33407b	0.17505066
167	0xbdd618f6	-0.1045398
168	0x3e1ad49e	0.1512017
169	0xbd8b6881	-0.06807042
170	0x3dca453d	0.098764874
171	0xbe101fef	-0.14074682
172	0x3df84ddf	0.12124228
173	0xbdfb88b1	-0.12281931
174	0xbe1f0376	-0.15528664
175	0x3dfb367d	0.12266252
176	0x3e1a8c53	0.15092592
177	0xbdcb02bb	-0.0991263
178	0x3e71b8c3	0.23605637
179	0xbd822596	-0.06354825
180	0xbdad8ed7	-0.0847451
181	0x3cef9412	0.02924541
182	0x3db8f1f4	0.09030524
183	0x3cd165cf	0.025561241
184	0x3dc96c3b	0.098350964
185	0x3d5ca2e0	0.053866267
186	0xbcbd5ed8	-0.023116514
187	0xbe330928	-0.17483962
188	0x3e620d12	0.22075298
189	0xbd734810	-0.059394896
190	0x3e115461	0.14192344
191	0xbcbc123f	-0.02295792
192	0xbdd2b5a7	-0.10288554
193	0x3cea60b1	0.02861056
194	0x3e21064a	0.15725055
195	0x3d4480b6	0.04797431
196	0x3e76c8f2	0.24100092
197	0xbdc2131d	-0.09476302
198	0x3d891965	0.06694297
199	0x3c67240c	0.014107715
200	0x3d983b1d	0.0743315
201	0xbd5214ae	-0.051289253
202	0x3dfcd56c	0.123453945
203	0xbe1e9eb8	-0.15490234
204	0xbe085cbb	-0.13316624
205	0xbe33abe7	-0.17546044
206	0x3e5cac9e	0.21550223
207	0xbd780a00	-0.06055641
208	0x3dbf8608	0.09351736
209	0x3e1130ca	0.14178768
210	0xbd4c8ae9	-0.049937163
211	0x3d671312	0.05641467
212	0xbccca30c	-0.02498009
213	0x3d0a7f64	0.033812895
214	0x3ddcbfd3	0.10778775
215	0x3da279a3	0.079333566
216	0x3cd37768	0.025813773
217	0xbe3cadae	-0.18425629
218	0x3de623f1	0.11237324
219	0x3dc9c8c4	0.09852746
220	0x3ba2cc2c	0.004968187
221	0x3d829c0f	0.06377422
222	0x3d64d17b	0.05586384
223	0xbe15599f	-0.14584969
224	0xbe2fc46b	-0.17164771
225	0xbe1532ad	-0.14570113
226	0x3d02767d	0.03185128
227	0x3c91cdc9	0.017798321
228	0x3e0bf278	0.13666713
229	0x3d9e9b28	0.077444375
230	0x3dd9f5f4	0.10642615
231	0xbe68f062	-0.22747949
232	0xbe3f01c3	-0.18653016
233	0x3dea7b4e	0.114493
234	0xbe1ecda5	-0.15508135
235	0x3dde25f2	0.10847081
236	0x3d1250b7	0.035721507
237	0xbe2d24bb	-0.16908543
238	0x3dac5296	0.084141895
239	0xbc937966	-0.018002223
240	0x3d9d5473	0.07682123
241	0x3e572743	0.21011071
242	0xbe445d18	-0.19176137
243	0xbd185022	-0.037185796
244	0x3d564b41	0.05231786
245	0x3ddb2f8e	0.1070243
246	0x3d5e2b0a	0.054240264
247	0xbdb48e6d	-0.08816228
248	0xbe75e04e	-0.24011347
249	0x3e2179e9	0.15769161
250	0x3d36dcc5	0.044644136
251	0x3e1a2928	0.15054762
252	0x3e105497	0.14094768
253	0x3df03d87	0.117304854
254	0x3df23677	0.118267946
255	0x3c45155f	0.012029021

Network_stack.0.0.gru.bias_ih_l1 f4 [96]
0	0x3caefaa5	0.021359751
1	0x3dc47e8f	0.09594452
2	0xbd1b2c5f	-0.037884112
3	0x3d44b8c6	0.048027776
4	0x3d1ec48e	0.038761668
5	0xbdaa3fda	-0.0831296
6	0xbe1a635b	-0.15076964
7	0xbe239c01	-0.1597748
8	0xbe6fec9f	-0.23430108
9	0xbce1e560	-0.027575195
10	0x3de3400c	0.110962
11	0xbe309484	-0.17244154
12	0x3dad0efa	0.08450122
13	0xbe09f4f1	-0.13472344
14	0x3da46cfb	0.08028599
15	0xbd1e2626	-0.0386106
16	0x3e223198	0.15839231
17	0x3e15e74c	0.14639014
18	0x3cc0c288	0.02353026
19	0x3d8ec1f9	0.06970591
20	0x3d6dbe5f	0.05804288
21	0x3d899c76	0.06719296
22	0xbdd4303a	-0.10360761
23	0x3dd498eb	0.10380729
24	0xbda9bc84	-0.082879096
25	0xbd0a4e26	-0.033765934
26	0x3e70dc7b	0.23521607
27	0xbdd88bb6	-0.10573523
28	0x3e09517a	0.13409987
29	0xbe3f6405	-0.18690498
30	0x3e27c0ef	0.16382192
31	0xbcf2029e	-0.029542264
32	0xbd3d66a2	-0.046240456
33	0xbecbf378	-0.3983419
34	0xbe234eed	-0.15948077
35	0xbe28c1ab	-0.16480128
36	0xbf948efd	-1.1606137
37	0x3c8342ee	0.016023125
38	0x3dab0d99	0.08352203
39	0xbed7a67d	-0.42119208
40	0xbe1abf00	-0.15111923
41	0xbd78a096	-0.06070002
42	0x3e313e82	0.17309001
43	0x3da21a2f	0.079151504
44	0xbecf497b	-0.4048575
45	0xbe8a63a7	-0.27029154
46	0xbf6bfa01	-0.9217835
47	0x3e0b14f7	0.13582216
48	0xbe6173dc	-0.22016853
49	0xbd87b881	-0.06626988
50	0x3df7f8d1	0.12108005
51	0xbd55d5bf	-0.052205797
52	0xbe4e2ca2	-0.20134214
53	0xbea5d585	-0.32389465
54	0xbdc34415	-0.0953447
55	0x3d2e138d	0.042499114
56	0xbe20f83c	-0.15719694
57	0xbd88dc97	-0.06682699
58	0xbea9b235	-0.33143774
59	0xbebdb429	-0.37051514
60	0xbe24cbec	-0.16093415
61	0xbf9c6c55	-1.222056
62	0x3db1d405	0.08683018
63	0xbd130c09	-0.03590015
64	0xbdfe84a5	-0.12427644
65	0x3cb0cb0a	0.021581192
66	0xbcb7709a	-0.02239256
67	0xbcdf91b9	-0.027291166
68	0xbcbcc227	-0.023041798
69	0xbd61710f	-0.05503946
70	0xbd452f0d	-0.048140574
71	0xbe306184	-0.172247
72	0xbb151fe4	-0.0022754604
73	0xbd7efba6	-0.06225171
74	0xbd0624cf	-0.032749947
75	0x3d709886	0.058739208
76	0xbd28da3f	-0.04122376
77	0xbe0bc6fb	-0.13650124
78	0x3db1f4a0	0.08689237
79	0xbe15cea5	-0.1462961
80	0xbe2d0a51	-0.16898467
81	0x3cef1b64	0.029187866
82	0xbd964a42	-0.07338382
83	0x3bf20107	0.0073853764
84	0x3c96fe2d	0.018431747
85	0xbe29eb8d	-0.16593762
86	0x3e08e718	0.13369405
87	0xbda6f7fc	-0.08152768
88	0x3d93c850	0.07215941
89	0xbd1aa128	-0.037751347
90	0xbd985f4f	-0.07440054
91	0x3d5e26bf	0.05423617
92	0x3d8b5198	0.06802672
93	0x3be3e475	0.0069547244
94	0x3e369f78	0.1783427
95	0x3c50c8f6	0.012743225

Network_stack.0.0.gru.bias_hh_l1 f4 [96]
0	0xbc1676c3	-0.009183588
1	0xbdc01685	-0.09379295
2	0xbad8737f	-0.0016513913
3	0x3e037165	0.12836225
4	0x3e8c7e58	0.27440143
5	0xbd76fd55	-0.06030019
6	0x3c5df366	0.0135468
7	0xbdd3ab9d	-0.10335467
8	0x3dc819c4	0.097705394
9	0x3e1751a8	0.14777243
10	0x3df3abb4	0.11897984
11	0xbe00285b	-0.12515394
12	0x3e337760	0.17526007
13	0x3d9a8f35	0.07546846
14	0xbc4c476b	-0.012468199
15	0x3dc69793	0.09696879
16	0x3de82319	0.11334819
17	0xbe0cf8fc	-0.13766855
18	0x3dc2e3ec	0.09516129
19	0x3e2045a9	0.15651573
20	0x3ea4d72b	0.3219541
21	0xbe1feb85	-0.15617187
22	0xbe1ffb18	-0.15623128
23	0x3e41b463	0.18916468
24	0x3e2cca36	0.16874012
25	0x3d9816d6	0.074262306
26	0x3d567b04	0.05236341
27	0xbe152bc5	-0.14567478
28	0xbdd734ec	-0.10508141
29	0xbe2430f3	-0.16034298
30	0xbcede4ac	-0.029039703
31	0xbd11d61c	-0.03560458
32	0xbe5a44ec	-0.21315354
33	0xbe39d93b	-0.18149273
34	0xbe96bb66	-0.2943985
35	0xbd250b94	-0.040294245
36	0xbfa39844	-1.2780843
37	0xbdb2860f	-0.08716976
38	0x3e265d17	0.16246448
39	0xbebf1f5d	-0.37328616
40	0xbdeff766	-0.117171094
41	0x3dc98c86	0.09841256
42	0x3e151e06	0.14562234
43	0xbd6d0d3d	-0.057873953
44	0xbeca12d6	-0.39467496
45	0xbd3819e4	-0.044946566
46	0xbf67c29d	-0.9053133
47	0xbcaaa45d	-0.020830328
48	0xbe1c797d	-0.15280719
49	0xbd1e40da	-0.038636066
50	0xbe5cc5ef	-0.2155988
51	0x3d4d9e7f	0.05019998
52	0xbe4e28d6	-0.20132765
53	0xbe7ab00d	-0.2448122
54	0xbd0af04a	-0.033920564
55	0x3dcf0cbd	0.101098515
56	0xbc9a40b0	-0.018829674
57	0x3e0d9c1c	0.13829082
58	0xbe588bed	-0.21147127
59	0xbee8424f	-0.4536309
60	0xbeb6a27a	-0.35670835
61	0xbf964625	-1.1740156
62	0x3d8ae10a	0.06781204
63	0xbe3571a4	-0.17719132
64	0xbd555ebf	-0.05209231
65	0xbdfd9aed	-0.123830654
66	0xbd33cb42	-0.043895014
67	0xbd9af62a	-0.07566483
68	0x3e113a89	0.14182486
69	0x3d1d377e	0.038383
70	0xbe0d52ce	-0.13801119
71	0x3d7234f3	0.059132528
72	0xbdb824bd	-0.08991382
73	0xbe2a25dc	-0.16616005
74	0xbe34d2ca	-0.17658535
75	0x3e186d1e	0.14885375
76	0xbd935efe	-0.07195853
77	0xbd8715c6	-0.0659595
78	0x3c04e6aa	0.008111635
79	0x3b421782	0.0029616063
80	0x3bed3d97	0.007240008
81	0xbd85d97e	-0.06535624
82	0x3d616109	0.05502418
83	0xbc214c0b	-0.00984479
84	0x3dbfaaf0	0.093587756
85	0xbde623e2	-0.11237313
86	0x3d2ef509	0.042714152
87	0xbe3ec00a	-0.18627945
88	0xbd734bd0	-0.059398472
89	0x3af7ad83	0.0018896315
90	0x3d82d800	0.06388855
91	0xbd920a43	-0.071308635
92	0x3da89a04	0.08232501
93	0xbc7dbf03	-0.015487435
94	0xbe154398	-0.14576566
95	0x3ddd5d7c	0.10808846

Network_stack.0.1.gru.weight_ih_l0 f4 [96, 1]
0	0x3daac366	0.083380505
1	0x3dcd3d8a	0.10021503
2	0xbe6848dd	-0.22684045
3	0xbdc2db86	-0.09514527
4	0x3d5bf97d	0.053704727
5	0xbd733351	-0.05937511
6	0x3e16d17f	0.14728354
7	0xbe2d14bd	-0.16902442
8	0x3ddbbaa6	0.1072896
9	0x3e13d77b	0.14437668
10	0x3d6bfc06	0.057613395
11	0x3e100b7b	0.1406688
12	0x3d096adf	0.033549186
13	0x3daeee63	0.085415624
14	0xbd3d2f7e	-0.04618787
15	0x3e0f97a0	0.14022684
16	0xbd96745d	-0.07346413
17	0x3deccf2d	0.11562953
18	0x3d8911c7	0.06692844
19	0x3d75fee9	0.060057554
20	0x3cb59d59	0.022169756
21	0x3e20b123	0.15692572
22	0xbda6181e	-0.08110069
23	0x3c10c0db	0.008835043
24	0xbe0ca9be	-0.13736627
25	0x3db16ca6	0.08663301
26	0x3e1a90cb	0.15094297
27	0xbc18e271	-0.009331332
28	0xbceefc2a	-0.029172976
29	0x3b71d765	0.0036902067
30	0xbe354fed	-0.1770627
31	0x3d8dc5a0	0.069224596
32	0xbec36941	-0.3816624
33	0xbd22e7a2	-0.039771684
34	0xbe44778e	-0.19186231
35	0x3deddd17	0.11614435
36	0xbce68d6f	-0.028143613
37	0xbe1b6cc7	-0.15178214
38	0x3e52b4a8	0.20576727
39	0xbd8045f6	-0.06263344
40	0x3d761886	0.06008198
41	0xbe48f342	-0.19624045
42	0xbd22abe3	-0.039714705
43	0xbe00632d	-0.12537833
44	0x3d2a55c7	0.04158571
45	0xbba74fb6	-0.005105938
46	0x3dd3865c	0.103283614
47	0x3e4144fc	0.18873972
48	0x3c51f8d8	0.012815677
49	0xbf20680b	-0.62658757
50	0xbc4a416a	-0.0123446975
51	0xbceb3b10	-0.028714687
52	0x3d7282fd	0.05920695
53	0xbe1d0e25	-0.15337427
54	0xbe251fc2	-0.16125396
55	0xbcf49f21	-0.029861035
56	0xbde55d99	-0.11199493
57	0x3d178277	0.036989655
58	0xbcb047e5	-0.021518657
59	0x3da119fa	0.07866283
60	0x3d284fbb	0.041091662
61	0x3d91b52d	0.07114635
62	0xbd6a5fe6	-0.057220362
63	0x3d9ad12c	0.075594276
64	0xbe478e3b	-0.1948785
65	0x3d2d2365	0.042270083
66	0x3e7df69b	0.24801104
67	0xbe0835a3	-0.13301711
68	0x3e38097e	0.17972371
69	0xbd4ecff8	-0.050491303
70	0x3e0bfb39	0.13670053
71	0x3d88969b	0.06669351
72	0x3d4019b0	0.046899498
73	0x3d6ace64	0.057325736
74	0xbd65ff5e	-0.05615174
75	0xbe05c1df	-0.13062237
76	0xbd42ad20	-0.047528386
77	0xbcc7b4eb	-0.02437826
78	0x3c92df8f	0.017928867
79	0xbd3e85fc	-0.046514496
80	0xbe1d45ce	-0.1535866
81	0xbe63db5d	-0.22251649
82	0x3e00f231	0.12592389
83	0x3d1cc57f	0.038274284
84	0xbdac10b3	-0.084016226
85	0xbe2d8da3	-0.16948561
86	0x3dd7dac9	0.10539777
87	0x3da2d50e	0.07950793
88	0x3c16ef21	0.009212286
89	0x3d642937	0.055703368
90	0xbd5017d3	-0.05080397
91	0x3e12fa65	0.1435333
92	0x3d1fe449	0.03903607
93	0x3dd204b5	0.10254804
94	0x3e1ee345	0.15516384
95	0x3b7121c0	0.0036793798

Network_stack.0.1.gru.weight_hh_l0 f4 [96, 32]
0	0xbda0b267	-0.078465275
1	0x3dc87b81	0.097891815
2	0x3e643fe1	0.22289993
3	0x3ce51ea6	0.027968716
4	0x3ce51881	0.027965786
5	0xbe10780d	-0.14108296
6	0x3e728931	0.23685147
7	0x3dac2540	0.084055424
8	0xbde15d9b	-0.11004182
9	0xbdd1ada4	-0.102381974
10	0x3c051582	0.008122804
11	0xbdf3dbcc	-0.11907157
12	0xbcd8b4a4	-0.026453324
13	0x3e0d6bdd	0.13810678
14	0xbdd6eeaf	-0.10494744
15	0x3abd68aa	0.0014450748
16	0xbe1f1a72	-0.15537432
17	0x3da8d6c3	0.082440875
18	0xbd40a950	-0.04703647
19	0x3d8bd266	0.0682724
20	0xbd9ce26f	-0.07660376
21	0xbe48429e	-0.19556662
22	0xbc1aac2c	-0.009440463
23	0xbdd734a9	-0.10508091
24	0xbdfeadc5	-0.12435488
25	0x3e68bee2	0.22729066
26	0xbcfbc3d4	-0.030733027
27	0xbcf4ddfd	-0.029891009
28	0xbe28fb2c	-0.16502064
29	0x3e2ae939	0.1669053
30	0x3e207c0e	0.15672323
31	0xbd62ad89	-0.055341277
32	0xbdbd52c4	-0.09244302
33	0x3d830b57	0.06398647
34	0x3e3d2ed6	0.18474898
35	0x3d8246a7	0.06361132
36	0xbdca6a3f	-0.09883546
37	0xbdb816d8	-0.08988732
38	0x3e21449a	0.15748826
39	0xbdc25c43	-0.09490254
40	0xbdb44235	-0.088016905
41	0xbd44da7c	-0.048059925
42	0xbe1e4876	-0.15457329
43	0x3db0d59d	0.086344935
44	0xbd8fd9a5	-0.07023934
45	0xbe29d524	-0.16585213
46	0x3dd98ec6	0.10622935
47	0x3e307f94	0.17236167
48	0x3dce1e58	0.10064381
49	0xbdbf6455	-0.09345309
50	0x3de911d3	0.11380353
51	0x3cc6009c	0.024170212
52	0xbd3d73f8	-0.046253175
53	0xbdf27a8c	-0.1183978
54	0xbdee4b8d	-0.11635504
55	0x3e09e61e	0.13466689
56	0xbda5cfbc	-0.08096263
57	0x3d90f434	0.07077828
58	0xbe15b5d4	-0.14620143
59	0x3d35b107	0.04435828
60	0xbdd9c9c6	-0.10634188
61	0x3dff353a	0.12461324
62	0xbe0de327	-0.13856183
63	0xbe2e4eb0	-0.17022204
64	0x3e016c7f	0.12639044
65	0x3dc0dca8	0.09417087
66	0xbc11bad7	-0.008894644
67	0x3dad4770	0.08460891
68	0xbe510ae9	-0.20414318
69	0x3dd4b50e	0.10386096
70	0xbe3a4644	-0.18190867
71	0x3da65a6f	0.081227176
72	0xbdd9433e	-0.106085286
73	0xbcf50b45	-0.0299126
74	0x3dadaf1a	0.084806636
75	0x3e3bb639	0.18331231
76	0x3dab9607	0.08378225
77	0x3de65348	0.112463534
78	0x3d970037	0.07373088
79	0xbd3bb353	-0.045825314
80	0xbe0ebe89	-0.13939871
81	0x3db6c2f6	0.089239046
82	0x3c340c5a	0.010989273
83	0xbd25306d	-0.040329386
84	0xbddf738e	-0.10910712
85	0xbe254b62	-0.16142038
86	0xbd9c133f	-0.076208584
87	0xbda40765	-0.08009223
88	0xbdacbfd1	-0.084350236
89	0xbdfa2cbb	-0.12215563
90	0xbd125f79	-0.03573558
91	0xbd45a221	-0.04825032
92	0x3de4ac8d	0.11165724
93	0xbc966ef5	-0.018363455
94	0xbe0e10fb	-0.13873665
95	0x3dbc5ad1	0.09197009
96	0x3e0bbe26	0.13646755
97	0x3d8ffa79	0.07030196
98	0xbe0ddf0e	-0.1385462
99	0x3cb38c4d	0.021917487
100	0x3d48a231	0.048982803
101	0x3e2190ce	0.15777895
102	0x3e238585	0.15968902
103	0xbe118132	-0.1420944
104	0x3dbd320f	0.092380635
105	0xbb894204	-0.004188778
106	0x3dced18b	0.10098561
107	0xbe01d7b6	-0.12679943
108	0xbce70cd3	-0.028204357
109	0x3e1fe31d	0.1561398
110	0xbe2b51fa	-0.1673049
111	0xbd9f19e6	-0.077686116
112	0xbcefa1d8	-0.029251978
113	0x3e230345	0.15919216
114	0x3d0ebb9b	0.034846883
115	0x3e1b16d0	0.15145421
116	0xbe1724b1	-0.1476009
117	0xbe2a5ff9	-0.16638173
118	0xbe2ad39c	-0.16682285
119	0x3d159e90	0.03652817
120	0x3e0492ad	0.12946577
121	0xbdc1b407	-0.094581656
122	0x3ddb2df2	0.10702123
123	0xbe114344	-0.14185816
124	0x3e129dd0	0.14318013
125	0x3d85ee62	0.065396085
126	0xbe0f6210	-0.14002252
127	0xbdd7b93c	-0.105333775
128	0xbe487a72	-0.19577959
129	0x3e305d96	0.172232
130	0xbd89326f	-0.066990726
131	0x3e032e66	0.12810668
132	0x3d55fa9f	0.052240964
133	0xbdbcd501	-0.09220315
134	0xbd3a8e8c	-0.0455461
135	0x3e2d7f0d	0.16942997
136	0x3e3eec14	0.18644744
137	0xbd844b61	-0.0645969
138	0x3e1a440f	0.15065025
139	0x3da9cccb	0.08291014
140	0x3e2c5b41	0.16831686
141	0x3d462d0b	0.0483828
142	0xbbd47c05	-0.006484511
143	0xbde452a2	-0.111485735
144	0x3df9bdbd	0.12194393
145	0x3d8372ea	0.064184025
146	0x3d3fb70e	0.046805434
147	0xbdbdcd55	-0.092676796
148	0xbe375114	-0.17902023
149	0xbe08a4a6	-0.13344058
150	0xbe0e2f0d	-0.13885136
151	0xbd701485	-0.05861332
152	0x3d64fdb6	0.05590602
153	0xbb9533a7	-0.0045532766
154	0xbdb73a52	-0.089466706
155	0xbdc9df71	-0.09857071
156	0xbd9d330f	-0.07675754
157	0x3e0f24c4	0.13978869
158	0xbcabae96	-0.020957272
159	0xbdabb171	-0.08383454
160	0xbe2b0eda	-0.16704884
161	0x3d63ed7a	0.055646397
162	0x3cf47c65	0.029844472
163	0xbda61780	-0.08109951
164	0xbd196940	-0.03745389
165	0xbe274e41	-0.16338445
166	0xbd93f9ef	-0.072254054
167	0xbe20077a	-0.15627852
168	0x3d30884f	0.043098744
169	0xbdefa7d8	-0.117019355
170	0xbe37143a	-0.1787881
171	0x3db26d46	0.087122485
172	0xbd58c218	-0.052919477
173	0xbcb5c57c	-0.022188894
174	0x3d01a4dc	0.031651363
175	0xbd26f864	-0.040764228
176	0xbe352c61	-0.1769271
177	0x3da1a3a1	0.07892538
178	0x3d5fac83	0.05460788
179	0xbe33846c	-0.17530984
180	0xbe16850d	-0.14699192
181	0xbd45a790	-0.048255503
182	0xbdd4e84b	-0.10395869
183	0xbd8e4e71	-0.06948555
184	0xbd26f6dc	-0.040762767
185	0x3dc64f19	0.096830554
186	0xbdda6cc4	-0.10665277
187	0xbda7008e	-0.08154403
188	0xbe010fd2	-0.12603691
189	0x3d78c4c8	0.06073454
190	0x3cdd8e71	0.02704546
191	0x3d58112f	0.052750763
192	0x3d521c0b	0.051296275
193	0xbdac98e1	-0.08427597
194	0xbe4995ef	-0.19686101
195	0xbe26a018	-0.16272008
196	0xbe4431e2	-0.19159654
197	0x3dff7eca	0.12475355
198	0x3de8bfd3	0.113647126
199	0x3e2eafaf	0.17059205
200	0x3ba914db	0.005159957
201	0xbbec0a16	-0.007203351
202	0x3e34a3d9	0.17640628
203	0xbdc1b306	-0.09457974
204	0x3d05090a	0.032479323
205	0xbccc16fb	-0.024913302
206	0xbdc1eb7d	-0.09468744
207	0xbdabb4da	-0.08384104
208	0x3e6219ba	0.22080126
209	0x3e804016	0.25048894
210	0xbcbdf19d	-0.0231865
211	0xbe256466	-0.1615158
212	0x3ae817a7	0.0017707244
213	0x3dc9fc23	0.098625444
214	0x3e367296	0.17817149
215	0x3d81c4d8	0.06336373
216	0x3d20a79e	0.039222352
217	0xbe1b34c5	-0.15156849
218	0xbc3ff8af	-0.011717006
219	0xbd07ba26	-0.03313651
220	0xbd1e0c0a	-0.0385857
221	0xbe439120	-0.1909833
222	0x3d8f3a51	0.06993545
223	0xbd66a6a1	-0.056311253
224	0x3d791001	0.06080628
225	0xbdefbefe	-0.11706351
226	0x3e21c0da	0.15796223
227	0x3dd7c9ec	0.105365604
228	0xbda78f15	-0.081815876
229	0x3d8835d9	0.066508956
230	0x3e2c8425	0.16847284
231	0xbdb26fdd	-0.087127425
232	0x3d08a656	0.033361755
233	0x3d8d99e0	0.06914115
234	0x3db57a21	0.08861185
235	0x3db05880	0.0861063
236	0x3d2972bf	0.041369196
237	0x3a2ca768	0.0006586225
238	0x3e119ca0	0.14219904
239	0xbd11769f	-0.035513517
240	0xbdf1dda0	-0.1180985
241	0x3de18e11	0.11013425
242	0x3b335537	0.0027364024
243	0x3c3bae3f	0.011455118
244	0x3d7b61ed	0.061372686
245	0xbe20bcdd	-0.15697046
246	0x3ccfc701	0.025363447
247	0xbd5b3b9a	-0.053523637
248	0xbd921648	-0.07133156
249	0x3c714565	0.014726018
250	0x3dbcff80	0.0922842
251	0x3e23e787	0.1600629
252	0xbd95b290	-0.07309449
253	0x3bb2d10b	0.005457049
254	0x3d2e7c8c	0.042599246
255	0xbe15283a	-0.14566126

Network_stack.0.1.gru.bias_ih_l0 f4 [96]
0	0xbde59238	-0.1120953
1	0xbcdc9315	-0.026925603
2	0xbbe5d16d	-0.007013491
3	0xbd9301ad	-0.07178054
4	0xbdc80bbc	-0.09767863
5	0xbd88311a	-0.066499904
6	0xbd64696d	-0.055764604
7	0x3cbb815a	0.022888828
8	0xbd9979e3	-0.07493951
9	0xbe04d572	-0.12972048
10	0x3e2ba807	0.16763316
11	0x3c6b869e	0.014375357
12	0x3d0b4709	0.03400329
13	0xbd9e098f	-0.07716667
14	0xbd8c1823	-0.06840541
15	0xbe14ed04	-0.1454354
16	0xbdba954a	-0.09110506
17	0xbd1acc56	-0.037792526
18	0xbca41aa3	-0.020032233
19	0x3d4880b7	0.048950877
20	0xbcd3e02e	-0.025863733
21	0xbe0af321	-0.13569309
22	0x3c7b89c9	0.015352675
23	0x3d7a50f7	0.06111237
24	0xbd999079	-0.07498259
25	0x3e237263	0.15961604
26	0x3dc9d54a	0.09855135
27	0x3e35349b	0.17695849
28	0xbb138150	-0.0022507496
29	0xbd230ae6	-0.039805315
30	0xbe264189	-0.16235937
31	0xbe070d2b	-0.13188617
32	0xbe4591e9	-0.19293942
33	0x3ce586a7	0.028018309
34	0x3c84f89d	0.01623183
35	0xbceeb4e8	-0.029138997
36	0xbdc938de	-0.098253
37	0xbdc115a0	-0.09427953
38	0xbd6dd83a	-0.058067538
39	0xbd8cc9f4	-0.06874457
40	0x3d61cd1e	0.055127256
41	0xbd5f2c9d	-0.054485906
42	0xbdc95820	-0.09831262
43	0xbe11af1c	-0.14226955
44	0xbe0d0543	-0.13771538
45	0xbe05381f	-0.1300969
46	0xbddff54d	-0.10935459
47	0x3e2147b5	0.1575001
48	0xbdc6acf1	-0.09700955
49	0xbe2ebaf5	-0.17063506
50	0x3c7ae934	0.015314389
51	0x3c13419a	0.008987809
52	0xbdd057b5	-0.10172979
53	0x3d8bb6f7	0.06822007
54	0xbdf63213	-0.1202127
55	0x3de72a31	0.11287344
56	0x3dd6f97a	0.10496803
57	0xbd869a8b	-0.065724455
58	0xbe051ae6	-0.12998542
59	0xbc717636	-0.014737656
60	0xbcdc3ac4	-0.02688349
61	0xbe39d231	-0.18146588
62	0xbd8ecabd	-0.06972263
63	0x3db93fed	0.09045396
64	0x3e1c6892	0.15274265
65	0x3e1ebdd7	0.15502106
66	0xbc78eb4b	-0.015192817
67	0xbd759ada	-0.05996213
68	0xbd5120b4	-0.05105658
69	0x3da88d16	0.08230035
70	0xbd34fe85	-0.04418804
71	0x3df8d865	0.12150649
72	0x3d88458d	0.06653891
73	0x3d89c1d3	0.06726422
74	0xbda126a6	-0.078687
75	0x3c39645c	0.011315431
76	0x3e21bba0	0.1579423
77	0x3e298467	0.16554414
78	0x3d23693a	0.039895274
79	0x3e0cd3ef	0.13752721
80	0x3e32f300	0.1747551
81	0x3dce30a2	0.1006787
82	0x3e1e979e	0.15487525
83	0x3cb4fb81	0.022092583
84	0xbdc583b8	-0.09644264
85	0x3e057545	0.13033016
86	0x3df54775	0.1197652
87	0xbc66027d	-0.014038679
88	0xbdf3df88	-0.119078696
89	0x3d873ac2	0.06603004
90	0xbd0acf13	-0.033888888
91	0xbe265804	-0.16244513
92	0xbe183238	-0.14862907
93	0xbddb8223	-0.10718181
94	0x3debd86e	0.1151589
95	0x3dcd28de	0.100175604

Network_stack.0.1.gru.bias_hh_l0 f4 [96]
0	0xbdfdddbc	-0.12395808
1	0xbdd7ff25	-0.10546712
2	0xbd0a4fce	-0.033767514
3	0x3e33fc66	0.17576751
4	0xbe235869	-0.15951695
5	0x3c5e8be1	0.013583154
6	0x3d812f03	0.06307795
7	0xbd4ef410	-0.050525725
8	0x3e0502fb	0.12989418
9	0x3de801b9	0.113284536
10	0xbe051584	-0.12996489
11	0x3dc3eb6c	0.095663875
12	0xbdc33b81	-0.09532834
13	0xbdb0202b	-0.085998856
14	0xbde774e7	-0.11301594
15	0xbdb2b0ab	-0.08725103
16	0x3cb45229	0.022011833
17	0x3e053252	0.13007477
18	0x3dd75abc	0.10515353
19	0x3d953a17	0.072864704
20	0x3df19a57	0.11797016
21	0x39ae8050	0.00033283466
22	0xbdd674d5	-0.10471503
23	0xbe0a50e0	-0.13507414
24	0x3d698032	0.057007022
25	0x3dac724e	0.084202394
26	0x3d256755	0.04038175
27	0xbd518e26	-0.051160954
28	0xbe072a0b	-0.13199632
29	0xbd69ab3e	-0.057048075
30	0xbcdb51d4	-0.026772417
31	0x3d3bc387	0.045840766
32	0xbe881a56	-0.26582593
33	0x3cb9b761	0.02267045
34	0xbdab8b50	-0.08376181
35	0x3e0d27c5	0.13784702
36	0x3e25e769	0.16201557
37	0xbe0950ba	-0.13409701
38	0x3df2ca32	0.11854972
39	0x3decd978	0.11564916
40	0xbe209b18	-0.15684164
41	0xbbc3a596	-0.005970667
42	0xbdf4a1fb	-0.11944958
43	0xbb2d0f88	-0.0026406962
44	0x3db37f5a	0.08764525
45	0x3e39b6c2	0.18136123
46	0xbc318c6a	-0.0108367
47	0x3df1fae6	0.11815433
48	0xbde969b9	-0.11397118
49	0x3c01e4eb	0.007928113
50	0x3d5c6db1	0.053815547
51	0x3d2d9791	0.042380873
52	0xbcd73231	-0.02626905
53	0xbaf8ffc0	-0.0018997118
54	0xbe030918	-0.12796438
55	0x3d5267ba	0.051368453
56	0x3dff7482	0.12473394
57	0xbe1c8fe9	-0.15289272
58	0x3da641ec	0.08118042
59	0xbdd98b18	-0.10622233
60	0x3d8c42a9	0.06848652
61	0xbdb1e38e	-0.08685981
62	0x3bb4c9f8	0.0055172406
63	0xbe51eb2b	-0.20499866
64	0xbe28cb74	-0.16483861
65	0x3d354343	0.0442536
66	0xbda0471f	-0.07826065
67	0xbb986905	-0.004651191
68	0x3e3256d8	0.17415941
69	0x3dcb51a4	0.09927681
70	0xbbcec74f	-0.0063103805
71	0x3db5f23d	0.08884094
72	0xbdadc4fb	-0.08484837
73	0xbd7032c0	-0.05864215
74	0x3e1b2c39	0.15153588
75	0x3cfa44c5	0.03055037
76	0xbd982921	-0.0742972
77	0xbdb3bd2d	-0.08776317
78	0x3e09470f	0.13406013
79	0xbdac6da1	-0.084193476
80	0xba806f79	-0.0009798846
81	0x3d14ee00	0.036359787
82	0xbd8ddc6e	-0.06926809
83	0x3d0f914e	0.035050683
84	0xbd024243	-0.031801473
85	0xbdfe3fbf	-0.12414502
86	0x3d8032ba	0.06259675
87	0xbdf5ca3a	-0.12001462
88	0x3de741e9	0.11291868
89	0xbda09481	-0.07840825
90	0x3e203607	0.1564561
91	0xbda73d94	-0.08166042
92	0x3d131b70	0.03591484
93	0x3e02a63f	0.1275873
94	0x3d94756f	0.07248961
95	0x3e1f962d	0.15584631
