models/model_uniform_regions_2dim_0_0.3_x2_0.6_0.9x0.7x0.9d385777d.pth (torch, 313402 bytes, 18 tensors)

Network_stack.0.0.gru.weight_ih_l0 f4 [192, 2]
00000000: d110 83bd 1b9a a63b fbc6 7e3d ca58 ca3c
00000010: 6b61 93ba c433 a4bd 399e 2fbe 032b 223d
00000020: 6409 a23d f833 973d 2e49 07bd a28c 35be
00000030: eb79 fabd c73e ac3d 6e79 0c3e 7c3c 86bd
00000040: 8dd3 7a3d e939 58be e293 33be fcfc 91bc
00000050: 194b 81bd 5280 97bc 4355 a23b a902 033b
00000060: 42ee fb3d 0f37 883d 945f f83c b5f3 713d
00000070: 1a79 cebd 01cf bd3d 6935 20bd 29be 153b
00000080: 9163 be3c 5eb9 ca3c 3007 b9bd 1f2d 02be
00000090: a5d9 e63d eee7 bdbd a5d3 643d 5594 51bb
000000a0: 852e 5cbc bcc9 9dbd b6ae 033e 5465 79bd
000000b0: 17de aebd 7e0a cfbd c5f1 6e3d 76b0 79bc
000000c0: bd2d 2f3d 8c4a e5bd 99bb a93d 545d f23d
000000d0: 5dba 68bd 1455 acbd d314 43be 43b1 993d
000000e0: 179c b63d 9e4d bd39 1bd1 9e3c 5f8f 36bd
000000f0: 47a2 7ebd 1053 fa3d e3e2 9c3c 6ec5 a1bd
00000100: b2f7 85bd 003a 963d 4acf 453e 63d8 da3d
00000110: 350f 793d 01c0 a3bd 940d 0cbe 20a5 d3bd
00000120: cabb 3c3e a6e9 843d a375 7c3d b020 9cbd
00000130: abac 14bd 6a8b b93c 28d1 8abc 3f98 323d
00000140: 0f6a f1bd 2bee 9bbd b79f 20be b1ca 05be
00000150: a119 bfbe 7a58 b43c 9a2d 953d 5e53 87bc
00000160: 5345 a8bd 1405 cebd bb03 db3d 3f8e b6bc
00000170: fcf9 043d e988 9c3d e0b4 0abc 91ce 00be
00000180: 7734 0d3c a967 acbc 9b50 0fbe 300e f13c
00000190: 353a 003e 37d3 b53c 4ec8 333e 74f5 193e
000001a0: 4306 dbbd b3e9 1a3e bdd6 00bd 8b07 cfbd
000001b0: 8783 6ebd 598f bb3c 8186 2fbc 6246 9e3b
000001c0: db9d 6b3d 5544 22bc 4350 f8bd 66f7 9b3d
000001d0: fcdf eabd 17d1 c63d 5b3d 2cbc 2c8b cf3d
000001e0: 7cd8 803d fc44 d2bb d2f4 273d 931b a0bd
000001f0: 499e 9ebd 7171 21bd 50c7 00be 01e4 a2bd
00000200: ea1c f1bd 313a c7be dfb2 9c3b c625 c6b9
00000210: 681a 05bd 4b1f 753b aee7 c2bd 7be4 febe
00000220: 3d6c 9dbd a496 72bd c4e5 81be 643f 2ebe
00000230: 8b10 02be 7ebe b6be ee21 2cbe 57a6 03be
00000240: 19c1 cfbd d4b9 0b3d a81d 993e 9efb f03c
00000250: 45b0 3b3d b3ed ed3d afce 343c 85f5 89bc
00000260: 8b67 303d 0d64 883d b352 9c3e 66d2 f73d
00000270: c693 c8bd 8bce 90be b28e 61be d8cd a6be
00000280: cbb7 30bd cc06 29bf 0a80 a33c a4d9 ce3d
00000290: d90e 833e 1b99 433e 7cd8 a63e ab42 553e
000002a0: b8c7 2cbe f720 7ebd 54cd 983d 96ea 213c
000002b0: dba3 dcbc 2364 80be 4a5e 2f3e 7c99 1a3e
000002c0: 32f4 88bc dcf9 1fbe 168a 863d 556d 8d3d
000002d0: 3b6e 223e 1892 afb8 58fb 1d3e 873c c53d
000002e0: 3da2 95bd 1961 3e3e e538 0c3e a544 d5be
000002f0: a187 803e eafc 803e 5727 37be 9af7 7cbc
00000300: c678 f8bd 9e72 26be 6822 d0be a700 8abe
00000310: 1c9d 8bbe 55c9 bcbd 54e9 2ebd c13c 023e
00000320: c7c7 f63d 02d8 dbbc db30 bebe 02c6 50be
00000330: 0afe 3f3c 36f8 5abc 6639 dabd a7de 5ebe
00000340: 3f58 4bbe 4f3e 57be 6aef c73d 49b2 263e
00000350: 91b1 2bbf 7ec0 70bf cbd8 173e d7a3 393e
00000360: 5492 113e 26cc 1c3d 2e4e 8bbe ebbe b5bf
00000370: b933 25be f924 13bc a342 e83b a69b 5bbe
00000380: 7649 5e3e 7171 0fbe ab58 98be 9c35 dcbd
00000390: 5395 1fbe b1ed 4b3d b246 073d 3383 00bf
000003a0: a817 81bd 32db f83d eba1 243d 6f86 71be
000003b0: ea0e 2f3d 0c16 923c e78d 29bd b9a4 55bd
000003c0: 24fd 91bd 32ec 3fbf f09d e1bd e839 f2bd
000003d0: b39c 08be fb54 bdbc 2387 f03d 8047 353d
000003e0: 8335 30be e9fc 2ebe f905 a3bd d58b d4bd
000003f0: bb50 853c 9d63 53be e856 f2be ec76 d7be
-0.06399692 0.005084289 0.06220148 0.024700541 -0.0011244243 -0.08017686 -0.17150201 0.0395918
0.07911947 0.07382959 -0.033028774 -0.17729428 -0.12230285 0.08410411 0.13718197 -0.06554505
0.061236907 -0.21115841 -0.17536882 -0.017820828 -0.06313152 -0.018493805 0.0049540116 0.00199906
0.123013034 0.066511266 0.030319013 0.059070308 -0.10081692 0.092679985 -0.039113436 0.002284894
0.023240836 0.024746593 -0.09034574 -0.12712525 0.11271981 -0.09272753 0.055865902 -0.0031979282
-0.0134388255 -0.077044934 0.12859616 -0.06088765 -0.08538454 -0.10109423 0.05833604 -0.0152398255
0.04276823 -0.11195859 0.082877345 0.11834207 -0.056818355 -0.08414665 -0.19050913 0.07504513
0.089164905 0.00036106718 0.019386819 -0.044570323 -0.06216648 0.12222874 0.019151157 -0.07898985
-0.06541385 0.07335281 0.19317356 0.10685804 0.06080552 -0.07995606 -0.13677055 -0.103342295
0.18431011 0.064898774 0.061635625 -0.07623422 -0.03629748 0.022649486 -0.016945437 0.043602224
-0.11787807 -0.07613786 -0.15685926 -0.13065602 -0.3732424 0.022014845 0.072840884 -0.016519245
-0.082163475 -0.10059562 0.10694071 -0.022284625 0.032464966 0.07643301 -0.0084659755 -0.12578799
0.008618466 -0.021045523 -0.13995592 0.02942571 0.12522204 0.022195442 0.17556879 0.15035039
-0.10694554 0.15128212 -0.03145479 -0.101088606 -0.058230903 0.022895502 -0.010713221 0.0048301676
0.05752359 -0.009903987 -0.12124684 0.07615547 -0.11468503 0.097078495 -0.010512675 0.10133967
0.06291291 -0.006416915 0.041004963 -0.07817759 -0.07745034 -0.039414827 -0.12576032 -0.079536445
-0.11773093 -0.38911584 0.0047820653 -0.00037793646 -0.032495886 0.0037402685 -0.09516846 -0.49783692
-0.076866604 -0.059225693 -0.2537061 -0.17016369 -0.12701623 -0.3569221 -0.16809818 -0.12856422
-0.10144252 0.034112766 0.29905438 0.029416855 0.0458224 0.11617603 0.011035605 -0.016840706
0.043067496 0.06659708 0.30531844 0.12100677 -0.097938105 -0.2828258 -0.2202709 -0.3257892
-0.04314403 -0.66025996 0.019958515 0.101001054 0.25597265 0.19101374 0.3258704 0.20826213
-0.16873062 -0.062043156 0.07461038 0.00988259 -0.026933601 -0.25076398 0.17125812 0.15097612
-0.016718004 -0.15622658 0.065693066 0.06905619 0.15862362 -8.371862e-05 0.15427911 0.09630685
-0.07306335 0.18591727 0.13693579 -0.41653934 0.25103477 0.25192958 -0.178861 -0.015439892
-0.12132411 -0.1625466 -0.4065125 -0.26953623 -0.27268302 -0.092180885 -0.042702988 0.12718488
0.12049823 -0.026836399 -0.3714665 -0.20388034 0.0117182825 -0.013364842 -0.10655479 -0.21764623
-0.19857882 -0.21019863 0.097624615 0.16278948 -0.6706782 -0.9404372 0.14828794 0.18128906
0.14215976 0.03828063 -0.27208084 -1.4198889 -0.16133012 -0.008980983 0.007088022 -0.21446094
0.2170771 -0.14008118 -0.29755148 -0.10752413 -0.15584306 0.049787227 0.033026405 -0.50200194
-0.0630334 0.12151183 0.04019348 -0.23586439 0.042738833 0.017832778 -0.041395094 -0.052159045
-0.07128361 -0.7496978 -0.11016452 -0.11827451 -0.13341026 -0.02311181 0.11744525 0.04425764
-0.17207913 -0.17088665 -0.079601236 -0.10378233 0.016273847 -0.20643468 -0.4733193 -0.42082918

Network_stack.0.0.gru.weight_hh_l0 f4 [192, 64]
00000000: 51ce adbd bad2 dbbd 5a1e a93d f173 6d3d
00000010: 2757 ba3d 6af3 bebd bd6b 4c3d 6a64 903c
00000020: 6825 f1bd fd15 76bd 9044 903d 532e 51bd
00000030: a70f 49bd 4828 c5bd e9ea b53d cb9b 953a
00000040: 1448 64bd 88dc a0bc cd2c 4ebd a758 fb3d
00000050: 67f0 433d b469 e3bd 3c10 0bbd 6e8e ddbd
00000060: 7be1 b2bd cbfe af3c 609a 6a3d 0759 b33c
00000070: 77df f63c 354e 763d 4310 fa3d e5a4 bd3d
00000080: 4e0a 2e3d 5fe3 773d 5d11 233d 2a21 583d
00000090: f6cb eebc d455 f5bc 7638 bb3d af3f cabd
000000a0: 3685 b03d 8306 aabd 16b0 a33d 4088 28be
000000b0: 4543 7dbd a26a c2bd 4521 a03d c874 a73d
000000c0: 18c2 163d 764b 06bd 0f5a 873d 6c23 04bc
000000d0: 6bb3 f9bc b61f d4bd 4260 07be a782 ae3d
000000e0: 1786 d33d 5e89 82bd 248c b73d 7e72 9dbd
000000f0: e685 f03d 65df f43d 6ad4 4e3d 5a03 80bd
00000100: b62f fdbc f017 833d 370d 8ebd f3f6 993d
00000110: 1cd7 05bc be37 0dbd daf8 083e de72 bbbd
00000120: b117 e73d d345 e63c 1892 b53d c0dc d63d
00000130: a097 a4bd bba9 99bd c9bc 183d e437 0c3d
00000140: 0b69 44bc d78a 393d c967 37bd 4d16 133d
00000150: a6e8 d63d bd75 abbc d3f7 f23c 8f6a 34bd
00000160: 085c ecbc 7864 60bd 2e5f e0bc e64d b23d
00000170: c4ec e3bd 81f0 953d 7e69 00bc e511 d03d
00000180: 17a2 04bc 3f7b e7bc e536 abbd f53d 6a3d
00000190: f479 113d 1dc9 22bc 1317 5c3c 467e 763d
000001a0: ca1f 93bd efdd c83d 2f4f f43d 2adf 073d
000001b0: 145a cc3d 0dad 40bd b495 fe3a a838 87bd
000001c0: 88a8 b73c 3e04 263c fbee a63c 3886 cdbd
000001d0: dc54 343c cbae a23d e4d9 713c 4004 d83d
000001e0: c723 8f3d bf3f 6b3d 8cd0 a2bd 11a8 2abd
000001f0: f38a 773d 08bd f33d d91b 81bc 3a37 0bbc
00000200: 0967 0ebd 4347 c93d eac9 4bbd 8bac b9bd
00000210: c1d0 d33b 3a8f dcbd 6f48 a03d 04e2 37bd
00000220: d4e7 e63d e350 1d3e 1a10 cebd 38f7 1fbc
00000230: 2846 f4bc 18ea d7bd 41ff 00be 538d a13d
00000240: 5a00 2b3d 8313 51bc 4068 7b3d c479 523d
00000250: 93d0 95bd 4f99 acbd aaba 47bd 70fa 8ebd
00000260: 3829 1a3c 86fb 9d3d 91ff 9abd b938 303e
00000270: 7f8c 27be 8c83 c43c efc6 233d 1db6 053e
00000280: f13e bd3d 471e ab3c 57ed 36bc 840f 3c3d
00000290: 69c8 ddbd e2b9 413e 7dc6 03bd 8bc5 1c3d
000002a0: 3f84 27bd dbbc adbb b534 4d3c b8fe a2bd
000002b0: 7c70 31bd f504 e0bb c7e9 73bd 2436 8a3d
000002c0: d931 db3d 5192 83ba 20d8 99bd 3327 18bd
000002d0: 010c 06bd 6005 0abe ece3 83ba 7158 37bd
000002e0: 54b8 f93d c170 a63d 4670 19be f2a6 c9bd
000002f0: 41a3 d8bd c269 a0bd 1735 c93d 5f6a 08bc
00000300: b93e 1abd 922e 473d e835 8cbc 645a 133e
00000310: e9c5 8cbd 51c3 82bd 1529 a2bd efd4 b13b
00000320: 5b0d ea3d 6389 f93d 2817 2f3d 6aa5 fbbd
00000330: e673 3dbd f936 29bd caf7 7c3d 3394 153d
00000340: 555e 7cbd 387c 11bc 0d85 b03d aa14 bcbc
00000350: 9f6a ec3d de1f 8cbb 87e0 e3bd c1be 3d3b
00000360: 8e57 4dbc ca24 823d d607 a33d 4113 093e
00000370: e6c1 8f3d 225c 293e 5e0e 773d 87a3 353d
00000380: 169b febc 1ff9 a0bd c5fb bebd 0b90 dbbc
00000390: 6916 ee3d e8bb 313d 3a40 5b3d 7967 21bd
000003a0: 3180 213d b738 fa3d 247d 123e f88e db3d
000003b0: fc87 fdbc dd3a 123d df6b 81bc d1af a23d
000003c0: 0a8f bfbb 0684 7d3d a35e c83d ab1b 89bb
000003d0: f45b 0a3d 76a0 2abc 9c29 d63d 1279 ab3c
000003e0: 989b eb3d 79b7 cb3d 31b3 ebbd 0662 8c3b
000003f0: f22c 38bd 8648 85bd fc63 4b3c 0f6c 05bd
-0.08486617 -0.10733552 0.08257742 0.0579719 0.09098654 -0.09323771 0.049907435 0.017626006
-0.11774713 -0.060079563 0.07044327 -0.05106957 -0.049087193 -0.09626824 0.08882696 0.0011414228
-0.0557328 -0.019636407 -0.050335694 0.122727685 0.047836687 -0.11104146 -0.03395103 -0.10818182
-0.08734413 0.0214838 0.05727613 0.021893037 0.030135853 0.060133178 0.12210133 0.09259967
0.042490296 0.060519572 0.03981148 0.052766003 -0.02914999 -0.029948153 0.091416284 -0.09875428
0.08619158 -0.08302023 0.0799257 -0.16458225 -0.06183173 -0.09492995 0.07818846 0.08176571
0.036806196 -0.03278681 0.06608974 -0.008065086 -0.030481061 -0.10357611 -0.13220313 0.08521014
0.1032831 -0.06373857 0.089622766 -0.07687853 0.11744289 0.119566716 0.050495543 -0.06250639
-0.03090654 0.0640105 -0.06936114 0.07517805 -0.008168962 -0.034476988 0.1337618 -0.091527686
0.11283816 0.028109467 0.08865756 0.104913235 -0.08036733 -0.07503077 0.037289415 0.03423299
-0.011987935 0.045298424 -0.04477671 0.03590994 0.10493593 -0.020930165 0.029659187 -0.044046935
-0.028852478 -0.054783314 -0.027389135 0.08706264 -0.11129144 0.07321263 -0.007837651 0.10159663
-0.008095286 -0.02825701 -0.0836008 0.057187993 0.035516694 -0.009935644 0.013433236 0.060179017
-0.07183798 0.098079555 0.119291656 0.03317181 0.099781185 -0.047040034 0.0019423277 -0.06602603
0.02241923 0.010132847 0.020377627 -0.10035366 0.01100656 0.07943495 0.014761422 0.105476856
0.06989246 0.05743384 -0.079499334 -0.041664187 0.060435247 0.11901289 -0.01576035 -0.008497054
-0.03476623 0.09828045 -0.049753107 -0.09066113 0.0064640944 -0.10769506 0.078263156 -0.04489328
0.112746865 0.15362887 -0.10061665 -0.009763531 -0.02981861 -0.10542697 -0.12597372 0.078882836
0.041748382 -0.012761 0.061378717 0.051385656 -0.07315173 -0.08427679 -0.048762 -0.06981361
0.009409241 0.0771399 -0.07568277 0.17209138 -0.16362189 0.023988508 0.03998464 0.13057752
0.09240521 0.02088846 -0.011164985 0.045913234 -0.10829241 0.18918565 -0.032171715 0.03827433
-0.040897604 -0.0053020543 0.012524773 -0.0795874 -0.043320164 -0.0068365284 -0.05954912 0.06748608
0.10702867 -0.0010038113 -0.07511926 -0.03714676 -0.03272629 -0.13478613 -0.0010062433 -0.04476208
0.12193361 0.08126975 -0.14984235 -0.098462954 -0.10578013 -0.07832672 0.09824579 -0.008326142
-0.037657473 0.048628397 -0.017115548 0.1438995 -0.06873686 -0.0638491 -0.07917992 0.005426995
0.114283286 0.121844076 0.042746693 -0.122874096 -0.046253107 -0.04131219 0.061759748 0.036518287
-0.0616134 -0.008879714 0.086191274 -0.022959072 0.11543774 -0.00427626 -0.111268096 0.002895281
-0.012533082 0.06354673 0.07960479 0.13386251 0.07019405 0.16539052 0.060316436 0.044345405
-0.03107981 -0.07860016 -0.09325365 -0.026802083 0.11625368 0.043392092 0.053528048 -0.03940532
0.039428893 0.12217849 0.1430555 0.107206285 -0.030948631 0.035700668 -0.015798507 0.079436906
-0.005845909 0.061893485 0.097836755 -0.0041842065 0.0337791 -0.010414233 0.10457155 0.020931754
0.115042865 0.09947104 -0.115087874 0.0042841462 -0.04496474 -0.065079734 0.012413975 -0.032573756

Network_stack.0.0.gru.bias_ih_l0 f4 [192]
00000000: 696d 953d a3b4 1fbe 6677 bdbc dbf2 15bc
00000010: d4c9 e7bc fb20 2f3d e857 38bd fd64 acbd
00000020: 8267 edbd bfb4 633d 5bc0 19be 4588 7abd
00000030: 4424 ccbd c9bc c5b7 2e5b a43d b3ca bf3d
00000040: a48d 3d3d 4a06 30bb fdfa e6bc 7b0e bdbd
00000050: 3262 a8bc 2e94 0abd a705 6fbd 49b8 93bd
00000060: 3f8c c9bd 96b9 e6bd 3aa2 6f3d 8d3a e8bd
00000070: 030f 0b3e bda4 1dba 51f7 8e3c ed5d 763d
00000080: 3678 4b3c d3e3 37be ce67 9ebd 764f 72bd
00000090: cb26 2bbd ea1e cdbd 4449 1bbd 2764 e3bd
000000a0: a325 93bd f4e4 623b 67ec b33d 3b85 7f3d
000000b0: c1eb cfbd 6903 f4bb 3c5b 10be 934c 69bd
000000c0: aaa5 043e 4401 76bd 89a5 dbbd baf6 89bb
000000d0: 8a81 24bc 6c11 2d3d bb33 cebd 9dd5 b43d
000000e0: 3ad7 6cbd e3d3 88bd 3000 cc3c 69f8 e43d
000000f0: 09fd 823d 20ad 9abd e8d1 263d ee44 af3c
00000100: aabe a4be 7dec 0fbc 8b2d 25bd 219e b6be
00000110: 94bc 693c 1bcc 5bbe 93e2 e6be cb61 853d
00000120: 2508 75bd bc28 f73c 3657 9a3b a4ae 1abc
00000130: 1083 223e 580c 15bd 1dcf 55be 831a b0bd
00000140: 7524 27bf a803 ca3c c0e6 8b3e 1721 fe3c
00000150: 1765 a8bd 5f42 81bd da7f 8abe 886d 0dbd
00000160: cbe8 3fbe 5ea0 f03b 7cc2 e13c 5ffc 88bd
00000170: 7871 363e 73ca b9be 4b44 9d3d 97b1 68bd
00000180: 203c cdbe 2031 32be 5e8b a8bd a388 e1bd
00000190: 4130 f5bd 0fb6 1abe 275a babd 414b 8abc
000001a0: 0ac5 65be 988f 293e 2f8c 24bf 1909 723d
000001b0: 178a a63d 053a 96bf 9916 853d db7e 0dbe
000001c0: 6b77 7fbe d230 fdbd b709 ae3d 84e7 0bbf
000001d0: d9a2 4ebd 4fdf 78bd d64e 463e 76bd 113d
000001e0: 0bff 18bf 9651 afbd 6472 1ebd a157 523e
000001f0: e3a9 6c3d 3ca8 4fbd c5c4 42bd a217 efbe
00000200: 41ab 173e af64 0abe 2e51 a5bd 5d62 88bd
00000210: 1a58 ce3d 0186 fc3d cdf6 07be df37 833d
00000220: d510 4abd 49b9 c8bc a63d 4b3d 89fe a13d
00000230: 9935 9c3d 8a10 5e3d 3996 ae3d 748d 853d
00000240: 795c 0a3e 0b82 a43c ae11 1dbd 1976 a33c
00000250: ebf8 ff3c 31a9 9c3d d13c b33c d63c cbbc
00000260: d0fe 35bd 8938 b1bd aa05 a83d 64f1 24bd
00000270: a0d6 7e3d e205 c0bd 9b7c b03d b482 36bb
00000280: abd3 d1bd 44e2 e03d 98b9 523c fc19 95bd
00000290: 857c 24bd d89d 27bd 6564 a13b f3e1 e0bc
000002a0: edee 5c3d 5e08 8abd a78e 02bd 7ada babc
000002b0: 88da 103d d667 00be 787a 8dbd b830 f73d
000002c0: b28e fabd d962 0bbc deae 4e3d ebd0 0dbe
000002d0: a152 90bc 8596 7b3d a727 7ebd a68f 17bd
000002e0: 8e39 eabd 92e1 d23d aa1c fa3c 4734 42bc
000002f0: 1c2d 0a3c 1b59 853c 8fa1 94bd 3e42 c73d
0.07296259 -0.15596251 -0.023128223 -0.00915214 -0.028294481 0.042756062 -0.04500571 -0.084176995
-0.11592008 0.055592295 -0.15014784 -0.061165113 -0.099678546 -2.357214e-05 0.08025204 0.09364834
0.046277657 -0.0026859217 -0.028195852 -0.092312776 -0.020554636 -0.03383272 -0.058355 -0.07212884
-0.09841203 -0.112658665 0.05850432 -0.11339293 0.13579945 -0.00060136226 0.017451914 0.06014817
0.012418797 -0.17958002 -0.07734643 -0.05915781 -0.041785043 -0.10015662 -0.03791167 -0.11103087
-0.07184913 0.003462133 0.087853245 0.062382918 -0.10152388 -0.0074466956 -0.14097303 -0.056957792
0.12953821 -0.0600598 -0.10724933 -0.0042103203 -0.01004065 0.042252943 -0.100684606 0.08829806
-0.057822444 -0.06681039 0.024902433 0.11180193 0.06395919 -0.07552552 0.040727526 0.021395173
-0.32176715 -0.008784411 -0.040326636 -0.35667518 0.014266152 -0.21464579 -0.45094737 0.06512793
-0.05982222 0.03017079 0.0047101034 -0.009441052 0.15870309 -0.036388725 -0.20879789 -0.08598807
-0.65290004 0.024659947 0.27324486 0.031021638 -0.08222406 -0.063114874 -0.27050668 -0.034528285
-0.18741147 0.007343336 0.027558558 -0.06688761 0.17816722 -0.3628727 0.076790415 -0.056809988
-0.40084934 -0.17401552 -0.08229707 -0.110123895 -0.11972094 -0.15108512 -0.090992264 -0.016881587
-0.22438446 0.16558683 -0.64276403 0.059090707 0.08131807 -1.1736456 0.06498451 -0.13817923
-0.24947898 -0.12362827 0.08497947 -0.5465014 -0.050448272 -0.06075984 0.19366011 0.035581075
-0.59764165 -0.08560483 -0.03868331 0.2054124 0.057779204 -0.05069755 -0.047550935 -0.46697718
0.14811422 -0.1351497 -0.080721244 -0.06659386 0.10075398 0.12330247 -0.13277741 0.06407141
-0.04933246 -0.024502413 0.04961934 0.07909877 0.076274104 0.05421499 0.085247464 0.06521121
0.13511838 0.02008154 -0.03834694 0.019953774 0.031246623 0.07649458 0.021879585 -0.024809282
-0.04443246 -0.08653361 0.08204205 -0.04026927 0.0622164 -0.09376122 0.086175166 -0.0027848901
-0.102454506 0.10980657 0.012861632 -0.07280347 -0.040157814 -0.040922016 0.004925298 -0.027451491
0.053938795 -0.06739877 -0.031874325 -0.022809256 0.035364658 -0.1253961 -0.06908125 0.12069839
-0.12234248 -0.008507454 0.050459735 -0.13849227 -0.017617526 0.061422843 -0.062049534 -0.03700223
-0.11436759 0.102969304 0.030531246 -0.011853284 0.0084336065 0.01627784 -0.07257377 0.097294316

Network_stack.0.0.gru.bias_hh_l0 f4 [192]
00000000: b1e1 c2bd fd98 113d 34bc 943b 95bd b93c
00000010: d458 aa3d eb9e 34bd 6a33 5a3d 41a6 14bd
00000020: f6de c7bd dbfc d33d 37bf ef3c 7897 8dbd
00000030: e6fe 4cbd 70f3 d13b f80d b9bd d785 b8bd
00000040: 9e12 2c3e b98f e0bd b2f3 033e f0f8 1ebd
00000050: 2aaa 823d a8ac 4abd e65e 00be 179e f13d
00000060: c92d 2bbd 7796 77bb b538 8c3d 5c7c 5a3c
00000070: 03d2 f9bc 2c34 88bb 9090 333d b1c7 b63d
00000080: 07bf 65b9 6fd1 83bc 229a bbbd 05a5 dbbd
00000090: 2b2b afbd 08e7 b03d bdea eb3c 209d 013d
000000a0: c9c0 f23d 8f43 12bd 1526 5a3d 490b 313d
000000b0: ff86 793c 2f34 8fbd f162 acbd caa0 17be
000000c0: 62ef 083d 56f1 bd3c 24a4 e93c c290 6d3d
000000d0: 6fb4 3d3d f18d d03a 8d38 c8bd 3168 acbd
000000e0: 7661 05be 57a3 033e ce23 dfbc 0d66 1b3d
000000f0: d984 8c3d b564 91bc f163 c5bd f84e 33be
00000100: c1e1 89be c170 ffbd ac05 b1bd 918a e5be
00000110: cc7f 753d 89e7 69bd f3d4 c7be 6594 a23d
00000120: d252 e43d 9117 9c3d 4201 a03d 0add 0bbd
00000130: b543 87bd 968c 223d 0c4e 97be 8758 67be
00000140: 7484 23bf 6c2e 9c3d c1e7 633d 4129 fd3c
00000150: e01b 79bc f11e 8fbc b07d dfbe 9afe ca3c
00000160: 0a60 50be abb4 a03d 981b 64bd ae94 cdbc
00000170: ca4b c03c c780 aabe b715 8a3d dac3 01be
00000180: 30f7 7bbe 773e 3bbe 2a38 bebd d6d2 d23c
00000190: 6e98 9e3c 43ed 22be 252b cf3d ae6c 33be
000001a0: 6a3a 1ebe 7400 91bd aacf 2cbf 29cd c83d
000001b0: 77e4 013e dc1c 80bf 6bf1 6fbb 12ba 9abe
000001c0: 0131 37be 7879 e6bd fd4a f83d c8c1 05bf
000001d0: 6831 a5bd 0ec5 20be 919b 033e d014 773d
000001e0: 455d 1ebf b2cb c8bd 0fd0 253c 73ad 0b3e
000001f0: 4081 18be 9ca7 1d3d 5e5e 2ebe 97db 89be
00000200: d961 a6bd f549 413d 5730 a6bd 2c1d 1cbd
00000210: a260 3cbd e02d 53bd 9d28 03be 61a3 a63d
00000220: 1679 bdbd 58d6 48bd 55ff 863d 27b4 383d
00000230: c425 17be f967 c53c 203a d2bd 6769 c7bd
00000240: 3379 8d3d dc3f a2bd ea00 a4bc 3f0f 33bd
00000250: a907 613d dee5 92bd 2edb 873c 8a03 b7bd
00000260: 9615 013c d28d 513d 78f1 84bd de26 d7bd
00000270: d856 28bd 025b 503d 6616 a13d 8cd0 e7bc
00000280: 119e 14bd 3db4 c9bd a38a d8bd f17e aebd
00000290: 5ae8 153d 10ac e13b f789 3fbd 40d5 863c
000002a0: 53ba 03be 4579 e1bb a68c 1b3e 3ffb 81bd
000002b0: 4e58 053e a331 3bbd 378a 5abd 0eb0 27bd
000002c0: a5c5 e5bd 6e97 97bc 5480 ccbc c7cf b1bd
000002d0: faea a9bd 401e e7bc 7044 9dbd c82e 00be
000002e0: 7e55 323d 0904 04be 13e1 33bd f9ad 493d
000002f0: 1433 d13c b734 86bd 5b3d db3c 2885 d43c
-0.095157035 0.03554629 0.004539037 0.022673408 0.08317724 -0.04409687 0.05327169 -0.036291365
-0.09759323 0.10350963 0.029265983 -0.06913656 -0.050047778 0.006407194 -0.090358675 -0.09009903
0.16803977 -0.10964913 0.12885931 -0.038811624 0.063801125 -0.049481064 -0.12536201 0.11797731
-0.04179171 -0.0037778893 0.068467535 0.013335314 -0.03049565 -0.00415661 0.043839037 0.08924807
-0.00021910305 -0.016091077 -0.09160258 -0.10724834 -0.085531555 0.08637816 0.028798455 0.031643987
0.11853177 -0.03570896 0.053258974 0.043223653 0.0152299395 -0.06992375 -0.08417309 -0.1480743
0.03343142 0.023186367 0.028520651 0.05799938 0.046314653 0.0015911442 -0.09776411 -0.084183104
-0.1302546 0.12855278 -0.027238753 0.03793912 0.06861276 -0.017748216 -0.09638203 -0.17510593
-0.2693005 -0.12472678 -0.0864366 -0.4483228 0.05993633 -0.057105575 -0.39029655 0.0793846
0.11148609 0.076216824 0.0781274 -0.034146346 -0.06604711 0.039684854 -0.29551733 -0.22592364
-0.6387398 0.07626042 0.05564094 0.03090346 -0.0152044 -0.017470809 -0.4365058 0.024779607
-0.20349136 0.0784696 -0.055690378 -0.02509531 0.023473639 -0.33301374 0.06742423 -0.12672368
-0.24606013 -0.18285547 -0.09288056 0.0257353 0.019359794 -0.1591082 0.10115651 -0.17521927
-0.1545197 -0.070801646 -0.6750437 0.09804756 0.12684809 -1.0008807 -0.0036612402 -0.30220085
-0.17889787 -0.11253637 0.12123678 -0.5224881 -0.08066064 -0.1570017 0.12852313 0.060322583
-0.6186107 -0.09804477 0.010120406 0.13640384 -0.14893055 0.038489923 -0.17028186 -0.26925346
-0.08124132 0.04718967 -0.08114689 -0.038113758 -0.045990594 -0.05155742 -0.12808461 0.08136631
-0.09251611 -0.04903254 0.065916695 0.04509368 -0.147605 0.02409743 -0.10264993 -0.09736901
0.069078825 -0.079223365 -0.020019967 -0.04371571 0.054938946 -0.0717275 0.016584005 -0.08936222
0.007878682 0.05116064 -0.06491369 -0.1050546 -0.041098446 0.05086804 0.078656 -0.028297685
-0.036283556 -0.09848831 -0.10573318 -0.08520306 0.03659854 0.0068869665 -0.046762433 0.016459107
-0.12864046 -0.0068809115 0.15190372 -0.063467495 0.13021967 -0.045701634 -0.05335447 -0.040939383
-0.11219338 -0.018504824 -0.024963535 -0.086822085 -0.08296771 -0.028212667 -0.07679069 -0.12517846
0.043538563 -0.12892164 -0.04391582 0.04923818 0.025537051 -0.06553023 0.026762655 0.0259424

Network_stack.0.0.gru.weight_ih_l1 f4 [192, 64]
00000000: 03df 8a3c a372 c1bd 66d1 5abd ea2c a73d
00000010: b6aa bbbd bd5b 8cbc 2eb7 30bd 109e 9c3d
00000020: ee01 59bd a26d 773d 780a c4bd 9e47 b4bd
00000030: 01a4 7ebb 988b e23c 57ac 45bb 057e 13bd
00000040: 78c7 423d c38a 453d af59 9b3d 7a8a 8ebd
00000050: b3ce 7dbd aea5 bcbc fd4f 44bd e327 f63c
00000060: 25fe fe3d 26c6 ecbc 773f c53d e1fd 10be
00000070: 75dd 0abd 58b2 24bd 2e26 8bbd da32 19be
00000080: 19e6 123e 59f4 c53c 331e 48bd 6944 cf3d
00000090: 9237 a63d d47f c0bd 47f1 d0bd d427 cdbd
000000a0: 7314 093e 646b b03c d189 89bd 1515 8abd
000000b0: dc68 89bc f4b7 cebd b0d6 a93d 9aa6 ccbd
000000c0: 2a0f 793d 7773 aebc d14a 043d 52e5 e03c
000000d0: 9d51 c23b 1b6b 993d 74bd da3d eb11 993c
000000e0: 7392 c23d 9e55 adbd 563e 013e 5ee0 8bbb
000000f0: 332b 133d 214d f4bb df77 93bd fa33 153d
00000100: 041c 81bc 22fc 74bc db20 223e 8af3 fcbd
00000110: d60b 39be c326 f5bd fc1d 6b3c 92d4 98bb
00000120: 698f 7abd 715e 453d d883 7dbc e91d 223e
00000130: 4a1a c33d a472 ef3c 798b 35bd d577 093d
00000140: aebf d93d 10b6 323d 1f33 d1bd 75a0 173d
00000150: 947e a9bd 40a8 26bd 2208 cf3d 3784 043c
00000160: 32cd 3c3e 89c8 883c a305 913c 6b0c 4abd
00000170: 77bd 94bd bae3 353d 2a54 e73d 61a6 74b9
00000180: a761 71bd 28c8 45be ef78 f7bb 2c4c 06be
00000190: 15f4 c03d b57f 293d a1d6 133d 8dd8 083d
000001a0: 5d9c 1f3e a10f 053c 89eb e7bc ee6e 49be
000001b0: 03f6 2d3d 3898 e23c 0e8a aa3d a48a 7e3d
000001c0: f900 0b3d 36e7 d43d eea7 0f3c 3276 563d
000001d0: ca64 73bd c107 f9bb 4de3 a93c cd5f 0a3d
000001e0: b4eb 53bd 19c0 573d f9d7 823d 171e 49bd
000001f0: 5261 a8bd 936f 5c3d 0043 55bc 53be afbd
00000200: eec2 1ebd f271 133d de9d dabd 06f9 6c3c
00000210: 79c9 003c 4c8e 063e 5aa8 a5bd 81b8 ae3c
00000220: f5c4 143d 346d b3bb acf4 f9bd 1955 8c3d
00000230: 3b08 4f3d 7d64 d03d 97b6 8dbd 5741 9f3b
00000240: bd66 733c 5c78 5dbc 9028 f53d b5ec 73bd
00000250: aa62 ce3c 7a6f 4c3d 060c 1dbd 0374 8a3b
00000260: 5c9a fbbd d825 d03d 2a9c 0ebb 4f7d 213d
00000270: c2ec cdbd 52bd 8abc d0a9 f7bd c58b f53c
00000280: d65e 883d c495 c5bd 19e2 5bbd 4384 863d
00000290: f094 55bd 031f ba3d 0a1f c63d 77c9 383d
000002a0: 782f e33c 29b0 a33c 0cc0 8a3d f0e9 ddbc
000002b0: 2e23 353d 1f80 f83d 072f d6bd 6540 663b
000002c0: 2af7 983d b588 0f3d bb90 c7bd 2d2b 693c
000002d0: 7bee e5bd d59f b7bb 9b2e 293e ee04 cfbd
000002e0: 8141 343c ea24 26bd be55 0cbe ef37 bfbd
000002f0: eba4 283e 7fe9 923d f9f8 ffbd f4f1 8bbc
00000300: 8774 4cbe abd7 a63d ccc0 733d 851c b8bb
00000310: 0ead 81bd 9b9e 56be bb7f 86bc 30d4 dabd
00000320: 7dc3 163d 75dc bb3c 1db8 6ebd 2e23 2f3d
00000330: d2b8 bd3d 5dba b4bc e62e a7bc 54de 223e
00000340: 11a8 8f3c ed36 4dbd ee2d 7a3d 7c56 fd3c
00000350: b42a b6bd 2dd9 6f3b 564e 1a3e 3337 0cbe
00000360: f110 343c 97ee 6ebc e82f 0cbd e7b4 01be
00000370: 3b79 56bc de53 f63d c6c4 883d db9b 82bd
00000380: a173 463e 7c7f 83bd eb83 83bd 298c 343d
00000390: c1ae c63b 80ee 023e 81f8 7cbc 931b 723d
000003a0: 77e5 823d 879d a43d a8d3 9abd 6993 d03c
000003b0: d83e a03d 7732 233e f79b d83d 54e9 e9bd
000003c0: 2866 13bc 5ec6 c43d 7816 48bd 6e02 6ebd
000003d0: e858 0b3e cb69 003d 44c5 503e b14f 9e3c
000003e0: 0a4c e53d e13e d83d d3d3 153e 6f25 aaba
000003f0: 32b8 01be 2a40 98bd 8e9d 823d 2ac9 2bbd
0.016952043 -0.09445693 -0.053422354 0.081628636 -0.0916342 -0.017133588 -0.043143444 0.076473355
-0.052980356 0.06040729 -0.09572309 -0.088027224 -0.0038855078 0.027654454 -0.0030162537 -0.036008853
0.04755351 0.048228037 0.07585465 -0.06960006 -0.0619647 -0.023028221 -0.047927845 0.030048316
0.12450818 -0.028903078 0.096312456 -0.14159347 -0.033902604 -0.040209144 -0.067943916 -0.14960805
0.14345588 0.024164366 -0.048856925 0.1012047 0.08116068 -0.09399381 -0.1020227 -0.10017362
0.13386707 0.021535583 -0.067157395 -0.06742302 -0.016773634 -0.1009368 0.082929015 -0.09992714
0.060805477 -0.021295292 0.032297913 0.027453098 0.005930139 0.07491132 0.106806666 0.018685302
0.09500589 -0.08463596 0.12621436 -0.00426869 0.03592987 -0.0074554835 -0.07200598 0.03642652
-0.01576043 -0.014952691 0.15832846 -0.12351139 -0.18070921 -0.11970284 0.014350411 -0.004664012
-0.061171923 0.04818577 -0.0154733285 0.15831722 0.095264986 0.02922947 -0.044322465 0.033561546
0.10632263 0.04363066 -0.10214829 0.037018258 -0.08276096 -0.0406878 0.10108973 0.008088163
0.18437651 0.016697185 0.017702883 -0.04932825 -0.072627 0.04440663 0.1129535 -0.00023331634
-0.05893102 -0.19314635 -0.007552258 -0.13114995 0.09421555 0.041381557 0.036093358 0.033409644
0.15586992 0.008121402 -0.028310554 -0.19671223 0.042470943 0.027660474 0.08327113 0.062143937
0.033936474 0.103956625 0.008768065 0.052358814 -0.05942229 -0.0075998013 0.020738268 0.03378277
-0.051738456 0.052673433 0.0638885 -0.04910096 -0.082216874 0.053817343 -0.013016462 -0.08581223
-0.03876012 0.03599734 -0.10674642 0.014463669 0.007860535 0.1314022 -0.08088751 0.021328213
0.036320645 -0.0054756645 -0.122048706 0.068521686 0.05054496 0.101754166 -0.06919592 0.004860084
0.014856038 -0.013517465 0.11970627 -0.059551913 0.025193531 0.049911 -0.038341545 0.0042252555
-0.12285301 0.10163468 -0.0021760562 0.039426144 -0.100549236 -0.016935978 -0.12092936 0.029973874
0.066587135 -0.09647706 -0.05368242 0.06568196 -0.05214399 0.09087946 0.09673889 0.045114007
0.027732596 0.01998146 0.06774911 -0.02708909 0.044223003 0.12133812 -0.104581885 0.0035133597
0.07469018 0.035042483 -0.09744402 0.014231485 -0.11227127 -0.0056037703 0.16521685 -0.10108362
0.0110019455 -0.040562548 -0.13704583 -0.0933684 0.16469161 0.07173442 -0.1249866 -0.017083146
-0.19966327 0.08146604 0.059510037 -0.005618634 -0.06331836 -0.2095894 -0.016418329 -0.10685003
0.036807526 0.02293227 -0.058281053 0.04275816 0.09263767 -0.022061521 -0.020408105 0.15905124
0.017536195 -0.05010121 0.06107896 0.030925028 -0.08894864 0.0036597953 0.15068945 -0.13692932
0.010990367 -0.014583251 -0.034225374 -0.12666665 -0.013090427 0.12027715 0.066781566 -0.06377383
0.19380046 -0.064208 -0.06421646 0.04407898 0.0060633128 0.12786293 -0.015440107 0.059108328
0.06391423 0.080378585 -0.075599015 0.025460916 0.078244865 0.1593722 0.10576623 -0.11421457
-0.008996524 0.09608148 -0.048849553 -0.058107786 0.13608134 0.031350892 0.20387751 0.01932511
0.11196144 0.10558868 0.14631586 -0.0012981127 -0.12667921 -0.07434113 0.063777074 -0.041939892

Network_stack.0.0.gru.weight_hh_l1 f4 [192, 64]
00000000: 66ad 003e 2677 c53d 4559 edbc 8280 c8bd
00000010: 0d71 4e3d 00c5 183e b948 3a3d ee1a 6ebd
00000020: 8909 013d c942 bdbd 1e62 75bd d4ad 01be
00000030: a879 d23d 9bca bc3d 9837 f73d e220 0d3e
00000040: 8927 8abc ed46 0ebe 9042 3abd 255f 6abb
00000050: d520 883d 6ddb b9bd 5f9a 32bc 6244 94bd
00000060: b135 dd3b 8de1 043e e5ec 253d 32bb 893d
00000070: 503d 20bd d862 aabc 5a88 92bb 3d3d 87bd
00000080: f90f 013b d13b 03be c671 973d eb30 f3bd
00000090: ec95 debd 3189 39bc c14e e43d 8e05 c1bd
000000a0: 7825 b1bc f8b7 e1bd 2522 973d 0959 fc3d
000000b0: ebaa 2fbd d2d9 dfbc 47ca 8cbd 3a33 fa3c
000000c0: ecbc b1bc 16f5 0d3e 0995 053d b670 cabc
000000d0: 349a 9f3d 5a8b 33bd 827b 38bd c128 afbd
000000e0: c57b b0bd 5ecc 673d 0790 bc3d 4b29 173d
000000f0: 5d15 91bd 933c de3d 4a68 bc3d 9fa1 843d
00000100: 3905 2ebc be76 36bd 72d7 a4bd eb24 303d
00000110: 99fc d23d 7f60 3e3d 345b c83d 9103 1b3d
00000120: 8d99 1a3d 76ab 513d e7b6 1c3e cf99 24bd
00000130: 90da 74bd e6f1 88bd 8068 03bc de6e 16bd
00000140: 2a7b 023d 67b8 d4bd ee1a b53d 5e6c aabd
00000150: 403e 153d 2de0 803d c1a6 47bc 93ab 563d
00000160: 53ad 9a3a 21c6 2f3d 16de 0abe 8825 093e
00000170: bbc2 56bd 730e 3bbc 5a72 bcbc 9a8e d63d
00000180: 978e 6fbc d291 eabd 256e 0e3e 2bfb 723d
00000190: ec47 4f3d 74fa dbbc d810 b5bd aa6b 763c
000001a0: 09dc e8bd 148a 9dbd 61b2 833d 62ff a2bd
000001b0: 6af9 883d 4d1d 173e 45ca a0bd 7062 a93d
000001c0: 131b b53b f43d f03b f7f0 163e 756d e73d
000001d0: 4cb2 2fbc d82b 84bd be0a b9bd 79b6 333d
000001e0: e534 c8bb 7b4c 313e df18 3e3a aa4d e1bc
000001f0: f14b bd3d 3618 acbd 6930 dfbc 0226 62bd
00000200: 4484 2d3d 5058 ed3d 13a2 7d3d b77e cd3d
00000210: 5839 d4bd 3a91 2abe 5d71 f73d 187c babc
00000220: 7c20 823d 55a2 9cbb 2fbd 573d c538 263e
00000230: f4d3 a73d f0e9 663d a00a bd3d 456d 69bd
00000240: fb85 713d c676 e83d e312 7a3c 39fb dcbd
00000250: 801d bc3d 7692 333d 5d72 06bd 89ac 22bb
00000260: 2cda 2f3d 5abd 6ebc db7e 80bc 959a a9bc
00000270: 3ea8 613d 76e7 b1bd a3ca c33b 1a7d 98bd
00000280: 4de8 e6bd 4727 64bd 33e6 f43c 6372 e8bd
00000290: 1f84 953d 8c45 793d 0019 8ebd 349e a1bd
000002a0: c950 43bd ddd8 54bd 2971 15be c804 05be
000002b0: 3f4b ca3b 1f84 d2bd 00f4 d9bb 887e 20ba
000002c0: d02f eaba 5244 94bc 8690 643c 9225 f0bd
000002d0: bf8f 0e3e 633f cbbd fdd1 1d3c d12d 40bc
000002e0: b06c cb3b 38a8 d5bd 6b37 e0bd fefb 0d3d
000002f0: 4f5c a4bd afdb 5dbd 9d8f c2bd 9980 b1bd
00000300: 56ee 4ebb 6891 f4bd 3e44 fe3d 7882 763c
00000310: a979 6fbc 7702 4d3d 516c 463e 3718 083d
00000320: 4298 3fbe 2b35 e53d dab0 37bd 7e2d 7f3d
00000330: 5d08 f63d 4c69 64bd 3c3d 65bd 08bd 39bd
00000340: 9812 c5bd 189c 4d3c 0474 89bd d835 e63c
00000350: 8de8 07bd 6359 143d c9f3 4abe 9540 053e
00000360: ed22 21bd 236e 54bd a309 d7bd bb49 623c
00000370: f8c4 193e b27e 64bc a3a6 f03d 0c0e 583c
00000380: 452c 303e 8394 e4bd 3ff9 ac3d 46ae fc3c
00000390: efe4 3ebd 7fa7 3dbe 079a 463d ce21 8bbc
000003a0: 24d9 f63d bcc3 03bb cb50 8f3d 64fd 5bbd
000003b0: c4f3 53be d925 20bd 6a9a 0b3e ad7f eabd
000003c0: 0f30 e03b 0869 ebbd 4b77 e73d 6e0f 8ebd
000003d0: 31e0 953d eeb5 afbd bf62 b2bb 251e d8bc
000003e0: ebcc 383d 9216 a0bd f882 43bd 8ccb 123d
000003f0: 83ce 703d b26a 17bd 08e6 e93a 2342 993d
0.12566146 0.096418664 -0.028973231 -0.09790136 0.050400782 0.149189 0.04547951 -0.05813115
0.031503234 -0.09241254 -0.059908025 -0.12663966 0.1027711 0.092183314 0.120711505 0.13782075
-0.016864555 -0.13894244 -0.045473635 -0.0035762277 0.06646887 -0.09075055 -0.010901063 -0.072396055
0.0067507853 0.12976666 0.040509123 0.06725158 -0.039120972 -0.020799085 -0.004471821 -0.06603477
0.0019693358 -0.12815787 0.073947474 -0.11874565 -0.10868439 -0.011324213 0.111478336 -0.094248876
-0.021624312 -0.110214174 0.073795594 0.123216696 -0.04288761 -0.027325545 -0.06874519 0.030542005
-0.02169653 0.13863024 0.032612834 -0.024711948 0.07793084 -0.043834068 -0.04503966 -0.08552695
-0.08617357 0.056591384 0.092071585 0.036904614 -0.07084153 0.10851397 0.09199579 0.06476139
-0.010621362 -0.044546835 -0.080489054 0.043003958 0.103020854 0.046478745 0.097830206 0.037845198
0.037744094 0.05118891 0.15304147 -0.040185746 -0.05977875 -0.066867635 -0.00802052 -0.036726825
0.03185574 -0.103867345 0.08843027 -0.08321451 0.03643632 0.06292758 -0.012185753 0.05240972
0.0011800922 0.04291356 -0.13561282 0.13393223 -0.052431803 -0.011417019 -0.023003746 0.10476418
-0.014621398 -0.11453594 0.13909204 0.059321564 0.0506057 -0.026852824 -0.08841103 0.015040318
-0.113700934 -0.07692352 0.064305075 -0.07958867 0.06688197 0.14757271 -0.0785108 0.082707286
0.005526909 0.007331604 0.14740358 0.11300174 -0.010723662 -0.06453675 -0.09035252 0.04387519
-0.006109821 0.17314331 0.0007251631 -0.027502853 0.09243 -0.08403055 -0.027244763 -0.05521203
0.042362466 0.1158911 0.061922144 0.100339346 -0.103625 -0.16656962 0.12082169 -0.02276425
0.06353852 -0.0047800937 0.052670654 0.16232593 0.08194724 0.056375444 0.09230542 -0.056988973
0.058965664 0.11350779 0.015263292 -0.107901044 0.09185314 0.043840848 -0.03282391 -0.0024822077
0.042932674 -0.014571512 -0.01568549 -0.020703593 0.05509209 -0.08686726 0.005975084 -0.07445736
-0.112747766 -0.05570152 0.029894924 -0.113499425 0.07300591 0.06085734 -0.06938362 -0.07891503
-0.047684465 -0.05196463 -0.14593948 -0.12990105 0.006173521 -0.10279106 -0.0066514015 -0.000612237
-0.0017867032 -0.018098984 0.013950473 -0.11725916 0.13922022 -0.099241994 0.009632585 -0.0117296735
0.006208025 -0.10432476 -0.1094807 0.034664147 -0.08025419 -0.054164585 -0.09500048 -0.08667106
-0.0031575165 -0.119417965 0.1241536 0.015045755 -0.014616408 0.05005118 0.19377257 0.033226218
-0.18710425 0.111917816 -0.044846393 0.062299244 0.12013314 -0.05576448 -0.0559666 -0.04534629
-0.09622687 0.012549423 -0.06711581 0.028101847 -0.033180762 0.03621806 -0.19819559 0.13012917
-0.03933995 -0.051862847 -0.10499885 0.013811524 0.15016544 -0.013946222 0.117505334 0.013186943
0.17204387 -0.11161139 0.084459774 0.030844819 -0.046605047 -0.18520926 0.048486736 -0.016983893
0.12053135 -0.002010568 0.06997832 -0.05370845 -0.20698458 -0.039098594 0.13633123 -0.114501335
0.0068416665 -0.114946425 0.1130205 -0.06936537 0.07318152 -0.08579622 -0.0054439004 -0.026381562
0.0451173 -0.07816805 -0.047732323 0.03583865 0.058790695 -0.036966987 0.0017845044 0.07483318

Network_stack.0.0.gru.bias_ih_l1 f4 [192]
00000000: 87ab 783d 8af2 203e 9707 03bc 19c3 07be
00000010: 2203 ea3d f10c 023e b644 863d 6dae 463e
00000020: 24e1 143e b946 c4bc b245 343e b15d 393d
00000030: 8b77 d3bc 154c 14bd ae12 903c b796 e83d
00000040: eb86 043e ab8f f83c f742 ebbc 4463 c2bd
00000050: bf08 d7bc c289 c9bb 3b00 f0bd 0379 983d
00000060: 9b08 833d 7135 adbd 5e32 983b 569f df3d
00000070: a8aa dd3d 64dc 81bd 8a09 913d 5d9c f03d
00000080: 1239 52bd a993 e93c c188 7fbd 3ded bd3d
00000090: 4408 093e ccf8 0fbc 6d4a 173e 6415 583d
000000a0: 70b5 77bd 1c35 043e 6f01 af3d b00f 913d
000000b0: b2c7 ef3c 2297 4f3d 4ae8 9e3d ba67 babd
000000c0: 5867 03bd bb4a a0bd 8f64 ef3c 8445 f8bd
000000d0: dee7 96bb 5501 95bd 8bf6 d5bd a76c 3c3d
000000e0: 72e9 e2bd 89bd 3cbd 54b0 89bd 1284 59bd
000000f0: 5d4e 063d 3583 7c3c 730a 50bb 6a42 0f3d
00000100: aebe bb3d 0159 9abe 7d85 a0be 2722 1ebf
00000110: b4a9 df3c 8d73 133c 5ebc aebc b624 49be
00000120: 3478 3fbf ef79 a3ba c6bd 83bd a761 a5bc
00000130: 5c44 35be 16df 90bd 94de 4c3e 8973 bb3d
00000140: da25 483d 591f acbd 417e 59be bc3f d4bc
00000150: 2391 0d3c 8064 0f3e a692 d2bd 5698 4fbc
00000160: 7ace 5e3e fc2a 0f3e 49ba ca3d 332f fabd
00000170: 7a40 c5bd fe6d 31be ef58 593d 457c ed3d
00000180: 0ca2 00bb f946 5fbc 448a bd3d 9c23 213d
00000190: 46d4 863e 1718 c4bc 2125 5bbe 920d 3dbc
000001a0: 0cbb 143d ad6d 3abd dcab 6e3e 2f10 82bd
000001b0: c133 75be ab4b f0be 7cbc 313d 0e9d 023d
000001c0: d87e 4fbd 2975 05bf f6bb 71bd ea59 0abe
000001d0: 0e1d 23bc 24a4 40bd 3daa 653d 4065 c43d
000001e0: d514 a73d b805 00bf 037e 34be c49e 42be
000001f0: 2cad 2b3e b36f 0dbe e2a4 a73d be79 cc3d
00000200: 274b c93d 8de8 013e cb39 f83c fd15 6f3d
00000210: 943a 83bd 2dfd abbd 182a ec3d 31d8 0f3e
00000220: 7c1d c23d 1070 e93c 7835 b03d 7a40 983d
00000230: a78b 7cbd 1c85 0dbe 418b ad3d 8fc6 6a3d
00000240: 8e24 b1bd 00e8 c3bd 5bb9 f13d e42a 83bd
00000250: c260 8abd 79b7 c8bd 0fcf ec3d b14e 80bd
00000260: d199 e4bd 32c9 b23d c6ba 3ebd 58fb f23d
00000270: 7654 bc3c efab b73d b7ab 36bd fe4d 4c3d
00000280: 3f8e 89bc 1813 833b 277f 143d 74fb e73d
00000290: d794 68bd 54f7 e0bd e531 bc3d 0405 353d
000002a0: b838 83bd 17e3 113d ec75 fdbd 99af af3c
000002b0: 8e59 c43d 4a44 083e 2311 c4bd db22 b8bd
000002c0: 9480 d5bd 0ba5 e23c 6cd8 2b3d 7663 143c
000002d0: 912b 2e3e 1342 68bd 7bfe b1bd d907 babd
000002e0: 145e 8b3c 9b88 b63d 489e 88bb 339f 803b
000002f0: abd9 bfbd dd34 013e 4b26 5abc a2ca 08bd
0.060710456 0.15717521 -0.007997415 -0.13258018 0.11426379 0.12700249 0.06556074 0.19402476
0.1453901 -0.023959504 0.17604712 0.045255367 -0.025813838 -0.03620537 0.017587032 0.113568716
0.12942092 0.030341944 -0.028718455 -0.0949159 -0.026249288 -0.006150455 -0.11718794 0.07444956
0.06398126 -0.08457459 0.004644676 0.10919063 0.10823566 -0.06340864 0.070818976 0.11748574
-0.051323958 0.028512793 -0.062386278 0.09273765 0.1338206 -0.008787345 0.14774485 0.052754775
-0.060475767 0.12910885 0.08545195 0.0708307 0.029270027 0.05068124 0.077591494 -0.091018155
-0.03208098 -0.07826754 0.029222755 -0.12122634 -0.0046052774 -0.07275645 -0.10447415 0.046002056
-0.110796824 -0.046079192 -0.06723085 -0.053104468 0.032789577 0.015412142 -0.003174451 0.034975447
0.09167229 -0.3014603 -0.31351843 -0.6177086 0.0273026 0.008999717 -0.021330055 -0.1964291
-0.7479279 -0.0012472252 -0.06432681 -0.020188166 -0.17701858 -0.070738 0.20006782 0.09152896
0.048864223 -0.084044166 -0.21239568 -0.025909297 0.00864056 0.14003181 -0.10281877 -0.012670597
0.21758452 0.13981241 0.09898812 -0.12216034 -0.096314386 -0.17327115 0.05306333 0.11595968
-0.0019627837 -0.013627761 0.09254888 0.0393406 0.26333827 -0.023937268 -0.21400882 -0.01153888
0.036311194 -0.04551475 0.23307747 -0.06350743 -0.23945524 -0.4693273 0.043392643 0.03188806
-0.050658077 -0.521319 -0.059017144 -0.13510862 -0.009955658 -0.047031537 0.056070555 0.095896244
0.0815827 -0.50008726 -0.17626195 -0.19005877 0.16765279 -0.13812141 0.08185746 0.09984158
0.09828787 0.12686367 0.030300995 0.05837058 -0.06407657 -0.08397899 0.11531466 0.14047314
0.0947828 0.028495818 0.08603948 0.07434173 -0.06165662 -0.13820308 0.08473826 0.057318266
-0.086495504 -0.09565735 0.11802932 -0.06404665 -0.06756736 -0.0980062 0.11562931 -0.06265009
-0.11162151 0.08729781 -0.04656484 0.11864346 0.022989493 0.089683406 -0.044597354 0.049879067
-0.016791461 0.004000079 0.036254074 0.11327258 -0.05678257 -0.10984674 0.09189204 0.044194236
-0.064073026 0.03561696 -0.123760074 0.021446036 0.09587394 0.133073 -0.09573581 -0.08991023
-0.10424915 0.02766659 0.041954443 0.009056916 0.17008807 -0.05670364 -0.086911164 -0.09083528
0.017012633 0.08912774 -0.004169259 0.003925228 -0.09367689 0.12617822 -0.013314794 -0.03339637

Network_stack.0.0.gru.bias_hh_l1 f4 [192]
00000000: eb20 843c 096d f83c cc32 163d cfaf 7bbd
00000010: 7860 2a3d 78d3 7ebd 63bc 83bb 2786 2d3e
00000020: b4d8 7dbd 2f3c c7bd bc8c 0abc 5cbf 163e
00000030: 71c1 713d 3157 23bc 9bff 823d 196d d03d
00000040: 2bed d33d 7668 e8bd 5c77 fa3d 2628 c4bd
00000050: 4bb5 54bd 15d3 70bb 8597 18bd 58fe 23be
00000060: 5e18 ac3b 6eae 01bd a231 2f3c 6549 5e3d
00000070: 93c9 5d3d 8077 07be a4fe a13d d822 013e
00000080: 60ae d3bd 7088 663c 666e e6bc fced 0a3e
00000090: 7272 263d adf5 163e ece7 23bc 05f1 113e
000000a0: 9f64 2a3d bc38 aa3d 1207 d93a 1c7f e0bd
000000b0: 561b 85bd 356a 5a3c 6804 743d 5c09 b5bd
000000c0: 6bce ab3d fa5d 183e 6ea9 343d 1ce9 f5bd
000000d0: cf40 18bc 3a0e 0a3e 8293 de3c b930 2d3e
000000e0: b7fb 66bd df47 093d 78f3 92bd 5bb4 c73d
000000f0: aefe bb3d 2535 69bd e6a7 213e a17f 7d3c
00000100: 2ca5 11bd 2b6b 2bbe 5f58 b8be b586 39bf
00000110: e227 733d b5cd a8bd cf97 02bd 5f67 eebd
00000120: e0c9 5cbf 5ea6 8e3c b8bf 52be 2acc 923d
00000130: a245 2b3d 087c b7bc 78c5 113d a7fc cbba
00000140: f987 103e b591 ccbd db64 ffbd 7b7a 24bd
00000150: a044 9c3d 396c 3fbc eadf 0abe 3581 eebb
00000160: a623 7c3e c0b3 2d3e 4df6 d73d 339f 75bd
00000170: 10b5 4abe 9200 b2be 8b97 1c3e 3d1a de3d
00000180: 5ad3 d2bd 558f 823d 2c90 313e bb01 9abd
00000190: 7a3d 383e 5fa1 113d 74f8 81be 0b7f dd3c
000001a0: 59ad 7cbc a01a a13d 3aab 133e aa06 1cbd
000001b0: bf12 cbbd 11fb ddbe 5de1 fe3c 5416 25bc
000001c0: 9b4a 293e 3dc8 febe acb2 48be eda8 c5bc
000001d0: e7c4 e13c eb3e d33c de95 8d3d b43b 453d
000001e0: f73f c93d f5c4 fdbe 94ff e3bc bf47 c9be
000001f0: a019 123e d505 6abd e644 4c3c 24e1 1d3e
00000200: 0064 8f3d 673c 0a3d 8525 783d ef1f 8dbc
00000210: 2763 ce3c ddc0 b03d a06a c23c 9db0 f63d
00000220: 95c1 7c3d 4687 083d d766 7c3d 564c 963d
00000230: 2e6f f83d 9a65 af3d 65af da3d d7ae c8bd
00000240: 7277 d0bd 13b3 4a3d be9a a33d 7934 043e
00000250: 2552 9d3d 05d4 8dbd 20de 86bd 4013 3ebc
00000260: 74f3 7fbd 25a1 373d 5c73 0b3d 8845 a73d
00000270: 5147 1bbd e3e9 53bb 4282 a8bb 6c45 7fbd
00000280: 32b4 79bc dbaf a8bd ce42 83bd fe34 973d
00000290: 3629 27bd 1c09 01bd 9c99 043e 45c2 233d
000002a0: 16f0 24bd e2d8 acbd c339 62bd ec5c 21bd
000002b0: cc6e a6bd 9f02 573d 2f9b f13c 0422 ed3c
000002c0: e2e2 3bbd 1018 ef3d 5936 973c c263 c93b
000002d0: b452 f83d 44c3 a0bd b3d8 84bd 37f2 2abd
000002e0: 9d47 d3bd dd67 e6bc 0e50 9d3d 79be 6d3d
000002f0: d409 87bd 6947 71bd 73d3 e8bb 2f09 63bc
0.016128978 0.03032543 0.036669537 -0.06144696 0.041595906 -0.06221339 -0.00402026 0.16945706
-0.061974242 -0.09728276 -0.008456405 0.14721435 0.05902237 -0.0099695185 0.06396409 0.10177059
0.103479706 -0.11348049 0.12229797 -0.0957797 -0.051930707 -0.0036746908 -0.037253875 -0.16014993
0.005251928 -0.03166049 0.010692986 0.054269213 0.054147314 -0.1322918 0.07909897 0.12610948
-0.10335994 0.014070615 -0.028128814 0.13567346 0.040636487 0.14742155 -0.010004025 0.14252098
0.041599866 0.083116025 0.0016557893 -0.10961744 -0.064993545 0.013330986 0.059574515 -0.08839676
0.083889805 0.14879599 0.044106893 -0.12007353 -0.009292795 0.1348199 0.027169947 0.16913117
-0.056392398 0.033515807 -0.07175344 0.09751197 0.09179436 -0.05693545 0.15786704 0.015472324
-0.03555791 -0.167401 -0.36004922 -0.7247117 0.059364207 -0.082423605 -0.031883057 -0.1164081
-0.86245537 0.017413314 -0.20580947 0.071678475 0.041814454 -0.02239801 0.03558871 -0.0015562967
0.1411437 -0.09988729 -0.124704085 -0.04015587 0.07630277 -0.011683517 -0.13561979 -0.0072785863
0.24622974 0.169631 0.10545025 -0.059966277 -0.19795632 -0.3476606 0.15292184 0.10844848
-0.10294218 0.06374995 0.17340153 -0.07519861 0.17992201 0.035554286 -0.25384867 0.027038118
-0.015422189 0.078664064 0.14420786 -0.038092293 -0.09915685 -0.4335561 0.031113321 -0.010076124
0.16532366 -0.49762145 -0.19599408 -0.024128402 0.02755971 0.025786838 0.069133505 0.04815264
0.098266535 -0.4956433 -0.02783183 -0.3931255 0.14267588 -0.057134468 0.012467599 0.15417916
0.07001495 0.03374901 0.060582656 -0.017227141 0.025193764 0.08630536 0.023732483 0.12045405
0.06170805 0.03333213 0.061621513 0.07338779 0.12130581 0.08564301 0.10677985 -0.09798973
-0.101790324 0.049487185 0.07988499 0.12910642 0.076816835 -0.06925205 -0.06585336 -0.011601269
-0.062488034 0.044831414 0.034045562 0.08167559 -0.03790981 -0.0032335452 -0.005142481 -0.062322065
-0.015240716 -0.08236667 -0.06409226 0.07383154 -0.040810786 -0.031502828 0.12949222 0.03998019
-0.040268026 -0.084398046 -0.055230867 -0.039395258 -0.081266016 0.052492734 0.029492943 0.028946884
-0.04587067 0.116745114 0.018458532 0.0061459253 0.12125149 -0.07849744 -0.064866446 -0.0417349
-0.103163935 -0.028125698 0.07681285 0.058042977 -0.065936714 -0.058905993 -0.007105285 -0.01385717

Network_stack.1.0.gru.weight_ih_l0 f4 [192, 2]
00000000: 03eb ed3b 0a3a fabd 0533 b63d 47b2 1dbd
00000010: 9229 61bd 7798 003e 40c9 25bd e9c7 f93b
00000020: ba30 713c c43f bbbd 79e4 8b3d fdaf 8c3c
00000030: 217b 8dbb 5466 dc3b bfb9 41bd 0a54 b73d
00000040: b4bc 92bc 25fe d9bd b838 1c3d ef71 4ebc
00000050: 604e 113d be27 afbd 365c afbd b027 07be
00000060: 2d2c 0ebe 30d7 8e3d c8b9 bbbd 3894 ff3d
00000070: a890 92bd 7fd7 2d3e d429 9ebd 9a90 bf3d
00000080: 21bf 5c3d c551 573d 0e1a d23d 73b4 823d
00000090: e85c e33d aaa8 52be 61c1 81bd 181d 9ebd
000000a0: c16d 63bd aa51 a2bd 258a de3d ba6e c43d
000000b0: 0ce2 0d3e bb2f 0c3e a4b1 4dbc b0f1 aebd
000000c0: c9f6 b93d eb97 7fbd 50ef 12bb 767b df3c
000000d0: 8f72 b8bd 2807 113e 254a f4bd e25d 903c
000000e0: 4491 dbbd c978 813d b23b 86bc e139 283d
000000f0: 5e98 22bb 15ad 4f3d e2d3 32bd 6cdf d13d
00000100: 6512 1cbe 4f6d 393d c6c0 983d 71d6 223d
00000110: ed66 cf3d a940 5abc 33d8 32bd 8fe6 37bb
00000120: 2e25 eb3d 3513 f33d 320e 4ebd 34e6 c43d
00000130: 9899 ed3c 54a1 073d 041a 8c3c 2091 26bd
00000140: 9671 eabd aebf 77bd e189 893d 6844 e83b
00000150: 3db7 563d 3c3e c5bd 78ea 84bd bcf8 c23d
00000160: 5a77 c83d f055 96bd b0c6 37bc 9ba9 cd3d
00000170: 16b2 4b3d 760f 22be bd53 82bd eb28 53bd
00000180: 244d b9ba 1812 1fbd e03a c2bd b1eb 1c3d
00000190: 75fe 8a3d 34b1 013e 0f00 a5bd 7c90 9b3d
000001a0: 7920 f73c 5071 8fbd d3bb 84bc f92d 8c3d
000001b0: 1e9f 993d 19f2 8d3d 5d85 4e3d 8a2b 953d
000001c0: a66c 8a3d 509a 8bbd 2980 42bd ef55 393d
000001d0: 13fa a13c 8270 80bd 8d42 6b3d ba83 8e3d
000001e0: bd16 0b3e a3ca ac3c f3d3 b23a 1b31 bd3d
000001f0: 44a4 11bd 5012 b53d aa89 333d f3c0 b0bb
00000200: bf84 c73d aec2 193e 4b81 adbe b73a 31bd
00000210: 40ee c1bd d955 923c 753e 76be ad3b cbbd
00000220: 1ffd c0bd 075a acbd 8cb1 59bc f13a 503e
00000230: ba24 70bd 1abf 2c3d 4711 33bf 8e2a fcbe
00000240: 5c8d 5cbd 066c 5c3d 013b f23d bb9e c53d
00000250: f679 883e 66dd 313e 8773 63bf 1535 c1be
00000260: d8a5 1c3e f9d0 893e d25a e9bd 8845 05be
00000270: cf68 72be 7767 04be a14a b53d aefc c13d
00000280: be9a bf3d 6cc7 1c3e d787 3dbe 0173 153c
00000290: b95f 6ebf 99b6 17bf 7618 063e a629 b33d
000002a0: 74bc b23d fcdf 4abc 75f3 883e a74f 233e
000002b0: 7e29 43be 53e1 1abd b9d4 19be a361 c83c
000002c0: 95d0 29be 1599 963d 3478 b8bc 39a3 f93d
000002d0: 3be1 9abc 2098 c53d 9b51 e2bd b922 7dbd
000002e0: e17d 65be 0766 cdbd be20 19bf cf08 9ebe
000002f0: 6327 903e b082 313e ea29 b3be 323d 23bd
00000300: 4a89 3c3e 4b59 713e 04af 4dbe 2617 f0bd
00000310: e77e 12be 699c 22be c050 fc3d cd3c 493e
00000320: 60ed d83d 9e55 d03d 9567 04be eb91 bdbd
00000330: 3a0e 5abe ba46 abbc c066 6dbe bac1 943d
00000340: ed2e 77bd 8eef 87be f3ca 443e bc81 033e
00000350: 2c9d 54be 3cdd 45be ac68 003e 87d6 d93d
00000360: aead 29bf 9241 03be 1ee5 8ebc ebd3 12bd
00000370: 69ae 54be 7ca7 2dbe 569f 00be 67cc 98be
00000380: 2ff6 abbd 862b 52bc 8085 5d3d 6b31 31be
00000390: 9642 8cbd a691 dfbc f1c9 a63d 6005 553e
000003a0: b1b4 cabd 9c57 72be 0195 863e 8312 e63e
000003b0: 20d9 efbd a7ae e23d 23f7 0cbd 62dc a9bd
000003c0: 4f72 12bd 6ea6 cbbc bfcc a8be 2c79 acbe
000003d0: 49a8 103e 7639 e63d 64a0 80bf 8b1e dabe
000003e0: 8630 8abe 28c6 783d b57b 0abe 001d d93d
000003f0: f3de 67bd a8df c63d 3aa2 9fbd 1d31 87bd
0.0072606816 -0.12218101 0.0889645 -0.038500097 -0.054971285 0.1255816 -0.04047513 0.007622708
0.01472109 -0.09143022 0.06830687 0.017173762 -0.0043176566 0.0067260657 -0.047296282 0.08951576
-0.017912246 -0.10644177 0.03814003 -0.012600406 0.035475135 -0.08552502 -0.0856251 -0.13198733
-0.13884039 0.069746375 -0.09166294 0.12479442 -0.07156497 0.16976736 -0.07722822 0.093537524
0.053893212 0.052568216 0.10258876 0.06382074 0.11101705 -0.20572153 -0.06335712 -0.07720393
-0.05552459 -0.079257324 0.10866193 0.09591432 0.13855761 0.13690083 -0.01255456 -0.08542192
0.09080274 -0.06240074 -0.0022420473 0.02728055 -0.09006225 0.14162886 -0.119282044 0.017622892
-0.107210666 0.06321866 -0.016385887 0.041070823 -0.0024810056 0.050702173 -0.0436591 0.102476925
-0.15241392 0.04527026 0.074586436 0.03975529 0.101270534 -0.01332108 -0.043663215 -0.0028061008
0.11481701 0.11868898 -0.050306506 0.0961422 0.029003903 0.03311284 0.017102249 -0.040665746
-0.11447446 -0.060485534 0.067157514 0.007088233 0.052420843 -0.09631011 -0.06490034 0.095200986
0.097883895 -0.0734061 -0.011216804 0.10042115 0.049730383 -0.1582621 -0.06363628 -0.051552694
-0.001413737 -0.038835615 -0.09483886 0.03831071 0.06786815 0.12665254 -0.08056652 0.075959176
0.030166851 -0.070040345 -0.016202843 0.06844706 0.07501052 0.06930942 0.050420154 0.07283695
0.06759004 -0.06816542 -0.047485504 0.04524797 0.019772565 -0.06271459 0.057436515 0.069587186
0.13582893 0.021092718 0.0013643488 0.09237882 -0.035557047 0.088413835 0.04383246 -0.005394095
0.09742116 0.1501567 -0.33887705 -0.043268885 -0.09469271 0.017863201 -0.24047263 -0.099234916
-0.09423279 -0.08415609 -0.013286959 0.20334984 -0.058628775 0.042174436 -0.6994824 -0.49251217
-0.05384575 0.053813957 0.1182766 0.09649416 0.2665555 0.17369613 -0.88848156 -0.3773581
0.1529764 0.26917246 -0.11394276 -0.13014805 -0.23672794 -0.12930094 0.08852125 0.09472023
0.093556866 0.15310448 -0.1850885 0.009121657 -0.9311481 -0.59262997 0.13095269 0.08748178
0.08727351 -0.012382504 0.26748243 0.15948354 -0.19058797 -0.037812542 -0.15022554 0.02446062
-0.16583474 0.07353417 -0.022518255 0.121893354 -0.018906226 0.09648156 -0.11050721 -0.061800692
-0.224113 -0.10029226 -0.59815586 -0.30866095 0.2815505 0.1733501 -0.34992915 -0.039853282
0.18411747 0.23569219 -0.20086294 -0.11723165 -0.14306222 -0.15879978 0.12320089 0.196521
0.10592151 0.1017258 -0.12930138 -0.09256347 -0.2129449 -0.020907748 -0.23183727 0.07263513
-0.060347486 -0.26549953 0.19218044 0.12842458 -0.20763081 -0.19322675 0.12539929 0.10636621
-0.6628064 -0.12817982 -0.017443236 -0.035846632 -0.20769657 -0.16958421 -0.12560782 -0.29843447
-0.08396565 -0.01282776 0.054082394 -0.17304008 -0.06848638 -0.02729113 0.08143986 0.20802832
-0.098977454 -0.23666233 0.26285556 0.44935998 -0.11711335 0.110684685 -0.034415375 -0.08293988
-0.035753544 -0.024859633 -0.3296871 -0.33686197 0.14126696 0.112414286 -1.0048947 -0.42601427
-0.26990145 0.06073585 -0.13523753 0.106012344 -0.056609105 0.09710628 -0.07794614 -0.066011645
