models/model_uniform_region_Noise_0-0.3.0.6-0.9_multiple_Agents15cbed7f.pth (torch, 87474 bytes, 18 tensors)

Network_stack.0.0.gru.weight_ih_l0 f4 [96, 2]
0	0x3e1b8d5c	0.15190643
1	0x3e320243	0.17383675
2	0xbd718e14	-0.058973387
3	0x3d164727	0.03668895
4	0x3a4700f0	0.0007591387
5	0x3e2e5d73	0.17027836
6	0xbd0593fe	-0.03261184
7	0x3dd2327b	0.10263535
8	0xbd734462	-0.059391387
9	0xbd9ac6a6	-0.075574204
10	0xbb61acd8	-0.0034435298
11	0xbc9daba3	-0.019246882
12	0x3e555d73	0.2083643
13	0x3cfe2e1d	0.031027848
14	0xbe2aea35	-0.16690905
15	0xbe4c3970	-0.19943786
16	0xbdd0babe	-0.10191868
17	0xbe043ec2	-0.12914565
18	0xbe142074	-0.14465505
19	0x3e0c9439	0.13728417
20	0xbc26b803	-0.010175708
21	0x3dde64a4	0.108590394
22	0x3e516812	0.20449856
23	0xbd1a06b5	-0.037604053
24	0xbdbfd154	-0.09366098
25	0x3dcbebfa	0.09957118
26	0xbe3d5d65	-0.18492658
27	0xbe2d3ac0	-0.16916943
28	0xbc320737	-0.010865978
29	0xbe003eed	-0.12524004
30	0xbe32dcae	-0.17466995
31	0xbcae6ba7	-0.021291567
32	0xbdb5a72a	-0.08869775
33	0xbd8499d4	-0.06474653
34	0xbd549743	-0.051902067
35	0x3e073005	0.13201912
36	0x3ce4cc5f	0.027929483
37	0x3c89b948	0.016811982
38	0x3e07bb21	0.13254978
39	0xbe0613fd	-0.13093562
40	0x3e38bee5	0.1804157
41	0x3c020aaf	0.0079371175
42	0x3e193471	0.14961411
43	0x3cbe765c	0.023249798
44	0xbc43d812	-0.011953371
45	0x3dcdbe0c	0.10046014
46	0x3c607153	0.013698894
47	0x3d05759b	0.03258286
48	0x3e634fbf	0.2219839
49	0x3d47ef64	0.048812285
50	0x3ddfdc01	0.10930634
51	0x3cacc9db	0.021092346
52	0xbcc3e9a8	-0.023915127
53	0xbd19a2a2	-0.037508614
54	0xbe62aa73	-0.22135334
55	0x3dc738e0	0.09727645
56	0xbe532484	-0.20619398
57	0x3d89ead7	0.06734245
58	0xbcf5d5b1	-0.030009123
59	0x3cd7b450	0.026331097
60	0xbd9f6415	-0.07782761
61	0x3cec502c	0.028846823
62	0xbc94a11c	-0.01814323
63	0xbd00ff30	-0.031493366
64	0xbd8120ff	-0.06305122
65	0x3bff20fd	0.007785915
66	0x3e11b243	0.14228158
67	0xbe2ca1ee	-0.16858646
68	0x3e28e6fb	0.16494362
69	0x3d80c12d	0.06286845
70	0xbd746169	-0.05966321
71	0xbe80043c	-0.2500323
72	0xbe3cfe10	-0.18456292
73	0xbe896fcf	-0.26843116
74	0xbe7574d0	-0.23970342
75	0x3d340531	0.043950263
76	0xbe2d6eaf	-0.16936754
77	0xbe899d29	-0.26877716
78	0x3daf5681	0.08561421
79	0xbd106fdc	-0.035262927
80	0x3cdca8c3	0.02693594
81	0x3cc37b24	0.023862429
82	0xbc57460f	-0.013139262
83	0xbe4f224a	-0.20227924
84	0x3dbb5752	0.091475144
85	0xbe2b72bd	-0.16742988
86	0xbd65616a	-0.056001104
87	0x3cde2c18	0.027120635
88	0xbc9e407b	-0.019317856
89	0xbd72a5a1	-0.059239987
90	0xbe5c7aa4	-0.21531159
91	0xbe491180	-0.19635582
92	0xbe19e953	-0.15030412
93	0xbdab76ea	-0.083722904
94	0xbe535175	-0.20636542
95	0xbe1dd7d2	-0.1541436
96	0xbda34511	-0.07972158
97	0x3ce7f953	0.02831713
98	0xbdf69310	-0.12039769
99	0x3d88b277	0.066746645
100	0xbd0302c1	-0.03198505
101	0xbe13d23d	-0.14435668
102	0xbd9e62a5	-0.07733659
103	0xbd0401f2	-0.032228418
104	0x3d9bf93a	0.076158956
105	0xbe5f4add	-0.21805902
106	0xbe8118f3	-0.25214347
107	0xbda7c368	-0.08191568
108	0xbe162e88	-0.14666188
109	0xbda01c11	-0.07817853
110	0xbe367869	-0.1781937
111	0x3d8d6473	0.06903925
112	0xbe11e316	-0.14246783
113	0x3cb34144	0.021881707
114	0xbdc19512	-0.09452261
115	0x3dd6d2d4	0.10489431
116	0x3cbd36ac	0.023097359
117	0xbce03aec	-0.027371846
118	0xbd26fe69	-0.04076997
119	0xbcb6b683	-0.022303825
120	0xbc0ae953	-0.00847848
121	0xbe7310bf	-0.23736857
122	0xbe3de6a9	-0.18545021
123	0xbe2dfd77	-0.1699122
124	0xbd81ff0d	-0.06347475
125	0xbd64276c	-0.055701658
126	0xbe262e77	-0.16228662
127	0xbe342bea	-0.17594877
128	0xbe4c0cba	-0.1992673
129	0x3e032ced	0.12810107
130	0xbc64002b	-0.013916056
131	0x3dabeb02	0.083944336
132	0x3ddd3855	0.1080176
133	0x3e130f40	0.14361286
134	0xbdbaa61d	-0.09113715
135	0xbd8b5981	-0.06804181
136	0xbe028255	-0.1274503
137	0x3cb59ef7	0.022170527
138	0xbdd9cbfa	-0.106346086
139	0x3dfadb76	0.1224889
140	0x3e28d6cc	0.16488189
141	0xbdb6a093	-0.08917346
142	0x3e765534	0.2405594
143	0xbd8a63fa	-0.0675735
144	0x3e6cc28d	0.2312109
145	0xbbb56e3f	-0.005536824
146	0xbe1ac3f1	-0.15113808
147	0x3d7a6654	0.061132744
148	0x3e539659	0.20662822
149	0xbdaf785a	-0.08567877
150	0x3e412a63	0.18863826
151	0x3e17998a	0.14804664
152	0x3e66bdf0	0.22533393
153	0x3dc0f7c5	0.09422258
154	0x3e12c45f	0.14332722
155	0x3e2658fb	0.16244881
156	0xbe3f2e24	-0.18669945
157	0x3dd26c96	0.102746174
158	0x3e050d7c	0.12993425
159	0x3c69b7df	0.01426503
160	0xbe5ac453	-0.21363954
161	0xbe047c07	-0.12937938
162	0x3d0667b6	0.03281375
163	0x3c37750a	0.011197338
164	0x3ddcd959	0.10783643
165	0x3e2344a7	0.15944158
166	0xbe7647ef	-0.24050878
167	0xbd4760d1	-0.048676316
168	0xbe42ad2c	-0.19011372
169	0x3e00807a	0.1254901
170	0xbdefc2f8	-0.11707109
171	0xbdf81481	-0.12113286
172	0x3e0282cd	0.12745209
173	0x3c872b5e	0.016500171
174	0xbd1656e6	-0.036703967
175	0xbe1fad7f	-0.15593527
176	0x3d45bd9d	0.048276532
177	0xbe3292cf	-0.17438816
178	0x3c97e8d9	0.018543648
179	0xbe134247	-0.14380752
180	0xbe0c03b8	-0.13673294
181	0xbe09e71f	-0.13467072
182	0xbe11946a	-0.14216772
183	0x3d5a22ff	0.05325603
184	0xbdd38096	-0.1032726
185	0x3d6a3db9	0.05718777
186	0xbdc12e5b	-0.0943267
187	0x3d53c98f	0.051705893
188	0xbdd2a500	-0.102853775
189	0xbd53d6e0	-0.051718593
190	0xbe2cde7a	-0.16881743
191	0x3d9e002a	0.07714875

Network_stack.0.0.gru.weight_hh_l0 f4 [96, 32]
0	0x3da30601	0.079601295
1	0x3d8e19a2	0.06938483
2	0xbe194d27	-0.14970838
3	0xbd4f5add	-0.050623763
4	0xbe560b5e	-0.20902774
5	0xbe04f422	-0.12983754
6	0x3dd4eafa	0.10396381
7	0xbdd754d4	-0.105142266
8	0xbd81d11c	-0.063387126
9	0xbdcb31ba	-0.09921594
10	0x3e366294	0.17811042
11	0xbe1556ec	-0.1458394
12	0xbe28c1ce	-0.1648018
13	0xbc04948f	-0.00809206
14	0xbe2f1a38	-0.17099845
15	0x3e415063	0.18878321
16	0xbcb58016	-0.022155803
17	0x3dc64715	0.096815266
18	0xbd6785b6	-0.056524
19	0xbc6a2d8e	-0.014293088
20	0x3df3f4ab	0.11911901
21	0xbdd39ea0	-0.1033299
22	0xbc2e8385	-0.010651474
23	0xbdc8b249	-0.0979963
24	0x3d4895d2	0.048971005
25	0xbc33b053	-0.010967332
26	0xbcdcaa4b	-0.02693667
27	0xbd377091	-0.044785086
28	0xbd0c53ef	-0.034259733
29	0x3ced1b96	0.028943818
30	0xbd89cdf4	-0.067287356
31	0xbd0e829e	-0.034792535
32	0xbe1ba4df	-0.15199612
33	0xbd633d3e	-0.055478327
34	0x3dd15fa6	0.102233216
35	0x3d14e3c2	0.03635002
36	0xbe0c12e8	-0.13679087
37	0xbcffc1cf	-0.031220345
38	0x3e364ddc	0.17803138
39	0x3e1d7e02	0.153801
40	0xbdd11b3e	-0.10210274
41	0x3a819902	0.0009887519
42	0x3dd4a088	0.103821814
43	0xbb5fd274	-0.003415254
44	0xbe0b655c	-0.13612884
45	0x3e0b50b8	0.1360501
46	0x3d87e9a2	0.06636359
47	0x3e35d397	0.17756496
48	0xbdb6dbfc	-0.089286774
49	0x3e1f7b20	0.15574312
50	0xbd929b92	-0.07158579
51	0xbd200406	-0.039066337
52	0x3dd39397	0.10330885
53	0x3dd9bd38	0.10631794
54	0xbdc927e1	-0.098220594
55	0xbe0cddc2	-0.13756469
56	0xbb25e83d	-0.0025315427
57	0x3d643d85	0.055722732
58	0x3db5fe92	0.08886446
59	0xbd94736c	-0.072485775
60	0x3dc5dbdd	0.09661076
61	0x3dc71791	0.09721292
62	0x3dad62f1	0.08466137
63	0x3dd3f07a	0.10348602
64	0xbdd0b519	-0.10190792
65	0x3e3f0d50	0.18657422
66	0x3e33ee78	0.17571437
67	0xbe596ef8	-0.21233737
68	0x3e85c093	0.26123485
69	0xbdf1a113	-0.117983006
70	0xbe3d0e7f	-0.18462561
71	0x3e160f80	0.1465435
72	0xbe29a3bb	-0.16566364
73	0x3cc9bb2a	0.02462538
74	0xbe2af243	-0.16693978
75	0xbd80e5f8	-0.06293863
76	0x3e4e2d8c	0.20134562
77	0x3ce32524	0.027727671
78	0x3ca87fdf	0.020568786
79	0x38c9c1a0	9.620492e-05
80	0xbd3e50af	-0.046463665
81	0xbd71f632	-0.05907268
82	0xbc3e19cf	-0.011602833
83	0x3d8b043c	0.06787917
84	0x3e7c39ff	0.24631499
85	0xbe20a794	-0.15688926
86	0x3deec8ce	0.11659394
87	0x3cc37618	0.023860022
88	0xbc2d69b6	-0.0105842855
89	0x3d0df214	0.03465469
90	0xbd0a2311	-0.03372485
91	0xbdbd06a1	-0.0922978
92	0x3e7d95c6	0.24764165
93	0x3df581b8	0.119876325
94	0x3d596f7a	0.053084828
95	0xbdbfc95e	-0.093645796
96	0xbd313169	-0.04326001
97	0xbe1c8d30	-0.15288234
98	0x3cbc01e9	0.02295013
99	0x3c7d3e31	0.015456722
100	0xbd13504e	-0.035965256
101	0xbdc7e818	-0.09761065
102	0x3bf86ae4	0.0075811017
103	0x3dbc55f9	0.091960855
104	0x3d8bb8a1	0.068223245
105	0xbd424084	-0.04742481
106	0xbc4da4f1	-0.012551532
107	0xbdb7c7b9	-0.08973641
108	0xbe0a258f	-0.1349089
109	0xbe1a10e7	-0.1504551
110	0xbd85d6da	-0.0653512
111	0xbcaad163	-0.020851796
112	0xbdf997f5	-0.12187187
113	0x3e00ee08	0.12590802
114	0x3d89513c	0.06704947
115	0xbe12b726	-0.14327678
116	0x3d8b70fd	0.0680866
117	0xbd4cf3a1	-0.05003703
118	0xbe45c552	-0.19313553
119	0xbcc2c48e	-0.023775365
120	0x3db235c5	0.08701662
121	0x3cdb17ca	0.026744742
122	0xbdc2b453	-0.0950705
123	0x3de468c9	0.11152799
124	0x3e5c731e	0.21528289
125	0xbe0ee6a0	-0.13955164
126	0x3d8c980c	0.06864938
127	0xbddb3ea5	-0.10705308
128	0xbd544d7f	-0.05183172
129	0xbe10cdaa	-0.14140955
130	0xbe0575fc	-0.13033289
131	0x3d631082	0.055435665
132	0x3e230b55	0.15922292
133	0xbc216b03	-0.009852174
134	0x3dbb7b53	0.091543816
135	0x3e2c74cf	0.16841434
136	0x3e304505	0.17213829
137	0x3da99fc9	0.0828243
138	0xbd523ae2	-0.051325686
139	0x3d49925b	0.04921184
140	0xbcb8d270	-0.022561282
141	0xbe21dba4	-0.15806442
142	0x3d8a2b17	0.067465
143	0x3d88961b	0.06669255
144	0xbd98b9a6	-0.07457285
145	0x3c9fc4e5	0.019503066
146	0x3e193102	0.14960101
147	0x3e186f9f	0.1488633
148	0xbb3ffc13	-0.0029294535
149	0xbda40e55	-0.08010546
150	0xbdafeaad	-0.08589683
151	0xbe180e27	-0.14849149
152	0xbcfaf5cf	-0.030634789
153	0xbe474bfb	-0.19462578
154	0xbe054b88	-0.13017094
155	0x3e01561e	0.12630507
156	0xbb9e1bd6	-0.0048250956
157	0x3bbd5d65	0.0057789558
158	0x3e09ee1c	0.13469738
159	0x3d04e9e5	0.03244962
160	0x3d0bc5f5	0.034124333
161	0xbe09437a	-0.13404647
162	0x3cddb991	0.027066024
163	0x3dcf0c03	0.10109713
164	0xbe2bb70c	-0.16769046
165	0xbb423bd0	-0.0029637702
166	0xbd4645c4	-0.048406377
167	0xbdb428e7	-0.08796864
168	0x3e40ab1f	0.18815278
169	0xbca94211	-0.020661386
170	0xbe132583	-0.14369778
171	0x3e15f182	0.14642909
172	0xbcd05d04	-0.025434978
173	0x3e47772e	0.19479057
174	0xbe1266b0	-0.14296985
175	0xbdd00766	-0.10157661
176	0x3d042177	0.032258477
177	0x3e0590d7	0.13043533
178	0xbcc6b004	-0.024253853
179	0xb93f0367	-0.00018216447
180	0x3ca4f6c4	0.020137198
181	0x3de7b54f	0.11313879
182	0xbcf3e007	-0.02976991
183	0x3e09cfcf	0.13458179
184	0xbe4583be	-0.19288537
185	0x3cab12e3	0.02088303
186	0xbe1f1acc	-0.15537566
187	0xbcf7d91e	-0.030254897
188	0xbdc8d117	-0.09805506
189	0x3da6be72	0.08141793
190	0xbc00a859	-0.007852637
191	0xbe29d977	-0.16586863
192	0x3dc5e483	0.09662726
193	0xbd5276a0	-0.05138266
194	0x3e33f794	0.17574912
195	0x3e0e2cd8	0.13884294
196	0x3c6177a0	0.013761431
197	0xbdc1a625	-0.09455518
198	0x3dac2109	0.084047385
199	0xbe15a84e	-0.14614984
200	0x3d276618	0.04086885
201	0x3e20c8a0	0.15701532
202	0x3d7f950e	0.06239801
203	0xbe05087b	-0.12991516
204	0xbce1d82c	-0.0275689
205	0x3e1ef8eb	0.15524642
206	0xbd2371ab	-0.039903324
207	0x3dbd7bc6	0.092521235
208	0xbd9e8f82	-0.07742216
209	0xbc6b6e1f	-0.014369517
210	0x3e1673ff	0.14692686
211	0xbbd64d72	-0.006539994
212	0x3da1922e	0.0788921
213	0x3e23ce16	0.15996584
214	0xbd22f33e	-0.039782755
215	0x3e0de2b3	0.1385601
216	0x3da04e70	0.07827461
217	0xbe0b8cf6	-0.13627991
218	0x3deb1317	0.114782505
219	0xbe172116	-0.14758715
220	0xbd8c187b	-0.06840607
221	0x3e0304f4	0.12794858
222	0x3d05d36a	0.032672323
223	0xbc12a29e	-0.008949904
224	0x3d9e1b57	0.077200584
225	0xbddd6478	-0.108101785
226	0xbdaace92	-0.083401814
227	0x3c13133a	0.008976752
228	0xbdc950b0	-0.09829843
229	0x3dbd7bcc	0.09252128
230	0x3c97994c	0.018505715
231	0x3d9c58b2	0.07634105
232	0xbe5c1e7b	-0.21496002
233	0x3e44287e	0.19156072
234	0xbd8710ed	-0.06595025
235	0x3d468b18	0.048472494
236	0x3c5424a3	0.012948188
237	0xbd5c7513	-0.05382259
238	0x3dcc39da	0.09971972
239	0x3d755d9a	0.05990372
240	0xbe5f21ce	-0.21790239
241	0x3db174e0	0.0866487
242	0xbe68630f	-0.22694038
243	0x3dd049b1	0.101703055
244	0xbc82a3cb	-0.015947243
245	0x3e48bf5e	0.19604251
246	0xbe6bf7fe	-0.2304382
247	0x3e3b5bed	0.18296786
248	0xbc4f8245	-0.012665336
249	0x3e1036eb	0.1408345
250	0x3de86bd9	0.11348695
251	0xbe2d7813	-0.16940336
252	0x3c1e85f8	0.009675495
253	0x3c2041f9	0.009781354
254	0x3e85c1b9	0.2612436
255	0xbd636e41	-0.05552507

Network_stack.0.0.gru.bias_ih_l0 f4 [96]
0	0x3da557f6	0.08073418
1	0xbd952a63	-0.07283475
2	0x3e3ef5e4	0.18648487
3	0x3e050624	0.12990624
4	0x3e2befff	0.1679077
5	0x3cf55a1d	0.029950196
6	0xbe131278	-0.14362514
7	0xbe644b92	-0.22294453
8	0x3d828fab	0.06375059
9	0x3dcd62fa	0.10028644
10	0x3c86ba92	0.016446386
11	0xbc33db81	-0.010977627
12	0x3db37e2d	0.087643005
13	0xbcb002cb	-0.021485707
14	0x3e2707eb	0.16311614
15	0xb9531f5a	-0.00020134207
16	0xbd587a18	-0.052850813
17	0x3e284166	0.16431198
18	0xbe31fd9c	-0.173819
19	0xbcafd967	-0.02146597
20	0x3cbbc7bc	0.02292239
21	0xbdebdd1b	-0.11516782
22	0x3c4e2086	0.012580996
23	0x3d059ac8	0.032618314
24	0x3def2a18	0.116779506
25	0x3de20546	0.11036162
26	0x3e04eea0	0.12981653
27	0xbcef1776	-0.029185992
28	0x3deb726d	0.11496434
29	0x3d2061c8	0.03915575
30	0x3e1f228f	0.15540527
31	0x3db88563	0.090098165
32	0xbdf8f306	-0.12155728
33	0x3dc29230	0.09500539
34	0x3dc30976	0.09523289
35	0xbe2c0656	-0.16799292
36	0xbdb46053	-0.08807435
37	0x3cc22c94	0.023702897
38	0xbe08fc33	-0.13377456
39	0xbe66cd05	-0.22539146
40	0x3cdd3a48	0.02700533
41	0x3c227bbd	0.009917197
42	0xbd50403d	-0.050842512
43	0xbe8b27c4	-0.27178776
44	0xbe405640	-0.18782902
45	0x3d6849f4	0.056711152
46	0xbdc863b7	-0.09784644
47	0xbc14cdc5	-0.009082262
48	0xbe75aa52	-0.23990753
49	0x3e0f2401	0.13978578
50	0x3dae09ad	0.08497939
51	0xbe717acf	-0.23582004
52	0xbe8d03bb	-0.2754191
53	0xbe2e8ee3	-0.17046694
54	0xbe545ca2	-0.20738462
55	0xbe189f55	-0.1490453
56	0xbd4d5fe4	-0.050140277
57	0xbe4122fa	-0.18860999
58	0x3d16f81f	0.03685772
59	0xbd2b2b1d	-0.041789163
60	0xbdae87ff	-0.08522033
61	0xbdc725e6	-0.097240254
62	0xbdd2da68	-0.10295564
63	0xbc57a2c2	-0.013161363
64	0x3cc38c2a	0.023870546
65	0x3e1803d4	0.1484521
66	0x3dd95229	0.10611374
67	0xbe325fec	-0.17419404
68	0xbc487b28	-0.012236394
69	0xbdd87b9b	-0.10570451
70	0xbd9ce523	-0.07660892
71	0x3d7d6d2c	0.061871693
72	0x3d53654a	0.05161027
73	0xbda34160	-0.07971454
74	0x3e19120f	0.14948295
75	0xbd0ffa4c	-0.03515081
76	0x3e0a6572	0.13515261
77	0xbd62d731	-0.055381004
78	0xbdab158b	-0.08353718
79	0x3e01dcb6	0.12681851
80	0x3e304416	0.17213473
81	0x3da3a2b9	0.07990021
82	0xbdc0458c	-0.09388265
83	0xbe0a77a4	-0.13522202
84	0x3e13d329	0.1443602
85	0x3da175b9	0.07883782
86	0x3ddfe247	0.10931831
87	0xbc890c69	-0.01672955
88	0xbe0e1f71	-0.13879181
89	0xbe47b3ca	-0.19502178
90	0x3deb30c1	0.114839084
91	0x3dfb3d09	0.12267501
92	0xbde1e128	-0.11029273
93	0x3e548ac8	0.20756066
94	0xbe0a55db	-0.13509314
95	0xbdd5f512	-0.10447134

Network_stack.0.0.gru.bias_hh_l0 f4 [96]
0	0x3d7c8304	0.061648384
1	0x3dd2b936	0.102892324
2	0x3e15b9fe	0.14621732
3	0x3cea0b21	0.02856976
4	0x3dfc4bb9	0.123191305
5	0x3e228007	0.15869151
6	0xbd6013ad	-0.054706264
7	0xbdacf4d3	-0.08445134
8	0xbd981043	-0.07424977
9	0xbdb11364	-0.086462766
10	0x3bbd14e1	0.005770311
11	0x3e1e5976	0.15463814
12	0xbe128a15	-0.14310487
13	0x3d5b6eb1	0.05357236
14	0xbdc2502e	-0.09487949
15	0xbd64b2c0	-0.05583453
16	0x3d20f42a	0.039295353
17	0x3dd25d26	0.10271673
18	0x3e01b9d9	0.12668552
19	0xbdbcb3ae	-0.09213959
20	0x3ddca2de	0.10773252
21	0x3d8b4413	0.068000935
22	0xbc1d0eee	-0.009586079
23	0xbb934f1b	-0.004495514
24	0x3e610cdc	0.21977562
25	0x3e54c1c2	0.20777038
26	0xbdfc5868	-0.1232155
27	0x3d28c339	0.041201804
28	0x3ceb3ecc	0.028716467
29	0xbccfe3fb	-0.025377264
30	0x3d061018	0.032730192
31	0xbdcbf3e2	-0.09958626
32	0xbdfbb602	-0.122905746
33	0x3c0709d6	0.008242091
34	0xbcaaadcb	-0.020834824
35	0xbd5469b3	-0.051858615
36	0xbe3d63d1	-0.18495108
37	0x3d42c2e5	0.047549147
38	0x3d73db8c	0.059535548
39	0xbe4b4e13	-0.19854002
40	0xbda0ed32	-0.078577414
41	0xbce5d9f1	-0.028058024
42	0xbd6f17d8	-0.05837235
43	0xbd8d1150	-0.06888068
44	0xbb45e6ae	-0.003019731
45	0xbda81d80	-0.08208752
46	0xbe3bb200	-0.1832962
47	0xbdfe39d0	-0.124133706
48	0xbe54de66	-0.20787963
49	0x3de32fff	0.11093139
50	0x3dad01f3	0.084476374
51	0xbc7708ef	-0.0150778135
52	0x3d2a7463	0.0416149
53	0xbe5b67fe	-0.21426389
54	0xbd7311bc	-0.059343085
55	0xbe63dd63	-0.22252421
56	0xbdafe8a8	-0.085892975
57	0xbe216f99	-0.15765227
58	0xbe8d06f9	-0.27544382
59	0xbe028f9f	-0.127501
60	0x3b34d922	0.0027595242
61	0x3ce31cec	0.027723752
62	0xbd3347cf	-0.043769654
63	0xbe1c9b60	-0.15293646
64	0xbd8b31c9	-0.06796605
65	0xbcd107a6	-0.025516342
66	0x3e3263e0	0.17420912
67	0xbce89421	-0.028390946
68	0x3e251fe6	0.1612545
69	0xbe3c8b70	-0.18412566
70	0xbcc8fbce	-0.024534132
71	0x3d257610	0.040395796
72	0xbe1aeaef	-0.15128683
73	0xb9ec658f	-0.00045089095
74	0xbe0fa444	-0.14027506
75	0x3c07209f	0.008247524
76	0xbe071340	-0.13190937
77	0x3c8d994c	0.017285012
78	0x3e07b6cb	0.13253324
79	0xbe1a80d0	-0.150882
80	0x3e482134	0.19543916
81	0x3e0fa81f	0.14028977
82	0x3e0ad5f2	0.13558176
83	0xbd657d8a	-0.056027927
84	0xbdb7ad67	-0.08968621
85	0xbdef1b64	-0.11675146
86	0xbdbd1f77	-0.09234517
87	0xbe163f86	-0.1467267
88	0xbd80f6f1	-0.062971
89	0xbe31c849	-0.17361559
90	0x3dbc8d5c	0.0920665
91	0x3e37be68	0.17943728
92	0x3e1d62fe	0.15369794
93	0x3cd3a799	0.025836753
94	0xbe0b1606	-0.1358262
95	0xbd6cbec2	-0.05779911

Network_stack.0.0.gru.weight_ih_l1 f4 [96, 32]
0	0xbdfc564b	-0.123211466
1	0xbd58de93	-0.05294664
2	0xbde76d48	-0.113001406
3	0x3db61c1e	0.08892082
4	0x3df19696	0.117963
5	0x3e131754	0.14364368
6	0xbe0c787f	-0.1371784
7	0xbe64cd5e	-0.22343966
8	0xbe082496	-0.13295206
9	0x3ce1acb8	0.027548179
10	0xbcc6f5d6	-0.024287146
11	0xbe599a3a	-0.21250239
12	0x3d83662e	0.064159736
13	0xbdfa38e8	-0.12217885
14	0x3e4d7073	0.20062427
15	0xbe08a6bc	-0.13344854
16	0x3e4c69d7	0.1996225
17	0x3dbd89f8	0.09254831
18	0x3db9517b	0.09048744
19	0x3e2ee151	0.17078139
20	0xbe12a696	-0.1432136
21	0xbdcd88ee	-0.10035883
22	0x3cc20d12	0.023687873
23	0xbd8d2351	-0.06891502
24	0xbe023b0e	-0.1271784
25	0x3dcc19de	0.09965871
26	0xbcc30552	-0.023806248
27	0xbcbf6e1c	-0.023367934
28	0xbd1c1869	-0.038109217
29	0xbc05a1f4	-0.008156288
30	0xbd955e86	-0.072934195
31	0x3e4c321f	0.19940995
32	0x3d83b8ac	0.06431708
33	0x3e472f11	0.19451548
34	0xbdf1e36e	-0.11810957
35	0xbdc53b40	-0.09630442
36	0x3e870072	0.26367527
37	0xbd808e2d	-0.06277118
38	0xbe36d5d5	-0.17855008
39	0xbcb93d78	-0.022612318
40	0xbe10a340	-0.14124775
41	0x3de6223a	0.11236997
42	0x3dbc409a	0.09192009
43	0xbe6ee2ad	-0.23328657
44	0xbe5a5bfb	-0.2132415
45	0x3d0ef6ee	0.03490346
46	0x3e85334a	0.26015693
47	0xbdb91016	-0.09036271
48	0x3e44f4df	0.19234036
49	0xbe01ef13	-0.12688856
50	0x3d0be33a	0.034152247
51	0x3d7b88bd	0.0614097
52	0x3d98418d	0.07434378
53	0x3e61a969	0.22037281
54	0xbe2ab08e	-0.16668913
55	0xbd8bd12e	-0.06827007
56	0x3e012939	0.12613381
57	0x3e0ce981	0.1376095
58	0x3d997a67	0.074940495
59	0xbc3ab4df	-0.011395662
60	0x3e2ea911	0.17056681
61	0x3d589bb4	0.052882865
62	0x3ca11a15	0.019665757
63	0x3dbc62ee	0.09198557
64	0x3cf853c2	0.030313376
65	0x3e04c594	0.12965995
66	0x3d713dcc	0.058896825
67	0x3e0bc337	0.13648687
68	0x3e097c7f	0.13426398
69	0xbe0ccb6d	-0.13749476
70	0xbb92065e	-0.0044563254
71	0xbdd8daa2	-0.10588576
72	0x3d49ef8d	0.04930072
73	0x3dc75751	0.09733451
74	0xbdca1011	-0.09866346
75	0x3e27df60	0.16393805
76	0x3dda0b0b	0.106466375
77	0x3dba5057	0.09097355
78	0xbe0176c3	-0.1264296
79	0xbd866e35	-0.06563989
80	0x3e29b2b8	0.16572082
81	0x3e50208f	0.2032492
82	0x3d8ab426	0.06772642
83	0x3e071097	0.13189922
84	0xbdd16104	-0.102235824
85	0xbdd6d412	-0.10489668
86	0x3d6ec79c	0.05829583
87	0x3d400ab2	0.0468852
88	0xbe018824	-0.1264959
89	0xbd555860	-0.052086234
90	0xbcd8c64a	-0.02646174
91	0xbe030012	-0.12792996
92	0x3da4a16b	0.080386005
93	0xbd97032b	-0.07373651
94	0xbe0332ca	-0.12812343
95	0x3da4c97a	0.08046241
96	0xbe037980	-0.12839317
97	0xbdd40e66	-0.10354309
98	0xbd188d7b	-0.0372443
99	0xbe1671f0	-0.14691901
100	0xbddea9aa	-0.108722046
101	0xbdcc81a6	-0.09985666
102	0x3bc999ae	0.0061523532
103	0xbbf22aac	-0.007390341
104	0xbdb1dfb3	-0.08685245
105	0xbe53d0c3	-0.20685105
106	0x3d5de1fe	0.0541706
107	0x3b9c3972	0.00476759
108	0x3e4c25c0	0.19936275
109	0x3e3af92c	0.18259114
110	0xb8935df0	-7.0270034e-05
111	0x3e71ed29	0.23625626
112	0x3dc81501	0.09769631
113	0x3cf2f820	0.02965933
114	0xbd7b3ce0	-0.06133735
115	0xbe1f68af	-0.15567277
116	0xbdfb167a	-0.122601464
117	0xbe70e12d	-0.23523398
118	0x3e16f535	0.14741977
119	0xbe6626ce	-0.2247574
120	0xbe7ef398	-0.24897611
121	0xbe7bf4cf	-0.24605106
122	0x3d1a1d0c	0.037625358
123	0x3c972aeb	0.018453082
124	0xbe16fa67	-0.14743958
125	0x3ddcc70a	0.10780151
126	0xbcde3580	-0.02712512
127	0xbddd6ce2	-0.108117834
128	0xbd7ecc2e	-0.06220644
129	0x3e286c8e	0.1644766
130	0x3e1b3d91	0.15160204
131	0x3d18e099	0.037323568
132	0xbe395003	-0.18096928
133	0xbc3d431a	-0.011551643
134	0x3e437222	0.19086507
135	0xbe02bd2c	-0.12767476
136	0xbe016b75	-0.12638648
137	0x3dc9dd20	0.09856629
138	0xbdfc0ce0	-0.12307143
139	0x3dc037f2	0.09385671
140	0x3d288c23	0.04114927
141	0x3d80f23a	0.06296201
142	0xbdd149e9	-0.10219175
143	0xbd44847c	-0.04797791
144	0xbd353822	-0.044242986
145	0xbe236c58	-0.15959299
146	0x3c860ad1	0.01636258
147	0xbe4a4803	-0.19754033
148	0x3db0f9f2	0.08641423
149	0x3bf8c489	0.007591788
150	0x3e157cad	0.14598341
151	0xbc42c42e	-0.011887593
152	0x3e1db7dc	0.15402168
153	0xbe206190	-0.15662217
154	0xbca4fd37	-0.020140273
155	0xbdb11023	-0.08645656
156	0xbde1c073	-0.11023035
157	0x3cb6071b	0.022220185
158	0xbe183572	-0.14864138
159	0xbe27578b	-0.16341989
160	0x3e7a798f	0.24460433
161	0xbd7bcf59	-0.06147704
162	0xbcb7ca5b	-0.022435358
163	0x3b7d4261	0.0038644301
164	0x3e3d69c0	0.18497372
165	0x3de55c7a	0.11199279
166	0xbe338b99	-0.17533721
167	0x3c8076c4	0.015681632
168	0x3d41e346	0.047335885
169	0x3e790a3a	0.24320307
170	0x3d864e00	0.06557846
171	0xbe34d445	-0.176591
172	0xbdc12da6	-0.09432535
173	0xbe85b67d	-0.2611579
174	0x3e3bbb87	0.18333255
175	0xbe550b99	-0.20805205
176	0x3de7faaf	0.11327111
177	0xbe1552eb	-0.14582412
178	0xbddf4824	-0.109024316
179	0x3c17af09	0.00925804
180	0x3e81907d	0.25305548
181	0xbb19d2d8	-0.002347162
182	0xbe525a2a	-0.20542207
183	0xbe16b4ae	-0.14717361
184	0x3daf711a	0.08566494
185	0x3dca3628	0.09873611
186	0x3e542f2c	0.2072112
187	0x3dd63ba7	0.104605965
188	0x3e435cd4	0.1907838
189	0x3c0e4ce6	0.008685326
190	0x3e26c2d9	0.16285266
191	0x3df7883a	0.1208653
192	0x3d6dde00	0.058073044
193	0x3e1cc20e	0.15308401
194	0xbdcba2e7	-0.099431805
195	0xbe1f184c	-0.15536612
196	0xbc8e59d8	-0.017376825
197	0xbdca55c7	-0.09879642
198	0xbc90b359	-0.017663645
199	0xbdbe47d8	-0.09291047
200	0x3d9aab0b	0.07552155
201	0x3e078842	0.13235572
202	0xbe23c513	-0.15993147
203	0xbde85c89	-0.11345775
204	0xbbf7767e	-0.007551967
205	0xbc8d7940	-0.01726973
206	0xbe42d86d	-0.19027872
207	0xbe22237f	-0.15833853
208	0xbe3c9832	-0.18417433
209	0xbd4d1b0e	-0.05007463
210	0x3dad20cc	0.08453521
211	0x3cd0a7de	0.02547067
212	0x3e1f5d8a	0.15563026
213	0xbdffe134	-0.12494126
214	0x3d01ed19	0.031720255
215	0xbe2d4495	-0.16920693
216	0xbdf36328	-0.11884147
217	0xbb726936	-0.003698898
218	0x3e073698	0.1320442
219	0xbe1497aa	-0.1451098
220	0x3e2cea66	0.16886291
221	0x3e1f2d9e	0.15544745
222	0x3da79df0	0.08184421
223	0x3d1cb6ff	0.038260456
224	0x3e1fc160	0.1560111
225	0x3c41bdd8	0.011825047
226	0xbdb0c364	-0.08631018
227	0x3e005a46	0.12534437
228	0xbc672c0e	-0.014109625
229	0x3dc290a0	0.09500241
230	0xbded6b35	-0.11592714
231	0xbe1bc087	-0.15210162
232	0xbe067f07	-0.13134395
233	0x3d9d9c26	0.076957986
234	0xbc76f9b8	-0.015074186
235	0xbe7896cd	-0.24276276
236	0x3bdb9451	0.0067010303
237	0x3cc82d83	0.024435764
238	0x3e0496b0	0.12948108
239	0xbe06ca41	-0.13163091
240	0x3d6d48c2	0.057930715
241	0x3e47da2a	0.19516817
242	0xbe2e03fa	-0.16993704
243	0xbda70738	-0.08155674
244	0xbc827940	-0.015926957
245	0x3e48543e	0.19563386
246	0xbe58452e	-0.2112014
247	0x3d393920	0.045220494
248	0xbd657df8	-0.056028336
249	0x3dace5e2	0.08442284
250	0x3d9537ed	0.072860576
251	0x3e0c8a2a	0.1372458
252	0x3c8191ce	0.015816595
253	0x3c17f13a	0.0092738215
254	0xbdb26f14	-0.08712593
255	0x3d983158	0.074312866

Network_stack.0.0.gru.weight_hh_l1 f4 [96, 32]
0	0xbce2642a	-0.027635653
1	0xbd1c4930	-0.038155735
2	0x3cab7b96	0.020932954
3	0x3dfdf2bd	0.12399814
4	0xbd1d560c	-0.03841214
5	0xbc7c048b	-0.0153819425
6	0x3da28ca0	0.07936978
7	0xbc95a4cd	-0.01826706
8	0x3e3f4cd4	0.18681651
9	0x3e146981	0.14493372
10	0xbad5420e	-0.0016270296
11	0x3e27d7e5	0.16390951
12	0xbba66b96	-0.005078743
13	0x3e18fe78	0.14940822
14	0x3e030fca	0.12798992
15	0xbdb4412b	-0.08801492
16	0xbe18dfc2	-0.14929107
17	0x3e0bdc34	0.1365822
18	0x3d8de22b	0.06927904
19	0x3cb895b2	0.022532318
20	0x3dd99872	0.1062478
21	0xbd333eb4	-0.04376097
22	0xbd8deb42	-0.069296375
23	0xbd3821e5	-0.0449542
24	0x3d18ad16	0.037274443
25	0x3ab624a5	0.0013896419
26	0xbe17c75c	-0.14822143
27	0xbe05de49	-0.13073076
28	0x3cc6e1dd	0.024277622
29	0xbe4645f6	-0.19362625
30	0x3d1cc4bf	0.03827357
31	0xbcf52592	-0.029925141
32	0xbe1b34b5	-0.15156825
33	0xbd866081	-0.065613754
34	0x3e04a354	0.1295293
35	0xbdd80e4b	-0.10549601
36	0x3c9832b6	0.018578868
37	0x3dd32dd7	0.10311478
38	0xbd390d09	-0.045178447
39	0xbd9e8bdb	-0.07741519
40	0xbe080304	-0.132824
41	0x3e1d3975	0.1535395
42	0xbdbeb1c8	-0.09311253
43	0x3cfcd2f5	0.03086231
44	0x3d1ae248	0.037813455
45	0x3e2b4c2b	0.16728275
46	0x3dd7a136	0.105287954
47	0x3e0210d5	0.12701733
48	0xbdd94f5e	-0.10610841
49	0x3e394c3f	0.18095492
50	0xbe5435fe	-0.20723721
51	0xbe3396a3	-0.17537932
52	0x3d4f1bca	0.05056361
53	0x3e31cd11	0.17363383
54	0x3ddbf448	0.10739952
55	0x3ccbe262	0.024888221
56	0x3d413f8c	0.047179744
57	0xbe166ce8	-0.14689982
58	0xbcf86d2a	-0.030325491
59	0xbe2d0cdb	-0.16899435
60	0xbd59ae34	-0.05314465
61	0x3e041a12	0.1290057
62	0xbda6d76c	-0.08146557
63	0xbd9ab5f0	-0.07554233
64	0x3bfc5c68	0.0077014454
65	0x3e11bbdc	0.14231819
66	0x3dc4e20e	0.09613429
67	0xbcccd0cc	-0.025001906
68	0x3c97cdf7	0.018530829
69	0xbd4f9363	-0.05067767
70	0x3dadcb24	0.084860116
71	0x3e2720a3	0.16321044
72	0xbe526448	-0.20546067
73	0xbdcdbb55	-0.100454964
74	0xbd0b1694	-0.03395708
75	0x3e3b9575	0.18318732
76	0xbd3f5672	-0.0467133
77	0x3c9fbc08	0.01949884
78	0xbca9e6c1	-0.020739915
79	0x3dff5175	0.124667086
80	0x3d7e56aa	0.062094368
81	0x3dee579e	0.116378054
82	0xbdfd48f1	-0.12367428
83	0x3db8ef28	0.090299904
84	0x3dbcca3d	0.092182614
85	0xbdd7124e	-0.10501538
86	0x3c88d586	0.016703378
87	0x3ca50ef0	0.020148724
88	0xbd4b33c2	-0.049609907
89	0xbc76a134	-0.015053082
90	0xbd8296a4	-0.06376389
91	0x3c090466	0.008362865
92	0x3bb3a281	0.0054820185
93	0xbddbab63	-0.10726049
94	0xbde53076	-0.11190884
95	0xbe12c2f7	-0.14332186
96	0xbd83610e	-0.06414996
97	0x3d97b4d8	0.0740754
98	0x3e611af1	0.21982934
99	0x3ddda3d7	0.108222656
100	0x3d49cf03	0.049269687
101	0x3da0ca15	0.07851044
102	0xbdecc629	-0.115612336
103	0xbdadd0ae	-0.08487068
104	0x3c64bcaf	0.013961001
105	0xbe3118c5	-0.17294605
106	0x3c51dfd8	0.012809716
107	0x3e34fb97	0.17674099
108	0x3db9bb77	0.09068959
109	0x3e306215	0.17224915
110	0x3e264109	0.16235746
111	0xbe17ce93	-0.14824896
112	0xbe04025a	-0.12891522
113	0x3d0bacef	0.03410047
114	0xbe159052	-0.14605835
115	0x3e22c926	0.15897045
116	0x3db0a392	0.086249486
117	0xbe3a114f	-0.18170665
118	0x3d6b57db	0.057456832
119	0xbdc4e08c	-0.096131414
120	0x3dcff593	0.101542614
121	0xbe67e49a	-0.22645798
122	0x3e38ccde	0.180469
123	0xbe7d6c18	-0.24748266
124	0x3e487986	0.19577608
125	0xbb7756bc	-0.0037740907
126	0x3e17c269	0.14820255
127	0x3c4d6ffe	0.012538908
128	0x3ceb6742	0.02873576
129	0x3da1e2a5	0.07904557
130	0x3e10c294	0.14136726
131	0x3c118bbc	0.008883413
132	0x3dea5126	0.11441259
133	0xbda970cd	-0.08273468
134	0x3df7507d	0.12075899
135	0x3e443aa7	0.19162999
136	0x3c0c6408	0.008568771
137	0xbd940d55	-0.072291054
138	0xbdadb6e5	-0.0848215
139	0x3e2d2272	0.16907671
140	0xbda60c45	-0.08107809
141	0x3df173fc	0.117897004
142	0xbdaf2dc9	-0.08553655
143	0x3e099746	0.13436612
144	0x3dcf17fc	0.101119965
145	0x3e17a599	0.14809264
146	0x3db81f47	0.08990341
147	0x3e19f8eb	0.15036361
148	0xbda244e6	-0.079232976
149	0xbe132708	-0.14370358
150	0x3e08a103	0.13342671
151	0x3e2485ce	0.16066667
152	0x3d43efd1	0.04783613
153	0xbe004089	-0.12524618
154	0xbe07ca54	-0.13260776
155	0xbd77be34	-0.060484126
156	0x3c0306d3	0.0079972325
157	0x3e2ac5a9	0.16676964
158	0xbc8702a7	-0.016480757
159	0x3d8a9a97	0.06767767
160	0xbd9cc4b4	-0.07654706
161	0xbbc344eb	-0.0059591434
162	0xbcf4680a	-0.029834766
163	0xbdfca4e8	-0.12336141
164	0xbe2eef93	-0.17083578
165	0x3e390bfc	0.18070978
166	0xbdf7e10b	-0.121034704
167	0x3ccc2d72	0.024924014
168	0x3e15d904	0.14633566
169	0x3de16c77	0.11007016
170	0x3c6d7064	0.014492128
171	0x3cb6c709	0.022311704
172	0x3cd44078	0.025909647
173	0xbd30cf1e	-0.043166272
174	0x3e074870	0.13211226
175	0xbd0875ca	-0.033315457
176	0x3de08c30	0.10964239
177	0x3cdab4f9	0.026697623
178	0xbe178154	-0.14795429
179	0x3e3885ec	0.18019837
180	0xbe1aba3f	-0.1511011
181	0xbe3117f5	-0.17294295
182	0x3e01df67	0.12682877
183	0x3e209682	0.15682414
184	0x3e4f2d1c	0.20232052
185	0xbdcd561c	-0.1002619
186	0x3c455446	0.012044018
187	0x3d85de7f	0.065365784
188	0x3d015e50	0.031584084
189	0xbc11c6ba	-0.008897478
190	0xbda18b43	-0.0788789
191	0x3dce4075	0.10070888
192	0xbe0067d7	-0.12539612
193	0x3e3f9792	0.18710163
194	0x3e1aff8a	0.15136543
195	0xbd4a7971	-0.04943222
196	0xbe168645	-0.14699657
197	0xbe09b3ae	-0.13447449
198	0xbe3c7fce	-0.18408129
199	0x3d9ddb7c	0.07707879
200	0x3d09edaa	0.03367392
201	0xbdc8b8d2	-0.09800877
202	0xbd485c90	-0.0489164
203	0x3cc8a235	0.024491409
204	0x3dc5cb2f	0.09657895
205	0xbd91cc96	-0.071191
206	0xbd4b13de	-0.049579494
207	0xbd98e6b8	-0.07465881
208	0x3e04f262	0.12983087
209	0x3e115c9c	0.14195484
210	0x3d4cf4fa	0.050038315
211	0x3caa01b8	0.020752773
212	0x3dc058e7	0.09391957
213	0x3dcbb580	0.09946728
214	0x3e3c432c	0.18384999
215	0x3d09aa50	0.03360969
216	0x3e00cc2d	0.12577887
217	0xbddf9da4	-0.109187394
218	0x3dcdd0fa	0.10049625
219	0x3c82c43a	0.015962709
220	0xbe07ecba	-0.13273898
221	0x3dc4b420	0.096046686
222	0x3e17e33d	0.14832778
223	0x39f12c14	0.00045999943
224	0xbdaf0559	-0.08545942
225	0x3de1a82a	0.11018403
226	0xbe0dd94c	-0.13852423
227	0xbe3b6189	-0.18298925
228	0x3e108505	0.14113243
229	0x3dfa9e11	0.1223718
230	0x3d14d533	0.036336135
231	0x3ca91c1a	0.020643283
232	0x3dd1239b	0.10211869
233	0xbdbeef03	-0.093229316
234	0xbdc0efb5	-0.094207205
235	0x3d5fc222	0.0546285
236	0x3d970102	0.07373239
237	0xbd97f50b	-0.07419785
238	0xbdf78658	-0.12086171
239	0x3e006727	0.1253935
240	0x3c5b3eb4	0.013381649
241	0x3e1a78c3	0.1508513
242	0xbe4b1d85	-0.1983548
243	0x3dfdc390	0.12390816
244	0xbd6f0578	-0.058354825
245	0xbe06c5cc	-0.13161391
246	0x3e28f8f1	0.16501214
247	0x3e2e30eb	0.17010848
248	0x3dc7285f	0.09724497
249	0x3d68c64f	0.056829747
250	0x3dcc42e9	0.099736996
251	0x3d2bf9e6	0.04198637
252	0x3de33eb0	0.11095941
253	0x3e28c854	0.16482669
254	0x3da07c8b	0.07836255
255	0x3cd4792b	0.025936684

Network_stack.0.0.gru.bias_ih_l1 f4 [96]
0	0xbcff1a75	-0.031140545
1	0x3c961ced	0.01832434
2	0xbdca66cb	-0.098828875
3	0x3e3454a6	0.17610416
4	0xbce91b78	-0.028455481
5	0x3d903ad2	0.07042469
6	0xbd92b39f	-0.07163166
7	0x3e1e34cf	0.15449832
8	0x3a299628	0.00064692134
9	0xbdb5ce40	-0.0887723
10	0x3d707756	0.058707558
11	0xbe08a7d4	-0.13345271
12	0x3ccfd99b	0.025372317
13	0x3e2f2fec	0.17108124
14	0xbdd97ee0	-0.106199026
15	0x3c20d542	0.00981647
16	0xbd5946e6	-0.05304613
17	0x3b448d49	0.002999144
18	0x3c5360ba	0.012901479
19	0x3e36bc50	0.17845273
20	0x3d1e6825	0.03867354
21	0x3d011af6	0.031519853
22	0x3d9dfd4b	0.077143274
23	0xbd81a12a	-0.06329568
24	0x3e38df3f	0.18053912
25	0xbd9e821a	-0.07739659
26	0xbda93b6d	-0.08263288
27	0x3d0f46e1	0.034979705
28	0x3e2b0176	0.16699776
29	0x3d06ff5c	0.032958373
30	0x3e446ef6	0.19182953
31	0xbe262e4d	-0.162286
32	0x3d7b6ade	0.061381213
33	0x3ca66bfb	0.020315161
34	0xbe37ccad	-0.17949171
35	0x3d90eaf3	0.07076063
36	0xbcd1dea3	-0.025618857
37	0xbd15f423	-0.03660978
38	0x3d60a6dc	0.05484663
39	0x3b5c9e5d	0.0033663728
40	0xbca583ba	-0.020204414
41	0xbe501346	-0.20319852
42	0xbe78f794	-0.24313194
43	0xbe80a685	-0.25127044
44	0xbe1d5f19	-0.15368308
45	0xbe2d4a9e	-0.16922995
46	0x3d4fe0d8	0.050751537
47	0xbe73b834	-0.23800737
48	0x3daa8035	0.08325235
49	0x3d313e81	0.0432725
50	0x3d86b485	0.065774
51	0x3b589be2	0.0033051898
52	0xbe55ba61	-0.20871879
53	0xbe80e251	-0.25172666
54	0xbe036e0f	-0.12834953
55	0xbd4495f2	-0.04799456
56	0x3d8c48d9	0.06849832
57	0xbde18b00	-0.1101284
58	0xbe5a2f7c	-0.21307176
59	0xbdc21ca4	-0.09478119
60	0x3db70277	0.08936017
61	0xbe0ff0b1	-0.1405666
62	0x3df69998	0.120410144
63	0xbdf496a2	-0.119427934
64	0x3dc916f0	0.09818828
65	0x3db8d822	0.09025599
66	0xbb335b7c	-0.0027367761
67	0x3e0e5d88	0.13902867
68	0xbdf490b1	-0.1194166
69	0x3ce1793b	0.027523628
70	0xbe012ee3	-0.12615542
71	0x3dd6365f	0.10459589
72	0xbe2868fa	-0.16446295
73	0xbd356185	-0.044282455
74	0xbde0e351	-0.10980857
75	0xbe14a493	-0.14515905
76	0x3d94609c	0.07244989
77	0xbb4c4c7a	-0.0031173513
78	0x3e3df17d	0.18549152
79	0xbdc9b37a	-0.098486856
80	0xbdf9c2cb	-0.12195357
81	0x3cf0990a	0.02936985
82	0x3d34715b	0.044053417
83	0xbd00bc10	-0.03142935
84	0x3e3dc533	0.18532257
85	0xbe3b5fff	-0.18298338
86	0xbd932657	-0.07185047
87	0x3db67c3d	0.08910415
88	0x3dddc05c	0.10827705
89	0xbe29f61c	-0.1659779
90	0x3e4511de	0.19245097
91	0xbe434d99	-0.1907257
92	0x3e21ac4b	0.15788381
93	0x3b9b2c0d	0.004735476
94	0x3e2b8b39	0.16752328
95	0xbda465c2	-0.08027221

Network_stack.0.0.gru.bias_hh_l1 f4 [96]
0	0x3d8ca249	0.06866891
1	0xbd201325	-0.039080758
2	0xbdfae0a5	-0.12249879
3	0x3e404725	0.1877714
4	0x3e350fee	0.17681858
5	0x3cd3a197	0.025833888
6	0x3d219503	0.03944875
7	0x3d983fd9	0.07434053
8	0xbd56a931	-0.052407447
9	0x3e5798ae	0.21054336
10	0x3e035a41	0.12827398
11	0xbe22889a	-0.15872422
12	0x3e2d0b88	0.1689893
13	0xbd3ca318	-0.046053976
14	0xbde411eb	-0.1113623
15	0xbd1a8951	-0.03772861
16	0xbcdf576f	-0.027263371
17	0x3da580b3	0.08081188
18	0x3d294518	0.04132566
19	0x3e25aea8	0.16179907
20	0x3e0643c8	0.13111794
21	0xbd3a502d	-0.045486618
22	0x3d749e56	0.059721313
23	0xbcf86cb2	-0.030325267
24	0xbe0231ed	-0.12714358
25	0xbd2dc87a	-0.042427517
26	0x3e182a62	0.14859918
27	0x3d5c1b79	0.053737137
28	0x3d4fe267	0.050753023
29	0x3d99a04d	0.07501278
30	0xbd259537	-0.040425505
31	0xbd8c2321	-0.06842638
32	0xbe7f21d3	-0.24915247
33	0xbdda78b2	-0.10667552
34	0x3c561649	0.013066837
35	0xbd372d02	-0.044720657
36	0xbcf8a163	-0.030350393
37	0xbe3d0461	-0.18458702
38	0xbcf4dab1	-0.029889436
39	0xbd8245c1	-0.06360961
40	0x3c285256	0.010273537
41	0xbd237f9c	-0.03991662
42	0xbd04eec4	-0.032454267
43	0xbe5e19a0	-0.21689463
44	0x3d6ab4a3	0.057301175
45	0xbe239164	-0.15973431
46	0x3d9390c6	0.07205348
47	0x3daf33b4	0.085547835
48	0xbe76089c	-0.24026722
49	0x3df0f196	0.11764829
50	0xbdc23e34	-0.094845206
51	0x3d5f6587	0.054540183
52	0x3ddc19f9	0.107471414
53	0xbe650a63	-0.22367243
54	0x3c3f8a6d	0.011690718
55	0xbe8868ce	-0.2664246
56	0xbd0b5415	-0.034015734
57	0xbe48ae34	-0.19597703
58	0xbe7cd39f	-0.24690102
59	0xbe5d4658	-0.21608865
60	0x3d9ee8b0	0.07759225
61	0xbe0545b9	-0.13014878
62	0x3e1216b2	0.1426647
63	0xbe7c0d6c	-0.24614495
64	0x3be3a1ce	0.006946779
65	0xbdda4957	-0.1065852
66	0xbe20ac8c	-0.15690821
67	0xbc9c309d	-0.01906615
68	0xbe38efbf	-0.18060206
69	0x3e2a35b5	0.1662205
70	0x3e107482	0.14106944
71	0x3e416b00	0.18888474
72	0xbe3e2acf	-0.18571018
73	0xbe2e100f	-0.16998313
74	0xbdaf6e42	-0.08565952
75	0x3e396780	0.18105888
76	0xbdc5f76f	-0.09666335
77	0x3dbb0052	0.091309205
78	0x3e26b474	0.16279775
79	0x3d1d7e97	0.038450804
80	0xbe127f55	-0.14306386
81	0x3e20736e	0.15669033
82	0xbdae1a4a	-0.08501108
83	0x3e060536	0.13087925
84	0x3de920e2	0.11383225
85	0xbda8734c	-0.08225116
86	0x3e379382	0.17927364
87	0xbd05a5e9	-0.032628927
88	0x3df69336	0.12039797
89	0x3d86f7b0	0.065902114
90	0xbdfd208d	-0.12359724
91	0x3da6e1f5	0.08148567
92	0xbc0dd6d2	-0.008657174
93	0x3da7442a	0.08167298
94	0x3e146e73	0.14495258
95	0x3e0ed818	0.1394962

Network_stack.1.0.gru.weight_ih_l0 f4 [96, 2]
0	0xbcd9ed78	-0.026602492
1	0x3e7272d5	0.23676617
2	0xbd5d3873	-0.054008912
3	0x3e3ec9ac	0.18631619
4	0xbde994ed	-0.114053585
5	0xbe62dae4	-0.22153813
6	0x3d1d322f	0.038377937
7	0xbe1960c1	-0.14978315
8	0xbe1fb3b9	-0.15595903
9	0xbca3ea89	-0.020009296
10	0x3d3d89b1	0.04627389
11	0x3d3ccc65	0.046093363
12	0xbc37297e	-0.011179326
13	0xbe155c42	-0.14585975
14	0x3c594447	0.0132609075
15	0x3e399cbc	0.18126196
16	0x3dd2795e	0.10277055
17	0xbe594ad6	-0.21219954
18	0x3daff213	0.08591094
19	0x3e3f3876	0.18673882
20	0xbd57c071	-0.05267376
21	0x3bab93dc	0.005236132
22	0xbc9701eb	-0.018433532
23	0xbde7186c	-0.11283955
24	0xbc422c9c	-0.011851456
25	0xbdd3f3e8	-0.10349256
26	0x3dbd09d5	0.09230391
27	0x3e04d55e	0.12972018
28	0x3de97754	0.11399713
29	0x3e185c81	0.14879037
30	0xbc1e09d2	-0.009645896
31	0xbcb412a7	-0.02198155
32	0x3d9b946d	0.07596669
33	0x3cee0ef1	0.029059859
34	0x3db567db	0.088576995
35	0xbdaca843	-0.08430531
36	0xbd1b7a29	-0.037958298
37	0xbd4505ae	-0.04810112
38	0xbe2a6759	-0.16640987
39	0x3e6abda0	0.22923899
40	0x3db45a9e	0.08806346
41	0x3dd56671	0.1041993
42	0x3e21ec10	0.15812707
43	0x3d13f343	0.036120664
44	0xbdedd744	-0.11613324
45	0xbe0fd0f0	-0.14044547
46	0xbd43bb86	-0.04778626
47	0x3d88df97	0.066832714
48	0xbe26ecc8	-0.16301262
49	0xbc482455	-0.0122156935
50	0x3e491748	0.19637787
51	0xbe1712ee	-0.14753315
52	0xbe0fb3e2	-0.14033464
53	0x3e2c30fd	0.16815563
54	0x3d870cae	0.06594215
55	0xbdd14ae9	-0.10219366
56	0x3d8d4b40	0.068991184
57	0xbdd4764d	-0.103741266
58	0x3b443646	0.0029939576
59	0xbbcf4929	-0.00632586
60	0xbdc62d5a	-0.09676619
61	0x3dfa16d4	0.12211385
62	0x3d0e8a55	0.034799892
63	0x3ccc28de	0.02492183
64	0xbe27436c	-0.16334313
65	0xbd08881d	-0.033332933
66	0xbd01ab10	-0.03165728
67	0x3d53b5f2	0.05168719
68	0xbd52de5a	-0.051481582
69	0xbc66b82a	-0.014081994
70	0xbd710721	-0.05884469
71	0xbd980254	-0.07422319
72	0xbd801cde	-0.06255506
73	0x3dcd7211	0.10031522
74	0xbe127465	-0.14302213
75	0xbc9aaa52	-0.018880043
76	0x3d3a55ba	0.04549191
77	0xbdb18e63	-0.08669736
78	0xbc8de766	-0.017322253
79	0xbd77b9fe	-0.06048011
80	0x3d8e7c15	0.069572605
81	0xbcbb0fb8	-0.022834644
82	0x3d0eff10	0.034911215
83	0xbc9b13f2	-0.01893041
84	0xbe83cedc	-0.2574376
85	0xbe1d2ae3	-0.15348391
86	0xbd7bdea9	-0.061491642
87	0xbe6508c0	-0.22366619
88	0xbcf0b1d2	-0.029381666
89	0x3da810a7	0.08206301
90	0x3d8c24a0	0.06842923
91	0xbe36fe49	-0.1787044
92	0xbd23508b	-0.039871734
93	0xbdbbcb2e	-0.09169613
94	0xbe2a5983	-0.16635709
95	0x3d6cbf06	0.05779936
96	0xbd0a7d8b	-0.033811133
97	0x3cf284e6	0.029604387
98	0xbdc1e58b	-0.0946761
99	0xbcb6bf0d	-0.022307897
100	0x3d8e67dc	0.06953403
101	0x3de2214b	0.110415064
102	0xbe1080d1	-0.1411164
103	0xbd702473	-0.05862851
104	0x3e16670a	0.14687744
105	0xbd79fbf4	-0.061031297
106	0xbe30c63c	-0.1726312
107	0xbda62ec4	-0.081143886
108	0xbd4cc073	-0.04998822
109	0x3ca367c4	0.01994694
110	0xbe86bb98	-0.26314998
111	0xbe20ac90	-0.15690827
112	0x3e2ae266	0.16687927
113	0x3e3a4480	0.18190193
114	0x3dbd3eba	0.0924048
115	0x3d2582b2	0.040407844
116	0xbe19b9d4	-0.15012294
117	0x3e362143	0.17786126
118	0xbe821908	-0.25409722
119	0xbe05283d	-0.13003631
120	0x3d9087e3	0.07057168
121	0xbe0dd175	-0.13849433
122	0x3d777a21	0.060419206
123	0xbe3fd2ab	-0.18732707
124	0xbd1f72b3	-0.038927745
125	0xbe3ee509	-0.18642057
126	0x3dc7727f	0.09738635
127	0xbd3a6d09	-0.04551414
128	0x3d77adb1	0.06046838
129	0x3e688301	0.22706224
130	0x3dff31fe	0.12460707
131	0x3d9d1365	0.07669715
132	0x3de7cdb5	0.113185324
133	0x3e35021c	0.17676586
134	0xbe4f367f	-0.20235632
135	0xbe07b5f8	-0.1325301
136	0xbe254eb2	-0.16143301
137	0xbdc639ec	-0.096790165
138	0x3d975d67	0.07390862
139	0xbd804617	-0.062633686
140	0x3d84147a	0.06449218
141	0xbe2d8d4b	-0.1694843
142	0xbd06e7ff	-0.032936092
143	0xbe3e5972	-0.18588808
144	0xbe3ab21c	-0.18232006
145	0x3e2e77a4	0.17037827
146	0x3d2a2953	0.041543316
147	0x3e5ea88a	0.2174398
148	0xbcdcdfa0	-0.026962101
149	0xbe6d60de	-0.23181483
150	0x3da43cd2	0.08019413
151	0xbe4e4d20	-0.20146608
152	0xbbbb653c	-0.005718855
153	0xbd86960e	-0.065715894
154	0x3d86f7cd	0.06590233
155	0xbdfe395a	-0.12413283
156	0x3d95e624	0.073192865
157	0x3e10113d	0.14069076
158	0xbd958cd6	-0.07302253
159	0x3e33be22	0.17552999
160	0x3ddf6b5b	0.10909148
161	0x3e241741	0.16024496
162	0xbd6a59f5	-0.057214696
163	0xbe1027c4	-0.1407767
164	0x3de316ad	0.110883094
165	0xbe2148b5	-0.15750392
166	0x3c891790	0.016734868
167	0x3e7207ac	0.23635739
168	0x3d8dfa9e	0.06932567
169	0xbcbc85e0	-0.023013055
170	0xbcb7838c	-0.022401594
171	0x3e62991a	0.22128716
172	0x3c66d1c3	0.014088097
173	0xbc8f5279	-0.01749538
174	0x3c6a2a62	0.014292331
175	0xbe1b0b11	-0.1514094
176	0x3d4a3c40	0.049373865
177	0xbc7c6c5f	-0.015406697
178	0xbe0b99da	-0.13632908
179	0xbe450d5b	-0.19243376
180	0x3dc553db	0.09635135
181	0x3d828347	0.063726954
182	0x3e07ffa0	0.13281107
183	0xbe27c815	-0.16384919
184	0xbdafd952	-0.085863724
185	0xbe3b7ce3	-0.18309359
186	0x3daf3747	0.08555465
187	0x3e81462f	0.25248858
188	0xbe31e7a5	-0.17373522
189	0xbac33b21	-0.0014894941
190	0xbd435237	-0.047685828
191	0x3d88faed	0.06688485

Network_stack.1.0.gru.weight_hh_l0 f4 [96, 32]
0	0xbd812a95	-0.0630695
1	0xbe44b730	-0.19210505
2	0xbd8a841b	-0.06763478
3	0xbe1091a3	-0.14118056
4	0xbd7fc42c	-0.062442943
5	0xbc71416f	-0.014725073
6	0xbd39af5a	-0.045333244
7	0x3d0efdfe	0.034910195
8	0xbe3c9f3a	-0.18420115
9	0x3dd163e2	0.10224129
10	0x3dd3ba22	0.103382364
11	0x3d04713e	0.03233456
12	0xbe14107c	-0.14459413
13	0xbd842a77	-0.06453412
14	0x3e1dea95	0.15421517
15	0xbc33078e	-0.010927094
16	0x3e01fd6c	0.12694329
17	0x3d975806	0.07389836
18	0x3d6a7d7c	0.057248577
19	0x3e054e93	0.13018255
20	0x3d7fcdce	0.06245213
21	0xbd1d72da	-0.03843961
22	0xbd4e6454	-0.05038865
23	0x3a4a2631	0.00077113794
24	0x3d477628	0.048696667
25	0xbe0b6d2f	-0.13615869
26	0x3e1ce68a	0.15322319
27	0xbd618f28	-0.055068165
28	0x3db4e1d9	0.088321395
29	0x3d9d98e2	0.07695176
30	0xbd85ac0d	-0.06526957
31	0x3d8827e7	0.06648236
32	0xbd9c37b1	-0.0762781
33	0x3df03ecb	0.11730727
34	0xbd582049	-0.052765165
35	0xbd520848	-0.05127743
36	0xbe522314	-0.20521194
37	0x3dc73d8d	0.09728537
38	0xbe527aac	-0.20554608
39	0xbc7973fb	-0.015225406
40	0xbca98f3c	-0.020698182
41	0x3dd64f74	0.10464373
42	0xbe7221ae	-0.2364566
43	0xbd80af12	-0.06283392
44	0xbe25d466	-0.16194305
45	0xbdbd0078	-0.09228605
46	0x3cc4fbe3	0.02404589
47	0xbe00354a	-0.12520328
48	0xbbd06d07	-0.0063606533
49	0xbd0a18b5	-0.03371497
50	0x3dd47a07	0.10374837
51	0x3e079a08	0.13242352
52	0xbe150557	-0.14552818
53	0x3d7ac11c	0.06121932
54	0x3d8a53a1	0.06754232
55	0x3ca3c931	0.019993396
56	0x3c0c3960	0.008558601
57	0x3d31b7dc	0.043388233
58	0x3b86ee7e	0.004117786
59	0xbda4f0b1	-0.08053721
60	0xbdc52530	-0.096262336
61	0x3e1bb3fd	0.15205379
62	0x3d9c500d	0.07632456
63	0x3e34797f	0.17624472
64	0xbde30fa8	-0.110869706
65	0xbe3c5e7e	-0.18395421
66	0x3dffcdbe	0.12490414
67	0xbc3edba4	-0.011649046
68	0xbde12bd7	-0.1099469
69	0x3c998614	0.018740691
70	0x3db4d437	0.08829539
71	0x3d9e25af	0.07722031
72	0x3d99e1f2	0.07513799
73	0xbe6457f0	-0.2229917
74	0x3d53cf21	0.051711205
75	0xbcbe21bf	-0.02320945
76	0x3d220c7d	0.03956269
77	0x3d224dce	0.03962498
78	0xbdcff592	-0.10154261
79	0xbdccf70b	-0.10008057
80	0xbd57590e	-0.052575164
81	0xbbfa061f	-0.007630124
82	0x3d3649be	0.04450392
83	0xbd3f83cb	-0.046756547
84	0x3d916195	0.070986904
85	0xbe41e168	-0.18933642
86	0x3ccf98d8	0.025341436
87	0x3ddcff8b	0.107909285
88	0x3d645884	0.055748478
89	0x3e53ca3f	0.2068262
90	0xbe0c2c6f	-0.13688825
91	0x3e0d01bc	0.13770193
92	0xbe17d4bf	-0.1482725
93	0xbcd94937	-0.02652417
94	0x3dc473a3	0.095923685
95	0xbded0ed9	-0.115750976
96	0xbc787b45	-0.0151661085
97	0x3d3b01ef	0.04565614
98	0xbd85b47b	-0.065285645
99	0x3d42e22a	0.047578968
100	0x3da51ca0	0.080621004
101	0xbd52ae86	-0.05143597
102	0x3dafbe9f	0.0858128
103	0xbd53b53a	-0.051686503
104	0x3d647a46	0.05578067
105	0x3e2fcb0a	0.17167297
106	0x3d1c5bbe	0.03817343
107	0xbd572d25	-0.052533288
108	0x3d2a8ee2	0.04164017
109	0x3dad2e97	0.08456152
110	0xbd47667e	-0.04868173
111	0xbda8e1c5	-0.08246187
112	0xbe03eedb	-0.12884085
113	0x3d5f8a09	0.054575
114	0x3df01411	0.11722577
115	0x3e082e25	0.13298853
116	0xbe1531a3	-0.14569716
117	0x3c4b01f5	0.012390603
118	0xbdc28d9b	-0.09499665
119	0x3d359e43	0.044340383
120	0x3db917a1	0.0903771
121	0x3d34bd42	0.044125803
122	0x3dc8f8c7	0.098130755
123	0x3e320bb8	0.17387283
124	0xbd2393b2	-0.039935775
125	0x3da12fea	0.07870467
126	0x3d03b78d	0.03215747
127	0xbdedf15f	-0.116183035
128	0x3e0e1006	0.138733
129	0xbda1d32e	-0.079016075
130	0xbde9216a	-0.11383326
131	0x3dbe0e4c	0.09280071
132	0xbd3e9e3e	-0.04653763
133	0xbc9ab3ae	-0.018884506
134	0xbdb8e0bb	-0.09027239
135	0x3d4b17c0	0.049583197
136	0xbd74c067	-0.0597538
137	0x3db5a481	0.08869267
138	0x3dae56ad	0.08512626
139	0xbd759be9	-0.05996314
140	0x3e16ced7	0.1472734
141	0x3e0770b2	0.13226584
142	0x3d979427	0.07401305
143	0xbe243ca4	-0.16038758
144	0x3e09a9fa	0.13443747
145	0x3d1172a2	0.035509713
146	0x3dcc4ddb	0.09975787
147	0xbd8ad7ad	-0.06779418
148	0x3df74874	0.12074366
149	0xbd521f15	-0.051299173
150	0xbaf92e44	-0.0019010981
151	0x3e3e3c85	0.18577774
152	0x3de93b41	0.11388255
153	0xbcdeeb15	-0.027211705
154	0xbe286af5	-0.16447051
155	0xbdb1e677	-0.08686536
156	0xbcaac1a6	-0.020844292
157	0x3e23f43e	0.1601114
158	0xbda2fe52	-0.07958664
159	0xbe48a719	-0.19594993
160	0x3ccfb62a	0.025355417
161	0xbe089c4c	-0.13340873
162	0x3d324f28	0.04353252
163	0xbe1770c0	-0.14789104
164	0xbdb5753a	-0.0886025
165	0xbe36c5df	-0.1784892
166	0x3dfebce3	0.12438371
167	0x3c99b2ec	0.018762074
168	0xbd7583dd	-0.059940208
169	0xbe5cd3a7	-0.21565114
170	0xbc9c3055	-0.019066015
171	0x3e61f4e4	0.22066075
172	0xbc83933b	-0.016061416
173	0x3e672062	0.22570947
174	0x3e484c13	0.1956027
175	0xbd21f124	-0.03953661
176	0x3d5c8080	0.053833485
177	0x3e373a43	0.17893319
178	0xbd4fec87	-0.05076268
179	0xbda0911b	-0.07840177
180	0xbd15f9a5	-0.036615033
181	0x3ccfe541	0.025377871
182	0x3d986d75	0.07442752
183	0xbdeb29db	-0.11482593
184	0xbdbc0341	-0.09180308
185	0x3de4cf03	0.11172297
186	0x3c89d512	0.016825233
187	0x3e651aba	0.22373477
188	0x3e31aebc	0.17351812
189	0x3e057bd6	0.13035521
190	0xbdba2a80	-0.090901375
191	0x3e0b52c0	0.13605785
192	0x3dc62da8	0.09676677
193	0xbd8c7b1c	-0.06859419
194	0x3e22aae3	0.158855
195	0x3d9a9c4a	0.07549341
196	0x3e3f310f	0.18671058
197	0xbe1c1700	-0.15243149
198	0xbddcc4c5	-0.10779718
199	0x3dd7c5ed	0.10535798
200	0xbd3a3917	-0.0454646
201	0x3e0883c2	0.13331512
202	0xbe0cd111	-0.13751628
203	0xbd913f31	-0.07092131
204	0x3e2135ed	0.15743227
205	0xbdc92e60	-0.098232985
206	0xbdc491dd	-0.09598134
207	0xbe22fc4d	-0.15916558
208	0x3da1d21a	0.07901402
209	0x3da3ccb9	0.07998032
210	0x3dbb3ce5	0.09142474
211	0xbe4b62f3	-0.19861965
212	0x3e457367	0.19282304
213	0xbd863e01	-0.06554795
214	0x3df28a99	0.11842842
215	0xbdf896a5	-0.12138108
216	0xbd0abac7	-0.03386953
217	0x3dcf2fe7	0.101165585
218	0x3a1276e6	0.0005587175
219	0x3d477652	0.048696823
220	0xbe07b9cf	-0.13254474
221	0x3ddaceaf	0.10683953
222	0x3d16e7fc	0.03684233
223	0x3d430666	0.047613524
224	0xbd8e39b5	-0.069446005
225	0xbe039634	-0.12850267
226	0x3d750fe7	0.05982962
227	0x3d8e780d	0.069564916
228	0x3d6d7727	0.05797496
229	0x3de5eb01	0.11226464
230	0xbe4af8b7	-0.1982144
231	0x3dc0584d	0.09391842
232	0x3e1b0e0a	0.15142074
233	0x3e4d4d3a	0.20048991
234	0xbe106118	-0.14099538
235	0x3d91f16d	0.071261264
236	0xbe080c7d	-0.13286014
237	0xbe256516	-0.16151842
238	0x3dc04f38	0.0939011
239	0xbd572641	-0.052526716
240	0xbdba0707	-0.090833716
241	0xbde83edb	-0.11340114
242	0xbdd79213	-0.10525908
243	0xbbccb380	-0.006246984
244	0xbe006e2e	-0.1254203
245	0xbd8ab171	-0.067721255
246	0xbe4fcdbd	-0.20293327
247	0x3d10eefb	0.03538416
248	0xbc7b90e8	-0.015354373
249	0x3dd15eb3	0.102231406
250	0xbd2235cc	-0.039602086
251	0xbe0f09d6	-0.13968596
252	0x3cdfed76	0.02733491
253	0x3d9362d9	0.07196588
254	0xbd98e673	-0.0746583
255	0x3e1070a8	0.14105475

Network_stack.1.0.gru.bias_ih_l0 f4 [96]
0	0x3d0b9a8b	0.03408293
1	0x3db14c38	0.08657116
2	0x3ca062ab	0.019578299
3	0xbd886aa6	-0.066609666
4	0xbd5fe4da	-0.05466161
5	0xbce9e365	-0.028550813
6	0x3e18e16a	0.14929739
7	0xbb1ae78d	-0.002363655
8	0x3d809e4f	0.06280195
9	0xbd9c4b62	-0.07631566
10	0x3dd0cbcc	0.10195121
11	0xbdee34c1	-0.11631156
12	0xbe0af6fe	-0.13570783
13	0xbe1158fc	-0.14194101
14	0x3dc71953	0.09721627
15	0x3e3fd04c	0.18731803
16	0x3d29ccd2	0.041455097
17	0xbdcf5d45	-0.101252116
18	0xbdfe753e	-0.12424706
19	0xbc3e1084	-0.011600617
20	0x3d7de290	0.061983645
21	0x3d8e8b62	0.06960179
22	0xbe264e0f	-0.16240714
23	0xbddd5719	-0.10807628
24	0xbd72bfd4	-0.059264973
25	0x3e22be30	0.15892863
26	0xbd3cfc9c	-0.046139345
27	0xbe0f0907	-0.13968287
28	0xbe0801e5	-0.13281973
29	0x3da24dd2	0.07924999
30	0x3e62a02e	0.22131416
31	0xbd89d0a1	-0.06729246
32	0xbdcb0d43	-0.09914639
33	0xbc33fbbe	-0.010985313
34	0xbb44f5ca	-0.0030053728
35	0x3c24b8f1	0.010053859
36	0x3da55ad7	0.08073967
37	0x3d27cb70	0.040965497
38	0xbdc942d8	-0.098272026
39	0xbdf1a768	-0.11799508
40	0x3d6c39ea	0.05767242
41	0xbd2ddc05	-0.042446155
42	0xbbb573cc	-0.0055374857
43	0xbb5abec8	-0.0033377875
44	0xbd0177be	-0.031608336
45	0xbe64849a	-0.22316208
46	0xbe1ef522	-0.15523198
47	0xbb3f9087	-0.0029230432
48	0xbca85b75	-0.020551423
49	0xbe3b163b	-0.18270199
50	0x3e1d83be	0.15382287
51	0x3d1e5ebc	0.038664564
52	0x3d5c6d86	0.053815387
53	0xbe3f4ec4	-0.1868239
54	0xbd8b1f63	-0.06793096
55	0x3d71ebc9	0.059062753
56	0x3df006f3	0.117200755
57	0xbda28d39	-0.07937092
58	0xbe24fd9c	-0.1611237
59	0xbdd469a2	-0.1037171
60	0xbe09716a	-0.1342217
61	0xbd9b8b77	-0.0759496
62	0xbe48c367	-0.1960579
63	0x3dcd944e	0.100380525
64	0x3d2b0f7d	0.041762818
65	0xbe0b15bc	-0.1358251
66	0x3dadc950	0.08485663
67	0xbdc60bb7	-0.09670203
68	0x3c4648e1	0.012102337
69	0x3af66804	0.001879931
70	0xbd673398	-0.056445688
71	0xbe320034	-0.1738289
72	0xbe193869	-0.14962925
73	0xbe084e56	-0.13311133
74	0x3e3188e8	0.17337382
75	0x3ded5d28	0.11590034
76	0xbe337fe4	-0.17529255
77	0x3d5d758d	0.054067183
78	0x3c6c3959	0.01441797
79	0xbe3f293b	-0.18668072
80	0x3e2f87b0	0.17141604
81	0x3d9d4534	0.07679215
82	0xbe54a380	-0.20765495
83	0xbdce6edd	-0.10079739
84	0xbd70789e	-0.05870878
85	0xbdcba760	-0.099440336
86	0xbe25a688	-0.16176808
87	0xbd8cfed7	-0.06884544
88	0x3e1bbb81	0.15208246
89	0x3c6f9106	0.014621979
90	0x3d51ad08	0.051190406
91	0x3c51412d	0.012771887
92	0x3e3bf6b0	0.18355823
93	0x3d675be9	0.056484137
94	0xbda9d17a	-0.082919076
95	0x3e46a4aa	0.19398752
